bc_pid_best.pth (torch, 232261 bytes, 9 tensors)

trunk.0.weight f4 [128, 56]
000000 01 66 47 3f d3 e1 80 c0 b0 75 55 41 0e 32 ab 3f
       0.7789002 -4.0275664 13.341232 1.337465
000010 25 ba 04 be ad 1a e8 3d dd 2b ce 3d 71 c2 b1 3d
       -0.12961634 0.11333213 0.1006696 0.08679665
000020 e6 76 ee 3c 0d b6 9a 3d a3 1e 89 3d 67 da b8 bc
       0.02910943 0.07554255 0.066952966 -0.02256508
000030 dc 35 44 3d 29 a4 9d 3d a1 ba 01 be d8 ac c4 bd
       0.047902927 0.07697327 -0.1266885 -0.0960328
000040 1b 3a fa bd df 8c a2 3c 92 c2 c9 bd ac bc 01 be
       -0.12218114 0.019842563 -0.098515645 -0.12669629
000050 70 cf a0 bd e5 ea bd 3d 40 11 e2 bd dc 7c eb bc
       -0.078520656 0.09273318 -0.110384464 -0.028746061
000060 aa 67 ce 3d e3 49 34 bc d3 df 12 bc 64 68 a1 3c
       0.10078366 -0.011003944 -0.008964497 0.019703098
000070 a9 30 80 3d 3a e5 19 3e 41 a0 af 3c dd 93 07 3e
       0.06259281 0.15028849 0.02143872 0.13239999
000080 c9 61 2e 3e e9 2c df 3d 47 17 0d 3e df 04 07 3d
       0.1702949 0.10897238 0.13778411 0.03296363
000090 d0 68 d7 3d d1 a1 59 bc 96 cf 3f 3e b3 6f b1 bc
       0.10518038 -0.013283209 0.18731532 -0.021659708
0000a0 3d a5 6e bd be f8 bc 3d c1 16 8e 3d f1 d9 d7 3d
       -0.058263052 0.09227131 0.06937934 0.10539616
0000b0 1a 0a 20 be 1d ef ed bd 42 9e ff bd 7c b3 c1 bd
       -0.15628853 -0.11617873 -0.12481357 -0.09458062
0000c0 64 71 d1 bd 4b 51 0e 3e 0a 82 11 be 3c cc c3 3d
       -0.10226706 0.13898198 -0.14209762 0.09560439
0000d0 74 44 95 3d fe 5b d7 3d b5 e2 7d 3d f4 a3 e9 3d
       0.07288447 0.10515593 0.061983783 0.11408225
0000e0 f4 4d 0b 3f 85 89 6d c0 c6 10 62 41 85 ac e4 3f
       0.5441582 -3.7115185 14.129095 1.7865149
0000f0 26 51 f6 3e fb 6f a4 3d 79 17 01 be 6b ec 17 3e
       0.48108786 0.08029171 -0.1260661 0.1483628
000100 e9 fc 2f bc 85 63 f3 3d c4 67 a2 3d 2d cb 2c 3e
       -0.010741451 0.11884216 0.07929948 0.1687438
000110 f1 3e 82 bd 44 57 00 3d 4d 1f 69 bc 9d e3 11 be
       -0.06359661 0.031333223 -0.014228654 -0.14246984
000120 ba 57 ef 3d a2 ef 94 3a e9 91 b5 3d eb 7b b7 3a
       0.116866544 0.001136292 0.08865721 0.0013998722
000130 ab b6 31 3c 19 56 97 bc ca 73 3c bd e5 d2 d9 ba
       0.010846774 -0.018473672 -0.046008863 -0.0016618638
000140 85 c7 20 bd f6 1b ee 3d 90 0f b6 3d 2b ce 59 bd
       -0.039252777 0.11626427 0.08889687 -0.053175133
000150 e6 fa 3f 3e 6b 6e c3 bc bb 6a a5 3d 51 41 9d 3d
       0.18748054 -0.023856362 0.08076998 0.07678474
000160 33 4f d7 bd a9 f5 8e 3d 83 52 8b 3c 86 5c dd 3d
       -0.10513153 0.0698045 0.017007118 0.10808663
000170 22 9e d4 bc f2 0d e9 bd 57 71 f7 bd b6 2b c5 3c
       -0.02595431 -0.11379613 -0.12082165 0.024068695
000180 16 4c 5b bd 44 21 24 3d 30 ab bb 3d 75 b7 df 3c
       -0.053539358 0.040070787 0.09163511 0.027309159
000190 9c c7 1f bd a7 23 6d bd 25 a6 ac bc ce 6b 9e bd
       -0.03900872 -0.05789533 -0.021075318 -0.07735406
0001a0 f9 7f bc 3d bb 34 70 bd df 2d 9a bc e8 f5 01 3d
       0.09204096 -0.058644038 -0.018820701 0.031728655
0001b0 1f 02 31 3e 8a 2f 91 3d a8 82 24 bc f2 69 ca bc
       0.17285965 0.070891455 -0.0100409165 -0.024708722
0001c0 94 9d 24 bf 09 9c 88 40 dd 0f f6 c0 97 7e 4b c0
       -0.64302945 4.2690473 -7.6894364 -3.1796014
0001d0 a3 d6 0d c1 4e c6 9e be 42 ef 0d be 2b 55 39 bd
       -8.864902 -0.3101067 -0.13860801 -0.045247238
0001e0 5d 40 2d bd 39 74 6c 3b 1c e6 0b 3e 7c 3b 6a bd
       -0.04229771 0.0036080016 0.13661999 -0.057185635
0001f0 9a ac 35 bd 99 17 fb 3c 05 66 22 be ce f1 98 bd
       -0.04435406 0.0306509 -0.1585923 -0.074679956
000200 f4 31 39 be 22 cf 0b bd 97 ed 99 bb 08 fc 9d bd
       -0.18085462 -0.034133084 -0.0046975124 -0.07714087
000210 95 e7 b2 bd aa e3 05 be ea 04 5a be 11 c0 38 bd
       -0.08735577 -0.13075128 -0.21290937 -0.045105044
000220 45 c6 8d 3d 41 3e b9 3c b1 56 13 bd 5c 70 0f be
       0.069225825 0.022612693 -0.035971347 -0.14007705
000230 97 e2 0a bd 3f d1 06 bd 98 09 b0 3d a5 e5 19 be
       -0.0339075 -0.032914396 0.0859558 -0.15029009
000240 13 62 cb 3c c3 fa 27 be a6 66 0a be 74 46 07 be
       0.024827039 -0.16404252 -0.1351572 -0.1321047
000250 c6 74 1d 3d 4a 38 ef bc c2 07 a8 bd e7 a2 d9 bd
       0.038441442 -0.029201645 -0.08204605 -0.10626774
000260 82 c2 59 3d 23 5a a1 bc 03 e4 92 bd 44 b9 52 be
       0.053164013 -0.0196963 -0.07172396 -0.20578486
000270 41 f2 33 be 7c 99 d2 3d de 86 4a bc 10 ce 5f bc
       -0.17572881 0.10283181 -0.012361256 -0.013659969
000280 77 0a 70 3d 29 ae eb 3c ca a2 0e bd 7c 0d e9 3d
       0.05860373 0.02876957 -0.034823216 0.11379525
000290 2e 5f 39 bd 73 2d 9e 3c 03 de 8e bc 7a 05 da bd
       -0.045256786 0.019308781 -0.017439848 -0.10645576
0002a0 d6 2c 51 3f 1c ea 7c c0 d3 38 21 41 48 7f dd 3f
       0.8170904 -3.951789 10.076373 1.7304468
0002b0 0d 3b 18 c1 f9 17 64 3d c5 a1 be bd b9 8e 5d bd
       -9.514417 0.055686925 -0.09308199 -0.05409119
0002c0 d3 72 db bd 68 e6 37 bd 3a c0 6f bc ec c4 ce bd
       -0.1071526 -0.044897467 -0.014633233 -0.100961536
0002d0 0a 94 61 3d 4f ea 3d 3d ee 08 04 3e e3 63 3f bd
       0.05507282 0.046366032 0.12894031 -0.04672612
0002e0 9c 77 25 3c 22 c1 10 3d 99 0d 87 bb f0 bd 8e 3d
       0.010099318 0.035340436 -0.004121494 0.069698215
0002f0 82 47 5b ba 5e e1 16 3e 48 ea 9f 3d 8a 3a a4 bd
       -0.00083648425 0.14734408 0.078083575 -0.08018978
000300 91 00 2d bd 9d 18 03 be 23 3e 57 3d 82 61 b5 3c
       -0.04223687 -0.12802358 0.052549493 0.022141222
000310 7c 87 35 bd 26 1d d0 3b 32 31 6a bd 81 a5 c3 3d
       -0.04431866 0.006351131 -0.057175823 0.09553052
000320 42 5b 25 3e da ac d2 3d c2 f6 5b 3d df dc 89 3d
       0.16148093 0.10286875 0.053702123 0.06731581
000330 0f 47 9d 3d 14 bd 0d 3e 2b 2c ce bd 71 f3 60 3d
       0.07679569 0.13841659 -0.10067018 0.054919664
000340 2b 92 08 3e 58 1a 83 3c 8c b8 a4 3d ed 0f a8 3d
       0.13337009 0.016003773 0.08043012 0.082061626
000350 0f b0 5c 3c 2f a0 26 3c d4 e9 0e 3d cd 3f c7 3d
       0.01346971 0.010170027 0.034890965 0.09728966
000360 72 e6 57 bd 3a 4a 37 ba 02 50 89 bc c6 c4 58 3e
       -0.052710004 -0.00069919566 -0.016761784 0.21168813
000370 a9 7f 03 3e a0 21 5c bd bb 8b 0c 3d 93 2f d3 bc
       0.12841667 -0.053743005 0.034312945 -0.025779521
000380 94 90 7f 3c 83 fe 76 3f c7 2f 63 c1 de 07 01 3e
       0.015598435 0.96482104 -14.199164 0.12600657
000390 20 7b ac 3e 69 ee 97 bd 49 01 28 3c fe f2 c5 bc
       0.33687687 -0.0741852 0.010254213 -0.02416372
0003a0 3e 08 9b 3b 32 98 06 3d a1 27 5d bd 4a 14 03 3d
       0.004731207 0.03285999 -0.05399287 0.03200177
0003b0 8c ad c7 3d 8b 38 3e bd c7 83 09 3e 99 52 f7 3d
       0.09749898 -0.046440642 0.13429175 0.12076301
0003c0 c3 50 f0 bd 3f df 7d 3c 2a 6c 56 bc 46 45 7a 3c
       -0.11734154 0.015495121 -0.013087312 0.015275305
0003d0 dc e2 d8 3b d3 c5 a2 3c f5 93 00 be ac 3f 82 3d
       0.0066188406 0.01986972 -0.12556441 0.06359801
0003e0 8c dd a1 bc b8 58 48 bd 3c 7a 88 bd ae 52 4c 3d
       -0.019758962 -0.048912734 -0.06663939 0.049883537
0003f0 34 d5 7a bd 6e 8b c6 3d a9 cc 6c bd 85 ab 89 3d
       -0.061238483 0.09694563 -0.057812367 0.06722168

trunk.0.bias f4 [128]
000000 94 74 ff 3e 84 6d 03 40 8f 00 0b c1 91 84 00 c1
       0.4989363 2.0535593 -8.687636 -8.032365
000010 9d 65 d3 ba 19 3e 7d bf c4 fd 4e c1 d5 45 f3 c0
       -0.0016128306 -0.9892288 -12.9369545 -7.6022744
000020 0f 31 05 c0 a0 de 24 c0 11 fa 08 c1 59 96 10 40
       -2.0811193 -2.576088 -8.561051 2.2591765
000030 1b f6 5e c0 a7 f1 12 40 a1 11 e3 c0 62 32 1d c1
       -3.483771 2.2959993 -7.095902 -9.8248005
000040 17 38 f0 c0 cc 9d 9f 3f 26 95 27 c1 2e 88 43 be
       -7.506847 1.2470031 -10.473913 -0.19094917
000050 89 40 b6 3f b4 44 60 be 92 3e 97 3f 54 d3 12 c1
       1.4238445 -0.21901208 1.181597 -9.176594
000060 08 a3 10 c1 a3 12 1a c1 f8 ec 8d 3f c9 10 e6 c0
       -9.039803 -9.62955 1.1087942 -7.189549
000070 a3 01 fa c0 d2 b4 05 bf 91 20 83 3f 9b 6d d2 3f
       -7.8127 -0.52229035 1.0244313 1.6439699
000080 91 e1 d0 bf 3b be 0a c0 4b af d1 bf f3 85 fd bf
       -1.6318837 -2.1678607 -1.638162 -1.9806503
000090 99 1d 13 c1 27 2e 96 3e 66 bd a1 bf 32 7b 43 bf
       -9.194726 0.29332086 -1.2635925 -0.76359856
0000a0 60 72 1c 40 b4 f9 ee c0 c5 d6 09 3f 9f 8d 78 3d
       2.444481 -7.4679813 0.5384334 0.060681935
0000b0 fd df 06 c1 35 94 be bf 6c 25 d0 c0 2c c8 c0 bd
       -8.429685 -1.4888979 -6.504568 -0.0941318
0000c0 4a 7c a9 3f 5c 6b bf c0 fc 5a e1 c0 3b be 11 c1
       1.3241055 -5.9818554 -7.0423565 -9.108943
0000d0 0b 3c 16 c1 95 b3 01 c0 39 8d 7a be 72 92 bf 3f
       -9.389659 -2.0265858 -0.24467935 1.4966567
0000e0 17 00 cc 3e b5 04 12 c1 38 ba dc c0 c1 13 1b c0
       0.3984382 -9.126149 -6.897732 -2.4230807
0000f0 05 a6 74 bf 24 69 c3 bd 9d d3 16 c1 9d 38 06 c1
       -0.95565826 -0.09541538 -9.426663 -8.388822
000100 31 4b 14 40 aa 5e 1f c0 79 8e 14 40 2a a5 ab bf
       2.3170893 -2.4901528 2.3211958 -1.3409779
000110 75 58 25 c1 b0 f0 ab 3f e3 b6 53 40 f2 88 f5 bf
       -10.334096 1.3432827 3.3080375 -1.9182417
000120 29 cf a7 be b2 99 ba c0 11 b6 ca 3f c7 48 2d c0
       -0.32775238 -5.8312616 1.5836812 -2.707567
000130 0e 55 e1 3f 1f ce 85 3f ae 2d 83 c0 44 ff ca be
       1.7604082 1.0453528 -4.099326 -0.39647877
000140 58 6b 3a c0 5d 6c 47 c1 10 a9 14 c1 96 e3 56 bf
       -2.9128017 -12.463956 -9.291275 -0.8394102
000150 ba 16 09 40 b2 b1 15 c0 de e7 d7 bf 7a da 61 c0
       2.1420121 -2.3389707 -1.6867635 -3.5289598
000160 3d 1b c6 c0 16 76 6c c1 8c fc ca be 24 a8 6b 40
       -6.190825 -14.77883 -0.39645803 3.6821375
000170 27 d3 0b 40 e9 0e d6 3f 76 46 1d c1 44 b0 aa bf
       2.1847627 1.67233 -9.829702 -1.3335042
000180 32 cd 32 c1 71 24 96 c0 04 9c 05 c1 d2 8e fa c0
       -11.1750965 -4.6919484 -8.35059 -7.829934
000190 23 71 fb bf bd ff a3 c0 a7 7b 13 c1 4c 72 14 c0
       -1.9643902 -5.124968 -9.217689 -2.3194761
0001a0 20 45 37 bf 55 db 46 3f ce c4 47 bf d0 ae b8 3f
       -0.7158985 0.77678424 -0.78034675 1.4428349
0001b0 e7 e0 ba 3e bb 13 08 40 04 76 eb be e5 46 42 3f
       0.36499712 2.1262043 -0.45988476 0.75889426
0001c0 fe 60 52 c1 ef 29 03 c0 4f 03 f3 3f 36 1d 2e c1
       -13.14868 -2.0494344 1.8985385 -10.882132
0001d0 1b 3f 0b c1 6f ad c9 3f aa bc 23 c1 30 53 ea 3e
       -8.702907 1.5756053 -10.233561 0.45766592
0001e0 da 62 6d c0 18 09 3e 40 8b 91 69 3e bf e4 7c bf
       -3.7091584 2.969305 0.22809426 -0.9878654
0001f0 88 97 37 c1 65 96 43 c1 08 7c 2f c1 ba a4 f6 bf
       -11.474495 -12.224217 -10.967781 -1.926902

actor_layers.0.weight f4 [128, 128]
000000 ac be e9 3d 36 16 2c 3e e8 e9 47 be bb e4 aa be
       0.11413321 0.16805348 -0.19522822 -0.33377632
000010 36 31 95 3d 12 a3 d5 3d 3d ad 74 be 93 da 19 3d
       0.07284777 0.10431494 -0.2389421 0.037561964
000020 7f 88 57 be df d9 bb 39 e9 58 98 be b6 8b a0 3e
       -0.21048163 0.00035829746 -0.29755333 0.3135659
000030 83 66 0d 3d b3 51 a3 3e 88 a9 ed bd b6 57 b1 be
       0.03452159 0.3189827 -0.11604601 -0.3463723
000040 a9 3a 5f be 7b 31 b3 3d 26 35 fd bb 71 4c 69 3d
       -0.21799721 0.08749672 -0.007727283 0.056957666
000050 ac 14 ce 3d 1b a8 2e bd 1e 5c 00 3d 69 0f ef bc
       0.100625366 -0.042640787 0.03133785 -0.029182153
000060 0a 45 c9 be 7d 59 7e be 72 d5 1b 3d ad 3f 84 3d
       -0.39310485 -0.24838825 0.038045354 0.06457458
000070 7c 92 48 be f9 7c 28 bd 4b 85 cd 3e b8 f6 b5 bc
       -0.1958713 -0.04113481 0.40140757 -0.022212371
000080 62 5a 75 3d af 3d 15 be 52 be 47 3e 18 d1 50 3e
       0.05990065 -0.14574312 0.19506195 0.20392263
000090 a9 5e 03 bf f4 b1 24 be 43 8c d4 bd 6d 32 b7 be
       -0.51316315 -0.16083509 -0.10378315 -0.3578066
0000a0 db c9 ea 3e 5f 51 2a 3e cc 16 c2 3d d1 6f a6 3e
       0.45857129 0.16632603 0.094770044 0.32507184
0000b0 88 88 da bc ed 36 d7 bc c2 b4 65 3e bc 53 10 3d
       -0.026676431 -0.026271308 0.22432235 0.035236105
0000c0 a3 3d e3 3d 61 4b 0e 3d d2 ae 16 be 0c 8a 21 bf
       0.11095741 0.034739856 -0.14715126 -0.6310127
0000d0 d6 29 97 be 74 2d 30 3e 73 88 b0 3d 7c 2f 3c bd
       -0.29524106 0.17204839 0.086197756 -0.045943722
0000e0 06 d2 33 3e f3 70 65 3d 93 d7 ed be 60 ee e9 3d
       0.17560586 0.05601592 -0.46453533 0.114224195
0000f0 f7 bc 25 3e cb e9 2c be 91 b1 6a be 31 cd e0 bd
       0.16185366 -0.1688606 -0.22919299 -0.10976637
000100 a0 66 3a 3d 83 30 b1 bd 73 30 b4 3e 82 5a a7 bd
       0.045508027 -0.08651831 0.35193214 -0.0817156
000110 23 58 94 3e 87 c6 44 3e 0e a4 15 3f 60 9c 8d 3e
       0.28973493 0.19216357 0.5845345 0.27658367
000120 a6 8e 9c 3e 1d 64 86 bd 66 4b ce 3e 40 98 89 bd
       0.30577582 -0.06562064 0.402919 -0.067184925
000130 ea c4 97 bd 1b 14 65 3e ae 49 6c be e5 17 e9 bd
       -0.07410605 0.22370951 -0.23074982 -0.11381511
000140 01 37 24 3c a3 ef 6c be c4 b8 dd bd 44 eb 2b 3e
       0.01002288 -0.23138289 -0.10826257 0.16788965
000150 66 95 40 3e 40 c2 de bc 8b f5 91 bd 36 55 8e be
       0.18806991 -0.027192235 -0.07126912 -0.27799386
000160 c5 84 8a be cd 15 dd be b3 7d 06 3d d3 a5 59 3d
       -0.2705442 -0.43180695 0.03283472 0.053136658
000170 98 79 9f 3e 42 a1 e5 3d f0 51 77 be a0 ea 15 3e
       0.31147456 0.11212398 -0.2415235 0.14640284
000180 75 28 57 bd bb 2a 65 bd 6d 3a bc 3e e4 d4 04 3e
       -0.052528817 -0.055948954 0.36763325 0.12971836
000190 c4 97 d0 bc 5c 32 38 be 26 af fe bc 45 53 c1 3b
       -0.025462992 -0.1798796 -0.031089377 0.005899819
0001a0 51 7a ba 3d 34 4b 01 3e d3 b9 16 bc bf d0 0e 3d
       0.09105361 0.12626344 -0.009199577 0.034867045
0001b0 0b b5 84 3e 7c 38 a7 3e 41 eb 97 bc fa 94 40 bd
       0.25919375 0.32660282 -0.018544795 -0.047017075
0001c0 3a 28 08 be 9a c2 07 be 30 3c 11 3e 90 42 07 3e
       -0.13296595 -0.13257828 0.14183116 0.13208985
0001d0 12 28 bf be 62 2f 60 bc eb c5 ba be 65 79 13 3e
       -0.3733526 -0.013683172 -0.36479124 0.14401777
0001e0 0e 3a 90 3e 05 cb 81 3e 30 82 69 be ed bf fa 3d
       0.28169292 0.25350204 -0.22803569 0.12243638
0001f0 4c dd fc be 2f d7 dd be 19 1b fd 3d aa e1 ed bd
       -0.49387586 -0.43328235 0.12358684 -0.11615308
000200 cc 46 17 3d 34 27 f5 bd bf 63 fa bd 5f 32 9a 3d
       0.03693275 -0.11970368 -0.12226056 0.07529139
000210 4f ce 87 bd 87 d6 43 3d 86 e8 b0 bd 0a f3 eb bb
       -0.06631147 0.04781201 -0.086381 -0.0072006034
000220 38 9f 73 bd 3c 7a af bd 0b 62 d9 bd 59 73 fe bd
       -0.059478015 -0.08568236 -0.10614403 -0.124243446
000230 4f f3 1e be 31 7b aa 3d 00 84 fa bd f2 b0 5e bd
       -0.15522502 0.08324278 -0.12232208 -0.054367967
000240 7d 97 ac 3d 12 54 9b bd 3d fa cb bd 0a 09 42 3c
       0.084273316 -0.075843945 -0.099598385 0.011842975
000250 db 55 75 3c b9 d2 3e bc 35 70 ce 3d ca 4a da bc
       0.014974083 -0.01164692 0.100799955 -0.02664699
000260 ce 1d 1c 3d 97 17 46 bd b6 6a 96 3d 4d ec 2a bd
       0.03811436 -0.04836234 0.07344572 -0.04172926
000270 f9 58 30 bc 3b 35 bf 3c 10 f6 4b bc bd e4 25 be
       -0.0107634 0.023340812 -0.012448803 -0.16200538
000280 31 25 83 bc 8a 2e 18 be d5 48 28 bd 50 89 1a 3b
       -0.016008945 -0.14861503 -0.041085083 0.002358038
000290 6f d5 9c bd fe 20 b2 3d 0a 90 ea bd a2 3d 98 bd
       -0.07657897 0.08697699 -0.114532545 -0.074336305
0002a0 bb 32 05 bd d2 21 d9 bd f3 e1 84 bd bc 1b 7d 3c
       -0.032519083 -0.10602154 -0.06488409 0.015448507
0002b0 4c fa 19 3d 32 08 39 bd 0b ad a5 bd 41 3f 2e 3c
       0.037592217 -0.04517383 -0.08089646 0.010635198
0002c0 2f a2 d7 bd 0f 37 02 bd 48 be c9 3d f2 eb da bd
       -0.10528981 -0.03179079 0.098507464 -0.10689534
0002d0 03 d0 73 bd df 57 5f 3d 9a c6 29 3b a6 5f 55 3c
       -0.059524547 0.05452716 0.002590573 0.013023293
0002e0 f7 e6 25 3d e9 e8 30 be a7 a3 0a be 09 b4 c1 bc
       0.04050347 -0.17276348 -0.13538991 -0.023645418
0002f0 80 2c ba bd 8c 5d 0f be 33 af 18 3c 6f af 43 be
       -0.09090519 -0.14000529 0.0093191145 -0.19109891
000300 56 80 40 bd d8 8b 63 bd d3 bc a1 3c c1 0e d7 bd
       -0.04699739 -0.055553287 0.019743359 -0.10500861
000310 78 4f bd bd b6 b2 4a bd c9 e9 6a bd 35 0f 35 bd
       -0.09243673 -0.04948684 -0.05735186 -0.044203956
000320 8c 2d 20 3d 3b bf 5f bd 8e 6d f5 bd 2b 73 28 bc
       0.039105937 -0.05462573 -0.119837865 -0.010281364
000330 2f dc de bd 60 73 11 be dc fa cd bd 96 fd 25 3b
       -0.108818404 -0.14204168 -0.10057613 0.002532815
000340 81 e3 57 3d ec 1e 03 3a f7 89 5b 3b 29 7f e3 bd
       0.0527072 0.0005001861 0.0033498982 -0.11108238
000350 b5 26 8d 3d bb 59 dd bd b8 fe a7 bd 0f 55 15 bd
       0.068921484 -0.1080813 -0.082028806 -0.03645807
000360 e8 94 28 be 71 44 de bd 3b a7 aa 3c 0b 42 58 3b
       -0.16463053 -0.10852898 0.020831695 0.003299835
000370 bc 69 ee 3c e4 ef db bd d2 75 3c 3d 38 34 49 3b
       0.029103152 -0.10739115 0.0460108 0.003070129
000380 ce 24 e1 bd 04 70 ae bc bf e9 3a 3c e6 7f 18 bd
       -0.10993348 -0.021293648 0.0114082685 -0.03723135
000390 3b e0 83 bd 5b 46 c6 bc 81 5a 02 bd 2a 78 36 be
       -0.06439253 -0.02420347 -0.031824593 -0.17819276
0003a0 88 e8 fa bd 06 e6 59 be e7 03 05 be 49 4e 86 bd
       -0.12251383 -0.21279153 -0.1298977 -0.065579005
0003b0 7b ce 2a be 79 28 3d be 79 9e a8 3d 1b 65 5a 3d
       -0.16680329 -0.1847247 0.08233351 0.053319078
0003c0 5f 85 d4 bc c2 72 74 bd e0 16 8d bd df 89 ab bd
       -0.025942503 -0.059679754 -0.06889129 -0.08375906
0003d0 e2 ef 1d bd 9e f4 fa bd c0 17 30 be 41 9d e0 bc
       -0.03855885 -0.12253688 -0.1719656 -0.027418735
0003e0 5f 0d 26 3d 65 8a 23 be ad 21 6a bd 3a 33 ac 3b
       0.040540095 -0.15970762 -0.057161022 0.00525513
0003f0 a2 d1 c7 bd fe 03 1d be 5f d1 ad bd 30 8e e9 bd
       -0.09756781 -0.15333554 -0.084872 -0.11404073

actor_layers.0.bias f4 [128]
000000 20 b8 13 40 8c 03 b6 3d c3 2a c9 bf 7e c3 2b 3e
       2.308113 0.08887395 -1.5716175 0.16773793
000010 2d 1d 7a bf a2 38 5b be 25 ca 14 c0 05 42 29 bd
       -0.9770077 -0.21408322 -2.324838 -0.041322727
000020 73 5e c2 3e 9f ed 04 c0 77 08 14 3c 1b 90 e1 3f
       0.37962684 -2.0770032 0.009035221 1.7622102
000030 97 c6 4f be 81 ad a1 bd b1 cc 12 bf 07 b4 16 40
       -0.202906 -0.07894421 -0.57343584 2.354738
000040 3a 5c 42 bd 67 2f 42 be 9f 75 55 3f a0 50 04 be
       -0.047451235 -0.18963395 0.833826 -0.12921381
000050 8c e0 ff 3d 31 aa 90 be 9b 80 9f 3f c6 23 76 bd
       0.12494001 -0.28254846 1.2461122 -0.06009271
000060 4d ac f4 bd 85 29 89 3d 9f 68 5a be 29 9c d2 3f
       -0.11946926 0.06697372 -0.21328972 1.6453906
000070 fb 72 84 3e f8 56 1a bd 14 9e 50 3e 39 6e a9 bd
       0.25868973 -0.037680596 0.20372802 -0.082729764
000080 8f a9 6e bd 2c ba f7 3d 3a 15 03 bf 5a 77 3f bf
       -0.058267172 0.12096056 -0.51204264 -0.7479149
000090 33 17 00 3f 5c b2 20 3c 08 9a 09 bf 9f 14 4a 3f
       0.500354 0.009808149 -0.5375066 0.78937715
0000a0 cb 98 5d c0 ed 7d e9 c0 f3 ca 10 c1 35 a5 28 3f
       -3.4624507 -7.296622 -9.049548 0.65877086
0000b0 be 99 17 be 75 9c 0f bd 0b 2e 1d bd b9 ad c2 bd
       -0.14804742 -0.03506132 -0.038373988 -0.09505791
0000c0 73 54 48 bd cc 04 a8 bf 49 de 2d be 3f 07 97 bd
       -0.048908662 -1.3126464 -0.16979326 -0.07374429
0000d0 09 9e 15 bd bf fb b8 3f d1 c3 14 c1 af b4 99 bf
       -0.036527667 1.4451827 -9.297807 -1.2008265
0000e0 e1 6f 0b be 73 cc aa bd b3 eb 15 bd fe fb 3d bf
       -0.13616897 -0.08339777 -0.036601733 -0.74212635
0000f0 a7 74 8d 3f f9 64 a6 3b a3 71 00 bd c5 13 93 3e
       1.1051224 0.005077955 -0.031358372 0.2872602
000100 43 cc 05 bf 97 d1 11 3d 49 83 a5 3e 57 a3 ed 3f
       -0.52264804 0.03560027 0.32326725 1.8565472
000110 c3 c4 0c 40 4d 68 78 be ba 12 09 bd 34 5b 4f bd
       2.1995094 -0.24258538 -0.033465125 -0.050624087
000120 15 64 69 3f 6f 18 df be 5e c0 9a 3f 1f 98 de bd
       0.9116834 -0.4357333 1.2089956 -0.108688585
000130 d7 7f 96 3e 6a 15 9c bf 5f 3c 90 be aa a4 be bd
       0.2939441 -1.2194035 -0.2817106 -0.09308751
000140 d3 b6 71 3f 14 c4 94 be 69 dd cf bd b9 77 99 be
       0.9441959 -0.29055846 -0.101496525 -0.29974154
000150 31 03 de 3f 8f 2b cc bf 68 4c eb 3f a1 0c 88 3e
       1.7344724 -1.5950793 1.8382692 0.26572135
000160 81 d4 73 bb ae 19 9c bd f5 8c 62 bd b9 00 36 c0
       -0.003720552 -0.076220855 -0.05531021 -2.843794
000170 fb 96 31 3f e0 96 33 3c 3b d7 64 bf e9 ab 66 bf
       0.69371 0.010961264 -0.89390916 -0.90106064
000180 bf 33 12 bf ca 4c cc bf 90 76 03 40 52 8d 21 be
       -0.5711021 -1.5960934 2.0541115 -0.15776566
000190 f3 60 91 3f e7 a0 94 be 43 40 3b be 54 64 43 c1
       1.1357712 -0.2902901 -0.18286233 -12.211994
0001a0 74 26 b9 3f ea 79 03 3c 8e e6 43 bf 5a be 55 be
       1.446486 0.008024672 -0.76523674 -0.20873395
0001b0 b5 b0 a9 be d6 e2 e3 3b d1 10 04 bf 5c da d9 bd
       -0.3314263 0.006954531 -0.5158816 -0.10637352
0001c0 e5 77 17 bc 28 56 92 bd a4 70 b9 3f ff 8d 77 c0
       -0.009244894 -0.07145339 1.44875 -3.8680418
0001d0 70 dd be bd bf 1d 9f bd 5f 93 62 3f 54 6d 83 3f
       -0.093195796 -0.077693455 0.8850612 1.0267739
0001e0 4d 2a a4 bf 67 84 21 3f 1d 7d db bd c8 37 b0 3f
       -1.2825409 0.63092655 -0.10717223 1.3767023
0001f0 ef 87 8e 3f b8 cf 76 bc eb 27 3a bf 0c 5a 1a 40
       1.1135234 -0.015064172 -0.7271716 2.411746

actor_layers.2.weight f4 [128, 128]
000000 bb 99 80 3e fa 83 74 3c 8d b4 fa 3c f6 01 7f 3d
       0.25117287 0.014924044 0.030603671 0.06225773
000010 f8 55 05 be 22 43 49 3d 02 cb 0d 3d e1 38 c9 3d
       -0.13021076 0.04913629 0.03461743 0.09825302
000020 65 03 2d be 5b 75 da 3c 8b 43 06 be 85 25 15 3e
       -0.16895826 0.026667288 -0.13111703 0.14565094
000030 59 79 8e bd 65 d4 93 3e 6b 98 0c bd 85 ab 6d 3e
       -0.06956739 0.28872982 -0.034325045 0.23209961
000040 55 66 00 3d 57 a5 8d 3d 85 f8 c1 3d fb 98 bc 3d
       0.03134759 0.06916302 0.094712295 0.09208866
000050 3a a4 a2 bd 89 b5 ad 3d e1 ca fe 3e c1 7f 80 3d
       -0.0794148 0.08481891 0.4976416 0.06274367
000060 6a d3 bb bb eb c2 60 bd 6f 25 1f be 8e 47 87 3e
       -0.0057319896 -0.05487339 -0.15541624 0.2642178
000070 5f 44 84 bd 6a 29 bf 3d 8c 9e 21 bd 5a 5d ff bc
       -0.06458353 0.09334071 -0.039457843 -0.031172443
000080 e9 5c 9e 3d cb 83 84 3e a4 5e 90 bd 82 85 30 3d
       0.07732565 0.258818 -0.07049301 0.043096073
000090 ef fc 25 3e 4e f6 86 3d 30 cf c3 3d a1 5e 8c b9
       0.16209768 0.06589948 0.09561002 -0.00026773385
0000a0 8a 52 99 be d3 22 5a be a1 69 02 be 6b 42 c2 bd
       -0.29945785 -0.21302347 -0.12735607 -0.094853245
0000b0 0d 1b 1c bd 8d 89 c9 bd 36 15 3d bc f1 03 0c ba
       -0.038111735 -0.09840689 -0.011540702 -0.00053411635
0000c0 65 27 d3 3c c1 13 37 3e f8 cd 28 bd eb 56 bb 3c
       0.02577562 0.1787863 -0.041212052 0.022868594
0000d0 37 28 2d 3d 19 69 d4 3d 53 d5 5b be 1e 2e b8 3d
       0.04227468 0.10371608 -0.21468095 0.08993171
0000e0 d6 1f 7c bd 59 59 83 3d b6 de 67 3e 22 f0 7c 3e
       -0.0615538 0.06413526 0.22643551 0.24700978
0000f0 ee 98 05 be 5c 95 93 bd 62 b9 dd 3c f9 34 92 be
       -0.1304662 -0.072062224 0.027065936 -0.2855604
000100 65 23 f9 bd 98 5a 86 bd af 5a 4d be 60 c7 86 3e
       -0.12164954 -0.06560248 -0.20054124 0.26323986
000110 e2 d3 95 3e ab 79 2f be ee 42 2c 3d 84 1e 8b bd
       0.29263216 -0.17136256 0.042056017 -0.0679293
000120 3f 17 75 3e 76 cb 09 3d 66 c1 23 3e d4 ed 14 bd
       0.23934649 0.0336413 0.15991744 -0.036359623
000130 6a a0 53 bd 60 75 a3 3c 74 f6 dd bc 65 b5 66 bd
       -0.051666655 0.01995343 -0.027095057 -0.056325335
000140 8e b8 5c 3d 04 bb 2e 3b 22 ae 40 3d e3 ad 92 bd
       0.053886943 0.0026661763 0.047041066 -0.071620725
000150 3d fb 73 3e 52 f8 30 bd 75 f9 25 3c 45 63 77 be
       0.23826309 -0.043205567 0.010130276 -0.24158962
000160 45 97 b4 3c 44 0e bb 3d ba e4 a3 3c 62 41 22 bc
       0.022044787 0.0913358 0.020006526 -0.009903284
000170 8b fb 1a 3e 7f 61 8a bd 17 43 c9 bd fe 14 1e be
       0.15135019 -0.06756877 -0.098272495 -0.15437695
000180 91 bd 84 be 1e 7e 55 3d 69 f2 4f 3d 54 c6 85 3c
       -0.25925878 0.052122228 0.05076829 0.016329922
000190 de 03 e1 3d e4 d6 14 bd ff 71 ca 3d f8 86 3a be
       0.10987066 -0.03633775 0.09885024 -0.18215549
0001a0 81 cb 2c 3e 27 67 4e 3e fc c2 e1 3e b9 a0 62 bd
       0.16874506 0.20156537 0.44094074 -0.05532906
0001b0 3f ab 2a bd 6d cb 86 3d ae cb 94 be be 6e 74 3d
       -0.04166722 0.06581769 -0.29061645 0.059675924
0001c0 01 59 a6 bd 27 9a a9 bd ee 60 7f 3e 5d 57 94 bc
       -0.08122445 -0.08281355 0.2493932 -0.018108064
0001d0 60 29 09 bc 46 ce a6 3d 61 3d c9 3d 00 54 0b 3f
       -0.008371681 0.08144812 0.0982616 0.5442505
0001e0 45 47 b9 3e 55 0e 95 3d da 54 6f bd 26 be 49 3e
       0.36187187 0.07278124 -0.05843053 0.19701442
0001f0 25 b3 66 3e ff 0b fb 3c 23 85 75 3e a5 5c 86 3e
       0.22529276 0.030645369 0.23976569 0.26242557
000200 fe c2 72 be a5 0f d0 bd 2d a6 9b be e0 a1 9a 3e
       -0.23707196 -0.10159234 -0.3040022 0.30201626
000210 13 85 4d 3d 35 1e f6 3d d6 52 68 be 8a 2e 22 bd
       0.050175738 0.1201748 -0.2268785 -0.039595164
000220 b4 47 a6 3e 00 ff c7 bd 4c 1e 8e 3d 8f d0 8a bd
       0.3247658 -0.09765434 0.069393724 -0.06778061
000230 08 61 8f bd a4 3f b6 be 26 01 93 bc f7 9f 3c bd
       -0.07000929 -0.3559543 -0.017944884 -0.046050992
000240 c8 9d 06 bd 99 98 f7 3d 6e 37 19 be 2e c1 c5 3c
       -0.032865316 0.120896526 -0.14962551 0.024139967
000250 d6 e4 26 bd 19 62 e8 3c b8 35 cd 3e 1f 6c 8b bc
       -0.04074558 0.02836709 0.40080047 -0.01701933
000260 b8 91 89 be 11 4a 71 bc 59 c9 ea be 69 ec 49 3d
       -0.26868987 -0.014727131 -0.4585674 0.049297724
000270 70 e9 fa bd b3 ad e6 bb e8 6b d2 be 88 b2 60 bd
       -0.12251556 -0.0070397495 -0.4109795 -0.05485776
000280 94 4f 93 3d cb c4 cd 3d 5d aa 90 bc a5 30 f1 3b
       0.07192913 0.10047301 -0.01765936 0.007360535
000290 a9 9c 37 bd 02 58 67 3d dc 4a d5 3e 3c 96 c4 3d
       -0.044827137 0.056480415 0.41658676 0.095989674
0002a0 e0 b3 b5 bd 94 d0 1d be 9c bc 42 be ab e4 0c 3e
       -0.08872199 -0.15411597 -0.19017261 0.13759105
0002b0 aa e1 35 bd 96 c1 ff 3c 5a 9a b7 3d f0 f1 85 be
       -0.044404663 0.031220239 0.08964987 -0.26161146
0002c0 02 e1 c8 3d d1 d7 44 bf 8b 0c 81 3d 21 4d 2f 3d
       0.09808542 -0.7689181 0.063012205 0.042798165
0002d0 6f 63 be 3d df 1f 07 3e 8b 00 9f be 2e 0e 0c be
       0.09296309 0.13195752 -0.31055102 -0.13677284
0002e0 3d 65 de bd 1f 71 37 3d 6a 2c 21 3e 29 7e b7 bb
       -0.108591534 0.044785615 0.15739599 -0.0055997563
0002f0 24 42 13 be 8c 08 19 bd a3 21 74 ba 2e d0 c8 be
       -0.143807 -0.037361667 -0.00093128736 -0.39221328
000300 05 cb f1 bd ca 62 22 bc 25 0c 1e 3e 68 b0 70 bd
       -0.11806301 -0.009911248 0.1543432 -0.058761984
000310 a7 f4 72 bc 0e ce 07 3e e4 36 af 3c 37 e8 34 bd
       -0.0148288375 0.13262197 0.021388479 -0.04416677
000320 4b 6f 22 3e 32 28 2a bd 07 fc 0f 3e c2 04 13 bd
       0.15862767 -0.04154224 0.14060985 -0.03589321
000330 b5 97 33 3e 9c cf 96 be b6 48 82 bd ce bc e5 bb
       0.1753834 -0.29455268 -0.06361525 -0.0070110327
000340 0a 6c aa 3d f7 40 5b bd d3 96 fb 3c 7a e1 b3 3e
       0.08321388 -0.053528752 0.030711567 0.35132962
000350 6f f3 c7 bd d6 eb 04 bc d7 1f 7c 3e 67 73 1a 3e
       -0.09763228 -0.008112868 0.24621521 0.15083085
000360 5b 24 0e be 80 93 04 3c 5f 12 70 3d 1d 5d 68 bf
       -0.13881056 0.008091807 0.05861127 -0.9076708
000370 10 d1 86 3e 12 b1 58 3e 57 32 a1 3d cf 0c 08 bf
       0.26331377 0.21161297 0.0787093 -0.53144544
000380 90 5c 34 3d f1 35 7e 3c 8a 0d 1a 3f 3c 35 ce 3d
       0.044033587 0.01551579 0.6017691 0.100687474
000390 d0 cb a9 bd 2a cf 2f bd 62 c6 04 bd ef b4 ee bb
       -0.08290827 -0.042922176 -0.032415755 -0.0072847526
0003a0 7d c1 84 3e 1a 8e ee 3e 29 08 94 be ec 8c b4 bd
       0.2592887 0.4659279 -0.28912476 -0.08815941
0003b0 66 3d 24 3d b2 65 38 bd d6 cf 36 3d f4 e0 a2 bc
       0.040097617 -0.04501886 0.0446318 -0.019882657
0003c0 f6 d0 5e bd 84 62 43 3e 41 f1 b2 3c 0c 42 d1 3d
       -0.0543985 0.1908055 0.021843554 0.102176756
0003d0 13 6b ad 3d 9b 51 85 bd a1 36 81 3e e6 de b4 3e
       0.084676884 -0.06509706 0.2523699 0.35326308
0003e0 dc 25 07 3f f0 84 98 3d fe 96 36 bc 12 8e 25 3e
       0.52792144 0.07447231 -0.011144398 0.16167477
0003f0 01 a6 2a be dc 5c af be 87 e0 27 3d 3a 8f fb 3d
       -0.16664888 -0.34250534 0.04098561 0.12283178

actor_layers.2.bias f4 [128]
000000 d7 1d 49 3f 3d a1 24 3f 5e fc 20 be fd ff cc 3d
       0.78561157 0.6430853 -0.1572127 0.100097634
000010 d4 0b aa be 1a 1c 84 be 5f 56 31 bd 67 85 ce 3f
       -0.3321215 -0.2580269 -0.04329526 1.6134461
000020 92 b1 2d bf 70 a2 da 3e d3 f8 40 bd cd ab bc bd
       -0.67849076 0.42702055 -0.047112297 -0.09212456
000030 77 e2 5c be 62 92 69 bc eb e2 9d 3d a4 fa 85 be
       -0.21570764 -0.014256092 0.07709297 -0.26167786
000040 08 42 ba bd de 90 f6 bd 2c 2a a1 bd b7 bc b4 bd
       -0.09094626 -0.1203935 -0.07869372 -0.08825057
000050 89 12 ed be 71 af ae be 65 38 80 bc d6 2a 86 bc
       -0.46303204 -0.34118226 -0.015651891 -0.016377848
000060 71 fa 2f bd e2 81 5d 3c 54 f7 f3 bd 2c b1 ed bd
       -0.04296345 0.013519736 -0.119124085 -0.116060585
000070 20 b6 2a bb 80 c1 9a 3d 1b 5b 66 be 0b 19 c2 bd
       -0.0026048496 0.075564384 -0.22495691 -0.09477433
000080 c2 c7 15 3c d7 82 d2 bd fb 13 2e bd 19 1a 7c bd
       0.009141864 -0.10278862 -0.042499524 -0.061548326
000090 4e 68 79 bd 68 91 e4 bd 9a 96 4e bd 9c bf 43 3f
       -0.06089049 -0.111605465 -0.050436594 0.7646425
0000a0 7e 98 c7 3c ef 76 cb be a3 d8 a5 bd 7a e0 bb bd
       0.024364706 -0.39739177 -0.08097961 -0.09173675
0000b0 8a 70 b8 3a c5 e3 a8 bc 1c 2e 16 be d7 3d d6 bd
       0.0014071625 -0.020616421 -0.14666027 -0.10461014
0000c0 cf da 29 bf 7d ed c5 3f d7 a3 45 3d 39 bd 9c bc
       -0.663495 1.5463101 0.048251953 -0.019133197
0000d0 2f df 40 bd e9 b2 15 be fe 13 ef bd 44 bf fa bd
       -0.047087844 -0.1461903 -0.11673735 -0.12243512
0000e0 ba c4 08 be 03 db 40 bf 12 db 6d 3f 49 f4 07 3e
       -0.13356295 -0.75334185 0.929124 0.13276781
0000f0 46 a8 65 bb 48 30 ac bd 5d 92 09 3e 0e 6d 42 3d
       -0.0035042926 -0.084076464 0.1343474 0.047467284
000100 8c 67 74 be aa eb 82 be 0b cf a6 be ae 72 ce 3d
       -0.23867625 -0.25570422 -0.32579836 0.10080467
000110 31 78 0b bd 33 98 80 be e6 8d cf bd a2 c2 3c be
       -0.03405017 -0.2511612 -0.10134487 -0.18433622
000120 67 dc 6c be 33 ba a7 bd 81 68 da bc 79 9d d7 bd
       -0.23130952 -0.081898116 -0.02666116 -0.105280824
000130 1b cf c4 bd cf df b6 3c 69 b2 cf bd 51 d0 56 3d
       -0.09609815 0.022323517 -0.10141451 0.05244476
000140 ee 2f 93 be 7d 64 ac be 3e 52 2d 3c ea a9 15 be
       -0.28747505 -0.33670416 0.01057869 -0.14615598
000150 60 80 06 be 30 a4 85 3d c9 3b 69 be 8d 83 80 3d
       -0.13134909 0.06525457 -0.22776712 0.06275091
000160 3b f6 54 be fa ea 81 bd 18 de b9 3c 51 c9 32 be
       -0.20797054 -0.06343646 0.02268891 -0.17459609
000170 31 9e 8a 3c 4b 07 92 bd 21 71 21 bf 13 d0 e1 bd
       0.016921135 -0.07130297 -0.63063246 -0.11026015
000180 54 bb cd 3d ca ee 03 be e3 dc 18 be cd 2f 8b be
       0.10045496 -0.1288406 -0.14928012 -0.27184907
000190 2a ff 31 be a2 17 a6 bd c7 86 bd 3c 1c c8 23 be
       -0.17382494 -0.08109976 0.023135556 -0.15994304
0001a0 7c 56 8c bd 4a a0 ea be 05 10 19 40 2b de b5 bf
       -0.06852433 -0.45825416 2.3916028 -1.4208425
0001b0 1b c8 8b bc 42 00 e8 bd 45 5b 79 bd 46 51 87 3f
       -0.017063191 -0.11328174 -0.060878057 1.0571678
0001c0 f5 34 6a be 8c 16 d2 bd 9c ad be bc 4e 77 75 be
       -0.22871764 -0.10258207 -0.023276143 -0.23971292
0001d0 55 b7 19 3e 48 c9 b5 bd 7d b2 d6 3e fd 82 07 bb
       0.15011342 -0.08876282 0.4193305 -0.002067744
0001e0 d1 6b f7 bd c0 86 b6 3d f8 25 7d 3e d9 c7 00 bd
       -0.12081111 0.0891242 0.24721515 -0.03144059
0001f0 97 e9 9c 3f 5f 0c f6 bd 95 af 4f be df 44 74 bc
       1.2258786 -0.12014078 -0.20281823 -0.014908998

actor_layers.4.weight f4 [128, 128]
000000 83 43 d5 3c d7 76 a0 bd 5e 04 61 ba f3 64 d9 3d
       0.026033169 -0.07835167 -0.00085837196 0.10614958
000010 48 ae 5f be a2 4a fc bd 66 1e 62 3d f8 ac 71 bd
       -0.21843827 -0.123189226 0.05520477 -0.059002846
000020 b0 bf 54 bc 52 08 7b 3c 20 a3 4c 3c 9d 58 81 3d
       -0.012985155 0.015321808 0.012490064 0.0631573
000030 47 35 de bb a0 f9 b6 3c b5 95 fa bb 16 a2 51 bd
       -0.0067812535 0.022335827 -0.007647241 -0.051179968
000040 ad 73 aa bd 4b 95 16 3d 89 19 3b 3c 30 ff ea bc
       -0.08322845 0.03676347 0.011419662 -0.028686136
000050 bf 22 c8 bd 5a 61 9f 3d 5e 6a 78 bd 06 88 65 bd
       -0.09772252 0.0778224 -0.060648315 -0.056037925
000060 54 c2 b3 3d 0a db 92 bd 39 5d 48 3d 27 a7 1c 3d
       0.087772995 -0.07170685 0.04891703 0.038245346
000070 56 5d 98 3d 4a d4 a3 3c c1 fd 4f 3c ea 37 5e 3d
       0.074396774 0.019998688 0.012694777 0.054252543
000080 0a 41 3e bd d6 a6 cf bd c4 44 bf 3d 71 8f 98 bc
       -0.046448745 -0.10139243 0.09339288 -0.018623086
000090 3e a6 c8 3d 58 a9 d1 3d cc d4 85 bd e4 17 39 be
       0.09797333 0.10237378 -0.065347284 -0.1807552
0000a0 a4 a4 7d bd 05 73 a9 bd 8e e2 82 3d 18 2d e9 bc
       -0.06192459 -0.08273891 0.06390868 -0.028463885
0000b0 36 4c 4f 3d 2b ac fd bc 38 a6 0a 3d ad ad 78 3d
       0.05060979 -0.030965885 0.033849925 0.060712505
0000c0 85 e0 68 3d 69 1e 7d bc 26 8c 0b 3d 03 2e 10 3c
       0.056854744 -0.015449145 0.034069203 0.008800033
0000d0 cd 8f 29 3c f8 71 be bd b7 19 7f bd 32 4e 9e 3d
       0.010349226 -0.092990816 -0.062280383 0.07729758
0000e0 45 3b 13 ba dd 95 5e 3d 2f 4c 6b be 22 7f 51 bd
       -0.0005616437 0.05434214 -0.2297828 -0.051146634
0000f0 a1 25 90 bd 62 b8 14 bd f7 9f 35 3c d2 dd e1 bd
       -0.07038427 -0.036308654 0.011085502 -0.11028637
000100 ac e3 ca 3d 3d 06 af bc bb 18 61 bc 96 4a 01 3d
       0.09906706 -0.02136528 -0.013738806 0.03156527
000110 be cf 25 bd 6a ec 89 bd 7a d9 ba bc 8b e7 de bc
       -0.04048132 -0.067345455 -0.022808779 -0.027210018
000120 16 06 8a bd 0c 9e 0d bd 4f eb 4d 3c 09 7f 2c bd
       -0.06739442 -0.034574553 0.012568309 -0.042113338
000130 65 77 83 3d 5c 4c b1 bd e3 f6 c5 ba d8 e8 02 be
       0.06419257 -0.086571425 -0.0015103485 -0.12784135
000140 20 5b 34 bd d3 16 e1 bb 65 c5 89 be 82 62 58 3d
       -0.044032216 -0.006869176 -0.26908413 0.05282832
000150 ff 83 c4 3d c6 c0 f2 3c 7b ed b2 3d 44 60 aa bd
       0.09595489 0.029632937 0.08736702 -0.083191425
000160 52 e0 ce bb d7 4e 0b bd c2 05 80 bd 7b 1a 8c bd
       -0.006313362 -0.034010734 -0.06251098 -0.06840988
000170 a1 20 dd 3a ac 3f 02 bb 90 fe 97 bd 9f e1 33 bc
       0.0016870686 -0.0019874377 -0.07421601 -0.010979085
000180 da 06 0e bc 20 d0 86 3d 76 91 45 bd 3e ab 8e bd
       -0.008668626 0.065826654 -0.048234425 -0.069662556
000190 99 a4 d1 3c 60 b1 48 bc b5 bb e1 3c 23 ef 46 bd
       0.025591182 -0.012249321 0.027555326 -0.048567902
0001a0 e8 c0 6a bc 82 8f 06 be c1 66 2e be 52 a3 3e bc
       -0.014328219 -0.13140681 -0.17031385 -0.011635618
0001b0 9c 1a a1 bd c5 28 bd bd 9a 4f af 3b ed 3d 9a bc
       -0.078664035 -0.09236292 0.0053500654 -0.018828357
0001c0 71 64 20 bd 94 a2 f9 bc ee 19 b3 bd 7f 2a 0d 3a
       -0.03915829 -0.030473031 -0.0874518 0.00053850556
0001d0 ce 91 a7 bc 62 0c 18 3d 37 d4 b1 bc af 37 9d bd
       -0.020455267 0.037121184 -0.021707637 -0.076766364
0001e0 61 cf b5 3a 2b 3b 6e bd ab 2f 8e bd d3 4b 7b 3d
       0.0013871008 -0.058161896 -0.06942686 0.06135161
0001f0 8b 3f 7b bc 2a 53 ac bb f6 aa 21 bd 3d c4 ab 3d
       -0.015334974 -0.0052589374 -0.03946968 0.08387039
000200 6c 70 ba 3c 87 ce 51 be 64 da 9f bd 3e d4 f7 bd
       0.022758685 -0.2048894 -0.078053266 -0.12101029
000210 32 d9 3a be fc 1e 70 bd 87 50 95 3c 7f 9b 43 be
       -0.18246916 -0.0586233 0.018226875 -0.19102286
000220 ab b2 f2 bd 13 91 3b be d0 95 ad 3d 62 30 83 bd
       -0.118504845 -0.1831706 0.0847584 -0.06405713
000230 44 36 4f bd 47 72 ee bc 10 f3 da bb f0 ac 65 bc
       -0.05058886 -0.029107226 -0.0066818073 -0.014018282
000240 c9 a0 a5 3d c9 ff 03 3d c5 bf 81 bd 0f 78 67 3d
       0.08087308 0.032226358 -0.06335405 0.05651098
000250 54 7e ba bb 68 53 93 3c 77 f4 f0 bd 9a 5a 81 bd
       -0.005691329 0.017984107 -0.11765378 -0.06316109
000260 96 9a 53 3d cf c4 fc bc d9 bb ad bc 39 d8 2e 3c
       0.051661097 -0.030855564 -0.021207737 0.010671669
000270 82 21 28 bd c7 a8 91 bd ef 66 83 3c 4c 0d 9b bc
       -0.04104758 -0.0711227 0.016040293 -0.018927239
000280 db c7 7e bd c8 69 eb bc c4 6e 3d bd 3a 70 1d 3d
       -0.062202316 -0.028736964 -0.046248212 0.038437106
000290 e0 99 9e 3d cc ee 27 3d 97 f2 9f 3d a8 1e b0 be
       0.07744193 0.04099922 0.07809942 -0.3439839
0002a0 f4 a5 04 3d 4b b2 76 bd fd cc c9 bd 4c 4e 9e 3d
       0.032384828 -0.060228627 -0.098535515 0.07729778
0002b0 7a a1 74 bd e6 8b 54 be b7 09 89 3d 29 18 b1 3d
       -0.05972431 -0.20756492 0.06691306 0.08647186
0002c0 c6 0c ed bd 49 5c da bd 02 a3 85 bd 76 3c 53 3d
       -0.11574702 -0.10662133 -0.06525232 0.051571332
0002d0 ad 7d ea bd de 46 59 bd 5e 15 c0 bd 69 c2 c5 bd
       -0.11449752 -0.0530461 -0.093790755 -0.096562214
0002e0 3d 0f 29 bd 2e e4 13 bd 0d fc 8c 3d 91 94 8a bc
       -0.041274298 -0.03610628 0.06884012 -0.016916545
0002f0 3b a5 e7 3d 0c 3b 04 be 1e 2d 72 bd 5b 5f 28 bc
       0.11310812 -0.1291315 -0.05912506 -0.010276641
000300 8b b6 c4 bd c8 ef 1a bd 02 b0 ee bc 81 a3 17 3b
       -0.0960513 -0.03782633 -0.029136661 0.0023138227
000310 c5 ed ee bc 9b 64 36 bd 1e a2 40 3d 25 30 e6 bd
       -0.029166112 -0.04452954 0.047029607 -0.112396516
000320 31 f0 05 bd 4d 85 4e 3c f5 e6 22 3d d8 3b 31 bc
       -0.032699768 0.012605024 0.03977104 -0.0108174905
000330 e3 9f 21 3d df e4 82 bd ad db 16 bd e6 a4 15 be
       0.03945912 -0.0639131 -0.036830593 -0.14613685
000340 d3 1c 43 bd 4a 71 63 3d f7 97 a4 bd 4e 10 3a bd
       -0.04763491 0.055527963 -0.080367975 -0.045425706
000350 af 0e 09 bd 06 23 fe bc df 7d 88 3c 32 db 4e be
       -0.03346127 -0.03102256 0.016661583 -0.20200804
000360 93 c0 eb bc 88 a9 99 3d c5 77 b0 3d 80 67 96 bc
       -0.02877835 0.07503039 0.08616594 -0.0183599
000370 bb c9 5d bd 54 b6 71 bc 2d e8 38 3c 82 77 e8 bb
       -0.054147463 -0.014752943 0.011285824 -0.0070943246
000380 0d 11 11 3d 05 79 9a bc 1e bf 5d bd 89 17 c6 bc
       0.03541665 -0.018856535 -0.05413734 -0.024181144
000390 54 25 7c 3d a7 73 59 3d 5c 81 f3 3c 90 84 05 bc
       0.061559036 0.05308881 0.02972477 -0.008149281
0003a0 60 d6 0e 3d c7 e4 e6 bc e2 2e ad bd da 82 18 be
       0.034872413 -0.028185261 -0.08456208 -0.14893666
0003b0 c1 82 13 3e 2e b6 df bd ab 3d af bd a4 eb 87 ba
       0.14405347 -0.1092342 -0.08556684 -0.0010369909
0003c0 53 04 8a 3c b3 06 72 3c a2 0c 82 bc 3b c1 26 3e
       0.016847765 0.014772105 -0.015875164 0.16284649
0003d0 7e fa 94 b9 a5 0a 29 bc 1d a5 69 bd 89 41 19 bd
       -0.0002841539 -0.010317479 -0.05704223 -0.037416015
0003e0 ff 40 17 3c fe 73 5a bd ef 1e 0a 3d 83 0f 30 bd
       0.009231805 -0.053333275 0.033720907 -0.042983543
0003f0 ad 25 65 3d 82 6e 0c bd 2e 0f 53 3d e8 33 38 bb
       0.055944134 -0.034285076 0.05152815 -0.002810711

actor_layers.4.bias f4 [128]
000000 67 43 6b bf 2c ef 32 bf c5 d4 03 be 2e df ea be
       -0.9189972 -0.698962 -0.12874134 -0.45873398
000010 f8 ca a9 bc 50 c8 36 bf ce 63 9a bf 98 84 43 3d
       -0.020726666 -0.713994 -1.2061708 0.047733873
000020 d1 3c 09 bf 28 49 31 bf f4 4e 2a bf 05 3a 5e bf
       -0.53608423 -0.6925225 -0.6652672 -0.8680728
000030 b3 fe e6 be dd 99 c1 be 23 3b 2e bf 9e d3 95 bf
       -0.45116195 -0.378127 -0.68058985 -1.1705205
000040 f4 9a 80 bd ab 07 f5 be f0 90 9c bf 1d ef 5f bf
       -0.06279555 -0.47857413 -1.2231731 -0.8747423
000050 f4 e1 4e bf 2e af d0 3f 07 ff e8 bd cc 79 9e be
       -0.8081353 1.6303461 -0.113767676 -0.309523
000060 3c 56 0a 40 b7 99 ac be cf 8a 60 be 46 9c e4 bd
       2.1615133 -0.33711025 -0.21927951 -0.11162619
000070 42 c7 79 be d4 c6 c4 be d0 29 1a be e6 bb 8d be
       -0.24392417 -0.38432944 -0.15055013 -0.27682418
000080 c9 24 32 bf a4 15 53 bf bb 76 d4 be c8 92 58 bf
       -0.6958738 -0.82454896 -0.41496834 -0.8459897
000090 00 c9 23 3e d0 72 3e bf c5 ff 1f be c6 38 85 bd
       0.15994644 -0.7439394 -0.15624912 -0.06504969
0000a0 b5 da a4 bd 20 45 e5 be a5 fa da be 88 c0 86 bf
       -0.080495276 -0.447793 -0.42769352 -1.0527506
0000b0 fc 0f 07 3f 6c 19 96 be 70 ae 88 be 97 db ac be
       0.52758765 -0.2931627 -0.26695585 -0.33761284
0000c0 b7 db 87 bf 6f cd 87 bf 95 0d 66 bf de 4f 13 bf
       -1.0613927 -1.0609568 -0.89864475 -0.5754374
0000d0 ec 30 68 bf b4 c6 e2 be 2d 02 f4 bd fd 1a bf be
       -0.9069965 -0.44292223 -0.119144775 -0.37325278
0000e0 c7 86 7c be 27 ea b3 3e 6c 29 a4 be af 7d fa be
       -0.24660788 0.35139582 -0.32062852 -0.48924014
0000f0 7a 81 8e bd 90 10 19 bc 05 d4 05 3f 7b 7d a0 be
       -0.069582894 -0.009342328 0.5227664 -0.31345734
000100 ce 71 23 be fe e7 b0 be f0 c1 b1 be 39 e8 ab be
       -0.15961382 -0.34551996 -0.34718275 -0.3357561
000110 b4 69 02 bf 10 63 b9 be 74 75 0a bf 4f cb 08 bf
       -0.5094254 -0.3620839 -0.5408547 -0.53435224
000120 4c 4e fd be 06 89 62 3e 44 23 d1 be e1 98 87 3d
       -0.49473798 0.22122583 -0.40847218 0.06620956
000130 1d 50 e4 3d 9d 17 43 bd c0 39 6b bf 0f b4 0f bf
       0.11148093 -0.04762994 -0.91884995 -0.5613412
000140 da 3c 12 bf 18 e8 26 be 5c fc d5 be b5 e9 fc be
       -0.571241 -0.16299474 -0.41794097 -0.49397054
000150 98 2f f2 be 6c 6d cd bd 72 ba 80 be 05 58 c2 be
       -0.47301936 -0.10030636 -0.25142246 -0.3795778
000160 c4 dd ad be 76 36 7b be 84 cb f7 bc a8 89 26 bf
       -0.33958256 -0.24532494 -0.030248411 -0.65053797
000170 75 51 0f bf 94 ca 24 bf b4 d1 62 be 07 5a 7e be
       -0.5598367 -0.6437161 -0.22150308 -0.2483903
000180 d5 dc 8f be ee b2 d9 be 58 7c 53 be 2a 10 aa bf
       -0.2809817 -0.42519325 -0.20652902 -1.3286183
000190 80 3d 21 bf 6e 98 61 bf dd cd 84 bf e9 14 d9 be
       -0.62984467 -0.88123214 -1.0375324 -0.42398766
0001a0 f5 68 11 bf 2d cb 9d bf dd 55 86 bf f4 be 2c bf
       -0.56800777 -1.2327629 -1.0494953 -0.6747887
0001b0 f6 be 4f bf b2 ef ae bf 92 44 3a 3e 96 49 09 bf
       -0.8115076 -1.3666899 0.1819022 -0.5362791
0001c0 57 5c 36 3d 18 82 0f be 20 ee 53 be 9a 6a 1b be
       0.044521656 -0.1401447 -0.20696306 -0.15177384
0001d0 db 2b 9b be fa cb 24 bf 47 ad 46 be f9 7a 2b bf
       -0.30306897 -0.64373744 -0.19402038 -0.66984516
0001e0 75 1e 19 bf 34 d4 25 bf 5e d3 05 be 46 62 2f be
       -0.598121 -0.6477692 -0.13068911 -0.17127332
0001f0 28 13 56 bf 16 3a bc bd 1f c4 4b be eb 6c 1a 3e
       -0.8362298 -0.091907665 -0.19899033 0.15080611

actor_mean.weight f4 [1, 128]
000000 92 f5 ec 3c b7 c9 43 bd 7f f9 58 3c 1f 28 9b bc
       0.02892569 -0.047799792 0.013243078 -0.01894003
000010 cc ae d4 3b d3 cb 73 3d dc bd 54 3d a0 c9 39 3b
       0.006490564 0.059520554 0.051938877 0.0028348938
000020 ac e3 a5 3c f6 9a 5d 3c d7 ac 48 3b 9a d3 ae 3d
       0.020250164 0.013525715 0.0030620599 0.085364535
000030 7b 5f 19 bc 61 13 0b bc 56 b4 9c bc 02 07 3f 3d
       -0.009361143 -0.008488507 -0.01912896 0.046637543
000040 14 8a 06 bd 0e 29 08 3d 1b 44 ec 3c 57 d3 2c 3c
       -0.032846525 0.033242278 0.028841069 0.010548434
000050 e8 58 e4 bc ea dd 03 bc ce bb 8e bc dc 25 0d 3b
       -0.027874425 -0.008048514 -0.017423537 0.0021537459
000060 db 32 00 3c 2d c1 f6 3c 21 fd 15 bb 45 30 01 3d
       0.007824625 0.03012141 -0.0022886472 0.031540174
000070 c6 df 1d bb 1a 3f a6 3d 0f f9 40 3d a8 ca 16 bb
       -0.0024089678 0.081175044 0.04711252 -0.0023008976
000080 40 ca 6f bb 7a a7 48 3c a7 1b aa 3c b4 ad ea 3c
       -0.0036589056 0.012246961 0.020765139 0.028647281
000090 b9 1b 2c bd 59 a3 bf 3c a0 2f e1 bc 40 b1 a2 3a
       -0.042018626 0.02339332 -0.02748853 0.0012412444
0000a0 d6 fb 1a bd 58 f2 45 bc e4 68 4e 3d 9d 10 b0 3c
       -0.037837826 -0.012081705 0.050393 0.021492297
0000b0 bb 91 1f 3c b9 37 7e 3c 39 30 38 bb 25 0a 22 3c
       0.009739335 0.015516215 -0.0028104915 0.009890114
0000c0 17 2d 82 3b 56 d2 32 3b d5 c6 83 3c 8f 69 9c bc
       0.0039726603 0.0027286015 0.016086021 -0.019093303
0000d0 9f a5 c7 bc aa 53 1b 3b d5 a6 d9 3c 00 1f d8 3c
       -0.024370966 0.002370099 0.02656881 0.02638197
0000e0 18 7a da 3c 58 60 bf 3b 35 c4 06 3c 47 a7 da bc
       0.026669547 0.0058403425 0.00822549 -0.026691092
0000f0 e7 50 f4 3c 4e 92 75 3a 40 82 bd 3c 30 85 28 3c
       0.029823733 0.00093678094 0.023133397 0.010285661
000100 c8 a3 c9 3c 17 e6 a0 3b 97 56 01 3d 6f ad f5 3b
       0.02461423 0.0049102413 0.03157672 0.0074974815
000110 f5 3f db bb 7c b3 24 bc 14 f9 ca 3b 3a 3b 9b 3c
       -0.006690974 -0.010052558 0.006194243 0.01894914
000120 60 63 e2 3c e0 a4 32 3d 79 38 97 3b 50 4f 0f 3c
       0.027635276 0.04361427 0.0046148864 0.008746937
000130 e4 43 b6 bc 07 ef 67 bd 51 7a 5b 3c e6 64 3a 3d
       -0.02224917 -0.05662444 0.013395862 0.04550638
000140 a7 ee 19 3c 33 87 ba 3b 05 82 a9 bc 69 9f 01 3d
       0.009395278 0.0056923865 -0.020691881 0.031646166
000150 fa 25 14 3d 3d 8a 63 bc c0 60 78 bc 3c 1c 1d 3d
       0.03616903 -0.013887939 -0.015159786 0.038357005
000160 1d 6b 04 3c dd 75 83 bb 8e 4c e1 bb be 8d 2d bd
       0.008082178 -0.004011853 -0.006875581 -0.042371504
000170 e5 3d d4 bc 26 59 b1 bd cf 66 3b 3b f2 16 07 bc
       -0.02590842 -0.08659582 0.0028595214 -0.008245217
000180 4d d7 a9 bb 1c 0e d2 bc d3 b4 a4 bb b2 ca e2 bc
       -0.0051831366 -0.025641493 -0.0050264387 -0.027684543
000190 2d da be 3c c7 98 9e 3c 94 23 da bc ac 7e d0 bc
       0.023297394 0.01935996 -0.026628293 -0.025451027
0001a0 17 91 30 3d b4 e6 9e 3c 20 14 80 bc a0 20 14 39
       0.04310712 0.019397117 -0.015634596 0.00014126534
0001b0 6b de 07 3c 48 c1 1d bb 40 ee 1f bc 2d b2 dc bb
       0.008292775 -0.0024071503 -0.009761393 -0.0067351074
0001c0 2e d6 29 3c b6 9a a5 bc 97 20 23 3d 34 da 9c bd
       0.010366006 -0.020215373 0.039826002 -0.076588064
0001d0 8e 76 4c 3c 21 0a cc 3b 1f 2b d0 bc c9 4a 07 bc
       0.0124794375 0.0062267934 -0.025411187 -0.008257576
0001e0 02 1b 0a bd b7 73 03 bd b7 f2 0c 3d e3 14 c7 bc
       -0.033717163 -0.032092776 0.03441116 -0.024301952
0001f0 fd 11 72 bb e4 0f c0 3c c3 8a eb bb b9 5d 31 3c
       -0.0036936991 0.023445077 -0.0071881725 0.010825568
