bc_pid_checkpoint.pth (torch, 233445 bytes, 9 tensors)

trunk.0.weight f4 [128, 56]
0.6889561 -4.303096 15.168035 1.4622526 -0.0049233423 0.20521687 0.18339808 0.17123672
0.11927532 0.17021261 0.16109116 0.066882886 0.13335365 0.15545143 -0.058993023 -0.038142588
-0.073723376 0.057537574 -0.052760586 -0.08987907 -0.05381844 0.104188524 -0.11557642 0.003497025
0.12717825 0.0035640867 -0.005035229 0.014283849 0.049672138 0.13237837 0.00060406997 0.11408177
0.16094653 0.10165567 0.12821409 0.019685317 0.08551741 -0.036013238 0.1577829 -0.053707644
-0.09418129 0.05986613 0.04639226 0.09364005 -0.15284848 -0.10187815 -0.1051101 -0.07094523
-0.07407581 0.16759202 -0.10197072 0.1363999 0.10960247 0.13429463 0.07621293 0.11408225
0.68610775 -4.0027843 15.675928 1.704189 0.5750775 0.01595966 -0.20101498 0.07028161
-0.09443775 0.031279527 -0.010817275 0.18030019 -0.06530134 0.012185131 -0.056586836 -0.15160604
0.103275985 -0.02049974 0.051367987 -0.048209127 -0.051782265 -0.08734313 -0.11504138 -0.057895023
-0.11402496 0.04182518 0.005060816 -0.14443815 0.106770605 -0.10489316 0.0068045636 0.014094731
-0.14764735 0.052897245 0.009065066 0.1017817 -0.027276592 -0.1133477 -0.119577155 0.033497088
-0.03293702 0.06777997 0.124103606 0.06587099 0.0073312353 -0.008438866 0.027113264 -0.03524063
0.12182806 -0.044914663 -0.011418816 0.030375624 0.16764694 0.059053805 -0.026885878 -0.024708722
-0.6547415 4.8766837 -8.275014 -3.1473525 -10.482572 -0.24173693 -0.09148477 -0.0077358996
-0.008595055 0.035635196 0.15890954 -0.11347792 -0.105407804 0.02908713 -0.14841537 -0.0642271
-0.16794416 -0.022973832 0.008726883 -0.060856603 -0.06624818 -0.10384885 -0.18555064 -0.04604227
0.07488666 0.02688227 -0.024810132 -0.12011021 -0.016606405 -0.01410691 0.102960676 -0.13335876
0.041380256 -0.14604618 -0.11533304 -0.1060087 0.060528103 -0.015193021 -0.083581716 -0.10429848
0.05900435 -0.010946999 -0.06416326 -0.19966969 -0.1768208 0.09617326 -0.019089745 -0.019882234
0.04944258 0.0176835 -0.05016313 0.09608848 -0.067712344 0.020574355 -0.016214333 -0.10645576
0.7946697 -4.712333 11.267657 1.7022 -10.528387 0.06455953 -0.09087075 -0.05871657
-0.11419219 -0.05242877 -0.005554276 -0.06750701 0.081139006 0.08712945 0.15181185 -0.038220406
0.0035073329 0.015474009 -0.039029613 0.022053737 -0.055584673 0.08683254 0.0137515515 -0.14378822
-0.110552326 -0.19805673 -0.01760208 -0.045313828 -0.11023933 -0.05845135 -0.12547813 0.020053484
0.07767686 0.0057501346 -0.05716449 -0.05525787 -0.06159852 0.008086142 -0.24109006 -0.09050749
-0.01896136 -0.13553202 -0.06911455 -0.059998453 -0.11665529 -0.11432896 -0.0836265 -0.0136572365
-0.16013035 -0.10727401 -0.10522217 0.13323525 0.056399085 -0.12070612 -0.03002145 -0.025779521
-0.011246681 1.0638059 -15.601371 0.10913534 0.3109199 -0.046621222 0.011816352 -0.027078865
-0.0021087218 0.02471717 -0.08279397 -0.07952289 0.008546866 -0.09888261 0.11104667 0.06934478
-0.16080068 -0.0207912 -0.039998114 -0.008397641 -0.007776149 0.017949184 -0.11916284 0.035385527
-0.045952383 -0.0821082 -0.0976632 0.02708976 -0.09827265 0.062855095 -0.088351905 0.038676277
00000000: 6d5f 303f f6b2 89c0 45b0 7241 182b bb3f
00000010: fd53 a1bb 5f24 523e b5cc 3b3e ae58 2f3e
00000020: 9e46 f43d 374c 2e3e 15f5 243e e5f9 883d
00000030: dc8d 083e a92e 1f3e aba2 71bd 673b 1cbd
00000040: 48fc 96bd 85ac 6b3d 7c1b 58bd 8512 b8bd
00000050: b970 5cbd cb60 d53d 55b3 ecbd 582e 653b
00000060: 043b 023e 7493 693b 90fe a4bb ce06 6a3c
00000070: 0375 4b3d 328e 073e 735a 1e3a b4a3 e93d
00000080: 2bcf 243e d930 d03d 8e4a 033e 1a43 a13c
00000090: c023 af3d 9e82 13bd d791 213e 8cfc 5bbd
000000a0: 1fe2 c0bd 3036 753d cf05 3e3d 5bc6 bf3d
000000b0: 5084 1cbe 7ea5 d0bd f743 d7bd bc4b 91bd
000000c0: 0fb5 97bd 3e9d 2b3e 06d6 d0bd 6aac 0b3e
000000d0: 4377 e03d 8884 093e 8615 9c3d f4a3 e93d
000000e0: c2a4 2f3f cf16 80c0 9ad0 7a41 dd22 da3f
000000f0: 4738 133f d5bd 823c dfd6 4dbe ceef 8f3d
00000100: 9468 c1bd f61e 003d f13a 31bc 9da0 383e
00000110: b5bc 85bd 25a4 473c 99c7 67bd 9d3e 1bbe
00000120: 5c82 d33d 12ef a7bc 3d67 523d ef76 45bd
00000130: a419 54bd f4e0 b2bd d19a ebbd 5523 6dbd
00000140: eb85 e9bd e150 2b3d 34d5 a53b 98e7 13be
00000150: 8caa da3d 3ad2 d6bd d1f8 de3b 96ed 663c
00000160: de30 17be c8aa 583d a585 143c ed72 d03d
00000170: 2973 dfbc d722 e8bd dee4 f4bd 3e34 093d
00000180: f8e8 06bd 3ad0 8a3d 082a fe3d 5fe7 863d
00000190: dc3a f03b 2b43 0abc a31c de3c 7b58 10bd
000001a0: fd80 f93d 70f8 37bd fc15 3bbc 4dd6 f83c
000001b0: a4ab 2b3e 67e2 713d c63f dcbc f269 cabc
000001c0: 249d 27bf cb0d 9c40 7566 04c1 396e 49c0
000001d0: 9db8 27c1 e389 77be 5e5c bbbd 6e7d fdbb
000001e0: 46d2 0cbc 36f6 113d 2fb9 223e 1d67 e8bd
000001f0: 0ce0 d7bd 2248 ee3c 33fa 17be 7f89 83bd
00000200: 8ef9 2bbe 9e33 bcbc 33fb 0e3c c644 79bd
00000210: 20ad 87bd b5ae d4bd fd00 3ebe d296 3cbd
00000220: 2d5e 993d 3538 dc3c 9e3e cbbc 57fc f5bd
00000230: 280a 88bc ab20 67bc 0cdd d23d 338f 08be
00000240: 587e 293d 218d 15be bb33 ecbd 171b d9bd
00000250: 51ec 773d 26ec 78bc e42c abbd 719a d5bd
00000260: 8cae 713d 0b5b 33bc 0768 83bd 3676 4cbe
00000270: 8310 35be 7cf6 c43d 1962 9cbc 11e0 a2bc
00000280: 4e84 4a3d fddc 903c db77 4dbd 09ca c43d
00000290: c5ac 8abd 8d8b a83c ecd3 84bc 7a05 dabd
000002a0: 796f 4b3f 6fcb 96c0 5348 3441 b1e1 d93f
000002b0: 4674 28c1 c937 843d 721a babd c980 70bd
000002c0: 98dd e9bd 8dbf 56bd a500 b6bb 1e41 8abd
000002d0: 352c a63d ed70 b23d 9174 1b3e 008d 1cbd
000002e0: 48db 653b b386 7d3c 84dd 1fbd 0aaa b43c
000002f0: c1ac 63bd 42d5 b13d 304e 613c 383d 13be
00000300: 4269 e2bd 62cf 4abe 3d32 90bc fe9a 39bd
00000310: 28c5 e1bd af6a 6fbd 577d 00be 3447 a43c
00000320: 0c15 9f3d a06b bc3b 5025 6abd 1456 62bd
00000330: bb4e 7cbd bd7b 043c 50e0 76be fe5b b9bd
00000340: db54 9bbc e8c8 0abe ee8b 8dbd f0c0 75bd
00000350: f8e8 eebd 4d25 eabd 5f44 abbd 9ac2 5fbc
00000360: 36f9 23be 7ab2 dbbd b97e d7bd d26e 083e
00000370: ba02 673d c534 f7bd 8bef f5bc 932f d3bc
00000380: 0044 38bc cb2a 883f 379f 79c1 5982 df3d
00000390: e530 9f3e e5f5 3ebd 5f99 413c 7fd4 ddbc
000003a0: 7b32 0abb aa7b ca3c e38f a9bd e6dc a2bd
000003b0: 2708 0c3c f782 cabd 706c e33d a304 8e3d
000003c0: efa8 24be 4f52 aabc 10d5 23bd 4296 09bc
000003d0: 11cf febb 2b0a 933c a60b f4bd 6af0 103d
000003e0: 9138 3cbd 5828 a8bd a503 c8bd 58eb dd3c
000003f0: 2c43 c9bd 2cba 803d d8f1 b4bd 046b 1e3d

trunk.0.bias f4 [128]
0.6042072 2.2873206 -10.48857 -8.988669 -0.097846754 -1.0995972 -14.177329 -8.349228
-2.2491715 -2.92367 -9.551493 2.4552739 -3.5791833 2.5250518 -8.455344 -10.841784
-8.520861 1.4840277 -11.891956 -0.19056031 1.6429905 -0.1923056 1.1657176 -10.517345
-10.682737 -10.423573 1.1724497 -7.711666 -8.611938 -0.51290005 1.0453513 1.8829888
-1.6170813 -2.5027993 -2.1024513 -2.3382173 -10.005419 0.68809694 -1.4282877 -0.9234664
2.5405903 -8.411544 0.45856866 0.050410762 -9.587124 -1.5135379 -7.423017 -0.074180484
1.2555133 -6.1232247 -8.471255 -10.06969 -11.470474 -2.3764741 -0.16232951 1.6646881
0.45215142 -10.010046 -7.2612224 -3.07006 -1.1168382 0.16058186 -10.371689 -9.511446
2.5335064 -2.7384884 2.496287 -1.5736598 -11.123987 1.4591095 3.5183365 -2.0548491
-0.18966605 -7.8000917 1.7284191 -2.940928 1.7807292 1.1243124 -5.0517225 -0.28932312
-3.4671063 -13.694033 -10.787158 -1.0641911 2.4103143 -2.5996392 -1.8501351 -3.7731192
-6.792828 -16.696152 -0.4206612 4.0805683 2.3138506 1.8456564 -10.887562 -1.8970731
-12.7243805 -5.499224 -9.448116 -8.749661 -2.0423484 -6.8046293 -10.175347 -2.88959
-0.9656163 0.9257239 -0.9851719 1.6744126 0.37948138 2.2910984 -0.46142155 0.9122057
-14.945028 -1.9670852 2.117657 -12.488155 -9.7008505 1.7972165 -11.852983 0.33332232
-3.9195082 3.3336246 0.2560712 -1.2829404 -12.056641 -13.872313 -12.516657 -2.526104
00000000: 53ad 1a3f 7663 1240 2fd1 27c1 97d1 0fc1
00000010: e163 c8bd 9abf 8cbf 57d6 62c1 7096 05c1
00000020: 6df2 0fc0 691d 3bc0 ead2 18c1 3523 1d40
00000030: 5711 65c0 739a 2140 1749 07c1 f277 2dc1
00000040: 7255 08c1 9ff4 bd3f 7445 3ec1 3e22 43be
00000050: 834d d23f c2eb 44be 3c36 953f 0c47 28c1
00000060: 7eec 2ac1 f4c6 26c1 d512 963f f8c5 f6c0
00000070: 80ca 09c1 6b4d 03bf 12ce 853f c705 f13f
00000080: 85fc cebf dd2d 20c0 908e 06c0 5aa5 15c0
00000090: 3216 20c1 1f27 303f 22d2 b6bf 4b68 6cbf
000000a0: 0899 2240 af95 06c1 83c9 ea3e 847b 4e3d
000000b0: dc64 19c1 9cbb c1bf 5b89 edc0 f0eb 97bd
000000c0: a9b4 a03f 75f1 c3c0 438a 07c1 731d 21c1
000000d0: 1087 37c1 2718 18c0 b539 26be 8014 d53f
000000e0: 6480 e73e 2629 20c1 ef5b e8c0 dd7b 44c0
000000f0: 8ef4 8ebf 926f 243e 70f2 25c1 e22e 18c1
00000100: f824 2240 6543 2fc0 2bc3 1f40 af6d c9bf
00000110: dafb 31c1 1ac4 ba3f 6d2c 6140 a682 03c0
00000120: d137 42be 5a9a f9c0 d63c dd3f 2a38 3cc0
00000130: efee e33f 78e9 8f3f b6a7 a1c0 2922 94be
00000140: 12e5 5dc0 c21a 5bc1 3398 2cc1 6a37 88bf
00000150: 9742 1a40 7d60 26c0 3ad1 ecbf c97a 71c0
00000160: d95e d9c0 b891 85c1 e860 d7be 0494 8240
00000170: 2116 1440 783e ec3f 7433 2ec1 4bd3 f2bf
00000180: 1097 4bc1 a5f9 afc0 7c2b 17c1 9dfe 0bc1
00000190: d6b5 02c0 86bf d9c0 39ce 22c1 0bef 38c0
000001a0: a132 77bf 3efc 6c3f 3a34 7cbf 2753 d63f
000001b0: 624b c23e 5ba1 1240 723f ecbe 5086 693f
000001c0: d61e 6fc1 73c9 fbbf b187 0740 7ccf 47c1
000001d0: af36 1bc1 310b e63f d2a5 3dc1 39a9 aa3e
000001e0: 39d9 7ac0 1b5a 5540 c41b 833e 6437 a4bf
000001f0: 00e8 40c1 fef4 5dc1 3a44 48c1 b0ab 21c0

actor_layers.0.weight f4 [128, 128]
0.0319462 0.26751852 -0.18118499 -0.21537039 0.08898328 0.1975571 -0.25479883 0.15551813
-0.227322 -0.0130634 -0.39211735 0.3881668 0.10220832 0.34714302 0.058992416 -0.39422587
-0.101121515 -0.042997718 -0.009348889 0.20978189 0.05022101 -0.17214176 0.14573683 -0.036842607
-0.35193792 -0.3062973 0.058979925 0.08492856 -0.122843504 -0.022481553 0.3814003 0.005712056
0.08745204 -0.13999493 0.26275808 0.15711279 -0.48450065 -0.15086828 -0.025564494 -0.3832042
0.5033826 0.16494055 0.1862543 0.3196994 -0.01218265 -0.11590507 0.25072828 0.14765279
0.24709776 0.055052686 -0.18843676 -0.6957532 -0.27857706 0.24095404 0.12572086 -0.028532902
0.21573019 -0.033743292 -0.385196 0.16508135 0.21270852 -0.13626389 -0.1615143 -0.2070718
0.054685745 -0.05012577 0.3480318 -0.02953345 0.26205617 0.23234172 0.6438927 0.20348503
0.34717464 -0.105588906 0.4566724 -0.17718042 -0.14629574 0.2641977 -0.09381021 -0.116565
0.12939858 -0.20290539 -0.12743048 0.2152102 0.18566327 0.044734403 0.015807256 -0.2636366
-0.24373733 -0.40276146 0.08653393 0.056164164 0.341417 0.13167687 -0.26722774 0.1984991
-0.048828285 -0.035775322 0.29063547 0.11174518 0.06917725 -0.1329757 -0.09033359 0.031228315
0.09991557 0.17685203 -0.111143544 0.1234798 0.28077963 0.34452492 0.03248389 -0.053597577
-0.1880862 -0.12899496 0.12288507 0.054609433 -0.34259337 -0.07757639 -0.2787293 0.09977423
0.25216764 0.27457193 -0.20014462 0.13464436 -0.49927118 -0.4234556 0.10984178 -0.011226249
0.03693275 -0.11970368 -0.12226056 0.07529139 -0.06631147 0.04781201 -0.086381 -0.0072006034
-0.059478015 -0.08568236 -0.10614403 -0.124243446 -0.15522502 0.08324278 -0.12232208 -0.054367967
0.084273316 -0.075843945 -0.099598385 0.011842975 0.014974083 -0.01164692 0.100799955 -0.02664699
0.03811436 -0.04836234 0.07344572 -0.04172926 -0.0107634 0.023340812 -0.012448803 -0.16200538
-0.016008945 -0.14861503 -0.041085083 0.002358038 -0.07657897 0.08697699 -0.114532545 -0.074336305
-0.032519083 -0.10602154 -0.06488409 0.015448507 0.037592217 -0.04517383 -0.08089646 0.010635198
-0.10528981 -0.03179079 0.098507464 -0.10689534 -0.059524547 0.05452716 0.002590573 0.013023293
0.04050347 -0.17276348 -0.13538991 -0.023645418 -0.09090519 -0.14000529 0.0093191145 -0.19109891
-0.04699739 -0.055553287 0.019743359 -0.10500861 -0.09243673 -0.04948684 -0.05735186 -0.044203956
0.039105937 -0.05462573 -0.119837865 -0.010281364 -0.108818404 -0.14204168 -0.10057613 0.002532815
0.0527072 0.0005001861 0.0033498982 -0.11108238 0.068921484 -0.1080813 -0.082028806 -0.03645807
-0.16463053 -0.10852898 0.020831695 0.003299835 0.029103152 -0.10739115 0.0460108 0.003070129
-0.10993348 -0.021293648 0.0114082685 -0.03723135 -0.06439253 -0.02420347 -0.031824593 -0.17819276
-0.12251383 -0.21279153 -0.1298977 -0.065579005 -0.16680329 -0.1847247 0.08233351 0.053319078
-0.025942503 -0.059679754 -0.06889129 -0.08375906 -0.03855885 -0.12253688 -0.1719656 -0.027418735
0.040540095 -0.15970762 -0.057161022 0.00525513 -0.09756781 -0.15333554 -0.084872 -0.11404073
00000000: 05da 023d 30f8 883e 8f88 39be 0e8a 5cbe
00000010: de3c b63d 694c 4a3e fe74 82be 2540 1f3e
00000020: 19c7 68be df07 56bc 9bc3 c8be ccbd c63e
00000030: 9852 d13d bbbc b13e 08a2 713d f9d7 c9be
00000040: cc18 cfbd 601e 30bd 152c 19bc 10d1 563e
00000050: 8cb4 4d3d ee45 30be 093c 153e 46e8 16bd
00000060: 3531 b4be 00d3 9cbe ef94 713d 06ef ad3d
00000070: 6095 fbbd 3c2b b8bc e646 c33e 332c bb3b
00000080: 0e1a b33d d55a 0fbe 3a88 863e 2de2 203e
00000090: 7810 f8be 377d 1abe a16c d1bc 5733 c4be
000000a0: afdd 003f 2de6 283e 72b9 3e3e a4af a33e
000000b0: bd99 47bc a35f edbd 755f 803e 4b32 173e
000000c0: 3207 7d3e ed7e 613d 91f5 40be e21c 32bf
000000d0: a7a1 8ebe a8bc 763e f8bc 003e d5bd e9bc
000000e0: 60e8 5c3e 6836 0abd 6938 c5be 160b 293e
000000f0: 43d0 593e c388 0bbe 0164 25be a10a 54be
00000100: 29fe 5f3d ae50 4dbd 3931 b23e 22f0 f1bc
00000110: 3a2c 863e fdea 6d3e 27d6 243f 615e 503e
00000120: e0c0 b13e ff3e d8bd f7d0 e93e c96e 35be
00000130: 8dce 15be ec44 873e 911f c0bd a1b9 eebd
00000140: 1081 043e 6ec6 4fbe 237d 02be 1060 5c3e
00000150: 831e 3e3e 6c3b 373d 387e 813c 60fb 86be
00000160: 4796 79be c036 cebe b338 b13d 650c 663d
00000170: 36ce ae3e 4dd6 063e 13d2 88be 5943 4b3e
00000180: 2b00 48bd 2589 12bd 2cce 943e a8da e43d
00000190: cdac 8d3d c82a 08be d100 b9bd 86d2 ff3c
000001a0: 89a0 cc3d b318 353e 3a9f e3bd fae2 fc3d
000001b0: 59c2 8f3e 9265 b03e d40d 053d 2289 5bbd
000001c0: ab99 40be 4117 04be 2bab fb3d 24ae 5f3d
000001d0: 6668 afbe 5fe0 9ebd 9bb5 8ebe 6e56 cc3d
000001e0: 1e1c 813e b194 8c3e b6f2 4cbe 36e0 093e
000001f0: 79a0 ffbe 2ccf d8be baf4 e03d 4dee 37bc
00000200: cc46 173d 3427 f5bd bf63 fabd 5f32 9a3d
00000210: 4fce 87bd 87d6 433d 86e8 b0bd 0af3 ebbb
00000220: 389f 73bd 3c7a afbd 0b62 d9bd 5973 febd
00000230: 4ff3 1ebe 317b aa3d 0084 fabd f2b0 5ebd
00000240: 7d97 ac3d 1254 9bbd 3dfa cbbd 0a09 423c
00000250: db55 753c b9d2 3ebc 3570 ce3d ca4a dabc
00000260: ce1d 1c3d 9717 46bd b66a 963d 4dec 2abd
00000270: f958 30bc 3b35 bf3c 10f6 4bbc bde4 25be
00000280: 3125 83bc 8a2e 18be d548 28bd 5089 1a3b
00000290: 6fd5 9cbd fe20 b23d 0a90 eabd a23d 98bd
000002a0: bb32 05bd d221 d9bd f3e1 84bd bc1b 7d3c
000002b0: 4cfa 193d 3208 39bd 0bad a5bd 413f 2e3c
000002c0: 2fa2 d7bd 0f37 02bd 48be c93d f2eb dabd
000002d0: 03d0 73bd df57 5f3d 9ac6 293b a65f 553c
000002e0: f7e6 253d e9e8 30be a7a3 0abe 09b4 c1bc
000002f0: 802c babd 8c5d 0fbe 33af 183c 6faf 43be
00000300: 5680 40bd d88b 63bd d3bc a13c c10e d7bd
00000310: 784f bdbd b6b2 4abd c9e9 6abd 350f 35bd
00000320: 8c2d 203d 3bbf 5fbd 8e6d f5bd 2b73 28bc
00000330: 2fdc debd 6073 11be dcfa cdbd 96fd 253b
00000340: 81e3 573d ec1e 033a f789 5b3b 297f e3bd
00000350: b526 8d3d bb59 ddbd b8fe a7bd 0f55 15bd
00000360: e894 28be 7144 debd 3ba7 aa3c 0b42 583b
00000370: bc69 ee3c e4ef dbbd d275 3c3d 3834 493b
00000380: ce24 e1bd 0470 aebc bfe9 3a3c e67f 18bd
00000390: 3be0 83bd 5b46 c6bc 815a 02bd 2a78 36be
000003a0: 88e8 fabd 06e6 59be e703 05be 494e 86bd
000003b0: 7bce 2abe 7928 3dbe 799e a83d 1b65 5a3d
000003c0: 5f85 d4bc c272 74bd e016 8dbd df89 abbd
000003d0: e2ef 1dbd 9ef4 fabd c017 30be 419d e0bc
000003e0: 5f0d 263d 658a 23be ad21 6abd 3a33 ac3b
000003f0: a2d1 c7bd fe03 1dbe 5fd1 adbd 308e e9bd

actor_layers.0.bias f4 [128]
2.43025 0.08887395 -1.8255155 -0.10779758 -0.9988578 -0.29071587 -2.4958727 -0.056813296
0.21267337 -2.0770032 -0.0709718 1.8997779 -0.202906 -0.38919926 -0.57343584 2.5439115
-0.047451235 -0.18963395 0.8879917 -0.12921381 0.12494001 -0.6343563 1.3033731 -0.06009271
-0.24386118 0.06697372 -0.2244996 1.7986891 -0.21369925 -0.037680596 0.33859125 -0.082729764
-0.058267172 0.091099836 -0.51204264 -0.78566116 0.52541405 0.009808149 -0.593596 0.92794853
-4.674564 -7.7285028 -9.321003 0.32791224 -0.14804742 -0.03506132 -0.03932657 -0.29755732
-0.048908662 -1.434029 -0.16979326 -0.07374429 -0.039674144 1.4912558 -9.4055195 -1.2847824
-0.13616897 -0.08339777 0.09998145 -1.3197471 1.1814384 0.005077955 -0.031358372 0.016999243
-0.54140127 0.03560027 0.46816975 2.0011709 2.34852 0.2699838 -0.033465125 -0.050624087
0.96598303 -0.4362956 1.2676064 -0.108688585 0.2939441 -1.2141528 -0.463313 -0.09308751
0.9891083 -0.29055846 -0.101496525 -0.29974154 2.1860917 -1.5100912 1.9585657 0.41471133
-0.003720552 -0.076220855 -0.0583411 -3.1078186 0.6975351 0.010961264 -0.89390916 -1.1929137
-0.87631226 -1.25186 2.4219022 -0.1625186 1.3154337 -0.2902901 -0.18286233 -13.32731
1.4996927 0.069560245 -1.051959 -0.20873395 -0.60850406 0.006954531 -0.3063107 -0.10637352
-0.009244894 -0.07145339 1.5797598 -5.378016 -0.093195796 -0.077693455 1.0411074 0.6894219
-1.2621304 0.67554796 -0.10717223 1.5329607 1.2232636 -0.015064172 -0.8709704 3.0230567
00000000: 3789 1b40 8c03 b63d 7eaa e9bf fac4 dcbd
00000010: 25b5 7fbf b6d8 94be 61bc 1fc0 0fb5 68bd
00000020: 0cc7 593e 9fed 04c0 aa59 91bd ec2b f33f
00000030: 97c6 4fbe 2045 c7be b1cc 12bf 72cf 2240
00000040: 3a5c 42bd 672f 42be 6d53 633f a050 04be
00000050: 8ce0 ff3d 2d65 22bf eed4 a63f c623 76bd
00000060: bfb6 79be 8529 893d 39e3 65be 723b e63f
00000070: fad3 5abe f856 1abd d55b ad3e 396e a9bd
00000080: 8fa9 6ebd 8d92 ba3d 3a15 03bf 1721 49bf
00000090: 8981 063f 5cb2 203c e8f5 17bf 098e 6d3f
000000a0: 0796 95c0 e54f f7c0 d422 15c1 1de4 a73e
000000b0: be99 17be 759c 0fbd e614 21bd 6f59 98be
000000c0: 7354 48bd 438e b7bf 49de 2dbe 3f07 97bd
000000d0: 5b81 22bd 78e1 be3f 027d 16c1 c073 a4bf
000000e0: e16f 0bbe 73cc aabd 13c3 cc3d 79ed a8bf
000000f0: 6039 973f f964 a63b a371 00bd ff41 8b3c
00000100: 4699 0abf 97d1 113d f2b3 ef3e 2f13 0040
00000110: 274e 1640 513b 8a3e ba12 09bd 345b 4fbd
00000120: aa4a 773f 2362 dfbe ed40 a23f 1f98 debd
00000130: d77f 963e 5c69 9bbf 5d37 edbe aaa4 bebd
00000140: 3436 7d3f 14c4 94be 69dd cfbd b977 99be
00000150: ede8 0b40 ab4a c1bf 48b2 fa3f 0b55 d43e
00000160: 81d4 73bb ae19 9cbd 14f7 6ebd 80e6 46c0
00000170: a991 323f e096 333c 3bd7 64bf 65b1 98bf
00000180: 0056 60bf f33c a0bf 7200 1b40 476b 26be
00000190: 2260 a83f e7a0 94be 4340 3bbe a93c 55c1
000001a0: eef5 bf3f 9a75 8e3d 98a6 86bf 5abe 55be
000001b0: ecc6 1bbf d6e2 e33b c2d4 9cbe 5cda d9bd
000001c0: e577 17bc 2856 92bd 9235 ca3f b518 acc0
000001d0: 70dd bebd bf1d 9fbd 0243 853f f47d 303f
000001e0: 7d8d a1bf b6f0 2c3f 1d7d dbbd 0e38 c43f
000001f0: e793 9c3f b8cf 76bc ebf7 5ebf c379 4140

actor_layers.2.weight f4 [128, 128]
0.28227687 0.014924044 0.22927976 0.045342892 -0.081103854 0.27885565 -0.03883595 0.12622812
-0.11919223 0.026667288 -0.051346544 0.19522253 -0.06956739 0.28710276 -0.034325045 0.2583098
0.03134759 0.06916302 0.14139718 0.09208866 -0.0794148 0.22878337 0.45127776 0.06274367
-0.006493462 -0.05487339 -0.16107742 0.27016947 -0.010685481 0.09334071 -0.029921317 -0.031172443
0.07732565 0.051585566 -0.07049301 0.17491473 0.15103008 0.06589948 0.16966815 0.0079713045
-0.24212834 -0.15951797 -0.06448425 -0.02479787 -0.038111735 -0.09840689 -0.0041648247 0.019270549
0.02577562 0.16688024 -0.041212052 0.022868594 0.041358322 0.13639146 -0.25450206 0.13986342
-0.0615538 0.06413526 0.21455523 0.24382113 -0.08845949 -0.072062224 0.027065936 -0.18676497
-0.09988249 -0.06560248 -0.022276172 0.26811913 0.3246862 -0.19537011 0.042056017 -0.0679293
0.3300923 0.032059237 0.21103491 -0.036359623 -0.051666655 0.0050879233 0.09769148 -0.056325335
0.072764754 0.0026661763 0.047041066 -0.071620725 0.20063296 0.03283807 0.058940668 -0.08846676
0.022044787 0.0913358 0.00022816486 9.751625e-05 0.3757723 -0.06756877 -0.098272495 -0.03854557
-0.42722252 0.18877831 0.05000794 0.016329922 0.07967225 -0.03633775 0.09885024 -0.15902928
0.17109054 0.3040771 0.46268803 -0.05532906 0.08116022 0.06581769 -0.5021072 0.059675924
-0.08122445 -0.08281355 0.2616325 0.026943572 -0.008371681 0.08144812 0.10327441 0.43777108
0.67539334 0.08369201 -0.05843053 0.19702817 0.22189596 0.030645369 0.3997677 0.29795328
-0.40510502 -0.10159234 -0.35021025 0.25406358 0.08136806 0.1615247 -0.3079419 -0.039595164
0.1349643 -0.09765434 0.032601494 -0.15242322 -0.07000929 -0.3679482 -0.017944884 -0.08317254
-0.032865316 0.120896526 -0.16482347 0.024139967 -0.04074558 0.0005805631 0.27342546 -0.01701933
-0.22082432 -0.014727131 -0.5445873 -0.0027253139 -0.17899553 -0.0070397495 -0.32753634 -0.05485776
0.07192913 0.100202166 -0.01765936 -0.0078243725 -0.13049799 0.056480415 0.4109279 0.020068299
-0.0617664 -0.12735607 -0.19279781 0.09220057 -0.044404663 0.031220239 0.113050185 -0.34017017
0.09808542 -0.7743759 0.063012205 0.042798165 0.09286801 -0.001286423 -0.31074172 -0.16903625
-0.108591534 0.044785615 0.13646701 -0.037722845 -0.17707774 -0.037361667 -0.00093128736 -0.42102036
-0.11910129 -0.009911248 0.07383665 -0.086536035 -0.103253804 -0.012676848 0.021388479 -0.04416677
0.033087708 -0.04154224 0.05872778 -0.03589321 0.1753834 -0.27010405 -0.093540646 -0.0070110327
0.017829832 -0.053528752 0.030711567 0.35132962 -0.19621077 -0.030866595 0.11460653 -0.01609688
-0.13881056 0.008091807 0.05861127 -0.92968255 0.1461428 0.21161297 0.0787093 -0.5521506
0.01899976 0.051684715 0.5798311 0.100687474 -0.10249702 -0.042922176 -0.032415755 -0.015381703
0.24932215 0.4066847 -0.22052734 -0.08815941 0.0089314915 -0.04501886 0.004769053 -0.019882657
-0.0543985 0.1908055 0.001311156 0.11141458 0.084676884 -0.06509706 0.18488784 0.27338517
0.6494669 -0.10438616 -0.011144398 0.15285668 -0.28226858 -0.34250534 0.023659512 0.067491286
00000000: 9886 903e fa83 743c 50c8 6a3e 78b9 393d
00000010: c719 a6bd 2bc6 8e3e 7212 1fbd f241 013e
00000020: 0e1b f4bd 5b75 da3c c150 52bd 6ae8 473e
00000030: 5979 8ebd 22ff 923e 6b98 0cbd 2f41 843e
00000040: 5566 003d 57a5 8d3d 6cca 103e fb98 bc3d
00000050: 3aa4 a2bd 3046 6a3e e10d e73e c17f 803d
00000060: 1bc7 d4bb ebc2 60bd 7bf1 24be a753 8a3e
00000070: 2812 2fbc 6a29 bf3d 8d1d f5bc 5a5d ffbc
00000080: e95c 9e3d 634b 533d a45e 90bd d91c 333e
00000090: a1a7 1a3e 4ef6 863d 7dbd 2d3e 139a 023c
000000a0: 7ef0 77be ae58 23be 5210 84bd e724 cbbc
000000b0: 0d1b 1cbd 8d89 c9bd 1579 88bb 45dd 9d3c
000000c0: 6527 d33c a7e2 2a3e f8cd 28bd eb56 bb3c
000000d0: 5867 293d 34aa 0b3e 184e 82be 5b38 0f3e
000000e0: d61f 7cbd 5959 833d 5eb4 5b3e 3fac 793e
000000f0: 402a b5bd 5c95 93bd 62b9 dd3c 513f 3fbe
00000100: 318f ccbd 985a 86bd 857c b6bc e946 893e
00000110: 453d a63e 1a0f 48be ee42 2c3d 841e 8bbd
00000120: dc01 a93e 8c50 033d 8919 583e d4ed 14bd
00000130: 6aa0 53bd 98b8 a63b 7812 c83d 65b5 66bd
00000140: b005 953d 04bb 2e3b 22ae 403d e3ad 92bd
00000150: ba72 4d3e 3681 063d c56b 713d 102e b5bd
00000160: 4597 b43c 440e bb3d 8a3f 6f39 a381 cc38
00000170: 3a65 c03e 7f61 8abd 1743 c9bd f6e1 1dbd
00000180: e9bc dabe 1a4f 413e 20d5 4c3d 54c6 853c
00000190: 342b a33d e4d6 14bd ff71 ca3d 92d8 22be
000001a0: 5c32 2f3e feaf 9b3e 72e5 ec3e b9a0 62bd
000001b0: 5437 a63d 6dcb 863d 198a 00bf be6e 743d
000001c0: 0159 a6bd 279a a9bd b2f4 853e c4b8 dc3c
000001d0: 6029 09bc 46ce a63d 8981 d33d 8823 e03e
000001e0: 94e6 2c3f b766 ab3d da54 6fbd c1c1 493e
000001f0: b238 633e ff0b fb3c 5aae cc3e 558d 983e
00000200: ed69 cfbe a50f d0bd c24e b3be 9f14 823e
00000210: 4ca4 a63d bb66 253e 90aa 9dbe 8a2e 22bd
00000220: 1534 0a3e 00ff c7bd 2589 053d d514 1cbe
00000230: 0861 8fbd b563 bcbe 2601 93bc 5d56 aabd
00000240: c89d 06bd 9998 f73d 7cc7 28be 2ec1 c53c
00000250: d6e4 26bd ee30 183a 6cfe 8b3e 1f6c 8bbc
00000260: c51f 62be 114a 71bc 136a 0bbf 2e9b 32bb
00000270: 9b4a 37be b3ad e6bb d8b2 a7be 88b2 60bd
00000280: 944f 933d cb36 cd3d 5daa 90bc cc31 00bc
00000290: 44a1 05be 0258 673d 2465 d23e 4666 a43c
000002a0: c4fe 7cbd a169 02be ca6c 45be a7d3 bc3d
000002b0: aae1 35bd 96c1 ff3c db86 e73d c92a aebe
000002c0: 02e1 c83d 803d 46bf 8b0c 813d 214d 2f3d
000002d0: 9531 be3d 319d a8ba 8a19 9fbe d717 2dbe
000002e0: 3d65 debd 1f71 373d 02be 0b3e 4583 1abd
000002f0: de53 35be 8c08 19bd a321 74ba fb8f d7be
00000300: 61eb f3bd ca62 22bc ab37 973d ce39 b1bd
00000310: bb76 d3bd 8eb2 4fbc e436 af3c 37e8 34bd
00000320: fa86 073d 3228 2abd 8a8c 703d c204 13bd
00000330: b597 333e 144b 8abe 3d92 bfbd cebc e5bb
00000340: de0f 923c f740 5bbd d396 fb3c 7ae1 b33e
00000350: 7aeb 48be f1db fcbc d4b6 ea3d 9bdd 83bc
00000360: 5b24 0ebe 8093 043c 5f12 703d adff 6dbf
00000370: 75a6 153e 12b1 583e 5732 a13d be59 0dbf
00000380: 62a5 9b3c 5ab3 533d d06f 143f 3c35 ce3d
00000390: f5e9 d1bd 2acf 2fbd 62c6 04bd 8a03 7cbc
000003a0: 4e4e 7f3e fa38 d03e ebd1 61be ec8c b4bd
000003b0: 6455 123c b265 38bd b745 9c3b f4e0 a2bc
000003c0: f6d0 5ebd 8462 433e 18db ab3a 542d e43d
000003d0: 136b ad3d 9b51 85bd 3d53 3d3e 24f9 8b3e
000003e0: 7643 263f 69c8 d5bd fe96 36bc 7686 1c3e
000003f0: 8285 90be dc5c afbe 98d1 c13c df38 8a3d

actor_layers.2.bias f4 [128]
0.94112116 0.4969594 -0.1572127 0.100097634 -0.3321215 -0.2580269 -0.20385312 1.8913215
-0.8120571 0.4300562 -0.047112297 -0.09212456 -0.21570764 -0.014256092 0.07709297 -0.28500217
-0.09094626 -0.1203935 -0.07869372 -0.08825057 -0.35965812 -0.43575823 -0.015651891 -0.016377848
-0.04296345 0.013519736 -0.119124085 -0.116060585 -0.0026048496 0.075564384 -0.22495691 -0.09477433
0.009141864 -0.10278862 -0.042499524 -0.061548326 -0.06089049 -0.111605465 -0.050436594 0.5749797
0.024364706 -0.4178618 -0.08097961 -0.09173675 0.0014071625 -0.26291975 -0.14666027 -0.10461014
-0.6676241 1.5573585 0.048251953 -0.019133197 -0.047087844 -0.1461903 -0.17636792 -0.12243512
-0.13356295 -0.75334185 0.8914095 0.07634805 0.29855755 -0.084076464 0.09437283 0.03996243
-0.23867625 -0.25570422 -0.32579836 0.10080467 -0.03405017 -0.2511612 -0.122090876 -0.18433622
-0.23130952 -0.081898116 -0.02666116 -0.105280824 -0.09609815 0.022323517 -0.10141451 0.05244476
-0.50518364 -0.33670416 0.0003243316 -0.19284754 -0.13134909 0.06525457 -0.23763296 -0.25844926
-0.3796692 -0.06343646 0.02268891 -0.17459609 0.016921135 -0.07130297 -0.63063246 -0.11026015
0.10045496 -0.1288406 -0.14928012 -0.27184907 -0.2590067 -0.08109976 0.018713083 -0.15841983
-0.06852433 -0.48671776 2.619283 -1.4208425 -0.017063191 -0.12099713 -0.060878057 1.1574297
-0.22871764 -0.104179256 -0.023276143 -0.23971292 0.15011342 -0.08876282 0.30611217 -0.002067744
-0.12081111 0.0891242 0.12773958 -0.03144059 1.3201054 -0.12014078 -0.20281823 -0.014908998
00000000: 51ed 703f 7671 fe3e 5efc 20be fdff cc3d
00000010: d40b aabe 1a1c 84be dfbe 50be d316 f23f
00000020: f9e2 4fbf 5430 dc3e d3f8 40bd cdab bcbd
00000030: 77e2 5cbe 6292 69bc ebe2 9d3d ceeb 91be
00000040: 0842 babd de90 f6bd 2c2a a1bd b7bc b4bd
00000050: 1c25 b8be b41b dfbe 6538 80bc d62a 86bc
00000060: 71fa 2fbd e281 5d3c 54f7 f3bd 2cb1 edbd
00000070: 20b6 2abb 80c1 9a3d 1b5b 66be 0b19 c2bd
00000080: c2c7 153c d782 d2bd fb13 2ebd 191a 7cbd
00000090: 4e68 79bd 6891 e4bd 9a96 4ebd df31 133f
000000a0: 7e98 c73c fbf1 d5be a3d8 a5bd 7ae0 bbbd
000000b0: 8a70 b83a 6b9d 86be 1c2e 16be d73d d6bd
000000c0: 6ae9 2abf 8657 c73f d7a3 453d 39bd 9cbc
000000d0: 2fdf 40bd e9b2 15be cb99 34be 44bf fabd
000000e0: bac4 08be 03db 40bf 6a33 643f 5e5c 9c3d
000000f0: 89dc 983e 4830 acbd 8b46 c13d a5af 233d
00000100: 8c67 74be aaeb 82be 0bcf a6be ae72 ce3d
00000110: 3178 0bbd 3398 80be c80a fabd a2c2 3cbe
00000120: 67dc 6cbe 33ba a7bd 8168 dabc 799d d7bd
00000130: 1bcf c4bd cfdf b63c 69b2 cfbd 51d0 563d
00000140: b753 01bf 7d64 acbe 0d0b aa39 d379 45be
00000150: 6080 06be 30a4 853d 0e56 73be 7653 84be
00000160: 0064 c2be faea 81bd 18de b93c 51c9 32be
00000170: 319e 8a3c 4b07 92bd 2171 21bf 13d0 e1bd
00000180: 54bb cd3d caee 03be e3dc 18be cd2f 8bbe
00000190: 879c 84be a217 a6bd 2e4c 993c cf38 22be
000001a0: 7c56 8cbd 1233 f9be 55a2 2740 2bde b5bf
000001b0: 1bc8 8bbc 58cd f7bd 455b 79bd a826 943f
000001c0: f534 6abe ef5b d5bd 9cad bebc 4e77 75be
000001d0: 55b7 193e 48c9 b5bd bcba 9c3e fd82 07bb
000001e0: d16b f7bd c086 b63d 2ace 023e d9c7 00bd
000001f0: 37f9 a83f 5f0c f6bd 95af 4fbe df44 74bc

actor_layers.4.weight f4 [128, 128]
0.026033169 -0.07835167 -0.00085837196 0.10614958 -0.21843827 -0.123189226 0.05520477 -0.059002846
-0.012985155 0.015321808 0.012490064 0.0631573 -0.0067812535 0.022335827 -0.007647241 -0.051179968
-0.08322845 0.03676347 0.011419662 -0.028686136 -0.09772252 0.0778224 -0.060648315 -0.056037925
0.087772995 -0.07170685 0.04891703 0.038245346 0.074396774 0.019998688 0.012694777 0.054252543
-0.046448745 -0.10139243 0.09339288 -0.018623086 0.09797333 0.10237378 -0.065347284 -0.1807552
-0.06192459 -0.08273891 0.06390868 -0.028463885 0.05060979 -0.030965885 0.033849925 0.060712505
0.056854744 -0.015449145 0.034069203 0.008800033 0.010349226 -0.092990816 -0.062280383 0.07729758
-0.0005616437 0.05434214 -0.2297828 -0.051146634 -0.07038427 -0.036308654 0.011085502 -0.11028637
0.09906706 -0.02136528 -0.013738806 0.03156527 -0.04048132 -0.067345455 -0.022808779 -0.027210018
-0.06739442 -0.034574553 0.012568309 -0.042113338 0.06419257 -0.086571425 -0.0015103485 -0.12784135
-0.044032216 -0.006869176 -0.26908413 0.05282832 0.09595489 0.029632937 0.08736702 -0.083191425
-0.006313362 -0.034010734 -0.06251098 -0.06840988 0.0016870686 -0.0019874377 -0.07421601 -0.010979085
-0.008668626 0.065826654 -0.048234425 -0.069662556 0.025591182 -0.012249321 0.027555326 -0.048567902
-0.014328219 -0.13140681 -0.17031385 -0.011635618 -0.078664035 -0.09236292 0.0053500654 -0.018828357
-0.03915829 -0.030473031 -0.0874518 0.00053850556 -0.020455267 0.037121184 -0.021707637 -0.076766364
0.0013871008 -0.058161896 -0.06942686 0.06135161 -0.015334974 -0.0052589374 -0.03946968 0.08387039
0.022758685 -0.2048894 -0.078053266 -0.12101029 -0.18246916 -0.0586233 0.018226875 -0.19102286
-0.118504845 -0.1831706 0.0847584 -0.06405713 -0.05058886 -0.029107226 -0.0066818073 -0.014018282
0.08087308 0.032226358 -0.06335405 0.05651098 -0.005691329 0.017984107 -0.11765378 -0.06316109
0.051661097 -0.030855564 -0.021207737 0.010671669 -0.04104758 -0.0711227 0.016040293 -0.018927239
-0.062202316 -0.028736964 -0.046248212 0.038437106 0.07744193 0.04099922 0.07809942 -0.3439839
0.032384828 -0.060228627 -0.098535515 0.07729778 -0.05972431 -0.20756492 0.06691306 0.08647186
-0.11574702 -0.10662133 -0.06525232 0.051571332 -0.11449752 -0.0530461 -0.093790755 -0.096562214
-0.041274298 -0.03610628 0.06884012 -0.016916545 0.11310812 -0.1291315 -0.05912506 -0.010276641
-0.0960513 -0.03782633 -0.029136661 0.0023138227 -0.029166112 -0.04452954 0.047029607 -0.112396516
-0.032699768 0.012605024 0.03977104 -0.0108174905 0.03945912 -0.0639131 -0.036830593 -0.14613685
-0.04763491 0.055527963 -0.080367975 -0.045425706 -0.03346127 -0.03102256 0.016661583 -0.20200804
-0.02877835 0.07503039 0.08616594 -0.0183599 -0.054147463 -0.014752943 0.011285824 -0.0070943246
0.03541665 -0.018856535 -0.05413734 -0.024181144 0.061559036 0.05308881 0.02972477 -0.008149281
0.034872413 -0.028185261 -0.08456208 -0.14893666 0.14405347 -0.1092342 -0.08556684 -0.0010369909
0.016847765 0.014772105 -0.015875164 0.16284649 -0.0002841539 -0.010317479 -0.05704223 -0.037416015
0.009231805 -0.053333275 0.033720907 -0.042983543 0.055944134 -0.034285076 0.05152815 -0.002810711
00000000: 8343 d53c d776 a0bd 5e04 61ba f364 d93d
00000010: 48ae 5fbe a24a fcbd 661e 623d f8ac 71bd
00000020: b0bf 54bc 5208 7b3c 20a3 4c3c 9d58 813d
00000030: 4735 debb a0f9 b63c b595 fabb 16a2 51bd
00000040: ad73 aabd 4b95 163d 8919 3b3c 30ff eabc
00000050: bf22 c8bd 5a61 9f3d 5e6a 78bd 0688 65bd
00000060: 54c2 b33d 0adb 92bd 395d 483d 27a7 1c3d
00000070: 565d 983d 4ad4 a33c c1fd 4f3c ea37 5e3d
00000080: 0a41 3ebd d6a6 cfbd c444 bf3d 718f 98bc
00000090: 3ea6 c83d 58a9 d13d ccd4 85bd e417 39be
000000a0: a4a4 7dbd 0573 a9bd 8ee2 823d 182d e9bc
000000b0: 364c 4f3d 2bac fdbc 38a6 0a3d adad 783d
000000c0: 85e0 683d 691e 7dbc 268c 0b3d 032e 103c
000000d0: cd8f 293c f871 bebd b719 7fbd 324e 9e3d
000000e0: 453b 13ba dd95 5e3d 2f4c 6bbe 227f 51bd
000000f0: a125 90bd 62b8 14bd f79f 353c d2dd e1bd
00000100: ace3 ca3d 3d06 afbc bb18 61bc 964a 013d
00000110: becf 25bd 6aec 89bd 7ad9 babc 8be7 debc
00000120: 1606 8abd 0c9e 0dbd 4feb 4d3c 097f 2cbd
00000130: 6577 833d 5c4c b1bd e3f6 c5ba d8e8 02be
00000140: 205b 34bd d316 e1bb 65c5 89be 8262 583d
00000150: ff83 c43d c6c0 f23c 7bed b23d 4460 aabd
00000160: 52e0 cebb d74e 0bbd c205 80bd 7b1a 8cbd
00000170: a120 dd3a ac3f 02bb 90fe 97bd 9fe1 33bc
00000180: da06 0ebc 20d0 863d 7691 45bd 3eab 8ebd
00000190: 99a4 d13c 60b1 48bc b5bb e13c 23ef 46bd
000001a0: e8c0 6abc 828f 06be c166 2ebe 52a3 3ebc
000001b0: 9c1a a1bd c528 bdbd 9a4f af3b ed3d 9abc
000001c0: 7164 20bd 94a2 f9bc ee19 b3bd 7f2a 0d3a
000001d0: ce91 a7bc 620c 183d 37d4 b1bc af37 9dbd
000001e0: 61cf b53a 2b3b 6ebd ab2f 8ebd d34b 7b3d
000001f0: 8b3f 7bbc 2a53 acbb f6aa 21bd 3dc4 ab3d
00000200: 6c70 ba3c 87ce 51be 64da 9fbd 3ed4 f7bd
00000210: 32d9 3abe fc1e 70bd 8750 953c 7f9b 43be
00000220: abb2 f2bd 1391 3bbe d095 ad3d 6230 83bd
00000230: 4436 4fbd 4772 eebc 10f3 dabb f0ac 65bc
00000240: c9a0 a53d c9ff 033d c5bf 81bd 0f78 673d
00000250: 547e babb 6853 933c 77f4 f0bd 9a5a 81bd
00000260: 969a 533d cfc4 fcbc d9bb adbc 39d8 2e3c
00000270: 8221 28bd c7a8 91bd ef66 833c 4c0d 9bbc
00000280: dbc7 7ebd c869 ebbc c46e 3dbd 3a70 1d3d
00000290: e099 9e3d ccee 273d 97f2 9f3d a81e b0be
000002a0: f4a5 043d 4bb2 76bd fdcc c9bd 4c4e 9e3d
000002b0: 7aa1 74bd e68b 54be b709 893d 2918 b13d
000002c0: c60c edbd 495c dabd 02a3 85bd 763c 533d
000002d0: ad7d eabd de46 59bd 5e15 c0bd 69c2 c5bd
000002e0: 3d0f 29bd 2ee4 13bd 0dfc 8c3d 9194 8abc
000002f0: 3ba5 e73d 0c3b 04be 1e2d 72bd 5b5f 28bc
00000300: 8bb6 c4bd c8ef 1abd 02b0 eebc 81a3 173b
00000310: c5ed eebc 9b64 36bd 1ea2 403d 2530 e6bd
00000320: 31f0 05bd 4d85 4e3c f5e6 223d d83b 31bc
00000330: e39f 213d dfe4 82bd addb 16bd e6a4 15be
00000340: d31c 43bd 4a71 633d f797 a4bd 4e10 3abd
00000350: af0e 09bd 0623 febc df7d 883c 32db 4ebe
00000360: 93c0 ebbc 88a9 993d c577 b03d 8067 96bc
00000370: bbc9 5dbd 54b6 71bc 2de8 383c 8277 e8bb
00000380: 0d11 113d 0579 9abc 1ebf 5dbd 8917 c6bc
00000390: 5425 7c3d a773 593d 5c81 f33c 9084 05bc
000003a0: 60d6 0e3d c7e4 e6bc e22e adbd da82 18be
000003b0: c182 133e 2eb6 dfbd ab3d afbd a4eb 87ba
000003c0: 5304 8a3c b306 723c a20c 82bc 3bc1 263e
000003d0: 7efa 94b9 a50a 29bc 1da5 69bd 8941 19bd
000003e0: ff40 173c fe73 5abd ef1e 0a3d 830f 30bd
000003f0: ad25 653d 826e 0cbd 2e0f 533d e833 38bb

actor_layers.4.bias f4 [128]
-0.9189972 -0.698962 -0.12874134 -0.45873398 -0.020726666 -0.713994 -1.2061708 0.0077776494
-0.53608423 -0.6925225 -0.6652672 -0.8680728 -0.45116195 -0.378127 -0.68058985 -1.1705205
-0.06279555 -0.47857413 -1.2231731 -0.8747423 -0.8081353 1.7432228 -0.113767676 -0.309523
2.3876643 -0.33711025 -0.21927951 -0.11162619 -0.24392417 -0.38432944 -0.15055013 -0.27682418
-0.6958738 -0.82454896 -0.41496834 -0.8459897 0.15994644 -0.7439394 -0.15624912 -0.06504969
-0.080495276 -0.447793 -0.42769352 -1.0527506 0.52758765 -0.2931627 -0.26695585 -0.33761284
-1.0613927 -1.0609568 -0.89864475 -0.5754374 -0.9069965 -0.44292223 -0.119144775 -0.37325278
-0.24660788 0.35139582 -0.32062852 -0.48924014 -0.069582894 -0.009342328 0.5227664 -0.31345734
-0.15961382 -0.34551996 -0.34718275 -0.3357561 -0.5094254 -0.3620839 -0.5408547 -0.53435224
-0.49473798 0.22122583 -0.40847218 0.06620956 0.11148093 -0.04762994 -0.91884995 -0.59305996
-0.571241 -0.16299474 -0.41794097 -0.49397054 -0.47301936 -0.10030636 -0.25142246 -0.3795778
-0.33958256 -0.24532494 -0.030248411 -0.65053797 -0.5911506 -0.6437161 -0.22150308 -0.2483903
-0.2809817 -0.42519325 -0.20652902 -1.3286183 -0.62984467 -0.88123214 -1.0375324 -0.42398766
-0.56800777 -1.2327629 -1.0494953 -0.7301218 -0.8115076 -1.3666899 0.1819022 -0.5362791
0.044521656 -0.1401447 -0.20696306 -0.15177384 -0.30306897 -0.64373744 -0.19402038 -0.66984516
-0.598121 -0.6477692 -0.13068911 -0.17127332 -0.8362298 -0.091907665 -0.19899033 0.15080611
00000000: 6743 6bbf 2cef 32bf c5d4 03be 2edf eabe
00000010: f8ca a9bc 50c8 36bf ce63 9abf a7db fe3b
00000020: d13c 09bf 2849 31bf f44e 2abf 053a 5ebf
00000030: b3fe e6be dd99 c1be 233b 2ebf 9ed3 95bf
00000040: f49a 80bd ab07 f5be f090 9cbf 1def 5fbf
00000050: f4e1 4ebf ed21 df3f 07ff e8bd cc79 9ebe
00000060: 7ecf 1840 b799 acbe cf8a 60be 469c e4bd
00000070: 42c7 79be d4c6 c4be d029 1abe e6bb 8dbe
00000080: c924 32bf a415 53bf bb76 d4be c892 58bf
00000090: 00c9 233e d072 3ebf c5ff 1fbe c638 85bd
000000a0: b5da a4bd 2045 e5be a5fa dabe 88c0 86bf
000000b0: fc0f 073f 6c19 96be 70ae 88be 97db acbe
000000c0: b7db 87bf 6fcd 87bf 950d 66bf de4f 13bf
000000d0: ec30 68bf b4c6 e2be 2d02 f4bd fd1a bfbe
000000e0: c786 7cbe 27ea b33e 6c29 a4be af7d fabe
000000f0: 7a81 8ebd 9010 19bc 05d4 053f 7b7d a0be
00000100: ce71 23be fee7 b0be f0c1 b1be 39e8 abbe
00000110: b469 02bf 1063 b9be 7475 0abf 4fcb 08bf
00000120: 4c4e fdbe 0689 623e 4423 d1be e198 873d
00000130: 1d50 e43d 9d17 43bd c039 6bbf c7d2 17bf
00000140: da3c 12bf 18e8 26be 5cfc d5be b5e9 fcbe
00000150: 982f f2be 6c6d cdbd 72ba 80be 0558 c2be
00000160: c4dd adbe 7636 7bbe 84cb f7bc a889 26bf
00000170: a555 17bf 94ca 24bf b4d1 62be 075a 7ebe
00000180: d5dc 8fbe eeb2 d9be 587c 53be 2a10 aabf
00000190: 803d 21bf 6e98 61bf ddcd 84bf e914 d9be
000001a0: f568 11bf 2dcb 9dbf dd55 86bf 43e9 3abf
000001b0: f6be 4fbf b2ef aebf 9244 3a3e 9649 09bf
000001c0: 575c 363d 1882 0fbe 20ee 53be 9a6a 1bbe
000001d0: db2b 9bbe facb 24bf 47ad 46be f97a 2bbf
000001e0: 751e 19bf 34d4 25bf 5ed3 05be 4662 2fbe
000001f0: 2813 56bf 163a bcbd 1fc4 4bbe eb6c 1a3e

actor_mean.weight f4 [1, 128]
0.02892569 -0.047799792 0.013243078 -0.01894003 0.006490564 0.059520554 0.051938877 -0.018403659
0.020250164 0.013525715 0.0030620599 0.085364535 -0.009361143 -0.008488507 -0.01912896 0.046637543
-0.032846525 0.033242278 0.028841069 0.010548434 -0.027874425 -0.007861408 -0.017423537 0.0021537459
0.008395869 0.03012141 -0.0022886472 0.031540174 -0.0024089678 0.081175044 0.04711252 -0.0023008976
-0.0036589056 0.012246961 0.020765139 0.028647281 -0.042018626 0.02339332 -0.02748853 0.0012412444
-0.037837826 -0.012081705 0.050393 0.021492297 0.009739335 0.015516215 -0.0028104915 0.009890114
0.0039726603 0.0027286015 0.016086021 -0.019093303 -0.024370966 0.002370099 0.02656881 0.02638197
0.026669547 0.0058403425 0.00822549 -0.026691092 0.029823733 0.00093678094 0.023133397 0.010285661
0.02461423 0.0049102413 0.03157672 0.0074974815 -0.006690974 -0.010052558 0.006194243 0.01894914
0.027635276 0.04361427 0.0046148864 0.008746937 -0.02224917 -0.05662444 0.013395862 0.013754094
0.009395278 0.0056923865 -0.020691881 0.031646166 0.03616903 -0.013887939 -0.015159786 0.038357005
0.008082178 -0.004011853 -0.006875581 -0.042371504 -0.01704798 -0.08659582 0.0028595214 -0.008245217
-0.0051831366 -0.025641493 -0.0050264387 -0.027684543 0.023297394 0.01935996 -0.026628293 -0.025451027
0.04310712 0.019397117 -0.015634596 -0.01431079 0.008292775 -0.0024071503 -0.009761393 -0.0067351074
0.010366006 -0.020215373 0.039826002 -0.076588064 0.0124794375 0.0062267934 -0.025411187 -0.008257576
-0.033717163 -0.032092776 0.03441116 -0.024301952 -0.0036936991 0.023445077 -0.0071881725 0.010825568
00000000: 92f5 ec3c b7c9 43bd 7ff9 583c 1f28 9bbc
00000010: ccae d43b d3cb 733d dcbd 543d 45c3 96bc
00000020: ace3 a53c f69a 5d3c d7ac 483b 9ad3 ae3d
00000030: 7b5f 19bc 6113 0bbc 56b4 9cbc 0207 3f3d
00000040: 148a 06bd 0e29 083d 1b44 ec3c 57d3 2c3c
00000050: e858 e4bc 23cd 00bc cebb 8ebc dc25 0d3b
00000060: d48e 093c 2dc1 f63c 21fd 15bb 4530 013d
00000070: c6df 1dbb 1a3f a63d 0ff9 403d a8ca 16bb
00000080: 40ca 6fbb 7aa7 483c a71b aa3c b4ad ea3c
00000090: b91b 2cbd 59a3 bf3c a02f e1bc 40b1 a23a
000000a0: d6fb 1abd 58f2 45bc e468 4e3d 9d10 b03c
000000b0: bb91 1f3c b937 7e3c 3930 38bb 250a 223c
000000c0: 172d 823b 56d2 323b d5c6 833c 8f69 9cbc
000000d0: 9fa5 c7bc aa53 1b3b d5a6 d93c 001f d83c
000000e0: 187a da3c 5860 bf3b 35c4 063c 47a7 dabc
000000f0: e750 f43c 4e92 753a 4082 bd3c 3085 283c
00000100: c8a3 c93c 17e6 a03b 9756 013d 6fad f53b
00000110: f53f dbbb 7cb3 24bc 14f9 ca3b 3a3b 9b3c
00000120: 6063 e23c e0a4 323d 7938 973b 504f 0f3c
00000130: e443 b6bc 07ef 67bd 517a 5b3c da58 613c
00000140: a7ee 193c 3387 ba3b 0582 a9bc 699f 013d
00000150: fa25 143d 3d8a 63bc c060 78bc 3c1c 1d3d
00000160: 1d6b 043c dd75 83bb 8e4c e1bb be8d 2dbd
00000170: 35a8 8bbc 2659 b1bd cf66 3b3b f216 07bc
00000180: 4dd7 a9bb 1c0e d2bc d3b4 a4bb b2ca e2bc
00000190: 2dda be3c c798 9e3c 9423 dabc ac7e d0bc
000001a0: 1791 303d b4e6 9e3c 2014 80bc ce77 6abc
000001b0: 6bde 073c 48c1 1dbb 40ee 1fbc 2db2 dcbb
000001c0: 2ed6 293c b69a a5bc 9720 233d 34da 9cbd
000001d0: 8e76 4c3c 210a cc3b 1f2b d0bc c94a 07bc
000001e0: 021b 0abd b773 03bd b7f2 0c3d e314 c7bc
000001f0: fd11 72bb e40f c03c c38a ebbb b95d 313c
