bc_pid_checkpoint.pth (torch, 233957 bytes, 9 tensors)

trunk.0.weight f4 [128, 57]
00000000: 91b1 9bbf a9c1 c13f c0f4 133d 39e8 26c0
00000010: 5365 07c1 575b 8a3e 6bee 13be 379d c0bd
00000020: 5614 07be 925f 23be d60e 773d bb3f 163d
00000030: 6ebf bebd c43b 0bbe b58a 003d aaea b0bd
00000040: 67e5 563d 02b3 6dbd 18d4 083e 5339 8e3b
00000050: e97e 8ebd 66ed c5bd 7f85 26be 614b 763c
00000060: 2a15 823d 54a1 043d b41b 80bc 14ff 8a3d
00000070: 0060 703d 840a aebc ff90 553e 5dc4 983d
00000080: 8427 ae3d 0614 143e 91bd 4e3d 1873 3a3e
00000090: 7bdb 363c da49 2b3e 5406 9ebd 3344 3fbd
000000a0: 8515 143d a6e8 5dbd af22 1fbe 058a 923d
000000b0: 81f1 b0bd 1037 83bd 26a9 bbbc 6c9b c3bb
000000c0: 3c93 14be 9823 10be 5cf2 34be 043a 923d
000000d0: a568 bb3d c573 86bc 2755 57be c761 cf3d
000000e0: e53c a43c a77d 2f40 56fa 8bc0 97bb 0e41
000000f0: c628 533f fd7b 9dbf 944c d53e f8b7 803c
00000100: 0271 0d3c c862 623c d71d ddbd fcea dcbd
00000110: 4041 70bc fc1f a93d 2089 37bb 3f4d e23d
00000120: 3b3e a83d 6e32 82bc aa48 2b3d 4b67 a13b
00000130: 8a07 653d 767c 903d 9a66 7a3d 1301 963d
00000140: 22e2 98bd e193 82bc 4d28 c7bd 778a 11be
00000150: e8c3 10bd 2546 46be 44a6 10be d134 97bd
00000160: 15b3 60bd aaae dd3c 99ba 913d 3eb3 3e3d
00000170: c9df 853d 8a22 11bc cb81 3f3e 0f1a 58bc
00000180: b29a 8abd cff5 9e3c 868a 943c 4196 7b3b
00000190: 2a64 1d3d 1c35 87bd 3ff5 d73d 329c 10be
000001a0: 726b e6bd 59a0 803d 2109 363e c62a 96bd
000001b0: 499e 0c3d 284c 2e3e b5c8 fdbd d8c6 67be
000001c0: 9036 00be c71e ee3d 106f 3140 780a 9cc0
000001d0: 8ce4 0b41 9a34 2b3f 104f 5b3e b644 a6be
000001e0: 193c ef3d 9886 64bd b981 1bbd 9cf9 73bc
000001f0: 3e96 4dbd f4fd 253d 17ca e3bd 728d f0bd
00000200: c30e a53d 2ece d83c 92e1 bdbc 3e08 273d
00000210: bdc2 b03c 5230 133d 931b 943c 9bb0 233e
00000220: c497 843d 1f65 5a3d 8fdf bebd 1655 5e3c
00000230: eb92 06bd 7f68 1cbd 46de 7f3d 9287 83bd
00000240: 4f76 7a3d a680 d33d 5b67 63bb 7b46 4b3c
00000250: 4cc9 d23d 5400 023e 7ea3 4c3e e6e0 cd3d
00000260: e13f 0b3e 66fc 0b3e cacd 033e 03fd 5dbd
00000270: 2239 043e e1d8 1fbd ede1 813d 5ad4 323e
00000280: f084 073d 1a88 bfbd 8b06 4cbd cbe6 bd3d
00000290: 5c8c 0f3e c602 453c 49f4 43bd 3c63 6f3c
000002a0: ed48 1f3e df2d eb3b 2d3a 86bd 2217 07c0
000002b0: eb5d 7140 d793 31c0 486c dcbf 0db5 2dbf
000002c0: 4e17 8a3f 66ac 3a3e 1127 573e da0b d53d
000002d0: bdf3 863e ffb1 263e 7a56 a33d fc1d 5f3d
000002e0: 0001 f63c df28 f83d bb03 79bd f39d 7f3c
000002f0: f295 adbd 60df 093e 4772 29be 4139 17be
00000300: 55f2 cfbc 7f75 38bc 2778 ccbd a06f a9bd
00000310: e2a9 283d 3ba3 f5bd 859a 24bd b47f 57bd
00000320: de12 233d 9888 6bbc 345e 09bc 02af 29bc
00000330: 3e8d a03c 56f1 1abe a294 05bc 57b1 dcbd
00000340: e3b5 b6bb 50be 713d 6fdb 14be 0698 6b3c
00000350: 7c8f b3bc b07b b83c 3348 ec3d e38b b73d
00000360: 7981 babc 92d9 07be 0c58 35be fb21 463c
00000370: 6b6e 24be bd85 66bd 928a f8bd 274b 513d
00000380: 5d0b a13d 0651 60ba 298d 9c3d ca98 a93d
00000390: c08b 913f 41bd d6bf 3f4f bd40 1bd6 a7bf
000003a0: 353d 003f 75d7 e03e 0fa1 8f3d 3500 063e
000003b0: 375f b8bd 0884 b33d 0c62 f93d e1c4 973c
000003c0: 058d d6bd 9cc8 4bbe ea6d e2bd 7061 353d
000003d0: 40a3 92bd e7b9 f63d c8c2 e03d 8a65 4bbd
000003e0: 7052 af3c aa42 65bd d67a 04bd f623 b23d
000003f0: 161c 513e 805c 073e 44b2 353c cfad 763e
-1.2163564 1.5137225 0.036122084 -2.6079237 -8.462237 0.27022812 -0.14446418 -0.09404986
-0.13191351 -0.15954426 0.060316883 0.03668187 -0.09313856 -0.13597018 0.03138228 -0.086385086
0.05246487 -0.058032043 0.13362157 0.0043403297 -0.069578 -0.09664421 -0.16261862 0.01503262
0.06351693 0.032380417 -0.01563821 0.067869335 0.058685303 -0.021245249 0.20856093 0.07459328
0.08503631 0.14460763 0.050473753 0.18207967 0.011160727 0.16727391 -0.07716051 -0.0466959
0.036153335 -0.05417695 -0.15540574 0.071552314 -0.08639813 -0.06406987 -0.022907805 -0.0059694555
-0.1450929 -0.14076078 -0.17670578 0.07139972 0.09150819 -0.016412625 -0.21028577 0.101260714
0.020048568 2.7420442 -4.3743086 8.920798 0.8248409 -1.2303463 0.41659987 0.015712723
0.0086329 0.013817497 -0.10796707 -0.10787007 -0.014663994 0.08258054 -0.0028005317 0.1104989
0.082149945 -0.015893187 0.041817345 0.0049256436 0.055915393 0.07054989 0.061133005 0.07324424
-0.074650064 -0.015939655 -0.09724484 -0.14212976 -0.03534308 -0.19362696 -0.14125925 -0.07383121
-0.054858286 0.027060825 0.07115669 0.046557657 0.06536824 -0.008858332 0.18701856 -0.013189807
-0.06767787 0.01940432 0.01813246 0.003838912 0.038425602 -0.06601927 0.10544824 -0.14122084
-0.11250962 0.06280584 0.1777692 -0.07332377 0.03433064 0.17021239 -0.123917975 -0.22634447
-0.12520814 0.11626964 2.7724037 -4.876278 8.743298 0.6687714 0.21416879 -0.32474297
0.116813846 -0.05579242 -0.03796551 -0.0148910545 -0.05019211 0.04052539 -0.1112253 -0.117457286
0.08059456 0.026465502 -0.02317885 0.040779345 0.021577233 0.035934754 0.018079555 0.15985338
0.064742595 0.053319093 -0.09319984 0.013570091 -0.032854956 -0.038185593 0.062467836 -0.06422342
0.061147984 0.10327272 -0.0034699056 0.012406941 0.102923006 0.12695438 0.19984242 0.100526616
0.13598587 0.13670501 0.12871471 -0.05419637 0.1291242 -0.03902519 0.0634192 0.17463818
0.033085763 -0.09352131 -0.049810927 0.09272536 0.14018387 0.012024587 -0.04784039 0.014611062
0.15555163 0.007177099 -0.06554065 -2.110787 3.7713573 -2.7746484 -1.7220545 -0.67854387
1.0788362 0.18229827 0.21010996 0.10402651 0.26357833 0.16278838 0.079754785 0.054471955
0.030029774 0.121171705 -0.060794573 0.015601623 -0.084758654 0.13464117 -0.165475 -0.14767934
-0.025384108 -0.011258482 -0.09983855 -0.08273244 0.041177638 -0.11994024 -0.040186424 -0.05261202
0.039812915 -0.014375828 -0.008384276 -0.0103566665 0.0195986 -0.15131125 -0.008153113 -0.107760124
-0.005575882 0.059019387 -0.14536832 0.014379507 -0.021919005 0.022519916 0.115372084 0.08962228
-0.022766815 -0.1326659 -0.17709368 0.0120930625 -0.16057746 -0.056279887 -0.12135805 0.05109706
0.078634955 -0.00085569953 0.07644112 0.08281095 1.1370773 -1.6776506 5.9159236 -1.3112215
0.50093395 0.4391438 0.07013141 0.13086016 -0.09002536 0.08765417 0.12176904 0.018526496
-0.10476116 -0.19900745 -0.11056121 0.044282377 -0.07160044 0.12047177 0.109746516 -0.049657382
0.021401614 -0.05597178 -0.032343708 0.08698265 0.2042087 0.1321888 0.011089865 0.2408974

trunk.0.bias f4 [128]
00000000: fc72 19c1 102b afc0 0981 b3bf 652c 24c0
00000010: bc3a 0d40 fb7b f63f 3c2a 14c1 6c10 03c1
00000020: 1354 b2c0 2c9f 9ec0 7308 af3f 0570 34c0
00000030: 9c34 44c1 1b2c 9dc0 25d5 0940 2818 5ac1
00000040: cb40 09c0 3458 31c0 b3cd a640 7a5b cbc0
00000050: 0dea 1e3f 148b 23c1 4229 d1c0 568a f1c0
00000060: 02ad 49c0 e087 bbc0 b167 4fc1 8d3a b8c0
00000070: b17a 01c1 6f61 0ac1 948f 67bd 2730 adc0
00000080: f1a2 05c0 0a1f 64bf 177b 5b40 d91d 99c0
00000090: 94fb be40 9986 1bc0 4bb3 87c0 dc33 c73f
000000a0: 97f0 16c1 5ab7 3ec1 d110 e9c0 b1fa 923f
000000b0: 9789 89c0 44f7 0bc0 2210 90c0 cabe 38c0
000000c0: e072 0ec1 0693 d6c0 b50a 40c1 0227 5240
000000d0: 27cc d0bf 3248 dac0 8cba 5040 2afb 63c1
000000e0: f014 953f d62e 8440 52aa 1840 0e20 83c0
000000f0: 816b adc0 a651 c6c0 77de c340 a79d 6840
00000100: 4a57 4240 281f a43f 52c6 c1c0 3fed babf
00000110: f91e 10c1 05d9 17c0 e655 47c0 0db8 aac0
00000120: efc1 4340 1b21 bbc0 2fd0 1b40 7cfd 1940
00000130: c8fb 35c1 e8e8 e6c0 dc8e 43c1 d43d b8c0
00000140: f9ac 1f40 170f 81c0 160a f2c0 1b66 c6c0
00000150: 230f b0bf 1aaa f3c0 29f2 f13f ad90 04c1
00000160: 1f96 45c0 36b6 12bf e8ab 4c40 4856 ccc0
00000170: 7767 4fc1 27d4 3d40 9136 77c1 90d9 e0c0
00000180: b94c 28c1 9d3c 7f3f 0b0d 54c0 5ff7 6b40
00000190: 7e91 3cc1 99eb a63f ecd8 18c1 609f ff3e
000001a0: 3e41 9bc0 c5c2 3440 12e7 3bc1 5ce9 4ec1
000001b0: f055 75c0 6f99 c9c0 d318 0840 37f8 ecbf
000001c0: 3287 57c1 929d 593f 3695 43c1 2412 99c0
000001d0: 4a2a a6bf 9bea eac0 c6a4 16c1 75fa 0b40
000001e0: 52c0 99c0 cdc9 1dc1 375f 43c1 0c87 bebf
000001f0: 2cd4 17c0 276c 46c0 85e4 96c0 835f 18c1
-9.590572 -5.4740067 -1.4023753 -2.5652096 2.2067099 1.9256586 -9.260311 -8.191509
-5.572763 -4.95693 1.3674453 -2.8193371 -12.262844 -4.911634 2.1536343 -13.6308975
-2.1445796 -2.7710085 5.21261 -6.3549166 0.62075883 -10.221455 -6.5362864 -7.5481367
-3.1511846 -5.8603363 -12.962815 -5.7571473 -8.092454 -8.6487875 -0.05653341 -5.412128
-2.0880702 -0.8910986 3.4293878 -4.7848935 5.96821 -2.4300902 -4.2406363 1.5562701
-9.433738 -11.919764 -7.283303 1.1482755 -4.2980456 -2.186967 -4.5019693 -2.8866448
-8.903046 -6.705447 -12.002614 3.2836308 -1.6312302 -6.821313 3.261386 -14.248819
1.1647015 4.1307173 2.3853955 -4.097663 -5.419373 -6.197467 6.1209064 3.6346223
3.0365777 1.2822008 -6.055459 -1.4603652 -9.007562 -2.3726208 -3.1146178 -5.334967
3.0587118 -5.847791 2.4345815 2.4060965 -11.37397 -7.215931 -12.222378 -5.7575474
2.4949324 -4.033092 -7.563731 -6.199964 -1.3754619 -7.6145144 1.8902026 -8.285321
-3.0872877 -0.5730928 3.1979923 -6.3855324 -12.96276 2.9660738 -15.450822 -7.026558
-10.518731 0.99701864 -3.313296 3.6869733 -11.785521 1.3040649 -9.552959 0.4992628
-4.851714 2.8243878 -11.743914 -12.9319725 -3.8333702 -6.2999797 2.1265152 -1.8513249
-13.470507 0.8500606 -12.223928 -4.7834644 -1.2981656 -7.3411384 -9.415228 2.1871617
-4.8047266 -9.861768 -12.210746 -1.4884963 -2.372325 -3.100351 -4.7153955 -9.523318

actor_layers.0.weight f4 [128, 128]
00000000: 0125 afbd 0e6d d33c a024 b5bd dcbc 06be
00000010: 9725 34be 8e8d b03d ba40 af3c 6645 a73d
00000020: 9183 693c 1cf1 9e3d 0445 05be 5dc2 92bd
00000030: eedc 3b3d 0157 ebbd 4e47 a9be 146c 793d
00000040: 4480 44be f1fe d83c 9eb2 52be b3de 00bb
00000050: dc9d 75bd 3297 eb3d cd8b 7dbd b0bf 253d
00000060: 89b5 983c 3d8c 3a3d ad5b 1a3c 1189 80be
00000070: 780f 363e e1bc 73be 252f 7abe d1cc 16be
00000080: 2a06 85be 28e3 35bb 3e7a bdbc ac5e 45be
00000090: 0853 99bd 1a21 8f3c af8d 9a3d a7c3 f63d
000000a0: f55d 673e 1dc9 d3bc e62b c2bd 30f5 e8bd
000000b0: 7f87 ffbe ce32 a33b 15ad 67be d3a4 3bbe
000000c0: 5905 4cbe 0200 a9bd e907 cfbe dcee 453d
000000d0: c07c 623d 5e7f 77bd 9b9e cdbe 994e 92bd
000000e0: ac42 d83c 558f 5abe de9e adbd 2ab8 0abe
000000f0: f488 dd3d 364b c8bd 520f 0f3d a9ae 7ebd
00000100: 7f2a 7ebd d268 0abe 142d dabd 1d19 88bd
00000110: ff9a 143d c2a1 743d 4417 593d 5c51 823d
00000120: 799e 09bd adbb adbd c0f8 2d3e d5ff 98bd
00000130: 18d2 933d dd26 01be fba6 d4bd b780 79bd
00000140: 5d25 a73b da5b 2ebd cbf2 40be 75f2 83bd
00000150: 9844 dfbe 8179 07be 8f2a 4ebe bfe0 b83c
00000160: 64af e73d fcc8 163c 92ba 59bd 44b5 b3be
00000170: 6858 133e c401 e2be 3eba 1ebd 2fe8 da3d
00000180: 996c b8bd 509c 9fbe 4aaa 44be c586 a4bd
00000190: 69e2 e0bd fd07 c5bd 24f3 2b3e eda9 a8be
000001a0: d003 9abd c6ee 5fbe 6550 4bbd cc9b 6a3d
000001b0: 6aa8 ecbd 7b2d d83c ae65 cbbc ec57 80be
000001c0: 99e2 f2bb cf01 d53c 18e7 20bd ad6b 34bc
000001d0: 848c 13be 6e49 ddbc 2262 49bd 2fa5 0d3e
000001e0: 348f c83b 308d 8cbd 7162 8bbd ff16 00be
000001f0: b20a 613d aafc dfbe aebe 493d cf0f 893d
00000200: 0022 e6bd cbf8 123d 9678 78be 5348 69be
00000210: 81f2 90bd 431b 7fbe 1311 4a3c 06c0 8c3e
00000220: 591d 5a3e 6a74 0c3e f1c9 40be 643d b9bc
00000230: e2f1 bf3e 20d7 133e 78dc 133e c610 043c
00000240: 2b80 34be 7f2e 59be 1a60 70bc 487c 91bc
00000250: 6daf 303c d1be 0c3e 820b 18be 95e8 803e
00000260: ea22 da3d aeb0 cc3c 9f73 743e 8968 793e
00000270: 2130 243e 8d35 b43b 08a6 eebc 93c8 753e
00000280: f672 c1bc bfd6 74be 4d15 dbbe 6191 ebbd
00000290: 628d 62be 8ae2 9e3e da20 a83c ff72 a6be
000002a0: 0534 c4bd c4f9 a83e ca40 4c3d 4e6f b0be
000002b0: 12e9 c1bd 1723 8d3d fe75 b3bd e1ac ba3e
000002c0: 4719 4e3e 2230 55be b19b 343e 379c debb
000002d0: c125 a03e 2cf7 9f3e 9516 9e3d ab82 0a3e
000002e0: a798 2dbd 9947 fc3d 0ecb 1abd f20a b1bd
000002f0: cc96 76be d17c 9e3e 15a7 cbbd 2d66 d1be
00000300: df93 d83d b89c 09bf 3ae4 c2be 2b41 ba3c
00000310: 97de f73c 86c9 653e 5e03 443c 4b99 2f3d
00000320: 2af1 873e 9d72 0e3e 4600 0abe 67dd d4be
00000330: ad65 febc f403 15be f0f8 cdbc a113 943d
00000340: b368 43be 3bc7 653e 3770 933d cce3 533e
00000350: 7c46 8c3e 5594 a9bc 2813 d6be 4e8b 063c
00000360: 848b 2a3d 9cfd 793e e724 3ebe d72b f33d
00000370: 4695 24be 4ce9 ca3d 5a88 a4be 9015 2ebe
00000380: 76aa 143e 8364 72be c615 f63d 5d3f 4cbe
00000390: eb17 bb3e 15c7 a83c f3b8 183d d54d d1bd
000003a0: 3391 cbbb 08cb d93c a196 7f3d fb66 85be
000003b0: 9a4a 353e e3e9 9f3e 3cca 2ebe 96b4 2e3e
000003c0: 4cc2 dd3d c115 d1bd a24f 943e 06b9 0ebe
000003d0: bb21 e13b 0324 c33d 9cf0 18bb 3929 adbc
000003e0: dbd4 163e eafe 993d ed1c 553e 3d97 17be
000003f0: 9b41 88bd 30e8 583d 9581 153c f3a1 0b3e
-0.0855198 0.025808837 -0.08844876 -0.13157982 -0.17592464 0.086207494 0.021393169 0.081675336
0.014252559 0.07760832 -0.13014609 -0.07165978 0.04586499 -0.11491204 -0.33062214 0.060894087
-0.19189554 0.026488753 -0.2057595 -0.001966399 -0.059965 0.115034476 -0.061900903 0.04046601
0.01864125 0.045543898 0.009421271 -0.25104573 0.17779338 -0.2380252 -0.24432047 -0.14726569
-0.25981265 -0.0027753804 -0.023129579 -0.19274396 -0.0748654 0.017471839 0.07546555 0.120490365
0.22594436 -0.025852734 -0.09481029 -0.11374891 -0.49908063 0.0049804216 -0.2262462 -0.18324594
-0.19923915 -0.082519546 -0.40435722 0.048323497 0.055294752 -0.0604242 -0.4016007 -0.071438976
0.02639898 -0.2134374 -0.08477567 -0.13546816 0.10817137 -0.0977997 0.03492672 -0.062178288
-0.062052246 -0.13516548 -0.10653129 -0.06645415 0.03628063 0.059724577 0.053000703 0.06363174
-0.033598397 -0.08483062 0.16989422 -0.07470671 0.072178066 -0.12612481 -0.103834115 -0.060913768
0.0051008896 -0.042568065 -0.18842618 -0.064427294 -0.4360702 -0.13229944 -0.20133422 0.022568105
0.1131275 0.009203192 -0.053156443 -0.35099232 0.14389193 -0.44141972 -0.038751833 0.10688817
-0.09005088 -0.31173944 -0.19205585 -0.08033518 -0.10980684 -0.09620664 0.1679197 -0.32942143
-0.075202584 -0.21868429 -0.049637217 0.057277486 -0.1155556 0.026388874 -0.024828758 -0.2506708
-0.0074122665 0.026001839 -0.03928289 -0.011012 -0.14409071 -0.027012553 -0.049165852 0.13832544
0.006120587 -0.06862867 -0.068058856 -0.12508772 0.05494184 -0.43747455 0.049254112 0.066924684
-0.11236954 0.0358818 -0.2426475 -0.22781496 -0.07077504 -0.24912743 0.012333172 0.27490252
0.21300258 0.13716283 -0.18827035 -0.022612281 0.3748923 0.14437532 0.14439571 0.00806064
-0.17627017 -0.21209143 -0.01467135 -0.017759457 0.010784012 0.13744666 -0.1484814 0.25177446
0.106511906 0.024986591 0.23872231 0.24356283 0.16033985 0.005499548 -0.029131904 0.24002294
-0.023614388 -0.23910044 -0.4278969 -0.11502338 -0.22124246 0.3103221 0.020523477 -0.3250961
-0.095802344 0.33003056 0.049866475 -0.3445992 -0.09468283 0.068914585 -0.087627396 0.3646002
0.2012683 -0.20819142 0.17637517 -0.0067935246 0.31278804 0.31243265 0.07719151 0.13526408
-0.04238191 0.12318344 -0.037791304 -0.08644666 -0.24080962 0.30954602 -0.09943978 -0.40898266
0.10575079 -0.5375476 -0.38064748 0.022736153 0.030257506 0.22440156 0.011963693 0.0428708
0.2655118 0.13910909 -0.13476667 -0.41575167 -0.031054342 -0.14552289 -0.025143117 0.072303064
-0.19082908 0.22439282 0.07199138 0.20692366 0.27397525 -0.020700613 -0.4181149 0.008211924
0.04163696 0.2441315 -0.18568765 0.11873596 -0.16072568 0.09907779 -0.32135278 -0.17000413
0.1451815 -0.23671155 0.12015872 -0.19946046 0.36541685 0.020602742 0.037285756 -0.102199234
-0.0062123775 0.02658607 0.06239951 -0.2605513 0.1770424 0.3123313 -0.17069334 0.17061076
0.10828075 -0.10209227 0.28967005 -0.13937768 0.006870476 0.09528353 -0.0023336774 -0.02113782
0.14729635 0.07519324 0.20811816 -0.14803787 -0.06653138 0.052955806 0.009125133 0.13635997

actor_layers.0.bias f4 [128]
00000000: 2e27 11c0 53a7 5cc0 a3a8 303f 5030 12be
00000010: 4c03 63c0 06c3 37c0 e645 7cc0 df55 2b3f
00000020: cb65 4c3f 5ff3 c1bf c9d6 953f 2b17 aebd
00000030: 38c0 0740 4ed4 c2bd 40d0 e9c0 99cb 4740
00000040: 74b8 943f d083 1540 6e70 7640 e64b d63f
00000050: 24a8 a23e 61e9 54c0 3289 6cc0 09a5 283d
00000060: da07 533f f127 d8bf 97fb 2a40 5d94 96be
00000070: 9290 21bd a110 c6bf 7773 39c0 7bce e7bf
00000080: 3b87 c6bf a58b 14be 8ad9 12bf 72e2 6e40
00000090: f06e df3f 52a3 a03e b5be e8bd b13a 24c0
000000a0: 10cb 4640 8b7d 8bbd 3947 c63e 0c5c 0dc1
000000b0: d3a1 d2bd b48b 9d40 46a2 0f3f 6454 9dbf
000000c0: 4bd5 8040 a187 03be 185d 3d3d 5115 92be
000000d0: c740 02c1 9d84 3d3e 7505 87be 7f11 803f
000000e0: 9ef4 1640 571d 06c0 ba43 99bf 577c e03f
000000f0: b24f 0cc0 af37 cb3d 4856 c9bd 20d6 093f
00000100: 7103 16bf 94e0 833f d518 da3f eb6b 42bc
00000110: 9246 0140 edfe b5be 86fc e1bd 96c4 a03f
00000120: 380d 4c40 a9f1 a2c0 c67a 0740 3c0e f93c
00000130: 2afb c13f a738 25bf 63dc 2540 fcdf b3bf
00000140: 2d24 0fc0 23b8 c3bf 71e1 043f d65e efbc
00000150: 73fb ebbf 919f cabd 508f 0b40 de5b 7ac0
00000160: 619a 833c 20c7 8540 c491 e6bf 123b 5ac0
00000170: 8322 ddbd 397a 573f 5ce8 8d3e e2c0 b13f
00000180: ea16 36c0 0c0d 17c0 f185 a9c0 ba55 3040
00000190: cdf0 903f 1b20 0940 e55f 52bd d722 ab3f
000001a0: ccda eb3f 1527 a8bf 860b 823e 7f44 0f40
000001b0: 3006 0740 c8ae 2240 3c9f 32be 689e 3840
000001c0: fe63 42c0 23b1 75c0 0d71 5cc0 7ee0 6bba
000001d0: 7e14 3640 ffda 1fc0 d75b 0fc1 5242 6340
000001e0: 2a9b 76bf 2ddf 5e40 a4f3 e9be 5f5b 513f
000001f0: 43dd 31bf e72f 0f40 05b7 0abf 9e8a 103f
-2.2680163 -3.4477127 0.6900732 -0.14276242 -3.5470762 -2.8712783 -3.9417663 0.66927904
0.79842824 -1.5152396 1.1706172 -0.08500513 2.121107 -0.0951315 -7.306671 3.1218016
1.1618791 2.3361702 3.8506122 1.6741912 0.31768906 -3.3267443 -3.6958737 0.041173015
0.82433856 -1.6887189 2.6716058 -0.29410067 -0.039444514 -1.5473825 -2.8976724 -1.8109888
-1.5510019 -0.14506395 -0.5736319 3.7325711 1.745573 0.31374604 -0.113644995 -2.5660822
3.106144 -0.06811055 0.38726214 -8.834972 -0.10284772 4.9233036 0.56106985 -1.2291379
4.0260367 -0.12844707 0.04623136 -0.28531888 -8.140815 0.18507619 -0.2637135 1.0005339
2.3586802 -2.0955408 -1.1973794 1.7537946 -2.1923642 0.0992273 -0.0983091 0.53842354
-0.58599 1.0302911 1.7038828 -0.01186655 2.0199323 -0.35546055 -0.11034493 1.2559993
3.1883068 -5.0919995 2.1168685 0.030402295 1.5154774 -0.6453957 2.5915763 -1.405273
-2.236583 -1.5290569 0.51906496 -0.029220026 -1.8436111 -0.09893716 2.180622 -3.9118571
0.016064825 4.1805573 -1.8013234 -3.4098554 -0.10797598 0.8417087 0.2771634 1.3886988
-2.8451486 -2.3601713 -5.2976003 2.7552323 1.1323487 2.1425846 -0.051360983 1.3370007
1.8426147 -1.3136927 0.25399417 2.2385557 2.1097527 2.5419178 -0.17443556 2.8846684
-3.037353 -3.8389366 -3.4444 -0.00089979905 2.8450007 -2.4977415 -8.959922 3.5509229
-0.9633051 3.4823716 -0.45693696 0.81780046 -0.69478244 2.2372987 -0.54185516 0.56461513

actor_layers.2.weight f4 [128, 128]
00000000: e873 35bd 581f d5bc 93a3 debd f694 96bd
00000010: c834 c4bd 6f69 18be c897 b5bc 53d7 04be
00000020: f059 55bd 9337 8abd 06a5 7ebb a37b f0bc
00000030: d11c b2bc 03a6 50bd f354 e6ba 8aec 173d
00000040: 89dc 91bd 735a 64bd 2760 6fbe a29d abbd
00000050: 4cd8 20bc 1d30 173d 6357 e1bd c2cf 643d
00000060: 049e 33bd 46eb d3bd 0f94 e33d 87bb 8abc
00000070: 11c3 903d 0659 eebc f3b4 5d3d ac1e 873d
00000080: 98e6 983d 56b1 d2bc b04d c4bc 5827 55be
00000090: 5c52 d73b e706 b2bb 53c8 553d 999f a7bd
000000a0: 7169 993c 1619 fd3c 78d8 b6bd 89c9 c4bd
000000b0: bf22 bdbd 1ba7 9e3d 56a7 58be ffef 3cbe
000000c0: dde5 2a3d 3c62 843d e780 0d3d 122f 88bd
000000d0: 8749 2fbd 3754 4a3d 2352 fdbb 993e a33c
000000e0: f20c e7bd fabb 16be 899a 3fbd 9f36 88bd
000000f0: d73a 80bd 33c2 c83d 6077 4c3d ff0f 7dbd
00000100: 1f67 a4bd 109b e3bc becb cdbc ae09 b9bc
00000110: 1397 3f3e d775 033d 2dff 5abd 880e 9fbd
00000120: 48af afbe b4dd 26bd 3043 8dbd 1dbf 8f3d
00000130: b442 e3bd b3cf 3cbd 41db 6ebd d33a 973d
00000140: cb95 813c fc3a 82bc 198f 223b fcb4 b33c
00000150: cbdc d4bd b35e 15bd cd2a e53d 84cd f8bd
00000160: 19fe e6bc 9d27 bc3d 2888 e2bc 67d4 70bd
00000170: 0c88 12bd 2c1d 94bd abcd 44be 52db 88bd
00000180: 1714 b23d 6ee2 3cbe db7a d93c 2f10 73bc
00000190: 75fa 51be 5c81 efbd b568 d2bc 0f5c a9bd
000001a0: c4c0 193d 576d bfbd 96c3 b13c 970e f9bd
000001b0: 6752 72bd c407 1d3d 1832 353d 0a3e 1ebd
000001c0: 711c 3bbe fbcc 49bd 2545 7e3d cf0d 593c
000001d0: 98f4 6b3d efc4 ea3c d6e8 8ebc 4267 03bd
000001e0: d357 80be 86ea 80bc 198b f43c 7da0 33bb
000001f0: 586c cebd e591 75be 041b bbbc 7e35 e2bd
00000200: 3f40 243d 149c 29bc 8bec f7bd 247e 8b3d
00000210: a800 48bd f837 6cbd 26d9 6cbd 7bd6 74bd
00000220: db1b 80bd 2dc4 723d 1e1d a8bd 1fc4 733d
00000230: 4381 e2bc c3fb 813d 9e1c 01be 35e5 7cbd
00000240: 66e2 49bd 3bca 093c 82a5 2b3d 8d53 8fbd
00000250: d165 bf3d 167a d4ba a0dd c63d 7803 f73c
00000260: 40d0 713d b3ad adbd 7315 9ebd 8f94 88bd
00000270: fc10 863d b86a 26be 6070 0bbd a190 653d
00000280: a33b a2bd 511f 15bd dae7 48bd ce9a 7bbc
00000290: d9ad cd3d 4817 76bc 6e6a 95bd a333 1bbd
000002a0: c640 dcbc c074 563d 052d edbd 99dd 14be
000002b0: 47a4 cbbc 4e14 d2bc a5f8 40bd 3b39 633c
000002c0: 659a 3e3b 2036 9cbd 63df 573d cbea 0e3d
000002d0: 30ee 92bd 7423 d4bd 8cf5 383d 86cb 57bc
000002e0: d95a 07bd 3f73 3c3c 7da1 933d fc12 22bd
000002f0: 2746 56bd f5d0 173e e7c2 ebbb b5cc 33bc
00000300: 014b 0cbc ce64 8d3d 5e5d e0bd 1af6 17bd
00000310: 26d5 70bd abe0 afbd b8fc a1bd 1bf5 89bd
00000320: 4c31 a83e 56e3 84bc fb59 fcbd 5701 84bd
00000330: 4f25 e3bc 99c2 81bb fe19 18be 989a 4ebd
00000340: 25dd 16bd 8b17 d3bd 0dfb f6bd 2bac dd3c
00000350: 15a6 5bbd 9f09 7a3d 4ec1 813d 181b 3bbd
00000360: 3bf3 8d3d 88ab f5bc f03f e8bd 3b62 eabc
00000370: 78a0 073d dfec 623c 9925 bcbd 7188 12bd
00000380: 0921 d6bd 8024 fb3c 3c57 ddbc 89ac 11be
00000390: e706 0ebe 4680 543d 4cd4 b83d 8a8d cabd
000003a0: c31b 1a3e 4a52 ac3b 68d9 b03d 4ca3 dabd
000003b0: 94ee 80bd 8a0d 7c3c 338f 22bd d2bf 18bc
000003c0: 0f01 63bd 3d32 2bbd 283f 0a3d 73d5 c4b8
000003d0: aa74 e73d d986 723c 271d 2cbe 0410 12bd
000003e0: a336 883d bcb9 8f3d 3768 06bd a065 13be
000003f0: 6c30 6abd 875a 00be d74c c53d 6572 00bd
-0.04429999 -0.026015922 -0.10871043 -0.07352631 -0.0958038 -0.1488397 -0.022167102 -0.12972765
-0.052087724 -0.06748881 -0.0038855686 -0.02935583 -0.021742256 -0.05093957 -0.0017572924 0.037090816
-0.07122142 -0.05575032 -0.23376523 -0.083796754 -0.009817194 0.03691112 -0.11002996 0.055862196
-0.043851867 -0.10347609 0.11112224 -0.016935123 0.07068456 -0.029095184 0.054127645 0.06597647
0.07465857 -0.025719326 -0.023962826 -0.2081579 0.0065710973 -0.0054329517 0.052192997 -0.08184738
0.018727036 0.030895751 -0.08928007 -0.09608752 -0.09235143 0.077467166 -0.21157584 -0.18450926
0.04172312 0.06464049 0.03454676 -0.06649603 -0.04279473 0.04939672 -0.0077307387 0.01992731
-0.11281766 -0.14720145 -0.046778236 -0.06651043 -0.06261223 0.098026656 0.049918532 -0.061782833
-0.08027481 -0.0277839 -0.025121566 -0.022587623 0.18709974 0.032094803 -0.05346601 -0.077664435
-0.34313416 -0.040738776 -0.068975806 0.07018874 -0.11096707 -0.046096515 -0.058314566 0.07384267
0.015818497 -0.015897267 0.002480453 0.021936886 -0.103936754 -0.036467265 0.11189804 -0.12148574
-0.028197335 0.09187243 -0.027652815 -0.058796313 -0.035774276 -0.072321266 -0.19219081 -0.06682457
0.08695238 -0.18445751 0.02654784 -0.014835401 -0.20505698 -0.11694595 -0.025684694 -0.08269512
0.03753735 -0.09347027 0.021699708 -0.12160986 -0.059160616 0.038337484 0.044237226 -0.038633384
-0.18272568 -0.04926775 0.06207766 0.013247921 0.05760631 0.028658358 -0.01744501 -0.032080896
-0.25067005 -0.01573683 0.029851483 -0.002740889 -0.10079259 -0.23981436 -0.02284003 -0.11045359
0.040100332 -0.010352153 -0.12105664 0.06811169 -0.04882875 -0.057670563 -0.057824276 -0.059774857
-0.06255313 0.05926912 -0.08208679 0.059513208 -0.027649527 0.06346848 -0.12608573 -0.061742026
-0.049288176 0.008410032 0.041905887 -0.06998358 0.09345592 -0.0016210701 0.0971024 0.030153021
0.059036493 -0.08480396 -0.07718935 -0.0666896 0.06546208 -0.16251647 -0.034042716 0.056046132
-0.07921531 -0.03640682 -0.049049236 -0.0153567325 0.100429244 -0.015020199 -0.072956905 -0.03789104
-0.026886355 0.052357435 -0.115808524 -0.14537658 -0.024858607 -0.025644448 -0.047112126 0.013868625
0.0029083726 -0.07627511 0.052703273 0.034891885 -0.07174337 -0.10358325 0.045156047 -0.013171082
-0.033045623 0.011502086 0.07208536 -0.039568886 -0.052312996 0.14825805 -0.007194865 -0.010974099
-0.008562804 0.069039926 -0.109553084 -0.037099935 -0.058797024 -0.08587774 -0.079095304 -0.06736203
0.3285011 -0.016221683 -0.1232185 -0.06445568 -0.027727751 -0.0039599654 -0.14853665 -0.0504404
-0.036831994 -0.10307225 -0.12059603 0.027059635 -0.053625185 0.06104433 0.06335698 -0.045680135
0.06931158 -0.029989019 -0.1134032 -0.028611293 0.03311202 0.01385042 -0.09186859 -0.035774652
-0.1045552 0.030657053 -0.027019136 -0.14225973 -0.1386982 0.051880144 0.090248674 -0.09890278
0.15049653 0.005258833 0.08635217 -0.10675678 -0.06295505 0.015384087 -0.039687347 -0.009323077
-0.05542093 -0.041795958 0.033751637 -9.385766e-05 0.11301549 0.014802658 -0.16807996 -0.035659805
0.06651046 0.07017848 -0.03281423 -0.14394236 -0.057175085 -0.12534533 0.09633797 -0.031359095

actor_layers.2.bias f4 [128]
00000000: 10f3 9ebe 8fff 01bd 829f 763f 1ddd e6bf
00000010: 8e9f ec3e d59c 083e 89db b4bd 23f5 8cbe
00000020: 765e 8b3e c80c bfc0 dd87 d2bc c492 5ebf
00000030: 87fe 2abe ac21 c1be c603 d13a 0241 5dbe
00000040: 34df 413f ed3f d1bc 5737 18be 1f3a 1fbe
00000050: 7e1d e4be af0b 19be 9d6c 1cbe 9fa8 f9bd
00000060: 8081 f2bd 3647 3bc0 52d1 89bc 7d91 b2be
00000070: 9708 a0bd eb51 48bc 0b51 ccbe a663 4abe
00000080: 54ef 903c db5a 6b3e 67fc 4ebe ca6d 9a3f
00000090: e4c1 88be f4a2 02be 14ce 16be 6e1d 33bd
000000a0: 4071 0bbe 8ec5 dfbd 1059 7dbd 4200 f5bd
000000b0: e247 a3be 139b a9be 0f2a 733c 21e2 56c0
000000c0: 7101 f2bd 526a e43e cdde bcbd c4d6 2dbe
000000d0: 5ca6 cabe 3672 e4bf fdf4 843f 9ab2 8abe
000000e0: 1da6 48be ff3f f63d e4e7 22be d08d 92bf
000000f0: 77e3 12be b7cb 25be 8546 99bd 1396 8ec0
00000100: be45 b6bd 7962 0bbe 6ef5 04bf 1704 3f3e
00000110: 9310 d6bb 4128 debe 765d 2bc0 ea65 2abe
00000120: 0e7d 2abe 08e8 d7bd 10e7 4cbd ec04 0f3e
00000130: 1629 edbd 7272 4bbe 440f 90be 9dc0 cbbe
00000140: 6113 d0be 9875 233d 0e2e 123c 4601 10be
00000150: 9d11 8abe 5025 aa3e 42ac b4bd 56bb 7739
00000160: 8ddc a0be a194 65bd 390c 1b40 f7ef 24bf
00000170: b103 1dbd b11c b83c 7abb 803f 2099 30be
00000180: e32c 0ebe 7c2b 223c 709e 053f 18d7 b73f
00000190: 1163 b7bf be21 b6be 5923 65bd d208 4d3f
000001a0: c180 48be 32f7 963f 34a9 163e 2f98 fabe
000001b0: 5dce 8f3e 1670 4cbe d8c4 82c0 a057 4b40
000001c0: 5ad7 023d 3389 1cbe 2089 8abe 11c4 fcbd
000001d0: 765c 29be b213 c9bc 5400 de3d a6ae ccbd
000001e0: 87ad 2f3e 1c91 873c 2148 e0bd 1a55 57bd
000001f0: d0a0 72be 0686 96be ba9d e53d f033 fabd
-0.31044817 -0.03173786 0.9633714 -1.8036228 0.4621548 0.13341077 -0.088309355 -0.27530774
0.27220505 -5.97031 -0.02569955 -0.86942697 -0.16698657 -0.37721002 0.0015946559 -0.2160683
0.75731206 -0.025543178 -0.1486486 -0.15549515 -0.4455375 -0.14945863 -0.15275808 -0.12190365
-0.118411064 -2.9262214 -0.016823445 -0.34876624 -0.078141384 -0.012226562 -0.3990558 -0.19764575
0.017692246 0.22983877 -0.20213471 1.2064755 -0.26710427 -0.12757474 -0.1472705 -0.04372924
-0.1361742 -0.109263524 -0.061852515 -0.1196294 -0.3189078 -0.33126125 0.0148415705 -3.3575518
-0.11816681 0.44612366 -0.092221834 -0.16976458 -0.39580047 -1.7847354 1.0387264 -0.27089387
-0.19594617 0.12023925 -0.15908772 -1.1449528 -0.14344583 -0.16190992 -0.07484154 -4.4558196
-0.08900021 -0.13611783 -0.51936996 0.18653904 -0.0065327375 -0.43390086 -2.6775794 -0.1664044
-0.16649267 -0.10542303 -0.050025046 0.13966721 -0.11580102 -0.19867876 -0.28136647 -0.3979539
-0.40639785 0.039907068 0.008922113 -0.14062986 -0.26966563 0.33231592 -0.08821918 0.00023625544
-0.31418267 -0.056049947 2.422621 -0.6442866 -0.0383336 0.022474619 1.0057213 -0.17245913
-0.1388431 0.009898063 0.5219488 1.4362516 -1.4327108 -0.35572618 -0.055941913 0.80091584
-0.19580366 1.1794188 0.14712983 -0.48944232 0.2808713 -0.19964632 -4.086529 3.1772232
0.031943657 -0.15286712 -0.27057743 -0.12342084 -0.16539177 -0.024545524 0.10839906 -0.09994249
0.17156039 0.016548686 -0.109512575 -0.052571394 -0.23694158 -0.29399127 0.112117246 -0.122169375

actor_layers.4.weight f4 [128, 128]
00000000: 93c1 a5bd 0d83 be3d 1371 f7bd 6982 63bd
00000010: f0e4 a6bd 879c b23d 4eeb 7cbd 4fd0 963d
00000020: cca6 91bd c8d7 ecbc 40f4 febd 3d2f 6c3c
00000030: 9b31 08be 88fe 3a3d a755 99bd a615 b5bc
00000040: ff8b d6bd 957e bbbd 4804 abbd 107b aa3d
00000050: b4c4 48bc 7d45 a73d 264b e0bd d614 cc3d
00000060: 2604 cbbd 7e7b ffbd 8c9b 24bd d206 f03d
00000070: e951 923d ced0 e13c 697c 2ebc f37b ee3d
00000080: bbe8 93bd 020e 4fbe 3a4e 913b 6008 63bb
00000090: 4b9a 79bd ed46 953c 6c20 aabd 77b1 c0bb
000000a0: d0c7 0ebb 7d43 c53d 310c e1bd f4f9 a13c
000000b0: ba34 18be a710 0fbd 9031 a3bc 4fd7 94bd
000000c0: 0841 ab3a 5843 89bb ba08 9a3d 7984 b2bd
000000d0: dab7 a3bd 9618 dbbd a96e c9bd 63cf 0cbd
000000e0: 7620 b43d 34ba 82bd 6df5 9fbb 24fe a1bc
000000f0: 7e9c a83c 8fcf 19bd e446 cd39 87e2 27be
00000100: 0f72 b6bd 425e b63d cdfa 903a a2bc ae3b
00000110: b821 98bd 1027 28bd 8fcc 9abc 6656 df3c
00000120: a2b2 353d 4246 70bd 638c 973c 0796 91bd
00000130: dd5d 6bbd 929d 4e3d 5f83 263c bb5d c6bc
00000140: 3f86 a23c 7266 623d 2cf7 f9bc 313e a93d
00000150: 38fe 973c 8f9d d7bd 91b8 6d3c af95 d6bc
00000160: 9efb 2a3d 15e3 193c 300c c8bc 5898 d3bd
00000170: 3084 943c 92ba 3bbd 4dcc 5e3b 670b 74bd
00000180: eb76 753d 9e7a 5bbd cfba 0abe f103 b6bd
00000190: 6855 eabd 5c7e dc3b 243c 243c f96e 22be
000001a0: cc0e e43c b896 b6bd 3bc1 583d 79bd ad3d
000001b0: 62ce 0d3d 071a 583d f98c 1cbd f870 9fbd
000001c0: 359b eabd 75ab fbbc bf3e 643d 5413 19bd
000001d0: 9cc8 babd 5552 2f3d ace3 ddbd 5d95 3f3c
000001e0: 9ca6 4abe 1401 9ebd 833d 8bbd 7dd3 50bc
000001f0: 88fc 843d 6da7 f5bd 5342 acbd cab2 af3d
00000200: 4421 4c3b 54ea c8bc 93ee 51bd 6717 81bc
00000210: 32b7 54bd baed 95bd 8c0d c1ba 4246 e63b
00000220: ac39 a6bd 62d6 d1bd 67d1 093d 9e5e debd
00000230: 7f6c 673c 7911 dabd e2be dabd 97c8 61bd
00000240: af1f a7bd c340 65bd 6bcc 93bd 6601 dfbc
00000250: 831b 2fbd 435e a13b df30 75bd 984d 11bd
00000260: 5445 263d 7386 5ebc 115b 843d 99b6 423d
00000270: e30d c23c 15e4 e23b ba8e 6ebd 5957 c5bd
00000280: 4ca4 bbbd 2c5a 33be ab30 d63c ea51 d6bb
00000290: 31f0 273b dbae a1bd 6760 d7bd 69f5 1d3c
000002a0: c2eb 3dbd 95d7 a4bc 35c2 cebd c345 cf3c
000002b0: bffb 8fbd 365e 26ba 2bdc 63bd c798 8cbd
000002c0: 34b4 b03d 95f3 eabd d3c3 e1bc c227 10bd
000002d0: 2115 babd a162 1f3d 5325 fcbd 5c63 2c3d
000002e0: 6cc0 9d3c e826 453d d26c 3e3d 820a 81bd
000002f0: eb68 a7bc fe44 ec3b 0774 6a3c b050 46bd
00000300: 638b 923d 3451 b43b 4e68 76bd 20ee 4b3d
00000310: 33b9 013d 5572 dabb f528 0b3a 9979 91bc
00000320: 765c f43b c966 473d df82 533d 17a7 603d
00000330: 7b9f 8d3b 0e67 97bd c981 343d cce1 383a
00000340: 4b90 183d 1467 90bc 51bd 6cbd 43b9 453d
00000350: a50f bd3b 926e e73d 1237 873d 29d1 df3c
00000360: 679f efbc 5d1e b1bc a785 b5bd 6e9c da39
00000370: f8a4 87bd 8d9d a8bd 7249 55bd 2fde adbd
00000380: 6a54 d13b 9f4f 8bbd 9e4d 92bb 3dd2 a0bd
00000390: a62e 11be b30e 97bd 1db8 a4bd ac52 84bd
000003a0: c01e 323c c14e 98bd 053c 773d 2141 3dbd
000003b0: f515 44bd 3d9b c73c 3c31 c5bd d492 f0bc
000003c0: 6d30 8cbd d98a 173d ad7f e1bc 4506 aebd
000003d0: 13d5 33bd cc26 56bd e27f 91bd 1eb2 833b
000003e0: 2229 4abe 9343 85bd ad17 edbc a03f 553d
000003f0: b7e4 4f3d d57f 47be 9f8d b8bd 64d2 363c
-0.08093562 0.0930234 -0.12082114 -0.05554429 -0.08149135 0.087212615 -0.06174784 0.073639505
-0.07111892 -0.028911486 -0.12448931 0.014415559 -0.13300173 0.045652896 -0.0748704 -0.02210505
-0.10475921 -0.09155003 -0.08350426 0.083242536 -0.012253929 0.08167551 -0.109518334 0.09964912
-0.099129006 -0.12474726 -0.040187404 0.11720051 0.07144529 0.027565386 -0.010649779 0.11644735
-0.07222124 -0.20220187 0.004434374 -0.0034642443 -0.06093816 0.018222297 -0.08306965 -0.0058805305
-0.0021786578 0.09632013 -0.109886535 0.019772507 -0.14863864 -0.03492799 -0.019921094 -0.07267629
0.0013065645 -0.004188936 0.07521196 -0.087166734 -0.07994051 -0.10698049 -0.0983556 -0.034377467
0.08795254 -0.06383172 -0.004881552 -0.019774504 0.020582434 -0.03755146 0.00039153465 -0.16395007
-0.08908474 0.08904697 0.0011061073 0.0053325454 -0.07428306 -0.041052878 -0.01889637 0.027262878
0.04435981 -0.058660753 0.018499559 -0.071086936 -0.057462562 0.05044324 0.010163157 -0.024214616
0.019839404 0.05527348 -0.030513369 0.08263815 0.018553838 -0.10528099 0.014509336 -0.026194422
0.041743867 0.0093925195 -0.024419874 -0.10331792 0.018129438 -0.045832224 0.0033996284 -0.059581187
0.059927862 -0.053583734 -0.13547824 -0.088874705 -0.11442071 0.0067289304 0.010024104 -0.15862645
0.027839087 -0.08915466 0.052918654 0.08483405 0.03462065 0.052759197 -0.03822038 -0.07785219
-0.11455385 -0.030721406 0.0557239 -0.03737195 -0.091202945 0.042803127 -0.108344406 0.011693326
-0.19790119 -0.077150494 -0.06798842 -0.012745735 0.06493479 -0.119948246 -0.08411088 0.08579023
0.0031147758 -0.024525799 -0.051252913 -0.01575823 -0.05193252 -0.07320733 -0.0014728769 0.0070274184
-0.08116469 -0.102459684 0.033646967 -0.108578905 0.014124989 -0.10647864 -0.10680939 -0.055122938
-0.0816034 -0.055969965 -0.07216724 -0.027222347 -0.042750847 0.004924567 -0.05986106 -0.03547439
0.04059346 -0.01358186 0.06462682 0.04753742 0.023688262 0.006924162 -0.058241583 -0.09635801
-0.091621965 -0.17514867 0.026146254 -0.0065405266 0.0025625343 -0.07894679 -0.10516434 0.00964103
-0.046367414 -0.020122329 -0.10095636 0.02530182 -0.07030439 -0.0006346436 -0.05562989 -0.068650775
0.08628121 -0.11472241 -0.027559197 -0.035194166 -0.09086061 0.03891242 -0.123118065 0.042086944
0.019256793 0.048132807 0.046490498 -0.06300832 -0.020435771 0.007210373 0.01430989 -0.048416793
0.07155492 0.005502844 -0.060158066 0.04978764 0.03167076 -0.0066664615 0.0005308532 -0.017758178
0.0074573113 0.048682008 0.05163848 0.05484685 0.00432199 -0.07392703 0.044069085 0.00070526893
0.037246983 -0.017627276 -0.057797734 0.048272382 0.0057696872 0.113003865 0.06602301 0.027321415
-0.029250814 -0.021620924 -0.08863383 0.0004169675 -0.06623262 -0.082331754 -0.052071996 -0.08489644
0.006388237 -0.06802296 -0.004464819 -0.078526 -0.14177951 -0.073758505 -0.08042929 -0.06461081
0.010871589 -0.07436896 0.060359973 -0.04620469 -0.047872502 0.024366016 -0.09628531 -0.029366888
-0.06845174 0.03699765 -0.0275267 -0.084972896 -0.043904375 -0.052283093 -0.0710447 0.004019036
-0.19742253 -0.065070294 -0.028941954 0.05206263 0.05075523 -0.19482358 -0.09011387 0.0111585595

actor_layers.4.bias f4 [128]
00000000: e81f cabd b79e 00be ac76 3abf 3230 15bf
00000010: 8386 ddbe b950 83be a6c5 96be 65ce 17be
00000020: afa8 cebe 99e3 10be eb16 80be ea23 67be
00000030: 0912 65bc 721d 87be 2304 45be 660a 91be
00000040: 8cf5 a5be 6df0 c2be 7fbc e4bc 7f35 f1bd
00000050: d6f4 24bf d3d0 7abe 2224 79be 5abc 9fbe
00000060: 38ce ccbe cf79 e9be 37b6 07bf 1290 8240
00000070: 2cbf c5be 2789 e5be cbe3 c7be 878e efbe
00000080: 0ebc 18bf 9604 0fbf de4e c3be 5934 0ebf
00000090: aac6 61bd a4cd 39be f87a 3cbe d1b5 0dbf
000000a0: 9125 88be 9381 b5be b4bb 31bf 1392 05bf
000000b0: 35c3 9ebd 9040 51be e7af afbd 86be 8ebe
000000c0: 3b54 d1be e74b c5be dc2a 9abe fc9a 6cbe
000000d0: 10ba 29bf 3c18 cebe 3614 15bf 0581 ddbe
000000e0: de83 2fbf 5b7e dbbe 5668 e2be 9489 f4be
000000f0: 6714 c6be 8ce5 5ebe a77c d7be a499 75bf
00000100: 2827 c0be 7eba 06bf 4793 8d3d 9cbd 95be
00000110: 0f73 10bf 5353 43bd 3344 c0be da1d a2be
00000120: f2d0 19bf 3284 cfbe f7c4 e1be 1556 3dbf
00000130: 871e 65be 9a50 a8be 6149 02be e020 c1be
00000140: df2b 5abe da6f 6fbd b3c6 d9bf ae42 20bf
00000150: 407d 95be 4cee c0be 2fe0 9ebf 819b e7bd
00000160: 3638 24bf bcf5 a0be 20db 41bf 553f 38be
00000170: 19ce a3be ce6b 12bf 3ad8 2dbe b2b1 1cbe
00000180: 3e12 70be fd68 66be 58ee bbbe 47fe 87be
00000190: e8e2 2bbf 9534 1dbe d0ff 153e 63e3 cdbe
000001a0: 6b5f 00bf e8c0 9cbd 0f99 68bc 5039 d7be
000001b0: 29d2 13bf ae62 5bbe f195 8dbe 89f7 5dbe
000001c0: c294 1fbe 5109 58be 1423 f9be 3723 abbe
000001d0: e391 cdbf 0ba0 aebe f93f 36bf 9e14 abbe
000001e0: 1517 98bd 70fd 28be 01fa 8cbe a028 5dbe
000001f0: b6a6 3cbe 986c f9be e4d5 2dbf f5d3 0bbf
-0.09869367 -0.12560545 -0.7283733 -0.58276665 -0.43266687 -0.25647524 -0.2944767 -0.14824827
-0.4036307 -0.14149322 -0.25017485 -0.22572294 -0.013981351 -0.26389652 -0.1923986 -0.28328246
-0.324139 -0.38074055 -0.027921913 -0.11777782 -0.6443609 -0.24493723 -0.2433019 -0.31198388
-0.40001082 -0.45600745 -0.5301241 4.0800867 -0.38622415 -0.448312 -0.3904098 -0.46788427
-0.5966195 -0.5586637 -0.38146108 -0.55548626 -0.0551211 -0.18144852 -0.18406284 -0.55355555
-0.2659116 -0.3545042 -0.6942704 -0.52176017 -0.077520765 -0.20434785 -0.085784726 -0.27879733
-0.40884575 -0.3853447 -0.30110824 -0.23105997 -0.66299534 -0.40252864 -0.58233964 -0.43262497
-0.6856059 -0.4286984 -0.44220227 -0.47761214 -0.3868744 -0.21767253 -0.4208729 -0.9593756
-0.37529874 -0.52628314 0.069128565 -0.29246223 -0.56425565 -0.047686886 -0.37552032 -0.316634
-0.6008445 -0.40530545 -0.44095585 -0.73959476 -0.22374927 -0.32873994 -0.12723304 -0.37720394
-0.21305798 -0.05845628 -1.7013763 -0.62601745 -0.2919712 -0.37681806 -1.2412165 -0.11308957
-0.6414827 -0.3143748 -0.75724983 -0.17992909 -0.31993178 -0.57195747 -0.16977015 -0.1530216
-0.23444459 -0.22500987 -0.3670528 -0.26561186 -0.67143106 -0.1535209 0.14648366 -0.40212545
-0.50145596 -0.076539814 -0.014196648 -0.42035913 -0.57742554 -0.21424362 -0.2765346 -0.21676458
-0.1558409 -0.21097304 -0.48659575 -0.33425304 -1.6060146 -0.34106478 -0.71191365 -0.33414167
-0.074262775 -0.16502929 -0.27534488 -0.21597528 -0.1842297 -0.48715663 -0.67904496 -0.54620296

actor_mean.weight f4 [1, 128]
00000000: 234c 80bd 1d4d 94bc f6e8 a0bd 64ed 22bd
00000010: b0e7 d83c 1324 f1bc 0742 423d a025 803c
00000020: f68f ed3c b6a6 61bc f0f5 38bd 6ecd ad3c
00000030: d937 823d b300 ae3c b878 2b3d e27b fc3c
00000040: 6f0f 1c3c 27a2 b7bc a3e6 1b3d 4a7a d4bb
00000050: 4588 a73c 9d68 c03c 57d1 a63c 22bf 7dbc
00000060: afed f83b aaca ee3b e07e 093d f5e6 ad3c
00000070: 258d 583d 6bb6 00bd 20e4 6b3b 84b0 d7bc
00000080: ef82 c53c da72 79bb a26a 74bd 36ef f83a
00000090: de33 f73c 61d7 45bd 7e45 6abb 933f ab3c
000000a0: 5a56 72bc 1edd 35bd ac0c 3e3c c92d 013d
000000b0: fd86 85bc c9ae 4fbd b65f d1bc 9109 8b3d
000000c0: 4954 9cbb 8864 973c 0be0 cdbc dfba abbc
000000d0: d31f 483c e48e 203b d9c8 59bc 1bfc ac3c
000000e0: fbda 78bd 03f2 cc3c f03f 883c 950d 17bd
000000f0: 4f04 dcbc 98eb 323c c955 0c3c 5455 193d
00000100: 8623 b03c 9ae3 d7bc 542f 363d 0b4e 7c3b
00000110: dfc7 fabc 79bd 22bc 72aa 41bd ce51 473c
00000120: 8c43 d83c e2b4 fabb eb3c c83b d6fc ddbc
00000130: e27a 3d3c cfdb 723c 031b 8f3c e278 843d
00000140: cbfd 363c d4de 833c 0cd2 9a3c 572f 053d
00000150: 20ae 1f3d e98c 13ba c985 043d 33d5 fbba
00000160: bcf2 32bc e6e7 e53b 414e a03c de87 2cbd
00000170: af33 cbbc 2a48 f53c 563a 98bc 1123 c1bc
00000180: 445a 85bc dfca 35bd 61f6 84bc 09d6 133a
00000190: 063c b03c 10de 5c3c 080c 6cbd c05c 41bd
000001a0: 5657 c2bc b276 a33d ed59 84bc 7131 0abd
000001b0: b658 bcbc 9185 8b3c 2686 933b 3acc 443c
000001c0: 37c5 34bd 2715 53bd efe5 673c 8733 1ebd
000001d0: d103 e93b 6d4f 343c 15c8 c33c ea51 49bc
000001e0: cc57 cdbc e4ca cd3b 8e42 8ebb d7ee 8dbc
000001f0: 4730 31bb 03f2 493d 56bd a9bc 0555 3fbb
-0.06264522 -0.018103177 -0.07856934 -0.039777175 0.026477665 -0.029436147 0.04742625 0.015642941
0.02899931 -0.013772657 -0.04515642 0.02121612 0.06358308 0.021240568 0.041863173 0.03082079
0.009525164 -0.022416187 0.03806175 -0.0064843046 0.02045072 0.023487383 0.020363493 -0.015487464
0.0075966935 0.007287343 0.033568263 0.021228293 0.05286898 -0.031423967 0.0035994127 -0.026329286
0.024110286 -0.0038062842 -0.059672005 0.0018992189 0.0301761 -0.048301104 -0.0035746987 0.020904338
-0.014791096 -0.044400327 0.011599701 0.031537805 -0.016299719 -0.050703797 -0.025558334 0.06788934
-0.0047707898 0.018480554 -0.025131246 -0.02096313 0.012214619 0.0024499232 -0.013292515 0.021116307
-0.06075571 0.025017744 0.01663205 -0.036878187 -0.026857523 0.010920428 0.008565375 0.03743489
0.021501314 -0.026353646 0.04447873 0.0038498666 -0.030612884 -0.009932869 -0.04728169 0.0121655
0.026399396 -0.0076509574 0.0061107776 -0.0270981 0.011564942 0.014822914 0.017468935 0.06468369
0.011168907 0.016097464 0.018898986 0.03251585 0.038984418 -0.0005628602 0.03235415 -0.0019213319
-0.01092213 0.00701617 0.019568564 -0.04212176 -0.024804918 0.029941637 -0.018582504 -0.023576291
-0.016278394 -0.044382926 -0.016230764 0.00056394987 0.021512996 0.013480678 -0.05762866 -0.047207594
-0.023723286 0.07981624 -0.016156161 -0.033738557 -0.02299152 0.017031463 0.0045020757 0.012011582
-0.04413339 -0.051533844 0.014153942 -0.03862336 0.0071110507 0.011005265 0.023899117 -0.012287596
-0.025066279 0.00628029 -0.00434143 -0.017325802 -0.0027036832 0.049303066 -0.020720165 -0.0029194963
