bc_pid_best.pth (torch, 232773 bytes, 9 tensors)

trunk.0.weight f4 [128, 57]
1.0243516 -1.3473582 2.252017 0.33516452 -0.4538645 0.4140169 -0.1643048 -0.00066875864
-0.09084794 0.11444308 -0.01644096 0.068985395 0.0355214 0.031269886 0.0842219 0.079430565
0.040294338 -0.037698083 -0.1552166 -0.10960876 -0.070928164 -0.0712914 -0.061528213 0.046336208
-0.081542544 -0.052085724 -0.03004822 0.09031703 -0.03253668 -0.08052801 -0.042834617 -0.13493966
-0.077883996 0.11136102 0.026037669 -0.11988623 -0.058675785 0.053842057 -0.12623586 -0.026303338
-0.009587105 -0.0133503685 -0.020980984 -0.0030987419 0.00025168137 0.10661642 0.010375102 0.04169145
-0.13483515 -0.11283159 -0.032389525 -0.1469408 0.02419219 0.102453455 -0.062368385 -0.116593346
-0.13201548 0.8421099 -1.1615344 1.561182 0.55993414 -0.22499108 0.0428017 0.046250984
-0.011510906 -0.05382291 -0.06472935 0.060949523 -0.08622577 0.08372071 -0.07629093 -0.12482236
-0.10749183 -0.032993563 0.099428646 0.10514848 0.014971373 -0.0915789 -0.010494699 -0.06127328
-0.011317758 0.07494534 0.11247479 -0.005595117 0.16826294 0.17057563 -0.06648437 0.12067436
0.10629448 -0.04117689 0.0038555712 0.062950544 0.1519493 -0.037255358 -0.010770054 -0.051498387
-0.07112132 -0.012850363 0.079937845 -0.063901685 0.0398619 0.08778982 0.1029417 -0.051120594
-0.083520114 -0.09305818 0.09891608 -0.047221854 0.070181094 0.0052881325 -0.10146184 -0.10794882
-0.12968647 0.048662663 0.0009297814 -1.2586344 0.8000618 0.33047742 -0.8962371 0.022052506
0.049676284 -0.18347342 0.0022857136 0.008954692 0.045249444 0.048960667 0.012233373 -0.07472961
-0.19156784 0.053096335 0.020956047 -0.082918815 0.006247216 -0.113650054 0.07003846 0.093857095
-0.17515464 -0.09585883 0.081496924 0.07491446 0.013460629 0.07855977 0.07062132 -0.07754087
-0.042952973 0.16137896 -0.06201024 -0.0467248 0.1264245 -0.08613799 -0.062500514 0.15100743
0.07814757 0.16936846 0.14073971 0.0031060386 0.0026827743 0.051011726 -0.08534617 -0.114045076
0.016621262 0.04366293 -0.12904692 0.089561835 0.06569248 -0.0668463 0.0010128655 -0.15161681
-0.0059238696 0.17243674 -0.11755634 0.26002437 -1.1398993 1.2894357 -0.9679734 0.18915896
0.24551515 0.16155802 0.09721847 0.15596913 -0.00838956 0.17209105 0.12093189 -0.024456251
0.008324932 0.12478865 0.103548944 0.057720833 -0.0056900107 0.023345241 -0.105099946 0.08496714
0.09668512 0.054366753 -0.030318245 -0.054616716 -0.030301165 0.05205615 0.13390738 -0.060435843
0.1213977 0.11735075 -0.09935915 0.09953255 0.04754943 0.12711227 -0.011597752 -0.095182054
-0.110256396 0.10626627 0.1425896 0.11979499 -0.11911358 0.036577538 0.09346919 0.10943067
-0.08893219 -0.0480999 0.07896846 0.11976998 -0.14030881 -0.026736446 -0.16251932 0.006001269
-0.14506313 -0.07172153 -0.013463308 -0.07606717 -1.130273 1.6053778 -3.4319766 -1.022992
0.3057044 -0.1978816 -0.07314236 0.03477748 -0.0094990665 -0.040817242 -0.07361014 -0.04258201
-0.096950255 0.05127238 -0.08149698 -0.05482733 -0.18201955 -0.005149491 -0.019371003 -0.0795947
-0.0259098 -0.13888463 -0.0045725536 -0.046733744 -0.077289775 0.035141636 0.04912241 -0.05875713
00000000: f41d 833f 3c76 acbf 0c21 1040 af9a ab3e
00000010: ee60 e8be 06fa d33e 843f 28be a24f 2fba
00000020: 7c0e babd 2261 ea3d 31af 86bc 3748 8d3d
00000030: e37e 113d da14 003d 887c ac3d 7eac a23d
00000040: ad0b 253d 4e69 1abd 1af1 1ebe 8f7a e0bd
00000050: c942 91bd 3a01 92bd 0205 7cbd 09cb 3d3d
00000060: c7ff a6bd d757 55bd af27 f6bc 23f8 b83d
00000070: 2f45 05bd dfeb a4bd 5a73 2fbd 9f2d 0abe
00000080: a581 9fbd 3f11 e43d f34c d53c e986 f5bd
00000090: 0556 70bd 7d89 5c3d f943 01be 197a d7bc
000000a0: 3c13 1dbc 81bb 5abc 50e0 abbc 4314 4bbb
000000b0: 1af4 8339 b659 da3d 55fc 293c a7c4 2a3d
000000c0: 3a12 0abe 4014 e7bd e1aa 04bd a677 16be
000000d0: b32e c63c 1ed3 d13d fe75 7fbd 7ec8 eebd
000000e0: 112f 07be 8494 573f 29ad 94bf d0d4 c73f
000000f0: d857 0f3f 1064 66be d650 2f3d ac71 3d3d
00000100: 3d98 3cbc 6975 5cbd d290 84bd 35a6 793d
00000110: 2397 b0bd c375 ab3d 6b3e 9cbd dea2 ffbd
00000120: ad24 dcbd 4224 07bd 3fa1 cb3d 1658 d73d
00000130: 7d4a 753c b88d bbbd f5f1 2bbc b1f9 7abd
00000140: 1e6e 39bc f17c 993d 2f59 e63d 3e57 b7bb
00000150: 1f4d 2c3e 61ab 2e3e f528 88bd 1e24 f73d
00000160: ecb0 d93d 19a9 28bd c0ad 7c3b 37ec 803d
00000170: 9998 1b3e 1399 18bd e174 30bc f9ef 52bd
00000180: 0ea8 91bd 548a 52bc 74b6 a33d e3de 82bd
00000190: 3b46 233d 26cb b33d 19d3 d23d d463 51bd
000001a0: 980c abbd 4995 bebd 8494 ca3d b46b 41bd
000001b0: 1bbb 8f3d 1248 ad3b 3acb cfbd 4514 ddbd
000001c0: 88cc 04be 8052 473d 93bc 733a ef1a a1bf
000001d0: dad0 4c3f 5634 a93e cb6f 65bf 75a7 b43c
000001e0: 5c79 4b3d 75e0 3bbe e9cb 153b b3b6 123c
000001f0: 7b57 393d fb8a 483d 7c6e 483c d60b 99bd
00000200: 5c2a 44be 8b7b 593d 04ac ab3c 57d1 a9bd
00000210: 72b5 cc3b 5cc1 e8bd 5370 8f3d 2638 c03d
00000220: bd5b 33be a251 c4bd dce7 a63d c16c 993d
00000230: f889 5c3c f2e3 a03d e9a1 903d bfcd 9ebd
00000240: 75ef 2fbd 8740 253e 73fe 7dbd 8162 3fbd
00000250: 6d75 013e 1d69 b0bd 4500 80bd b1a1 1a3e
00000260: d50b a03d ed6e 2d3e 121e 103e ae8e 4b3b
00000270: 7cd1 2f3b acf1 503d f9c9 aebd 7790 e9bd
00000280: 5029 883c e7d7 323d e024 04be 326c b73d
00000290: c789 863d b7e6 88bd 20c2 843a 7041 1bbe
000002a0: 051d c2bb 4293 303e 61c1 f0bd ea21 853e
000002b0: 38e8 91bf 3b0c a53f 1bcd 77bf e3b2 413e
000002c0: 5368 7b3e 776f 253e 7a1a c73d 5fb6 1f3e
000002d0: 5d74 09bc a338 303e 24ab f73d 7a58 c8bc
000002e0: 4c65 083c 3191 ff3d 7811 d43d ae6c 6c3d
000002f0: 4573 babb 853e bf3c a43e d7bd 4003 ae3d
00000300: d902 c63d acaf 5e3d f85d f8bc c7b5 5fbd
00000310: 263a f8bc d438 553d 041f 093e 938b 77bd
00000320: 5b9f f83d 9755 f03d cf7c cbbd b9d7 cb3d
00000330: 31c3 423d b829 023e 7f04 3ebc cfee c2bd
00000340: 1bce e1bd 21a2 d93d 0203 123e 1357 f53d
00000350: d2f1 f3bd 54d2 153d c66c bf3d 301d e03d
00000360: 1422 b6bd 6704 45bd 37ba a13d f749 f53d
00000370: 1dad 0fbe 6406 dbbc 776b 26be 4ba6 c43b
00000380: 6e8b 14be bde2 92bd 3595 5cbc 1bc9 9bbd
00000390: c9ac 90bf 057d cd3f 81a5 5bc0 67f1 82bf
000003a0: 4a85 9c3e 79a1 4abe a9cb 95bd d572 0e3d
000003b0: f9a1 1bbc fb2f 27bd eac0 96bd 796a 2ebd
000003c0: db8d c6bd fd02 523d e3e7 a6bd 9f92 60bd
000003d0: 5563 3abe 10bd a8bb f0af 9ebc 8c02 a3bd
000003e0: ca40 d4bc c637 0ebe 5cd5 95bb e26b 3fbd
000003f0: 1a4a 9ebd adf0 0f3d 9534 493d 51ab 70bd

trunk.0.bias f4 [128]
-0.8987443 -0.4978179 -1.2973938 0.20993306 0.26875186 -0.7789026 -1.5297399 -0.8571218
0.57088244 -0.3148486 -3.5264406 -2.9029794 -1.1819252 0.062466435 -2.1027956 -1.4548787
-3.5955324 -2.0568507 -0.6389236 -1.4525193 -0.7173068 -1.4588063 -2.5911002 -0.69925255
-0.47304526 -2.216249 -2.7778094 -1.342261 -2.817474 -2.5000288 -2.4614356 -2.8721373
-1.0743575 -1.660234 -2.520287 0.3576084 0.1532251 -2.8169613 -1.477434 -0.9747035
-0.036763743 -2.4899292 -3.9736006 -3.0261672 -1.6289182 -2.3706958 -1.5373274 -0.7051936
-1.3636582 -2.2186599 -2.0415983 0.6908412 -0.05268122 -2.2605984 -0.6162661 -2.2166817
-0.7956703 -0.7921543 -2.3901863 -0.6621531 -3.0042648 -1.3663012 -2.5520523 -2.3664033
-0.3129207 0.109021075 -2.7540152 0.28820848 -1.345546 -1.0999075 -1.4726943 -1.4361234
-1.9425989 -0.5999156 -1.215644 -2.7739103 -4.3554997 -2.4257057 0.76710093 -2.2368398
-1.7643735 -2.5431836 -0.54507047 -2.5854409 -1.1481651 -0.32387102 -0.23568381 0.54050523
-1.5617989 -0.37948474 -0.7138914 -1.9562145 -0.8297285 -1.9891778 -2.1228518 -0.076387845
-0.63104016 -0.4251865 -0.6209024 -1.4238712 -1.5669876 -3.9814565 -0.52321696 -1.5490296
-2.358331 -0.1998149 -0.19139841 -3.0814908 -1.9487293 0.110978596 -0.10611058 -0.261338
-1.1861048 0.04300879 -1.9793994 -0.7742631 -3.4542727 -0.021900171 -4.127008 -0.87332207
-2.8300896 -0.2070116 -1.7121505 -2.277991 -1.6085513 -1.1851094 -1.5290475 -0.861127
00000000: 1b14 66bf fde1 febe 0011 a6bf b1f8 563e
00000010: d899 893e 2966 47bf 84ce c3bf 566c 5bbf
00000020: 5a25 123f d633 a1be 34b1 61c0 6aca 39c0
00000030: 5349 97bf cedc 7f3d 3494 06c0 7739 babf
00000040: 341d 66c0 71a3 03c0 7f90 23bf 27ec b9bf
00000050: 6ba1 37bf 2aba babf 96d4 25c0 3702 33bf
00000060: fd32 f2be 06d7 0dc0 a1c7 31c0 35cf abbf
00000070: 7e51 34c0 7900 20c0 2988 1dc0 19d1 37c0
00000080: 8c84 89bf 8c82 d4bf 624c 21c0 7318 b73e
00000090: 0ae7 1c3e 1849 34c0 8f1c bdbf 2b86 79bf
000000a0: 9495 16bd 005b 1fc0 794f 7ec0 b9ac 41c0
000000b0: 6480 d0bf 7bb9 17c0 25c7 c4bf 9187 34bf
000000c0: 5a8c aebf 86fe 0dc0 8ca9 02c0 f8da 303f
000000d0: 43c8 57bd a5ad 10c0 9dc3 1dbf 1dde 0dc0
000000e0: 0cb1 4bbf a0ca 4abf d0f8 18c0 de82 29bf
000000f0: e045 40c0 f5e2 aebf d354 23c0 2773 17c0
00000100: 2437 a0be 7146 df3d c941 30c0 1090 933e
00000110: da3a acbf c5c9 8cbf 3f81 bcbf e4d2 b7bf
00000120: 15a7 f8bf 1294 19bf 399a 9bbf bf87 31c0
00000130: 4160 8bc0 c33e 1bc0 ba60 443f 6228 0fc0
00000140: fed6 e1bf 85c3 22c0 bd89 0bbf dd77 25c0
00000150: 13f7 92bf 6cd2 a5be 1957 71be 8d5e 0a3f
00000160: 07e9 c7bf d34b c2be 96c1 36bf 3d65 fabf
00000170: 1669 54bf 619d febf cedc 07c0 3b71 9cbd
00000180: d98b 21bf 0cb2 d9be 76f3 1ebf 6941 b6bf
00000190: 0d93 c8bf 2fd0 7ec0 8cf1 05bf 9a46 c6bf
000001a0: e5ee 16c0 479c 4cbe f2fd 43be 2537 45c0
000001b0: f66f f9bf bf48 e33d 8150 d9bd 18ce 85be
000001c0: 48d2 97bf fc29 303d f65c fdbf 1b36 46bf
000001d0: ce12 5dc0 fd67 b3bc 7310 84c0 0992 5fbf
000001e0: 3020 35c0 d9fa 53be bf27 dbbf 9bca 11c0
000001f0: 02e5 cdbf aab1 97bf d4b7 c3bf d272 5cbf

actor_layers.0.weight f4 [128, 128]
-0.024877973 -0.090328574 -0.13442786 0.047914498 -0.09845579 -0.04526114 0.09762998 -0.048168235
-0.07897552 -0.09196509 -0.20820908 0.15239474 -0.13251281 -0.023371715 -0.025083277 -0.1553391
0.009628511 0.0008788535 -0.089841604 -0.008184116 0.052738514 0.057618544 -0.07459405 -0.014485289
-0.05268064 0.07460773 -0.18785755 -0.0019975172 -0.08661494 -0.0730398 -0.16605286 0.091901146
-0.27835312 0.015049209 -0.0868413 0.07308631 -0.036627706 0.067054816 -0.035571482 -0.03141407
0.017965965 -0.15495308 -0.05570389 -0.09853709 -0.047862295 -0.040466584 0.20814489 -0.10249505
-0.164252 -0.16001363 -0.13960959 -0.052668408 0.035535395 0.18100694 0.28044754 -0.059461307
0.001968221 -0.1273218 0.18846045 -0.07661551 -0.013192291 0.09815056 -0.11129058 -0.024255442
-0.086957835 0.07828345 0.0043580905 -0.08870562 -0.07952591 -0.030334083 -0.04384052 0.043903686
-0.14060432 0.015288691 0.077088155 0.0576144 -0.22068739 0.023208981 -0.015445553 -0.054353803
0.19186194 -0.114624105 0.030222947 0.09901658 -0.10160629 -0.07330312 0.15741794 -0.017188668
-0.11973585 -0.08143907 -0.1188178 -0.28411186 0.070452355 0.012332924 -0.05318549 0.02415371
-0.03345896 0.17805268 -0.08086523 -0.09173814 0.07621886 0.052145757 0.16000357 0.052417085
-0.029818857 -0.08053868 0.12877345 0.0021396356 -0.053517956 0.051614746 0.13483034 -0.0666006
-0.1011625 -0.06420143 -0.17150655 -0.13204335 0.043499034 0.005065496 0.11504967 -0.037597887
0.049688157 0.0605434 -0.15209681 0.030660007 -0.124814145 -0.15906659 0.07904053 -0.04483955
-0.07891989 0.15628725 0.044317663 0.12209347 0.006855023 -0.03817285 -0.02781916 -0.050400216
0.0064189327 -0.011272131 0.03356611 -0.0060229655 -0.006245664 0.11163808 -0.12479119 -0.13141331
0.052957192 -0.23037863 -0.13370882 0.00034386254 -0.061369438 -0.03059733 -0.07392914 -0.06160229
-0.07215466 -0.033593956 0.034046534 -0.0062910467 0.03265592 -0.14959933 -0.17991394 -0.17159945
0.11351504 0.08281597 -0.18591206 -0.13454168 -0.1724368 0.024227576 -0.20575406 0.012055384
-0.15786733 -0.12611912 0.08590338 -0.045812834 0.056186877 -0.07311003 -0.027993299 0.14760214
0.01698265 0.19068588 -0.07206017 0.08997919 0.1147563 -0.34062898 -0.1817271 -0.17576897
-0.029894995 0.16008961 -0.11722608 0.006544603 0.07727934 -0.07722621 -0.045928944 0.059228502
-0.1908393 -0.07475074 -0.021156678 -0.016631318 0.042252436 -0.23699994 -0.15257186 0.03710467
0.0289407 -0.0993369 -8.872778e-05 -0.13634549 0.003763163 0.067898646 -0.044051036 -0.038095072
-0.054605693 -0.07458781 -0.032334726 -0.009660184 0.035930283 -0.039374154 -0.13562578 0.15891689
-0.118664175 -0.048813626 -0.07697284 -0.11296157 0.062249746 -0.041208964 -0.17112383 0.015748119
-0.036241125 -0.12701903 -0.08716321 -0.15710875 0.013279439 0.019145396 -0.11271781 0.043622404
-0.033458754 0.11712217 0.035030033 -0.19714563 -0.05442082 -0.022589939 -0.015045204 0.08844369
-0.13818678 -0.14695835 0.05338517 -0.13124484 0.027933016 -0.1143476 -0.11332736 0.056521878
-0.14353968 -0.09687416 -0.12109776 -0.028658379 0.024650939 -0.014421187 -0.06364428 0.08725188
00000000: e4cc cbbc 30fe b8bd 75a7 09be fe41 443d
00000010: 30a3 c9bd bf63 39bd 3af2 c73d 0e4c 45bd
00000020: ebbd a1bd 3158 bcbd c334 55be 5e0d 1c3e
00000030: 70b1 07be 0a76 bfbc 727b cdbc 3711 1fbe
00000040: e7c0 1d3c dc62 663a e0fe b7bd ac16 06bc
00000050: 5704 583d 6c01 6c3d c4c4 98bd b553 6dbc
00000060: a8c7 57bd f0cb 983d bb5d 40be c7e8 02bb
00000070: 2c63 b1bd e495 95bd c309 2abe ab36 bc3d
00000080: 4d84 8ebe f590 763c dad9 b1bd 46ae 953d
00000090: ef06 16bd 0954 893d 67b3 11bd 0aac 00bd
000000a0: 5c2d 933c 05ac 1ebe c329 64bd d0cd c9bd
000000b0: 410b 44bd 4ac0 25bd ef23 553e ede8 d1bd
000000c0: ad31 28be 9dda 23be d1f5 0ebe d4ba 57bd
000000d0: 908d 113d e259 393e d296 8f3e b38d 73bd
000000e0: 45fd 003b a560 02be c7fb 403e 98e8 9cbd
000000f0: 7b24 58bc 2903 c93d 51ec e3bd 59b3 c6bc
00000100: f316 b2bd 1353 a03d 50ce 8e3b 4bab b5bd
00000110: 7bde a2bd 2f7f f8bc 1e92 33bd 5ad4 333d
00000120: 94fa 0fbe 6b7d 7a3c 65e0 9d3d 14fd 6b3d
00000130: e0fb 61be c320 be3c 580f 7dbc 18a2 5ebd
00000140: 7577 443e 0bc0 eabd 1d96 f73c 34c9 ca3d
00000150: f516 d0bd f21f 96bd 2b32 213e 40cf 8cbc
00000160: 1238 f5bd 87c9 a6bd bf56 f3bd 1c77 91be
00000170: 5349 903d 0810 4a3c 07d9 59bd 00de c53c
00000180: 430c 09bd 7153 363e ab9c a5bd 35e1 bbbd
00000190: a218 9c3d ca96 553d fad7 233e 4cb3 563d
000001a0: ad46 f4bc 77f1 a4bd 30dd 033e 2139 0c3b
000001b0: a535 5bbd fc69 533d f710 0a3e e565 88bd
000001c0: 492e cfbd 0a7c 83bd 6a9f 2fbe 5f36 07be
000001d0: 0b2c 323d 76fc a53b 299f eb3d 3e00 1abd
000001e0: cf85 4b3d 5bfc 773d 44bf 1bbe b22a fb3c
000001f0: 8f9e ffbd 5ae2 22be 00e0 a13d ada9 37bd
00000200: c0a0 a1bd c409 203e 7086 353d 240c fa3d
00000210: 1aa0 e03b 225b 1cbd 02e5 e3bc 7570 4ebd
00000220: e955 d23b bfae 38bc 9e7c 093d 4c5c c5bb
00000230: 6da8 ccbb 81a2 e43d 8692 ffbd 3691 06be
00000240: a4e9 583d 60e8 6bbe f7ea 08be 7348 b439
00000250: 855e 7bbd 40a7 fabc 2968 97bd af52 7cbd
00000260: d3c5 93bd d199 09bd 6174 0b3d 2025 cebb
00000270: 37c2 053d 9130 19be 5c3b 38be c4b7 2fbe
00000280: 937a e83d 6b9b a93d bb5f 3ebe 4bc5 09be
00000290: 4693 30be e978 c63c 31b1 52be f283 453c
000002a0: f9a7 21be 5f25 01be 1cee af3d 3da6 3bbd
000002b0: 3624 663d b6ba 95bd 3452 e5bc 0425 173e
000002c0: 331f 8b3c 2943 433e 4894 93bd 0247 b83d
000002d0: 5a05 eb3d ec66 aebe ab16 3abe c8fc 33be
000002e0: 59e6 f4bc 88ee 233e 3a14 f0bd 1c74 d63b
000002f0: a144 9e3d c628 9ebd fd1f 3cbd 9699 723d
00000300: 616b 43be ea16 99bd c550 adbc 673e 88bc
00000310: e410 2d3d 1db0 72be cc3b 1cbe 11fb 173d
00000320: 0c15 ed3c 2571 cbbd 5d13 bab8 279e 0bbe
00000330: 669f 763b 720e 8b3d dc6e 34bd 9409 1cbd
00000340: 38aa 5fbd 7ec1 98bd 6b71 04bd c045 1ebc
00000350: a22b 133d cb46 21bd 7ce1 0abe 1cbb 223e
00000360: 3406 f3bd ccf0 47bd f0a3 9dbd 6558 e7bd
00000370: 97f9 7e3d bbca 28bd 163b 2fbe 3302 813c
00000380: 9371 14bd 4711 02be a082 b2bd 1ee1 20be
00000390: 0192 593c ced6 9c3c 98d8 e6bd 68ad 323d
000003a0: 0c0c 09bd c0dd ef3d a77b 0f3d 8be0 49be
000003b0: 5ee8 5ebd 890e b9bc 2980 76bc f721 b53d
000003c0: d680 0dbe 407c 16be 68aa 5a3d 0c65 06be
000003d0: c8d3 e43c 132f eabd 2d18 e8bd 7c83 673d
000003e0: 11fc 12be f665 c6bd 1a02 f8bd fac4 eabc
000003f0: c4f0 c93c d846 6cbc ef57 82bd 1db1 b23d

actor_layers.0.bias f4 [128]
-0.2883537 0.3300232 -2.7215972 -0.061970737 -0.49023604 -0.033934895 -0.08358988 0.5182375
0.29390258 0.7939946 0.97463614 0.05318995 -0.14642283 -0.028486617 0.18454699 0.74336237
-1.2413207 -1.6435465 0.57879925 -0.007943766 0.14780994 0.034035772 0.60972774 0.4271462
0.66285044 -0.5390199 -0.16291998 0.31528836 0.6725248 0.024010833 0.3990529 -1.1107174
0.31726703 0.26812217 -0.21266222 -0.5003087 -0.15534963 0.33241403 0.4392934 -0.38031757
0.016282244 -3.8127367 -0.06062004 0.62482285 -1.033499 -1.1920795 0.8265075 -0.020430727
0.5738701 0.3920606 -0.0922878 0.6664169 -0.028211093 1.0911162 0.40429422 -0.005923597
-0.6257375 -0.53536147 -0.2578932 -0.08125385 -1.6192005 -0.19528903 0.59550077 0.15507883
-0.018051123 0.057907633 0.761041 -0.10336051 -0.07126288 0.42230132 -0.079283915 0.24271849
0.2908538 -0.1652338 -1.1358974 -2.4737644 -0.11363322 -0.8290559 0.07346229 -0.12889169
-0.13074824 0.011303626 -0.8342226 1.155686 0.9023348 0.17978746 0.6639331 0.20695582
-0.30631116 0.51875263 -0.12924579 0.18472844 0.15115969 -0.2511072 -0.6691962 0.6322833
-1.2162263 -0.7278812 0.2120333 -0.28662792 -0.6216402 0.3427882 -0.97901934 0.3829631
-0.24856548 0.09674148 -0.1655669 -3.0723307 -0.5482883 -0.099705815 0.690384 0.41058606
0.25813097 -0.12058965 0.7401028 0.46206322 -0.28532425 0.12441936 0.6956856 0.37500584
-0.12180325 -0.026271997 -0.45841226 -0.058259547 -0.22519973 -0.12972173 -0.37580326 0.5946173
00000000: 19a3 93be cdf8 a83e a62e 2ec0 07d5 7dbd
00000010: 3800 fbbe 51ff 0abd 2c31 abbd 36ab 043f
00000020: 667a 963e 3b43 4b3f c181 793f b4dd 593d
00000030: deef 15be c45c e9bc e3f9 3c3e ff4c 3e3f
00000040: 99e3 9ebf bb5f d2bf 302c 143f 9226 02bc
00000050: 7d5b 173e 1869 0b3d 1e17 1c3f e8b2 da3e
00000060: 91b0 293f 35fd 09bf 7fd4 26be 7a6d a13e
00000070: 962a 2c3f 5eb2 c43c a950 cc3e fd2b 8ebf
00000080: d370 a23e 4f47 893e 20c4 59be 3b14 00bf
00000090: f913 1fbe 2c32 aa3e 11eb e03e fcb8 c2be
000000a0: 5762 853c e103 74c0 b84c 78bd 64f4 1f3f
000000b0: b249 84bf 1096 98bf ff95 533f 575e a7bc
000000c0: 27e9 123f 2bbc c83e 6301 bdbd 4c9a 2a3f
000000d0: f31a e7bc b2a9 8b3f a7ff ce3e bc1a c2bb
000000e0: 5530 20bf 730d 09bf 940a 84be 6b68 a6bd
000000f0: f641 cfbf d9f9 47be bd72 183f fccc 1e3e
00000100: f3df 93bc 8e30 6d3d 95d3 423f adae d3bd
00000110: 46f2 91bd e137 d83e 9b5f a2bd 328b 783e
00000120: caea 943e 0d33 29be 1665 91bf 2852 1ec0
00000130: 89b8 e8bd 023d 54bf 6673 963d 2ffc 03be
00000140: dee2 05be d832 393c 9d8f 55bf 85ed 933f
00000150: 6aff 663f 341a 383e 85f7 293f 3aec 533e
00000160: d1d4 9cbe f9cc 043f 0259 04be 7429 3d3e
00000170: 9bc9 1a3e 1f91 80be 7150 2bbf 51dd 213f
00000180: 4ead 9bbf 6c56 3abf 421f 593e e5c0 92be
00000190: d023 1fbf ef81 af3e 03a1 7abf bd13 c43e
000001a0: f387 7ebe 6620 c63d 5f8a 29be 11a1 44c0
000001b0: 9f5c 0cbf 9032 ccbd 01bd 303f 5638 d23e
000001c0: be29 843e b5f7 f6bd 6177 3d3f 8d93 ec3e
000001d0: 0516 92be 94cf fe3d 7418 323f c400 c03e
000001e0: fb73 f9bd 5f38 d7bc 03b5 eabe 90a1 6ebd
000001f0: c29a 66be c6d5 04be 4969 c0be d738 183f

actor_layers.2.weight f4 [128, 128]
-0.034071706 -0.010084123 -0.10294519 0.06542604 -0.0064868643 0.0112422975 -0.07288368 0.013973738
-0.0803598 -0.23419896 0.044476036 -0.048332565 0.011603079 0.013225938 -0.021602254 0.010182707
-0.028646402 -0.07200013 -0.052007426 0.027560081 0.018251475 -0.032538015 -0.07599138 -0.05615788
-0.009198669 -0.04732407 -0.03275828 0.038411286 0.026841283 0.0619386 0.047244385 0.043233193
-0.07436611 0.030019581 0.056304526 0.045145355 -0.04651269 0.014801226 0.06887339 -0.09906439
0.06774072 -0.09893511 -0.022142712 -0.06689337 -0.11034924 -0.055841506 -0.024398122 -0.010115098
-0.04660972 0.037705097 0.07844329 -0.04353977 0.17539859 0.015865088 0.020477666 0.014252116
-0.0652468 -0.010265516 0.0721066 0.010277679 -0.027001994 -0.0043370137 -0.10788738 0.020398349
-0.055698 -0.06590582 -0.0004164463 -0.076595865 0.025243197 -0.08197066 -0.016535377 0.024661612
0.000304817 -0.03514765 -0.015420107 -0.09202882 -0.051992692 -0.027577026 -0.03585836 -0.07192465
0.0694946 -0.0632724 -0.025278822 -0.12019452 -0.08959608 0.14806126 -0.0029339292 0.056729283
-0.05108913 0.023130871 -0.050163843 0.026225857 -0.013133338 -0.07682647 -0.027132105 -0.065775774
-0.08029999 -0.20135418 -0.008258806 -0.09362691 0.022577679 0.0062671797 -0.054711364 -0.0031264767
0.07568141 0.0410489 -0.06812436 -0.07301447 -0.0045522708 -0.006198324 -0.024793752 -0.07251894
0.0681084 -0.007779349 0.040986974 0.03683401 -0.005135895 0.09015549 -0.13923532 -0.08257814
-0.05826086 0.0609881 -0.10698269 -0.14992665 0.024026329 0.02716956 0.067983076 -0.010902959
-0.011419023 0.035284054 -0.043925744 0.0005363701 0.10247443 -0.066735715 0.06722134 -0.039423633
-0.034137007 -0.014137328 0.011605953 0.045814954 0.06103687 0.039911296 -0.037562072 -0.012812857
-0.026962295 0.036167048 -0.037234005 -0.044245232 -0.05890555 0.02458507 0.008416197 0.040741686
-0.008132203 -0.004072726 0.030905059 -0.04383186 -0.021470066 0.07689501 -0.06306912 -0.12737417
-0.027614033 -0.010204438 0.048465032 -0.08407309 0.025860356 -0.014003218 0.061712615 -0.11521564
0.080731355 -0.12547582 -0.020150583 0.027695557 0.004067877 0.036889073 -0.02059357 -0.045508884
0.03792773 0.075121745 0.06839334 -0.021219753 0.05171544 -0.07412946 0.018962039 -0.045458812
0.053038303 -0.008046401 -0.036416266 0.05537128 -0.04691373 0.013698773 -0.07036242 -0.0019541266
-0.043322984 0.032475572 -0.058175415 -0.014057507 -0.046015266 -0.007857717 -0.031422645 0.044132996
-0.003144699 -0.02525275 -0.1143164 0.00903437 -0.03807149 -0.07492459 0.056124885 0.079353556
-0.11579721 0.046216518 -0.028265253 -0.1134694 -0.05149515 -0.029823577 -0.03919266 -0.0056626135
0.08405684 -0.03895056 0.0145775955 0.028586831 -0.07853053 -0.076376975 -0.024669178 -0.0034100031
-0.031211907 -0.14830975 0.08881984 -0.044535395 -0.14106892 0.014966884 0.08338118 0.045282688
0.03678883 -0.052305974 0.062887214 0.09125071 0.019164028 0.09899703 -0.04499416 0.060125407
0.04757856 0.07328941 -0.103056744 -0.059433497 -0.12350695 -0.03685505 -0.060282752 -0.041344464
-0.049028818 0.08232491 -0.085338905 0.060141977 -0.09192689 0.030728027 0.017559063 -0.04508443
00000000: c68e 0bbd e137 25bc eed4 d2bd 16fe 853d
00000010: c38f d4bb 9d31 383c 0a44 95bd 1bf2 643c
00000020: ae93 a4bd dad1 6fbe 812c 363d 5ef8 45bd
00000030: d71a 3e3c 9bb1 583c 36f7 b0bc 5ed5 263c
00000040: dcab eabc ce74 93bd bd05 55bd aec5 e13c
00000050: 1e84 953c 9546 05bd 5ea1 9bbd ce05 66bd
00000060: 04b6 16bc e2d6 41bd 8c2d 06bd 2755 1d3d
00000070: 40e2 db3c 54b3 7d3d 5483 413d 4a15 313d
00000080: 424d 98bd a0eb f53c 939f 663d 56ea 383d
00000090: 1784 3ebd d780 723c 7e0d 8d3d 45e2 cabd
000000a0: a6bb 8a3d 7e9e cabd a264 b5bc 64ff 88bd
000000b0: c8fe e1bd 10ba 64bd 92de c7bc ccb9 25bc
000000c0: d5e9 3ebd a970 1a3d e0a6 a03d c256 32bd
000000d0: b09b 333e 80f7 813c c7c0 a73c b581 693c
000000e0: 1da0 85bd b230 28bc a0ac 933d b663 283c
000000f0: 4933 ddbc 821d 8ebb 0ff4 dcbd 701a a73c
00000100: 9623 64bd a1f9 86bd 7a56 dab9 4bde 9cbd
00000110: d2ca ce3c 3ce0 a7bd 3375 87bc 2607 ca3c
00000120: d8cf 9f39 fbf6 0fbd 9ea4 7cbc 9b79 bcbd
00000130: 4af6 54bd 37e9 e1bc 37e0 12bd 3b4d 93bd
00000140: 2f53 8e3d f694 81bd 8815 cfbc 8b28 f6bd
00000150: 267e b7bd 5f9d 173e 2a47 40bb f75c 683d
00000160: d642 51bd f47c bd3c 9a78 4dbd 9cd7 d63c
00000170: 362d 57bc 3257 9dbd 2644 debc 73b5 86bd
00000180: 5274 a4bd ca2f 4ebe f14f 07bc 77bf bfbd
00000190: d3f4 b83c ea5c cd3b 0619 60bd 93e5 4cbb
000001a0: dbfe 9a3d e422 283d c984 8bbd 9c88 95bd
000001b0: 372b 95bb 4f1b cbbb 441c cbbc cf84 94bd
000001c0: 6b7c 8b3d e9e9 febb f5e1 273d 42df 163d
000001d0: 034b a8bb 71a3 b83d b493 0ebe ba1e a9bd
000001e0: f1a2 6ebd a8ce 793d be19 dbbd 5f86 19be
000001f0: ddd2 c43c b292 de3c b63a 8b3d 53a2 32bc
00000200: db16 3bbc 0386 103d 7beb 33bd 309b 0c3a
00000210: 1dde d13d bcac 88bd 58ab 893d ad7a 21bd
00000220: 3fd3 0bbd 40a0 67bc e526 3e3c 76a8 3b3d
00000230: cc01 7a3d 077a 233d b0da 19bd 04ed 51bc
00000240: 08e0 dcbc e623 143d af82 18bd 7d3a 35bd
00000250: f246 71bd a166 c93c 17e4 093c c1e0 263d
00000260: ee3c 05bc 8074 85bb 9b2c fd3c 0989 33bd
00000270: fee1 afbc 227b 9d3d 622a 81bd 606e 02be
00000280: d336 e2bc 8430 27bc 4583 463d 832e acbd
00000290: 19d9 d33c c16d 65bc 5ec6 7c3d 2df6 ebbd
000002a0: 7b56 a53d bc7c 00be d612 a5bc cbe1 e23c
000002b0: d34b 853b ff18 173d d9b3 a8bc 8667 3abd
000002c0: 1b5a 1b3d 6ed9 993d cf11 8c3d 0cd5 adbc
000002d0: 92d3 533d 30d1 97bd 4756 9b3c 0533 3abd
000002e0: b13e 593d 0dd5 03bc 3929 15bd ffcc 623d
000002f0: 9d28 40bd d270 603c 2c1a 90bd ce10 00bb
00000300: 7173 31bd 1b05 053d 5849 6ebd 7551 66bc
00000310: 817a 3cbd a7bd 00bc 08b5 00bd cdc4 343d
00000320: 4b17 4ebb dbde cebc b71e eabd e504 143c
00000330: daf0 1bbd 1072 99bd 35e3 653d 1e84 a23d
00000340: 1627 edbd 884d 3d3d 888c e7bc a562 e8bd
00000350: 94ec 52bd 9350 f4bc 7c88 20bd 728d b9bb
00000360: fe25 ac3d 9f8a 1fbd ded6 6e3c ee2e ea3c
00000370: 9dd4 a0bd 886b 9cbd 0417 cabc 5c7a 5fbb
00000380: 1db0 ffbc 83de 17be 2de7 b53d bf6a 36bd
00000390: 5f74 10be a937 753c c1c3 aa3d 577a 393d
000003a0: e2af 163d ca3e 56bd 03cb 803d a7e1 ba3d
000003b0: e1fd 9c3c f4be ca3d cc4b 38bd 0f46 763d
000003c0: bce1 423d c218 963d 6a0f d3bd 8a70 73bd
000003d0: 36f1 fcbd 52f5 16bd 0ceb 76bd d058 29bd
000003e0: 71d2 48bd f699 a83d 2ac6 aebd 6f57 763d
000003f0: 2a44 bcbd 58b9 fb3c 06d8 8f3c 74aa 38bd

actor_layers.2.bias f4 [128]
-0.014975374 0.049928557 1.2369487 -0.12763952 -0.24987666 0.0028702186 0.082805894 -0.13937297
-0.2836698 -0.092797436 0.0026485492 -0.0039853062 0.021139406 -0.2880767 -0.09646832 -0.13330306
-0.14114434 0.024380384 -0.016896585 0.04415769 0.04063619 -0.12003682 -0.1286941 0.01957115
-0.0076301796 0.4685782 -0.12555228 1.7293065 0.08407494 0.18231541 -0.15060692 0.10217159
-0.7083564 -0.034681767 0.5548186 -0.22191896 -0.13773637 -0.10821032 -0.10521099 -0.16505213
0.5447994 -0.16598307 0.07535865 -0.16588926 -0.15751974 -0.15585454 -0.4485705 0.6256496
0.6285336 -0.23204835 -0.07643656 -0.067718595 -0.06677619 0.15710862 0.042380396 -0.08212899
-0.20448802 -0.0379953 0.3893593 -0.05877536 0.004895667 0.044026285 0.035985123 -0.12756625
-0.0645547 0.20336686 -0.030547054 0.21172245 -0.17878884 -0.06435767 -0.13538377 0.18332583
0.07965156 0.19037394 0.12149781 -0.065606706 -0.12121268 -0.1119715 -0.13994321 0.060446933
0.091851324 0.18165942 0.1737474 0.37570742 -0.07881298 -0.30632356 -0.20418431 0.129401
-0.1380279 -0.1521436 0.15332472 -0.028576467 0.030340709 -0.096725285 -0.049311206 0.70150125
-0.07765081 0.0027482372 0.07959986 0.29797128 -0.040788196 -0.073280625 -0.043612268 -0.19783215
-0.061122965 -0.18445109 -0.13956751 -0.24737161 0.1254008 -0.059523307 -0.12739068 0.23555171
-0.056335576 0.56078166 -0.019289257 -0.08237978 0.57229304 0.2592706 0.00024692417 -0.051189445
0.18628845 0.118803315 -0.26991627 0.09378275 -0.10051137 0.122971125 -0.13909477 -0.23287562
00000000: 455b 75bc e381 4c3d 5654 9e3f efb3 02be
00000010: abdf 7fbe 471a 3c3b 2396 a93d cab7 0ebe
00000020: 2b3d 91be 950c bebd 4893 2d3b 2c97 82bb
00000030: 8c2c ad3c ca7e 93be 2f91 c5bd 9980 08be
00000040: 2488 10be 5fb9 c73c b56a 8abc b2de 343d
00000050: 2272 263d ddd5 f5bd 63c8 03be ad53 a03c
00000060: 9606 fabb 7be9 ef3e c790 00be ea59 dd3f
00000070: 7b2f ac3d e4b0 3a3e b338 1abe 573f d13d
00000080: d856 35bf 780e 0ebd 9708 0e3f b93e 63be
00000090: c30a 0dbe 5f9d ddbd dc78 d7bd 6d03 29be
000000a0: f977 0b3f 77f7 29be a355 9a3d e0de 29be
000000b0: db4c 21be 5598 1fbe 08ab e5be 922a 203f
000000c0: 94e7 203f 159e 6dbe c58a 9cbd 0cb0 8abd
000000d0: f5c1 88bd 15e1 203e 1197 2d3d 3e33 a8bd
000000e0: 4f65 51be f6a0 1bbd 1a5a c73e 6fbe 70bd
000000f0: d56b a03b e854 343d 2365 133d baa0 02be
00000100: 4135 84bd 673f 503e d13d fabc c5cd 583e
00000110: 6c14 37be f4cd 83bd 0ba2 0abe c4b9 3b3e
00000120: 5b20 a33d 63f1 423e d8d3 f83d cf5c 86bd
00000130: 5b3e f8bd 5051 e5bd 464d 0fbe 3497 773d
00000140: 8c1c bc3d ed04 3a3e d7ea 313e b95c c03e
00000150: b368 a1bd 71d6 9cbe b115 51be b281 043e
00000160: 3057 0dbe 88cb 1bbe 2801 1d3e 3219 eabc
00000170: 148d f83c e817 c6bd 8cfa 49bd 9695 333f
00000180: 6307 9fbd c51b 343b 4005 a33d b18f 983e
00000190: 8611 27bd 2714 96bd c7a2 32bd 8394 4abe
000001a0: 135c 7abd bfe0 3cbe c9ea 0ebe fc4e 7dbe
000001b0: 1169 003e b6ce 73bd b472 02be 7834 713e
000001c0: 22c0 66bd 638f 0f3f 8104 9ebc bbb6 a8bd
000001d0: cc81 123f 1ebf 843e 9a75 8139 06ac 51bd
000001e0: 66c2 3e3e 274f f33d 7732 8abe 2c11 c03d
000001f0: e8d8 cdbd 49d8 fb3d dc6e 0ebe f276 6ebe

actor_layers.4.weight f4 [128, 128]
-0.08778017 0.042191815 -0.0044282447 -0.07094663 -0.15361586 -0.018783845 0.06856416 -0.07437102
0.023552822 -0.044653095 -0.117303215 -0.035416275 -0.06502319 -0.0041834507 -0.08506904 0.001997545
0.047847964 -0.080438875 -0.004455805 0.005996062 0.029799065 0.008122354 0.024730792 -0.113492906
0.025710948 -0.27526182 -0.03919329 -0.22921756 0.08645074 -0.019741297 0.026388139 0.010651928
-0.30575132 -0.062560216 -0.21383923 -0.09067363 0.08587021 -0.18760057 0.057826806 -0.05525514
-0.049188133 -0.048368238 0.05743379 -0.12949508 0.109789975 0.05050211 -0.12990102 -0.08211442
-0.07712341 -0.052855674 -0.11742869 -0.12165445 -0.07142178 -0.070622884 -0.08097221 -0.07737799
-0.10369616 0.08678121 -0.2047663 -0.022994403 -0.049337156 -0.021366663 -0.01902294 -0.03042719
-0.07044804 -0.07937899 0.110747546 0.036170438 -0.030352099 -0.025754869 0.09596054 -0.09336639
-0.061614957 -0.008859127 0.039401535 -0.033945467 -0.053964958 -0.011515457 -0.048672643 0.043074783
-0.055963118 -0.02407285 0.05551534 -0.25806874 0.049747176 -0.04700501 -0.018331164 -0.05076854
-0.05219496 0.058711197 -0.014022493 0.023092806 -0.014326626 -0.0074937474 0.013014573 -0.025715047
-0.13808712 0.047837824 -0.015557422 -0.13314542 0.00076503045 0.043902494 -0.16829313 -0.09640295
-0.04694673 0.059371546 0.0121573955 0.076605916 -0.03569322 0.04861595 0.017064046 -0.041657202
0.020586511 -0.3243092 -0.100088134 0.012192492 -0.105689354 0.023117717 -0.07669608 0.039598268
0.045488816 -0.0916617 -0.1389234 0.11207077 -0.03010114 -0.17076327 -0.12975521 -0.08831659
0.030074717 -0.08824197 -0.07865348 -0.021006472 0.03315799 0.12104944 -0.023467906 -0.039056107
0.023770131 -0.011670477 -0.09696368 -0.17556408 0.07414488 -0.065574974 -0.079906896 -0.06976039
-0.05291317 -0.063562796 -0.024887858 -0.091680914 -0.08679833 0.059076197 -0.0926674 -0.055289876
-0.04261883 -0.096222386 0.055845387 -0.060446825 0.0079619475 0.031438235 -0.0080167 -0.10623526
-0.076473884 -0.04358478 -0.067295894 -0.0640144 -0.0353488 0.081160136 -0.048632417 -0.0674872
0.055933658 0.032320853 -0.016205387 0.04882938 0.0209556 -0.027096283 0.020097045 -0.06727591
-0.047582775 -0.063428655 -0.010819132 -0.079858616 -0.09873409 0.007858642 -0.068352036 -0.05754141
0.118693925 0.02624787 -0.0687253 -0.032655552 0.004536363 -0.05797118 -0.06768368 0.038442522
-0.0049769473 -0.103980035 -0.0999939 -0.040330738 0.06596062 0.03843415 0.084175386 0.05171323
0.050903607 0.0006695242 -0.05590418 0.06863407 -0.069830954 -0.0037881988 0.01829351 -0.087090276
0.029279292 -0.05776886 0.023475781 -0.03534161 0.0447576 -0.028093385 0.01984919 0.09112038
-0.005486199 -0.009181037 0.053277362 -0.07532173 0.021028765 -0.12545314 -0.061938353 -0.04054322
-0.0511261 -0.009683092 0.026675439 -0.069600314 -0.03546384 0.030451829 -0.0031094498 -0.09439683
0.025070338 -0.08358692 -0.031194163 0.080885425 -0.012768611 -0.040381692 0.033780497 -0.09705462
0.011364264 -0.026863275 -0.013420459 -0.026149392 -0.15072475 -0.12263818 0.0596439 -0.09948493
-0.008555137 -0.042742416 -0.03321055 0.049586505 0.010256395 0.03502764 0.0016137913 -0.023302695
00000000: 17c6 b3bd 53d1 2c3d cf1a 91bb 774c 91bd
00000010: 7a4d 1dbe 94e0 99bc 5e6b 8c3d d54f 98bd
00000020: d9f1 c03c 2ae6 36bd ab3c f0bd a810 11bd
00000030: e12a 85bd 5415 89bb ad38 aebd 3ee9 023b
00000040: 3afc 433d 23bd a4bd 0002 92bb 9d7a c43b
00000050: 2b1d f43c 9f13 053c 3b98 ca3c f86e e8bd
00000060: c49f d23c 1eef 8cbe 2589 20bd 02b8 6abe
00000070: 160d b13d 80b8 a1bc f02b d83c 6d85 2e3c
00000080: 708b 9cbe 921f 80bd acf8 5abe 19b3 b9bd
00000090: b8dc af3d 5d1a 40be cddb 6c3d 3753 62bd
000000a0: 7f79 49bd c61d 46bd b23f 6b3d 5c9a 04be
000000b0: 91d9 e03d 4ddb 4e3d c604 05be 9b2b a8bd
000000c0: e1f2 9dbd 317f 58bd 747e f0bd f825 f9bd
000000d0: 9545 92bd bba2 90bd c2d4 a5bd 5a78 9ebd
000000e0: a75e d4bd 59ba b13d 42ae 51be c25e bcbc
000000f0: c215 4abd 2409 afbc ffd5 9bbc 7142 f9bc
00000100: 1047 90bd 7491 a2bd 9ccf e23d 7427 143d
00000110: f7a4 f8bc e0fb d2bc f686 c43d e136 bfbd
00000120: f75f 7cbd df25 11bc 8163 213d 670a 0bbd
00000130: 5c0a 5dbd 54ab 3cbc f75c 47bd 2f6f 303d
00000140: 9539 65bd 6d34 c5bc 0e64 633d 9621 84be
00000150: b2c3 4b3d 5388 40bd 3d2b 96bc acf2 4fbd
00000160: 62ca 55bd 277b 703d 99be 65bc 202d bd3c
00000170: 3aba 6abc 1c8e f5bb 133b 553c 5da8 d2bc
00000180: b666 0dbe 98f1 433d 8fe4 7ebc 4657 08be
00000190: 538c 483a 1ad3 333d 0955 2cbe e96e c5bd
000001a0: 374b 40bd 942f 733d d02f 473c 90e3 9c3d
000001b0: 0e33 12bd 8521 473d e6c9 8b3c bea0 2abd
000001c0: 0ba5 a83c db0b a6be 02fb ccbd 05c3 473c
000001d0: a973 d8bd 5e61 bd3c d612 9dbd cb31 223d
000001e0: 7b52 3a3d 21b9 bbbd f041 0ebe 5c85 e53d
000001f0: aa96 f6bc 91dc 2ebe 8dde 04be 54df b4bd
00000200: 415f f63c 35b8 b4bd 1315 a1bd c415 acbc
00000210: acd0 073d c5e8 f73d c43f c0bc 4cf9 1fbd
00000220: 94b9 c23c 8735 3fbc e594 c6bd 12c7 33be
00000230: 45d9 973d 2c4c 86bd 3aa6 a3bd 89de 8ebd
00000240: 7bbb 58bd 362d 82bd 9fe1 cbbc 34c3 bbbd
00000250: 53c3 b1bd e2f9 713d 68c8 bdbd a377 62bd
00000260: 1591 2ebd 3e10 c5bd 22be 643d 1797 77bd
00000270: d472 023c 61c5 003d 7a58 03bc df91 d9bd
00000280: 579e 9cbd f485 32bd 6ed2 89bd fb19 83bd
00000290: e7c9 10bd 4937 a63d c932 47bd bb36 8abd
000002a0: b11a 653d df62 043d 29c1 84bc 5101 483d
000002b0: 14ab ab3c 06f9 ddbc 8fa2 a43c f4c7 89bd
000002c0: 28e6 42bd e2e6 81bd bb42 31bc ea8c a3bd
000002d0: 1935 cabd 89c1 003c 27fc 8bbd 8bb0 6bbd
000002e0: cd15 f33d c605 d73c dabf 8cbd d4c1 05bd
000002f0: c5a5 943b 3073 6dbd be9d 8abd e875 1d3d
00000300: a915 a3bb 7cf3 d4bd 9ac9 ccbd d831 25bd
00000310: 5d16 873d 216d 1d3d 2564 ac3d 40d1 533d
00000320: 4d80 503d 0283 2f3a c8fb 64bd 0590 8c3d
00000330: 8803 8fbd 6e43 78bb 45dc 953c 635c b2bd
00000340: 20db ef3c 0a9f 6cbd 4850 c03c 5dc2 10bd
00000350: bf53 373d 1924 e6bc c59a a23c 529d ba3d
00000360: 93c5 b3bb 0f6c 16bc 5d39 5a3d 4742 9abd
00000370: 8444 ac3c ca76 00be 12b3 7dbd a610 26bd
00000380: 9a69 51bd d5a5 1ebc 7386 da3c 9c8a 8ebd
00000390: 8842 11bd 1d76 f93c e9c7 4bbb 2053 c1bd
000003a0: 4f60 cd3c 9e2f abbd e78a ffbc 42a7 a53d
000003b0: 7033 51bc 4667 25bd 6b5d 0a3d 93c4 c6bd
000003c0: 2e31 3a3c 5f10 dcbc 7ce1 5bbc 4037 d6bc
000003d0: 9757 1abe ba29 fbbd 294d 743d c1be cbbd
000003e0: d82a 0cbc ac12 2fbd c907 08bd 381b 4b3d
000003f0: 700a 283c 2579 0f3d da85 d33a 4be5 bebc

actor_layers.4.bias f4 [128]
-0.056411147 -0.5943005 -0.46078408 0.12976459 -0.07361903 -0.19328618 -0.5952688 -0.006505629
-0.023422645 -0.43251288 -0.5556149 -0.14143218 -0.10106137 -0.49793345 -0.17746782 -0.42935914
-0.41732574 -0.54907084 -0.4761385 -0.5628179 -0.6861549 -0.023506306 -0.5662447 -0.64612305
-0.7070899 -0.48749882 -0.23296258 -0.6086671 -0.5103345 -0.84677166 -0.81773806 -0.8690124
-0.4389744 -0.28490147 -0.73439723 -0.27598512 -0.45685378 -0.48295844 -0.28482926 -0.4952218
-0.31303224 0.10051953 0.07669726 0.21955915 0.5076993 -0.7516709 -0.40749815 -0.70372856
0.5371911 -0.22803026 -0.79211384 -0.47159094 -0.5924444 -0.2443059 -0.1548147 -0.34384495
-0.11198831 -0.076506 0.08855487 -0.6485078 -0.27299923 -0.031940684 -0.23902833 -0.19803275
-0.29745194 -0.5502418 -0.58870196 -0.16907887 -0.6665728 -0.47388253 -0.08299743 0.060075082
-0.22777325 -0.042544093 -0.054828495 -0.45816797 -0.2061316 0.15975775 -0.2700433 -0.17110844
-0.8266852 -0.08993234 -0.56358767 -0.57850885 -0.5258852 0.36184636 -0.6557513 -0.608809
-0.42716506 -0.2792461 -0.2115014 -0.60112447 -0.5225461 -0.24034679 -0.728298 -0.5862385
-0.32800648 -0.4359053 -0.57417506 -0.22750609 -0.3379494 -0.46549678 -0.07345545 -0.08918338
-0.7470459 -0.1255786 -0.22394206 0.03806764 0.36319992 -0.19569856 -0.20088494 -0.20289563
-0.33069247 -0.16742349 -0.48897487 -0.15343758 -0.9858474 -0.4110773 -0.080209196 0.31167892
-0.40316746 -0.13925765 -0.95635664 -0.67386883 0.014864403 -0.36290362 -0.81008655 -0.5763454
00000000: 600f 67bd 1424 18bf e4eb ebbe 02e1 043e
00000010: 93c5 96bd d0ec 45be 8963 18bf 2c2d d5bb
00000020: d9e0 bfbc 5472 ddbe c73c 0ebf 99d3 10be
00000030: 43f9 cebd 22f1 febe 20ba 35be f6d4 dbbe
00000040: b8ab d5be e88f 0cbf 6dc8 f3be d514 10bf
00000050: d9a7 2fbf 4c90 c0bc 6af5 10bf 5268 25bf
00000060: d803 35bf 7299 f9be be8d 6ebe 9bd1 1bbf
00000070: 48a5 02bf 07c6 58bf 4857 51bf 9977 5ebf
00000080: 41c1 e0be 9bde 91be 7501 3cbf ec4d 8dbe
00000090: bde8 e9be 5446 f7be 24d5 91be b68d fdbe
000000a0: c345 a0be 2fdd cd3d 7413 9d3d 1dd4 603e
000000b0: 95f8 013f 816d 40bf 99a3 d0be 8e27 34bf
000000c0: 5b85 093f c480 69be f9c7 4abf 5e74 f1be
000000d0: 70aa 17bf 532b 7abe bf87 1ebe 720c b0be
000000e0: 215a e5bd 2daf 9cbd 415c b53d 9b04 26bf
000000f0: 8ec6 8bbe 3cd4 02bd d8c3 74be 19c9 4abe
00000100: 9f4b 98be a6dc 0cbf 2cb5 16bf 0323 2dbe
00000110: 84a4 2abf bba0 f2be 8efa a9bd 4a11 763d
00000120: 643d 69be b742 2ebd d893 60bd fe94 eabe
00000130: 2a14 53be 8997 233e 1e43 8abe 0d37 2fbe
00000140: a4a1 53bf 722e b8bd 4847 10bf 2819 14bf
00000150: 6aa0 06bf ed43 b93e 51df 27bf e8da 1bbf
00000160: 61b5 dabe 58f9 8ebe d393 58be 4be3 19bf
00000170: 95c5 05bf 781d 76be bd71 3abf ba13 16bf
00000180: 77f0 a7be fb2e dfbe 23fd 12bf 5bf7 68be
00000190: b407 adbe 9855 eebe d06f 96bd c7a5 b6bd
000001a0: 663e 3fbf ad97 00be 1151 65be d0ec 1b3d
000001b0: 57f5 b93e 3465 48be c8b4 4dbe dfc3 4fbe
000001c0: 8650 a9be 1071 2bbe ea5a fabe be1e 1dbe
000001d0: 7f60 7cbf b978 d2be b844 a4bd 6194 9f3e
000001e0: f76b cebe 8f99 0ebe cad3 74bf ab82 2cbf
000001f0: d389 733c 81ce b9be d561 4fbf 5f8b 13bf

actor_mean.weight f4 [1, 128]
-0.021412162 -0.04122625 -0.04849886 -0.05458384 0.021348694 -0.004181857 -0.07518363 -0.05494001
0.02591928 0.0011415243 -0.03389072 -0.028487895 -0.026462557 0.012042563 -0.0010928853 0.02300448
0.01164876 -0.064292 -0.029524706 -0.014934077 0.0014737701 0.016918177 0.009740157 -0.027906165
-0.055289466 -0.072727226 -0.027874399 -0.00453639 0.0061322846 0.0072247162 -0.005690035 0.022841297
-0.016388547 -0.003905476 0.0691592 -0.023906086 0.053937685 -0.01870754 -0.017665407 -0.053789444
-0.028422307 -0.007992996 -0.00437836 -0.012284099 -0.07625616 -0.015316321 -0.024158994 -0.072315246
-0.009963583 -0.02376069 0.0033961667 -0.06482623 -0.025890099 0.0055292076 -0.06450867 -0.05895748
-0.026139082 0.10156255 -0.013961339 0.026329432 -0.053526677 0.032773364 -0.06825508 0.013609426
-0.00040228816 -0.031351883 -0.02743057 0.00614405 -0.030680839 -0.046021335 -0.026357295 0.02034544
0.018615333 0.054139804 -0.08271999 -0.049133822 0.0032486622 -0.023517791 -0.038403317 0.0055352543
-0.03248622 0.05753516 -0.055209257 -0.034807086 -0.008717132 0.027159723 -0.030862482 0.038482588
0.020486193 -0.014893381 0.06476066 -0.04084073 0.044690643 0.03941346 0.09483477 -0.009003619
-0.072751835 -0.07329547 -0.0010118741 -0.013454822 -0.023777632 -0.012652203 -0.0056588934 -0.017602865
-0.018645903 -0.040260814 0.10065969 0.006213109 -0.12347802 -0.056374278 0.08441211 -0.019969333
-0.0053892178 -0.031151177 -0.04898111 -0.0048680203 0.038892776 0.003942043 -0.0068920925 -0.035794094
0.0010230527 -0.0027698523 0.0067596696 -0.09260252 6.805406e-05 0.0465544 -0.07168454 -0.07126378
00000000: 8f68 afbc dbdc 28bd bea6 46bd 4e93 5fbd
00000010: 75e3 ae3c f607 89bb e0f9 99bd c708 61bd
00000020: ab54 d43c 339f 953a ffd0 0abd 725f e9bc
00000030: 01c8 d8bc 2c4e 453c 253f 8fba e473 bc3c
00000040: 71da 3e3c 86ab 83bd ccdd f1bc 0fae 74bc
00000050: 852b c13a fd97 8a3c 2e95 1f3c 789b e4bc
00000060: 3577 62bd 03f2 94bd da58 e4bc ffa5 94bb
00000070: 55f1 c83b 50bd ec3b 7973 babb ac1d bb3c
00000080: 4641 86bc 04f3 7fbb 57a3 8d3d b2d6 c3bc
00000090: c3ed 5c3d 8e40 99bc 0bb7 90bc 5252 5cbd
000000a0: e6d5 e8bc 0ef5 02bc 5978 8fbb 3f43 49bc
000000b0: 312c 9cbd 4ef1 7abc 15e9 c5bc 041a 94bd
000000c0: 4c3e 23bc c7a5 c2bc 3992 5e3b 9dc3 84bd
000000d0: 7917 d4bc 5b2e b53b 1f1d 84bd 667d 71bd
000000e0: a121 d6bc 0700 d03d 1abe 64bc d2b0 d73c
000000f0: ca3e 5bbd 5d3d 063d 52c9 8bbd 12fa 5e3c
00000100: 34ea d2b9 d56a 00bd 13b6 e0bc 0754 c93b
00000110: 6256 fbbc de80 3cbd 41eb d7bc 7bab a63c
00000120: 2f7f 983c b3c1 5d3d 1969 a9bd 8c40 49bd
00000130: 82e7 543b 62a8 c0bc cc4c 1dbd 1461 b53b
00000140: 4510 05bd fda9 6b3d 1a23 62bd e091 0ebd
00000150: 4dd2 0ebc 117e de3c 51d3 fcbc eb9f 1d3d
00000160: a9d2 a73c 5e03 74bc 3da1 843d 9c48 27bd
00000170: 890d 373d 0270 213d bb38 c23d ea83 13bc
00000180: eafe 94bd ef1b 96bd dca0 84ba 9d71 5cbc
00000190: 4fc9 c2bc 304b 4fbc 3d6e b9bb e233 90bc
000001a0: 4bbf 98bc 86e8 24bd ab26 ce3d 5697 cb3b
000001b0: 0be2 fcbd b7e8 66bd 42e0 ac3d ba96 a3bc
000001c0: 0998 b0bb c130 ffbc 6ba0 48bd ea83 9fbb
000001d0: 084e 1f3d 412c 813b 10d7 e1bb d49c 12bd
000001e0: f417 863a 6986 35bb 3880 dd3b 64a6 bdbd
000001f0: 3fb8 8e38 d4af 3e3d 58cf 92bd bff2 91bd
