experiments/exp043_clean_ppo/bc_init_raw.pt (torch, 615696 bytes, 18 tensors)

actor.0.weight f4 [128, 205]
-3.594446 4.268317 0.029440442 0.005490121 0.3799106 -1.0858177 -0.20225815 -0.00833645
0.19468635 0.047983885 -0.25611773 -0.055152908 0.07167585 0.22083798 -0.32272598 0.039959613
-0.051242094 0.13805246 -0.2107693 -0.038697217 -0.064904 0.000126864 -0.23601161 -0.009177517
0.036423765 0.030781612 -0.14961576 0.068882845 -0.04476789 -0.04898525 0.027730362 0.06979024
0.051806834 -0.033421226 -0.06394219 0.0042582303 0.059605844 -0.101756126 0.012638153 0.02672102
0.06430587 -0.13506238 0.007766181 -0.053419977 -0.006389938 -0.03210467 -0.050550207 -0.029471083
0.025304362 -0.034329917 0.051870078 -0.05203709 0.04584661 -0.046275783 0.066251606 0.0054985695
0.09383764 -0.089389764 0.06177653 -0.06599838 0.0022274083 -0.030270971 0.076797836 0.060363807
-0.006740913 0.010176156 0.08991328 -0.049109597 -0.0015224353 -0.011858119 -0.0068585556 -0.023566036
-0.039531812 0.04992952 0.07850363 0.061920952 -0.023470368 0.09270847 0.07900612 -0.051859286
-0.043388538 0.048574995 -0.026330527 -0.054357063 -0.024407713 0.1075624 0.07882136 0.032783933
0.05051271 0.023255955 0.038077235 0.05813707 0.030631373 0.080970496 -0.02737189 -0.02206446
-0.025416616 0.15280521 -0.008976422 -0.011777124 -0.07651103 0.15210871 -0.07489139 -0.055500083
-0.1214157 0.099339806 -0.023077775 -0.04325821 -0.05460874 0.052801635 -0.110274956 0.040209137
-0.058992997 0.15832756 -0.1310846 0.04104053 -0.021264993 0.047995575 -0.05181531 -0.04379352
-0.020577995 0.081507124 -0.09878009 0.025119698 -0.045425244 0.07013615 -0.11759562 -0.014769096
-0.0816667 0.0921906 -0.14906369 -0.021533767 -0.034077246 0.118262336 -0.079724334 -0.043981582
-0.10219089 0.121561095 -0.04710064 -0.017537862 -0.07152466 0.09135052 0.017128896 0.011477922
0.013398782 0.10245276 -0.013929536 -0.040751655 -0.033669602 0.083199345 0.037003666 -0.03748544
0.049271487 -0.010619166 -0.05744386 0.059033472 0.04975503 -0.053186018 0.051727507 0.005194059
-0.003078384 -0.056098707 -0.012996603 0.029412827 -0.08430092 0.011176668 0.053911544 0.044457342
-0.057881277 -0.031061005 0.11511023 0.044373978 0.00518628 0.015681572 0.066028066 -0.035169672
0.017871894 -0.09649782 0.088147275 -0.016950497 0.05328059 -0.07310019 0.09359079 0.046984497
0.10616699 -0.10960842 -0.042716447 0.06730512 0.09363308 -0.15665649 -0.03178806 0.06009609
0.1433555 -0.052583598 -0.089492515 0.070128486 0.07649056 -0.10333904 -0.10092665 0.08612697
0.19046181 -0.045413867 -0.04885911 -0.011402478 0.12851378 -1.5025648 -3.7248724 3.846779
-0.050489772 -0.37512007 -0.24485427 2.287746 0.030982647 -0.53013694 0.13362116 1.127084
0.005079739 -0.49993914 0.07868462 0.38105887 -0.0056605246 -0.4376518 0.06788664 0.015289708
0.06678426 -0.3504904 0.04943633 0.013047889 0.060191706 -0.34701303 0.07493004 0.016135827
0.061830875 -0.18960579 0.111973636 -0.0071997927 -0.051851336 -0.15513723 0.120250374 0.22149815
0.04758289 -0.0015324402 0.16897607 0.27561295 -0.030816628 0.05061803 0.11696448 0.23207626
0.005757804 0.042232737 0.18220346 0.25244516 -0.047120653 0.08572978 0.16122404 0.29648316
00000000: 670b 66c0 0e96 8840 152d f13c 79e6 b33b
00000010: a483 c23e 13fc 8abf c31c 4fbe 9b95 08bc
00000020: dc5b 473e c08a 443d dd21 83be 04e8 61bd
00000030: caca 923d 5a23 623e 573c a5be b1ac 233d
00000040: 3be3 51bd a05d 0d3e e8d3 57be f980 1ebd
00000050: 63ec 84bd cc06 0539 07ad 71be 4c5d 16bc
00000060: 1631 153d b829 fc3c e034 19be 7312 8d3d
00000070: 895e 37bd c2a4 48bd c92a e33c 2fee 8e3d
00000080: 6733 543d b2e4 08bd 1ff4 82bd a088 8b3b
00000090: 4225 743d 8465 d0bd 4110 4f3c 0ae6 da3c
000000a0: ccb2 833d cb4d 0abe 737b fe3b e8ce 5abd
000000b0: af62 d1bb 3080 03bd bc0d 4fbd 576d f1bc
000000c0: 184b cf3c 879d 0cbd b875 543d d824 55bd
000000d0: a8c9 3b3d ad8b 3dbd ecae 873d 582d b43b
000000e0: f32d c03d fb11 b7bd 6309 7d3d 292a 87bd
000000f0: b6f9 113b d4fa f7bc 2f48 9d3d 0a40 773d
00000100: e0e2 dcbb e4b9 263c 7424 b83d 2527 49bd
00000110: 748c c7ba 8e48 42bc bcbd e0bb 8f0d c1bc
00000120: 1cec 21bd e582 4c3d 83c6 a03d d3a0 7d3d
00000130: ee44 c0bc f0dd bd3d f6cd a13d 676a 54bd
00000140: 2eb8 31bd 93f6 463d 1eb3 d7bc 83a5 5ebd
00000150: aff2 c7bc ad49 dc3d 186d a13d 7248 063d
00000160: 6ae6 4e3d 4683 be3c e0f6 1b3d 2321 6e3d
00000170: a5ee fa3c dcd3 a53d 043b e0bc 87c0 b4bc
00000180: 8236 d0bc f878 1c3e d811 13bc d7f4 40bc
00000190: d1b1 9cbd 63c2 1b3e a860 99bd 0e54 63bd
000001a0: cba8 f8bd ab72 cb3d 9a0d bdbc 852f 31bd
000001b0: 6aad 5fbd 8746 583d d6d7 e1bd 56b2 243d
000001c0: a4a2 71bd 9f20 223e 0b3b 06be 1d1a 283d
000001d0: ec33 aebc 0297 443d 4a3c 54bd d660 33bd
000001e0: 2f93 a8bc 35ed a63d 374d cabd d3c7 cd3c
000001f0: d20f 3abd 8ba3 8f3d f9d5 f0bd 14fa 71bc
00000200: df40 a7bd 6dce bc3d 27a4 18be 9567 b0bc
00000210: 9594 0bbd 8633 f23d 8346 a3bd 0826 34bd
00000220: 7549 d1bd 06f5 f83d 9aec 40bd 90ab 8fbc
00000230: 857b 92bd fb15 bb3d e651 8c3c e50d 3c3c
00000240: 9186 5b3c c1d2 d13d b538 64bc 35eb 26bd
00000250: 23e9 09bd 6b64 aa3d 2891 173d 558a 19bd
00000260: e6d0 493d 03fc 2dbc 414a 6bbd 15cd 713d
00000270: eecb 4b3d 95d9 59bd 39e0 533d ed32 aa3b
00000280: b7be 49bb c2c7 65bd b4ef 54bc 2bf3 f03c
00000290: f6a5 acbd 581e 373c 5ad2 5c3d e718 363d
000002a0: eb14 6dbd a673 febc eabe eb3d 7dc1 353d
000002b0: abf1 a93b a476 803c b939 873d 130e 10bd
000002c0: 1468 923c a6a0 c5bd 8f86 b43d c5db 8abc
000002d0: bf3c 5a3d 8db5 95bd 87ac bf3d d172 403d
000002e0: 146e d93d 617a e0bd 71f7 2ebd 44d7 893d
000002f0: b3c2 bf3d 8f6a 20be 3234 02bd 5127 763d
00000300: c9cb 123e e661 57bd da47 b7bd 869f 8f3d
00000310: 15a7 9c3d 6ba3 d3bd a2b2 cebd 5663 b03d
00000320: 6c08 433e e403 3abd 7d20 48bd 76d1 3abc
00000330: 1e99 033e 0b54 c0bf 4f64 6ec0 a131 7640
00000340: 5dce 4ebd bd0f c0be 14bb 7abe 6e6a 1240
00000350: 52cf fd3c 0eb7 07bf fcd3 083e 4a44 903f
00000360: f073 a63b 06f8 ffbe 6725 a13d 261a c33e
00000370: ec7b b9bb e613 e0be 2708 8b3d af81 7a3c
00000380: 30c6 883d 7a73 b3be c07d 4a3d d0c6 553c
00000390: 948b 763d b1ab b1be ec74 993d 482f 843c
000003a0: 5f42 7d3d 0528 42be 6f52 e53d 3dec ebbb
000003b0: 1162 54bd 4bdc 1ebe d445 f63d 69d0 623e
000003c0: 47e6 423d 29dc c8ba 1008 2d3e 241d 8d3e
000003d0: 2773 fcbc da54 4f3d 138b ef3d 66a5 6d3e
000003e0: f6ab bc3b 3cfc 2c3d 8b93 3a3e 7e40 813e
000003f0: 9601 41bd 1893 af3d ea17 253e a4cc 973e

actor.0.bias f4 [128]
0.22048965 -0.021114405 -0.71672213 -0.27292928 -1.2206783 0.29981825 0.37963083 -0.5977008
-1.0443019 -0.44363606 0.16343476 -1.8820429 0.33811235 -0.21143363 -0.15180671 -0.44081354
2.8614619 -0.33210742 1.0391691 -1.0826589 0.19167271 0.119507894 0.05241722 0.32369328
-1.6455276 -0.6148704 0.44074032 1.0139827 -1.2042829 -0.7630239 -0.25741592 -0.487518
-0.14266148 -0.909775 -1.4974954 -1.1415337 -0.34989464 0.23788032 -0.7640997 1.2303234
-1.5231059 -1.7794492 -0.7798211 -1.1505857 0.12243783 -1.8028197 -0.59098285 -0.3778215
-0.011536415 -0.41585064 0.20644438 -0.4283479 0.0059896153 -0.99978584 0.59574354 0.12755516
-0.366272 1.1373038 -1.4689639 0.25130218 -0.4382699 0.37442046 -1.2599009 0.14907093
0.570303 0.1474394 0.25271246 -0.12657905 -0.42425197 -1.2479233 -0.36741543 -0.002802211
-0.9092456 -0.38201153 -0.4831647 -0.7189705 0.5002063 -0.030157719 -0.3807293 0.44580808
0.056211535 0.20899197 -0.46440542 -0.6562062 -0.7506176 -0.6379541 -0.6834712 0.18162338
-0.37322164 -0.07713778 -2.2589436 -1.9104347 -1.3163666 -0.43558836 -0.2717836 0.24452706
-0.8398108 -0.5089497 0.20806903 -0.17435789 -0.39802504 -0.098542675 -0.40223697 0.8557334
-1.1790421 -0.80341226 -1.2469132 -0.039213803 0.86153626 -0.7704032 -0.084566504 -1.0084631
0.0029732615 0.07152472 0.23784372 -0.7076055 0.6398643 -1.0744358 -0.21653116 -0.125646
1.4475604 -0.5456163 -0.16461413 -0.99428433 -0.3751531 -1.1869068 -0.37193358 -0.68969035
00000000: 0ac8 613e 1ef8 acbc 1a7b 37bf 63bd 8bbe
00000010: 303f 9cbf c781 993e f95e c23e eb02 19bf
00000020: afab 85bf 4424 e3be 715b 273e c8e6 f0bf
00000030: 101d ad3e 0f82 58be 3873 1bbe 50b2 e1be
00000040: 3122 3740 fc09 aabe 7e03 853f 9194 8abf
00000050: da45 443e 8ec0 f43d 70b3 563d 20bb a53e
00000060: a6a0 d2bf 2668 1dbf b7a8 e13e 2fca 813f
00000070: f125 9abf 8955 43bf 05cc 83be f69b f9be
00000080: da15 12be 04e7 68bf eead bfbf c71d 92bf
00000090: 6425 b3be e696 733e 0a9c 43bf 3d7b 9d3f
000000a0: 22f5 c2bf fec4 e3bf 5ba2 47bf 6446 93bf
000000b0: afc0 fa3d ccc2 e6bf a74a 17bf d271 c1be
000000c0: 3b03 3dbc 60ea d4be 2866 533e 6a50 dbbe
000000d0: 8944 c43b f7f1 7fbf a682 183f d29d 023e
000000e0: 0188 bbbe 2c93 913f 0207 bcbf aeaa 803e
000000f0: ea64 e0be 0ab4 bf3e 6f44 a1bf 0da6 183e
00000100: 61ff 113f 5bfa 163e 8763 813e f09d 01be
00000110: 8e37 d9be f3bb 9fbf e01d bcbe 4da5 37bb
00000120: 52c4 68bf 0497 c3be 5d61 f7be 730e 38bf
00000130: 850d 003f 520d f7bc f3ee c2be f540 e43e
00000140: 113e 663d fe01 563e 8cc6 edbe 21fd 27bf
00000150: 7a28 40bf f650 23bf f8f7 2ebf 7bfb 393e
00000160: e816 bfbe 6afa 9dbd 8892 10c0 2089 f4bf
00000170: b37e a8bf 7005 dfbe 3827 8bbe 4d65 7a3e
00000180: d7fd 56bf 874a 02bf 0c10 553e e08a 32be
00000190: f0c9 cbbe bed0 c9bd 01f2 cdbe 5811 5b3f
000001a0: daea 96bf 6dac 4dbf da9a 9fbf a79e 20bd
000001b0: a48d 5c3f 2539 45bf 3431 adbd 5215 81bf
000001c0: 0ddb 423b 8d7b 923d 4e8d 733e a225 35bf
000001d0: 26ce 233f 1d87 89bf 58ba 5dbe 58a9 00be
000001e0: a949 b93f 83ad 0bbf 9b90 28be 6b89 7ebf
000001f0: 1114 c0be 90ec 97bf 146e bebe 8c8f 30bf

actor.2.weight f4 [128, 128]
0.2694716 0.12176893 -0.26697236 0.36358723 -0.21876258 -0.039073203 -0.18754283 0.29422495
0.06932047 -1.1247624 0.94999295 0.54548454 0.009672742 -0.023984998 0.55031234 -0.10306821
0.07426644 -0.14039725 -0.4785764 -0.037234817 -0.005190329 -0.06663286 0.56903005 0.20569886
0.015733417 -0.24897808 -0.08312244 -0.38534218 -0.14692108 0.006879681 -0.04321286 -0.039324407
-0.16601092 -0.12382365 0.34186754 -0.52847326 0.3272983 -0.17594512 -0.008426996 -0.20255795
0.034904104 0.0015257717 0.07976926 -0.90232944 -0.09259559 -0.0256783 0.007313104 -0.006122994
-0.0005900357 0.25506622 -0.09308035 -0.1706714 -0.14039288 0.007545095 0.062525205 -0.07287161
0.5063324 -0.27462503 0.37790713 -1.1940259 0.027167235 0.029902132 -0.3032445 0.041081563
-0.016490228 0.015167902 -0.6941904 -0.08996559 0.021617321 -0.036539547 0.12744822 -0.1014242
0.06832061 0.35898936 0.06078414 0.002470114 -0.23382556 -0.04688108 0.1430551 0.048493464
-0.09470712 -0.027120478 0.21465367 0.018394938 0.08907539 -0.013977585 -0.1908112 -0.1350584
0.30309474 -0.14366782 0.01695535 0.30160984 -0.09648555 -1.0621543 0.0077879103 -0.035370212
-0.10482175 -0.2707149 0.2387557 -0.0118268225 0.23491095 0.06134955 -0.026307935 -0.03480022
0.058193013 0.25654563 0.37391964 0.123979725 0.2906838 0.08559918 -0.03770075 -0.42858788
0.6563478 0.13960083 -0.62512875 -0.05913729 -0.09234549 -0.15734892 0.045271434 -0.86208814
0.075326614 -0.008097146 -0.0012186219 -0.15683176 -0.38226432 0.2090047 0.011982958 -0.04428162
0.4484789 -0.19072655 -0.05875866 0.036271546 -0.088592894 -0.21979745 -0.11063319 0.19262576
-0.29160354 -0.5186043 -0.004765731 -0.1108287 -0.16219392 -0.50246286 0.3507998 -0.25657415
-0.2578971 -0.6996714 -0.35896367 0.09478217 0.020548986 -0.05244981 -0.39744386 -0.14163388
-0.53933024 -0.0016170361 -0.056453492 0.0009756986 0.036321674 -0.07628879 0.21357416 0.01920024
-0.11556371 0.45724994 -0.4554077 -0.25849676 0.005441948 -0.1418227 -0.1790877 0.19385692
-0.7150635 -0.09006782 0.26997516 -0.9205313 -0.44955507 0.042950906 0.06585459 0.10303989
0.021408489 -0.016572062 -0.28353867 -0.15928277 0.09614814 -0.114298224 0.066739075 0.45533738
0.114321 0.13069598 -0.81812924 -0.50076556 -0.2666711 -0.16425352 -0.28741717 -0.45779896
-0.49206823 -0.18910372 -0.8355742 -0.19237758 0.17066222 0.0672951 -0.16614914 -0.055926908
-0.0841316 -0.35427782 -0.2549696 0.26208133 -0.29423273 0.35997215 0.035201352 -0.8655619
-0.6140968 -0.0993706 0.08737742 -0.078296766 -0.50642836 0.3404829 0.24964339 -0.08784468
-0.8622178 -1.5524845 0.15440845 -0.33603275 0.29547748 0.09617341 0.022828765 -0.13536347
0.4213984 0.02615588 -0.31637293 0.14661261 0.071591124 -0.41395605 0.3672358 0.23405628
0.3499179 0.5442972 -0.13238762 -0.3678789 -0.69472235 0.04927418 -0.30804083 -0.1651074
-0.08051643 -0.008232561 -0.155371 0.005894018 -0.4342314 0.006339804 -0.024228752 0.33204612
-1.0065771 -0.24148014 -0.15495937 0.05443275 -0.16238369 -0.60914534 0.1513264 -0.15943603
00000000: 2ef8 893e fd61 f93d 9ab0 88be 1b28 ba3e
00000010: 4c03 60be 390b 20bd 3a0b 40be a7a4 963e
00000020: e4f7 8d3d 37f8 8fbf bd32 733f e0a4 0b3f
00000030: 6c7a 1e3c 307c c4bc 45e1 0c3f 6d15 d3bd
00000040: 0119 983d 4cc4 0fbe f707 f5be 8983 18bd
00000050: a313 aabb cf76 88bd f4ab 113f b9a2 523e
00000060: 5ee3 803c 1cf4 7ebe 193c aabd 924b c5be
00000070: 7b72 16be f26e e13b f8ff 30bd a112 21bd
00000080: c4fe 29be 4197 fdbd 4309 af3e 064a 07bf
00000090: a593 a73e f52a 34be 6211 0abc 5a6b 4fbe
000000a0: 9bf7 0e3d 67fc c73a 115e a33d 10ff 66bf
000000b0: c2a2 bdbd 4c5b d2bc c3a2 ef3b 65a3 c8bb
000000c0: a0ac 1aba 0a98 823e e9a0 bebd 7cc4 2ebe
000000d0: 27c3 0fbe d83c f73b 370d 803d b63d 95bd
000000e0: 009f 013f a79b 8cbe 0b7d c13e d7d5 98bf
000000f0: d28d de3c 51f5 f43c dd42 9bbe 2445 283d
00000100: 8416 87bc cb82 783c 76b6 31bf e13f b8bd
00000110: cf16 b13c 7eaa 15bd c981 023e 7eb7 cfbd
00000120: adeb 8b3d 74cd b73e caf8 783d a3e1 213b
00000130: f86f 6fbe 6006 40bd 097d 123e 15a1 463d
00000140: cef5 c1bd c42b debc 2cce 5b3e fbb0 963c
00000150: 286d b63d 3e02 65bc 0364 43be c04c 0abe
00000160: 3c2f 9b3e a81d 13be f2e5 8a3c 9b6c 9a3e
00000170: 379a c5bd acf4 87bf ba31 ff3b 5be0 10bd
00000180: c9ac d6bd 259b 8abe 607c 743e 4ac5 41bc
00000190: 7f8c 703e aa49 7b3d bd83 d7bc ad8a 0ebd
000001a0: cc5b 6e3d f359 833e 6572 bf3e 15e9 fd3d
000001b0: 82d4 943e 9f4e af3d 1a6c 1abd df6f dbbe
000001c0: 6906 283f 85f3 0e3e 7008 20bf f139 72bd
000001d0: a21f bdbd 1320 21be 8a6e 393d cfb1 5cbf
000001e0: d744 9a3d e4a9 04bc 2aba 9fba 8198 20be
000001f0: 26b8 c3be 5405 563e 2b54 443c a560 35bd
00000200: 079f e53e d24d 43be ecac 70bd 7991 143d
00000210: 3170 b5bd 9512 61be a793 e2bd b03f 453e
00000220: 0f4d 95be 40c3 04bf d929 9cbb 28fa e2bd
00000230: 2a16 26be 68a1 00bf 089c b33e b05d 83be
00000240: 170b 84be aa1d 33bf 16ca b7be 281d c23d
00000250: 5956 a83c 9dd5 56bd c37d cbbe 7908 11be
00000260: 8c11 0abf baf2 d3ba c73b 67bd 06c6 7f3a
00000270: 09c6 143d 4c3d 9cbd 2fb3 5a3e d249 9d3c
00000280: abac ecbd aa1c ea3e 332b e9be b059 84be
00000290: 5e52 b23b f839 11be c462 37be 6e82 463e
000002a0: 670e 37bf 7a75 b8bd 2f3a 8a3e f0a7 6bbf
000002b0: 152c e6be 4aed 2f3d c5de 863d 9406 d33d
000002c0: db60 af3c 22c2 87bc fb2b 91be 061b 23be
000002d0: 51e9 c43d 3015 eabd 7fae 883d fb21 e93e
000002e0: 2121 ea3d 2bd5 053e eb70 51bf 2c32 00bf
000002f0: 1d89 88be 1332 28be 5828 93be a064 eabe
00000300: 5ef0 fbbe 68a4 41be 31e8 55bf a1fe 44be
00000310: 14c2 2e3e 03d2 893d 0023 2abe 9d13 65bd
00000320: 304d acbd e763 b5be 608b 82be 862f 863e
00000330: aca5 96be 454e b83e 4b2f 103d 7795 5dbf
00000340: 7335 1dbf d082 cbbd eff2 b23d 0e5a a0bd
00000350: 4aa5 01bf c653 ae3e 84a2 7f3e e9e7 b3bd
00000360: 4eba 5cbf d0b7 c6bf 401d 1e3e 7c0c acbe
00000370: d348 973e 91f6 c43d 6403 bb3c b99c 0abe
00000380: 88c1 d73e db44 d63c a2fb a1be 9e21 163e
00000390: 5e9e 923d 0cf2 d3be 5506 bc3e 73ac 6f3e
000003a0: 7028 b33e 1057 0b3f 9f90 07be a05a bcbe
000003b0: 53d9 31bf b9d3 493d 87b7 9dbe ea11 29be
000003c0: cce5 a4bd dde1 06bc 9319 1fbe 9b22 c13b
000003d0: 9453 debe 21be cf3b 607b c6bc f301 aa3e
000003e0: 85d7 80bf 9246 77be abad 1ebe e0f4 5e3d
000003f0: e947 26be f3f0 1bbf 4ff5 1a3e 3343 23be

actor.2.bias f4 [128]
-0.025560861 -0.11809686 -0.7418223 -0.44219097 0.007067768 -1.8027601 -0.22757834 0.86436033
-1.0423658 0.6640851 -1.3532854 0.74037325 -1.3526562 -0.28016874 2.2670748 -0.03990342
-0.57310236 -0.304239 -1.5042591 -0.17014968 0.30144927 2.1057174 -0.6979724 0.5271909
-0.5133739 -0.35289085 0.5141374 0.67648447 -0.21299163 -0.14459638 0.7319362 0.49784562
-0.9173484 1.1050556 2.0147743 0.76865315 0.7871752 0.14377846 -0.6323599 0.684546
-0.3612222 0.3580907 1.5651748 -0.5465171 0.121731125 -0.068812974 -0.10269422 0.9275771
0.78118384 -0.79273605 0.02986029 1.0662344 -0.35248083 -1.4349291 -0.74938315 -1.5112393
-0.88762724 -0.9574362 0.7555315 1.145832 -0.55645645 1.1439404 -0.30110005 -0.1276096
0.9842766 0.32608235 -0.07799715 -0.17695393 0.87832254 0.04674936 -0.24668469 -1.0623218
0.34090698 0.21797132 -0.057497323 -0.1291352 1.4557544 -0.11844934 -0.26972923 -0.49563286
-0.1278271 0.09424266 -1.2918198 -0.5513308 -0.45513532 -0.23778044 1.4854699 0.073357634
-0.10145981 -0.122520134 0.067490466 -0.73550534 -1.2482955 -0.18942107 0.5039698 0.07647422
0.5387941 1.795518 -0.38212085 0.27705637 -0.46757737 -0.5455433 0.12829211 -0.20296134
-0.5775667 -0.037510544 -0.07886575 -0.25335488 -0.22919899 -0.058698963 -0.12800863 -0.41504887
0.16052844 0.48350152 0.9542865 -1.2904433 -0.08100948 1.4526298 0.19050348 -0.59234875
1.5898825 -0.347114 1.151833 -1.6759953 1.3476666 1.6440631 0.535923 -0.7636189
00000000: 0365 d1bc c4dc f1bd 11e8 3dbf db66 e2be
00000010: bc98 e73b d8c0 e6bf 4c0a 69be b846 5d3f
00000020: 3e6c 85bf 7b01 2a3f 7538 adbf 1a89 3d3f
00000030: d723 adbf 4772 8fbe c117 1140 c571 23bd
00000040: d6b6 12bf 37c5 9bbe 908b c0bf b83b 2ebe
00000050: 8f57 9a3e 13c4 0640 52ae 32bf fcf5 063f
00000060: 796c 03bf 1cae b4be 829e 033f 162e 2d3f
00000070: 7a1a 5abe 1311 14be 2c60 3b3f 9fe5 fe3e
00000080: 58d7 6abf 7672 8d3f 10f2 0040 74c6 443f
00000090: 5084 493f a93a 133e 57e2 21bf 683e 2f3f
000000a0: 1ef2 b8be aa57 b73e a657 c83f 8be8 0bbf
000000b0: 2b4e f93d d1ed 8cbd 5951 d2bd b175 6d3f
000000c0: aafb 473f c0f0 4abf 919d f43c 5e7a 883f
000000d0: 5e78 b4be c2ab b7bf 93d7 3fbf 4a70 c1bf
000000e0: 8a3b 63bf 8a1a 75bf 836a 413f 9faa 923f
000000f0: ee73 0ebf a46c 923f c929 9abe 17ac 02be
00000100: 8df9 7b3f 44f4 a63e f8bc 9fbd 6933 35be
00000110: bfd9 603f 427c 3f3d e99a 7cbe 29fa 87bf
00000120: 5c8b ae3e e033 5f3e 5082 6bbd 053c 04be
00000130: 2956 ba3f 9195 f2bd f319 8abe 97c3 fdbe
00000140: 1be5 02be 4c02 c13d 5a5a a5bf 0424 0dbf
00000150: 7f07 e9be b77c 73be e123 be3f 873c 963d
00000160: 29ca cfbd d6eb fabd 7138 8a3d 144a 3cbf
00000170: 26c8 9fbf 99f7 41be 2a04 013f 849e 9c3d
00000180: 69ee 093f 89d3 e53f 58a5 c3be 55da 8d3e
00000190: 4d66 efbe baa8 0bbf 025f 033e 19d5 4fbe
000001a0: 69db 13bf a8a4 19bd 5e84 a1bd bbb7 81be
000001b0: 24b3 6abe 536e 70bd b214 03be 4981 d4be
000001c0: 9161 243e 838d f73e 1f4c 743f 3f2d a5bf
000001d0: 4ce8 a5bd c6ef b93f 5813 433e 2ba4 17bf
000001e0: 4581 cb3f edb8 b1be 446f 933f 0487 d6bf
000001f0: 5780 ac3f a970 d23f 4032 093f 877c 43bf

actor.4.weight f4 [128, 128]
0.24635595 -0.41252294 -0.22702503 -0.07997066 -0.17150702 0.071621664 0.24968359 -0.050271004
0.1171134 0.19608296 -0.20305364 -0.6518052 0.06871288 -0.56981397 0.20777889 -0.06450116
-0.13252103 0.238814 0.22292848 0.07871745 0.42486382 -0.016281761 0.08215977 0.24061918
0.29317158 -0.04199454 -0.16393839 -0.1704019 -0.078108646 -0.0748022 -0.06604331 0.42803705
0.06471706 -0.05456244 -0.21707946 0.09007557 -0.084715694 -0.056281753 -0.44505006 0.42197347
0.14576593 -1.029213 0.11997645 0.2730406 0.09810733 -0.18549433 0.06142584 0.13479102
0.2545472 0.027973585 -0.2602032 -0.10059881 0.054328274 0.029547364 -0.4728068 0.35330024
-0.41693547 0.32835278 -0.60897684 0.006640754 -0.118729986 0.013872557 -0.12087936 0.014027425
0.08717838 -0.09417966 0.02324225 0.010667989 0.10046999 0.3076929 0.11094195 -0.25413316
0.07070605 -1.3027475 -0.055976868 0.007644074 -0.13346101 -0.00089788414 0.21588002 -0.55517256
-0.039925586 0.20981605 -0.18449353 -0.27857077 -0.7214968 0.22589836 -0.4561525 0.003093885
-0.034996826 0.43008524 0.07760682 0.14524165 -0.17290391 -0.087240756 -0.33951858 0.01107966
-0.19206339 0.1234084 0.23154849 -0.9355364 0.27712864 0.028425166 -0.18837214 0.48888394
0.2710161 -0.020807037 0.009516909 0.030275622 0.07704107 0.0037127074 -0.087147206 -0.20717354
-0.013741286 -0.23103313 0.09887366 -0.024767436 -0.11171954 -0.5380296 -0.24621214 0.08905812
0.12188229 0.28788313 -0.07772937 -0.50542724 -0.010664952 0.0062524066 -0.117898926 -0.42554066
0.0024582178 0.05783218 0.05704402 0.0048811235 -0.16494326 0.040623043 -0.14910021 0.057196468
-0.29499432 0.07146112 0.05439552 -0.08954897 -0.045763977 0.39100155 -0.18797047 0.02499534
0.10961457 0.09178023 -0.006227526 -0.16657111 0.07443982 0.12836955 -0.011313239 0.028043587
-0.19966291 0.10237185 -0.1303193 0.0015512278 -0.058441438 0.110400565 0.0057369475 -0.08610721
-0.056788143 0.32264844 0.080904976 0.3057759 -0.08164755 -0.17446598 -0.099360235 -0.3127223
0.075573824 0.007795227 -0.0060404204 -0.170145 0.12382948 -0.05390253 0.025236463 0.02362148
0.118341446 -0.14214262 0.096542984 0.008377444 0.11095025 -0.07902563 -0.030352386 0.07525419
0.0622922 -0.6255343 -0.22439206 0.031191757 -0.04816615 0.013055704 -0.11123902 0.05714581
0.015942182 -0.40380916 0.055314112 -0.024855161 -0.07737503 -0.025321346 -0.055767965 0.20293152
0.13962005 0.47925562 -0.0087692775 -0.03785959 -0.08057265 -0.07275459 -0.057302073 -0.21335359
0.07978087 0.42918652 -0.23777442 0.11329292 0.08745464 -0.08380735 0.23517339 -0.0064101564
-0.046623927 -0.127735 0.012131838 -0.16040878 0.1390809 -0.009816561 0.12994179 -0.010466979
0.041071884 -0.5055277 0.06905415 0.20094453 -0.10367883 -0.185448 -0.10766922 -0.01048034
-0.06423794 0.012794975 0.1119676 0.20770836 -0.005666432 -0.020016773 0.027076455 -0.26481324
0.15550159 0.012982677 0.16703841 -0.06361326 -0.05401786 0.08780635 0.13813628 0.03854792
-0.0115356 -0.0057158223 -0.05768718 0.22345284 0.005036957 -0.2061501 -0.11203635 -0.13015674
00000000: bc44 7c3e 3536 d3be 4079 68be a8c7 a3bd
00000010: 899f 2fbe 61ae 923d 0ead 7f3e f8e8 4dbd
00000020: 26d9 ef3d f9c9 483e 4bed 4fbe b5dc 26bf
00000030: 57b9 8c3d 54df 11bf fdc3 543e 2f19 84bd
00000040: 98b3 07be a88b 743e 5d47 643e 9d36 a13d
00000050: c087 d93e 5461 85bc 6243 a83d e064 763e
00000060: 961a 963e 7702 2cbd 77df 27be d67d 2ebe
00000070: 6df7 9fbd e531 99bd b741 87bd ac27 db3e
00000080: 618a 843d dd7c 5fbd 144a 5ebe 8a79 b83d
00000090: 6c7f adbd b287 66bd 9add e3be e80c d83e
000000a0: aa43 153e 40bd 83bf 37b6 f53d facb 8b3e
000000b0: 7fec c83d 3af2 3dbe a999 7b3d a806 0a3e
000000c0: 0354 823e dc28 e53c 5b39 85be c006 cebd
000000d0: 5387 5e3d 500d f23c bc13 f2be c5e3 b43e
000000e0: 9178 d5be db1d a83e e8e5 1bbf af9a d93b
000000f0: b528 f3bd b949 633c 998f f7bd 49d3 653c
00000100: 948a b23d 44e1 c0bd 8866 be3c cac8 2e3c
00000110: 36c3 cd3d ec89 9d3e 8835 e33d be1d 82be
00000120: 55ce 903d 6ec0 a6bf 0048 65bd 247b fa3b
00000130: 01aa 08be fc5f 6bba a70f 5d3e ca1f 0ebf
00000140: 0389 23bd 05da 563e dfeb 3cbe d4a0 8ebe
00000150: 04b4 38bf e651 673e d28c e9be c7c2 4a3b
00000160: d558 0fbd 2234 dc3e 53f0 9e3d 3aba 143e
00000170: b90d 31be 48ab b2bd 61d5 adbe 7687 353c
00000180: 44ac 44be 8bbd fc3d 0c1b 6d3e 507f 6fbf
00000190: cee3 8d3e e5db e83c a0e4 40be ff4e fa3e
000001a0: 9fc2 8a3e 8573 aabc cfec 1b3c 9504 f83c
000001b0: b5c7 9d3d e550 733b 3c7a b2bd 4d25 54be
000001c0: 2123 61bc f393 6cbe 467e ca3d 14e5 cabc
000001d0: 37cd e4bd 4fbc 09bf 091f 7cbe 1b64 b63d
000001e0: 6c9d f93d 6b65 933e 9330 9fbd ae63 01bf
000001f0: 0dbc 2ebc fde0 cc3b fe74 f1bd 77e0 d9be
00000200: 0d1a 213b 70e1 6c3d fea6 693d d5f1 9f3b
00000210: e3e6 28be 5964 263d baad 18be d846 6a3d
00000220: 7f09 97be 355a 923d d6cd 5e3d 7365 b7bd
00000230: 0273 3bbd 5b31 c83e 557b 40be 07c3 cc3c
00000240: 9b7d e03d 46f7 bb3d 4610 ccbb 9e91 2abe
00000250: e873 983d 4f73 033e 2a5b 39bc aabb e53c
00000260: 6f74 4cbe 55a8 d13d 6c72 05be 9152 cb3a
00000270: 4a60 6fbd b119 e23d 01fd bb3b fa58 b0bd
00000280: af9a 68bd 2d32 a53e 82b1 a53d a98e 9c3e
00000290: d536 a7bd 36a7 32be 617d cbbd 231d a0be
000002a0: 73c6 9a3d 1b6f ff3b b8ee c5bb 7e3a 2ebe
000002b0: 4f9a fd3d e6c8 5cbd b3bc ce3c d681 c13c
000002c0: 005d f23d d68d 11be 54b8 c53d 8c41 093c
000002d0: e239 e33d 31d8 a1bd 91a5 f8bc de1e 9a3d
000002e0: 1b26 7f3d 0423 20bf 08c7 65be db85 ff3c
000002f0: de49 45bd 97e7 553c 49d1 e3bd ba11 6a3d
00000300: 2e99 823c 13c0 cebe 0d91 623d 0d9d cbbc
00000310: cd76 9ebd b66e cfbc f36c 64bd 48cd 4f3e
00000320: 8ff8 0e3e fe60 f53e 04ad 0fbc a812 1bbd
00000330: 4603 a5bd 5c00 95bd 94b5 6abd 5d79 5abe
00000340: 2764 a33d 56be db3e 237b 73be 1e06 e83d
00000350: 6b1b b33d 30a3 abbd 4bd1 703e 4a0c d2bb
00000360: bbf8 3ebd f7cc 02be 9ec4 463c 3342 24be
00000370: 396b 0e3e a4d5 20bc 760f 053e b17d 2bbc
00000380: fe3a 283d 436a 01bf 436c 8d3d 67c4 4d3e
00000390: 9155 d4bd 15e6 3dbe ae81 dcbd bbb5 2bbc
000003a0: 2e8f 83bd 04a2 513c 454f e53d 80b1 543e
000003b0: 7aad b9bb 37fa a3bc 71cf dd3c 9a95 87be
000003c0: cf3b 1f3e 4bb5 543c 1e0c 2b3e ab47 82bd
000003d0: d541 5dbd d1d3 b33d 9973 0d3e 6ce4 1d3d
000003e0: d0ff 3cbc cb4b bbbb 6449 6cbd d2d0 643e
000003f0: 0f0d a53b 0319 53be 5073 e5bd cf47 05be

actor.4.bias f4 [128]
0.26506647 -0.29648855 -0.14913493 -1.6994934 1.7759622 -0.23935725 0.50642204 -0.411076
-0.39388692 -0.028159788 -0.75404584 0.21365151 -1.609117 0.4608064 0.5294817 -2.3613389
-0.17477223 -0.10466578 0.344207 0.22970068 -0.24411112 0.2967083 -0.07138952 -1.3596017
-0.029868064 -0.13541616 2.2069259 2.2419882 -0.6162757 -0.4989892 0.14294755 1.9019476
-0.0689541 0.40128538 -0.7854481 -0.65612763 -0.40864986 2.3827991 0.68686616 0.93256646
0.09640495 0.26027316 -0.059411824 0.9742575 -0.3412003 1.8336514 -2.8449712 -1.5525383
1.6370606 0.3949797 1.5042511 -0.93281084 -0.62356144 0.7130212 -0.61599475 -1.1089237
0.6284666 1.8613951 -0.35348994 -0.7108787 -2.0162358 -0.21897323 3.4917283 -0.30608705
-0.18627384 -0.5720684 0.545105 0.19806176 -0.14190753 -0.23592481 -2.2060041 -2.3257077
-0.04996026 2.7608957 0.15770616 -0.01599392 -0.22219218 -0.44788527 -1.6325332 1.359979
-0.100142024 -1.4746777 0.7182888 -0.16590984 -1.3486241 -2.4279501 -1.2956707 1.6323986
1.025391 1.3858051 -0.20055401 -0.8416503 -0.92257434 0.38559878 -1.8448917 -0.06693983
-0.88544935 1.1071229 -1.8322679 -0.7469554 0.1153057 0.6568168 -0.54608965 -0.022737496
0.9651725 0.36372843 -1.1708533 -1.3148782 -0.5133708 -0.90264916 -1.892636 0.72128624
-1.0023365 -0.9065586 0.25303048 0.335688 -1.7504793 0.24259478 1.8631408 0.76162666
-1.1949327 1.2600938 0.06465978 1.1647257 -0.4954962 0.9120987 -2.835182 -2.0564306
00000000: cbb6 873e 59cd 97be d4b6 18be 0089 d9bf
00000010: bb52 e33f 111a 75be e0a4 013f 8e78 d2be
00000020: 8cab c9be 5baf e6bc 2609 41bf 76c7 5a3e
00000030: 8cf7 cdbf d1ee eb3e 1d8c 073f 2d20 17c0
00000040: 7ef7 32be 035b d6bd e63b b03e a836 6b3e
00000050: 44f8 79be 26ea 973e ab34 92bd 6e07 aebf
00000060: dfad f4bc 89aa 0abe 463e 0d40 bc7c 0f40
00000070: 3fc4 1dbf 837b ffbe d860 123e 0573 f33f
00000080: cf37 8dbd 4775 cd3e 2013 49bf fbf7 27bf
00000090: 8e3a d1be c87f 1840 76d6 2f3f adbc 6e3f
000000a0: f56f c53d 8642 853e d059 73bd f168 793f
000000b0: ceb1 aebe 17b5 ea3f 0214 36c0 93b9 c6bf
000000c0: 348b d13f c73a ca3e 4d8b c03f b1cc 6ebf
000000d0: b9a1 1fbf 8f88 363f d5b1 1dbf 36f1 8dbf
000000e0: 30e3 203f 3242 ee3f a2fc b4be 25fc 35bf
000000f0: 020a 01c0 853a 60be 7a78 5f40 71b7 9cbe
00000100: 92be 3ebe 1373 12bf 008c 0b3f b4d0 4a3e
00000110: 3550 11be 4696 71be 2c2f 0dc0 65d8 14c0
00000120: 21a3 4cbd 84b2 3040 b97d 213e ae05 83bc
00000130: 5986 63be 3851 e5be d9f6 d0bf cb13 ae3f
00000140: 4317 cdbd 3dc2 bcbf c6e1 373f 45e4 29be
00000150: b79f acbf 8963 1bc0 8ad8 a5bf 70f2 d03f
00000160: 0340 833f 1062 b13f 085e 4dbe 6576 57bf
00000170: d52d 6cbf 346d c53e 6925 ecbf c017 89bd
00000180: cfac 62bf 34b6 8d3f c187 eabf 7838 3fbf
00000190: 6525 ec3d 2525 283f 88cc 0bbf fc43 babc
000001a0: 8c15 773f 9d3a ba3e 85de 95bf ee4d a8bf
000001b0: 456c 03bf 0414 67bf e541 f2bf 37a6 383f
000001c0: 904c 80bf 3914 68bf 368d 813e 4cdf ab3e
000001d0: b50f e0bf c46a 783e 667b ee3f f7f9 423f
000001e0: 8ef3 98bf c14a a13f 596c 843d bb15 953f
000001f0: aeb1 fdbe 4d7f 693f 9f73 35c0 8f9c 03c0

actor.6.weight f4 [128, 128]
-0.3707773 -0.34178257 0.617466 -0.36193293 0.6941382 -0.7172825 -0.041647103 -0.35209626
0.12700973 -0.051442362 0.048235048 -0.41562697 0.030742189 0.37455612 0.4640035 -0.2551627
-0.04233954 0.019318193 -0.009279755 0.13994925 0.10668443 0.07523161 0.069681354 -0.45756796
-0.043650318 0.08841193 -0.25940326 0.24834895 -0.2745401 0.20970331 -0.512192 -0.98622876
0.10641443 0.35386994 0.3850558 -0.38128838 -0.53364474 0.30382243 -0.57592213 -0.89705366
-0.5102008 -0.28033936 0.10537918 0.45754424 -0.2834118 0.41883522 0.20767465 -0.27048796
0.07198822 0.07277131 -0.35029936 -0.04369092 -0.22792126 0.46670166 -0.04488429 -0.51273954
-1.6929364 -1.4099605 0.17409809 -0.38018286 -0.7232421 -0.16512375 0.09998254 -0.06279228
-0.5472753 0.35468346 -0.19597551 0.06788856 0.018601377 0.3834923 -0.564213 0.15627779
-0.18659753 0.35846227 0.36195832 -0.9688117 0.05621129 -0.064922795 -0.45079994 -0.07013559
-0.56470466 -0.38514635 -0.17555965 -0.2743673 -0.1093964 -0.474624 -0.11967425 0.120895475
0.1973484 -0.45815998 -0.038234286 -0.002523262 -0.20234829 0.4454673 -0.3339716 -0.06823279
-0.7200953 -0.15808468 -0.33876052 -0.8530839 0.5500171 0.17751004 -0.15387276 -0.32467514
0.114160925 -1.5527904 0.2804507 -0.4935469 -0.3469826 -0.12276286 -0.3735471 -0.23791696
-0.31750014 0.3155609 0.03369632 -0.11237143 0.20061888 0.17619736 -0.22881968 -0.058484413
-0.44675788 -0.1564919 -0.060588 -0.2688972 -0.10930121 0.29630205 -0.017589467 -0.38769734
0.17423987 -0.20216978 0.13925672 0.039009713 -0.15899338 0.10945648 -0.11580228 -0.04548488
0.4972932 -0.102621675 0.29471812 -0.6637899 0.17706195 -0.96614766 -0.36634848 -0.17795745
-0.019447131 -0.083364904 -0.577417 -0.057184566 -0.013146045 -0.20915009 -0.058670405 -0.23204565
0.28939426 -0.20871563 -0.09352496 -0.35720608 -1.3041803 -0.20449495 -0.35149145 -0.22968169
-0.06362676 -0.019424895 0.22731741 0.04781769 -0.72684246 0.08652959 -0.6791584 0.09469508
-0.32042935 -0.2791904 0.37308964 -0.62430525 0.18955964 0.28884503 -0.67491066 -0.24004875
0.05217949 -0.03598366 0.26109168 -0.17265806 0.16538966 -0.18094742 0.33370024 -0.46734536
-0.16339935 0.2015418 -0.43182522 0.42813492 -0.28579134 -0.041986585 0.5073419 -0.1902671
-0.07522038 -0.96185386 -0.7283334 0.19001006 0.0421476 -0.5094001 -0.67912716 0.48334482
-0.08383922 -0.9298718 0.37777185 -0.7946162 -0.11086199 -0.14376886 -0.64908624 0.032578647
0.21195056 -0.15880542 0.35374847 0.19022472 -0.16352522 0.04879776 -0.34119534 0.23320724
0.15986906 -0.8706789 0.022837924 -0.7041624 -0.0041368776 -0.2915079 0.24317406 -0.008633156
-0.439224 -0.23990706 -0.08585221 -0.26214322 -0.18608515 -0.20438829 0.04189357 -0.051920444
0.23495305 -0.2888765 -0.03609525 -0.9510588 -1.1547735 -0.4637807 -0.7989559 -0.01854628
-0.54900527 -0.26038155 -0.38066098 -0.1391039 0.045709103 0.19479863 -0.030607088 -0.0028275673
0.08487387 -0.43704593 -0.8626974 -0.5595771 -0.4707053 0.013523036 -1.1319398 0.476572
00000000: 86d6 bdbe 20fe aebe 4012 1e3f 464f b9be
00000010: 0bb3 313f d39f 37bf 2796 2abd f645 b4be
00000020: d70e 023e 3ab5 52bd 1d92 453d 0fcd d4be
00000030: 0bd7 fb3c d2c5 bf3e de91 ed3e afa4 82be
00000040: 3a6c 2dbd 3041 9e3c 1d0a 18bc db4e 0f3e
00000050: 5e7d da3d 0813 9a3d 19b5 8e3d 5946 eabe
00000060: adca 32bd 5011 b53d 81d0 84be 304f 7e3e
00000070: 8590 8cbe 77bc 563e 041f 03bf 7d79 7cbf
00000080: cfef d93d 712e b53e 0926 c53e 3b38 c3be
00000090: f19c 08bf 9d8e 9b3e a26f 13bf 4fa5 65bf
000000a0: 859c 02bf a488 8fbe 0ad1 d73d 3d43 ea3e
000000b0: 5a1b 91be 9271 d63e aaa8 543e 667d 8abe
000000c0: 8f6e 933d 2009 953d 705a b3be 40f5 32bd
000000d0: 3164 69be 85f3 ee3e 97d8 37bd e642 03bf
000000e0: 24b2 d8bf 9679 b4bf c546 323e 54a7 c2be
000000f0: 6526 39bf 3316 29be a5c3 cc3d 3d99 80bd
00000100: 3c1a 0cbf 1299 b53e cead 48be 2809 8b3d
00000110: ea61 983c 1a59 c43e 4370 10bf 4907 203e
00000120: 6c13 3fbe 5e88 b73e 9a52 b93e 0b04 78bf
00000130: cf3d 663d 3ef6 84bd 40cf e6be 40a3 8fbd
00000140: 7c90 10bf e731 c5be e9c5 33be df79 8cbe
00000150: 380b e0bd eb01 f3be c617 f5bd 0c98 f73d
00000160: b315 4a3e f293 eabe 8e9b 1cbd 505d 25bb
00000170: 6434 4fbe 4a14 e43e 53fe aabe a2bd 8bbd
00000180: 2a58 38bf f3e0 21be 0572 adbe b563 5abf
00000190: eccd 0c3f 31c5 353e d290 1dbe d23b a6be
000001a0: 34cd e93d d6c1 c6bf 3c97 8f3e 2eb2 fcbe
000001b0: b4a7 b1be 186b fbbd 9141 bfbe 81a0 73be
000001c0: 618f a2be 3391 a13e 2705 0a3d fe22 e6bd
000001d0: 096f 4d3e 156d 343e b54f 6abe 5a8d 6fbd
000001e0: 73bd e4be 6a3f 20be 1f2b 78bd e5ac 89be
000001f0: 50d9 dfbd e7b4 973e c917 90bc 4480 c6be
00000200: f06b 323e 9805 4fbe 5099 0e3e a6c8 1f3d
00000210: 29cf 22be b82a e03d bf29 edbd 5b4e 3abd
00000220: 379d fe3e 502b d2bd 4be5 963e 23ee 29bf
00000230: ba4f 353e 7455 77bf 0792 bbbe 7a3a 36be
00000240: 974f 9fbc 38bb aabd 9ad1 13bf 5d3a 6abd
00000250: 8262 57bc 712b 56be 6150 70bd 609d 6dbe
00000260: 7c2b 943e 8db9 55be 048a bfbd b7e3 b6be
00000270: 61ef a6bf 2067 51be b0f6 b3be ad31 6bbe
00000280: bf4e 82bd f520 9fbc e5c5 683e 7bdc 433d
00000290: 5912 3abf 6d36 b13d 53dd 2dbf 7eef c13d
000002a0: 510f a4be 0bf2 8ebe 9b05 bf3e 78d2 1fbf
000002b0: ec1b 423e 7fe3 933e f2c6 2cbf 57cf 75be
000002c0: 29ba 553d 9a63 13bd cfad 853e 46cd 30be
000002d0: e85b 293e 484a 39be c2da aa3e e447 efbe
000002e0: 2952 27be f960 4e3e 3218 ddbe 8034 db3e
000002f0: 3e53 92be 20fa 2bbd 29e1 013f 61d5 42be
00000300: 250d 9abd 0e3c 76bf 0f74 3abf ff91 423e
00000310: f6a2 2c3d 0c68 02bf 47db 2dbf f978 f73e
00000320: e6b3 abbd 140c 6ebf 506b c13e f86b 4bbf
00000330: 9c0b e3bd 2538 13be 842a 26bf 3071 053d
00000340: 9109 593e e39d 22be 851e b53e 45ca 423e
00000350: 2873 27be 29e0 473d 28b1 aebe e1cd 6e3e
00000360: b7b4 233e d0e4 5ebf 9916 bb3c fd43 34bf
00000370: a58e 87bb 8640 95be 9f02 793e 1572 0dbc
00000380: f8e1 e0be 32aa 75be 49d3 afbd a337 86be
00000390: 1b8d 3ebe 2a4b 51be 9898 2b3d 88aa 54bd
000003a0: 8897 703e 9fe7 93be 9dd8 13bd 9778 73bf
000003b0: 9ecf 93bf aa74 edbe 6088 4cbf 5eee 97bc
000003c0: 9c8b 0cbf bb50 85be ffe5 c2be 4171 0ebe
000003d0: 7839 3b3d 4b79 473e b7bb fabc b54e 39bb
000003e0: 5ad2 ad3d 7cc4 dfbe bdd9 5cbf 7240 0fbf
000003f0: 4900 f1be b98f 5d3c 67e3 90bf 3f01 f43e

actor.6.bias f4 [128]
0.088331364 0.06835622 -0.81820357 -1.4432397 -0.15558062 0.25832218 0.41810244 0.43190366
-0.19485825 0.48261598 -1.7659991 -0.2828475 -0.5142818 0.0388412 -0.6311715 0.004230802
-0.3092117 -0.16069934 0.2286603 0.019571932 -1.3040875 0.2511674 -1.2123729 -0.5071277
-0.21496807 -0.511843 0.7840139 0.36665618 0.024004722 0.15059459 -0.29505095 0.70349306
0.38302055 -0.08595657 -0.15074678 0.27156863 -0.10418243 -0.09986044 -0.5356882 -1.1348975
-0.12402661 -0.1311958 0.7053542 -0.78054535 0.19761766 -0.1473935 -0.30477265 -0.25630122
0.12858011 0.3188434 -0.38087302 0.2689903 0.5270269 1.1933951 -0.7181487 -0.13253678
-0.93203646 0.2985396 -0.5798973 0.0269006 -0.418719 0.104825966 0.2916569 0.43310973
-0.56879133 0.38092056 0.49957585 -0.6735054 0.04781814 -0.86910677 0.36116505 -2.4017732
0.6456438 -2.6093123 -0.31913292 -0.049553823 0.5554055 -0.4749795 -2.674659 0.28254655
0.44158554 0.6387499 -0.11340093 -0.3032828 -0.470361 0.8505522 -0.16690756 0.27686876
-2.3552186 -0.09635584 -0.0703951 0.5261878 0.26785174 -0.24519442 -2.9994333 -1.1640193
-0.20086944 -0.46982536 -0.16807738 0.43731588 -0.84172475 -0.3583326 -0.27705193 0.33333582
-0.94784707 0.52877235 -0.69639874 -0.8077284 0.37115142 -0.07535688 -0.1739987 0.034760743
-0.14018504 -0.443678 -0.54820645 0.387582 -0.294151 -0.0181597 -1.0990869 -1.8612769
0.35915464 0.3222347 0.6446271 -0.21380085 -0.11508863 -0.173526 -0.34461328 0.7323396
00000000: 13e7 b43d 59fe 8b3d ca75 51bf 14bc b8bf
00000010: 8750 1fbe ce42 843e 8611 d63e 7a22 dd3e
00000020: ec88 47be 7119 f73e 420c e2bf 63d1 90be
00000030: f9a7 03bf f317 1f3d 7594 21bf 8aa2 8a3b
00000040: ff50 9ebe 5e8e 24be ed25 6a3e 5155 a03c
00000050: 57ec a6bf 0399 803e 092f 9bbf 1fd3 01bf
00000060: 9720 5cbe 2508 03bf 23b5 483f 5cba bb3e
00000070: 8da5 c43c 7835 1a3e eb10 97be 1f18 343f
00000080: 451b c43e 000a b0bd 5d5d 1abe 0b0b 8b3e
00000090: 995d d5bd a183 ccbd dd22 09bf 5244 91bf
000000a0: aa01 febd 3158 06be 1892 343f d2d1 47bf
000000b0: 495c 4a3e 52ee 16be 290b 9cbe ea39 83be
000000c0: 81aa 033e 713f a33e ca01 c3be 19b9 893e
000000d0: 3ceb 063f 2cc1 983f 98d8 37bf b9b7 07be
000000e0: f199 6ebf 2fda 983e 2674 14bf a65e dc3c
000000f0: 5662 d6be ffae d63d 0e54 953e 8fc0 dd3e
00000100: 4f9c 11bf 0508 c33e 68c8 ff3e da6a 2cbf
00000110: f4dc 433d c87d 5ebf a0ea b83e a7b6 19c0
00000120: e948 253f f9fe 26c0 6465 a3be f3f8 4abd
00000130: 0e2f 0e3f 8330 f3be 9d2d 2bc0 f1a9 903e
00000140: 8017 e23e 1d85 233f bf3e e8bd e247 9bbe
00000150: 28d3 f0be cabd 593f d1e9 2abe bec1 8d3e
00000160: e7bb 16c0 3656 c5bd 4e2b 90bd 3eb4 063f
00000170: dd23 893e 3f14 7bbe b7f6 3fc0 96fe 94bf
00000180: b8b0 4dbe f38c f0be 7a1c 2cbe dee7 df3e
00000190: 467b 57bf 5f77 b7be c0d9 8dbe feaa aa3e
000001a0: 1ba6 72bf a05d 073f 3047 32bf 4ac7 4ebf
000001b0: 8f07 be3e b554 9abd b72c 32be 4861 0e3d
000001c0: ab8c 0fbe c329 e3be 4257 0cbf 2671 c63e
000001d0: f69a 96be a7c3 94bc e1ae 8cbf 523e eebf
000001e0: 1ee3 b73e f2fb a43e 4806 253f 9cee 5abe
000001f0: 96b3 ebbd cdb0 31be 2771 b0be 9c7a 3b3f

actor.8.weight f4 [1, 128]
0.040365882 -0.020208705 -0.062369432 0.12550527 0.030943505 0.042166077 0.033812106 0.019116106
0.028014837 0.01200553 -0.10249984 -0.00038855613 -0.039622027 -0.051962115 -0.04516559 -0.037151184
-0.019569976 0.0038060548 0.026546864 -0.063476525 -0.07166928 -0.023752416 0.051772986 0.022722581
0.010566665 -0.032543004 -0.020062676 0.029755566 0.034592617 0.048509125 0.025582938 -0.019948946
0.11088823 0.091491506 -0.038349938 0.030918676 0.05155031 0.014924507 0.10362721 0.027218083
0.030195285 -0.0025527922 -0.053169005 0.027206829 0.07382253 -0.0030330087 0.019549597 0.018396523
0.0248821 -0.024390992 -0.028583582 -0.053315066 -0.019613434 -0.028481495 0.037428595 -0.003279638
0.025493229 -0.043895066 -0.08640029 -0.032357775 -0.021166757 0.03413339 -0.025236972 0.027931958
-0.059931442 -0.023420649 -0.016977478 0.036066633 0.031480573 -0.10150203 0.020062223 0.03311073
-0.018980755 -0.041432504 -0.028432636 -0.04247784 -0.055894554 0.058710348 0.09438248 0.031741027
0.024043659 0.03125496 0.016128648 0.034857024 -0.03774834 0.021840911 0.06916321 -0.016231412
-0.029055903 0.018248118 0.010991367 -0.022622336 0.036932785 0.011696592 0.041594848 -0.026655879
-0.00035744763 0.02700669 -0.023891617 0.08838847 0.0867951 0.022688722 0.03792589 -0.016617918
0.09824376 -0.039908897 -0.05167188 0.02557133 0.016759021 0.028274054 -0.03201895 -0.03321747
-0.00244548 -0.03963031 -0.04386125 0.021256203 0.034099948 -0.041338522 -0.026297022 0.05597819
-0.015002679 -0.031454984 -0.048767533 0.047058024 -0.08567957 0.009900238 -0.04585073 0.020646773
00000000: b256 253d ba8c a5bc 1777 7fbd 7484 003e
00000010: 3c7d fd3c 56b6 2c3d 907e 0a3d 6199 9c3c
00000020: 5f7f e53c d8b2 443c 70eb d1bd 1fb7 cbb9
00000030: b54a 22bd 3ad6 54bd 8eff 38bd d72b 18bd
00000040: 3751 a0bc 016f 793b cf78 d93c fbff 81bd
00000050: 58c7 92bd 6d94 c2bc e90f 543d b524 ba3c
00000060: ce1f 2d3c d04b 05bd 7b5a a4bc f2c1 f33c
00000070: fdb0 0d3d 81b1 463d 4f93 d13c f96b a3bc
00000080: 5e19 e33d e65f bb3d d314 1dbd 2a49 fd3c
00000090: 6b26 533d eb85 743c 813a d43d 75f8 de3c
000000a0: 1a5c f73c bf4c 27bb bec7 59bd dbe0 de3c
000000b0: 4430 973d 71c5 46bb 7a26 a03c 4eb4 963c
000000c0: 8cd5 cb3c 9ecf c7bc 1e28 eabc e660 5abd
000000d0: 5aac a0bc 0652 e9bc ba4e 193d 32ef 56bb
000000e0: 2dd7 d03c 50cb 33bd a3f2 b0bd 9689 04bd
000000f0: e865 adbc 74cf 0b3d c4bd cebc 90d1 e43c
00000100: ac7a 75bd a9dc bfbc 5a14 8bbc 9bba 133d
00000110: c6f1 003d 4ce0 cfbd 8859 a43c 1e9f 073d
00000120: 877d 9bbc 21b5 29bd 8feb e8bc 3efd 2dbd
00000130: b0f1 64bd 437a 703d 9a4b c13d e102 023d
00000140: 35f7 c43c 3305 003d 3a20 843c 3dc6 0e3d
00000150: 019e 1abd b6eb b23c 71a5 8d3d bdf7 84bc
00000160: a506 eebc 147d 953c 2215 343c 7a52 b9bc
00000170: d546 173d 10a3 3f3c 5c5f 2a3d 6e5d dabc
00000180: cf67 bbb9 223d dd3c 5ab8 c3bc 0405 b53d
00000190: a1c1 b13d b3dd b93c 2e58 1b3d 4d22 88bc
000001a0: 0634 c93d 8377 23bd e5a5 53bd f77a d13c
000001b0: 374a 893c fd9e e73c 4d26 03bd 0b0f 08bd
000001c0: 5944 20bb 6453 22bd dba7 33bd 7d21 ae3c
000001d0: 63ac 0b3d 9552 29bd da6c d7bc 6349 653d
000001e0: cccd 75bc f1d6 00bd 77c0 47bd eabf 403d
000001f0: c578 afbd 9c34 223c facd 3bbd 6c23 a93c

critic.0.weight f4 [128, 205]
0.05743532 -0.0038738009 -0.003584558 -0.011322926 0.0119429175 0.05168302 -0.065958135 -0.017490923
-0.00017332938 -0.0569488 0.025369957 -0.023422971 -0.026636658 -0.06105011 -0.015155355 0.051596045
-0.05770975 0.014502893 -0.007155436 0.022360232 0.060972776 -0.041262418 -0.065187365 0.068025075
-0.05548123 0.033237077 0.014861425 -0.041447446 0.008096925 -0.032720104 0.034411844 -0.043657996
-0.026135128 -0.049409173 0.056169868 0.029992776 0.026211152 0.022719396 -0.006659102 0.03808404
0.014621031 0.054688692 0.013660292 -0.030678526 0.009067913 0.033193782 0.03380832 -0.06296237
0.006217136 -0.0011297133 -0.066060536 0.012875172 0.008787012 0.018070899 -0.039610308 -0.021076946
-0.049347352 -0.05770145 0.020765057 0.04775172 0.016418908 0.042466573 -0.04174945 -0.02388814
0.0066266973 0.05421138 -0.03888889 -0.0488526 0.0011412946 -0.017717497 0.05629106 0.050613202
0.039929286 0.038461313 -0.028978694 -0.03445253 -0.050806597 -0.059674364 -0.035395753 0.0048953937
0.022297055 0.049000587 0.03607823 -0.03735841 0.012846914 -0.004600464 0.0039932197 -0.008955254
-0.02754645 -0.059374187 0.025641218 0.00094158866 -0.024543634 0.06305066 -0.06973057 -0.038069993
-0.021174876 -0.029223327 0.01072912 -0.06848168 -0.066972435 -0.040943626 -0.065516844 0.05154472
0.06761686 0.02463213 -0.03763613 -0.054129697 -0.06805472 -0.046825342 -0.05477761 -0.017592732
0.054070067 0.02038481 0.06448741 -0.055095606 -0.05270427 0.010146063 -0.018174432 -0.05087473
-0.020224603 -0.03448827 -0.035752926 -0.0152516365 -0.026569942 -0.048516374 0.01956941 0.024422208
-0.0679458 0.049383745 0.036016434 0.032487202 0.05456246 -0.031927958 -0.016124228 0.0530759
-0.06589861 0.0065206415 -0.01917063 -0.027265215 0.053213652 0.05001515 -0.060887337 0.02455937
-0.00802175 0.0465723 -0.012681137 -0.0132517135 0.009423155 -0.022286437 -0.008204871 0.04284158
0.008628536 0.04541503 -0.06758626 0.043870542 -0.055262167 0.06616074 -0.011090033 -0.0012779316
-0.033298522 0.05021614 0.01830629 -0.054901376 -0.020488301 -0.06642502 -0.039318975 0.032978315
0.032834586 -0.05988909 0.010797551 -0.028052684 0.03663127 -0.026646832 0.059400924 0.04197661
0.043538295 -0.061419837 0.0577401 0.038066663 0.02822066 0.020678965 -0.015549972 0.01890838
0.03060892 -0.013695627 -0.00929765 -0.010338875 0.019295145 -0.00045557035 0.0039734957 -0.032660905
0.054259546 0.044804264 -0.046238456 -0.042686317 -0.0043146345 -0.011276884 -0.04045794 0.01085898
-0.025796937 -0.06862334 0.0668513 -0.015916938 0.056552052 -0.019573074 -0.051895924 0.0584893
0.027565915 0.017815027 -0.018095745 -0.05526452 0.01285544 0.017882492 -0.025888622 0.0683056
0.011550599 -0.014320572 0.051675443 -0.013164682 0.044626694 -0.037450094 -0.06302811 -0.034615114
-0.051396366 0.0064174165 0.0019222094 -0.06356949 0.061649233 -0.020933332 -0.03813958 -0.01581049
-0.018101705 0.011150654 -0.029996557 0.049282726 -0.014356515 -0.047532074 0.026954142 0.023988793
-0.05994647 0.036971346 0.00848588 0.02340064 -0.05152181 0.050823633 0.0024619217 -0.060632445
0.056084152 0.045032892 0.051699214 -0.06868484 -0.022840155 -0.055462703 -0.05112718 -0.067997456
00000000: 4c41 6b3d 98df 7dbb e7ea 6abb cb83 39bc
00000010: 3aac 433c 93b1 533d 0f15 87bd 2049 8fbc
00000020: c0bf 35b9 2543 69bd a8d4 cf3c 88e1 bfbc
00000030: 1f35 dabc ae0f 7abd 2b4e 78bc 6056 533d
00000040: 0f61 6cbd 8b9d 6d3c 2678 eabb ce2c b73c
00000050: 97be 793d c802 29bd f480 85bd bb50 8b3d
00000060: 4940 63bd 9a23 083d 567d 733c ccc4 29bd
00000070: f7a8 043c 8405 06bd 6ff3 0c3d bad2 32bd
00000080: 5619 d6bc 4661 4abd 6012 663d 69b3 f53c
00000090: c5b8 d63c 071e ba3c 9934 dabb 03fe 1b3d
000000a0: 0c8d 6f3c 4001 603d 6bcf 5f3c 8851 fbbc
000000b0: 9591 143c 34f6 073d 987a 0a3d 6af2 80bd
000000c0: 1eb9 cb3b e312 94ba bf4a 87bd 63f2 523c
000000d0: 66f7 0f3c 6c09 943c 6b3e 22bd 8fa9 acbc
000000e0: 7320 4abd 5b58 6cbd 7b1b aa3c 4f97 433d
000000f0: f280 863c 6ef1 2d3d 7901 2bbd 10b1 c3bc
00000100: c424 d93b c10c 5e3d f549 1fbd aa19 48bd
00000110: 7e97 953a 4924 91bc 7491 663d ca4f 4f3d
00000120: e48c 233d 9c89 1d3d ba64 edbc 191e 0dbd
00000130: 941a 50bd 1b6d 74bd 23fb 10bd 8a69 a03b
00000140: 50a8 b63c d7b4 483d c4c6 133d 2205 19bd
00000150: dd7b 523c 7dbf 96bb 8ed9 823b 0fb9 12bc
00000160: 18a9 e1bc 5932 73bd 880d d23c f2d4 763a
00000170: bb0f c9bc b420 813d e7ce 8ebd 48ef 1bbd
00000180: ef76 adbc c265 efbc 31c9 2f3c 1f40 8cbd
00000190: d828 89bd 81b4 27bd b22d 86bd 8e20 533d
000001a0: b57a 8a3d 52c9 c93c 5828 1abd 1ab7 5dbd
000001b0: 4660 8bbd eecb 3fbd 7d5e 60bd a21e 90bc
000001c0: 9378 5d3d 0cfe a63c fa11 843d eeab 61bd
000001d0: 6fe0 57bd ac3b 263c 8ce2 94bc 0562 50bd
000001e0: 11ae a5bc 9243 0dbd a971 12bd 00e2 79bc
000001f0: 35a9 d9bc 1bb9 46bd 0750 a03c 1511 c83c
00000200: 2b27 8bbd 9c46 4a3d f885 133d 4d11 053d
00000210: e37c 5f3d e4c6 02bd f516 84bc 1d66 593d
00000220: daf5 86bd 1bab d53b ba0b 9dbc 4d5b dfbc
00000230: 8ff6 593d b0dc 4c3d 0065 79bd bb30 c93c
00000240: a86d 03bc 99c2 3e3d 8bc4 4fbc b71d 59bc
00000250: 9463 1a3c 0c92 b6bc b96d 06bc a77a 2f3d
00000260: b45e 0d3c 1c05 3a3d aa6a 8abd 99b1 333d
00000270: 955a 62bd 487f 873d f8b2 35bc 4580 a7ba
00000280: 0864 08bd 70af 4d3d 13f7 953c 44e0 60bd
00000290: 15d7 a7bc d709 88bd ef0c 21bd 4514 073d
000002a0: 8f7d 063d 434e 75bd 36e8 303c bece e5bc
000002b0: ac0a 163d 754a dabc 624e 733d aaef 2b3d
000002c0: 3655 323d 5e93 7bbd e280 6c3d caeb 1b3d
000002d0: 032f e73c ef66 a93c 4fc5 7ebc bfe5 9a3c
000002e0: 8fbf fa3c a063 60bc 2c55 18bc 6364 29bc
000002f0: da10 9e3c 9ed9 eeb9 1934 823b 71c7 05bd
00000300: 423f 5e3d ad84 373d 8964 3dbd d9d7 2ebd
00000310: c761 8dbb aec2 38bc 3ab7 25bd dde9 313c
00000320: 1954 d3bc 658a 8cbd 56e9 883d 3d64 82bc
00000330: 20a3 673d b657 a0bc d290 54bd 7a92 6f3d
00000340: ead1 e13c d2f0 913c 873d 94bc 0d5d 62bd
00000350: a09f 523c 4e7e 923c 6014 d4bc cee3 8b3d
00000360: b93e 3d3c d5a0 6abc a1a9 533d aeb0 57bc
00000370: 7bca 363d 4565 19bd e214 81bd 94c8 0dbd
00000380: ff84 52bd 3149 d23b a5f2 fb3a b930 82bd
00000390: e883 7c3d 617c abbc 4038 1cbd 0085 81bc
000003a0: 074a 94bc 3cb1 363c 57bb f5bc afdc 493d
000003b0: 9737 6bbc feb0 42bd efce dc3c 2584 c43c
000003c0: 6e8a 75bd 446f 173d 5c08 0b3c b3b2 bf3c
000003d0: 8908 53bd 712c 503d 3158 213b ba59 78bd
000003e0: 7fb8 653d 6974 383d 8ec2 533d a3aa 8cbd
000003f0: 471b bbbc dc2c 63bd bc6a 51bd 4042 8bbd

critic.0.bias f4 [128]
0.06826734 0.05004743 0.0005481048 -0.054628804 -0.06034242 0.05817583 -0.056209948 -0.028746841
-0.002384507 -0.04353137 -0.01638174 -0.0470808 0.029421201 0.06796471 -0.05380833 -0.008138222
-0.051022347 0.04159777 0.010770367 -0.029665967 -0.036505632 0.0021839684 -0.041097887 0.017034078
0.06891894 -0.03852513 0.02957484 -0.030522982 -0.03335489 0.020758871 -0.025642442 0.0069260816
-0.001424976 0.031549945 -0.020067317 -0.013541747 -0.02818992 -0.067299806 -0.068759784 0.014328315
-0.023519734 -0.05590586 -0.02471116 0.041122567 0.017244933 -0.015284299 -0.034646895 0.020061374
0.06505797 0.015475229 0.056523878 -0.008044988 0.056593217 -0.054906916 -0.06565009 -0.018494066
-0.061476678 0.05060505 -0.068595394 0.04151968 0.03859769 -0.06374269 -0.03008173 -0.015337677
0.056575134 -0.04535141 0.013626247 0.014981968 0.039930373 -0.036999743 -0.06568613 0.03133402
0.041581318 0.047983713 -0.049693678 -0.013626622 -0.04218479 -0.03676089 -0.061710346 0.04269412
-0.002548936 0.03870339 -0.05512235 0.010524044 0.054719888 0.027371788 0.061460834 -0.058909908
-0.020575358 0.027236974 0.06634357 0.04474345 0.021808738 0.00901471 -0.06846489 0.04877859
-0.05171789 0.04793172 0.048330773 -0.027951557 0.026766343 -0.0072675864 0.04624818 0.022928301
0.049250055 0.020662282 -0.06543008 0.02893217 0.06919895 -0.057532925 -0.016607074 0.050730616
-0.06507113 -0.03906632 0.009946449 -0.057787888 -0.037105385 -0.02645099 0.027382353 0.053905938
0.019884272 -0.0042329985 0.029603764 -0.06324752 0.037094884 0.015622724 -0.06394492 -0.008545809
00000000: bfcf 8b3d 89fe 4c3d b1ae 0f3a 74c2 5fbd
00000010: 9d29 77bd c749 6e3d 673c 66bd 7f7e ebbc
00000020: 6445 1cbb f34d 32bd 0033 86bc ccd7 40bd
00000030: bb04 f13c 1531 8b3d 2066 5cbd 2d56 05bc
00000040: cffc 50bd 6c62 2a3d 3276 303c 0b06 f3bc
00000050: ee86 15bd e920 0f3b 4256 28bd 0d8b 8b3c
00000060: 6025 8d3d 87cc 1dbd ef46 f23c 550b fabc
00000070: 239f 08bd 820e aa3c 1910 d2bc 2ff4 e23b
00000080: 43c6 baba 843a 013d 3764 a4bc 34de 5dbc
00000090: 8cee e6bc 7bd4 89bd eed1 8cbd 4fc1 6a3c
000000a0: 75ac c0bc 8bfd 64bd 0f6f cabc 2370 283d
000000b0: 3f45 8d3c ff6a 7abc e7e9 0dbd c057 a43c
000000c0: 1d3d 853d d18b 7d3c 9585 673d 20cf 03bc
000000d0: 4ace 673d 13e6 60bd 8e73 86bd de80 97bc
000000e0: f8ce 7bbd 3e47 4f3d be7b 8cbd 8a10 2a3d
000000f0: 9d18 1e3d 878b 82bd f66d f6bc e14a 7bbc
00000100: 54bb 673d 66c2 39bd 9f40 5f3c ee76 753c
00000110: 088e 233d 0b8d 17bd 7386 86bd 1a58 003d
00000120: 2c51 2a3d 928a 443d 998b 4bbd 3242 5fbc
00000130: f5c9 2cbd 9692 16bd fdc3 7cbd 08e0 2e3d
00000140: 0d0c 27bb 7287 1e3d f9c7 61bd 0a6d 2c3c
00000150: f621 603d cd3a e03c 5bbe 7b3d 844b 71bd
00000160: a78d a8bc 1320 df3c 23df 873d e844 373d
00000170: 3da8 b23c 6fb2 133c 5237 8cbd 0fcc 473d
00000180: 23d6 53bd 0d54 443d 7df6 453d aafa e4bc
00000190: 1745 db3c ef24 eebb bb6e 3d3d 22d4 bb3c
000001a0: 6dba 493d f243 a93c 3500 86bd 2803 ed3c
000001b0: 2eb8 8d3d a5a7 6bbd 8f0b 88bc e8ca 4f3d
000001c0: 0344 85bd 0104 20bd 6ef6 223c feb2 6cbd
000001d0: d1fb 17bd bfaf d8bc f550 e03c 79cc 5c3d
000001e0: 57e4 a23c f7b4 8abb 9883 f23c ea87 81bd
000001f0: cef0 173d 74f6 7f3c 8ef5 82bd b903 0cbc
