experiments/exp043_clean_ppo/bc_init.pt (torch, 463524 bytes, 18 tensors)

actor.0.weight f4 [128, 57]
0.017481402 0.01334019 0.37807462 0.053907137 -0.19144306 -0.3693867 0.21385457 0.25227723
-0.03145917 -0.016182417 0.01850647 -0.13160582 -0.22157189 -0.29839054 -0.3041497 -0.26375255
-0.28306797 -0.2077681 -0.17827351 -0.09838658 -0.26502538 -0.35032782 -0.34016785 -0.30695507
-0.25722963 -0.2992633 -0.21681407 -0.3731168 -0.30664492 -0.30416182 -0.34744444 -0.2767425
-0.221658 -0.313425 -0.31627807 -0.097570635 -0.26838753 -0.14722045 -0.1146948 -0.23010102
-0.05047668 -0.092613876 -0.03305043 -0.112048194 -0.24082126 -0.07707866 -0.10564677 -0.11118843
-0.022715464 -0.0007026122 -0.16387233 0.03430964 -0.16765429 -0.053000297 -0.17866646 -0.114248976
0.016788833 -0.084499024 0.042356778 0.060535472 -0.04001544 -0.008665458 0.056591578 0.13045983
-0.045774795 0.06553413 -0.11789355 -0.070863865 -0.03635603 0.09944624 -0.12742142 -0.051549483
0.030976383 0.014975541 0.07877488 0.10702726 0.03305678 0.01806324 0.08626223 0.12363695
-0.10541877 0.07905866 -0.01039403 0.055333585 -0.055586442 0.07062506 0.09882835 0.0026299409
0.007149177 -0.066528596 -0.054622784 0.011671745 -0.015899552 0.09639443 -0.02538686 -0.12010236
-0.085194744 -0.018502919 -0.003645484 -0.093864076 -0.007385422 0.09385902 0.105581336 0.12618859
-0.006880374 -0.07549323 0.0065561966 0.032739725 0.038103614 0.08811258 -0.006458364 -0.036228575
-0.0288795 0.111670084 0.18897182 0.121190876 0.20293732 0.07561739 -0.01020841 -0.14544834
0.22538829 0.0026586466 0.06227362 -0.08962245 -0.01940989 -0.050898306 -0.035914075 -0.19673425
-0.24102654 -0.2705164 -0.16815011 -0.1281237 -0.059905205 -0.03317493 -0.059059277 -0.17289099
-0.1247119 -0.04798596 -0.115631744 -0.021840416 -0.058411736 -0.05910427 0.051412743 -0.0052480777
-0.0064934134 0.11539547 -0.09263682 -0.0062853605 -0.007118264 0.11807469 0.1449491 0.05716586
0.14836802 0.19228642 0.19718064 0.22348449 0.034530267 0.18824305 0.15045567 0.16502199
0.109987736 0.3155886 0.17814879 0.3090068 0.23959625 0.2241914 0.12772696 0.16401617
0.10885425 0.2839323 0.33606732 0.22499649 0.1485691 0.05581999 0.015984017 -0.039966248
-0.3107103 0.17156224 -0.09901726 -0.07806757 -0.14450549 0.0024735183 -0.23817058 -0.1024833
-0.1442154 -0.21231116 -0.05925941 0.03825481 0.0010008009 0.13284315 0.010642887 0.038110714
0.086397916 0.13898934 0.2001431 0.046991598 0.07825722 0.0708106 0.17149673 0.18579534
0.20122042 0.17672287 0.20284428 0.12295518 0.010190859 -0.0022864062 0.14669865 0.057952337
-0.022268822 -0.010901764 0.0094134705 -0.096167386 -0.013932695 -0.020839212 0.059461262 -0.1097296
0.07984079 -0.10825318 -0.124629885 0.037501868 -0.08197279 -0.036327083 -0.15190832 0.073791735
0.1017696 -0.0808942 -0.03291511 -0.12157232 0.101878755 0.12039308 -0.2074334 0.022441832
0.05225576 -0.30884454 0.17302527 0.019890347 -0.11232926 -0.13324523 -0.12693262 -0.18564057
-0.29203323 -0.06543424 -0.23269098 -0.12741558 -0.21307147 -0.1723802 -0.14944032 -0.26974726
-0.23391531 -0.10783127 -0.18847112 -0.12232284 -0.31067273 -0.30489066 -0.19539638 -0.19357197
00000000: 2835 8f3c d090 5a3c ff92 c13e bbcd 5c3d
00000010: a609 44be 4120 bdbe b1fc 5a3e 7b2a 813e
00000020: 55db 00bd fd90 84bc e19a 973c adc3 06be
00000030: bee3 62be a5c6 98be 82b9 9bbe 930a 87be
00000040: 49ee 90be 29c1 54be 558d 36be e77e c9bd
00000050: 68b1 87be 2b5e b3be 7b2a aebe 3729 9dbe
00000060: 9ab3 83be 0a39 99be 8204 5ebe 2a09 bfbe
00000070: 9000 9dbe 19bb 9bbe 3de4 b1be 31b1 8dbe
00000080: 51fa 62be 3e79 a0be 33ef a1be 1dd3 c7bd
00000090: 176a 89be f5c0 16be 1be5 eabd 9a9f 6bbe
000000a0: a3c0 4ebd 58ac bdbd e35f 07bd 8679 e5bd
000000b0: d999 76be 6bdb 9dbd 555d d8bd c2b6 e3bd
000000c0: c815 babc 822f 38ba 26ce 27be 4488 0c3d
000000d0: 91ad 2bbe d716 59bd 57f4 36be 5efb e9bd
000000e0: bc88 893c d30d adbd 4d7e 2d3d 0bf4 773d
000000f0: 3be7 23bd 91f9 0dbc 92cc 673d 4397 053e
00000100: 5a7e 3bbd c236 863d 2c72 f1bd 1321 91bd
00000110: 0fea 14bd 78aa cb3d c37a 02be 8d25 53bd
00000120: 2fc2 fd3c f95b 753c b954 a13d 1c31 db3d
00000130: 8c66 073d 5cf9 933c 41aa b03d 5f35 fd3d
00000140: cce5 d7bd 82e9 a13d b94b 2abc 78a5 623d
00000150: 9cae 63bd dfa3 903d 8566 ca3d 165b 2c3b
00000160: a543 ea3b 2540 88bd 24bc 5fbd d93a 3f3c
00000170: c73f 82bc 716a c53d 1bf8 cfbc 3af8 f5bd
00000180: 957a aebd 6f93 97bc 13e9 6ebb cf3b c0bd
00000190: 6901 f2bb 2839 c03d 073b d83d 9537 013e
000001a0: c374 e1bb 329c 9abd 5dd5 d63b 171a 063d
000001b0: 8912 1c3d 5e74 b43d afa0 d3bb 6a64 14bd
000001c0: b494 ecbc 49b3 e43d d481 413e ec32 f83d
000001d0: cdce 4f3e 4add 9a3d 2d41 27bc 69f0 14be
000001e0: 30cc 663e b03c 2e3b a012 7f3d fa8b b7bd
000001f0: 7d01 9fbc be7a 50bd a31a 13bd b474 49be
00000200: a9cf 76be 2081 8abe 8b2f 2cbe dc32 03be
00000210: 295f 75bd 6fe2 07bd 24e8 71bd 560a 31be
00000220: f468 ffbd ed8c 44bd 56d0 ecbd acea b2bc
00000230: 2541 6fbd 5217 72bd 2b96 523d 11f8 abbb
00000240: b3c6 d4bb 7654 ec3d 60b8 bdbd 6df5 cdbb
00000250: 5440 e9bb 25d1 f13d 896d 143e c026 6a3d
00000260: c9ed 173e bbe6 443e b9e9 493e 1ed9 643e
00000270: 9c6f 0d3d c9c2 403e 0d11 1a3e 86fb 283e
00000280: 4041 e13d d494 a13e a36c 363e 2436 9e3e
00000290: b858 753e 6e92 653e dbca 023e dbf3 273e
000002a0: faee de3d 935f 913e 0411 ac3e 7b65 663e
000002b0: 8022 183e 80a3 643d eaf0 823c a6b3 23bd
000002c0: 6c15 9fbe 03ae 2f3e 90c9 cabd e4e1 9fbd
000002d0: 3ff9 13be c01a 223b fde2 73be c4e2 d1bd
000002e0: 34ad 13be 1968 59be ffb9 72bd 13b1 1c3d
000002f0: 4e2d 833a 0908 083e 815f 2e3c fb19 1c3d
00000300: 64f1 b03d 3953 0e3e 50f2 4c3e 437a 403d
00000310: 5245 a03d 2605 913d d79c 2f3e 2241 3e3e
00000320: ba0c 4e3e d7f6 343e 69b6 4f3e edcf fb3d
00000330: 90f7 263c 88d7 15bb 2c38 163e 6e5f 6d3d
00000340: 1b6d b6bc 509d 32bc f53a 1a3c 68f3 c4bd
00000350: f545 64bc ffb6 aabc a78d 733d eab9 e0bd
00000360: 9183 a33d d8b3 ddbd f43d ffbd 8f9b 193d
00000370: 5ae1 a7bd b5cb 14bd db8d 1bbe 1f20 973d
00000380: 946c d03d dcab a5bd ffd1 06bd e9fa f8bd
00000390: cfa5 d03d a690 f63d 6c69 54be efd7 b73c
000003a0: 230a 563d df20 9ebe 892d 313e 15f1 a23c
000003b0: e20c e6bd 7071 08be a0fa 01be 9018 3ebe
000003c0: 6185 95be 6302 86bd 8b46 6ebe 3b79 02be
000003d0: 682f 5abe 6f84 30be e206 19be 501c 8abe
000003e0: 7f87 6fbe a4d6 dcbd 93fe 40be 6684 fabd
000003f0: 7f10 9fbe a11a 9cbe fd15 48be bb37 46be

actor.0.bias f4 [128]
0.11895588 -0.09765806 -0.08834057 0.065147534 0.028627262 -0.14768258 -0.10729849 0.12274328
0.08315527 0.0022082306 -0.18005075 0.00937193 -0.03932183 -0.13768435 -0.20414682 0.08622122
0.1818994 0.09997044 -0.06238673 0.054729037 -0.27924356 -0.089886725 0.13787027 -0.039866827
0.0055768257 -0.13775772 0.03992352 -0.071638174 0.06972904 0.00197135 -0.13996333 0.00022828177
0.059149083 0.097406 -0.08875973 -0.43130997 -0.017240718 -0.029225562 -0.05815482 -0.15741706
-0.020901252 0.012764607 -0.020326953 0.13306332 -0.00045224157 0.11277417 -0.104796514 0.002122973
-0.0551638 -0.0014333893 -0.099558346 0.13223693 0.00037529325 -0.01884714 -0.09459543 -0.026521942
-0.10625593 0.17143746 0.16912091 0.08818714 0.17958203 -0.17203312 -0.11955269 -0.13804065
0.09836257 0.01591841 -0.22536853 0.08071047 -0.2116856 0.11378447 -0.06595882 -0.07592853
-0.16364384 0.16419402 0.004446684 0.048595257 0.21004689 0.20261435 0.104367346 -0.29126132
-0.08125116 0.21154112 -0.08616483 -0.065770246 -0.17833024 -0.081429966 -0.04731095 0.14076298
-0.07390132 0.08832224 -0.10982439 0.14367574 -0.008434822 -0.12318986 0.051612757 -0.14050142
0.021698145 -0.092951484 0.040480237 0.07630622 -0.07054745 0.113500245 -0.094868936 0.047242556
-0.13091406 0.0036184348 0.14690584 0.09460375 0.1376212 -0.03661446 0.015836878 0.1518249
-0.06721397 -0.100899816 -0.16630478 -0.14976454 -0.07932271 0.020009201 -0.0249884 -0.11964293
-0.078990094 -0.14261524 0.16762078 -0.06440154 -0.04423646 -0.030270457 0.039059255 0.090510935
00000000: 249f f33d f300 c8bd e7eb b4bd 126c 853d
00000010: b883 ea3c 1a3a 17be 50bf dbbd d460 fb3d
00000020: 4f4d aa3d f6b7 103b 395f 38be b98c 193c
00000030: ed0f 21bd 20fd 0cbe dd0b 51be c094 b03d
00000040: d643 3a3e 4dbd cc3d 3a89 7fbd 8e2b 603d
00000050: 03f9 8ebe 8816 b8bd dd2d 0d3e 664b 23bd
00000060: cebd b63b 5c10 0dbe d886 233d 09b7 92bd
00000070: 19ce 8e3d c431 013b 8c52 0fbe ec5e 6f39
00000080: 4f46 723d cc7c c73d a9c7 b5bd a9d4 dcbe
00000090: 683c 8dbc 726a efbc c033 6ebd f031 21be
000000a0: 1a39 abbc a422 513c b684 a6bc c041 083e
000000b0: d61a edb9 25f6 e63d 8e9f d6bd 9421 0b3b
000000c0: 70f3 61bd 90e0 bbba 3fe5 cbbd 1e69 073e
000000d0: 02c3 c439 5165 9abc 40bb c1bd 8b44 d9bc
000000e0: b69c d9bd 4d8d 2f3e 082e 2d3e 769b b43d
000000f0: 5ae4 373e 7329 30be 0ad8 f4bd 875a 0dbe
00000100: 5172 c93d 5367 823c 02c7 66be 884b a53d
00000110: 1cc4 58be d507 e93d 6b15 87bd 6b80 9bbd
00000120: 4092 27be 7a22 283e 7db5 913b d20b 473d
00000130: 8816 573e 237a 4f3e 8cbe d53d 3420 95be
00000140: 0267 a6bd 3c9e 583e 3077 b0bd 8db2 86bd
00000150: 349c 36be c1c4 a6bd 20c9 41bd 2c24 103e
00000160: 9359 97bd 4ae2 b43d 9ceb e0bd bc1f 133e
00000170: 3532 0abc f74a fcbd e667 533d 9bdf 0fbe
00000180: 4fc0 b13c 595d bebd 9bce 253d 6f46 9c3d
00000190: 2e7b 90bd d172 e83d a54a c2bd 6981 413d
000001a0: 560e 06be 4323 6d3b 7c6e 163e 9cbf c13d
000001b0: 92ec 0c3e 0bf9 15bd 57bc 813c fd77 1b3e
000001c0: 7aa7 89bd 90a4 cebd cd4b 2abe e05b 19be
000001d0: f273 a2bd 56ea a33c 79b4 ccbc 5a07 f5bd
000001e0: 8fc5 a1bd bb09 12be c8a4 2b3e f4e4 83bd
000001f0: 4a31 35bd c0f9 f7bc 99fc 1f3d cc5d b93d

actor.2.weight f4 [128, 128]
-0.1197412 0.022785155 -0.080105454 -0.040157378 -0.063995145 -0.059148397 -0.087619975 -0.046627972
0.029227933 -0.013069463 -0.0053925626 0.09247557 -0.10265566 0.0315327 0.021182157 0.031012457
-0.07098075 -0.016091956 -0.12111312 -0.09349607 -0.08146615 0.076231256 -0.049282786 -0.0804869
-0.07029543 -0.027723605 -0.040535618 -0.08209095 -0.025726505 -0.036979936 -0.08545895 -0.019295393
0.028254312 -0.09294079 -0.030645512 0.08647453 -0.06897478 -0.0792758 0.02488002 -0.08134549
-0.08001277 -0.004295658 -0.011786909 0.007807192 0.013817357 -0.07916723 0.039736807 -0.0685899
-0.04753416 0.06326754 -0.0440948 -0.034095816 0.042366702 -0.027295573 0.044616766 0.043841295
-0.054958902 -0.00039305075 0.0018847387 0.037451226 0.044393 -0.029504037 0.022719037 0.045042716
0.01430155 -0.06285677 0.022651684 -0.029637652 -0.052698076 0.010369354 0.023022084 -0.057585455
-0.0046828776 0.03422691 -0.03243702 0.005265929 -0.047606792 -0.031034777 0.066774584 -0.09224414
-0.060620766 0.058647174 -0.048452046 -0.105469815 0.031031251 0.010301405 -0.07338126 0.020401673
-0.01838011 0.0009648521 -0.018831333 -0.027244067 -0.028758906 0.030166646 -0.078040466 -0.004807056
-0.07554824 -0.020400874 -0.04070966 0.03491637 0.00088521023 0.067604035 -0.08629122 -0.105309054
0.06690826 0.012696824 -0.122300446 -0.026266536 -0.0015986223 -0.07832054 0.06842925 0.058448974
0.009190433 -0.12307278 0.018897623 -0.06797008 -0.0063089817 -0.08281383 0.014994179 -0.0021475067
-0.012760273 -0.029139413 -0.10738219 0.011978936 -0.016828615 -0.12763439 -0.14950365 -0.02760913
0.06133128 -0.031379666 -0.08594725 -0.054366216 0.07957218 0.018409364 0.06982832 0.040617812
-0.028553005 0.025291745 -0.055608686 0.26616922 -0.0826734 0.24530673 0.05607142 0.038059294
0.02286502 -0.042025644 -0.058825 -0.008678487 -0.066727094 0.051461652 0.07037372 0.115966275
-0.20867005 0.1423109 0.036155686 0.0014336446 -0.028014466 0.036396403 0.09756476 -0.028598942
0.033673946 0.046389297 -0.061325803 0.15132195 -0.018822696 0.07497421 -0.023169236 0.019438861
-0.06282468 0.0107599255 0.033419117 0.054531377 -0.016699845 0.05938346 -0.0567256 -0.08733295
0.16863061 -0.063974395 -0.067434944 -0.051788613 -0.060503162 -0.092500806 0.06111963 -0.09198691
0.07299513 -0.065598845 -0.15315145 -0.041799173 -0.0001603477 -0.0035093827 0.046187617 -0.029240165
0.03043747 -0.05285806 0.08917094 0.28363287 -0.031616256 -0.024912817 0.05491362 -0.062061924
0.07761091 0.038295694 0.044168144 0.030083474 0.12219336 -0.10214318 -0.12685865 -0.028807433
-0.00083392503 0.11020319 -0.027355542 0.08848658 0.10420843 -0.017992232 0.07179991 0.07742539
0.0127142705 -0.01234344 -0.009407223 0.006159675 0.028558923 -0.05303333 -0.034455977 -0.00075795595
0.09113801 -0.38330796 0.013740848 0.019708544 -0.08809584 -0.1470447 0.062101163 0.027772816
0.04866489 0.040755477 0.034491055 -0.042879786 0.075237915 -0.042516455 0.017598888 -0.07386616
-0.032274593 -0.23557623 -0.41372436 0.114904016 -0.073392965 -0.094898425 -0.17004769 0.06585507
0.07052195 -0.13766313 -0.037537407 0.02328812 0.026510222 0.013951446 -0.044949755 -0.08682805
00000000: e03a f5bd efa7 ba3c 540e a4bd 107c 24bd
00000010: e30f 83bd 9745 72bd 1a72 b3bd f9fc 3ebd
00000020: 6b6f ef3c 4d21 56bc 18b4 b0bb d563 bd3d
00000030: 213d d2bd 6f28 013d 3486 ad3c d60d fe3c
00000040: 5b5e 91bd 47d3 83bc 280a f8bd de7a bfbd
00000050: bad7 a6bd 221f 9c3d bfdc 49bd 51d6 a4bd
00000060: 0df7 8fbd 9d1c e3bc ad08 26bd 4d1f a8bd
00000070: 64c0 d2bc 4678 17bd 1a05 afbd 5f11 9ebc
00000080: 9675 e73c be57 bebd 4c0c fbbc 8f19 b13d
00000090: a642 8dbd 5a5b a2bd 2fd1 cb3c 7798 a6bd
000000a0: bcdd a3bd 97c2 8cbb e11d 41bc 79d3 ff3b
000000b0: 3262 623c 6e22 a2bd 10c3 223d dd78 8cbd
000000c0: 2eb3 42bd 6992 813d c09c 34bd 0ea8 0bbd
000000d0: b588 2d3d f79a dfbc 12c0 363d ee92 333d
000000e0: 961c 61bd 6112 ceb9 5609 f73a 7566 193d
000000f0: 6fd5 353d 73b2 f1bc 461d ba3c b67e 383d
00000100: 0c51 6a3c 0dbb 80bd 0690 b93c a9ca f2bc
00000110: f0d9 57bd 39e4 293c cf98 bc3c bade 6bbd
00000120: d372 99bb 8431 0c3d aedc 04bd d08d ac3b
00000130: 57ff 42bd a53c febc 1dc1 883d 7fea bcbd
00000140: 7b4d 78bd 0538 703d a775 46bd 8f00 d8bd
00000150: 4035 fe3c 39c7 283c ea48 96bd 6921 a73c
00000160: e291 96bc 21ee 7c3a 2b44 9abc f32e dfbc
00000170: cc97 ebbc 0b20 f73c aed3 9fbd 8284 9dbb
00000180: 09b9 9abd bc1f a7bc 2cbf 26bd 7804 0f3d
00000190: 740d 683a fc73 8a3d 73b9 b0bd 46ac d7bd
000001a0: 3307 893d 5706 503c a878 fabd eb2c d7bc
000001b0: dd88 d1ba 8566 a0bd a224 8c3d 3168 6f3d
000001c0: 7893 163c 950d fcbd 30cf 9a3c e633 8bbd
000001d0: 93bb cebb 4c9a a9bd 25aa 753c 2fbd 0cbb
000001e0: 7710 51bc c7b5 eebc 32eb dbbd 4d43 443c
000001f0: 2adc 89bc 97b2 02be 7c17 19be 8b2c e2bc
00000200: 8236 7b3d f787 00bd 1d05 b0bd 1caf 5ebd
00000210: bdf6 a23d 3ccf 963c 2602 8f3d dd5e 263d
00000220: fee7 e9bc a230 cf3c efc5 63bd 5547 883e
00000230: ac50 a9bd b031 7b3e 25ab 653d 10e4 1b3d
00000240: 6c4f bb3c 1523 2cbd 7cf2 70bd 3630 0ebc
00000250: 37a8 88bd 74c9 523d 1920 903d ba7f ed3d
00000260: 9aad 55be f3b9 113e fc17 143d 21e9 bb3a
00000270: 987e e5bc 6514 153d 08d0 c73d 5448 eabc
00000280: b1ed 093d b402 3e3d c430 7bbd 24f4 1a3e
00000290: 0e32 9abc 148c 993d 69cd bdbc 3f3e 9f3c
000002a0: 3aaa 80bd 664a 303c 7ce2 083d 4b5c 5f3d
000002b0: 1dce 88bc 123c 733d 1a59 68bd 9edb b2bd
000002c0: 81ad 2c3e 0205 83bd 551b 8abd 4c20 54bd
000002d0: 2ad2 77bd 1071 bdbd 9458 7a3d a263 bcbd
000002e0: 797e 953d b058 86bd bcd3 1cbe 9c35 2bbd
000002f0: 0223 28b9 acfd 65bb 3a2f 3d3d 1289 efbc
00000300: 0058 f93c b181 58bd 419f b63d 5438 913e
00000310: 0c80 01bd f715 ccbc 1bed 603d a534 7ebd
00000320: 78f2 9e3d f2db 1c3d a8e9 343d 9e71 f63c
00000330: 8340 fa3d 7230 d1bd 3ce7 01be 91fd ebbc
00000340: c39b 5aba 36b2 e13d bb18 e0bc 7438 b53d
00000350: 3b6b d53d 7264 93bc d50b 933d 3491 9e3d
00000360: 844f 503c 243c 4abc c120 1abc 19d7 c93b
00000370: 67f4 e93c 7a39 59bd b621 0dbd 90b1 46ba
00000380: 91a6 ba3d f140 c4be 4b21 613c d073 a13c
00000390: 976b b4bd e392 16be ca5d 7e3d d183 e33c
000003a0: d654 473d 37ef 263d 7e46 0d3d b7a2 2fbd
000003b0: 5616 9a3d bc25 2ebd 8b2b 903c 2447 97bd
000003c0: 5d32 04bd e53a 71be aed3 d3be cc52 eb3d
000003d0: 0d4f 96bd 1b5a c2bd fb20 2ebe 06df 863d
000003e0: d06d 903d 90f7 0cbe d3c0 19bd bac6 be3c
000003f0: f72b d93c 9b94 643c 3c1d 38bd e8d2 b1bd

actor.2.bias f4 [128]
-0.060463514 0.013393507 0.05351456 -0.1286007 0.044333998 -0.12573017 -0.05415126 -0.07001857
0.11854818 0.029239243 -0.08725079 0.09400476 0.048345324 -0.06367686 0.010499965 0.15481023
0.20671435 -0.07415204 -0.08698948 -0.0834488 -0.07322024 0.046311963 -0.053963255 0.07092115
0.018098269 0.062945314 0.0056107533 0.15274712 0.09881692 0.08793738 -0.1672645 -0.0704312
-0.050365258 -0.012340211 0.067844324 0.057677925 0.053842932 0.042940117 -0.0888885 -0.08448692
0.0794344 -0.07062888 -0.08897805 -0.0475664 0.042462815 -0.010263341 0.111456536 0.09976213
0.023067009 0.062421598 0.036559753 -0.09674163 0.010662316 0.04796042 0.045159586 -0.025100106
-0.056819905 -0.0568926 0.07735962 -0.0026813068 0.09205299 -0.0058098547 -0.016905395 -0.0862808
-0.056327768 0.026669746 -0.101543136 -0.18443479 0.057738576 0.080514714 0.06283946 0.015533396
0.012453239 0.02824803 -0.02743246 -0.090624176 -0.04126542 0.083482526 -0.06816294 0.029746603
-0.0598132 -0.09019386 0.047149375 0.16237594 -0.003181716 0.06338454 -0.02178021 0.11364976
-0.099557914 -0.08780429 0.054541353 -0.021183258 -0.07088106 -0.004134943 0.034654554 -0.1385134
0.033747897 -0.08029314 0.1284311 0.05287904 -0.16839285 0.0469208 0.013000448 -0.051134203
0.012531598 0.13651441 -0.101081416 -0.13045964 -0.08682488 0.055780664 0.10594421 -0.020900099
0.031386476 -0.08632706 -0.08898458 -0.004884254 -0.016865302 0.033365425 0.07841916 0.04042269
-0.115162075 -0.04593884 -0.064047836 0.034953788 -0.090741865 -0.018583797 -0.094940044 0.05171179
00000000: 97a8 77bd 7170 5b3c 1532 5b3d e7af 03be
00000010: 9197 353d 69bf 00be b6cd 5dbd e565 8fbd
00000020: 63c9 f23d 2387 ef3c 8bb0 b2bd 9185 c03d
00000030: bf05 463d 0369 82bd 0c08 2c3c 9386 1e3e
00000040: edac 533e 06dd 97bd 8a27 b2bd 34e7 aabd
00000050: 7ef4 95bd 9db1 3d3d 9308 5dbd 1c3f 913d
00000060: d242 943c 79e9 803d 69da b73b be69 1c3e
00000070: 8660 ca3d 8318 b43d 6347 2bbe 3c3e 90bd
00000080: cd4b 4ebd 992e 4abc f7f1 8a3d b03f 6c3d
00000090: 688a 5c3d fae1 2f3d 2d0b b6bd 7a07 adbd
000000a0: 81ae a23d e0a5 90bd 203a b6bd fcd4 42bd
000000b0: 7ded 2d3d 9227 28bc 5343 e43d 1650 cc3d
000000c0: 06f7 bc3c caad 7f3d aebf 153d 7a20 c6bd
000000d0: ffb0 2e3c 2572 443d 42f9 383d bd9e cdbc
000000e0: fdbb 68bd 3708 69bd b86e 9e3d ddb8 2fbb
000000f0: 4786 bc3d 9860 bebb 2f7d 8abc fdb3 b0bd
00000100: f2b7 66bd 837a da3c d9f5 cfbd 79dc 3cbe
00000110: 497f 6c3d e6e4 a43d fab1 803d c97f 7e3c
00000120: ac08 4c3c 6a68 e73c 0aba e0bc 2b99 b9bd
00000130: ee05 29bd e3f8 aa3d 0399 8bbd 26af f33c
00000140: b0fe 74bd 8fb7 b8bd b41f 413d e145 263e
00000150: 5684 50bb c1cf 813d 696c b2bc 35c1 e83d
00000160: 05e5 cbbd bcd2 b3bd c166 5f3d 8388 adbc
00000170: 172a 91bd 6a7e 87bb eff1 0d3d 75d6 0dbe
00000180: 3c3b 0a3d bb70 a4bd 7183 033e b197 583d
00000190: 2d6f 2cbe 0630 403d d5ff 543c 1972 51bd
000001a0: 5551 4d3c 6fca 0b3e c603 cfbd 3697 05be
000001b0: 3ed1 b1bd 447a 643d 47f9 d83d af36 abbc
000001c0: 1b8f 003d 3ecc b0bd 8c3d b6bd 180c a0bb
000001d0: 1a29 8abc 2faa 083d 399a a03d 4392 253d
000001e0: 18da ebbd 5d2a 3cbd 832b 83bd b42b 0f3d
000001f0: dfd6 b9bd 0c3d 98bc ed6f c2bd becf 533d

actor.4.weight f4 [128, 128]
-0.034024958 -0.068723604 -0.044839207 -0.02985094 0.012030683 -0.058248807 0.018271882 -0.06570412
0.0121221095 0.0371818 -0.035038285 -0.14485206 -0.067439675 0.0094883405 0.032037146 -0.016602086
0.015118604 0.08374657 -0.04570609 -0.0082507515 0.018644122 0.069799505 -0.026971238 -0.031235654
-0.07513783 -0.05811088 -0.07543142 0.078414924 0.066310085 0.07766388 -0.056728445 0.063991904
0.009006531 -0.120258726 -0.07323877 0.047964204 0.076244056 -0.029839423 -0.028573424 -0.04424464
0.045305382 -0.060355365 0.05103055 -0.062733054 0.03803295 0.01131603 -0.070777826 -0.0058723213
-0.15480185 0.041092575 0.072999775 -0.09205304 -0.0579256 -0.042279325 -0.07866945 0.016910767
0.02833661 -0.07980633 -0.027514253 -0.040699955 0.08167932 0.06909146 0.04815167 -0.05225577
-0.0058746934 -0.005221313 -0.076422065 -0.03388459 0.057032406 0.0048066666 -0.06778154 0.06546652
-0.07355123 0.001288964 -0.024691265 0.0038972988 -0.04969311 -0.08511626 0.055843584 -0.05668249
0.07490405 -0.09551582 0.05340117 -0.10042356 0.016822975 -0.015276442 -0.037978053 -0.047141243
0.07422645 0.029841855 -0.06917593 0.11833667 -0.105528615 0.01018093 0.0628647 0.064985834
-0.028460475 -0.054551475 0.014279509 0.02232342 0.08160572 -0.004791885 0.041019563 0.08823
-0.005326769 0.025965974 0.03065249 0.05496082 -0.09839691 -0.048192285 0.06325615 0.030184595
0.083877824 0.016620018 0.03643024 -0.0044702934 0.07257281 -0.07909975 0.014553675 0.038350914
0.05142017 -0.0729111 0.04756342 -0.012080572 -0.00049059367 -0.007885821 0.021771807 0.056158535
0.041184943 0.077061966 0.05923206 -0.04385521 -0.08914468 -0.072703205 -0.05424028 0.06946417
-0.08862623 0.032751586 0.060689293 0.039162442 0.05371523 -0.08655364 0.09599383 0.074711405
-0.1745421 -0.027341338 -0.081104726 -0.060507752 -0.03378637 0.059822183 -0.09395488 0.04863393
0.025463887 -0.070580386 0.014955302 -0.033452865 -0.006735155 0.022425026 0.11489009 -0.06392597
-0.07031729 -0.08350484 0.033566408 0.10118968 0.065849714 0.0007109425 -0.0054924907 0.076248564
-0.04803241 0.06340199 -0.049336486 0.041695792 0.05281513 -0.085741505 -0.050696775 0.08037298
0.03869517 0.08573195 -0.007960158 0.081035316 0.034659766 0.109028116 0.09743172 0.013691786
-0.053618178 -0.03571477 0.014060849 0.059968106 0.018377699 0.096843846 -0.00059803296 0.04446562
0.0047566523 0.026430754 -0.056208793 -0.23446943 -0.0024586506 -0.03245378 -0.048128862 0.0518026
0.0049581113 0.07860396 0.0135586625 -0.10338277 -0.020882323 -0.07491551 -0.0392506 -0.038173232
0.014465091 0.07562449 -0.012441781 -0.003951319 -0.02813932 -0.049767923 0.022880165 0.060112312
0.043754436 -0.016839162 -0.086505815 0.06579849 0.07719565 0.028195633 -0.0045551113 -0.0028954875
-0.06111846 -0.05515786 0.08125148 0.0490665 -0.09012178 -0.07524801 -0.011402726 -0.09154532
0.062640324 -0.070326634 -0.17833251 -0.08487199 0.053132012 0.073770136 0.12403357 -0.06480019
0.03721838 0.066778556 -0.06847933 0.04203043 0.012317638 0.010180369 0.028862491 0.038611747
0.082856685 0.026214443 -0.041324325 0.08554388 -0.052900303 0.09338105 -0.1015455 -0.07480248
00000000: c15d 0bbd f6be 8cbd 51a9 37bd f589 f4bc
00000010: 581c 453c 4d96 6ebd eaae 953c e28f 86bd
00000020: d09b 463c f14b 183d 4e84 0fbd 1954 14be
00000030: d01d 8abd fc74 1b3c 6239 033d 1901 88bc
00000040: 05b4 773c 5283 ab3d 4f36 3bbd 292e 07bc
00000050: 8fbb 983c 0bf3 8e3d c9f2 dcbc eae1 ffbc
00000060: dde1 99bd ad05 6ebd ca7b 9abd 0198 a03d
00000070: 95cd 873d 3e0e 9f3d 165c 68bd 300e 833d
00000080: 2190 133c 354a f6bd 35fe 95bd 1d76 443d
00000090: d825 9c3d ce71 f4bc d012 eabc de39 35bd
000000a0: 2392 393d 3037 77bd 6905 513d 307a 80bd
000000b0: 70c8 1b3d df66 393c f7f3 90bd 9a6c c0bb
000000c0: 6084 1ebe b050 283d e880 953d 4e86 bcbd
000000d0: 6543 6dbd 162d 2dbd 731d a1bd 7388 8a3c
000000e0: 2e22 e83c 8071 a3bd 9265 e1bc ffb4 26bd
000000f0: 7d47 a73d d37f 8d3d af3a 453d 250a 56bd
00000100: 8080 c0bb 8c17 abbb 2c83 9cbd 91ca 0abd
00000110: d09a 693d 3e81 9d3b 0cd1 8abd 5013 863d
00000120: 07a2 96bd 74f2 a83a 5645 cabc d369 7f3b
00000130: 018b 4bbd 6f51 aebd 3ebc 643d e62b 68bd
00000140: 4b67 993d cc9d c3bd 2fbb 5a3d deaa cdbd
00000150: 56d0 893c 0b4a 7abc e08e 1bbd 2d17 41bd
00000160: 0904 983d e876 f43c 1cac 8dbd 7f5a f23d
00000170: 631f d8bd eacd 263c 35bf 803d 4b17 853d
00000180: f125 e9bc 5e71 5fbd 9af4 693c 9bdf b63c
00000190: e620 a73d 3f05 9dbb 2104 283d eeb1 b43d
000001a0: 2d8c aebb 98b6 d43c ee1a fb3c 991e 613d
000001b0: 5284 c9bd 4665 45bd 718c 813d af45 f73c
000001c0: 23c8 ab3d b426 883c e037 153d 8a7b 92bb
000001d0: 0ea1 943d 0dff a1bd 8a72 6e3c d915 1d3d
000001e0: f59d 523d 6a52 95bd dcd1 423d 97ed 45bc
000001f0: 2f9b 00ba 8833 01bc ca5a b23c 7e06 663d
00000200: 8bb1 283d aad2 9d3d 519d 723d 85a1 33bd
00000210: 7c91 b6bd 6be5 94bd 0e2b 5ebd 3b43 8e3d
00000220: ab81 b5bd 8726 063d 5695 783d cc68 203d
00000230: 8004 5c3d 0943 b1bd 6a98 c43d 4b02 993d
00000240: 2abb 32be f1fa dfbc 3c1a a6bd fad6 77bd
00000250: 9463 0abd 1b08 753d 6b6b c0bd 5f34 473d
00000260: a499 d03c 738c 90bd 1507 753c df05 09bd
00000270: 93b2 dcbb b0b4 b73c 7f4b eb3d 9eeb 82bd
00000280: 8302 90bd 9604 abbd ee7c 093d 893c cf3d
00000290: 37dc 863d 8b5e 3a3a 5afa b3bb 3528 9c3d
000002a0: a2bd 44bd e7d8 813d 0e15 4abd 35c9 2a3d
000002b0: ae54 583d 3e99 afbd 6ca7 4fbd 979a a43d
000002c0: d47e 1e3d 3c94 af3d 536b 02bc d8f5 a53d
000002d0: 66f7 0d3d 224a df3d 488a c73d 8353 603c
000002e0: bc9e 5bbd a749 12bd 7a5f 663c 1ea1 753d
000002f0: d48c 963c 1156 c63d 50c5 1cba 9521 363d
00000300: b1dd 9b3b 4f85 d83c 313b 66bd c118 70be
00000310: 5021 21bb 41ee 04bd c522 45bd f72e 543d
00000320: a777 a23b 1dfb a03d 2725 5e3c 59ba d3bd
00000330: 6811 abbc 4e6d 99bd 3dc5 20bd 895b 1cbd
00000340: fdfe 6c3c 03e1 9a3d 9dd8 4bbc 117a 81bb
00000350: 6e84 e6bc 73d9 4bbd 2f6f bb3c 5438 763d
00000360: da37 333d 48f2 89bc f629 b1bd 5cc1 863d
00000370: c118 9e3d 87fa e63c 0b43 95bb 38c2 3dbb
00000380: 5a57 7abd 35ed 61bd 2d67 a63d f4f9 483d
00000390: c591 b8bd a11b 9abd 80d2 3abc 1d7c bbbd
000003a0: 9249 803d 6907 90bd cc9c 36be 5ed1 adbd
000003b0: f4a0 593d cc14 973d 5005 fe3d f6b5 84bd
000003c0: 4d72 183d 32c3 883d e43e 8cbd 1a28 2c3d
000003d0: ebcf 493c 90cb 263c 0871 ec3c 5a27 1e3d
000003e0: c4b0 a93d acbf d63c b243 29bd a131 af3d
000003f0: fdad 58bd 903e bf3d 16f7 cfbd 0b32 99bd

actor.4.bias f4 [128]
-0.09822039 0.023153791 -0.004624905 -0.066033795 0.106717885 0.0490993 0.07007438 -0.06325871
0.0630806 -0.088354886 0.06396127 0.06334508 0.014460512 0.099977106 0.006874156 0.031105665
0.06750983 0.008455618 -0.0070504555 -0.00959568 -0.09304563 -0.07167596 0.037382297 0.050826836
-0.01567098 -0.011992082 -0.029465081 -0.047880847 -0.13784193 0.06270028 0.00960056 -0.09407093
-0.09743295 -0.024770927 -0.09083992 -0.0448645 -0.02965457 0.014947054 0.14461522 -0.09745068
0.077916525 0.02727935 -0.05254353 -0.08294516 -0.050903678 0.031277943 -0.030789874 0.045682035
0.09714406 -0.031005904 0.0735167 -0.3787973 0.024020143 -0.10723763 0.20019409 0.064820156
0.028203854 -0.007323456 -0.07733877 0.009786351 0.00924105 -0.04180052 0.036676314 -0.019366218
-0.07076151 0.09386354 -0.0016216121 -0.017490605 -0.047046673 0.007792738 -0.03366529 0.09543249
0.0789486 -0.12634847 -0.028802589 -0.0015485083 -0.04078683 0.09691904 0.017350256 0.12750737
-0.06994978 0.10973844 -0.0041443906 0.025830138 0.071294226 0.028242271 -0.03781611 -0.02556292
0.021777272 0.06351346 -0.048378374 -0.061059274 -0.0073979357 0.015947409 0.07990706 -0.0059977723
0.09339448 -0.03289793 -0.04319752 -0.058715113 0.057394963 0.059655536 0.03822465 0.069664165
0.012918565 -0.056963686 0.0046959557 -0.026812268 0.09067054 0.02122359 0.16412328 -0.006919917
-0.029891687 0.08240045 0.0068368213 0.034626894 -0.068389975 -0.0055092205 -0.04780868 -0.11399943
0.04812183 0.043813907 0.014762987 0.00040207652 -0.11106163 0.02258204 -0.0097380895 -0.087121986
00000000: c627 c9bd 05ad bd3c 848c 97bb ba3c 87bd
00000010: e88e da3d 591c 493d 2883 8f3d c88d 81bd
00000020: 6730 813d 68f3 b4bd 20fe 823d 11bb 813d
00000030: c9eb 6c3c ccc0 cc3d 9a40 e13b 4fd1 fe3c
00000040: 9842 8a3d 6f89 0a3c 8207 e7bb 3337 1dbc
00000050: b58e bebd d9ca 92bd 2e1e 193d cd2f 503d
00000060: 6d60 80bc 707a 44bc c160 f1bc b51e 44bd
00000070: 6f26 0dbe 0169 803d ab4b 1d3c 42a8 c0bd
00000080: ed8a c7bd 66ec cabc 480a babd d7c3 37bd
00000090: 24ee f2bc 7de4 743c 0316 143e 3994 c7bd
000000a0: b392 9f3d f278 df3c e237 57bd 27df a9bd
000000b0: 6080 50bd 4d1d 003d 0c3b fcbc 161d 3b3d
000000c0: 77f3 c63d 1800 febc ec8f 963d b8f1 c1be
000000d0: e4c5 c43c 679f dbbd aeff 4c3e 6ec0 843d
000000e0: c50b e73c 9af9 efbb ca63 9ebd ee56 203c
000000f0: c667 173c 0637 2bbd e739 163d e7a5 9ebc
00000100: 69eb 90bd 873b c03d 468c d4ba 7548 8fbc
00000110: 03b4 40bd 395a ff3b 9de4 09bd 1c72 c33d
00000120: ceaf a13d 7e61 01be 68f3 ebbc 51f7 caba
00000130: 1710 27bd 7d7d c63d 2022 8e3c 4b91 023e
00000140: d541 8fbd 8cbe e03d abcd 87bb ba99 d33c
00000150: b502 923d 565c e73c 11e5 1abd 5469 d1bc
00000160: 4066 b23c 5813 823d 6728 46bd 4a19 7abd
00000170: 626a f2bb 24a4 823c 50a6 a33d f688 c4bb
00000180: 9b45 bf3d fbbf 06bd e2ef 30bd 427f 70bd
00000190: fb16 6b3d 5d59 743d 7391 1c3d 16ac 8e3d
000001a0: 64a8 533c c152 69bd 88e0 993b 67a5 dbbc
000001b0: 7ab1 b93d 18dd ad3c ef0f 283e 79c0 e2bb
000001c0: 69df f4bc 91c1 a83d 6a07 e03b eed4 0d3d
000001d0: 0b10 8cbd b186 b4bb 09d3 43bd 8878 e9bd
000001e0: 651b 453d 3676 333d 75e0 713c cccd d239
000001f0: 4874 e3bd f8fd b83c 828c 1fbc 036d b2bd

actor.6.weight f4 [128, 128]
-0.02797358 -0.05532057 -0.07781087 0.06395206 -0.01030727 -0.06259563 0.051749464 -0.0024387324
-0.02325993 -0.0853773 -0.07208481 -0.029862085 -0.061654568 -0.06945932 -0.07128376 -0.07660193
-0.04081449 -0.04046234 -0.050575968 -0.06089543 0.067044415 -0.062881276 -0.07072515 -0.055795074
-0.041042462 -0.05352136 0.049638554 0.042578634 -0.037457936 -0.005674209 0.026295252 -0.02814285
0.020647183 0.048876233 -0.05152327 -0.06967268 0.048130468 -0.085548185 -0.059779085 0.020867037
0.02224297 0.04857832 0.08366941 -0.02001891 0.01056613 0.043556135 -0.019886738 -0.068619534
0.06201467 0.07905422 -0.020681258 -0.05991338 -0.02601228 0.020061066 0.05387442 -0.001406383
-0.10452712 -0.04835668 0.06799645 0.08371227 -0.059945904 -0.054709718 0.036389425 -0.062202487
-0.064816415 -0.08304669 0.024450513 -0.04880431 0.021245005 0.04276671 -0.024245873 -0.07721484
-0.0941993 -0.0343767 0.03269289 -0.013219734 -0.079613276 -0.08657567 0.05190986 -0.044284444
0.085480236 -0.008611596 0.041953806 -0.020282261 0.04443854 -0.07717228 0.0467855 -0.038966317
0.05950701 0.08187472 -0.049271498 0.06683491 0.028826987 0.016821632 -0.0078083277 0.015114928
0.006077533 -0.05076927 -0.02463908 -0.018463692 -0.040140353 0.022617208 -0.0509623 0.038004324
0.03684259 0.014258666 -0.087702885 -0.08751255 -0.0034591076 -0.02804201 -0.06855696 0.023170913
-0.055053808 0.007810485 -0.08582218 -0.05932743 -0.046171 0.020827023 -0.04640591 0.012730635
0.018364169 0.028713066 0.032772027 -0.052070893 -0.051415417 0.0028570336 0.040306542 0.01709819
0.07796149 -0.07376215 -0.002658149 0.047923863 -0.08752082 -0.021284172 -0.011020505 -0.05338876
0.013001618 -0.06653096 -0.058442406 0.083126284 0.021624379 0.08617021 0.0041403626 0.057450116
0.057186753 -0.00067377003 0.050999485 0.018473309 0.0794643 0.014869513 -0.0956617 -0.093190335
0.034732353 -0.037637956 -0.00046870252 0.0012203093 0.050608132 -0.10439762 -0.060382325 0.01217575
0.02270282 -0.02454171 -0.068553664 -0.03242671 -0.078704 -0.060229026 0.05007765 0.03963075
0.0032141542 0.030754229 0.06703513 0.044395223 -0.048202645 0.052283913 -0.07524545 -0.08111168
0.020864276 -0.0755121 -0.009557693 0.048981372 0.022321345 0.08258591 -0.085620075 0.057495493
-0.09574196 -0.068070106 -0.02726685 0.05512151 0.03708261 -0.052952614 -0.07563216 -0.025938263
-0.07944653 -0.0018425348 0.048764925 -0.033749856 -0.015176338 -0.043221705 0.015214643 0.0016846608
-0.024608491 -0.072469346 0.025315084 -0.028924884 0.015973797 -0.06815837 -0.07406842 -0.069015466
0.04080837 0.052424606 0.0809176 0.05637935 -0.00070978724 -0.08833594 -0.08577308 -0.094373025
0.058789723 0.04948238 0.087024495 0.008910528 -0.068910874 -0.0876994 -0.0030753606 -0.015695121
0.07191674 -0.08235858 0.046386726 -0.010939878 0.0096754385 -0.004138056 -0.016591907 -0.037840642
-0.0140146 -0.04990431 -0.084841624 0.030141814 -0.0458564 0.018166922 -0.066199884 0.010163981
0.042971957 -0.07880542 0.011785154 -0.017052114 -0.08785392 -0.08338853 0.01480285 0.0066831205
0.018943321 -0.025856027 -0.045491554 -0.03268722 -0.067454405 -0.09554093 0.030635606 -0.046812512
00000000: d928 e5bc d297 62bd 4e5b 9fbd 4cf9 823d
00000010: d3df 28bc 2332 80bd 3ff7 533d 24d3 1fbb
00000020: 9c8b bebc 4bda aebd 33a1 93bd 55a1 f4bc
00000030: 8089 7cbd b040 8ebd 38fd 91bd 79e1 9cbd
00000040: 182d 27bd d7bb 25bd bf28 4fbd 7d6d 79bd
00000050: 954e 893d e6c7 80bd 59d8 90bd 6089 64bd
00000060: 241c 28bd 3739 5bbd cc51 4b3d ef66 2e3d
00000070: 7e6d 19bd b7ee b9bb 2469 d73c d68b e6bc
00000080: 4824 a93c 7232 483d 100a 53bd 8db0 8ebd
00000090: 7424 453d e333 afbd eada 74bd 59f1 aa3c
000000a0: e436 b63c 0ffa 463d de5a ab3d b2fe a3bc
000000b0: 901d 2d3c eb67 323d 83e9 a2bc 6688 8cbd
000000c0: 1803 7e3d 2ee7 a13d be6b a9bc bb67 75bd
000000d0: b417 d5bc 1b57 a43c 6cab 5c3d 6256 b8ba
000000e0: 5112 d6bd a711 46bd b941 8b3d 5771 ab3d
000000f0: d689 75bd 4c17 60bd 140d 153d 09c8 7ebd
00000100: 78be 84bd 6214 aabd 714c c83c 07e7 47bd
00000110: 010a ae3c 252c 2f3d 489f c6bc d022 9ebd
00000120: 90eb c0bd 95ce 0cbd fbe8 053d 9597 58bc
00000130: 490c a3bd 964e b1bd 6f9f 543d 9b63 35bd
00000140: 4310 af3d a717 0dbc c1d7 2b3d fc26 a6bc
00000150: 3005 363d 800c 9ebd 27a2 3f3d 259b 1fbd
00000160: 9fbd 733d efad a73d e9d0 49bd bee0 883d
00000170: 9326 ec3c 85cd 893c 00dd ffbb 9aa4 773c
00000180: 0b26 c73b 70f3 4fbd e5d7 c9bc 2b41 97bc
00000190: 366a 24bd b947 b93c d8bd 50bd 6caa 1b3d
000001a0: 41e8 163d 2e9d 693c 929d b3bd c839 b3bd
000001b0: 32b2 62bb 5bb8 e5bc 9767 8cbd edd0 bd3c
000001c0: 1a80 61bd 19ef ff3b 8ac3 afbd 5201 73bd
000001d0: cd1d 3dbd 6f9d aa3c 2014 3ebd 2794 503c
000001e0: 7470 963c aa37 eb3c f63b 063d 4a48 55bd
000001f0: f998 52bd 123d 3b3b 7918 253d 8111 8c3c
00000200: 46aa 9f3d 9c10 97bd 5734 2ebb d04b 443d
00000210: 1e3e b3bd 255c aebc 598f 34bc 2cae 5abd
00000220: bd04 553c 6241 88bd 4e61 6fbd 1d3e aa3d
00000230: 9c25 b13c 027a b03d e1ab 873b d050 6b3d
00000240: a83c 6a3d f19f 30ba d6e4 503d 5655 973c
00000250: 2ebe a23d 429f 733c 48ea c3bd 93da bebd
00000260: 8343 0e3d 422a 1abd 30bc f5b9 c9f2 9f3a
00000270: 794a 4f3d 6bce d5bd 7553 77bd cc7c 473c
00000280: 44fb b93c b20b c9bc dd65 8cbd dfd1 04bd
00000290: 902f a1bd b6b2 76bd 391e 4d3d da53 223d
000002a0: 8fa4 523b 4bf0 fb3c b749 893d c4d7 353d
000002b0: 2370 45bd a827 563d 491a 9abd e11d a6bd
000002c0: 8feb aa3c 16a6 9abd df97 1cbc b1a0 483d
000002d0: 41db b63c cd22 a93d 9459 afbd 6580 6b3d
000002e0: 5c14 c4bd 5768 8bbd bb5e dfbc 18c7 613d
000002f0: efe3 173d d7e4 58bd 09e5 9abd 7b7c d4bc
00000300: ddb4 a2bd 3581 f1ba bbbd 473d 4a3d 0abd
00000310: 2da6 78bc 3e09 31bd d746 793c d6cf dc3a
00000320: bf97 c9bc cf6a 94bd 9461 cf3c e1f3 ecbc
00000330: 7bdb 823c 9e96 8bbd 2fb1 97bd fb57 8dbd
00000340: ad26 273d 2fbb 563d 20b8 a53d 09ee 663d
00000350: 0411 3aba 79e9 b4bd cca9 afbd a546 c1bd
00000360: 7ecd 703d 09ae 4a3d e639 b23d 77fd 113c
00000370: 2521 8dbd be9b b3bd fd8b 49bb 0e93 80bc
00000380: 1549 933d 9dab a8bd 0200 3e3d 2d3d 33bc
00000390: bb85 1e3c 8898 87bb c0eb 87bc cafe 1abd
000003a0: 7e9d 65bc 7668 4cbd 72c1 adbd f7eb f63c
000003b0: ecd3 3bbd ccd2 943c ce93 87bd d386 263c
000003c0: 5d03 303d bc64 a1bd 8516 413c e0b0 8bbc
000003d0: c2ec b3bd 9bc7 aabd a787 723c 14fe da3b
000003e0: 062f 9b3c 05d0 d3bc 5a55 3abd 09e3 05bd
000003f0: 8925 8abd f7aa c3bd 86f7 fa3c 7abe 3fbd

actor.6.bias f4 [128]
-0.007902489 -0.06102827 -0.029705402 0.05000136 -0.009164626 0.00019460754 0.07730619 -0.033533204
0.08992531 0.00645337 0.09800844 -0.06040463 0.04664997 -0.018146154 -0.04402667 -0.093589865
-0.016987013 0.018410036 -0.07564087 0.022128755 0.12939046 0.028112777 -0.08864983 -0.04974815
-0.015443689 -0.021380587 -0.036980055 0.08679344 -0.04559208 -0.004571691 0.098394156 0.072587945
0.030924423 0.051066507 -0.02617032 -0.07130495 0.031930767 -0.0071449205 -0.02243541 -0.019839823
0.03461044 -0.0011090366 -0.08088726 0.11079923 0.024065992 -0.047900517 -0.060870398 0.047482952
0.068078935 -0.038706448 -0.124327175 0.034721237 0.0133070955 -0.0044886516 0.059740208 0.03635905
-0.068681054 0.039389044 -0.06034274 0.06881309 -0.013566222 0.016838696 -0.049902778 -0.04282193
-0.07108025 0.023436915 -0.013938105 0.020496957 0.028673828 0.0912183 -0.05742869 -0.09222871
0.0070093255 -0.07616995 -0.10912462 0.040263496 -0.020322284 -0.086943686 0.06813586 -0.04726622
-0.014576398 -0.032323163 0.069969915 0.0014739122 0.08900517 -0.038775414 0.06427615 -0.07616111
0.042674404 -0.037810422 -0.07619846 -0.06239919 -0.03200234 0.026576169 0.032414038 -0.06371698
-0.043922797 -0.07486685 -0.075789705 -0.10540483 -0.11697138 0.07164876 -0.03563289 0.10092566
-0.009814048 0.008393589 0.034681346 0.04152159 -0.08709885 -0.05037017 0.011643495 -0.055099722
0.0943384 0.07758258 -0.05471106 0.057152662 -0.036640935 0.009584305 0.05371144 -0.29838675
-0.010425055 -0.052993827 -0.067299806 0.06257123 0.013499655 -0.094964 0.009431174 0.10876948
00000000: 7179 01bc c7f8 79bd be58 f3bc 3ace 4c3d
00000010: 3a27 16bc 900f 4c39 b552 9e3d 1d5a 09bd
00000020: c32a b83d cb76 d33b a6b8 c83d d86a 77bd
00000030: 0a14 3f3d 3ea7 94bc 4f55 34bd 0bac bfbd
00000040: 5928 8bbc a5d0 963c 9ae9 9abd 5d47 b53c
00000050: ef7e 043e c44c e63c 0b8e b5bd b7c4 4bbd
00000060: 8707 7dbc 5726 afbc 6678 17bd c2c0 b13d
00000070: c3be 3abd 20ce 95bb e082 c93d fda8 943d
00000080: 3755 fd3c 1d2b 513d 2463 d6bc 5408 92bd
00000090: d6c9 023d f01f eabb 77ca b7bc 2087 a2bc
000000a0: adc3 0d3d 185d 91ba 38a8 a5bd b5ea e23d
000000b0: 0b26 c53c 5533 44bd 3d53 79bd 7c7d 423d
000000c0: f86c 8b3d a78a 1ebd 3f9f febd db37 0e3d
000000d0: 0106 5a3c 8a15 93bb 26b2 743d 3aed 143d
000000e0: a7a8 8cbd 6856 213d f329 77bd e1ed 8c3d
000000f0: dc44 5ebc 4ef1 893c db66 4cbd 0c66 2fbd
00000100: 8692 91bd c6fe bf3c a65c 64bc 3ce9 a73c
00000110: 60e5 ea3c a9d0 ba3d 593a 6bbd 68e2 bcbd
00000120: 7cae e53b fefe 9bbd bb7c dfbd 56eb 243d
00000130: eb7a a6bc 880f b2bd d08a 8b3d 399a 41bd
00000140: d8d1 6ebc 4b65 04bd 634c 8f3d 4930 c13a
00000150: 5848 b63d f8d2 1ebd 37a3 833d 5bfa 9bbd
00000160: 5bcb 2e3d 1adf 1abd f00d 9cbd 4b96 7fbd
00000170: e314 03bd 44b6 d93c 95c4 043d 0c7e 82bd
00000180: 64e8 33bd cb53 99bd a237 9bbd 7dde d7bd
00000190: b18e efbd 96bc 923d cbf3 11bd 1db2 ce3d
000001a0: 1acb 20bc 4485 093c 070e 0e3d 8b12 2a3d
000001b0: e260 b2bd f450 4ebd 5cc4 3e3c 3fb0 61bd
000001c0: 7e34 c13d 9ee3 9e3d b418 60bd e918 6a3d
000001d0: ce14 16bd 7d07 1d3c 8700 5c3d 26c6 98be
000001e0: dacd 2abc 0e10 59bd 7bd4 89bd 5825 803d
000001f0: a82d 5d3c 7c7c c2bd 3685 1a3c 88c2 de3d

actor.8.weight f4 [1, 128]
-0.02555079 -0.0050575775 0.015371758 0.1321243 0.005922098 -0.043250956 -0.12546687 0.065637454
0.0805469 -0.015082271 0.06203381 -0.032120287 -0.05064662 -0.076937154 -0.09392771 -0.07298268
-0.073731855 0.053648315 -0.040223125 0.0031537903 -0.07650638 -0.027712993 -0.037129525 0.06361658
0.024911929 0.030220982 0.074719906 0.044793535 0.028773531 -0.05020054 0.035208903 -0.043364815
-0.034494687 -0.05163052 -0.020065477 0.019932682 0.055601224 -0.045451842 -0.04100659 -0.043214656
-0.07322483 0.042685356 0.036627583 0.04075057 0.0063152616 0.029425057 0.020725423 0.061173614
0.11622779 -0.0003627491 0.022946414 0.0036269943 0.07850913 -0.042700943 0.0074649625 -0.016439723
-0.014075291 -0.003385383 0.006788141 0.08681604 0.017208608 -0.0025198446 0.00022265209 -0.018597506
0.05220446 0.048162196 0.00028232878 -0.00085280905 0.016892299 -0.100666136 -0.01826211 -0.0026969118
0.07879088 -0.024502238 -0.056852814 0.056957554 0.034912042 -0.00268762 -0.07685119 0.057281483
0.033893377 0.0012731595 -0.044108972 -0.08470832 0.041190032 0.032809686 0.025201408 -0.107956216
0.019883648 -0.020530988 -0.044905663 0.01476028 -0.013050038 -0.060388714 0.08024279 -0.00353093
-0.04078129 -0.016371317 0.03972182 -0.014901227 0.022612888 0.053205382 -0.005010195 0.07216717
0.06055502 0.05637101 0.059692074 0.046257902 0.0055018677 -0.02406682 -0.001092909 -0.048346646
0.051248375 -0.04042858 0.001621693 0.0062708594 -0.029415118 -0.086098336 0.053842254 -0.17165276
0.057524588 0.09225631 -0.04384047 -0.039467942 -0.0062456164 0.0625164 0.15246488 0.09402979
00000000: e44f d1bc 09ba a5bb d3d9 7b3c 984b 073e
00000010: 290e c23b ea27 31bd 637a 00be ee6c 863d
00000020: c6f5 a43d a11b 77bc 2a17 7e3d 9090 03bd
00000030: d572 4fbd 3a91 9dbd 2c5d c0bd f177 95bd
00000040: ba00 97bd 56be 5b3d 01c1 24bd d2af 4e3b
00000050: 61af 9cbd 5c06 e3bc 2115 18bd 6949 823d
00000060: 1a14 cc3c fe91 f73c c006 993d 6d79 373d
00000070: 78b6 eb3c 159f 4dbd 3637 103d 4e9f 31bd
00000080: 4d4a 0dbd 867a 53bd 5b60 a4bc dd49 a33c
00000090: 1cbe 633d b62b 3abd 87f6 27bd da01 31bd
000000a0: e6f6 95bd d7d6 2e3d ce06 163d 12ea 263d
000000b0: 41f0 ce3b d10c f13c 5dc8 a93c 2f91 7a3d
000000c0: d608 ee3d 5c2f beb9 1efa bb3c deb2 6d3b
000000d0: 65c9 a03d 2fe7 2ebd a59c f43b 99ac 86bc
000000e0: 0d9c 66bc 4ddd 5dbb 0e6f de3b 9ccc b13d
000000f0: 11f9 8c3c fa23 25bb b777 6939 cc59 98bc
00000100: 58d4 553d b945 453d 8705 9439 0c8f 5fba
00000110: b861 8a3c 0c2a cebd 6c9a 95bc acbe 30bb
00000120: 1d5d a13d ebb8 c8bc 7fde 68bd 534c 693d
00000130: eeff 0e3d c822 30bb 2864 9dbd fd9f 6a3d
00000140: c8d3 0a3d 25e0 a63a 9cab 34bd 8e7b adbd
00000150: e1b6 283d 7363 063d 2f73 ce3c 2618 ddbd
00000160: 08e3 a23c 9a30 a8bc 00ef 37bd 1ad5 713c
00000170: d4cf 55bc 285a 77bd 5556 a43d 2d67 67bb
00000180: 480a 27bd 241d 86bc 59b3 223d 4724 74bc
00000190: aa3e b93c e3ed 593d 902c a4bb 62cc 933d
000001a0: 8a08 783d 4ae5 663d ad7f 743d ed78 3d3d
000001b0: 0349 b43b c827 c5bc f13f 8fba 2207 46bd
000001c0: d1e9 513d 7098 25bd fd8e d43a c87b cd3b
000001d0: f9f7 f0bc 5354 b0bd b289 5c3d bec5 2fbe
000001e0: e79e 6b3d e0f0 bc3d 1192 33bd 23a9 21bd
000001f0: 07a8 ccbb 9908 803d c11f 1c3e b192 c03d

critic.0.weight f4 [128, 57]
0.073440686 -0.0152127175 0.06317795 0.086526446 0.039856423 -0.088669166 0.0027464211 -0.09000224
0.042162456 0.068823636 -0.10354731 0.12215972 0.065638155 -0.08690366 -0.12992062 0.08262285
-0.06391506 0.12679823 0.10317915 0.09225089 -0.13219802 0.006315878 0.095076166 -0.1066077
-0.050376866 -0.013438671 0.06413769 -0.034785558 0.029784976 0.07941436 0.11882387 -0.042216536
0.02487998 -0.012716847 0.083637804 -0.08692242 0.059779905 -0.005922558 0.031155676 0.12733015
0.065343045 0.019757992 0.11870842 0.03345716 -0.10178729 0.08864126 -0.08879821 0.1227392
0.10919605 -0.039390754 -0.07847254 0.07784504 -0.12498398 0.068703555 0.052821103 -0.11205279
0.08962744 -0.022028955 -0.061612707 0.0096996175 -0.05780634 -0.045306493 -0.0913727 -0.0010617438
-0.10547509 -0.124099396 0.08752102 0.05135478 -0.019077173 -0.11713222 -0.04902039 0.05725026
-0.07001214 0.1141591 0.09729144 -0.0033912708 0.09655365 -0.13121665 0.03871971 -0.12099275
0.12492319 0.13003938 -0.09395723 0.00023594483 0.058594134 -0.12003655 -0.090100214 0.08750308
-0.09727745 -0.07363658 0.03437926 0.106554925 -0.01966791 -0.06975856 -0.053784113 0.070876814
0.012089823 0.0076474356 -0.037183627 -0.084916815 0.096122116 -0.016804062 -0.007929581 -0.05778043
-0.121664874 -0.11491514 -0.054341394 -0.023619935 -0.026381847 0.108035654 0.025126206 0.0856036
0.011420185 0.09846565 -0.014178685 -0.04638287 0.052465536 0.10874631 -0.05742908 -0.09302262
-0.05346938 -0.09340071 -0.023808511 -0.11963819 -0.0121672405 -0.09248987 0.13220109 -0.01652299
0.05396186 -0.13238598 0.12564023 0.06910516 -0.05129445 -0.12909093 0.042931695 0.08814601
0.12202483 0.07986591 0.113757364 0.117924824 -0.030512057 0.095364325 0.021737382 -0.022848943
-0.094088614 0.027183898 0.12380015 -0.048272073 0.074829735 0.004916062 0.13005883 0.07867607
-0.10893517 0.049830496 0.13116449 0.0115803545 0.050854612 0.011548017 -0.06703102 0.11263889
-0.032523517 0.110561065 0.04669088 -0.055461735 0.010335798 -0.12551385 -0.04182582 -0.061306797
-0.026210008 0.100657806 -0.098100215 -0.12863784 0.028256962 -0.10781894 0.119168244 0.11427578
0.05226796 -0.1301252 0.08755127 0.08125231 0.08780237 -0.079439856 0.0087615065 -0.037408616
-0.1032223 -0.053595178 0.124803886 0.081471704 0.117978275 0.09286415 -0.059204545 -0.10950275
0.059665382 0.03813772 -0.0031476521 0.061264448 0.10717034 -0.008899145 0.10946521 -0.04427702
0.0999438 0.05529697 -0.006228814 0.10475751 0.06663178 -0.03767069 -0.10911233 -0.0717349
-0.057443827 0.09690785 0.0014154953 0.04521671 0.026906474 -0.045757428 -0.006314915 -0.12453301
0.0076637147 0.06469218 0.08044942 -0.12976721 -0.10716362 -0.124311075 0.06159352 -0.076250635
-0.08701858 -0.09362502 -0.081070565 0.08627165 0.041375466 -0.012503466 0.105193526 0.0076831044
0.010371656 0.041419093 -0.020646144 0.10292097 0.06142124 0.04543497 0.1306685 0.04294087
0.05027398 0.071401455 0.055902503 0.12783906 -0.062171154 -0.09185613 0.123989396 -0.020072442
0.106815666 0.09876851 -0.07219646 -0.10034639 0.038851965 -0.103326276 0.041804045 -0.08283642
00000000: 1268 963d c33e 79bc 7163 813d c734 b13d
00000010: 7d40 233d 2e98 b5bd 4dfd 333b 1853 b8bd
00000020: 8ab2 2c3d 68f3 8c3d 9d10 d4bd e02e fa3d
00000030: 4c6d 863d 8cfa b1bd e909 05be 2b36 a93d
00000040: e6e5 82bd 65d7 013e 974f d33d 09ee bc3d
00000050: eb5e 07be 6df5 ce3b 4bb7 c23d 2355 dabd
00000060: f957 4ebd df2d 5cbc 9f5a 833d 4d7b 0ebd
00000070: 9fff f33c ffa3 a23d ee59 f33d 3feb 2cbd
00000080: 1ad1 cb3c 525a 50bc 4c4a ab3d 6204 b2bd
00000090: c6db 743d 0412 c2bb 303a ff3c d662 023e
000000a0: 93d2 853d 83db a13c 661d f33d 600a 093d
000000b0: db75 d0bd 8d89 b53d d6db b5bd b15e fb3d
000000c0: 2ea2 df3d 3358 21bd 36b6 a0bd 386d 9f3d
000000d0: 9af7 ffbd 73b4 8c3d f15a 583d ef7b e5bd
000000e0: 978e b73d 1176 b4bc 9b5d 7cbd 25eb 1e3c
000000f0: 57c6 6cbd 4d93 39bd 9c21 bbbd 362a 8bba
00000100: 5303 d8bd d327 febd 383e b33d 6459 523d
00000110: bb47 9cbc 04e3 efbd 9bc9 48bd 407f 6a3d
00000120: 8662 8fbd 3fcc e93d bc40 c73d 1540 5ebb
00000130: ecbd c53d a85d 06be 8f98 1e3d 0ccb f7bd
00000140: bbd7 ff3d 0b29 053e a66c c0bd f567 7739
00000150: 6700 703d b9d5 f5bd 7686 b8bd d134 b33d
00000160: 6639 c7bd c6ce 96bd 44d1 0c3d 7839 da3d
00000170: 991e a1bc 93dd 8ebd bb4c 5cbd dd27 913d
00000180: 6514 463c 5797 fa3b dc4d 18bd dee8 adbd
00000190: acdb c43d aca8 89bc 13eb 01bc 2cab 6cbd
000001a0: 6f2b f9bd a158 ebbd 1595 5ebd 987e c1bc
000001b0: be1e d8bc cc41 dd3d 79d5 cd3c f150 af3d
000001c0: ba1b 3b3c 5ca8 c93d b74d 68bc f7fb 3dbd
000001d0: 1ae6 563d 63b6 de3d c13a 6bbd a582 bebd
000001e0: b502 5bbd df48 bfbd 110a c3bc de04 f5bd
000001f0: 1b59 47bc 546b bdbd b95f 073e 395b 87bc
00000200: 1c07 5d3d 3190 07be d5a7 003e 0287 8d3d
00000210: 211a 52bd 6a30 04be 25d9 2f3d e585 b43d
00000220: 27e8 f93d bd90 a33d 9ff9 e83d 9282 f13d
00000230: 6cf4 f9bc 5f4e c33d 9812 b23c b52d bbbc
00000240: 88b1 c0bd c4b0 de3c ef8a fd3d f0b8 45bd
00000250: 5540 993d eb16 a13b 242e 053e eb20 a13d
00000260: 6719 dfbd 101b 4c3d fc4f 063e 87bb 3d3c
00000270: ed4c 503d e533 3d3c 8f47 89bd 38af e63d
00000280: 6137 05bd d76d e23d f03e 3f3d d82b 63bd
00000290: 7b57 293c b486 00be 8d51 2bbd d61c 7bbd
000002a0: 5fb6 d6bc ae25 ce3d c4e8 c8bd a3b9 03be
000002b0: 257b e73c 2dd0 dcbd 7b0e f43d 6c09 ea3d
000002c0: ee16 563d 8a3f 05be 154e b33d 9c67 a63d
000002d0: bbd1 b33d 5db1 a2bd 6c8c 0f3c c739 19bd
000002e0: 3766 d3bd 9e86 5bbd 2e99 ff3d a3da a63d
000002f0: 989e f13d 8f2f be3d 7780 72bd fa42 e0bd
00000300: b063 743d 4c36 1c3d d748 4ebb 6ef0 7a3d
00000310: 207c db3d b8cd 11bc 4c2f e03d d25b 35bd
00000320: 56af cc3d 137f 623d 141b ccbb 1b8b d63d
00000330: 3e76 883d 954c 1abd 4976 dfbd bfe9 92bd
00000340: 384a 6bbd 9f77 c63d 2488 b93a 2835 393d
00000350: f76a dc3c 246c 3bbd 59ed cebb 2a0b ffbd
00000360: e61f fb3b 557d 843d aac2 a43d b2e1 04be
00000370: 9a78 dbbd ce96 febd 7d49 7c3d 4b29 9cbd
00000380: cc36 b2bd 79be bfbd 5308 a6bd 31af b03d
00000390: 5279 293d 56db 4cbc b46f d73d 8dc2 fb3b
000003a0: e1ed 293c 11a7 293d 1a22 a9bc 3bc8 d23d
000003b0: d794 7b3d 051a 3a3d f7cd 053e c4e2 2f3d
000003c0: 17ec 4d3d ed3a 923d 06fa 643d 3ee8 023e
000003d0: 2ea7 7ebd 111f bcbd 27ee fd3d f66e a4bc
000003e0: 2cc2 da3d 2547 ca3d bddb 93bd 6882 cdbd
000003f0: 3d23 1f3d ba9c d3bd b83a 2b3d 24a6 a9bd
