experiments/exp043_clean_ppo/best_model_raw.pt (torch, 615777 bytes, 18 tensors)

actor.0.weight f4 [128, 205]
00000000: 6a65 67c0 7e16 8b40 83cb e43c 37ee bd3a
00000010: d98e da3e 1001 8ebf 0b95 52be b8fa 46bc
00000020: dfb5 7a3e c28c 8d3c 4ccd 85be 84fe 6fbd
00000030: aee3 0a3e 48bc 453e 2cad a9be 0fe3 163d
00000040: eb60 bf3c 91ce f73d d495 67be 786a 29bd
00000050: c854 2a3d 8c37 5dbc de54 82be e53a 3cbc
00000060: 85c3 133e 126a 933c 166d 2ebe 34fb 883d
00000070: 6a8c 513d b19d 82bd f33f f43b f671 8b3d
00000080: 2387 0e3e 7611 4fbd 2b87 aabd 1cb4 3c3b
00000090: 1cbf 143e f936 f7bd e42f 7fbb 1e09 d13c
000000a0: 251b f13d 0346 18be 20eb ffbb 81d1 5ebd
000000b0: bbaf 403d f3fd 0bbd 172c 89bd 3ee1 f8bc
000000c0: 3f2c 873d b3f2 f7bc 15d3 043d f8b7 58bd
000000d0: 2437 9f3d 8106 29bd 4ae3 2e3d 351f 973b
000000e0: e20c c43d 0243 afbd 6b8b 033d dcda 88bd
000000f0: 50ea 013c 52fe d1bc dcf6 283d 27b9 733d
00000100: f0f9 dcbc 1330 773c 2a0b 4d3d aea9 4cbd
00000110: d15f d5bb 13a7 e6bb 126b 49bd b11b c8bc
00000120: 0c40 1bbd 4c07 713d 6de0 0f3d f3ac 7a3d
00000130: 1da3 4cbb 9711 e83d fcde 1a3d ca58 57bd
00000140: f30b 1dbd 3849 a53d e779 82bd 4541 61bd
00000150: a298 1dbc 18e9 163e 0a7a 393d 5d23 043d
00000160: a243 8d3d 8aae 8b3d a6b9 c43b 2207 6c3d
00000170: bff3 133d d7c1 f63d a247 73bd 097c b7bc
00000180: a241 923b de53 3c3e 1057 27bd 4cfc 45bc
00000190: 67a1 81bd c27f 373e 1e75 dbbd e21e 64bd
000001a0: e303 b9bd 2b03 043e c47a 67bd f2ff 31bd
000001b0: d0b1 2dbd 9d48 b93d 8175 15be 44c1 233d
000001c0: 7249 5fbd 41c4 4e3e 0303 2cbe 1870 273d
000001d0: 5267 eabb 1de0 c03d 84d8 b5bd dff2 33bd
000001e0: 2cf7 86bc 9569 f83d 503b 08be 9288 cc3c
000001f0: 56dd 62bd 93df d03d 3f24 18be bec2 74bc
00000200: c0fa b6bd 898f fd3d 8fb3 31be 9ca1 b2bc
00000210: 75aa 85bd 3cbd 1b3e e2a5 c8bd 55b8 35bd
00000220: f3e0 0ebe 4d1b 1a3e 6b6f 78bd 9a6f 93bc
00000230: 534f edbd 7741 f33d f4c3 d53b f483 323c
00000240: e79d 04bd 9fb1 013e 8b29 afbc b2b0 29bd
00000250: 2e61 7dbd 3b38 d53d 1a1b 073d 9a92 1cbd
00000260: e30a 6f3c 56c2 da3b c3bb 70bd a095 6e3d
00000270: 5131 993c 0e9a 0dbd 76c1 583d 0370 903b
00000280: 42f3 24bc 9862 2cbd 658d 26bc 306e ea3c
00000290: b0d5 bdbd 1d9b 963c 649d 6b3d 3271 323d
000002a0: b18d b4bd 1988 d6bc 05cb f63d 5869 313d
000002b0: ee28 46bd 731f 973c 4824 9b3d ff98 14bd
000002c0: 06d7 83bc 0e04 bbbd 0bdd cf3d d0b2 93bc
000002d0: cdb7 203d 341f 7dbd f867 e13d bfce 3b3d
000002e0: be76 8c3d 14b7 bdbd 3d3c c8bc a54c 873d
000002f0: 868c 333d d9f5 07be 9c2c 47bc efde 703d
00000300: 7beb e33d 47b7 03bd 5dfc 8dbd 62a3 8c3d
00000310: 0e6b d43c 99d6 babd 6c5b a3bd 7e04 ad3d
00000320: 222d eb3d e069 08bd c0e2 e2bc 53ca 55bc
00000330: 1e9d 583d 257c bfbf 4749 6ec0 8da7 7840
00000340: 640b 3bbd 0bcb fabe 01da 73be cae3 1440
00000350: 71ca 0d3d f9b9 24bf cf26 113e 4af9 943f
00000360: ae38 033c d2d3 16bf 5e46 b43d fdc2 d43e
00000370: cd8d 43bb b5e8 f5be ad99 9c3d 71b9 453d
00000380: ba0e 8e3d a321 c7be 6f2a 703d 7559 313d
00000390: 35b8 7d3d 26fc d3be 9693 ac3d 973c 363d
000003a0: 3fc8 813d d25a 67be ad8c f73d ef7c 9c3c
000003b0: 7745 4fbd 16fc 49be aaa8 073e 5c12 7d3e
000003c0: 612e 463d 2b4a 55bd d31b 3f3e 3ca8 9a3e
000003d0: 85f5 f6bc b4f6 ebb9 ef3b 0d3e c6c3 843e
000003e0: c399 b73b f58b 25bd a7eb 503e 9579 8e3e
000003f0: 6b1f 41bd 3579 7f3d 5c4e 3e3e bc1c a43e
-3.6155648 4.3464956 0.027929073 0.0014490549 0.4268711 -1.1094074 -0.20564668 -0.012144737
0.24483441 0.017279033 -0.26133192 -0.058592334 0.13563415 0.19310105 -0.33139932 0.036837634
0.023361644 0.12099946 -0.22615749 -0.041361302 0.04158476 -0.013502013 -0.25455374 -0.011488651
0.14430054 0.017994914 -0.170338 0.06688538 0.0511593 -0.063777335 0.0074539124 0.06808846
0.13918738 -0.05055376 -0.083265625 0.0028793877 0.14526027 -0.12071032 -0.0038938457 0.025517043
0.117727555 -0.14870457 -0.0078100115 -0.054399017 0.04704259 -0.03417773 -0.066978626 -0.030380841
0.06600236 -0.030267095 0.032427866 -0.05290982 0.07774189 -0.04126597 0.04269723 0.0046118745
0.0957277 -0.085577026 0.03211538 -0.06682369 0.0079294 -0.025633965 0.04125105 0.059502747
-0.026974648 0.015087145 0.050059475 -0.049966507 -0.0065116663 -0.00703896 -0.049174376 -0.024427267
-0.037902877 0.05884485 0.03512614 0.061200093 -0.0031225153 0.1133148 0.03781031 -0.05257491
-0.038341474 0.08070606 -0.06370907 -0.054993887 -0.00961891 0.14737356 0.0452824 0.032260288
0.068976656 0.068204 0.0060035763 0.05762399 0.036121126 0.12048691 -0.059394486 -0.022398012
0.0044633904 0.18391368 -0.040854514 -0.012084078 -0.06329613 0.1791983 -0.10715698 -0.055693515
-0.090339445 0.12891833 -0.056513563 -0.04345698 -0.042405903 0.09047053 -0.14595605 0.039979234
-0.054513402 0.20192052 -0.16798024 0.040878385 -0.00715343 0.09417746 -0.08879188 -0.04393279
-0.016475283 0.12129513 -0.13303876 0.024967466 -0.055386864 0.101988934 -0.14857577 -0.014939008
-0.089345455 0.12380893 -0.17353652 -0.021805577 -0.06526653 0.15208906 -0.09797265 -0.044365246
-0.13952999 0.15049477 -0.06065313 -0.017997552 -0.115873955 0.11877721 0.0065236036 0.010895718
-0.03237715 0.12665413 -0.021382114 -0.041428275 -0.061860256 0.10411116 0.03298483 -0.038225748
0.014589998 0.0066759987 -0.058772814 0.058248162 0.018700274 -0.034570746 0.052918874 0.004407884
-0.010067763 -0.042086214 -0.010165547 0.028616995 -0.09269273 0.01838451 0.057523146 0.043564983
-0.08816088 -0.026187943 0.12050442 0.043313354 -0.048378877 0.018447613 0.075752795 -0.03627872
-0.016093742 -0.09131633 0.101495825 -0.0180296 0.039237786 -0.061797336 0.110061586 0.045851465
0.06858586 -0.09263435 -0.024442786 0.06606416 0.043835185 -0.13277377 -0.012156632 0.058806356
0.11128899 -0.03215721 -0.069329 0.068671 0.025929954 -0.091229625 -0.07976422 0.084481224
0.11483218 -0.033304095 -0.027696013 -0.013048726 0.052884214 -1.4959761 -3.7232225 3.8852265
-0.04566516 -0.48983034 -0.2381363 2.3264031 0.03461689 -0.6434627 0.1417496 1.1638577
0.008009119 -0.5891696 0.08802484 0.41555014 -0.0029839159 -0.48029104 0.07646499 0.048272554
0.069364026 -0.3889285 0.058634218 0.043298203 0.06194325 -0.41403311 0.08426587 0.044491377
0.06337022 -0.22593239 0.12087379 0.019102542 -0.050603356 -0.1972507 0.13247934 0.24714035
0.048384074 -0.052072685 0.18662958 0.30206478 -0.03014637 -0.000450065 0.13792394 0.25930613
0.0056030466 -0.040416677 0.20402394 0.27827135 -0.047149103 0.06237145 0.18584579 0.32053173

actor.0.bias f4 [128]
00000000: 1bf8 6a3e afe4 1c3c 7809 20bf 5778 91be
00000010: 72fa a2bf 92e7 893e 5323 a93e c502 0dbf
00000020: 6775 7bbf 2802 f2be 0021 ed3d 28ed e6bf
00000030: 2e68 a73e 570c 7bbe 067b e4bd 9e6f f8be
00000040: 1b7f 3740 8cee 97be 0242 813f 2451 90bf
00000050: f920 2b3e 43fc 823d cae2 54bb 4a46 c43e
00000060: 1129 d6bf 3115 0ebf be21 df3e 6a87 8f3f
00000070: 11a6 99bf 5976 4dbf bc2d 67be fd5c efbe
00000080: 1477 31be 50f0 78bf 2c64 bdbf be0f 8fbf
00000090: a367 adbe 7f80 723e d02a 37bf e47a 963f
000000a0: 2cdd bfbf 9db9 e6bf ca27 44bf 1a3f 95bf
000000b0: 5f96 2d3e 3c22 edbf 625d 16bf ca2d aabe
000000c0: 764b 3d3d f2d8 e0be cdeb 443e 810e d2be
000000d0: ab6b 17bd 97ce 67bf 96a8 1a3f 070d be3d
000000e0: 8609 c3be e331 943f 2192 b7bf 9745 823e
000000f0: 0558 e9be 2acd ac3e dfd5 9ebf da9d 3d3e
00000100: 5413 1b3f 92a3 103e 2677 883e 4d1b fabd
00000110: 6e59 d1be 38b3 a4bf 8087 afbe ea65 debb
00000120: a7d6 60bf 1106 cabe 574b eebe 12ef 38bf
00000130: a08c fe3e eb72 dabc b880 c4be 0f91 e43e
00000140: aede d63d 0a6e 563e e72a bebe b4a0 27bf
00000150: 28ae 41bf eac1 23bf e54f 45bf ba47 333e
00000160: e894 dcbe 0136 5abd 35bc 0cc0 ee84 f9bf
00000170: 6833 acbf d002 dcbe e71e 80be 848f 873e
00000180: f9c3 5bbf 5bb1 f2be 1076 363e fa46 52be
00000190: 5bcd abbe b697 dfbd a5c9 c7be 3a54 6a3f
000001a0: ab8e 93bf b5bc 51bf 7e71 a6bf 635b 09bc
000001b0: 5248 603f 09e5 51bf a411 84bd 7dde 6ebf
000001c0: 3180 0dbc 2edb 243d 190c 5e3e fac8 39bf
000001d0: 02d0 293f 67f2 8fbf dd4e 50be 9a58 debd
000001e0: 9f86 b93f 6d94 06bf 7591 f6bd ba21 80bf
000001f0: 8744 cebe 4beb 9abf a8c1 d4be a236 3abf
0.22946207 0.009576007 -0.6251445 -0.28412125 -1.273268 0.26934487 0.33034763 -0.5508235
-0.98226017 -0.4726727 0.1157856 -1.8041124 0.3269667 -0.24516426 -0.11156277 -0.48522657
2.867133 -0.29674184 1.0098269 -1.1274762 0.16711797 0.06395771 -0.003248381 0.38334876
-1.6731282 -0.55501086 0.4358043 1.12132 -1.2003804 -0.8025871 -0.2257604 -0.46750632
-0.17330581 -0.9724169 -1.4796195 -1.1176679 -0.3386813 0.2368183 -0.715497 1.1756253
-1.4989371 -1.8025395 -0.76623213 -1.1659882 0.16951893 -1.8526073 -0.5873624 -0.3323806
0.046214543 -0.43915516 0.19230576 -0.4102669 -0.036967915 -0.90549606 0.6041349 0.092798285
-0.38093203 1.1577724 -1.434147 0.25443718 -0.45574966 0.33750278 -1.2409018 0.18517247
0.6057637 0.14124897 0.26653403 -0.122122385 -0.40888542 -1.2867193 -0.34283066 -0.0067870514
-0.87827533 -0.39457753 -0.46541855 -0.7223979 0.49716663 -0.026666125 -0.38379455 0.4464192
0.104916915 0.20940414 -0.37142107 -0.6547959 -0.75656366 -0.63967764 -0.77075034 0.1750783
-0.43082356 -0.05327416 -2.1989872 -1.9493692 -1.3453188 -0.42970896 -0.25023577 0.2647668
-0.85845906 -0.47400936 0.17818475 -0.20534888 -0.3355511 -0.109176084 -0.3902103 0.9153477
-1.1527914 -0.8192857 -1.3003385 -0.008383605 0.8761035 -0.81990105 -0.06448677 -0.9330824
-0.00863652 0.04024809 0.21684302 -0.7257229 0.6633302 -1.124585 -0.20342584 -0.10856743
1.4494208 -0.5257023 -0.120394625 -1.0010293 -0.40286657 -1.2103056 -0.41553998 -0.72739613

actor.2.weight f4 [128, 128]
00000000: c85f 8b3e 9aab 573e 4a62 76be 0743 be3e
00000010: db70 42be ed89 febd 691d 08be e37b 343e
00000020: 999d b23c b3ce 90bf 0cd9 683f 40c8 083f
00000030: 4ee6 aebc 6d4b febc bb2c 0d3f e7dc 80bd
00000040: 0c20 2a3d 7750 b8bd 9be7 00bf a5de 77bd
00000050: 6c4e 963c 96ae f03b 3c43 033f e824 493e
00000060: 0ed7 08bd 49ad 8abe 5574 efbd 5704 cebe
00000070: f094 afbd bb7f 073d e807 8dbd 5a83 93bc
00000080: bae3 fcbd 6961 63bd 2b9a bf3e a8fa edbe
00000090: 0afa 6f3e 47e4 59be 3af5 913d 0fba 76be
000000a0: c5a0 f43d 35d3 f53c aa1c 063e 37d9 60bf
000000b0: fdf8 5ebc ef1a 4abd 27e6 733c ff3f a63d
000000c0: 689a adba 96cd 943e 4f93 debc c838 e9bb
000000d0: 18d7 cdbd f13b a63c 668f b13c 1fc4 5dbd
000000e0: 01f6 093f b39f 5ebe 4a36 a53e 0a38 8ebf
000000f0: 62d7 903d 7300 a03d a0ca 31be b8cd 5a3d
00000100: 10a1 41bc e946 84bc b450 2dbf d526 95bd
00000110: 3908 303d f158 94bd fc20 ce3d be55 31be
00000120: 9f7e b63d 44b6 9b3e 20e9 6a3d f9b4 073c
00000130: 61e3 56be c002 9b3c 9264 f33d f513 f33c
00000140: 325c 23be f001 93bc eb2a 733e f576 22bc
00000150: e2b3 273e 38b0 31bd be6e 7fbe d58d 13be
00000160: 27c1 ac3e 9835 03be ad14 c8bc 1e18 b23e
00000170: ef53 9cbd 5b38 82bf 6ae4 db3d 50a1 303c
00000180: 0e87 3bbd 0c6c efbe 7cb0 813e 440b 2139
00000190: 610e a53e 3962 c73d b09d 35bd 4ca9 8b3c
000001a0: 8b02 a13d 38e2 853e 3b35 f83e 023c 403e
000001b0: 67f3 8a3e 6b6e 973d c765 afbd fa6f b1be
000001c0: 0ed9 123f cba6 123e fcfc 16bf 5610 c7bd
000001d0: 6bab bebd fd95 96bd c70d ac3d 9ffe 4ebf
000001e0: e483 053d d33d 24bd 33a1 773c a70c 9fbd
000001f0: 7715 97be 3fc7 1a3e 889e 0e3d 3bef b3bd
00000200: b453 eb3e 2b61 43be ecac 70bd 19ca 07bc
00000210: 86d3 d7bb 9512 61be b434 2bbe b03f 453e
00000220: 0f4d 95be 8fe3 16bf 79d0 d53c 28fa e2bd
00000230: be46 3ebe 23f5 ecbe b5d3 f93e f51e 8bbe
00000240: 2711 dcbd 64ec 22bf 16ca b7be 6032 ec3d
00000250: 96cb 973d 9dd5 56bd 440c bebe 9951 f0bd
00000260: 6119 1bbf 9fdd 5b3d c595 efbd 98f5 b33c
00000270: 0b68 b53d ad25 93bd c79d 503e ec3e 553c
00000280: abac ecbd c2ee 023f c645 e0be c26f 59be
00000290: b81f 493c 0457 55bc 740c 25be 1301 573e
000002a0: ae07 32bf f8a7 08bc 8484 543e da54 7cbf
000002b0: 1e24 eabe 3a87 233d e53f 003d 9406 d33d
000002c0: 4f05 673d 05df 77bd cc0e a3be e4c8 263d
000002d0: 098f a23c 3015 eabd aa40 743c a2f8 093f
000002e0: 7e5e 6e3e 4b20 223e 6d3a 0ebf 21b2 04bf
000002f0: 10ef b2be 5f49 61bd d358 e7be 8337 13bf
00000300: 49e1 cebe fde9 d4bd 3c9a 56bf cb86 71be
00000310: 17a6 533e bae7 f13a 7b17 dcbd 491e b1bd
00000320: 304d acbd 9e6a adbe 28ca 0abe f456 8b3e
00000330: c895 91be 5728 e83e a017 d13d 0319 42bf
00000340: 017f 11bf 65fb f1bd eff2 b23d 3bde 8abd
00000350: 329b f4be f27e a63e 3a06 a43d eada abbd
00000360: 36b0 6abf 6c32 d7bf c9ae 763e 589d b0be
00000370: 3464 9c3e 9097 a73d 19e4 a13d 2911 5ebd
00000380: 0dda f63e 2b1c 4e3d 5857 84be e158 283e
00000390: 5e9e 923d 9e96 04bf f292 a03e d68e 833e
000003a0: 497d b63e f9fa 073f b646 93be 53a0 cbbe
000003b0: 5b7d 2dbf 36ca 653d 6da0 85be 636c 2b3d
000003c0: cce5 a4bd 3c4b b9bb 1490 18be d526 a9ba
000003d0: b95a c2be b98d 533d 7a4b cc3c 88de b73e
000003e0: 2fed 8abf 9246 77be 156c dcbd d0f9 53bd
000003f0: e872 acbb 911c cdbe 5cbe de3d 3bbe 4cbe
0.27221513 0.21061555 -0.24060932 0.37160513 -0.18988363 -0.12428651 -0.13292469 0.17625384
0.021803664 -1.131308 0.9095619 0.5343056 -0.021350052 -0.031041825 0.5514638 -0.06292134
0.04153447 -0.089997225 -0.503534 -0.060515065 0.018347941 0.007345031 0.51274467 0.19642985
-0.033408217 -0.2708533 -0.116921104 -0.40237686 -0.085733294 0.033080798 -0.068862736 -0.01800697
-0.12348123 -0.05551282 0.37422308 -0.46480298 0.23435226 -0.21278487 0.071268514 -0.24094413
0.11944727 0.030007938 0.13096872 -0.87831444 -0.013609168 -0.049342092 0.014886416 0.08117675
-0.0013244869 0.290631 -0.027169852 -0.0071173646 -0.100507915 0.020292254 0.021674823 -0.054142114
0.53891 -0.21740608 0.32267982 -1.1110852 0.07072331 0.07812586 -0.17362452 0.053418845
-0.011818185 -0.016147094 -0.6770127 -0.07282797 0.04297659 -0.07243527 0.10064885 -0.17317864
0.0891087 0.30412495 0.05735123 0.008282893 -0.20985176 0.01892221 0.11884417 0.029672602
-0.15953138 -0.01794526 0.2374684 -0.009916057 0.16377214 -0.043380946 -0.24944589 -0.14409573
0.33741114 -0.12813413 -0.024423921 0.34784025 -0.076331966 -1.0173448 0.10736926 0.010780647
-0.045783095 -0.4676212 0.2532996 0.00015358353 0.32237533 0.09735531 -0.044339836 0.0170485
0.07861813 0.26149154 0.48478112 0.18772891 0.27138826 0.073941074 -0.08564334 -0.34655744
0.5736245 0.14321439 -0.58979774 -0.09719913 -0.09310039 -0.07352827 0.08401065 -0.8085727
0.032596484 -0.040098023 0.0151141165 -0.07766085 -0.29508564 0.15115069 0.034819156 -0.08785864
0.45962298 -0.19080035 -0.05875866 -0.00828793 -0.006586495 -0.21979745 -0.16719323 0.19262576
-0.29160354 -0.58940977 0.026100384 -0.1108287 -0.18581674 -0.46280774 0.48794332 -0.27172056
-0.10745459 -0.63641953 -0.35896367 0.11533046 0.07411878 -0.05244981 -0.37118733 -0.117343135
-0.605856 0.05367815 -0.11698488 0.021967694 0.08857735 -0.071849205 0.20372687 0.01301549
-0.11556371 0.51145566 -0.43803233 -0.21234038 0.012275629 -0.013021234 -0.16118032 0.20996504
-0.6954297 -0.008340828 0.20753676 -0.98566973 -0.4573068 0.039923884 0.031310935 0.10303989
0.056401547 -0.060515422 -0.31847227 0.040718928 0.019843595 -0.114298224 0.014907995 0.5389501
0.23278233 0.15832631 -0.555579 -0.51834303 -0.34948015 -0.055001613 -0.45184955 -0.5750658
-0.40406254 -0.10396192 -0.8382909 -0.23586576 0.20668827 0.0018455901 -0.10746666 -0.086483546
-0.0841316 -0.33870405 -0.13553679 0.27214777 -0.28434587 0.45343277 0.10209584 -0.75819415
-0.5683442 -0.11815528 0.08737742 -0.06780668 -0.47774655 0.32518727 0.08009 -0.08391364
-0.91675127 -1.6812263 0.24090113 -0.34495044 0.305452 0.08183205 0.07904834 -0.054215584
0.48213235 0.05031983 -0.25847888 0.16440155 0.071591124 -0.51792324 0.3136211 0.25694913
0.3564246 0.5311733 -0.28764886 -0.39770755 -0.677694 0.056101047 -0.26098958 0.041851413
-0.08051643 -0.0056547206 -0.14898711 -0.001290525 -0.3795984 0.05164883 0.024938334 0.35911965
-1.0853633 -0.24148014 -0.107628025 -0.05175191 -0.0052627213 -0.40060857 0.10876152 -0.19994442

actor.2.bias f4 [128]
00000000: 1861 35bd 894e d1bd 4e32 40bf 84ab c8be
00000010: c715 b73b 2ca3 edbf b509 75be 1f4a 613f
00000020: 79a9 87bf 570d 2c3f 600a aabf 6454 463f
00000030: c176 acbf c48d a0be 7c45 0f40 c571 23bd
00000040: 1e1f 03bf 79b6 84be 164b bfbf f01a 1ebe
00000050: fcb3 8a3e 421a 0840 01fc 28bf c12a 0d3f
00000060: eed6 f6be f1b0 b4be dbb9 013f 320c 2f3f
00000070: 7d2e 12be fcc7 bcbd d8cb 3d3f 0241 e83e
00000080: c547 6abf 6bae 903f 7a2a 0140 c1ab 4d3f
00000090: c415 583f 2f78 f03d 8d25 17bf 7e15 403f
000000a0: 5974 9abe d11e c13e 4bce c83f ead2 10bf
000000b0: 5569 063e 572d 5fbd b9a3 a7bd 20be 843f
000000c0: eab2 4b3f 8f89 4ebf abd8 1a3d 9266 8a3f
000000d0: b876 bdbe ae8e b5bf 68fc 4dbf 46df c5bf
000000e0: ba3b 67bf 30c4 7cbf 7be0 503f 5831 963f
000000f0: bda6 fdbe ecd4 8f3f 098f 8fbe 17ac 02be
00000100: 3c21 7e3f b9a5 9c3e f8bc 9fbd 7356 72be
00000110: 6c8d 663f ed05 a83d 834f 49be acd4 8ebf
00000120: 504d b63e 62ea 773e 5082 6bbd 053c 04be
00000130: 1fea bd3f 9195 f2bd adfb 7fbe 5bc6 fbbe
00000140: 1be5 02be 0761 873d b6b4 a8bf e198 13bf
00000150: 7bc2 e9be ace4 5bbe 5a71 c43f 25e2 123e
00000160: 29ca cfbd c896 d1bd 986a 123e f0d5 38bf
00000170: 0c48 a4bf bd48 5cbe 456a 0d3f 9198 cb3d
00000180: 8307 123f aa63 e63f b797 bebe d6f0 753e
00000190: 33cf e8be 2081 09bf c05c 513e ba67 66be
000001a0: 704e 0dbf 0641 91bd 5e84 a1bd ecb5 82be
000001b0: 24b3 6abe 536e 70bd 0ba5 04be 8b7f cfbe
000001c0: dbbe 143e 8885 f43e 08f4 823f 160f a5bf
000001d0: 4ce8 a5bd 1b4e b93f 1e66 4d3e 7f77 14bf
000001e0: 8328 cd3f 833d a1be d16a 8e3f 1e12 d8bf
000001f0: d34c b13f 3b03 ce3f 0b77 0c3f 171f 41bf
-0.04428205 -0.102200575 -0.7507676 -0.39193356 0.005587313 -1.8565421 -0.23929484 0.88003725
-1.0598594 0.67207855 -1.3284416 0.7747252 -1.3473741 -0.3135816 2.238616 -0.03990342
-0.51219356 -0.25920466 -1.494479 -0.15439963 0.27090442 2.1266026 -0.6600953 0.5514336
-0.48210853 -0.35291246 0.5067422 0.68377984 -0.14275546 -0.092178315 0.74139166 0.45362097
-0.9151576 1.1303228 2.0182176 0.803402 0.8440821 0.11741673 -0.5904167 0.75032794
-0.3016689 0.37718824 1.5687956 -0.5657183 0.13126118 -0.0544866 -0.081855245 1.0370522
0.79569876 -0.8067865 0.037804287 1.0812552 -0.37004638 -1.4184167 -0.80463266 -1.5458763
-0.9032551 -0.9873686 0.8159253 1.1733809 -0.49541274 1.1236854 -0.28038815 -0.1276096
0.9926946 0.30595186 -0.07799715 -0.2366579 0.9005954 0.08204255 -0.19659238 -1.1158652
0.3560586 0.24210504 -0.057497323 -0.1291352 1.4837073 -0.11844934 -0.2499835 -0.4917477
-0.1278271 0.06610303 -1.3180149 -0.5765515 -0.4565619 -0.2147395 1.5347092 0.1434408
-0.10145981 -0.10233837 0.14298475 -0.7220144 -1.2834487 -0.21512122 0.5524028 0.09941209
0.5704271 1.7999165 -0.37225124 0.24017653 -0.4547058 -0.53712654 0.20445538 -0.22500506
-0.5519781 -0.0709248 -0.07886575 -0.2552942 -0.22919899 -0.058698963 -0.12953584 -0.40526995
0.1452593 0.47758126 1.0230722 -1.2895229 -0.08100948 1.4476961 0.20058486 -0.57994837
1.6027988 -0.31492242 1.1126348 -1.6880529 1.385157 1.6094736 0.54869145 -0.75438064

actor.4.weight f4 [128, 128]
00000000: cb62 4e3e 1bac d1be 5048 67be cb98 86be
00000010: cbda 37be c344 143e a480 8d3e 7614 873d
00000020: 70e8 c33d 759a 533e 6184 dbbd 16f0 2cbf
00000030: c544 333d 1990 1abf d7bc 4d3e 2f19 84bd
00000040: ec57 30bd ebdb a23e 2ea9 683e 9e5d 723d
00000050: b08b ef3e 1b91 203d 5f62 ab3d 52d0 763e
00000060: f02f 943e beb6 9dbd cd02 68be 3198 1fbe
00000070: 39de 97bd c3fa 00be ef83 0bbe 07b0 b33e
00000080: 28ef a73d 5d88 2ebd 16df bebd cbe2 203e
00000090: fa4d cbbd 3d79 18bd 12b3 e8be f41b fa3e
000000a0: 94ca 6d3e 48ff 8cbf 6699 e23d f18a 823e
000000b0: b773 c53d 6720 a3be ba9a bc3d b980 4d3d
000000c0: c53d 2a3e 6522 c63d 8844 82be d449 fbbd
000000d0: 1cb0 a03d 4203 f73c 0720 c7be c1a8 ce3e
000000e0: 4949 eebe a3d3 903e 13ce 2dbf 35ab 86ba
000000f0: daae 8dbd e86b ba3b 967e f0bd 49d3 653c
00000100: 398a 9a3d b3de 84bc 8866 be3c 08e6 0e3d
00000110: 9f31 483e f2da 903e 77d1 4a3e 91f1 49be
00000120: 9427 043e f775 abbf 0048 65bd 247b fa3b
00000130: f5d6 17be fc5f 6bba fe2a 413e 0b47 37bf
00000140: 0389 23bd 09af 863e ffb7 4dbe 38c2 a0be
00000150: 30bf 30bf 105a 783e 3214 e9be 6558 ba3c
00000160: d558 0fbd 8eb2 e83e ba64 e33d 8b6a b83d
00000170: b828 20be 837e d0bd da90 cebe 1cfe 9d3d
00000180: 429a 1dbe 9932 5f3d 34fa 923e 7e5c 7ebf
00000190: d07b 953e 91c6 19bd c255 fbbd 0fbf e93e
000001a0: e9d3 7d3e f9b9 8cbc cfec 1b3c a18e d73c
000001b0: b5c7 9d3d e550 733b 3c7a b2bd 33c5 76be
000001c0: 1d85 b73d f153 65be dfde 873c ca1c 2dbd
000001d0: 37cd e4bd 122e f0be 1ec6 69be 76cd d23a
000001e0: c421 c73d 0f54 283e c32a a7bc af53 d1be
000001f0: 0750 133d d939 da3c 5963 c5bd a7a8 9bbe
00000200: 6cb1 933d bcd1 0abe 2380 c6bd 2295 18be
00000210: c807 2ebe 9b08 89ba de6e 30bd eb8a d93d
00000220: 5fb4 a4be 0637 d0bc 454c f73d 0071 c6bd
00000230: 81a3 6bbd ab0f a33e 6cac 16be 07c3 cc3c
00000240: 4bb1 f43c 4c6c 1b3d d881 0f3d 4c60 36be
00000250: 38a5 fa3d fad4 b43d b1d6 233d c3e3 093d
00000260: 1f12 41be 4a6d ea3d 8c68 c3bd b43b debc
00000270: 9960 4ebe 8a4b 283e 86c3 fc3c f4c2 dcbd
00000280: b19a 9fbd e46c 993e 0ce8 4b3d 904f 983e
00000290: 0418 9cbd 64fa 14be a3e2 b3bd fc26 bbbe
000002a0: e711 513d d56c 483d 2123 14bd 994d 04be
000002b0: 26e1 993d 20f8 89bc de4f 58bd 7220 15bb
000002c0: 6338 ea3d 8956 3ebe bd7c 1f3e dabc 38bb
000002d0: 6cdc b93c 4808 cdbd c543 c4bd 7d66 8a3c
000002e0: d81d f93d 9489 45bf 19fd 69be 1f2a 973c
000002f0: d750 50bd e040 013e b4c7 2dbe ba11 6a3d
00000300: 3a24 11bd 6b07 eebe 0d91 623d 98d5 1c3d
00000310: 930e 77bd 4a17 67bd d8b2 ffbd 5b4f 823e
00000320: 8209 3b3e 82b5 b73e 04ad 0fbc a812 1bbd
00000330: 1ffb f0bd 5c00 95bd c4e2 6dbd 96d4 88be
00000340: 2764 a33d 6f1c b43e 322a 74be 78d7 303e
00000350: 9bc6 e93d eed2 9abc 5365 543e 3169 8fbd
00000360: bbf8 3ebd 3c2b edbd 12c4 cf3c df0b 3bbe
00000370: c213 613e 4868 27bd e8cf fa3d 49c5 e4bc
00000380: 01ed 003d f26f 18bf 1c72 763d 212a fa3d
00000390: 9798 4cbe 0860 5dbe 5f9d b8bb 0a72 e53d
000003a0: dcf4 8fbd d615 483d 454f e53d 989c 433e
000003b0: 7aad b9bb 37fa a3bc bc64 d23c 202f 4cbe
000003c0: b908 253e fd8a 2c3d 1e2a 2c3e e5cc 96bd
000003d0: d541 5dbd 4217 9dbc 545f 8d3d c360 b13c
000003e0: 6a83 41bd d5e8 6e3b d10d e0bd 9f80 823e
000003f0: 7e2e c1bd 4d59 3cbe d04e 31be e599 34be
0.20154874 -0.4095162 -0.22586179 -0.26288447 -0.17954557 0.14479356 0.27637208 0.065956995
0.09565818 0.2066439 -0.10718609 -0.6755384 0.043766756 -0.60376126 0.20091568 -0.06450116
-0.0430526 0.3180841 0.22720787 0.05917131 0.4678626 0.039200883 0.08368372 0.24102905
0.28942823 -0.07700871 -0.22657318 -0.155854 -0.074154325 -0.12595658 -0.13624547 0.35095236
0.08199912 -0.042610515 -0.09319894 0.15711515 -0.09926982 -0.037224997 -0.4544912 0.48849452
0.23221809 -1.1015406 0.11064415 0.2549663 0.096412115 -0.3186066 0.09209199 0.050171588
0.16625126 0.09674529 -0.2544291 -0.12269941 0.0784609 0.03015292 -0.38891622 0.40363124
-0.46540287 0.28286466 -0.6789257 -0.0010274412 -0.06918116 0.005689133 -0.11742894 0.014027425
0.07545895 -0.016219473 0.02324225 0.034887344 0.19550179 0.28292042 0.19806467 -0.19721057
0.12905723 -1.3395375 -0.055976868 0.007644074 -0.14828093 -0.00089788414 0.18864056 -0.7159278
-0.039925586 0.26305416 -0.2008972 -0.31398177 -0.6904173 0.24253106 -0.4552322 0.022747228
-0.034996826 0.45448726 0.111031964 0.090046965 -0.15640533 -0.1018038 -0.40344888 0.07714483
-0.15390876 0.054491613 0.28706515 -0.9935988 0.29196024 -0.037542883 -0.122722164 0.4565358
0.24787869 -0.017178522 0.009516909 0.026313128 0.07704107 0.0037127074 -0.087147206 -0.24098663
0.08960936 -0.22395302 0.016585765 -0.042263784 -0.11171954 -0.4691015 -0.22829482 0.0016082961
0.09723237 0.16438316 -0.020406133 -0.40884158 0.035964992 0.026638912 -0.0963809 -0.3040211
0.07211575 -0.1355657 -0.09692409 -0.1490064 -0.16995156 -0.0010454835 -0.04307448 0.106221996
-0.32168862 -0.025416862 0.12075094 -0.09689522 -0.057528976 0.3184789 -0.14714211 0.02499534
0.029869696 0.037945077 0.035035938 -0.17810172 0.12238544 0.088296846 0.039999668 0.033664476
-0.18854569 0.114466265 -0.09541425 -0.027128078 -0.20154037 0.16435066 0.030854952 -0.10779372
-0.07793177 0.2996589 0.049781844 0.297482 -0.07621768 -0.14548641 -0.08783462 -0.3655318
0.051042464 0.048931915 -0.036166314 -0.12920226 0.07513647 -0.016841948 -0.052810542 -0.0022754935
0.11436536 -0.18587698 0.15574928 -0.0028188736 0.022688113 -0.10011345 -0.095832385 0.016894573
0.12163895 -0.7716305 -0.22850455 0.018452702 -0.050858345 0.12622404 -0.16970712 0.05714581
-0.03543494 -0.46490034 0.055314112 0.038289636 -0.060316633 -0.056418695 -0.124852836 0.25451168
0.18265346 0.35880667 -0.0087692775 -0.03785959 -0.117666475 -0.07275459 -0.05807759 -0.2672469
0.07978087 0.35177943 -0.23844221 0.17269695 0.11414834 -0.018899407 0.20741777 -0.070024855
-0.046623927 -0.11580512 0.025362048 -0.18266247 0.21980193 -0.040870935 0.12246686 -0.027926104
0.031476025 -0.59545815 0.060167417 0.12215067 -0.19980083 -0.21618664 -0.0056339945 0.11203392
-0.07029125 0.04884895 0.1119676 0.19102705 -0.005666432 -0.020016773 0.0256828 -0.19939852
0.16116609 0.042124737 0.16812941 -0.07363299 -0.05401786 -0.01917613 0.06902948 0.021652585
-0.047244467 0.0036454697 -0.10940135 0.25488755 -0.09432696 -0.1839344 -0.17315221 -0.17636831

actor.4.bias f4 [128]
00000000: 44be 733e bec9 8cbe 088b 54be e1e9 ddbf
00000010: 7a60 de3f b6d4 70be 4d94 123f fb95 bfbe
00000020: 5ec8 b8be 0ad9 0f3c 98d1 4ebf 95eb 6f3e
00000030: 191d c7bf e563 e23e 926d 053f ace8 16c0
00000040: 79b9 b5bd 035b d6bd 2e73 af3e 7394 c63d
00000050: 44f8 79be 8a67 953e ab34 92bd 5ab9 b2bf
00000060: b5bb 353d e926 bcbd 3aa3 0b40 c3a1 0b40
00000070: 65b0 25bf 7bef 0bbf 7a8a 2c3e 60ac f43f
00000080: 5db0 51bd e79f de3e fdf4 39bf 2ee0 1dbf
00000090: ca1a cfbe e0c1 1940 d893 3a3f 032e 683f
000000a0: 1099 f3bb 27a6 893e cfdb cabc 2295 753f
000000b0: 3e3b a8be fefb e83f f2d9 39c0 2f2a c9bf
000000c0: 809a c83f a3fd cd3e 6650 c83f de76 59bf
000000d0: 39a8 35bf 1e50 373f 6bdd 15bf 3532 88bf
000000e0: 052a 303f 65d8 ee3f 30d3 a3be 6a9d 34bf
000000f0: 765a 03c0 3f5b 3bbe 5234 6340 d9b4 8abe
00000100: 97ca 04be cb31 15bf fc9a 053f 9e0b 703e
00000110: 3550 11be f4a8 f5bd f257 0dc0 2c32 17c0
00000120: 75bc c8bd 2d6f 2b40 ccea 513e b4e0 a1bd
00000130: 62f6 32be dbf0 d9be f0db d1bf a24c b33f
00000140: 42f6 fbbd e571 c7bf 5b48 433f 07c3 00be
00000150: c69c aabf 3e78 24c0 d5d2 9abf 39bb d93f
00000160: badd 7c3f d072 b53f 085e 4dbe 4f06 4cbf
00000170: 5d83 65bf 9358 fd3e cd9e f0bf f360 7bbd
00000180: 5bf0 53bf 4905 8c3f ef4b efbf 69ab 3cbf
00000190: fcb6 0f3b 4cf9 243f 33d0 f0be 5e4b d13b
000001a0: e151 833f dd4d ee3e a0f3 93bf 45a7 aabf
000001b0: a6d1 04bf 0141 5dbf 6862 ebbf b727 413f
000001c0: bc82 83bf ea0b 45bf a64c a23e 7ca6 d33e
000001d0: 3334 ddbf 5010 3f3e a080 ed3f 187c 313f
000001e0: c8fb 97bf 4c71 ae3f 9094 513d daa8 983f
000001f0: 75c5 01bf 87ba 733f 12c2 38c0 ee49 00c0
0.2380305 -0.27497667 -0.20756161 -1.7336999 1.7373192 -0.23518643 0.5725754 -0.37419114
-0.36090368 0.0087797735 -0.80788565 0.23429711 -1.5555755 0.44216838 0.52120316 -2.3579512
-0.08873267 -0.10466578 0.34267563 0.09696283 -0.24411112 0.29180557 -0.07138952 -1.3962815
0.044368464 -0.09187109 2.1818376 2.1817482 -0.6472228 -0.54662293 0.168497 1.9115105
-0.051193584 0.4348137 -0.7263945 -0.61670196 -0.40450126 2.4024582 0.7288184 0.9069521
-0.007434018 0.26884577 -0.024763016 0.95930684 -0.32857698 1.8201902 -2.9039273 -1.5715998
1.567215 0.40232572 1.5649536 -0.84947 -0.7095981 0.71606624 -0.5854098 -1.0640322
0.68814117 1.8659788 -0.3199706 -0.70552695 -2.0523963 -0.18296526 3.5500684 -0.270911
-0.12967907 -0.58279103 0.5218961 0.23441932 -0.14190753 -0.11995116 -2.2084928 -2.3624372
-0.0980157 2.6786606 0.20499724 -0.07904187 -0.174768 -0.4256657 -1.6395245 1.4007761
-0.12302829 -1.5581633 0.7628228 -0.12574397 -1.3329093 -2.569839 -1.2095591 1.7010261
0.9877583 1.4175663 -0.20055401 -0.79697126 -0.8965357 0.4948164 -1.8798462 -0.061371755
-0.8278863 1.0939113 -1.8695048 -0.7369905 0.0021929136 0.64442897 -0.47033843 0.0063871583
1.0259362 0.4654378 -1.1558723 -1.3332297 -0.518824 -0.86427313 -1.8389406 0.75451225
-1.0274272 -0.76971304 0.31699103 0.41337955 -1.7281555 0.18658566 1.8554878 0.6932998
-1.1873713 1.3628325 0.05116707 1.192653 -0.5069192 0.95206493 -2.886845 -2.0045123

actor.6.weight f4 [128, 128]
00000000: 3b20 babe 2d34 a8be 864f 2b3f 4418 69be
00000010: f5ee 2e3f 879f 24bf 68b6 a73d d3ab babe
00000020: aa0f 243e b88a 063c 174d 003e 984b f7be
00000030: 7a71 0d3e f3c3 d23e f05d 083f 4136 c9be
00000040: 53da 2bbc 3041 9e3c 1433 9c3c 0094 523e
00000050: 5e7d da3d 5f67 ff3c 19b5 8e3d 32b1 d0be
00000060: 2064 ba3d 3502 3c3c 575d 62be e2eb 303e
00000070: 036b 67be ac23 663e 6502 f6be 9d6d 85bf
00000080: 4faa 1c3e ca81 bb3e dce4 023f 012a a6be
00000090: 438e 00bf 0afb 7d3e 1103 0dbf d9af 74bf
000000a0: 9809 2abf 50ba 81be 8d21 2f3d b7fb f93e
000000b0: 4a5e cfbe ecc8 e83e f2b9 803e 66bc 97be
000000c0: bd45 9abc ecc3 c13d 066e afbe 5211 34bd
000000d0: e4e8 92be 68c4 033f 5760 f43c 1266 f6be
000000e0: e2ae d6bf c69a acbf 0963 3f3e 4d05 c1be
000000f0: f13c 35bf 6cb0 4fbe af8d cf3d 3e27 edbc
00000100: fcdd e3be 5e25 893e 542f f0bd bfc9 8fbc
00000110: ea61 983c 51c3 ff3e d560 e2be 216d 2f3e
00000120: b86d 77be 7672 9d3e e0b1 d83e bc78 64bf
00000130: 12d2 453e c9e9 69bd 4d17 dcbe 51f6 fcbd
00000140: 04da 23bf 4306 c4be e2a5 1abe b6f0 2dbe
00000150: ab48 33be f069 05bf 4aef 2ebe 1775 053e
00000160: 3bcd 193e 11c4 bdbe 8e9b 1cbd 8284 313e
00000170: 33c8 ccbe 088e f23e 7861 adbe a2bd 8bbd
00000180: 0bfd 31bf bd9f 16be 74ef cebe b1ef 49bf
00000190: e3ee dc3e b962 4f3e cf41 56be 11ce aabe
000001a0: 146e 343e a677 e8bf 6d06 783e e6fa eabe
000001b0: 3bbb cabe 068b 5ebe 4bb8 c2be 646e b9be
000001c0: afc9 d5be 58dc 8a3e 5b0e a4bc 8284 93be
000001d0: e25f 8a3e b757 3d3e a57c 49be b3f8 7ebd
000001e0: 6c75 2fbf 1ee0 0ebe b470 28bd 0bc0 30be
000001f0: 0c96 a7bd 0669 873e 92d9 4bbe 30c9 96be
00000200: 3cff 443e fb01 64be a7cf 93bc 2d8c f13d
00000210: 3634 89be 9f14 003e d504 1cbe b3a4 75bd
00000220: f348 053f 716c 81bd 26d3 953e e5b8 20bf
00000230: b3dc 9c3e 32d1 5bbf cc88 e2be 515e 80bd
00000240: 55a8 8f3d 38bb aabd add8 24bf c047 3bbb
00000250: 8262 57bc 08e9 14be 6150 70bd 37fd 21be
00000260: c8d6 8c3e 1622 5dbe ea51 6cbd d576 a2be
00000270: 6578 a2bf 2673 6abe 8f0b a1be 67b9 2fbe
00000280: 79c8 c4bd c987 533d e2b9 bf3e eb30 5e3d
00000290: 632a 54bf 7ac5 7b3c a57c 29bf 3059 1c3e
000002a0: de0d 8cbe 451f e3bc 0c12 ca3e 0d1e 5cbf
000002b0: cf99 963d 1f13 bd3e 1a09 10bf 3987 49be
000002c0: e32b 133d 8b7d b43c cfd4 bf3e 5049 dfbd
000002d0: 64c8 e63d 4742 34be 3113 9f3e adca babe
000002e0: 504d 11be bc48 9c3e 40d5 05bf 1176 023f
000002f0: af58 84be fceb 33bd 979f 0a3f 1a9e 11be
00000300: b11b a9bd fe2c 5bbf 6304 43bf 1ecc 673e
00000310: f6a2 2c3d 97d3 ccbe 72a0 25bf 6022 173f
00000320: 4e64 53bc 2917 83bf 25f3 bf3e 735c 3cbf
00000330: 95cb 3fbe 3389 0cbe dc43 2abf a846 1f3d
00000340: df92 f13d 4212 55be 09b7 bb3e 74bc 663e
00000350: 41e0 1dbe 9ebb ba3d dbf7 d5bd c0d9 7f3e
00000360: 37b8 773e fd1e 68bf 9916 bb3c bbc0 48bf
00000370: 43f0 5f3d ce1f 56be 2b1d 9a3e 1572 0dbc
00000380: 0252 a8be cd89 49be 1d08 ccbd a9b1 89be
00000390: 6918 b5be 2b86 5bbe 8a28 603d fa08 1dbe
000003a0: e45b 7c3e aa32 c3be bdd6 98bd 7268 75bf
000003b0: c656 90bf de50 06bf 5a48 33bf 3fc0 e03c
000003c0: 1077 19bf ba3b b9be 2de0 09bf d8dc 20be
000003d0: 5bd6 263e 0993 263e 7bf9 9dbc 0235 1f3c
000003e0: 16e5 3a3c 6a13 f6be 4288 3ebf b256 c3be
000003f0: 8ac6 e3be f7ea f53b a58d 88bf 671d ce3e
-0.36352715 -0.32852307 0.6691822 -0.22763163 0.6833337 -0.6430592 0.08189088 -0.36459216
0.160216 0.008211784 0.12529407 -0.4829986 0.13812819 0.41165122 0.5326834 -0.39299205
-0.010489064 0.019318193 0.019067325 0.2056427 0.10668443 0.03117722 0.069681354 -0.4076019
0.091011286 0.011475136 -0.22105919 0.17277482 -0.22599415 0.22474545 -0.48048702 -1.0424076
0.15299343 0.3662246 0.5113046 -0.3245392 -0.50217074 0.24802795 -0.55082804 -0.9558082
-0.6642089 -0.25337458 0.042756606 0.48824856 -0.40501624 0.4546579 0.25141865 -0.29635924
-0.018832082 0.09461197 -0.3426363 -0.04396183 -0.28693306 0.5147157 0.029831095 -0.48124748
-1.677212 -1.3484733 0.18690123 -0.37699357 -0.70796114 -0.20282143 0.10134446 -0.028949376
-0.44505298 0.2678632 -0.11727777 -0.017552255 0.018601377 0.49953702 -0.44214502 0.17131473
-0.24162948 0.3075139 0.42323208 -0.89246726 0.19318417 -0.05710772 -0.42986527 -0.123516686
-0.6400454 -0.38286027 -0.15102342 -0.16986355 -0.1750819 -0.5211477 -0.17083469 0.13032947
0.15019695 -0.3706365 -0.038234286 0.17335704 -0.3999649 0.47373986 -0.33863425 -0.06823279
-0.6952674 -0.14709373 -0.40417063 -0.78881365 0.43151006 0.20252503 -0.20923541 -0.3336034
0.17620116 -1.8161514 0.24221201 -0.45894545 -0.3959597 -0.2173272 -0.3803123 -0.36217034
-0.41755435 0.27121234 -0.020026376 -0.28812033 0.27026278 0.18490492 -0.19676454 -0.062248897
-0.68538547 -0.13952681 -0.041123107 -0.17260759 -0.08182916 0.26447314 -0.19907215 -0.2945037
0.19237989 -0.2226638 -0.018043352 0.117943145 -0.26797646 0.12507866 -0.15236218 -0.059971523
0.52064437 -0.06319512 0.29262656 -0.62782127 0.3063713 -0.8586608 -0.44244993 -0.062679894
0.07014529 -0.083364904 -0.6439312 -0.0028576702 -0.013146045 -0.1454202 -0.058670405 -0.1581925
0.27507615 -0.21595034 -0.057695307 -0.31731287 -1.2692991 -0.22895488 -0.3145413 -0.17160569
-0.096085496 0.051643167 0.37446505 0.05424587 -0.82877177 0.015366906 -0.6620582 0.15268397
-0.2735433 -0.027724871 0.39466894 -0.85983354 0.073535554 0.3692865 -0.5626389 -0.1968049
0.035930526 0.02203252 0.37467048 -0.10902655 0.1126869 -0.17603408 0.3106933 -0.36482754
-0.14189649 0.30524242 -0.5227852 0.50961405 -0.2584891 -0.043926224 0.54149765 -0.14220467
-0.08257235 -0.8561553 -0.7617857 0.22636458 0.0421476 -0.4000518 -0.64697945 0.5903683
-0.0129023325 -1.0241443 0.37490192 -0.73578566 -0.18730004 -0.13724212 -0.66509795 0.038885742
0.117955916 -0.20807746 0.36663082 0.22532827 -0.15417577 0.091178164 -0.10447665 0.24985409
0.24191366 -0.90672284 0.022837924 -0.78419083 0.05467249 -0.2091057 0.30100378 -0.008633156
-0.32875067 -0.19681473 -0.09962485 -0.26893356 -0.35370186 -0.214379 0.05472616 -0.15335456
0.24644428 -0.3812459 -0.07462833 -0.95862496 -1.1276481 -0.52467144 -0.70032275 0.02743542
-0.599473 -0.3617838 -0.5385769 -0.15709245 0.16292708 0.16267027 -0.019284 0.009717228
0.011407157 -0.48061687 -0.7442666 -0.3815208 -0.4448741 0.0075048166 -1.0668226 0.40256807

actor.6.bias f4 [128]
00000000: 3660 d53d e684 e33d 8b86 47bf 8d63 b5bf
00000010: 5550 63be 9d78 9f3e ce49 e83e 77dd b63e
00000020: ec88 47be 50ea e13e d8b1 e8bf 63d1 90be
00000030: 549c 08bf 6c77 083e 3af2 0bbf 142c 75bc
00000040: 0431 74be 2e70 09be 25f1 4f3e cd61 813d
00000050: 7627 abbf bf6a 0d3e 03e4 96bf 31b6 01bf
00000060: 9720 5cbe 6409 0abf c45f 463f 9f81 e43e
00000070: 6e2b 85bb 4dcd 563e eb10 97be 7f86 443f
00000080: c447 c03e 26e8 f13b f138 01be 66b5 7f3e
00000090: a326 4f3c 7a64 d1bd b10b 1bbf 640a 8abf
000000a0: 289c a9bd 1d6f 0cbe 4446 283f c309 4fbf
000000b0: d75f 933e 52ee 16be 18ad 92be 61d7 87be
000000c0: f8d1 e03d c441 c53e 9f65 bebe d1de 973e
000000d0: f635 043f f08a a33f 0310 37bf ac89 0cbe
000000e0: a0cf 6abf 6d55 b73e 6c9a 12bf b753 e53d
000000f0: a84a cbbe 236d f53d a402 8c3e 5fde d83e
00000100: 2074 09bf 3e38 ff3e 6241 e03e 2907 2ebf
00000110: ff5b aabd c588 61bf 1904 b03e bfd4 17c0
00000120: bd9f 3c3f fe89 28c0 2ab6 63be 1f17 c8bb
00000130: d3c6 223f a2af 05bf 1b25 2ac0 4915 873e
00000140: cde6 d13e 8bcd 253f a9e9 e6bd 3336 86be
00000150: 411a c7be 5a17 5b3f 8e93 19be 5bc3 d03e
00000160: 66e1 1ac0 3656 c5bd d76d 0bbc 871a 163f
00000170: 7c2c 6c3e 23dc 81be 5f05 42c0 b247 82bf
00000180: b8b0 4dbe 310b dabe ab7e 12be 19e6 e73e
00000190: 40d6 5cbf cf4f b2be f0b0 adbe 2f8a ab3e
000001a0: 0851 6cbf 843c 1a3f 5eb8 28bf 53b9 41bf
000001b0: d7b9 cf3e 919f 92bd aaf2 1fbe c8ce ef3d
000001c0: ab8c 0fbe 256f b5be 6431 0fbf ad95 d33e
000001d0: dacf a2be cbdb 313d 4339 88bf fd4b f6bf
000001e0: 2ad6 f03e 984c 943e 4136 253f 1e50 d5bd
000001f0: a66e e7bd e82d 3fbe caf7 4cbe 72c0 4a3f
0.104187414 0.11109333 -0.7793967 -1.4171005 -0.22198613 0.31146708 0.45368809 0.3571584
-0.19485825 0.4412408 -1.8179274 -0.2828475 -0.5336354 0.13326806 -0.54666483 -0.014964122
-0.23846823 -0.134217 0.20306833 0.06317482 -1.3371418 0.13810252 -1.1788334 -0.5066863
-0.21496807 -0.5392058 0.77489877 0.44630143 -0.004064015 0.20976754 -0.29505095 0.76767725
0.37554753 0.0073824106 -0.12619378 0.24971542 0.012643489 -0.102242425 -0.60564715 -1.0784421
-0.082817376 -0.13714261 0.65732217 -0.8087427 0.28784057 -0.1473935 -0.28647685 -0.2653151
0.10977548 0.38526738 -0.37186906 0.29662183 0.5164484 1.2776775 -0.71508807 -0.13724393
-0.9172306 0.35807362 -0.5726688 0.11197608 -0.39705396 0.11983707 0.27345765 0.42357156
-0.5369282 0.49847597 0.43799883 -0.67979676 -0.08318328 -0.8809932 0.34378126 -2.37236
0.7368124 -2.6334224 -0.22237459 -0.006106272 0.6358463 -0.5222112 -2.6585147 0.26383427
0.409964 0.6476676 -0.11275036 -0.26213226 -0.38887218 0.85582507 -0.14997694 0.40774044
-2.4200072 -0.09635584 -0.008510075 0.5863423 0.23063844 -0.25363263 -3.0315778 -1.017813
-0.20086944 -0.42586663 -0.14306132 0.45292738 -0.8626442 -0.34826514 -0.33924055 0.33503863
-0.92311144 0.6024859 -0.6590632 -0.7567341 0.40571472 -0.07159341 -0.15619913 0.11709362
-0.14018504 -0.3543636 -0.5593474 0.4132513 -0.31799203 0.0434225 -1.0642475 -1.924194
0.47038394 0.28964686 0.6453591 -0.10415672 -0.113004014 -0.18669856 -0.20016399 0.791999

actor.8.weight f4 [1, 128]
00000000: 4609 fa3d c335 06be 1814 23be 7568 093e
00000010: 36dc 063e 9788 3b3e 3582 673d 2932 763d
00000020: 5f7f e53c ab92 8f3d 1ce2 aabd 1fb7 cbb9
00000030: e898 61be 55f5 98be 99ec 24be 8d12 a2bd
00000040: b9b1 b0bc 0ac0 5f3e 914a 473e 270b 0fbe
00000050: 9452 9ebd 1988 debd a9d5 683d c460 e33c
00000060: ce1f 2d3c 6d1c 1abe b150 89bd 2324 5b3e
00000070: 4408 143e e418 b63d 4f93 d13c a8d6 5bbd
00000080: c060 c73d 26bf 0f3e 21d1 1cbe c7c7 b83d
00000090: 7aae 503e 6442 703c 6b04 4b3e f1e5 883d
000000a0: d0a3 ad3d 255c 2ebd f0ee a9be 078e 673d
000000b0: 133a e03d 71c5 46bb 14cf 6f3e 3033 113c
000000c0: 3c99 243e a91b 01be dc16 11be 3558 4dbe
000000d0: 3c52 07bb 0b48 93bd a0fe 943d e7c6 1fbc
000000e0: 9125 2f3e ac72 3cbe 3d70 89bd 841e 3ebe
000000f0: 245b 8fbd b7bc c33d 4f12 7fbd 06e6 363e
00000100: df9e e0bd 0b22 56bd 0fbd 25bd a57b 2e3e
00000110: d59e ec3d d87d e3bd 341f c93d b1bb 143d
00000120: 994d b2bd 5599 47be aaf5 33bd 644f 2cbe
00000130: ca21 85be f33d 443d 2895 f43d 04bd d73d
00000140: 7357 c43d 6687 c73d 9404 ff3c dcbc c63d
00000150: a2c5 bfbd 81cc 903d 3da7 9b3e b9d4 0dbd
00000160: 3bb6 f13c 147d 953c 1942 1e3e d762 14bd
00000170: e54b 453d 4d8e 25bb e277 4e3d 6820 21bd
00000180: cf67 bbb9 98b2 943d f5f3 2dbe fc47 193e
00000190: 5663 003e 6685 a5bd c664 623e 81aa 92bd
000001a0: 1103 f23d c967 6fbe cd73 c6bd 4dcc e33c
000001b0: 767a 0f3e 39b4 463d c69b 93bd 19bd 4abd
000001c0: 5944 20bb 2434 9abd 691f f3bd 7a14 b03d
000001d0: e70c 8c3d 030a fbbd de88 aebd 5dda 503e
000001e0: 8fe1 32bd 0cfc 15be d7ad 74be 5325 d73d
000001f0: f8b3 7abe df17 15bd c7fa cebd 5a81 a93d
0.122088 -0.13106446 -0.15925634 0.13418753 0.13169941 0.18313824 0.05652066 0.06010643
0.028014837 0.070103966 -0.08343908 -0.00038855613 -0.22030985 -0.29874673 -0.1610588 -0.079136945
-0.02156912 0.21850601 0.19462039 -0.13969098 -0.07730594 -0.10865802 0.056844387 0.027756102
0.010566665 -0.15049906 -0.06704844 0.21400504 0.14456278 0.08891466 0.025582938 -0.05367151
0.097352505 0.14037761 -0.15314151 0.090224795 0.20379058 0.014664266 0.19825904 0.06684483
0.084785104 -0.042568345 -0.33190107 0.056531932 0.10948577 -0.0030330087 0.23418838 0.008862302
0.1607408 -0.12608208 -0.14168876 -0.2005318 -0.002064838 -0.071914755 0.07275128 -0.009752012
0.17104174 -0.18403119 -0.06710861 -0.18566328 -0.069998056 0.09557479 -0.06227332 0.17861184
-0.10967802 -0.05227856 -0.040463503 0.17039354 0.11553732 -0.11107987 0.09820405 0.03631181
-0.08706207 -0.19492085 -0.043935455 -0.1682716 -0.26002342 0.047910642 0.11942512 0.10534099
0.09586992 0.09742622 0.031130113 0.09703991 -0.09363867 0.07070256 0.3040103 -0.034626696
0.02950584 0.018248118 0.15454902 -0.036227074 0.04816808 -0.002526182 0.050407298 -0.039337546
-0.00035744763 0.072606266 -0.16987593 0.14968866 0.12537894 -0.08082084 0.22108755 -0.07161427
0.11816991 -0.23379435 -0.09690056 0.02780738 0.14011559 0.048511717 -0.07207446 -0.049496744
-0.00244548 -0.07529476 -0.118712254 0.085976556 0.068383984 -0.12257769 -0.08522199 0.20395799
-0.04367214 -0.1464693 -0.2389444 0.10505166 -0.24482715 -0.03639972 -0.10106426 0.08276625

critic.0.weight f4 [128, 205]
00000000: 55ea 3b3d c953 213e 7a16 a63e 290b 2ebd
00000010: 3887 cdbe fdbd 613d 20a8 843e 5716 62bd
00000020: 7580 cbbe 9062 16bd 69fa b13e 6a9d 8abd
00000030: 4bbd dcbe 244d d3bc 5bb1 9b3e 677f ec3a
00000040: 7637 d9be 7933 7d3d 766c 9d3e 943a 06bd
00000050: 041a 95be 4809 763c d6af 7a3e 49d9 093c
00000060: 6e88 c1be c91e c43d a392 a43e e891 d6bd
00000070: e21f 99be 76e0 fe3c 95d1 ac3e 4acf debd
00000080: 001e 8abe 4145 353c e526 b63e 9b49 12bd
00000090: ece7 31be 07c4 a13d cf2a 943e 8b98 dfbc
000000a0: 866a 23be ccb6 de3d 300f 9c3e 72ff c1bd
000000b0: a2b9 0cbe 1f9b ad3d 3b2b a43e 7f1e ffbd
000000c0: 0197 bfbd 4d41 513d ce96 5f3e 56b9 3abd
000000d0: f5f0 1fbd d15b 933d 0fe9 783e c4f5 9abd
000000e0: e9b6 71bd f722 47bb 645e 9a3e e344 33bb
000000f0: 6a4b be3c eb75 c43d 000f 733e 264d 91bd
00000100: aeba 8abb a80b d83d 66bc 743e bc53 bebd
00000110: 8bc5 7ebc c455 f73c 3f40 aa3e c5ea 143c
00000120: 7278 953c 7bf0 a53d 24bd 7a3e 93ea 95bd
00000130: cf9f 25bd 5ac3 acbc 36b6 713e a875 02bd
00000140: 5a99 183d fabe ae3d 3215 9c3e 1343 93bd
00000150: 3aeb 273d 879c f53c f3ea 893e 0288 28bd
00000160: b6f1 b13c c134 dcbc e46e 933e 6f96 e3bc
00000170: c182 7c3d 222f bd3d eb4a 423e 5eb5 81bd
00000180: f1dc 8a3d a4e9 87bb 2be5 883e da89 b9bd
00000190: 3182 7d3c 754c adbc 1ec5 403e 94d2 023d
000001a0: a4d4 ed3d 7838 1c3d e1ac 5a3e 2858 91bd
000001b0: 89e2 d0bc 7bec 18bd 1109 473e 6ef6 02bd
000001c0: b14a 903d d3f7 d83c 3cc9 9f3e fbc0 89bd
000001d0: ecd6 64bd 7020 453c e594 693e 0682 7abd
000001e0: f50a 46bc 084f 1cbd e88d 563e 736e c2bc
000001f0: 358b 4abc 7d1b 71bd 994a 873e df43 8c3c
00000200: bb21 7ebd 088e 013d 3e00 8f3e 09e3 cd3c
00000210: 6008 2d3d 4521 6ebd 8eeb 643e b945 433d
00000220: f263 4ebd 9fef dfbc 4a84 5c3e 5097 01bd
00000230: 8252 693d bfc5 c43b 9372 2c3e da48 b43c
00000240: b5f6 bf3b ad43 f9bb a322 593e 7ea2 7dbc
00000250: 2af5 63bb 0a0a afbd 2135 593e 8e36 2b3d
00000260: 673d b13c c80a d1bc c3b7 173e 5d0d 353d
00000270: d952 14bc 861d 1abc 9e5c 4d3e 0e0f 1bb9
00000280: ec24 983c f6dd ecbc b6c0 693e 818e 59bd
00000290: de06 d43c b466 19be f75b 2f3e acdd 0c3d
000002a0: 29e4 233d 7b79 1ebe bace 633e e450 debc
000002b0: e06a 8f3c a207 0fbe 14be 8a3e 5692 2d3d
000002c0: 0267 933c 7595 49be f295 893e bdca 1d3d
000002d0: a124 9b3c b8bb 08be 60f5 453e 3daf 983c
000002e0: 0876 563c e184 3bbe ac90 493e e3bc 3fbc
000002f0: 7059 9339 89a3 3cbe 8482 533e 057c 0ebd
00000300: 547c 493d 1094 20be 772d 1e3e c5a3 39bd
00000310: 8fdb 32bc d585 71be 1789 213e d5d1 023c
00000320: 1bfc 1cbd 631f 96be cfb5 873e 54f0 99bc
00000330: 7b51 343d c185 96be 8120 06be 209d 553e
00000340: a007 15bd 3274 713e fa09 8ebe e868 be3d
00000350: bc0f 47bd ac9c 863e 9875 8abe c3f3 5c3e
00000360: b4cf 44bd 23bd 523e a8fe 35be 2901 0a3e
00000370: 45cf 67bc 910a 263e 4093 8dbe cc77 ee3d
00000380: c491 e5bd 545b 333e bf7d 43be 321e b93d
00000390: 8798 c2b8 3b6e e33d e627 57be 73c0 0f3e
000003a0: 53c3 a5bd 02a8 f03d 79c5 3bbe 3799 533e
000003b0: 1110 a1bd b25a 473d 3253 dcbd bad2 393e
000003c0: d9bc 01be d618 cd3d 65cb ddbd e9d8 383e
000003d0: 4f67 f3bd 8ce1 103e 3a2b c8bd c4b4 c43d
000003e0: a9bc 31bc 22e7 303e 2f99 0abd 62ff b33d
000003f0: e1e0 b5bd 4b46 d93d 493f ffbd b692 b43d
0.045877773 0.15754618 0.32439023 -0.042491112 -0.40142226 0.055112828 0.2590952 -0.055197086
-0.39746442 -0.03671509 0.3476136 -0.067683056 -0.4311317 -0.02579362 0.3040875 0.001804334
-0.42425126 0.061816666 0.30746812 -0.03277071 -0.2912141 0.015016861 0.24481139 0.008413621
-0.377994 0.09576184 0.32143125 -0.10477048 -0.29907137 0.03111289 0.33753648 -0.10879381
-0.26976013 0.011063875 0.3557655 -0.035714727 -0.17373627 0.078987174 0.2893891 -0.027294418
-0.15958604 0.108747095 0.30480337 -0.094725505 -0.13742688 0.084768526 0.32064232 -0.124569885
-0.093549736 0.051087666 0.21834871 -0.045586906 -0.039048154 0.07195247 0.24307655 -0.07566407
-0.059012327 -0.003038583 0.3015014 -0.0027354292 0.02322932 0.095928036 0.23736191 -0.07094793
-0.0042336797 0.10549098 0.23899993 -0.09293315 -0.015550028 0.030192263 0.3325214 0.009089177
0.01824591 0.08102509 0.24486214 -0.07320132 -0.04043561 -0.021089245 0.23604664 -0.031850487
0.037255622 0.0853252 0.3048492 -0.07190528 0.040995814 0.029981865 0.26937065 -0.041145332
0.021721702 -0.026880624 0.2879554 -0.027781693 0.061648134 0.092375055 0.18973891 -0.06333421
0.067804225 -0.004147725 0.2673734 -0.09059496 0.015472935 -0.021154622 0.18825194 0.031939104
0.116128236 0.03813979 0.2135501 -0.070968926 -0.025498645 -0.0373349 0.19437052 -0.031973295
0.07045496 0.02648536 0.31208217 -0.06726261 -0.055869028 0.0120316595 0.22810705 -0.061159156
-0.012087573 -0.038161308 0.2095257 -0.023734307 -0.012362291 -0.058864105 0.264241 0.017122207
-0.062043887 0.031629592 0.27929872 0.025132673 0.042244315 -0.058137197 0.22355482 0.047673915
-0.050388284 -0.02733594 0.2153484 -0.031638443 0.05696345 0.0060050185 0.16840582 0.022007395
0.005858267 -0.0076069445 0.21204619 -0.015480636 -0.003478358 -0.08546837 0.21211673 0.041800074
0.021635724 -0.025517836 0.14816193 0.044202197 -0.009052956 -0.009406453 0.20054862 -0.0001478756
0.018572293 -0.028914433 0.2282742 -0.053114418 0.02588218 -0.14980584 0.17124926 0.03439109
0.040012512 -0.15476029 0.22246829 -0.027138181 0.017507017 -0.13967755 0.27098143 0.042375885
0.017993454 -0.1968592 0.26872212 0.038523424 0.018938364 -0.13352859 0.19331884 0.018638248
0.013089664 -0.18312408 0.19684094 -0.011702749 0.0002810466 -0.18421759 0.20655257 -0.034786243
0.049190834 -0.15681481 0.15447031 -0.0453222 -0.010916605 -0.23586209 0.15774952 0.007984598
-0.038326364 -0.2932082 0.26505896 -0.018791355 0.04402302 -0.2939892 -0.13098337 0.2086072
-0.036384225 0.23579481 -0.27741987 0.09297353 -0.04859899 0.26291406 -0.27042842 0.21577363
-0.048049644 0.20579962 -0.17772925 0.13477005 -0.014148538 0.16214968 -0.27651405 0.11643943
-0.11209443 0.17515308 -0.19090937 0.090389624 -9.279051e-05 0.11105009 -0.21011314 0.14038257
-0.08093896 0.11750795 -0.18337049 0.20663916 -0.078643925 0.04867048 -0.10758056 0.18146792
-0.12669696 0.10014503 -0.1082981 0.18051495 -0.11884939 0.1414854 -0.0977387 0.09604791
-0.010848203 0.1727567 -0.033837494 0.08788945 -0.08880783 0.106091104 -0.124632426 0.088170454

critic.0.bias f4 [128]
00000000: 20ad 403f abd2 bf3e b4df 1f3e 128a 2ebe
00000010: 7f92 9bbd 7171 d3bd e3eb be3e 0ba5 333f
00000020: 5d5c 093f 830a 073e a22a 30be e96a 1a3f
00000030: 241d 8ebd c24d 413e 4347 88be 3500 7c3e
00000040: 3974 053e 2914 873e 8d3a 593f 3a49 40be
00000050: fefa 5d3d dd4d 2bbe ea62 873e adb1 803f
00000060: 1c88 d0be c560 733e 6d62 d7bd 519c 973e
00000070: 092b d2bd b7f1 9d3e 5e82 293f a9bb a1bd
00000080: fed7 093e 5656 c3bd de21 afbd 5b53 c23d
00000090: 191f 9f3b 1e89 d7be c97b 78bc e421 b9bd
000000a0: 7ec6 a1be f3ae 293f 680b cc3d 3ed1 37bd
000000b0: 146e af3e 4c1d cf3e 5d4d a7be 54e1 debd
000000c0: c3e2 fd3e e9c6 96bd fc7a d43e b1ff efbd
000000d0: 0a02 5f3f c5bd a63c b40c 01be e16a 06be
000000e0: 9733 5d3e 29e4 a13d 3875 7bbe 37c4 ad3c
000000f0: ef91 793e 5812 c0be 2f4d b03c 255f 9fbe
00000100: 8579 ba3e 088a 9ebd b303 3f3f 1656 f73e
00000110: 3623 14be d9f3 c43d 30b1 3f3e d437 fe3e
00000120: f3c1 343e 28eb 8aba 20dd 98be c727 683e
00000130: 21da cbbd d4ea 8bbe 1002 2abe c5ab 8d3e
00000140: a94e 2cbb 48a9 64be ca1f bbbd 1a67 853e
00000150: 9cb2 a4bd f699 e9be a198 863e fb16 983c
00000160: a8c9 42be 8916 d73e 4a7d 2d3f ed59 5c3c
00000170: 74b0 98bd 978d a43e 3850 243e e744 883e
00000180: e6bc 8dbd e023 193e d06c 163e 037e 783e
00000190: 638c a8bb 7e10 ccbd b69d 2c3f e673 40be
000001a0: 20a1 f23e 4bc7 7f3d d3b9 033d f2af 313b
000001b0: e8ce 463e a0f2 c63e b5e8 5cbd ec3c 1a3f
000001c0: 3249 613e b272 9ebe bf1d 3abe 7665 3ebe
000001d0: 3183 b1be d7dc b13e 5565 9bbd 5a4e 853e
000001e0: 589c 89be 4072 8cbe fb5e adbd 7a90 ca3e
000001f0: e087 20be b223 d4bd 057f 28bd aed4 363f
0.7526417 0.37465414 0.1561268 -0.17044857 -0.07596301 -0.103243716 0.37289342 0.7017371
0.5365656 0.13187604 -0.17203763 0.6031938 -0.06939152 0.18877319 -0.26616868 0.24609454
0.13032617 0.26382568 0.84854966 -0.18777934 0.054194443 -0.16728921 0.26442653 1.0054222
-0.40728843 0.23767383 -0.1051682 0.29611447 -0.102621146 0.30848476 0.6621455 -0.078971215
0.134613 -0.09537952 -0.085513815 0.09488555 0.004856002 -0.420968 -0.015166231 -0.09039667
-0.3159675 0.66282576 0.09963113 -0.044877283 0.3426367 0.4045204 -0.3267621 -0.10882822
0.49587068 -0.07362158 0.4150008 -0.11718691 0.87112486 0.020354161 -0.12602502 -0.13126709
0.21601711 0.07904846 -0.24556434 0.021211727 0.24372075 -0.37513995 0.021521179 -0.31127277
0.36420837 -0.07741171 0.7461502 0.48307866 -0.14466557 0.09616823 0.18719935 0.49651968
0.17652111 -0.0010598646 -0.29856205 0.22671424 -0.09953714 -0.27327597 -0.1660235 0.27670112
-0.0026292002 -0.223302 -0.09136923 0.26055223 -0.080418795 -0.45625275 0.26288322 0.018565645
-0.19022238 0.4200938 0.677693 0.013449174 -0.07455531 0.32139274 0.16046226 0.26615068
-0.06920795 0.14955091 0.14689946 0.2426682 -0.0051436885 -0.09964083 0.6742815 -0.18794212
0.47388554 0.06244592 0.032159638 0.0027112928 0.19414866 0.38856983 -0.053932864 0.6024921
0.22000578 -0.3094688 -0.1817541 -0.18593392 -0.34670404 0.347388 -0.07587687 0.2603634
-0.26877093 -0.27430916 -0.08465382 0.39563352 -0.15676832 -0.10358371 -0.04113676 0.71418273
