experiments/exp048_delta_ppo/.ckpt.pt (torch, 260300 bytes, 12 tensors)

actor.0.weight f4 [128, 54]
0	0xbe598863	-0.21243434
1	0xbe199f5a	-0.15002194
2	0xbdaeb2ca	-0.08530195
3	0xbcab4188	-0.020905271
4	0xbdf9ea31	-0.122028716
5	0x3c9fd49e	0.019510563
6	0xbd5d242d	-0.053989578
7	0x3be26b5e	0.006909772
8	0x3deada8e	0.11467467
9	0x3d879742	0.06620647
10	0x3e007d2a	0.12547746
11	0x3e06da71	0.13169266
12	0x3c748d12	0.014926212
13	0x3dcb13b9	0.09915871
14	0xbd9e5dc2	-0.07732727
15	0xbddbc698	-0.10731238
16	0x3db1522e	0.08658253
17	0x3dc9d756	0.09855525
18	0xbdbbf759	-0.09178037
19	0xbd060d4c	-0.032727525
20	0xbd3fd0a0	-0.04682982
21	0xbdaff344	-0.08591321
22	0xbdcd14b7	-0.10013717
23	0xbc25158f	-0.010075941
24	0xbb394209	-0.002826812
25	0xbb3de9ee	-0.0028978544
26	0x3da4e71c	0.08051893
27	0xbca0e0a9	-0.019638376
28	0xbdadd937	-0.08488696
29	0x3d6e2bac	0.058147117
30	0x3c7f17e3	0.01556966
31	0xbc5f312c	-0.013622563
32	0xbcab98f2	-0.020946953
33	0x3d74b0c9	0.059738908
34	0x3d84a422	0.06476618
35	0x3d832700	0.06403923
36	0x3ca11066	0.01966114
37	0x3dd0ad03	0.10189249
38	0xbcde69c1	-0.027150037
39	0x3ddb252d	0.1070045
40	0xbdd1713c	-0.10226676
41	0x3de162c0	0.11005163
42	0xbdde1019	-0.10842914
43	0xbd72de05	-0.059293766
44	0x3d4408ea	0.047860064
45	0x3dcda4d4	0.10041204
46	0x3c50bd09	0.012740382
47	0xbddf472d	-0.109022476
48	0xbdc41645	-0.0957456
49	0xbe099a7e	-0.1343784
50	0xbd8a38b5	-0.06749097
51	0x3dff2253	0.12457719
52	0xbdc6ffd0	-0.09716761
53	0x3dc722cc	0.09723434
54	0xbe238fde	-0.1597285
55	0x39d7b5ea	0.00041143532
56	0x3df73c8e	0.12072097
57	0x3e0c2ce9	0.13689007
58	0x3dcc3583	0.09971144
59	0x3d9130a2	0.07089354
60	0x3ddff5fe	0.10935591
61	0x3d2dccdb	0.042431694
62	0xbdc86079	-0.09784026
63	0x3b9e626f	0.0048335115
64	0xbdb22188	-0.08697802
65	0xbdcbe431	-0.099556334
66	0x3cbf7ffc	0.023376457
67	0xbdbf5873	-0.09343042
68	0x3c070290	0.008240357
69	0x3d5e08bc	0.05420755
70	0xbe0a3029	-0.13494934
71	0xbdfca893	-0.123368405
72	0x3d6116cb	0.054953378
73	0x3b90cf0b	0.0044192127
74	0xbc943051	-0.018089445
75	0x3d300ddd	0.04298197
76	0xbd2c710b	-0.042099994
77	0x3c3afb4e	0.011412455
78	0x3de7a499	0.113106914
79	0xbdb6b486	-0.08921151
80	0xbdcdb1e1	-0.10043693
81	0xbc1aca51	-0.00944765
82	0x3c5fca45	0.013659065
83	0x3d66d150	0.05635196
84	0xbd423a47	-0.04741886
85	0x3dd5af7d	0.10433862
86	0x3df6586c	0.12028584
87	0xbda25057	-0.0792548
88	0xbe0548bb	-0.13016026
89	0x3c6d9baa	0.014502445
90	0x3cbe5f8c	0.02323892
91	0x3d7e0bff	0.06202316
92	0x3d0ea5f9	0.034826253
93	0xbdc11d6b	-0.09429439
94	0xbd9f4d04	-0.077783614
95	0xbd1a33e3	-0.03764714
96	0x3d49b1ab	0.049241703
97	0x3d316ec4	0.043318525
98	0x3d15fd6f	0.036618646
99	0x3d558801	0.052131657
100	0x3bbdd8bc	0.005793659
101	0x3d3bdf5f	0.04586732
102	0x3d2e5939	0.042565558
103	0xbdedee13	-0.11617675
104	0xbda22811	-0.07917798
105	0x3dbc7a6a	0.09203036
106	0x3d8a5b64	0.06755713
107	0xbdad8ad4	-0.08473745
108	0x3e4ec4a9	0.20192207
109	0xbdf2c000	-0.11853027
110	0x3d3d5dde	0.046232097
111	0x3dad2c79	0.08455748
112	0x3c8a2296	0.016862195
113	0x3df9988a	0.12187298
114	0xbdd1913b	-0.10232779
115	0xbd9e069a	-0.07716103
116	0xbdca4886	-0.09877114
117	0x3d5c4d04	0.053784385
118	0x3d58c1a2	0.052919038
119	0xbdedbf24	-0.11608723
120	0x3d33bc62	0.043880828
121	0x3da66275	0.08124248
122	0xbe013682	-0.1261845
123	0xbd71bd1f	-0.05901825
124	0xbd8e7375	-0.069556154
125	0xbc8e710b	-0.017387887
126	0x3dc3273d	0.095289685
127	0xbc6d0e9b	-0.014468814
128	0x3ce8bc47	0.02841009
129	0xbdc03bb8	-0.093863904
130	0x3c7d23ff	0.015450477
131	0xbd97e3df	-0.0741651
132	0x3de08a3c	0.10963866
133	0xbe0580b8	-0.13037384
134	0xbd3fd3bb	-0.04683278
135	0x3e060d92	0.13091114
136	0x3c2fc088	0.010727055
137	0xbc75b7be	-0.014997421
138	0xbd3fd050	-0.04682952
139	0x3e03e61d	0.1288075
140	0x3948d863	0.00019154097
141	0xbd02d912	-0.031945296
142	0x3cb2a27d	0.021805996
143	0xbd2415b4	-0.04005976
144	0x3db95474	0.09049311
145	0x3db1d849	0.08683831
146	0xbe0a23a1	-0.13490154
147	0x3da734cb	0.08164366
148	0xbd56f61a	-0.052480794
149	0x3d040995	0.0322357
150	0xbdf7bbac	-0.120963424
151	0x3d565429	0.052326355
152	0xbdf80df5	-0.12112037
153	0x3da60752	0.08106865
154	0xbd42743b	-0.047474127
155	0x3d391ea4	0.045195237
156	0x3c7d4d1e	0.015460281
157	0x3d792fc7	0.06083658
158	0x3cfe8076	0.031067114
159	0xbd9d191d	-0.076708056
160	0xbdc7b8e9	-0.09752066
161	0xb879f236	-5.9591803e-05
162	0x3e1358ec	0.1438939
163	0xbe1cae5d	-0.1530089
164	0x3d60ff17	0.054930773
165	0xbd8ad3f5	-0.06778709
166	0xbde1f119	-0.11032314
167	0x3dd51f4a	0.104063585
168	0xbda8f300	-0.082494736
169	0x3d9dd4f6	0.07706635
170	0xbd894c12	-0.067039624
171	0xbda43397	-0.080176525
172	0x3da581b4	0.080813795
173	0xbe03cd61	-0.12871315
174	0x3dec5d30	0.115412116
175	0xbd92a186	-0.071597144
176	0x3dd47627	0.10374098
177	0x3df3424d	0.1187788
178	0xbe0e94ae	-0.13923904
179	0xbdf73cb0	-0.12072122
180	0xbe0d56e6	-0.1380268
181	0xbcb05c4f	-0.021528391
182	0xbe05a6ee	-0.1305196
183	0xbe093006	-0.13397226
184	0x3daaa642	0.083324924
185	0x3d1c5312	0.03816516
186	0xbe063516	-0.13106188
187	0xbd0359dc	-0.03206812
188	0xbdcc7ffa	-0.09985347
189	0x3b48c21e	0.003063328
190	0x3cebdf44	0.028792985
191	0x3c884dca	0.016638655
192	0xbde5ff8e	-0.11230384
193	0x3dad2171	0.08453644
194	0x3b57df59	0.0032939522
195	0x3beea453	0.0072827726
196	0x3de28e46	0.11062293
197	0xbd8395b6	-0.064250395
198	0x3d2ae6b8	0.041723937
199	0xbdc0f26e	-0.0942124
200	0x3dfa73fa	0.12229152
201	0xbccaec09	-0.024770753
202	0x3d119845	0.035545606
203	0xbcbf21c0	-0.023331523
204	0xbdba25c7	-0.09089237
205	0xbde6b1c9	-0.112643786
206	0xbd705d4a	-0.058682717
207	0xbd2b5c09	-0.04183582
208	0x3dd87410	0.10569012
209	0x3dbaa3c3	0.09113266
210	0xbccc4e31	-0.024939628
211	0xbdd86e0c	-0.10567865
212	0xbdfe76c0	-0.124249935
213	0x3df3c4bc	0.119027585
214	0x3d82a7ff	0.06379699
215	0xbd52bc08	-0.05144885
216	0xbe266f73	-0.16253452
217	0xbe29e9aa	-0.16593042
218	0x3d759633	0.059957694
219	0x3de8083d	0.11329696
220	0x3baa5d41	0.005199105
221	0x3d97947e	0.074013695
222	0x3dad7c51	0.08470977
223	0xbc052a88	-0.008127816
224	0x3d424f69	0.047439013
225	0x3c15a73a	0.009134108
226	0xbc1b3b2e	-0.009474559
227	0x3dc8ce7e	0.0980501
228	0x3d62db36	0.055384837
229	0xbdd43bd4	-0.10362974
230	0x3e00178e	0.12508985
231	0xbcb760bc	-0.022384994
232	0xbc4c1dde	-0.012458293
233	0x3e02646a	0.12733617
234	0xbd1afdc6	-0.037839673
235	0xbbed191e	-0.00723566
236	0xbdd9fdb1	-0.10644091
237	0x3c12a1b7	0.008949689
238	0x3dd54be0	0.10414863
239	0xbd9a8eb3	-0.07546749
240	0x3cd82495	0.026384631
241	0x3dab0e2b	0.08352312
242	0xbcedbb95	-0.02902011
243	0xbc42a7e5	-0.0118808495
244	0x3df57f87	0.119872145
245	0xbcd3e077	-0.02586387
246	0xbddf0a3a	-0.108906224
247	0x3d101bc5	0.035182733
248	0x3de693a2	0.112586275
249	0x3dea112a	0.11429055
250	0xbd99ad88	-0.075038016
251	0xba1f72e5	-0.0006082489
252	0xbdca1b0e	-0.098684415
253	0xbd0818f1	-0.03322691
254	0x3c661be0	0.014044732
255	0xbd6bf97b	-0.05761097

actor.0.bias f4 [128]
0	0xbdce80ec	-0.10083184
1	0x3e21d6c7	0.15804587
2	0x3d03d2c4	0.032183424
3	0xba5479ff	-0.0008105337
4	0x3e066a26	0.1312643
5	0xbd4838cc	-0.04888229
6	0x3ccfe964	0.025379844
7	0x3df6b474	0.120461375
8	0xbdf9e641	-0.122021206
9	0x3d0f601b	0.035003763
10	0x3d80fbb4	0.062980086
11	0xba715bd1	-0.0009207102
12	0xbd99a543	-0.07502224
13	0x3dc084c0	0.0940032
14	0xbdc56811	-0.0963899
15	0x3d5aac2a	0.053386845
16	0x3d922ce7	0.07137471
17	0xbd9caded	-0.07650361
18	0xbca1ae6e	-0.019736495
19	0x3de5051b	0.111826144
20	0xbd52af8f	-0.051436957
21	0x3de573c9	0.11203725
22	0xbd828275	-0.06372539
23	0x3bc9f72c	0.0061634984
24	0xbe10cdae	-0.1414096
25	0xbe04bd79	-0.12962903
26	0x3d436180	0.047700405
27	0x3d455e59	0.04818568
28	0x3c8f8423	0.017519062
29	0x3cf4a3a7	0.029863192
30	0x3d1a5b96	0.037685
31	0x3d5c9c4a	0.053859986
32	0x3ced7724	0.028987475
33	0x3dc573e7	0.09641247
34	0xbe133451	-0.14375426
35	0x3d442037	0.047882285
36	0xbc91642e	-0.017747965
37	0x3dacb2b6	0.08432524
38	0xbd430a35	-0.047617156
39	0x3e088083	0.13330273
40	0x3e054a5e	0.1301665
41	0x3d0022a4	0.031283036
42	0xbc97ef66	-0.018546771
43	0xbcee1238	-0.029061422
44	0xbc5412ec	-0.012943964
45	0x3d8780db	0.06616374
46	0x3d5b799b	0.05358277
47	0x3df6bc30	0.12047613
48	0x3b8a66fc	0.0042237025
49	0x3d5de2af	0.05417126
50	0x3c4e04c4	0.012574378
51	0xbdeb223f	-0.11481141
52	0xbdd82ffa	-0.10556026
53	0x3d91f68d	0.07127104
54	0xbd039493	-0.032124113
55	0xbd6ef308	-0.05833724
56	0xbd3ae3ed	-0.045627523
57	0xbe1166e9	-0.14199413
58	0x3df652ab	0.120274864
59	0xbe08ecc4	-0.13371569
60	0xbd856d85	-0.0651503
61	0x3ac6392f	0.0015123243
62	0xbd30b8c8	-0.04314497
63	0xbca110e9	-0.019661384
64	0x3caf77d3	0.021419441
65	0x3df521c2	0.119693294
66	0x3d0bb6b7	0.034109797
67	0x3de41c1c	0.11138174
68	0x3dbd8335	0.092535414
69	0xbcf2dc1f	-0.029645978
70	0xbc6700c3	-0.014099303
71	0xbc3d8b1f	-0.011568814
72	0xbd29d486	-0.041462444
73	0x3e133d42	0.14378837
74	0x3e089fbc	0.13342184
75	0xbcd3c0ae	-0.025848713
76	0x3da4fdba	0.08056207
77	0x3ce87c53	0.028379595
78	0x3c415c52	0.011801796
79	0xbd43b733	-0.047782134
80	0x3ca42fa4	0.020042248
81	0xbd243000	-0.04008484
82	0xbc87a560	-0.01655835
83	0x3ca8fd5c	0.020628624
84	0x3e0105bb	0.12599842
85	0x3d3609d1	0.044442955
86	0x3badebff	0.005307674
87	0x384ff03f	4.9576392e-05
88	0xbd84e534	-0.064890295
89	0xbd370350	-0.044680893
90	0x3d9a7983	0.07542708
91	0xbe11f249	-0.1425258
92	0xbdef5297	-0.11685675
93	0x3d82f8b4	0.063950926
94	0x3ddd098a	0.10792835
95	0x3df6623c	0.120304555
96	0x3a5672e0	0.000818057
97	0x3db20bb0	0.086936355
98	0xbe017d42	-0.12645438
99	0x3df54661	0.11976314
100	0x3db2e349	0.087347575
101	0x3db5883b	0.088638745
102	0xbd0bbcbd	-0.03411554
103	0x3d0f877e	0.035041325
104	0xbd056a98	-0.03257236
105	0xbb33afb1	-0.0027417953
106	0xbd88efdc	-0.066863745
107	0xbdbe1872	-0.09282006
108	0xbd816df2	-0.063197985
109	0xbcd32a89	-0.025777118
110	0xbc911724	-0.01771123
111	0xbe2d3198	-0.1691345
112	0x3dd73ae4	0.10509279
113	0xbd8c6d66	-0.068568036
114	0xbd644964	-0.055734053
115	0xbdeb0486	-0.11475472
116	0x3decc9b2	0.11561908
117	0x3d30f520	0.04320252
118	0xbda2cadc	-0.079488486
119	0xbd3c6cec	-0.046002313
120	0xbde528d9	-0.11189432
121	0x3caf6012	0.021408115
122	0xbdc4c283	-0.09607413
123	0x3c999242	0.018746499
124	0xbda65eb7	-0.08123534
125	0x3dc0b2c4	0.09409097
126	0xbd962b25	-0.07332448
127	0x3de29aa5	0.11064652

actor.2.weight f4 [128, 128]
0	0x3c2bf659	0.010495746
1	0x3dcba03d	0.099426724
2	0xbdac481e	-0.08412193
3	0xbccc59ba	-0.024945129
4	0xbb064b1f	-0.0020491553
5	0xbbb4ce2e	-0.0055177426
6	0xbe1856a3	-0.148768
7	0xbbef1533	-0.0072962283
8	0x3d59c10d	0.053162623
9	0x3c83ad78	0.016073927
10	0x3dc24cb6	0.09487288
11	0x3d841b1c	0.06450483
12	0xbde451c5	-0.11148409
13	0x3cab33ad	0.020898664
14	0xbdc0c5e2	-0.09412743
15	0x3da02ed8	0.07821435
16	0xbc82ed3b	-0.01598226
17	0x3da93329	0.08261711
18	0xbcd290e4	-0.025703855
19	0x3cc6b248	0.024254933
20	0xbcef3c87	-0.029203666
21	0x3d9a73be	0.07541607
22	0x3dc1d09d	0.09463618
23	0x3d2731bf	0.040818926
24	0xbc4eaa83	-0.012613895
25	0xbbf8d7c2	-0.0075940797
26	0x3dc1e5bd	0.09467647
27	0xbcc44029	-0.023956375
28	0x3d946b65	0.072470464
29	0xbd3fa01e	-0.04678356
30	0xbd78814f	-0.060670193
31	0x3d9653e0	0.07340217
32	0xbd826182	-0.063662544
33	0xbd6bb6fb	-0.05754755
34	0x3db29ded	0.08721528
35	0xbc8c54f8	-0.01713036
36	0x3c6b85a5	0.014375125
37	0x3b3fab3a	0.0029246346
38	0xbc4a7911	-0.012357966
39	0x3dac0922	0.084001794
40	0xbdb377fe	-0.08763121
41	0x3da3568b	0.07975491
42	0x3d046a2b	0.032327812
43	0xbd931a9f	-0.07182812
44	0x3c704e99	0.014667177
45	0xbc75b655	-0.014997085
46	0xbd7a2dc3	-0.061078798
47	0xbd123430	-0.0356943
48	0x3d277508	0.040883094
49	0x3d8c7766	0.06858711
50	0x3cf15e8c	0.029464029
51	0xbd8b8ec9	-0.068143435
52	0x3ca549ad	0.020176733
53	0x3dc6f56c	0.09714779
54	0xbdaf38b6	-0.08555739
55	0x3d09a0e7	0.033600714
56	0xbd44ec6b	-0.04807703
57	0x3d66397f	0.056207176
58	0x3dcbc091	0.099488385
59	0x3d419289	0.047258887
60	0xbd2ae85b	-0.041725498
61	0x3cb0a45d	0.02156275
62	0x3e0067ff	0.12539671
63	0xbd9ea44b	-0.0774618
64	0x3dc6f6ef	0.097150676
65	0x3cdf2d6e	0.027243342
66	0x3d19d077	0.037552323
67	0xbd53d107	-0.051713016
68	0xbbc3472a	-0.005959411
69	0xbdc113a9	-0.09427578
70	0xbcf99acf	-0.030469326
71	0x3dd4e590	0.10395348
72	0xbdc64f99	-0.09683151
73	0x3d5222ee	0.051302843
74	0x3d5e99bc	0.05434583
75	0xbde81a4a	-0.11333139
76	0x3d3642c1	0.044497255
77	0x3dabf07a	0.08395477
78	0xbdb8bc8b	-0.09020337
79	0xbd97ca0a	-0.07411583
80	0xbdd8123e	-0.105503544
81	0x3d2cd9a6	0.042199753
82	0xbd07661d	-0.033056367
83	0xbd70fe22	-0.05883611
84	0x3db1fc7c	0.08690736
85	0xbde7ca6e	-0.11317907
86	0xbcaf492a	-0.021397192
87	0xbc942299	-0.018082904
88	0xbdbe9b80	-0.09307003
89	0x3d681479	0.05666015
90	0xbd6c5f66	-0.057708167
91	0x3d948a2f	0.07252919
92	0x3c0bdeb8	0.008536987
93	0x3bfbaa54	0.007680217
94	0xbd71632e	-0.058932476
95	0xbd9c9365	-0.07645301
96	0xbcd7f35e	-0.026361164
97	0xbd728452	-0.05920822
98	0x3d37853a	0.04480479
99	0xbd307091	-0.0430761
100	0x3d6c47e0	0.057685733
101	0x3d9885a2	0.074473634
102	0x3bb1b239	0.005422857
103	0x3dbcbf63	0.092161916
104	0x3cbed18c	0.02329328
105	0xbbe5c8fe	-0.0070124855
106	0xbc570077	-0.013122669
107	0xbd5192a1	-0.051165227
108	0x3ca4d3a7	0.020120455
109	0xbc4d858e	-0.012544049
110	0x3d783064	0.060593024
111	0x3d6def19	0.05808935
112	0x3dd65027	0.104645066
113	0x3d838c37	0.06423228
114	0x3d6b528f	0.05745178
115	0x3ce2efc8	0.027702227
116	0xbd51ee42	-0.05125261
117	0xbd07ff61	-0.033202533
118	0x3cee0bf3	0.029058432
119	0x3be5fab5	0.007018412
120	0x3d2f61c3	0.042817842
121	0x3cd87549	0.026423113
122	0x3c98ab95	0.018636504
123	0x3d894dfe	0.06704329
124	0xbc5b2def	-0.013377651
125	0xbd974079	-0.07385344
126	0xbd98c1f0	-0.07458866
127	0xbd8e8ca8	-0.06960422
128	0x3cdb7218	0.026787803
129	0x3d7bf198	0.0615097
130	0x3dc55b4a	0.09636553
131	0x3d76bdb7	0.06023952
132	0x3c8700ba	0.016479839
133	0xbd3d8b00	-0.04627514
134	0x3e182fac	0.14861935
135	0x3dc3dcab	0.095635734
136	0x3cb39d41	0.02192557
137	0xbdb7a3c7	-0.08966785
138	0x3cc65d0e	0.024214294
139	0xbda67e3a	-0.081295446
140	0x3d978122	0.07397677
141	0xbd735832	-0.05941028
142	0x3cc8c055	0.024505774
143	0x3c073d34	0.008254338
144	0xbd9f9911	-0.07792867
145	0x3d043ab1	0.032282535
146	0xbd3c4bdf	-0.045970794
147	0x3d182d3a	0.037152506
148	0xbd298db4	-0.041394904
149	0x3c6d6617	0.014489672
150	0x3cb0f79b	0.021602442
151	0x3da6189f	0.08110165
152	0xbda76466	-0.08173446
153	0x3d15aaf0	0.03653997
154	0xbd916500	-0.07099342
155	0xbdc915e5	-0.09818629
156	0x3d540b68	0.05176869
157	0x3d8a5b00	0.06755638
158	0x3abc98e5	0.0014388828
159	0x3d20fc11	0.03930289
160	0x3cd55e14	0.026045837
161	0x3b72a5d3	0.0037025108
162	0x3d13623b	0.03598235
163	0xbcfa0090	-0.030517846
164	0xbd4d8cef	-0.050183233
165	0xbbb0a7c0	-0.005391091
166	0xbd0d2784	-0.034461513
167	0x3d26d5e9	0.040731344
168	0xbd9c4d93	-0.076319836
169	0x3daacb7f	0.08339595
170	0x3cbaee00	0.022818565
171	0xbbc60bd2	-0.0060438896
172	0xbd64365c	-0.055715904
173	0x3d4a2691	0.049353186
174	0x3b6c8b8d	0.003609392
175	0x3ceb4660	0.02872008
176	0x3c3a4354	0.011368591
177	0x3c73be53	0.01487692
178	0x3da609cd	0.08107338
179	0x3ccc9606	0.02497388
180	0x3d5d8604	0.054082885
181	0xbe0563b6	-0.13026318
182	0x3dd07379	0.10178275
183	0xbd7e5c7e	-0.062099926
184	0x3dc1f08c	0.09469709
185	0x3d3a93a5	0.04555096
186	0xbdbd35a5	-0.092387475
187	0x3d6c0f76	0.057631932
188	0xbdab5a40	-0.08366823
189	0xbd03497c	-0.032052502
190	0x3c5a5809	0.013326653
191	0xbd0206b3	-0.03174467
192	0xbd88a383	-0.066718124
193	0x3d11db2d	0.035609413
194	0x3c193123	0.009350094
195	0xbd8da42d	-0.0691608
196	0xbd129697	-0.035788145
197	0x3c529ae7	0.012854314
198	0x3d559237	0.052141394
199	0xbc9ad027	-0.018898083
200	0x3da8347b	0.08213135
201	0xbd315f9e	-0.04330408
202	0x3a33debf	0.00068615
203	0xbd0f9922	-0.03505815
204	0x3d0762c6	0.033053182
205	0x3ce4a7a4	0.027911969
206	0x3d61f6ab	0.05516688
207	0x3d73d24b	0.059526723
208	0x3d1f3293	0.03886659
209	0x3c55a829	0.013040581
210	0x3db1ca0e	0.08681117
211	0xbd93c2ce	-0.072148904
212	0xbda77eb6	-0.08178465
213	0x3dce14dc	0.10062572
214	0xbd95528a	-0.07291134
215	0x3c00c1a4	0.0078586675
216	0x3d26add2	0.04069311
217	0x3d89bc07	0.067253165
218	0x3d88b7fc	0.06675717
219	0xbd08dd28	-0.033414036
220	0x3d23e366	0.040011786
221	0x3d10a4b3	0.03531332
222	0xbb16a18d	-0.0022984475
223	0x3c756cfc	0.014979597
224	0x3dbb6f56	0.09152095
225	0x3de90256	0.11377399
226	0xbd813fff	-0.063110344
227	0x3d35fb7b	0.044429284
228	0xbd61cc31	-0.055126373
229	0x3da89897	0.08232229
230	0xbcc65604	-0.024210937
231	0x3d6916f6	0.056906663
232	0x3da2d77c	0.07951257
233	0x3d93ee56	0.07223193
234	0x3d11ed23	0.03562654
235	0xbd5fe2c6	-0.054659627
236	0x3d3a6558	0.045506805
237	0xbd0db176	-0.034593068
238	0x3dbbc1b8	0.09167808
239	0x3d287b3a	0.041133143
240	0x3da89566	0.082316205
241	0x3b8f1c8d	0.004367417
242	0x3d55f75d	0.052237857
243	0x3d7d8a89	0.061899696
244	0x3dd748d9	0.105119415
245	0x3d2631fe	0.04057502
246	0xbd6b510a	-0.05745033
247	0x3da27a81	0.07933522
248	0xbd919f34	-0.07110444
249	0x3d7735ff	0.06035423
250	0x3d88189c	0.06645319
251	0x3d329361	0.043597583
252	0xbc670e64	-0.014102552
253	0x3dbdb8fa	0.09263797
254	0x3d8196be	0.0632758
255	0xbd18555e	-0.037190787

actor.2.bias f4 [128]
0	0x3c03efaf	0.0080527505
1	0x3d8997f4	0.06718436
2	0xbd899bf2	-0.06719197
3	0xbda994fc	-0.0828037
4	0x3d39059c	0.045171365
5	0x3d4c0e26	0.04981818
6	0xbd7e3427	-0.062061455
7	0xbdd167a1	-0.10224844
8	0x3c7fc9dc	0.015612092
9	0xbbd841c1	-0.0065996354
10	0xbd0cb808	-0.034355193
11	0x3d90d313	0.07071509
12	0x3d8195ed	0.06327424
13	0x3bf0d272	0.007349306
14	0x3d62db20	0.055384755
15	0xbd26c9d2	-0.040719815
16	0x3cc47510	0.023981601
17	0x3cc46e6b	0.023978433
18	0x3ce2beec	0.02767893
19	0x3d8edad3	0.06975331
20	0x3da8235a	0.08209868
21	0xbb2269a7	-0.0024782212
22	0x3cc9f7fd	0.024654383
23	0x3dd09885	0.10185341
24	0x3df0f4d5	0.11765448
25	0x3d7dff25	0.062010903
26	0x3c7e237f	0.015511393
27	0xbd57b0e3	-0.052658927
28	0x3d9110ff	0.0708332
29	0xbdf9e254	-0.12201372
30	0xbdac6f18	-0.08419627
31	0x3d071a90	0.032984316
32	0xbdabbde8	-0.08385831
33	0x3dc9c57f	0.098521225
34	0x3da9d29a	0.08292122
35	0x3d63d09d	0.05561887
36	0xbd81adae	-0.06331955
37	0xbd9d3646	-0.076763675
38	0x3d17bf7b	0.037047844
39	0x3aae3e75	0.001329376
40	0x3d6b788d	0.057488013
41	0x3d27acc5	0.04093625
42	0xbdbd8fa3	-0.09255912
43	0xbd580cf7	-0.05274674
44	0xbd8f44a7	-0.06995516
45	0xbd980b2f	-0.07424008
46	0x3d9263bb	0.07147928
47	0x3c5fdbc9	0.013663241
48	0x3c871416	0.01648907
49	0xbc234970	-0.009966239
50	0xbd98317b	-0.07431313
51	0xbb59e9e1	-0.0033250975
52	0xbda984d0	-0.08277285
53	0xbc99d842	-0.018779878
54	0x3d253e1a	0.040342428
55	0x3a27f02b	0.0006406332
56	0x3d1bfe1f	0.038084146
57	0xbc5550f5	-0.01301979
58	0xbccb7fe1	-0.02484125
59	0x3d9a6f84	0.07540801
60	0x3d847b59	0.06468839
61	0x3d60e9de	0.054910533
62	0xbdbeb261	-0.09311367
63	0xbdbb7a43	-0.09154179
64	0x3d3cb222	0.04606832
65	0x3d2265d1	0.03964788
66	0x3d8580a3	0.06518676
67	0x3dd6d004	0.104888946
68	0xbdc5b7ce	-0.096541986
69	0xbcc962a2	-0.024583165
70	0x3d2035ee	0.03911393
71	0xbd1a0ae6	-0.03760805
72	0xbd830465	-0.063973226
73	0x3d0102b0	0.031496704
74	0xbd2f9de6	-0.042875193
75	0xbd0c579a	-0.03426323
76	0xbd96c0e5	-0.073610105
77	0xbd04923f	-0.032366034
78	0x3d5eb7ec	0.05437462
79	0x3d657aa5	0.056025166
80	0x3d2336cb	0.039847177
81	0xbd7ab717	-0.061209764
82	0x3bb4b576	0.005514796
83	0x3c86963f	0.016429065
84	0x3d62bf5d	0.05535828
85	0xbd1205db	-0.035650115
86	0x3d8781e0	0.066165686
87	0x3d8d11e7	0.0688818
88	0xbdaa2228	-0.08307296
89	0xbd3702e0	-0.044680476
90	0xbd25a9d5	-0.040445168
91	0xbc96b32c	-0.018395983
92	0x3c2cb32f	0.010540768
93	0xbca0f25a	-0.019646812
94	0x3db407eb	0.08790573
95	0xbd409550	-0.047017395
96	0x3c9b4a2a	0.018956263
97	0x3cbe04e2	0.023195688
98	0xbd18bd97	-0.037290182
99	0xbd5dfd48	-0.054196626
100	0xbc68431c	-0.014176156
101	0x3d5a2c75	0.053265054
102	0xbd881c42	-0.06646015
103	0x3d23c42c	0.039982006
104	0x3d1a1806	0.037620567
105	0x3d381677	0.0449433
106	0xbdb330cb	-0.08749541
107	0x3d6b9d38	0.057522982
108	0x3d7d1715	0.06178959
109	0xbc2ecb37	-0.010668567
110	0xbd12d189	-0.03584436
111	0x3da3101a	0.079620555
112	0x3dc66481	0.09687138
113	0xbcb9c8cd	-0.022678757
114	0x3d73358f	0.05937725
115	0xbb8eccf4	-0.0043579284
116	0xbcb4dbfd	-0.022077555
117	0xbd719a97	-0.05898532
118	0xbd0d4869	-0.034492884
119	0x3d0e2694	0.03470476
120	0xbc047262	-0.008083912
121	0xbcea578a	-0.028606195
122	0xbd4ba8e7	-0.049721625
123	0xbd97ed0a	-0.074182585
124	0xbd3f207a	-0.04666183
125	0x3d995586	0.074870154
126	0xbd9ea0d1	-0.07745517
127	0x3d914d3c	0.070948094

actor.4.weight f4 [128, 128]
0	0x3df48a8c	0.11940488
1	0xbd9e6220	-0.077335596
2	0x3d61a74c	0.055091187
3	0x3c83b80d	0.016078973
4	0x3dea6fea	0.11447127
5	0x3b28caea	0.0025755712
6	0xbd9f8d5e	-0.077906355
7	0xbdc2fff0	-0.095214725
8	0x3df548ef	0.119768016
9	0x3d91cefa	0.07119556
10	0xbd4f1150	-0.05055362
11	0x3e22419e	0.15845343
12	0x3cd5e765	0.026111314
13	0xbddef0fe	-0.10885809
14	0x3d405abb	0.046961527
15	0xbdddcc4b	-0.108299814
16	0x3d633e5e	0.0554794
17	0xbd9976df	-0.07493376
18	0x3d6b6760	0.057471633
19	0xbddefd35	-0.10888139
20	0xbd7435ba	-0.05962155
21	0x3c363500	0.011121035
22	0xbc6be81c	-0.014398601
23	0x3ded84ec	0.115976185
24	0x3dacacf0	0.08431423
25	0xbd8edc59	-0.06975622
26	0xbd381f14	-0.044951513
27	0xbd36e23c	-0.044649348
28	0xbc09ef3c	-0.008418854
29	0x3d3fdc08	0.046840698
30	0x3d774439	0.060367797
31	0xbc030015	-0.007995625
32	0x3d89ff5c	0.06738159
33	0x3c5bdd40	0.013419449
34	0x3db7adf6	0.08968727
35	0xbd24199a	-0.040063478
36	0x3db02881	0.086014755
37	0x3c77bc7c	0.015120622
38	0x3de6a224	0.112613946
39	0x3cf3c4ad	0.029756868
40	0x3dd4d6bc	0.1039252
41	0xbceb900a	-0.028755207
42	0xbda5abc7	-0.080894046
43	0x3dabd812	0.083908215
44	0x3d3874ca	0.045033254
45	0x3d7f6aea	0.06235782
46	0x3d8009a3	0.06251838
47	0x3d64c82e	0.05585497
48	0xbd1bc446	-0.038028978
49	0xbd9743bb	-0.073859654
50	0xbdb8096b	-0.08986171
51	0xbcd5f7ba	-0.026119102
52	0xbd3084f0	-0.04309553
53	0xbd31759d	-0.043325055
54	0xbd8a2ebe	-0.067471966
55	0xbe130f9c	-0.14361423
56	0x3d087049	0.03331021
57	0xbda3c822	-0.07997157
58	0x3cc13c6c	0.023588382
59	0xbddee89f	-0.10884213
60	0xba598c8d	-0.0008298837
61	0x3da69b69	0.08135111
62	0x3c3a38c6	0.011366075
63	0x3d7fca03	0.062448513
64	0x3ca07d09	0.019590871
65	0xbc1bbc62	-0.009505363
66	0xbb313fba	-0.002704604
67	0x3d4aa11b	0.04947005
68	0x3d5c7c4b	0.053829473
69	0x3d3236f6	0.043509446
70	0x3d0f7dd9	0.035032127
71	0x3d6bd6a7	0.057577755
72	0xbd13d2a6	-0.036089562
73	0x3bf6ada2	0.007528023
74	0xbce34fb5	-0.027747968
75	0x3d936695	0.071973
76	0x3dc2e737	0.09516757
77	0xbda28ca4	-0.07936981
78	0xbc90e37a	-0.017686594
79	0xbbe22cb6	-0.0069023026
80	0xbd6c48eb	-0.057686727
81	0xbda30e70	-0.07961738
82	0x3b163f40	0.0022925884
83	0xbd7153c3	-0.058917772
84	0x3c833183	0.01601482
85	0xbbf0c54f	-0.00734774
86	0xbdc5dc1a	-0.09661122
87	0xbc604764	-0.013688896
88	0x3d4e2296	0.050325952
89	0xbd7b2546	-0.061314844
90	0x3d6e98c7	0.05825117
91	0x3d4d0bec	0.050060198
92	0xbdb12dcf	-0.086513154
93	0x3d3e6f7a	0.04649303
94	0x3d3fc500	0.046818733
95	0x3be0e106	0.0068627624
96	0xbcad6419	-0.021165894
97	0xbd664307	-0.056216266
98	0xbd049c9b	-0.032375913
99	0x3cd7443a	0.02627765
100	0x3b913ff1	0.0044326712
101	0x3d02f501	0.031971935
102	0xbd0f6420	-0.035007596
103	0xbd54d7b8	-0.051963538
104	0xbc7ed05b	-0.0155526055
105	0x3b95c444	0.004570516
106	0xbd10910b	-0.035294574
107	0x3cac36b9	0.021022188
108	0xbc5b7d20	-0.013396531
109	0xbd741048	-0.05958584
110	0xbd9041ef	-0.07043826
111	0xbc845ae4	-0.016156621
112	0xbce3df64	-0.027816482
113	0xbcfd7350	-0.030938774
114	0x3dabe779	0.08393759
115	0xbc3852fe	-0.011250256
116	0x3bcf6bc7	0.0063299867
117	0x3d086fcf	0.033309754
118	0xbd0164a1	-0.031590108
119	0xbe006cf2	-0.1254156
120	0xbdaee0cc	-0.0853897
121	0x3cd1c568	0.025606826
122	0xb9a42c9f	-0.00031313763
123	0x3d0b4de4	0.03400983
124	0xbccd4a54	-0.025059856
125	0xbc4fed3a	-0.012690837
126	0xbd678690	-0.056524813
127	0xbca01d6c	-0.01954528
128	0x3dd46863	0.10371473
129	0x3db8c309	0.09021575
130	0x3d9b8a00	0.07594681
131	0xbdb273b4	-0.08713475
132	0x3a5aeff0	0.00083517935
133	0x3dffeca2	0.12496306
134	0xbd4f731c	-0.050646886
135	0x3c6a8101	0.0143129835
136	0xbd7a8321	-0.06116021
137	0xbd6d7395	-0.057971556
138	0x3ca31dbe	0.019911643
139	0x3dc44aa4	0.09584549
140	0xbc10d8af	-0.008840724
141	0x3d4b5b34	0.049647525
142	0x3daa1160	0.08304095
143	0x3b15cbc4	0.002285705
144	0xbcf362c2	-0.029710177
145	0xbca25548	-0.019816056
146	0x3d4f8b88	0.050670177
147	0x3d190fbf	0.037368532
148	0xbce31544	-0.027720101
149	0x3bffbbb5	0.007804359
150	0x3b9e5bd8	0.004832726
151	0xbcaa4e84	-0.020789392
152	0x3cb06584	0.021532781
153	0x3cda127a	0.026620138
154	0x3d4e2099	0.050324056
155	0x3d857f33	0.06518402
156	0x3da6bed3	0.081418656
157	0x3d313776	0.043265782
158	0x3dca33f1	0.09873188
159	0xbd0d0ce1	-0.03443611
160	0xbd902843	-0.07038929
161	0xbc82f97d	-0.015988106
162	0x3d3d0eca	0.046156682
163	0x3dbbb4b5	0.091653265
164	0xbc889226	-0.016671252
165	0xbcafe9c7	-0.021473778
166	0xbca01d1e	-0.019545134
167	0x3da0c201	0.07849503
168	0x3dc43a5c	0.09581444
169	0x3dea06dd	0.1142709
170	0x3c7a4836	0.0152760055
171	0x3db0c91b	0.08632108
172	0x3da25c2b	0.07927736
173	0x3c595a87	0.013266212
174	0xbc9aebe9	-0.018911319
175	0x3d66873d	0.056281317
176	0x3dcb2d3c	0.09920737
177	0xbd6c5ead	-0.057707477
178	0xbd91ce32	-0.07119407
179	0x3d22c3de	0.039737575
180	0x3dfc3d85	0.123164214
181	0xbda204e3	-0.07911088
182	0xbd197379	-0.03746364
183	0xbcdf3c51	-0.02725044
184	0xbc1bb18c	-0.00950278
185	0xbd89e558	-0.06733197
186	0xbdac2f6c	-0.084074825
187	0x3c19b19f	0.009380727
188	0x3d0c6675	0.0342774
189	0x3d8244ef	0.06360804
190	0x3d869679	0.06571669
191	0xbcb522c1	-0.022111299
192	0x3da29e12	0.07940306
193	0x3da631c6	0.08114962
194	0xbd5fca98	-0.054636568
195	0x3c3b37ae	0.011426849
196	0x3d1a49b2	0.037667938
197	0xbda57d0e	-0.08080493
198	0x3c36c1a8	0.01115457
199	0x3d8f6340	0.07001352
200	0x3dbb804f	0.09155332
201	0xbd184bee	-0.037181787
202	0x3dc1d174	0.09463778
203	0x3d4261c8	0.047456533
204	0x3d21bb85	0.039485473
205	0xbd7aacd3	-0.061199974
206	0x3c26a9c5	0.010172312
207	0x3d237be5	0.039913077
208	0xbd2fc989	-0.04291681
209	0x3dabf452	0.0839621
210	0xbdace7d9	-0.08442659
211	0x3cbad14a	0.022804875
212	0xbbd96d76	-0.006635363
213	0x3c4e1b5a	0.012579763
214	0xbc9baeab	-0.019004187
215	0x3d76e535	0.060277183
216	0x3d2ddfe2	0.04244984
217	0x3dbd9aed	0.092580654
218	0xbdaa45fa	-0.08314128
219	0xbd8d0f50	-0.06887686
220	0xbd44e4e4	-0.04806985
221	0x3d08f364	0.03343524
222	0x3d327b32	0.04357452
223	0xbd49cd77	-0.049268212
224	0x3ce961fd	0.028489107
225	0xbda65d46	-0.08123259
226	0x3da32003	0.0796509
227	0x3d3f298e	0.04667049
228	0xbd29e971	-0.041482393
229	0xbcec3662	-0.028834525
230	0x3d5287d5	0.05139907
231	0xbd171e27	-0.03689399
232	0xbda03c9a	-0.07824059
233	0x3dbb2f19	0.091398425
234	0xbd5e9ef6	-0.054350816
235	0xbd4ed9c6	-0.050500654
236	0xbd72e3d1	-0.059299294
237	0x3cc8d53c	0.02451574
238	0xbd3ca6c3	-0.046057474
239	0xbd52c30d	-0.051455546
240	0xbd70d337	-0.05879518
241	0x3d14bfcf	0.036315735
242	0x3d74b409	0.059742007
243	0x3d84b89f	0.06480526
244	0x3cf953e6	0.030435514
245	0x3dafcc47	0.08583885
246	0x3db4f7b7	0.0883631
247	0x3cf6cd97	0.03012733
248	0xbcb6e690	-0.022326738
249	0x3dadd0e2	0.08487107
250	0x3b369fd1	0.0027866254
251	0xbd914d56	-0.07094829
252	0x3d062b15	0.03275593
253	0x3dcb5d2a	0.09929879
254	0x3ccadb55	0.024762789
255	0x3d17be80	0.03704691

actor.4.bias f4 [128]
0	0x3dbf5c21	0.09343744
1	0xbce98f45	-0.028510699
2	0xbd668c2d	-0.056286026
3	0xbcdbc5fb	-0.026827803
4	0xbcb3ee63	-0.021964258
5	0x3dcadd04	0.09905437
6	0xbd96d027	-0.07363921
7	0xbd27e7ed	-0.040992666
8	0x3d302854	0.04300721
9	0x3d8afa7b	0.067860566
10	0x3d56616d	0.052339006
11	0x3d0c42ae	0.03424328
12	0xbccb9e39	-0.02485572
13	0xbd99cfc2	-0.0751033
14	0xbdb5d048	-0.08877617
15	0xbd7758f5	-0.06038757
16	0xbd90e500	-0.07074928
17	0xbdac2a6f	-0.08406531
18	0xbd80f9c0	-0.06297636
19	0xbdc2c091	-0.095093854
20	0xbd95ec47	-0.07320457
21	0xb9acd84c	-0.0003296755
22	0x3db8f861	0.090317495
23	0x3d1b93a8	0.037982613
24	0x3d8ebe7e	0.06969927
25	0x3da36488	0.07978159
26	0x3b921a6b	0.0044587157
27	0x3d2dd8b9	0.04244301
28	0x3d539f7e	0.051665775
29	0x3d942cd0	0.0723511
30	0x3dc24024	0.0948489
31	0x3d93ae03	0.072109245
32	0xbcfb9806	-0.030712139
33	0xbd104fd3	-0.035232376
34	0x3d8d64d8	0.06904
35	0x3cb3e792	0.021961007
36	0x3ca59077	0.020210488
37	0x3cc00f36	0.023444753
38	0x3d4d9220	0.050188184
39	0x3db652ea	0.08902533
40	0xbd8bdfd8	-0.06829804
41	0xbd55dc33	-0.05221195
42	0x3ce8eeec	0.02843424
43	0xbb9478c4	-0.004530998
44	0xb9ec0931	-0.00045020276
45	0x3d5c0a28	0.053720623
46	0x3d877788	0.06614596
47	0xbd29535b	-0.04133926
48	0x3c872260	0.016495883
49	0xbcf0193f	-0.029308913
50	0xbd109c55	-0.03530534
51	0xbd56b089	-0.05241445
52	0x3c43d19b	0.011951829
53	0x3d12a44e	0.035801224
54	0x3b98019f	0.004638865
55	0xbd91f48f	-0.07126724
56	0x3c1bca8b	0.009508739
57	0x3da53df6	0.08068459
58	0x3cd46b36	0.025930028
59	0xbd0c25af	-0.034215625
60	0xbcd42b99	-0.025899695
61	0x3c4c6fc8	0.012477823
62	0x3d1ea26a	0.03872911
63	0x3ddc5c83	0.10759833
64	0xbda748ae	-0.081681594
65	0xbd802ba0	-0.06258321
66	0xbd35230b	-0.044222873
67	0x3dc60033	0.09668007
68	0xbdae2b02	-0.08504297
69	0x3c9d2164	0.019180961
70	0xbc064ed7	-0.008197508
71	0x3d973d39	0.07384724
72	0x3d62ecd9	0.055401657
73	0xbd59f4da	-0.053212024
74	0x3d77308c	0.060349032
75	0x3c76179a	0.0150202755
76	0xbda51643	-0.08060887
77	0xbced9324	-0.029000826
78	0xbcfcd953	-0.030865347
79	0xbd4c4621	-0.049871568
80	0x3da4a789	0.08039767
81	0x3d857e8e	0.06518279
82	0x3d1eabf1	0.038738195
83	0x3dd772b7	0.10519927
84	0x3d11d0af	0.035599407
85	0x3d23dfcd	0.040008355
86	0x3d025f8e	0.03182941
87	0x3c1c9d80	0.009559035
88	0xbc50ae31	-0.012736843
89	0xbd78424a	-0.060610093
90	0xbc83fa7d	-0.016110653
91	0x3b2e5a55	0.0026604135
92	0xbc307991	-0.010771171
93	0x3de3c1ad	0.11120925
94	0xbd7eac03	-0.062175762
95	0xbce3235b	-0.02772682
96	0x3d7765e6	0.060399912
97	0x3d39cd57	0.045361843
98	0x3b55bc2b	0.0032613378
99	0xbb9ef4cf	-0.004850961
100	0x3ba43cf2	0.005012148
101	0x3d0e3168	0.034715086
102	0xbc9e74d8	-0.019342825
103	0xbd6c43a7	-0.057681706
104	0x3dd1e561	0.10248829
105	0xbdd158ce	-0.10222016
106	0x3d287ec7	0.04113653
107	0xbd3e954a	-0.046529092
108	0x3cbe8a16	0.023259204
109	0xbd9d7ee7	-0.0769022
110	0x3daac82c	0.08338961
111	0x3cb66bd8	0.02226822
112	0xbd8267d2	-0.063674584
113	0xbd8a8f54	-0.06765619
114	0x3d713553	0.058888745
115	0xbd910110	-0.07080281
116	0xbd376808	-0.044776946
117	0x3cacac49	0.021078246
118	0x3d9ce6b1	0.076611884
119	0xbbc2e593	-0.0059477775
120	0xbd2f1eff	-0.04275417
121	0xbd903751	-0.07041801
122	0xbdcd307b	-0.100190125
123	0x3b25d24d	0.002530235
124	0x3b404cf2	0.0029342738
125	0x3dd0355e	0.10166429
126	0x3d83f223	0.06442668
127	0xbda4b728	-0.08042747

actor.6.weight f4 [1, 128]
0	0xbdf9c661	-0.12196041
1	0xbda32590	-0.07966149
2	0xbdab7fff	-0.08374023
3	0x3c9f6470	0.019457072
4	0x3d0f94e4	0.035054103
5	0x3dacf9cb	0.08446082
6	0xbd95b4e6	-0.07309894
7	0xbd930c15	-0.07180039
8	0xbe2e4710	-0.17019296
9	0x3e0c194c	0.13681525
10	0x3d977932	0.07396163
11	0x3ddc53d2	0.10758175
12	0xbdabe27e	-0.08392809
13	0xbcb6a802	-0.02229691
14	0x3d89d514	0.067300946
15	0x3d05277e	0.032508366
16	0xbda2b300	-0.07944298
17	0x3d256192	0.040376253
18	0xbd91e30e	-0.07123385
19	0x3df503fe	0.11963652
20	0x3db2c406	0.08728795
21	0x3d2098ba	0.03920815
22	0x3d14c7d0	0.03632337
23	0xbdcacb64	-0.09902075
24	0xbdeea5fb	-0.11652752
25	0x3de62a1d	0.11238501
26	0x3d1805bc	0.037114844
27	0xbe0dddff	-0.13854216
28	0x3dcdaf0a	0.10043152
29	0x3dd23b9f	0.10265278
30	0xbe0e8696	-0.13918528
31	0xbe10511f	-0.14093445
32	0xbc8c6eaf	-0.017142622
33	0x3d8b7133	0.068087004
34	0xbdcaf825	-0.09910611
35	0x3daf6048	0.08563286
36	0x3d72c468	0.05926934
37	0xbdcdb22f	-0.100437514
38	0xbd93be6d	-0.07214055
39	0xbd93b37c	-0.07211968
40	0x3d7e78d6	0.062126957
41	0x3bcb4cfa	0.0062042447
42	0xbe060826	-0.13089046
43	0x3d9e6e50	0.07735884
44	0xbdb08d34	-0.08620682
45	0xbdff6e0a	-0.1247216
46	0xbde9d9e4	-0.114185125
47	0xbde8b944	-0.113634616
48	0x3d992ea1	0.07479597
49	0xbcaedf64	-0.021346755
50	0xbda13dd6	-0.078731224
51	0xbdcee7f7	-0.101028375
52	0xbdcf7c1f	-0.10131096
53	0x3dd3acec	0.103357166
54	0xbd8a7dc5	-0.0676227
55	0x3d172ccf	0.036907967
56	0x3dcaba66	0.09898834
57	0xbcfe2aaf	-0.031026212
58	0x3df63165	0.1202114
59	0xbd7b5d8c	-0.06136851
60	0x3dcf6613	0.10126891
61	0x3d4ab3b1	0.049487773
62	0x3d918625	0.07105664
63	0x3e071c81	0.13194467
64	0x3d7f0726	0.062262677
65	0xbd5f76bd	-0.054556597
66	0xbd5a27f9	-0.053260777
67	0xbe08910a	-0.13336578
68	0xbd392d21	-0.045209054
69	0xbdd7120b	-0.10501488
70	0x3d900675	0.070324816
71	0x3d90bc76	0.07067196
72	0xbd2f786e	-0.04283946
73	0xbdad897d	-0.084734894
74	0x3e03268b	0.12807672
75	0xbcd8fa0b	-0.026486417
76	0x3db3204a	0.08746393
77	0xbc8397c6	-0.016063582
78	0x3e36d954	0.17856342
79	0x3ccf4503	0.025301462
80	0x3d53eb1f	0.0517379
81	0x3d9494da	0.07254954
82	0x3d40c7d6	0.04706558
83	0x3daf0c5e	0.08547281
84	0xbdff09e2	-0.12453057
85	0xbdce7935	-0.10081712
86	0x3ded5ebd	0.115903355
87	0x3dc0cf67	0.09414559
88	0xbd0ebce7	-0.03484812
89	0x3e0e20b6	0.13879666
90	0xbdab1e6b	-0.08355411
91	0xbd859c19	-0.06523914
92	0xbd9a7c2c	-0.07543215
93	0x3d46a56f	0.048497614
94	0x3d88bfad	0.06677184
95	0x3d294d85	0.041333694
96	0xbdb80a90	-0.0898639
97	0xbd3af9be	-0.04564833
98	0x3d994e02	0.07485582
99	0x3dbd0e37	0.09231227
100	0x3da54cda	0.08071299
101	0xbdbd4d94	-0.092433125
102	0x3d915417	0.07096117
103	0xbd4180ad	-0.047241855
104	0xbdff295c	-0.124590605
105	0x3dcec472	0.10096063
106	0x3e1fcf17	0.15606342
107	0xbdd3b28b	-0.10336789
108	0xbe04a374	-0.12952977
109	0x3db82e95	0.0899326
110	0xbdc33101	-0.09530831
111	0xbe220ff2	-0.15826395
112	0xbd96a438	-0.07355541
113	0x3d18dc80	0.03731966
114	0x3d58678b	0.05283312
115	0x3da188e1	0.07887436
116	0xbcc9656f	-0.0245845
117	0xbd96e9c0	-0.07368803
118	0x3e0ac61b	0.13552134
119	0x3db81d16	0.08989923
120	0x3d79740d	0.06090169
121	0xbd6f18a9	-0.058373127
122	0xbddb276f	-0.10700881
123	0xbdcfeef1	-0.10152996
124	0xbd85db9c	-0.06536028
125	0x3d9b327c	0.075779885
126	0x3e037c79	0.12840451
127	0x3d5236de	0.051321857

critic.0.weight f4 [128, 54]
0	0x3f7c9fb4	0.9868119
1	0x3e82ec5b	0.2557095
2	0xbecfa642	-0.40556532
3	0xbcb0f4cc	-0.021601103
4	0xbd933401	-0.07187653
5	0xbd96d294	-0.07364383
6	0xbdbaa1f7	-0.091129236
7	0xbbdca1ec	-0.00673317
8	0x3d0fe386	0.035129093
9	0xbd38129e	-0.04493963
10	0xbd114575	-0.03546663
11	0x3d1b112e	0.03785818
12	0xbc81562d	-0.015788162
13	0x3d5fb3ab	0.054614704
14	0x3e1a17e8	0.15048182
15	0x3e3199c4	0.17343813
16	0x3ceca91b	0.02888923
17	0xbc960f12	-0.018317733
18	0x3d81ad3e	0.063318714
19	0xbd4a6f01	-0.049422268
20	0x3c6ffbb1	0.01464741
21	0x3e0b32ac	0.13593549
22	0x3dfaeded	0.12252412
23	0x3e44c0d7	0.19214188
24	0x3e2b076d	0.16702051
25	0xbcb2562d	-0.021769607
26	0xbdac600e	-0.084167585
27	0x3d1c8632	0.038213916
28	0x3d1f210b	0.03884987
29	0x3d7ea969	0.06217328
30	0x3dee37ea	0.116317585
31	0x3d1378bd	0.036003817
32	0x3d5e7c41	0.054317717
33	0xbe1423ee	-0.14466831
34	0x3d9b3b5e	0.07579683
35	0xbc9ddbad	-0.019269789
36	0x3cb85053	0.02249924
37	0xbe06f888	-0.13180745
38	0xbd1a4e78	-0.03767249
39	0x3dc4d508	0.09610945
40	0x3beed558	0.007288616
41	0x3d730277	0.059328523
42	0xbe0b746b	-0.13618629
43	0xbded350c	-0.115823835
44	0xbd3e08f6	-0.046395265
45	0x3c8307ad	0.015994871
46	0xbd2f953e	-0.042866938
47	0x3dbefbe3	0.09325387
48	0x3d31d8cd	0.043419648
49	0xbbb452cc	-0.005503034
50	0xbe1f06f0	-0.1552999
51	0x3c2fec16	0.01073744
52	0xb8cbd137	-9.7187636e-05
53	0x3d37eefe	0.044905655
54	0xbf950917	-1.1643399
55	0x3d9f4673	0.07777109
56	0x3e09b5f2	0.13448313
57	0x3ddf1dcc	0.10894355
58	0x3dcfafc0	0.101409435
59	0xbcdc8320	-0.026917994
60	0x3c8b0ba8	0.016973332
61	0xbd77f40b	-0.060535472
62	0xbdde3981	-0.10850812
63	0xbdcadab1	-0.09904993
64	0xbd8aaf99	-0.06771774
65	0xbdcd33d6	-0.100196525
66	0xbe0b673b	-0.13613598
67	0x3d670c77	0.05640837
68	0xbe011337	-0.12604986
69	0xbca48c75	-0.020086506
70	0x3db0c2b9	0.086308904
71	0xbe1e36ad	-0.15450545
72	0xbd90246a	-0.070381954
73	0xbdfe3e63	-0.12414243
74	0xbc67fe43	-0.014159742
75	0x3e08ce83	0.13360028
76	0xbde2fab0	-0.11082971
77	0xbcfb15a4	-0.030649967
78	0xbd74c795	-0.05976065
79	0x3a4746ab	0.0007601778
80	0x3cd98640	0.026553273
81	0x3dfb5d85	0.12273697
82	0x3e04e292	0.12977055
83	0x3dd909a0	0.10597539
84	0xbdd5bf2a	-0.10436852
85	0x3cf80a78	0.03027843
86	0x3d814c3a	0.06313367
87	0x3d2fa74c	0.042884156
88	0x3904edbb	0.00012677062
89	0x3dd01f8e	0.101622686
90	0x3aecaa0d	0.001805605
91	0xbdcba9ba	-0.09944482
92	0xbd2be97e	-0.041970722
93	0x3c6638d3	0.014051634
94	0xbce7dc68	-0.02830334
95	0x3c572644	0.013131682
96	0xbcff56ba	-0.031169284
97	0xbde67076	-0.11251919
98	0xbc1618e1	-0.009161205
99	0x3df27831	0.11839331
100	0xbd8b71db	-0.068088256
101	0x3dfb7549	0.1227823
102	0x3b862a64	0.004094409
103	0xbd1ed710	-0.03877932
104	0xbda832e3	-0.08212831
105	0xbd30821c	-0.043092832
106	0x3dd8a328	0.105779946
107	0x3cb62861	0.022236051
108	0x3f592b05	0.8483127
109	0x3ec6d1e7	0.38832018
110	0xbe450c39	-0.19242944
111	0x3c7c4221	0.015396626
112	0xbda86287	-0.082219176
113	0x3c59c17c	0.013290759
114	0xbd70488e	-0.058662944
115	0xbdbfc362	-0.09363438
116	0x3d9e226a	0.07721408
117	0xbcb93928	-0.022610262
118	0xbe01a5a2	-0.1266084
119	0x3d246b5c	0.04014145
120	0x3d8f49e4	0.069965154
121	0x3da069a5	0.0783265
122	0xbd002f45	-0.03129508
123	0x3d89bde4	0.06725672
124	0x3cd698b0	0.026195854
125	0x3de2a146	0.11065917
126	0xbc1614ae	-0.009160204
127	0xbe029cb1	-0.12755086
128	0xbdcda282	-0.100407615
129	0xbd84b3ed	-0.064796306
130	0xbd973dd4	-0.0738484
131	0xbdbafb91	-0.09130014
132	0x3ddf6ed8	0.10909814
133	0xbd82c035	-0.06384317
134	0x3e0b1ea7	0.13585912
135	0x3dd93ae5	0.10606936
136	0x3de72d22	0.11287905
137	0xbd20a81a	-0.039222814
138	0x3e0c1d37	0.1368302
139	0x3c1b7b8b	0.009489904
140	0x3e04a0d2	0.12951973
141	0x3e0e6677	0.13906275
142	0x3e098738	0.13430488
143	0xbe01675b	-0.12637083
144	0x3cfa7fc5	0.030578503
145	0x3da448dc	0.08021709
146	0x3d9cd457	0.07657688
147	0xba91df38	-0.0011129146
148	0x3ddbcd11	0.10732473
149	0xbcdaa72b	-0.02669104
150	0x3dd1fc69	0.102532215
151	0xbd6e89c7	-0.058236863
152	0x3dc6f957	0.097155266
153	0xbddf6753	-0.109083794
154	0xbe10777a	-0.14108077
155	0xbd5de511	-0.054173533
156	0x3c612d33	0.0137436865
157	0x3ce3702a	0.027763445
158	0x3dd0d8af	0.10197579
159	0x3d0e5234	0.034746364
160	0xbe146feb	-0.14495818
161	0xbe040c32	-0.12895277
162	0x3f4cbd4c	0.79976344
163	0xbdbef4db	-0.09324046
164	0x3ebd4b82	0.3697167
165	0xbda93c55	-0.082634605
166	0xbe2e5e14	-0.17028075
167	0x3daf2b76	0.085532114
168	0x3cc6d98d	0.024273658
169	0xbe15a8b1	-0.14615132
170	0xbd7307d2	-0.05933363
171	0xbc843785	-0.016139755
172	0xbd5d606d	-0.054047037
173	0x3de3ac29	0.11116821
174	0xbb6fd3c5	-0.003659473
175	0xbda6ef04	-0.08151057
176	0x3d93633b	0.07196661
177	0x3cdcbaea	0.026944596
178	0x3d583fc6	0.052795194
179	0x3dcddec9	0.100522585
180	0xbb8a9403	-0.00422907
181	0x3d85fb1f	0.06542038
182	0xbcaf7657	-0.021418734
183	0xbdd32bab	-0.103110634
184	0x3d96cc06	0.07363133
185	0xbca5ba5c	-0.020230465
186	0x3db806bb	0.08985659
187	0x3dd82793	0.10554423
188	0x3d9aaf6f	0.075529926
189	0xbdbef6b5	-0.093243994
190	0x3de13952	0.10997261
191	0x3d166c9f	0.036724683
192	0x3d0ac860	0.0338825
193	0xbd8124af	-0.06305825
194	0xbbcab978	-0.0061866604
195	0xbdcd61ec	-0.10028443
196	0x3ce8cd49	0.0284182
197	0xbe10dd95	-0.14147027
198	0xbd382d59	-0.044965122
199	0xbdb99e3e	-0.090633854
200	0x3d944331	0.07239378
201	0xbda352cb	-0.07974776
202	0xbe072dc9	-0.1320106
203	0xbe4be898	-0.19912946
204	0xbe2c4180	-0.16821861
205	0x3d19f006	0.03758242
206	0xbe3799ac	-0.17929715
207	0xbdcfc69f	-0.10145306
208	0xbe626ac4	-0.2211104
209	0xbe2d45c2	-0.16921142
210	0xbe1de7e2	-0.15420488
211	0xbe538a1d	-0.20658155
212	0x3c038e05	0.008029466
213	0x3c76492e	0.015032096
214	0xbe3c8213	-0.18408994
215	0xbd67b56a	-0.056569494
216	0x3f5df158	0.86696386
217	0xbd16ab82	-0.036784656
218	0x3e82a782	0.25518423
219	0x3e01251a	0.1261181
220	0x3c5f9ba7	0.01364795
221	0x3e0365e6	0.1283184
222	0xbd81bd0c	-0.06334886
223	0xbc6a41b5	-0.014297892
224	0x3c18d9d3	0.009329277
225	0x3d699425	0.057026047
226	0x3d5a90db	0.0533608
227	0xbb4c6a65	-0.0031191346
228	0xbdbe81a8	-0.09302074
229	0xbd236071	-0.039886896
230	0x3d6a4826	0.057197712
231	0x3dc26a03	0.094928764
232	0xbcd7dfd7	-0.026351852
233	0x3dfe6594	0.12421718
234	0x3d565525	0.052327294
235	0x3d9f1e75	0.07769481
236	0x3ccc311c	0.02492576
237	0xbdc06b08	-0.093954146
238	0xbc8bb00b	-0.017051717
239	0xbdb13e29	-0.08654434
240	0x3dce8c39	0.10085339
241	0xbdd80b05	-0.10548977
242	0xbd334c3f	-0.043773886
243	0xbded564e	-0.11588727
244	0x3e15e104	0.14636618
245	0x3de68307	0.1125546
246	0x3d412af8	0.04716012
247	0xbd9ad253	-0.075596474
248	0x3d8eed28	0.06978828
249	0x3d83d249	0.06436593
250	0xbda5f423	-0.08103206
251	0x3b890795	0.004181812
252	0xbd32692e	-0.04355734
253	0xbc28c795	-0.01030149
254	0x3d919b75	0.07109729
255	0x3d0a61f0	0.033784807

critic.0.bias f4 [128]
0	0xbf1e87e4	-0.619261
1	0xbe886187	-0.26636907
2	0xbf182e5e	-0.5944575
3	0x3e338236	0.1753014
4	0xbcfd460b	-0.030917188
5	0x3e83c251	0.2573419
6	0xbea6fc77	-0.3261449
7	0xbdf2b9fb	-0.11851879
8	0x3d889de8	0.06670743
9	0xbee54d21	-0.44785407
10	0x3d2dbf40	0.04241872
11	0xbeedd0fe	-0.4644851
12	0xbf1e5252	-0.6184436
13	0xbf0e72b2	-0.5564376
14	0x3eabb8f6	0.33539551
15	0x3e6eda69	0.23325504
16	0xbea56a14	-0.32307494
17	0xbd88d3d2	-0.066810265
18	0xbdf73243	-0.120701335
19	0xbce1c980	-0.027561903
20	0xbef09875	-0.46991315
21	0x3ea0cde4	0.31407082
22	0xbf00ce8b	-0.5031516
23	0xbe9f9910	-0.31171465
24	0xbebfc289	-0.37453106
25	0xbebc6e12	-0.36802727
26	0xbf06fe00	-0.52731323
27	0xbe19fa38	-0.15036857
28	0x3ec17821	0.37786964
29	0xbeec66eb	-0.4617227
30	0xbd884cb4	-0.06655255
31	0x3c4bdd1a	0.012442851
32	0xbe200564	-0.15627056
33	0xbe20b092	-0.15692356
34	0xbdc6d703	-0.09708979
35	0x3e890380	0.26760483
36	0xbf238186	-0.6386951
37	0xbedda859	-0.43292502
38	0xbea2012f	-0.31641528
39	0xbedfc78d	-0.43706933
40	0x3dc41055	0.095734276
41	0x3e13d1c7	0.14435492
42	0x3f01eb9b	0.5075013
43	0xbed77cfc	-0.42087543
44	0xbd733ea9	-0.05938593
45	0x3efe4992	0.49665505
46	0xbeff75f3	-0.49894676
47	0x3e92ab2d	0.28646222
48	0x3da8ff68	0.0825184
49	0xbf19d2be	-0.6008719
50	0x3f02cdc5	0.5109523
51	0xbe325303	-0.17414479
52	0xbee3a65b	-0.44462857
53	0xbe2791eb	-0.16364257
54	0xbeb1e701	-0.34746554
55	0xbefebe85	-0.4975473
56	0xbf1b2905	-0.60609466
57	0x3dfc40eb	0.123170696
58	0x3e9926a0	0.2991228
59	0xbf08b9a7	-0.53408283
60	0xbf20ea7a	-0.6285778
61	0xbe6718c3	-0.2256804
62	0xbee18fd1	-0.44055036
63	0xbeaec9dc	-0.3413838
64	0x3ebcb73d	0.3685855
65	0xbf175e38	-0.5912814
66	0xbe99701b	-0.29968342
67	0xbf12879a	-0.5723816
68	0xbd4fb845	-0.050712842
69	0xbb62c8a0	-0.0034604445
70	0xbef19510	-0.47184038
71	0x3ecae926	0.39631003
72	0xbebcef6a	-0.36901408
73	0xbdcb1ff8	-0.09918207
74	0xbed2fd60	-0.41208935
75	0x3ed66582	0.4187432
76	0x3eeab324	0.45839798
77	0xbe2be004	-0.16784674
78	0xbe95a894	-0.29230177
79	0xbe13ffca	-0.14453045
80	0xbe9e3ce4	-0.3090583
81	0xbe23d398	-0.15998685
82	0x3e87fc32	0.26559597
83	0xbe24fff8	-0.1611327
84	0x3ce549dd	0.027989322
85	0xbe8f3a5c	-0.27974212
86	0xbec54e27	-0.38536188
87	0x3ec4730a	0.38369018
88	0xbed73758	-0.4203441
89	0xbe5f2bfc	-0.21794122
90	0xbe9c9996	-0.30585927
91	0xbe99a122	-0.30005747
92	0xbe937c53	-0.2880579
93	0x3d143c49	0.036190305
94	0xbeaa13a9	-0.33218125
95	0x3de51bbb	0.1118693
96	0xbe84d116	-0.2594077
97	0xbe57df02	-0.21081164
98	0x3ed4599b	0.41474614
99	0x3dd69113	0.104768895
100	0x3e7f62bd	0.2494001
101	0xbeae3248	-0.34022737
102	0xbf0acbe2	-0.5421735
103	0xbe628902	-0.22122577
104	0x3e175b50	0.14780927
105	0xbf2187b6	-0.63097703
106	0xbd8ec0a4	-0.06970337
107	0xbeb8c4d6	-0.36087674
108	0xbecbba65	-0.39790645
109	0xbf203126	-0.62574995
110	0xbf0ac7ca	-0.54211104
111	0xbe37af5e	-0.17937991
112	0xbe584bf3	-0.21122722
113	0xbe5d5ea1	-0.2161813
114	0x3e054ce1	0.13017608
115	0xbefdd595	-0.49577013
116	0x3e800ecd	0.25011292
117	0xbeb76f19	-0.35826948
118	0xbde14f01	-0.11001397
119	0xbf1a2441	-0.6021157
120	0xbf3e07b3	-0.742305
121	0xbf1811b3	-0.59402007
122	0xbdf4b459	-0.11948461
123	0xbebad5f3	-0.36491355
124	0xbd64f5b8	-0.0558984
125	0xbf0c4fcf	-0.5480928
126	0xbeb3f3f8	-0.3514707
127	0x3f3b25a8	0.73104334
