experiments/exp048_delta_ppo/best_model.pt (torch, 261173 bytes, 12 tensors)

actor.0.weight f4 [128, 54]
-0.20071809 -0.11674919 -0.08355628 -0.0189599 -0.12060684 0.020820051 -0.05294893 0.00803215
0.116480134 0.06853974 0.12827457 0.13465203 0.017846206 0.10246615 -0.07348373 -0.10290779
0.09160069 0.10379271 -0.08663716 -0.027523285 -0.041426476 -0.080655664 -0.09550519 -0.006317622
0.00017015224 -0.0002940583 0.083762854 -0.016059918 -0.08211633 0.05964172 0.016075939 -0.013086034
-0.020033058 0.061166883 0.06656399 0.06664271 0.022435406 0.10393239 -0.026264561 0.10627427
-0.1033859 0.10886423 -0.11007645 -0.06110472 0.04458242 0.096351944 0.008065152 -0.115562126
-0.10305432 -0.14069253 -0.073189765 0.11737376 -0.106010474 0.088391475 -0.18081991 0.001345745
0.06469238 0.13049588 0.09509562 0.068911634 0.11025994 0.0467438 -0.092182234 0.010784258
-0.081180744 -0.094618194 0.028049933 -0.08907759 0.012266022 0.057715654 -0.13212521 -0.12097301
0.056977354 0.005072553 -0.018658254 0.04180227 -0.04332799 0.011544775 0.1136655 -0.08786584
-0.09704565 -0.0053550163 0.017076489 0.05893559 -0.045229618 0.105981484 0.12178567 -0.07728717
-0.12712933 0.017665774 0.026146544 0.0651365 0.03799383 -0.091600716 -0.07478215 -0.034729347
0.051916696 0.045805518 0.03798368 0.05150467 0.004258023 0.04366671 0.03928829 -0.120022915
-0.08367045 0.08620458 0.060239017 -0.0920555 0.20243564 -0.042630013 0.06880172 0.07680026
0.0114448005 0.1176655 -0.10582443 -0.079875626 -0.100210726 0.054594696 0.055765983 -0.1114125
0.04981365 0.087752156 -0.11989035 -0.053607166 -0.06440965 -0.012604025 0.099160075 -0.010881097
0.031640645 -0.09145729 0.017283948 -0.07348438 0.109808974 -0.12996036 -0.04686034 0.13087764
0.011297279 -0.01361274 -0.045130134 0.13099146 0.001905779 -0.030854603 0.02300688 -0.03807274
0.09261016 0.08860802 -0.13322918 0.0837584 -0.05138877 0.032719016 -0.12082427 0.052205496
-0.121829666 0.08112762 -0.047328066 0.046119366 0.017878577 0.0634061 0.033329103 -0.07493523
-0.09548591 0.0019748965 0.17135876 -0.12820488 0.065590315 -0.06585554 -0.10705536 0.10783448
-0.078485854 0.081896394 -0.06131672 -0.072939515 0.089331426 -0.11984525 0.12350844 -0.064415276
0.110167876 0.124705344 -0.13288018 -0.114240624 -0.13209479 -0.016154414 -0.12592082 -0.1304045
0.08510982 0.037719905 -0.13208033 -0.032353885 -0.10049078 0.0020072858 0.028066006 0.01645307
-0.11230216 0.08469734 0.0031075745 0.00642051 0.10961583 -0.06503327 0.04037224 -0.09614712
0.12038915 -0.02623777 0.033398632 -0.025512595 -0.09272547 -0.11468418 -0.061230503 -0.04305338
0.10483144 0.090620056 -0.024154197 -0.10429177 -0.12213565 0.12164339 0.067124315 -0.048121564
-0.16557674 -0.16476303 0.009621871 0.10754712 -0.0009446148 0.06771261 0.07780507 -0.014596221
0.040551316 0.0010856912 -0.018133193 0.0890278 0.045741413 -0.11419686 0.11311474 -0.035389744
-0.026520682 0.11239123 -0.053080518 -0.022495268 -0.120751224 -0.0034226715 0.093662575 -0.08420461
0.017884616 0.07496582 -0.03562534 -0.016947094 0.11529998 -0.030136237 -0.11250436 0.03279383
0.11061948 0.112369135 -0.07592501 -0.00067620864 -0.09929358 -0.03474232 0.0119513525 -0.059873156
00000000: 0b89 4dbe 331a efbd 8e1f abbd cb51 9bbc
00000010: b800 f7bd d08e aa3c fae0 58bd 4799 033c
00000020: 238d ee3d 905e 8c3d 695a 033e 39e2 093e
00000030: 3532 923c c6d9 d13d a37e 96bd 52c1 d2bd
00000040: 2499 bb3d 4691 d43d d36e b1bd 8378 e1bc
00000050: cfae 29bd cc2e a5bd 3a98 c3bd 0e04 cfbb
00000060: e56a 3239 d62b 9ab9 dc8b ab3d 1790 83bc
00000070: 9b2c a8bd e04a 743d b0b1 833c ce66 56bc
00000080: 5e1c a4bc 208a 7a3d b452 883d f97b 883d
00000090: 75ca b73c 81da d43d c728 d7bc 53a6 d93d
000000a0: fdbb d3bd 36f4 de3d c36f e1bd f148 7abd
000000b0: 0e9c 363d 2b54 c53d b323 043c d6ab ecbd
000000c0: 250e d3bd b411 10be 84e4 95bd a761 f03d
000000d0: 051c d9bd 9706 b53d db28 39be b663 b03a
000000e0: 707d 843d b6a0 053e 7ec1 c23d 8b21 8d3d
000000f0: f7cf e13d 6d76 3f3d 0aca bcbd 75b0 303c
00000100: 1742 a6bd 2fc7 c1bd f9c8 e53c 506e b6bd
00000110: 6df7 483c 4067 6c3d d54b 07be b3c0 f7bd
00000120: 1661 693d a937 a63b 32d9 98bc db38 2b3d
00000130: b178 31bd 4c26 3d3c 75c9 e83d 01f3 b3bd
00000140: dfbf c6bd 2279 afbb fee3 8b3c 7266 713d
00000150: b142 39bd d20c d93d c46a f93d bc48 9ebd
00000160: 312e 02be d0b7 903c 4731 d63c 4966 853d
00000170: 6b9f 1b3d 2899 bbbd 6227 99bd 5c40 0ebd
00000180: 9aa6 543d 919e 3b3d c694 1b3d 90f6 523d
00000190: e386 8b3b dddb 323d c2ec 203d 93ce f5bd
000001a0: 6a5b abbd 078c b03d 30bd 763d 9887 bcbd
000001b0: 4a4b 4f3e cf9c 2ebd ebe7 8c3d 7449 9d3d
000001c0: f982 3b3c 9cfa f03d 7bba d8bd d595 a3bd
000001d0: 483b cdbd b09e 5f3d df6a 643d 3d2c e4bd
000001e0: 6609 4c3d 67b7 b33d 1289 f5bd 3093 5bbd
000001f0: 35e9 83bd 1d81 4ebc 7014 cb3d a146 32bc
00000200: 9f99 013d f64d bbbd 1197 8d3c fb7e 96bd
00000210: 87e3 e03d 5414 05be a1f0 3fbd ca04 063e
00000220: 3918 393c f807 5fbc 60da 38bd a022 063e
00000230: 55cb f93a cbc2 fcbc ed78 bc3c 29f2 1bbd
00000240: 65aa bd3d 1f78 b53d 3b6d 08be 8689 ab3d
00000250: 087d 52bd 6004 063d b772 f7bd 6ed5 553d
00000260: d581 f9bd 3d26 a63d 13db 41bd a9e7 3c3d
00000270: 1876 923c 0fdb 813d 1984 083d a477 99bd
00000280: 1e8e c3bd 446d 013b ac78 2f3e 2448 03be
00000290: 3754 863d 45df 86bd d73f dbbd 53d8 dc3d
000002a0: 31bd a0bd 4cb9 a73d 3e27 7bbd 5061 95bd
000002b0: 65f3 b63d 6d71 f5bd fef1 fc3d 28ec 83bd
000002c0: b29f e13d 8465 ff3d be11 08be fdf6 e9bd
000002d0: db43 07be 4356 84bc 63f1 00be c288 05be
000002e0: 0f4e ae3d 3080 1a3d 1140 07be 8285 04bd
000002f0: 1cce cdbd ab8c 033b aeea e53c 97c8 863c
00000300: adfe e5bd cd75 ad3d 73a8 4b3b 2463 d23b
00000310: 447e e03d 2a30 85bd 5d5d 253d c8e8 c4bd
00000320: 968e f63d 98f0 d6bc 01cd 083d caff d0bc
00000330: dae6 bdbd 8adf eabd d6cc 7abd be58 30bd
00000340: deb1 d63d 0297 b93d 06df c5bc ec96 d5bd
00000350: 4122 fabd 2b20 f93d 7978 893d 1e1b 45bd
00000360: f38c 29be a4b7 28be 0da5 1d3c aa41 dc3d
00000370: 07a0 77ba e9ac 8a3d 4458 9f3d fd24 6fbc
00000380: 2319 263d c04d 8e3a 108c 94bc 3554 b63d
00000390: 595b 3b3d 0be0 e9bd b3a8 e73d d6f4 10bd
000003a0: e741 d9bc 602d e63d f56a 59bd ff47 b8bc
000003b0: 6b4c f7bd e64e 60bb 2ad2 bf3d 7773 acbd
000003c0: c282 923c ae87 993d e0eb 11bd a2d4 8abc
000003d0: 6522 ec3d 45e0 f6bc b068 e6bd d352 063d
000003e0: 778c e23d ca21 e63d 927e 9bbd 9843 31ba
000003f0: 6f5a cbbd f74d 0ebd 9bcf 433c 8e3d 75bd

actor.0.bias f4 [128]
-0.0984052 0.14953595 0.07697152 -0.0134049 0.08361927 -0.025093656 0.019566257 0.120218925
-0.102899775 0.044352353 0.07329579 0.0048709763 -0.09574292 0.12238441 -0.060568128 0.04932564
0.06818323 -0.06355701 -0.061178412 0.12568367 -0.026770435 0.12379517 -0.04579204 0.015417359
-0.14900994 -0.10331531 0.01642905 0.0737552 0.036023945 0.041043304 0.036878683 0.047915675
0.02544792 0.10404547 -0.1388041 0.02456304 -0.007867925 0.07076223 -0.05039694 0.13145919
0.13283503 0.042660777 -0.009413843 -0.025718281 -0.034625065 0.08105507 0.06797332 0.13218306
-0.0155089395 0.03996358 -0.026680851 -0.12329801 -0.08544826 0.07190947 -0.00528958 -0.06603993
-0.059633028 -0.14548597 0.1163325 -0.115139924 -0.06159392 -0.022408051 -0.03324369 -0.016471667
-0.03762463 0.1067423 0.038779598 0.12926067 0.08706449 -0.016748007 -0.030164145 0.012125835
-0.08692553 0.14617336 0.13162448 0.0031262683 0.084562324 0.055549715 -0.02905565 -0.034465086
0.02255028 -0.036849476 -6.139216e-05 -0.00047224693 0.11917235 0.045257136 -0.003723519 -0.03777699
-0.0743526 -0.041247953 0.045666873 -0.13005304 -0.067651376 0.039517127 0.113054916 0.11487079
0.0038587519 0.09507109 -0.094222985 0.13793434 0.08564437 0.09746192 -0.00840659 -0.009847907
-0.052572817 0.0050228424 -0.057712946 -0.07946432 -0.04222773 -0.022954537 -0.019845098 -0.14737707
0.12188205 -0.059505355 -0.08959523 -0.112625845 0.11290096 0.048059873 -0.06483839 -0.048727416
-0.14051087 0.038487636 -0.0893627 0.034280237 -0.05167568 0.105175205 -0.06748689 0.13472836
00000000: aa88 c9bd f41f 193e 3fa3 9d3d 3aa0 5bbc
00000010: 9440 ab3d 3691 cdbc 6a49 a03c 5735 f63d
00000020: 1ebd d2bd d0aa 353d 1a1c 963d b69c 9f3b
00000030: dd14 c4bd ada4 fa3d 4916 78bd af09 4a3d
00000040: a6a3 8b3d 2d2a 82bd 3796 7abd 38b3 003e
00000050: ac4d dbbc 5288 fd3d 6f90 3bbd 1799 7c3c
00000060: 1096 18be fa96 d3bd 3796 863c f70c 973d
00000070: d88d 133d 061d 283d 1a0e 173d 3a43 443d
00000080: 2878 d03c cb15 d53d a922 0ebe 6e38 c93c
00000090: 78e8 00bc caeb 903d 066d 4ebd 3d9d 063e
000000a0: e805 083e 11bd 2e3d 853c 1abc 25af d2bc
000000b0: 03d3 0dbd 3300 a63d 9935 8b3d ff5a 073e
000000c0: 3519 7ebc dab0 233d cd91 dabc ab83 fcbd
000000d0: 7fff aebd 4645 933d 3754 adbb f13f 87bd
000000e0: c341 74bd 46fa 14be bc3f ee3d 7bce ebbd
000000f0: e849 7cbd 1791 b7bc 892a 08bd 97ef 86bc
00000100: 491c 1abd b59b da3d 5bd7 1e3d e95c 043e
00000110: de4e b23d 1e33 89bc cc1a f7bc 70ab 463c
00000120: 0306 b2bd 78ae 153e 91c8 063e 14e2 4c3b
00000130: 032f ad3d 1988 633d 1d06 eebc 432b 0dbd
00000140: 5dbb b83c 7aef 16bd aabf 80b8 e997 f7b9
00000150: a210 f43d 8c5f 393d 4806 74bb 0cbc 1abd
00000160: 2d46 98bd 9df3 28bd 300d 3b3d a02c 05be
00000170: ce8c 8abd b6dc 213d 5689 e73d 6041 eb3d
00000180: 1de3 7c3b a2b4 c23d fbf7 c0bd a93e 0d3e
00000190: 5166 af3d 1d9a c73d cbbb 09bc 1e59 21bc
000001a0: 9856 57bd a896 a43b 6964 6cbd 30be a2bd
000001b0: fcf6 2cbd 270b bcbc 3092 a2bc 04ea 16be
000001c0: 4c9d f93d e3bb 73bd b47d b7bd 61a8 e6bd
000001d0: 9e38 e73d 6eda 443d fdc9 84bd 6696 47bd
000001e0: 15e2 0fbe 36a5 1d3d cb03 b7bd 6f69 0c3d
000001f0: e1a9 53bd 1966 d73d 9136 8abd 3bf6 093e

actor.2.weight f4 [128, 128]
0.010822367 0.084304266 -0.08352133 -0.022618715 -0.0122897355 -9.013597e-05 -0.12897496 -0.002364615
0.052265126 0.023985237 0.09643582 0.06124964 -0.10650693 0.027246922 -0.09673954 0.08522134
-0.021772834 0.07598144 -0.030982563 0.02991781 -0.02510977 0.07576302 0.097155415 0.04612637
-0.010728214 -0.0033071637 0.092534505 -0.016206399 0.08079622 -0.03691501 -0.056256406 0.07342281
-0.06503434 -0.05016112 0.08618971 -0.014476122 0.02327325 -0.007828287 -0.009790071 0.08736239
-0.084726445 0.08382054 0.031187227 -0.073172115 0.017085025 -0.022210058 -0.05937145 -0.036432285
0.03263023 0.058129717 0.023518952 -0.06402599 0.021298751 0.09273818 -0.0837179 0.032838777
-0.043704376 0.052626044 0.09998726 0.049481153 -0.048177656 0.010261566 0.11998149 -0.06429965
0.09947714 0.005681874 0.05748367 -0.04908604 -0.0049389256 -0.091216095 -0.019692902 0.108319715
-0.09281451 0.05153156 0.055016093 -0.107952744 0.053547256 0.08669367 -0.08601071 -0.066252984
-0.097254634 0.046098765 -0.030922627 -0.05805968 0.08805374 -0.108993776 -0.019675361 -0.023937132
-0.08742708 0.058189645 -0.06130582 0.07304992 0.012722738 0.009409007 -0.05201395 -0.06920967
-0.021783855 -0.054956242 0.050681155 -0.03898478 0.064156935 0.0764312 0.0050368584 0.089004286
0.013552307 -0.00013261163 -0.018415552 -0.048984524 0.022972286 -0.007874265 0.0622485 0.06787585
0.10534605 0.067481175 0.05908063 0.030475918 -0.048647128 -0.027542025 0.029404573 0.008431733
0.03934942 0.017828261 0.025861444 0.071833834 -0.011200397 -0.0728853 -0.07120007 -0.06426506
0.025830125 0.06579991 0.09393303 0.058330853 0.02129218 -0.051118404 0.1351055 0.0905286
0.02347286 -0.09949281 0.023667702 -0.07918901 0.07339762 -0.059255123 0.026571807 0.0041434877
-0.08111506 0.036745347 -0.044014268 0.03530688 -0.04329503 0.021183267 0.02031858 0.07744401
-0.08363307 0.036696523 -0.06763406 -0.09995503 0.046274714 0.05827316 0.0015069797 0.040663734
0.03603801 0.00074436347 0.037173245 -0.031637404 -0.054389834 -0.00036941163 -0.032888312 0.039529335
-0.07669997 0.08056771 0.023866506 -0.005227728 -0.057933852 0.05822029 0.0029880034 0.030744893
0.024760207 0.016098075 0.07999434 0.020705622 0.056104288 -0.12741539 0.099769406 -0.05911571
0.09544995 0.05311126 -0.09105063 0.058501016 -0.078622326 -0.024001915 0.01599913 -0.033557527
-0.07006579 0.046154615 0.0018235124 -0.07118884 -0.035035737 0.009326245 0.048135426 -0.020210516
0.081806466 -0.04180942 0.00018489892 -0.028904103 0.028002745 0.025352027 0.05540092 0.054473847
0.036696117 0.009065041 0.08704782 -0.07025917 -0.0839389 0.101915784 -0.072165996 0.012235351
0.03795785 0.064171925 0.07212968 -0.032206718 0.038371343 0.035454582 -0.00766999 0.0075854156
0.089784004 0.11497813 -0.064931296 0.041284487 -0.05676926 0.081239104 -0.024252182 0.060223542
0.08997571 0.06732957 0.040349912 -0.05673986 0.04303579 -0.038847737 0.0905585 0.032840997
0.082872845 0.0014970028 0.05477599 0.06059484 0.09979007 0.03537874 -0.05474576 0.085284494
-0.06592598 0.06397437 0.059286226 0.041250132 -0.01633142 0.094147325 0.06515229 -0.040172394
00000000: 4c50 313c b7a7 ac3d 3b0d abbd e24a b9bc
00000010: e35a 49bc 6107 bdb8 0312 04be a8f7 1abb
00000020: f513 563d b07c c43c 2580 c53d e7e0 7a3d
00000030: 4e20 dabd f034 df3c 611f c6bd 8788 ae3d
00000040: f15c b2bc 289c 9b3d 25cf fdbc 3216 f53c
00000050: 01b3 cdbc a429 9b3d 6bf9 c63d 01ef 3c3d
00000060: 64c5 2fbc 00bd 58bb bb82 bd3d 48c3 84bc
00000070: 7d78 a53d 3234 17bd 1e6d 66bd b35e 963d
00000080: b930 85bd bf75 4dbd 3b84 b03d 422d 6dbc
00000090: 8ba7 be3c 3742 00bc 8966 20bc 0deb b23d
000000a0: 0f85 adbd 1aaa ab3d 5b7c ff3c 43db 95bd
000000b0: e5f5 8b3c def1 b5bc 7a2f 73bd 053a 15bd
000000c0: 47a7 053d 6d19 6e3d d1aa c03c 0f20 83bd
000000d0: b87a ae3c 84ed bd3d 4a74 abbd f481 063d
000000e0: 5c03 33bd 688e 573d 1fc6 cc3d c0ac 4a3d
000000f0: ef55 45bd 2120 283c dbb8 f53d 89af 83bd
00000100: acba cb3d 042f ba3b ff73 6b3d 720e 49bd
00000110: b6d6 a1bb 81cf babd 0253 a1bc bad6 dd3d
00000120: 8915 bebd c212 533d 8e58 613d 5416 ddbd
00000130: 5e54 5b3d 738c b13d 6226 b0bd a5af 87bd
00000140: 702d c7bd 0fd2 3c3d 7351 fdbc fdcf 6dbd
00000150: 8555 b43d 2138 dfbd 392e a1bc ce17 c4bc
00000160: f80c b3bd 4458 6e3d d01b 7bbd 329b 953d
00000170: 0873 503c 3c28 1a3c 940c 55bd cdbd 8dbd
00000180: 0e74 b2bc cc19 61bd 0b97 4f3d 81ae 1fbd
00000190: b664 833d f687 9c3d 3b0c a53b e147 b63d
000001a0: 7f0a 5e3c aa0d 0bb9 36dc 96bc ffa3 48bd
000001b0: 6030 bc3c 1003 01bc 48f8 7e3d 7e02 8b3d
000001c0: abbf d73d 9233 8a3d 88fe 713d a2a8 f93c
000001d0: 3642 47bd d09f e1bc dce1 f03c 4025 0a3c
000001e0: dc2c 213d 930c 923c 61db d33c 9e1d 933d
000001f0: df81 37bc e344 95bd 58d1 91bd 669d 83bd
00000200: b399 d33c 1ac2 863d f65f c03d 55ec 6e3d
00000210: f06c ae3c 8861 51bd 1959 0a3e 0f67 b93d
00000220: 284a c03c e3c2 cbbd c5e2 c13c d92d a2bd
00000230: 7e51 963d 80b5 72bd 1ead d93c 18c6 873b
00000240: a71f a6bd 4a82 163d 4e48 34bd f29d 103d
00000250: 2156 31bd 8888 ad3c 2773 a63c f79a 9e3d
00000260: d147 abbd 184f 163d ba83 8abd 39b5 ccbd
00000270: 8e8a 3d3d d6af 6e3d d985 c53a 048f 263d
00000280: 989c 133d 6321 433a f942 183d 3996 01bd
00000290: e0c7 5ebd 97ad c1b9 e5b5 06bd 83e9 213d
000002a0: e014 9dbd af00 a53d b183 c33c 5c4d abbb
000002b0: 0c4c 6dbd 6678 6e3d 61d2 433b b7dc fb3c
000002c0: ebd5 ca3c 1ce0 833c 13d4 a33d d69e a93c
000002d0: 9ccd 653d 2e79 02be e753 cc3d 5123 72bd
000002e0: 437b c33d 318b 593d c178 babd c39e 6f3d
000002f0: be04 a1bd aa9f c4bc 9c10 833c 9e73 09bd
00000300: a77e 8fbd 9f0c 3d3d ec02 ef3a 74cb 91bd
00000310: a281 0fbd 1bcd 183c a729 453d 8690 a5bc
00000320: 268a a73d 5b40 2bbd 6de1 4139 4cc8 ecbc
00000330: 0366 e53c 0eaf cf3c 13ec 623d f81f 5f3d
00000340: ab4e 163d 8a85 143c 2146 b23d 0ae4 8fbd
00000350: 28e8 abbd 39b9 d03d c4cb 93bd c876 483c
00000360: b179 1b3d 926c 833d bab8 933d 31eb 03bd
00000370: 452b 1d3d d338 113d 8a54 fbbb 148f f83b
00000380: ade0 b73d a779 eb3d b3fa 84bd ec19 293d
00000390: e286 68bd b060 a63d 83ac c6bc f6ac 763d
000003a0: 2f45 b83d 16e4 893d f345 253d 0e68 68bd
000003b0: 4c46 303d ce1e 1fbd bc76 b93d 4884 063d
000003c0: 3db9 a93d 1437 c43a ca5c 603d 4c32 783d
000003d0: bc5e cc3d 4ce9 103d 173d 60bd a3a9 ae3d
000003e0: 3304 87bd ff04 833d 1dd6 723d e6f5 283d
000003f0: 78c9 85bc 50d0 c03d 906e 853d cf8b 24bd

actor.2.bias f4 [128]
0.0071726874 0.06709199 -0.07170721 -0.088359475 0.049111553 0.05026323 -0.056749266 -0.09205888
-0.0027141534 0.0036290816 -0.023059255 0.033384252 0.064441934 0.0075118383 0.06177419 -0.05637428
0.030221052 0.021358512 0.027540375 0.069958985 0.0785535 -0.024489269 0.021150641 0.10298432
0.11748207 0.066778764 0.033001173 -0.063822605 0.07256117 -0.08817614 -0.058645774 0.03065541
-0.08160665 0.10165656 0.07791618 0.055810217 -0.06978693 -0.054270696 0.0367286 -0.00045142544
0.068050936 0.035185363 -0.087718 -0.053789116 -0.05540375 -0.06887492 0.084246285 0.011272482
0.004028387 -0.017056234 -0.07231782 -0.011947033 -0.0868194 -0.019496527 0.058885947 0.0052522267
0.036936775 -0.013185537 -0.016527364 0.08629546 0.06509114 0.059147786 -0.07357373 -0.08854141
0.037322164 0.03951869 0.06879849 0.11783018 -0.0900406 -0.052922595 0.034629878 -0.055773005
-0.061221708 0.035399735 -0.031162797 -0.024010586 -0.07429524 -0.027588489 0.053051915 0.062159628
0.043913193 -0.07734811 -0.003543976 0.011907684 0.05700645 -0.030792484 0.07143875 0.072066925
-0.0890861 -0.044112507 -0.040166933 -0.015237604 0.005499289 0.023069179 0.093728006 -0.053760316
0.03544527 0.02320062 -0.050801657 -0.050821032 -0.02433653 0.0636033 -0.06700488 0.036809612
0.023718914 0.053012967 -0.07432372 0.05605455 0.05865697 0.0014316429 -0.046225235 0.07546801
0.10214537 -0.00766531 0.059291836 -0.0038480063 -0.018617379 -0.055239286 -0.03010516 0.031375572
-0.011056432 -0.016960574 -0.051979233 -0.0655772 -0.036468096 0.077302806 -0.076235846 0.07082517
00000000: dd08 eb3b 8667 893d 3bdb 92bd d0f5 b4bd
00000010: 3229 493d d1e0 4d3d eb71 68bd 5e89 bcbd
00000020: f0df 31bb e3d5 6d3b c3e6 bcbc edbd 083d
00000030: 22fa 833d de25 f63b ef06 7d3d b8e8 66bd
00000040: 2492 f73c 0cf8 ae3c 5a9c e13c a846 8f3d
00000050: a8e0 a03d b89d c8bc 1c44 ad3c 71e9 d23d
00000060: 719a f03d 4ec3 883d 3d2c 073d 6db5 82bd
00000070: f39a 943d b195 b4bd 8d36 70bd 0e21 fb3c
00000080: 6321 a7bd 5131 d03d 8592 9f3d 4199 643d
00000090: 73ec 8ebd f34a 5ebd ba70 163d 4cad ecb9
000000a0: 4a5e 8b3d 871e 103d 7fa5 b3bd fa51 5cbd
000000b0: 0bef 62bd 4b0e 8dbd 5189 ac3d 37b0 383c
000000c0: 8f00 843b 84b9 8bbc 5d1b 94bd 7dbd 43bc
000000d0: 5fce b1bd 2eb7 9fbc 6432 713d df1a ac3b
000000e0: 044b 173d 2708 58bc 6564 87bc adbb b03d
000000f0: 814e 853d f344 723d d3ad 96bd 3355 b5bd
00000100: 20df 183d 5ade 213d 39e6 8c3d f350 f13d
00000110: 3567 b8bd 5dc5 58bd 0fd8 0d3d 3c72 64bd
00000120: 9dc3 7abd 50ff 103d 1f49 ffbc d9b1 c4bc
00000130: 1a28 98bd 4101 e2bc f74c 593d 189b 7e3d
00000140: 52de 333d b068 9ebd 0d42 68bb 7218 433c
00000150: 987f 693d 8540 fcbc 7b4e 923d d397 933d
00000160: c672 b6bd 51af 34bd 1586 24bd 25a7 79bc
00000170: 6133 b43b 93fb bc3c 78f4 bf3d c733 5cbd
00000180: 0f2f 113d 3a0f be3c 6615 50bd b729 50bd
00000190: 675d c7bc 7242 823d db39 89bd adc5 163d
000001a0: 2b4e c23c 2024 593d 0937 98bd 7599 653d
000001b0: 4a42 703d f7a5 bb3a ac56 3dbd f98e 9a3d
000001c0: 9731 d13d 482d fbbb ffdb 723d d52e 7cbb
000001d0: 7983 98bc 9742 62bd 199f f6bc ac83 003d
000001e0: 0926 35bc e7f0 8abc 2de8 54bd 574d 86bd
000001f0: 925f 15bd ef50 9e3d 8a21 9cbd c90c 913d

actor.4.weight f4 [128, 128]
0.11458901 -0.07412727 0.05802124 0.011957648 0.12178315 0.009893289 -0.09038299 -0.089887686
0.105586015 0.07453924 -0.05198887 0.123553775 0.02953864 -0.10302107 0.03983019 -0.07651698
0.058313783 -0.05483939 0.06086182 -0.09629998 -0.050170366 -0.022727212 -0.0042660893 0.10766242
0.09531171 -0.06204404 -0.036431756 -0.042631406 -0.009210329 0.04998612 0.06994366 0.04176145
0.068582684 0.012910709 0.08718657 -0.03593825 0.08658628 0.019218214 0.10117645 0.035331488
0.103517294 -0.029138766 -0.07451115 0.060765333 0.05163229 0.059262317 0.05807702 0.06577717
-0.02970624 -0.06335689 -0.07591778 -0.01578821 -0.036276326 -0.040172588 -0.059320536 -0.09196503
0.033844277 -0.07649826 0.023336142 -0.08224608 -0.010063457 0.07705767 0.017812723 0.067266114
0.025272842 -0.0028951124 0.0036571613 0.053462707 0.0554969 0.049101345 0.042600345 0.059449125
-0.019758254 0.011694452 -0.03450606 0.06474419 0.09837664 -0.067500606 -0.005700581 -0.003379872
-0.047723077 -0.101709865 0.011001147 -0.04494575 0.042203378 -0.0017536515 -0.07283829 -0.020165263
0.049902942 -0.052446965 0.064901486 0.05462417 -0.08332038 0.059051488 0.05286046 0.012614221
-0.015323098 -0.046271957 -0.03463519 0.027725356 0.0014343312 0.0348038 -0.027759397 -0.013109719
-0.006974871 0.0059261713 -0.02967239 0.026117558 -0.0040005203 -0.051055867 -0.065281965 -0.01306252
-0.02178337 -0.02133891 0.07890796 -0.0065789064 0.013594265 0.033549268 -0.027173186 -0.10271835
-0.082544066 0.03221631 -0.0021503768 0.03552165 -0.023329671 -0.013436488 -0.050497733 -0.017598972
0.099777594 0.088534184 0.06850804 -0.07331022 0.0066340836 0.12515147 -0.04952235 0.012074551
-0.064409874 -0.0571588 0.016675852 0.060686678 -0.0062696016 0.05018327 0.08382087 0.03088674
-0.028417189 -0.02279672 0.05143266 0.04041735 -0.023968298 -0.021657638 0.005597683 -0.028927298
0.02277406 0.02549354 0.055815037 0.061720267 0.08097701 0.043294974 0.099666156 -0.010486805
-0.06919482 -0.015271827 0.041205026 0.09399948 -0.014515698 -0.018580047 -0.023995845 0.078594476
0.09404262 0.11065503 0.01664454 0.06022195 0.08245699 0.012860406 -0.021120535 0.059083153
0.08745016 -0.056535423 -0.06876373 0.040956147 0.11214828 -0.08056174 -0.040124886 0.0014290516
-0.010846842 -0.069890514 -0.0841286 0.016399471 0.025311224 0.061632544 0.05381476 -0.022112096
0.07750653 0.08052816 -0.056322508 0.011260725 0.04474896 -0.073758505 0.012221127 0.06976218
0.08400317 -0.037690006 0.09280955 0.047664866 0.03432612 -0.054236732 0.0108491145 0.03969076
-0.04533999 0.06781822 -0.076423325 0.017225027 6.2446843e-06 0.018008698 -0.014494552 0.058529448
0.040894255 0.09043508 -0.07747952 -0.06937028 -0.051528346 0.041929487 0.04668988 -0.049632613
0.029182918 -0.083353594 0.07553499 0.039698023 -0.046724297 -0.02990364 0.05473389 -0.01887557
-0.075619 0.08983866 -0.053752027 -0.051223207 -0.059629697 0.026149353 -0.049785703 -0.053755615
-0.05621194 0.036569282 0.05267632 0.06413104 0.03410659 0.07925288 0.08809387 0.034001622
-0.026811518 0.08745908 0.0008467635 -0.06880482 0.030117914 0.09855527 0.020842625 0.033804785
00000000: a5ad ea3d 0ad0 97bd aea7 6d3d 03ea 433c
00000010: 7269 f93d 7617 223c b81a b9bd 0917 b8bd
00000020: 7b3d d83d 07a8 983d 48f2 54bd c309 fd3d
00000030: 05fb f13c b6fc d2bd fb24 233d efb4 9cbd
00000040: 6fda 6e3d 459f 60bd 3e4a 793d ed38 c5bd
00000050: 717f 4dbd 6b2e babc 8dca 8bbb 1d7e dc3d
00000060: c932 c33d e421 7ebd 7739 15bd 459e 2ebd
00000070: ebe6 16bc 3fbe 4c3d 9f3e 8f3d 0e0e 2b3d
00000080: 1475 8c3d 7087 533c df8e b23d fd33 13bd
00000090: 2654 b13d 846f 9d3c 9935 cf3d c0b7 103d
000000a0: e000 d43d 6cb4 eebc 4d99 98bd 12e5 783d
000000b0: 617c 533d 0bbd 723d 2be2 6d3d 2eb6 863d
000000c0: 805a f3bc 42c1 81bd c87a 9bbd 4756 81bc
000000d0: 7c96 14bd 038c 24bd 17fa 72bd 2958 bcbd
000000e0: 4ca0 0a3d 1fab 9cbd 702b bf3c a270 a8bd
000000f0: 33e1 24bc 69d0 9d3d fdeb 913c d1c2 893d
00000100: fe08 cf3c edbb 3dbb fcac 6f3b b6fb 5a3d
00000110: b850 633d 7e1e 493d b37d 2e3d ed80 733d
00000120: 10dc a1bc 169a 3f3c 3a56 0dbd 9a98 843d
00000130: b179 c93d c23d 8abd f0cb babb d880 5dbb
00000140: 4679 43bd 434d d0bd 283e 343c 0919 38bd
00000150: 73dd 2c3d c8da e5ba 3e2c 95bd 9f31 a5bc
00000160: 0767 4c3d a1d2 56bd 12eb 843d 98bd 5f3d
00000170: e0a3 aabd f9df 713d 3684 583d e1ab 4e3c
00000180: bb0d 7bbc aa87 3dbd a1dd 0dbd 4920 e33c
00000190: 2b00 bc3a 6e8e 0e3d ad67 e3bc 26ca 56bc
000001a0: 758d e4bb 5430 c23b 8313 f3bc 7df4 d53c
000001b0: cc16 83bb f51f 51bd 8db2 85bd 2e04 56bc
000001c0: 0a73 b2bc f0ce aebc 7f9a a13d de93 d7bb
000001d0: 7bba 5e3c f56a 093d 4d9a debc 005e d2bd
000001e0: dd0c a9bd 40f5 033d 56ed 0cbb 267f 113d
000001f0: de1d bfbc b724 5cbc b6d6 4ebd b82b 90bc
00000200: 3258 cc3d 6951 b53d f14d 8c3d ab23 96bd
00000210: ba62 d93b b527 003e f3d7 4abd 56d4 453c
00000220: 53e9 83bd 591f 6abd cc9b 883c 9892 783d
00000230: 3b71 cdbb f98c 4d3d 47aa ab3d 3006 fd3c
00000240: 2acb e8bc 30c0 babc 0eab 523d aa8c 253d
00000250: 2a59 c4bc 5c6b b1bc c56c b73b f1f8 ecbc
00000260: aa90 ba3c d4d7 d03c 4f9e 643d 64ce 7c3d
00000270: 46d7 a53d 1256 313d c51d cc3d d9d0 2bbc
00000280: 04b6 8dbd af36 7abc 9ac6 283d cd82 c03d
00000290: 40d3 6dbc 2f35 98bc ef92 c4bc 24f6 a03d
000002a0: 6b99 c03d 1b9f e23d 215a 883c 4bab 763d
000002b0: 36df a83d 74b4 523c f904 adbc 2d01 723d
000002c0: 1219 b33d b091 67bd 00d4 8cbd a2c1 273d
000002d0: ffad e53d 8efd a4bd fe59 24bd 044f bb3a
000002e0: f4b6 31bc c222 8fbd 9e4b acbd 2f58 863c
000002f0: 7c59 cf3c 6872 7c3d de6c 5c3d 6d24 b5bc
00000300: bebb 9e3d f3eb a43d 6eb2 66bd e77e 383c
00000310: af4a 373d b30e 97bd 1f3b 483c 79df 8e3d
00000320: db09 ac3d d660 1abd ef12 be3d 3c3c 433d
00000330: 8c99 0c3d 5627 5ebd 7cc0 313c c792 223d
00000340: 6db6 39bd 47e4 8a3d d583 9cbd 801b 8d3c
00000350: 6e89 d136 fa86 933c 8f7a 6dbc 93bc 6f3d
00000360: bc80 273d 0736 b93d 95ad 9ebd 0112 8ebd
00000370: 630f 53bd 41be 2b3d e33d 3f3d 914b 4bbd
00000380: 0411 ef3c 4ab5 aabd 17b2 9a3d 659a 223d
00000390: fa61 3fbd 7af8 f4bc a530 603d f0a0 9abc
000003a0: 22de 9abd 55fd b73d 162b 5cbd 6dcf 51bd
000003b0: 453e 74bd 2b37 d63c 18ec 4bbd d92e 5cbd
000003c0: 7e3e 66bd acc9 153d 20c3 573d 2257 833d
000003d0: 5ab3 0b3d 554f a23d 8f6a b43d 4945 0b3d
000003e0: d4a3 dbbc bf1d b33d 56f9 5d3a 8be9 8cbd
000003f0: d8b9 f63c 58d7 c93d 27be aa3c e376 0a3d

actor.4.bias f4 [128]
0.09574021 -0.02691941 -0.04969208 -0.039492443 -0.02855972 0.09903022 -0.08440134 -0.046702832
0.043935064 0.06693133 0.050608706 0.033672486 -0.021192044 -0.07814167 -0.083679 -0.06038757
-0.060064062 -0.08739621 -0.058843415 -0.08941834 -0.09492606 -0.0040385984 0.08426162 0.044297174
0.07280874 0.07881324 -0.0006993478 0.045327798 0.05140908 0.07032765 0.08564667 0.048336577
-0.028393919 -0.031394936 0.072711006 0.020302938 -0.02772079 0.028070906 0.056879327 0.091257975
-0.059083447 -0.045268666 0.032710455 -0.030787772 0.0074107307 0.055777732 0.06353678 -0.042481545
0.015775714 -0.02718352 -0.029329821 -0.052884433 0.01487961 0.032735094 0.004236095 -0.056770097
0.011566655 0.08282626 0.02325327 -0.024175651 -0.033935413 0.0100537045 0.03819012 0.108506896
-0.08000732 -0.059414923 -0.043464832 0.09367147 -0.08545052 0.022662072 -0.02987393 0.07474504
0.06502147 -0.06698301 0.057253662 0.0150202755 -0.08297628 -0.002835198 -0.019208206 -0.046749465
0.07964815 0.068059884 0.03920827 0.10397946 0.039060052 0.04265153 0.030795729 0.0065106023
-0.006493236 -0.051253323 -0.012839504 0.008431667 -0.004398231 0.11142701 -0.058464464 -0.029574925
0.07056088 0.05030548 0.0012681957 -0.0024787604 0.0032946065 0.042301107 -0.023805918 -0.065971516
0.09697329 -0.08602123 0.038684133 -0.044546355 0.026233023 -0.0911532 0.08751346 0.023514519
-0.07460559 -0.07016552 0.058688458 -0.07370642 -0.040319007 0.025326742 0.07122676 -0.036673967
-0.03349663 -0.07142442 -0.09591167 0.0048061702 -0.029037112 0.09579578 0.061814263 -0.076656766
00000000: 7113 c43d 1886 dcbc ec89 4bbd d4c2 21bd
00000010: 13f6 e9bc 5bd0 ca3d 9cda acbd 784b 3fbd
00000020: 41f5 333d 4b13 893d 134b 4f3d 29ec 093d
00000030: f09a adbc bd08 a0bd e55f abbd f558 77bd
00000040: bc05 76bd c9fc b2bd cb05 71bd f620 b7bd
00000050: 9868 c2bd 3856 84bb 5b91 ac3d f470 353d
00000060: c01c 953d d668 a13d 7054 37ba a4a9 393d
00000070: 5492 523d f107 903d 8567 af3d 93fc 453d
00000080: 5d9a e8bc fa97 00bd 82e9 943d 5952 a63c
00000090: b616 e3bc f5f4 e53c 4cfa 683d 76e5 ba3d
000000a0: 7c01 72bd a36b 39bd 66fb 053d a336 fcbc
000000b0: b7d5 f23b 3177 643d 921f 823d 2101 2ebd
000000c0: 123c 813c f9af debc 1845 f0bc 599d 58bd
000000d0: 9cc9 733c 3c15 063d f1ce 8a3b c387 68bd
000000e0: 1182 3d3c d0a0 a93d a47d be3c 040c c6bc
000000f0: dcff 0abd 4bb8 243c 3e6d 1c3d dd38 de3d
00000100: e1da a3bd 105d 73bd 2e08 32bd d4d6 bf3d
00000110: af00 afbd cfa5 b93c 2cba f4bc ed13 993d
00000120: fa29 853d 632e 89bd d182 6a3d 9a17 763c
00000130: 78ef a9bd bbce 39bb 875a 9dbc 5e7c 3fbd
00000140: 921e a33d fb62 8b3d da98 203d 2ff3 d43d
00000150: 6ffd 1f3d 5fb3 2e3d 5347 fc3c e456 d53b
00000160: 36c5 d4bb 01ef 51bd c85c 52bc fa24 0a3c
00000170: 091f 90bb d833 e43d 6f78 6fbd 1d47 f2bc
00000180: 3982 903d 1e0d 4e3d 9639 a63a b372 22bb
00000190: 53ea 573b ed43 2d3d a104 c3bc 131c 87bd
000001a0: ef99 c63d e62b b0bd 4173 1e3d 3d76 36bd
000001b0: a3e6 d63c 87ae babd 423a b33d 85a1 c03c
000001c0: d1ca 98bd f1b2 8fbd 4f63 703d 64f3 96bd
000001d0: 8b25 25bd 077a cf3c 56df 913d 7137 16bd
000001e0: c333 09bd f746 92bd 566d c4bd 147d 9d3b
000001f0: 3ddf edbc 9430 c43d f430 7d3d 39fe 9cbd

actor.6.weight f4 [1, 128]
-0.10562946 -0.074913196 -0.08186438 0.0125736445 0.011211935 0.07556462 -0.07199375 -0.06814135
-0.14058101 0.1277954 0.06819747 0.09576685 -0.079198815 -0.021212302 0.049635436 0.032508366
-0.0765869 0.026534857 -0.0657035 0.112249434 0.087475546 0.034707587 0.02760207 -0.08382337
-0.11321631 0.10652255 0.03282309 -0.12532622 0.09560633 0.09389539 -0.083595246 -0.10662627
-0.014474339 0.06356387 -0.093844526 0.07585149 0.030086562 -0.09751869 -0.06736117 -0.04609535
0.061553754 0.0012418352 -0.12427844 0.06725085 -0.07365188 -0.107447766 -0.06429996 -0.10093804
0.06951173 -0.02620736 -0.07463499 -0.10111049 -0.09672296 0.08383245 -0.060365334 0.034273565
0.09219575 -0.027651312 0.1130002 -0.055782232 0.0950484 0.0457923 0.06721754 0.12135244
0.06381226 -0.05011191 -0.052903153 -0.07724367 -0.04676608 -0.099922255 0.07183183 0.059627753
-0.03764097 -0.078757 0.12442038 -0.026486417 0.084205404 -0.019580822 0.18723623 0.020212347
0.046393096 0.05973936 0.042926908 0.07874374 -0.117884755 -0.07277879 0.11032754 0.09067714
-0.032109994 0.13158634 -0.07267583 -0.061205678 -0.07171036 0.044599645 0.06934997 0.039166037
-0.079441205 -0.04043175 0.06909317 0.088448696 0.075757526 -0.08812039 0.06367674 -0.03475065
-0.075802475 0.10741405 0.15026174 -0.10027736 -0.12543091 0.08783798 -0.08144183 -0.1344131
-0.07152801 0.03406136 0.046435438 0.083565935 -0.017878383 -0.06522305 0.12393869 0.08721999
0.05033426 -0.04627227 -0.107484736 -0.09079887 -0.056045476 0.071527116 0.12153158 0.054017946
00000000: 4254 d8bd 176c 99bd 83a8 a7bd b001 4e3c
00000010: 44b2 373c a0c1 9a3d 7671 93bd b18d 8bbd
00000020: 78f4 0fbe ccdc 023e 1dab 8b3d 6921 c43d
00000030: fd32 a2bd 6cc5 adbc 874e 4b3d 7e27 053d
00000040: 98d9 9cbd a15f d93c 8e8f 86bd 08e3 e53d
00000050: 6126 b33d 8b29 0e3d bc1d e23c 96ab abbd
00000060: f4dd e7bd 7f28 da3d 8171 063d 8455 00be
00000070: 40cd c33d 3a4c c03d fc33 abbd e05e dabd
00000080: c725 6dbc c62d 823d 8f31 c0bd 0758 9b3d
00000090: 1878 f63c e1b7 c7bd a7f4 89bd 7ace 3cbd
000000a0: ca1f 7c3d 13c5 a23a b285 febd d0ba 893d
000000b0: ccd6 96bd 930d dcbd b3af 83bd 9ab8 cebd
000000c0: 2a5c 8e3d d1b0 d6bc 3bda 98bd 0413 cfbd
000000d0: b016 c6bd 59b0 ab3d a441 77bd 7062 0c3d
000000e0: 20d1 bc3d 0185 e2bc a66c e73d e97b 64bd
000000f0: bca8 c23d b590 3b3d 5aa9 893d a187 f83d
00000100: 01b0 823d 2542 4dbd fab0 58bd ee31 9ebd
00000110: ca8d 3fbd 0aa4 ccbd 911c 933d 3b3c 743d
00000120: 6b2d 1abd 5a4b a1bd 1dd0 fe3d 0bfa d8bc
00000130: e273 ac3d f667 a0bc dbba 3f3e 5d94 a53c
00000140: b006 3e3d 42b1 743d 20d4 2f3d 6644 a13d
00000150: 906d f1bd 0c0d 95bd 68f3 e13d f0b4 b93d
00000160: c585 03bd 92be 063e 11d7 94bd ceb2 7abd
00000170: e2dc 92bd 1eae 363d 5b07 8e3d 916c 203d
00000180: 12b2 a2bd c39b 25bd b880 8d3d 9724 b53d
00000190: c326 9b3d 7778 b4bd f368 823d b356 0ebd
000001a0: 543e 9bbd e6fb db3d 37de 193e 375e cdbd
000001b0: f670 00be 66e4 b33d f9ca a6bd 96a3 09be
000001c0: 477d 92bd ed83 0b3d 1633 3e3d 9e24 ab3d
000001d0: b075 92bc aa93 85bd 91d3 fd3d 65a0 b23d
000001e0: 4c2b 4e3d fe87 3dbd f520 dcbd c2f4 b9bd
000001f0: f18f 65bd cf7c 923d 8de5 f83d ec41 5d3d

critic.0.weight f4 [128, 54]
0.24760069 0.18069153 -0.20404911 -0.100640096 -0.18189462 -0.19468062 -0.20353687 -0.09837204
-0.033738606 -0.09520412 -0.0733055 0.007793842 -0.041268963 0.032564286 0.13316326 0.16177294
0.021916172 -0.022922087 0.059462037 -0.0547704 0.0059517063 0.124054216 0.1109337 0.18597521
0.1696949 -0.01065916 -0.06922318 0.051803682 0.048014246 0.06868917 0.12547745 0.05100477
0.073316015 -0.12663423 0.0899638 -0.006963409 0.036438785 -0.11660257 -0.023432106 0.10688349
0.015452226 0.06776977 -0.12513395 -0.10294638 -0.033737905 0.026382174 -0.034702796 0.10035548
0.048865575 -0.004166985 -0.16119438 -0.0012374837 -0.011235489 0.03376748 0.030430341 -0.044179272
0.05374652 0.086300835 0.12711735 0.03637035 0.10480759 0.0395679 -0.00627901 -0.001731292
0.020874314 -0.022985721 -0.0731742 0.10276755 -0.09618841 -0.0034463555 0.09380494 -0.15450823
-0.077496246 -0.13700853 -0.030701792 0.11355191 -0.13606775 -0.06171243 -0.09438683 -0.033344872
-0.0040775756 0.094804764 0.10328432 0.08063133 -0.12803712 0.008071237 0.041350823 0.019584483
-0.02542075 0.07602978 -0.02005756 -0.11607473 -0.054672834 0.0024987506 -0.040326126 0.0015684757
-0.03850095 -0.11218391 0.00063534436 0.13677989 -0.043586228 0.15242761 0.038831767 -0.0015216215
-0.04965687 -0.022815406 0.110149525 0.026605358 0.16337474 0.20420587 -0.01954856 -0.06812949
-0.19344711 -0.10836559 -0.1743682 -0.19381323 -0.0053121233 -0.08894239 -0.17924108 4.3954315e-06
0.041810215 0.062525 -0.033693813 0.07863447 0.050200537 0.144546 0.03202565 -0.0823597
-0.055072207 -0.022798432 -0.03703259 -0.058852803 0.13927853 -0.034142803 0.1643613 0.13079044
0.1313886 -0.02708009 0.14473632 0.015040489 0.13248254 0.13774957 0.12801158 -0.13532597
0.023070218 0.0751615 0.07193846 -0.008655906 0.09661774 -0.038181145 0.093340814 -0.06510075
0.0911945 -0.11570002 -0.14772749 -0.059443414 0.010151534 0.024496103 0.097757265 0.035368357
-0.12675136 -0.11074627 0.15052721 0.0070435912 0.22147624 -0.04537043 -0.15371314 0.09787593
0.04459225 -0.11282136 -0.015159551 0.033119496 -0.0035698449 0.16126214 0.045190793 -0.03169964
0.12602094 0.08792502 0.12104783 0.17107777 0.06573915 0.13424598 0.046620276 -0.036969434
0.13450815 0.031146348 0.12883233 0.13203207 0.09118756 -0.08844537 0.10428241 0.024239328
0.020848433 -0.072917275 -0.013293387 -0.10649305 0.025247745 -0.13765693 -0.0310172 -0.06683511
0.10393648 -0.043486144 -0.09245358 -0.155518 -0.1166136 0.09942683 -0.10834949 -0.02692788
-0.14797595 -0.0968488 -0.079835445 -0.13045225 0.08045903 0.07556191 -0.14191805 -0.0143984705
0.23502693 -0.007893111 0.09151527 0.16904166 0.04188124 0.15778098 -0.022898655 0.03776375
0.06848814 0.11831038 0.11276713 0.051980533 -0.043899562 0.0023736493 0.092297785 0.12254591
-0.006234584 0.13698311 0.05943912 0.08010571 0.022726491 -0.10073914 -0.027319657 -0.09814462
0.088825926 -0.119487904 -0.062384635 -0.1418484 0.1130196 0.076591685 0.015888412 -0.09916214
0.05108896 0.04495205 -0.10439661 -0.020541068 -0.06353522 -0.024398658 0.059952013 0.021267159
00000000: 098b 7d3e 3307 393e 40f2 50be 651c cebd
00000010: 9542 3abe 5b5a 47be f86b 50be 4877 c9bd
00000020: 7e31 0abd 61fa c2bd 3221 96bd 7c63 ff3b
00000030: a509 29bd 2162 053d f35b 083e cea7 253e
00000040: 8b89 b33c 1ac7 bbbc 778e 733d ed56 60bd
00000050: 8806 c33b 2310 fe3d 3531 e33d 4970 3e3e
00000060: 80c4 2d3e c2a3 2ebc e2c4 8dbd 1930 543d
00000070: 96aa 443d e8ac 8c3d 297d 003e 61ea 503d
00000080: b526 963d 67ac 01be f13e b83d 4f2d e4bb
00000090: d640 153d 54cd eebd b0f4 bfbc bbe5 da3d
000000a0: 552b 7d3c e1ca 8a3d 1d23 00be 8dd5 d2bd
000000b0: c230 0abd 6e1f d83c 8524 0ebd 2d87 cd3d
000000c0: 4527 483d 348b 88bb 2410 25be 1033 a2ba
000000d0: 0e15 38bc c54f 0a3d 0d49 f93c 53f5 34bd
000000e0: 5025 5c3d 7ebe b03d 0d2b 023e 13f9 143d
000000f0: 5da5 d63d f311 223d 27c0 cdbb 85ec e2ba
00000100: 9c00 ab3c 8d4c bcbc 5bdc 95bd cb77 d23d
00000110: 6efe c4bd 40dc 61bb ce1c c03d 6837 1ebe
00000120: 5ab6 9ebd f74b 0cbe 5382 fbbc e78d e83d
00000130: 5855 0bbe 2cc6 7cbd e24d c1bd a294 08bd
00000140: 2f9d 85bb 0029 c23d bb86 d33d 0a22 a53d
00000150: 2a1c 03be 393d 043c 7b5f 293d a36f a03c
00000160: 2d3f d0bc 80b5 9b3d c14f a4bc 97b8 edbd
00000170: 9ff0 5fbd 14c2 233b 022d 25bd 5095 cd3a
00000180: 2cb3 1dbd aec0 e5bd 3d8d 263a 0710 0c3e
00000190: 7987 32bd fc15 1c3e 0f0e 1f3d 2571 c7ba
000001a0: 0165 4bbd 60e7 babc 1396 e13d 7bf3 d93c
000001b0: b54b 273e 581b 513e 4d24 a0bc 7987 8bbd
000001c0: 0017 46be c7ee ddbd 948d 32be fa76 46be
000001d0: 5211 aebb 6e27 b6bd f98a 37be 787c 9336
000001e0: 3041 2b3d 1b0d 803d 8602 0abd 1c0b a13d
000001f0: 149f 4d3d de03 143e 542d 033d 34ac a8bd
00000200: 6593 61bd c7c3 babc 7caf 17bd a30f 71bd
00000210: 089f 0e3e 53d9 0bbd 544e 283e eeed 053e
00000220: bc8a 063e 11d7 ddbc c235 143e 626c 763c
00000230: 81a9 073e 390e 0d3e 7815 033e e492 0abe
00000240: c1fd bc3c 46ee 993d 7954 933d 80d1 0dbc
00000250: 86df c53d d563 1cbd 7829 bf3d 8b53 85bd
00000260: 2fc4 ba3d 22f4 ecbd e045 17be f07a 73bd
00000270: 9f52 263c 0dac c83c f634 c83d 69de 103d
00000280: 1ccb 01be f1ce e2bd ce23 1a3e edcd e63b
00000290: abca 623e 58d6 39bd fa66 1dbe 2d73 c83d
000002a0: 5da6 363d e30e e7bd c45f 78bc 4fa8 073d
000002b0: 0ff4 69bb e721 253e fb19 393d 7bd7 01bd
000002c0: a20b 013e 0812 b43d ede7 f73d 032f 2f3e
000002d0: 3fa2 863d c777 093e e7f4 3e3d 436d 17bd
000002e0: 81bc 093e a026 ff3c 9fec 033e 6a33 073e
000002f0: 8bc0 ba3d d922 b5bd 0492 d53d 8e91 c63c
00000300: 55ca aa3c a755 95bd 82cc 59bc 0719 dabd
00000310: 5cd4 ce3c f0f5 0cbe c817 febc d9e0 88bd
00000320: a6dc d43d 871e 32bd 4d58 bdbd 1c40 1fbe
00000330: 1cd3 eebd 4ba0 cb3d 56e6 ddbd db97 dcbc
00000340: 0287 17be aa58 c6bd c480 a3bd 4695 05be
00000350: b4c7 a43d 34c0 9a3d f752 11be 90e7 6bbc
00000360: e6aa 703e 1b52 01bc 5c6c bb3d 4219 2d3e
00000370: aa8b 2b3d 5691 213e f695 bbbc 29ae 1a3d
00000380: 8343 8c3d b64c f23d 74f2 e63d 8ae9 543d
00000390: 07d0 33bd 3a8f 1b3b 9f06 bd3d 5af9 fa3d
000003a0: 7b4b ccbb 4d45 0c3e 6f76 733d 760e a43d
000003b0: e82c ba3c 5250 cebd 79cd dfbc 0c00 c9bd
000003c0: 5eea b53d 13b6 f4bd 0887 7fbd b540 11be
000003d0: d276 e73d 1adc 9c3d 6a28 823c 8515 cbbd
000003e0: a842 513d a41f 383d e4cd d5bd be45 a8bc
000003f0: c11e 82bd b2df c7bc 3e90 753d 7738 ae3c

critic.0.bias f4 [128]
-0.03694635 0.09435788 -0.057312295 0.06930303 0.09263693 -0.011996432 -0.022510272 -0.006226374
0.1751776 0.17085893 0.025120798 -0.049910728 0.03883848 -0.056356218 0.077279165 0.11383472
-0.14207153 0.047989745 0.12347677 0.11503435 -0.022735197 0.008779918 -0.110001616 0.07096565
-0.05086953 -0.049738105 -0.037003525 0.05842302 0.12980081 -0.028988073 0.16045237 0.010310722
0.004313079 0.048603725 0.026231345 0.13658433 -0.08192232 0.15738606 0.054425433 -0.058510926
0.11669882 0.11714192 0.19145948 -0.06371783 0.07615958 0.14872716 0.022901986 0.09001351
0.16301888 -0.08078877 0.18221778 0.06561102 0.030800989 0.01709878 -0.03312932 0.03275755
-0.06429644 0.13196866 0.14573497 0.004528276 0.012761898 0.036547273 0.019687066 0.00373183
0.1786806 0.017159428 0.072245926 -0.08304922 0.041878417 0.01701314 0.0048195072 0.16422673
0.07629731 0.13064471 0.06079414 0.14521194 0.13769957 0.13100871 0.052400313 0.116176836
0.0057153953 0.104689516 0.13461736 0.109039955 0.097721584 0.08636318 0.09834797 0.06153873
-0.008902428 0.04554415 0.010667822 0.014078753 -0.020311603 0.11589759 0.08908808 0.13124342
-0.019306289 0.09998307 0.15604797 0.1179032 0.13391651 0.13165002 0.16115333 0.12971365
0.020524843 -0.00857628 -0.02424083 -0.0455849 0.03770564 -0.08784032 -0.049871 0.06085116
0.048540562 0.040087905 0.077332966 0.08221955 0.09980321 -0.0018604095 0.028222416 -0.08312746
-0.0815503 -0.05286358 0.073762104 -0.0077943006 0.14946006 -0.057226535 -0.015418841 0.1438038
00000000: 0e55 17bd b43e c13d 4cc0 6abd bfee 8d3d
00000010: 6eb8 bd3d af8c 44bc 7667 b8bc 9c06 ccbb
00000020: c261 333e a5f5 2e3e 22ca cd3c 316f 4cbd
00000030: 1915 1f3d c7d5 66bd 8a44 9e3d 2d22 e93d
00000040: 337b 11be e590 443d 64e1 fc3d 2197 eb3d
00000050: 2a3f babc a5d9 0f3c 8748 e1bd 7056 913d
00000060: 915c 50bd 2fba 4bbd 0291 17bd fa4c 6f3d
00000070: 81ea 043e 6578 edbc a04d 243e 4dee 283c
00000080: bb54 8d3b b314 473d 1ee3 d63c c3dc 0b3e
00000090: e4c6 a7bd d029 213e 34ed 5e3d 27a9 6fbd
000000a0: caff ee3d 1ae8 ef3d f40d 443e 7e7e 82bd
000000b0: 8ef9 9b3d ef4b 183e f29c bb3c 0159 b83d
000000c0: 6cee 263e 9574 a5bd 4c97 3a3e 125f 863d
000000d0: 5b52 fc3c be12 8c3c 9cb2 07bd c82c 063d
000000e0: daad 83bd cb22 073e 8c3b 153e ef61 943b
000000f0: 4817 513c 98b2 153d c546 a13c b891 743b
00000100: 0cf8 363e ee91 8c3c acf5 933d b615 aabd
00000110: b488 2b3d 245f 8b3c f5ec 9d3b 0d2b 283e
00000120: c441 9c3d bac7 053e 4703 793d 70b2 143e
00000130: 1e01 0d3e 2627 063e b6a1 563d 1fee ed3d
00000140: 3648 bb3b 7567 d63d 22d9 093e 5750 df3d
00000150: 4122 c83d 2edf b03d a96a c93d 0910 7c3d
00000160: 7ddb 11bc 818c 3a3d 17c8 2e3c 92aa 663c
00000170: 8564 a6bc b75b ed3d d073 b63d ad64 063e
00000180: 3928 9ebc ecc3 cc3d 0acb 1f3e 3c77 f13d
00000190: 6921 093e 43cf 063e 6105 253e a8d3 043e
000001a0: b723 a83c 8783 0cbc b594 c6bc 3bb7 3abd
000001b0: 3b71 1a3d a0e5 b3bd 8945 4cbd 113f 793d
000001c0: 78d2 463d 3733 243d bf60 9e3d b962 a83d
000001d0: a065 cc3d fcd8 f3ba b232 e73c bb3e aabd
000001e0: d803 a7bd 7b87 58bd 9610 973d 5567 ffbb
000001f0: 0f0c 193e 5f66 6abd 4e9f 7cbc 4e41 133e

critic.2.weight f4 [128, 128]
0.18960324 -0.025170464 0.1341795 0.014826024 0.11904537 0.03492995 -0.04162969 -0.023970516
0.05210107 0.07494034 0.13745165 0.09813118 0.1434122 0.09841188 0.014533458 0.051289268
-0.12680264 0.057835367 0.0093903495 0.08773576 0.047174692 0.120458156 0.019176506 0.06370009
0.09560545 0.11981024 0.058216643 0.10056678 0.10554028 0.0081591895 0.08979099 0.13985316
0.08911219 0.13786894 0.07665855 0.090837024 0.056369744 0.01735759 0.018860504 0.062855065
0.077943265 0.0056562684 0.005109446 0.12905309 0.022663018 0.048792627 0.10499186 -0.025688846
0.09367278 0.042641565 0.10838581 -0.022199502 0.070508964 -0.009001768 -0.029529035 0.022120392
0.14556213 0.027919356 0.045154933 0.08135003 -0.045746345 0.09803763 0.04340922 0.15551461
0.009725127 0.06378109 -0.014381783 -0.0109281335 0.07004495 0.06930002 0.14422119 0.045789436
-0.12865886 0.14604346 -0.007750784 -0.030778525 0.079272814 0.10201828 0.04929057 -0.034845497
-0.010884032 0.104280755 0.12247149 -0.0013733855 -0.0016260354 0.08564102 0.066480406 0.1056269
0.023916977 0.046354692 -0.00024505588 0.015800277 -0.021135183 0.10787408 -0.010965756 0.1046058
-0.051857624 -0.038106423 -0.00783701 0.14058217 0.059431296 0.070783146 0.08114869 0.058204886
0.04585134 0.12408484 -0.04312694 0.019089362 0.07893521 0.11887349 0.05208231 0.14308214
0.016441062 0.13354829 -0.023923703 0.031325996 0.05941317 0.060092624 -0.016495846 0.11939715
0.041454248 0.013993052 0.044396177 -0.0021782229 0.16819535 0.06072753 0.051012095 0.057126015
0.059595063 0.024940025 0.085741185 0.10438598 -0.07358552 0.07147429 -0.06631259 0.08289604
0.05912904 -0.016759584 0.067589924 -0.035198182 -0.06801394 0.083399564 0.038408153 -0.06174102
-0.0636854 -0.068415076 -0.06160559 -0.008391018 0.04692831 -0.028069053 0.018970294 -0.0168776
0.03198005 0.059935126 0.052554317 0.044214137 -0.015358121 -0.08565632 -0.067950875 0.07388489
-0.002536327 0.02009691 -0.00997775 -0.07799066 -0.043985423 -0.021391906 -0.058446184 -0.06643055
0.019540858 0.091541536 0.02432801 0.006329131 0.05995075 0.004468815 0.0762496 0.10244416
-0.047699615 -0.07402892 -0.056073453 -0.017671993 -0.071499266 0.05910992 -0.00743374 0.0431632
0.02806297 -0.03915634 0.091080315 -0.014337231 -0.021600103 0.066066064 0.028582392 0.026577886
-0.020619977 -0.091210134 -0.013739081 -0.0630685 0.043684926 0.026792968 0.062165655 -0.060125902
0.03153466 0.061759938 0.013367149 -0.05216495 -0.10637183 -0.09562446 -0.025115287 0.051491678
0.03007546 0.032920253 0.020308748 -0.026579829 -0.0332442 -0.05890039 -0.02272792 -0.010918457
0.050538022 0.039431807 0.046734225 -0.0067973593 -0.010814637 0.02303035 0.01621274 0.004050809
-0.055724096 -0.09921101 0.04655067 -0.059360523 0.09272481 -0.07827968 0.07861422 0.049289864
-0.10417605 -0.053878345 0.012688665 -0.057290632 -0.079150535 0.015905224 -0.063775465 -0.034099508
-0.012986672 0.025023323 0.019558065 -0.074968144 -0.023507627 -0.06205544 -0.019502146 -0.08691742
-0.08121015 0.06804648 0.045555778 -0.025656 -0.05684988 0.019292163 0.039834745 -0.058040544
00000000: 5a27 423e 4a32 cebc 5a66 093e dae8 723c
00000010: 0fce f33d b512 0f3d e583 2abd d15d c4bc
00000020: ee67 553d 527a 993d 20c0 0c3e 00f9 c83d
00000030: a6da 123e 2b8c c93d be1d 6e3c b214 523d
00000040: 8dd8 01be c7e4 6c3d fbd9 193c ceae b33d
00000050: 403a 413d c4b2 f63d 0c18 9d3c 3175 823d
00000060: cacc c33d 125f f53d 9374 6e3d f5f5 cd3d
00000070: 8125 d83d 1fae 053c 57e4 b73d ab35 0f3e
00000080: 7480 b63d 842d 0d3e 28ff 9c3d c308 ba3d
00000090: f6e3 663d 8131 8e3c 5881 9a3c 28ba 803d
000000a0: b8a0 9f3d 3858 b93b 246d a73b 7e26 043e
000000b0: cba7 b93c c7da 473d f905 d73d 6a71 d2bc
000000c0: 84d7 bf3d eca8 2e3d 61f9 dd3d bbdb b5bc
000000d0: 0167 903d 277c 13bc e0e6 f1bc d335 b53c
000000e0: 3d0e 153e 22b7 e43c 61f4 383d d89a a63d
000000f0: 8560 3bbd f4c7 c83d decd 313d 393f 1f3e
00000100: 2456 1f3c a99f 823d 92a1 6bbc ea0b 33bc
00000110: ba73 8f3d 2bed 8d3d b8ae 133e b48d 3b3d
00000120: 26bf 03be 6b8c 153e 4afa fdbb 3f23 fcbc
00000130: c959 a23d f6ee d03d e9e4 493d 27ba 0ebd
00000140: f052 32bc 2691 d53d 55d2 fa3d 2c03 b4ba
00000150: b220 d5ba 8f64 af3d e126 883d eb52 d83d
00000160: 89ed c33c 6bde 3d3d d87a 80b9 956f 813c
00000170: b123 adbc 16ed dc3d b7a9 33bc 913b d63d
00000180: a968 54bd 7b15 1cbd cd66 00bc c6f4 0f3e
00000190: 3b6e 733d c1f6 903d 4931 a63d 3f68 6e3d
000001a0: 9dce 3b3d 3120 fe3d e0a5 30bd 4b61 9c3c
000001b0: c9a8 a13d f273 f33d 4354 553d 2084 123e
000001c0: 68af 863c e2c0 083e a4fb c3bc b04f 003d
000001d0: 395b 733d af23 763d 4c22 87bc 7e86 f43d
000001e0: eecb 293d 1d43 653c c4d8 353d 84c0 0ebb
000001f0: 673b 2c3e 6ebd 783d 0ff2 503d f8fc 693d
00000200: f419 743d 064f cc3c 1399 af3d 51c8 d53d
00000210: 01b4 96bd 1d61 923d e5ce 87bd 66c5 a93d
00000220: 4b31 723d 654b 89bc 966c 8a3d f82b 10bd
00000230: e44a 8bbd 64cd aa3d de51 1d3d 27e4 7cbd
00000240: 7e6d 82bd 341d 8cbd 2556 7cbd 7b7a 09bc
00000250: e637 403d 12f1 e5bc 9767 9b3c e542 8abc
00000260: 83fd 023d 897e 753d 3243 573d e219 353d
00000270: a1a0 7bbc 956c afbd d429 8bbd f650 973d
00000280: 8238 26bb 46a2 a43c b779 23bc 91b9 9fbd
00000290: 0f2a 34bd 143e afbc 4465 6fbd bd0c 88bd
000002a0: 2614 a03c 217a bb3d 894b c73c 9964 cf3b
000002b0: eb8e 753d 236f 923b c028 9c3d 3ece d13d
000002c0: ac60 43bd 799c 97bd 47ad 65bd dbc4 90bc
000002d0: 356e 92bd 3e1d 723d bb96 f3bb e5cb 303d
000002e0: 50e4 e53c 6662 20bd 5188 ba3d b5e6 6abc
000002f0: b3f2 b0bc a54d 873d 9f25 ea3c deb9 d93c
00000300: 3aeb a8bc 61cc babd e219 61bc 0f2a 81bd
00000310: f7ee 323d ed7c db3c 6aa1 7e3d 9446 76bd
00000320: 7d2a 013d fdf7 7c3d e301 5b3c eaaa 55bd
00000330: 79d9 d9bd c2d6 c3bd 93be cdbc f0e8 523d
00000340: d060 f63c 63d7 063d 885e a63c f1bd d9bc
00000350: 122b 08bd 8941 71bd e72f babc 54e3 32bc
00000360: f500 4f3d 3f83 213d 636c 3f3d 62bc debb
00000370: e02f 31bc 25aa bc3c 95d0 843c a6bc 843b
00000380: f33e 64bd 242f cbbd eaab 3e3d 0524 73bd
00000390: 81e6 bd3d 1951 a0bd 7e00 a13d 2be4 493d
000003a0: 415a d5bd 8aaf 5cbd 1ee4 4f3c 95a9 6abd
000003b0: ad19 a2bd ac4b 823c b69c 82bd edab 0bbd
000003c0: 0dc6 54bc b6fd cc3c 3c38 a03c e688 99bd
000003d0: 1193 c0bc d82d 7ebd f7c2 9fbc c301 b2bd
000003e0: 8251 a6bd f45b 8b3d b298 3a3d 882c d2bc
000003f0: 6bdb 68bd 990a 9e3c c229 233d ecbb 6dbd
