experiments/exp048_delta_ppo/final_model.pt (torch, 261194 bytes, 12 tensors)

actor.0.weight f4 [128, 54]
00000000: ca11 6bbe ff9e 23be 69f2 b2bd c904 93bc
00000010: f3fa f2bd 271e bf3c 23d8 4cbd 0b52 353c
00000020: a9ee f33d e219 913d 3398 053e 73b9 0b3e
00000030: 6342 a23c 0b57 d63d 8b97 92bd eb4d cfbd
00000040: 50dc be3d 246b d73d 55ae b0bd f5d5 e9bc
00000050: a425 33bd d62b acbd 6f16 cbbd e373 1ebc
00000060: 6c4b 2dbb ad06 46bb 89cf a43d 7ec7 a3bc
00000070: 3c0a afbd af55 683d 6bb2 543c 5328 8fbc
00000080: 83e7 d8bc 473b 5c3d 4d2f 733d ebaa 743d
00000090: 70a9 813c ba76 c93d 6e47 f0bc 0d7e d93d
000000a0: d009 cfbd 44df e63d f81a d7bd 5bbc 66bd
000000b0: 1382 4e3d dd31 d13d 59e6 4f3c 5cba e1bd
000000c0: adf3 c5bd 5bb5 0abe 2043 90bd 0316 f53d
000000d0: 7a5a d2bd 22c8 bb3d 9dda 31be 0d2e 703b
000000e0: e09b ca3d 352b 103e c391 ce3d 01bf 8f3d
000000f0: cb36 db3d 0e11 1e3d 63bf cdbd 6421 783b
00000100: b3fc aebd 63a8 c3bd 0192 ea3c f7b9 b3bd
00000110: 70d3 3b3c 94f0 643d 4605 09be c84c fbbd
00000120: 7176 653d 6aca d03b 59f7 88bc 48c3 353d
00000130: d767 1fbd 2db6 5a3c 8946 ea3d b00f b4bd
00000140: 9a50 cfbd 1d08 4cbc 14d2 2b3c 587d 563d
00000150: 8e6f 51bd 056b ce3d a9f3 f13d 18b9 a2bd
00000160: ccf9 04be f48d 693c 37d3 b23c 225e 703d
00000170: 9912 ee3c 8d8b cfbd b600 abbd c5d7 2dbd
00000180: b68e 343d 7d43 193d 67f9 f83c 9b03 3e3d
00000190: c127 f23a ffc2 2c3d 4a7c 1c3d 6f07 f6bd
000001a0: d034 a9bd 7ffe b43d ee96 833d 344f b4bd
000001b0: a867 363e f53a d0bd d137 7c3c 64e5 9b3d
000001c0: dba3 283c f33d ef3d d26b d7bd 734b a1bd
000001d0: fb78 c9bd f652 653d 2ec5 643d fb87 e8bd
000001e0: 74df 3d3d 232d aa3d ee75 00be 98a1 73bd
000001f0: 6f8e 91bd c135 9abc dbeb bf3d 31fe 83bc
00000200: 3821 e23c 2bba c0bd faf0 7c3c 477d 97bd
00000210: dbf8 e03d 7f4d 04be 3289 3abd 6fb1 073e
00000220: 5dc1 583c 071a 30bc 49e5 2dbd 00c9 063e
00000230: ecff 643a 3d9d 06bd d120 ac3c 1749 27bd
00000240: 2552 ba3d c3f2 b63d f18d 06be 1286 ae3d
00000250: 796a 50bd 5a58 063d fe6b f6bd cdec 593d
00000260: efb1 f7bd 5abd a43d 00a8 46bd ffdb 3a3d
00000270: 6317 923c d8eb 7f3d 970b f83c 21a8 a1bd
00000280: cdb0 ccbd 36e8 22bb 61d7 0d3e 6e8a 40be
00000290: 0ed9 273d 1ca2 8fbd 1994 e4bd d08c d33d
000002a0: 6162 a6bd c44b a33d b347 80bd 0273 98bd
000002b0: fd7c b03d 19e2 febd a72d f33d 83a2 8ebd
000002c0: 3c46 d53d 8890 f23d a3e7 0dbe d6b1 f2bd
000002d0: f279 0abe b74a 99bc feab 02be d37b 06be
000002e0: 9c0c af3d e408 223d 0d51 05be 0d09 f4bc
000002f0: 607c c6bd d4a5 d43b f616 063d db4e b23c
00000300: 6687 dbbd 5acc b43d 1aec b63b a831 083c
00000310: 6050 e43d 5526 83bd 714a 2b3d ad72 bfbd
00000320: 20f0 fd3d 9002 b9bc 6cfc 143d 4fcf bcbc
00000330: e03f b7bd ad21 e2bd 486c 6cbd 47a6 2cbd
00000340: 6f0c d53d 92f2 b83d ca3c c0bc cdb9 d3bd
00000350: fa3b fabd 54bb f83d 1a85 893d 8a01 45bd
00000360: de8e 24be ba3f 23be 9170 b83d 2ef2 ed3d
00000370: 2e59 d83b bdb1 993d 8f74 af3d 6110 00bc
00000380: 663d 4a3d 9d33 3b3c 473b c9bb ee46 d13d
00000390: 0820 713d bdf7 ccbd 6d4d 033e 2958 a0bc
000003a0: eeba 08bc 9988 063e d0a8 07bd ca5b 79ba
000003b0: b36e cfbd f582 4d3c 9575 db3d a004 98bd
000003c0: 604c de3c d499 a93d 500c fabc d04b 50bc
000003d0: 76d6 f63d e096 d1bc 99ee dfbd 0b51 0a3d
000003e0: 2eb7 e33d bb61 e73d bede 9fbd 47d0 8fbb
000003f0: 76c0 cfbd 63a1 13bd 4187 2f3c aab7 78bd
-0.22956005 -0.15978621 -0.08737642 -0.017946618 -0.11864271 0.023329807 -0.05001081 0.011066924
0.11910755 0.07085015 0.1304634 0.13644962 0.019807046 0.10465821 -0.07157811 -0.101222835
0.09319365 0.10518482 -0.08627001 -0.028544405 -0.04373707 -0.084067985 -0.09916388 -0.009671184
-0.002644266 -0.0030216381 0.08047397 -0.019992586 -0.08546874 0.05672234 0.012981991 -0.017475283
-0.02647758 0.05376747 0.05937128 0.059733313 0.015827864 0.098370984 -0.029330935 0.106197454
-0.101092935 0.11273053 -0.10503191 -0.056331974 0.050417017 0.10214589 0.0126891965 -0.11021873
-0.09665618 -0.13545744 -0.07044053 0.11967089 -0.10271163 0.09169032 -0.1736855 0.0036648542
0.09893012 0.14078982 0.100863956 0.07018853 0.1070381 0.038590483 -0.1004627 0.00378617
-0.08544292 -0.095536016 0.028634073 -0.08775704 0.011463985 0.055893496 -0.13380918 -0.12270504
0.056021158 0.006371786 -0.016719507 0.044375688 -0.03891739 0.013349098 0.11439235 -0.08792055
-0.101227954 -0.012453106 0.010487098 0.05236563 -0.051131777 0.10079006 0.118140526 -0.0794546
-0.12985915 0.014255036 0.02182923 0.058683522 0.029061602 -0.10134039 -0.08349745 -0.042442102
0.044081412 0.037417877 0.030392362 0.046390157 0.0018474982 0.04217815 0.03820447 -0.120131366
-0.08262026 0.08837604 0.06425272 -0.08804169 0.17812979 -0.10167495 0.015394167 0.07612112
0.010292972 0.11681738 -0.10518612 -0.07875719 -0.09837528 0.05598732 0.055852108 -0.11354061
0.04635568 0.083093904 -0.12544987 -0.05948028 -0.07107245 -0.01882446 0.09371158 -0.016112419
0.02760373 -0.09410509 0.015438313 -0.07396942 0.109849654 -0.12920187 -0.045540996 0.1325128
0.013229695 -0.010748393 -0.04245499 0.13162613 0.0008735645 -0.032864798 0.021011742 -0.04084119
0.09097699 0.08933022 -0.13140084 0.08521666 -0.05088279 0.032799102 -0.120323166 0.053204346
-0.12094485 0.080439284 -0.04850006 0.04561996 0.017833417 0.062480778 0.030278964 -0.07893396
-0.099946596 -0.0024857647 0.13851692 -0.18802807 0.040978484 -0.07013342 -0.1116106 0.10329592
-0.08124233 0.079734355 -0.062636755 -0.07443811 0.086175896 -0.124454685 0.11873942 -0.069645904
0.10413787 0.118439734 -0.13857894 -0.11850326 -0.13523081 -0.018712385 -0.12760922 -0.13133173
0.08547327 0.03955926 -0.130192 -0.029789472 -0.096916914 0.006489495 0.03273674 0.021766117
-0.107191846 0.088280395 0.0055823447 0.00831262 0.11148143 -0.06403796 0.04181904 -0.093480445
0.12399316 -0.02258423 0.03637354 -0.023048071 -0.0894773 -0.110415794 -0.057720453 -0.042150762
0.10402762 0.090306416 -0.023466486 -0.10338173 -0.12218471 0.12145105 0.0671484 -0.04809717
-0.16070125 -0.15942279 0.09005845 0.11618458 0.006602428 0.07504604 0.08567154 -0.007816405
0.04937496 0.01142588 -0.0061410996 0.10218607 0.058868438 -0.1000819 0.12822504 -0.019573288
-0.008345349 0.13138045 -0.033119977 -0.0009512274 -0.10128536 0.01254343 0.10715786 -0.07422757
0.027136028 0.082812935 -0.03052345 -0.012713388 0.12052624 -0.025584638 -0.10934181 0.033768695
0.11118923 0.112979375 -0.078061566 -0.0043888423 -0.10144131 -0.036042582 0.010713399 -0.06072203

actor.0.bias f4 [128]
00000000: aa03 cdbd 0b54 293e b616 7e3d ca0e 06bc
00000010: 5834 163e 7033 e8bc 0ed8 b23c b223 013e
00000020: 8f02 0abe 3e87 3f3d 1ff9 793d 4762 d6bb
00000030: 9609 a0bd 1b7d ea3d e20b e8bd adbb 923d
00000040: 76ba a83d b61d 8dbd 1065 09bc 47aa e53d
00000050: a6f9 f1bc 18e5 e33d 6ef3 8dbd dd05 b83c
00000060: 943b 17be b49a 14be cf1c 893d 38b7 143d
00000070: 42bd fe3c 9f1d f43c d762 003d 9f56 593d
00000080: 16b4 053d d814 cc3d 2009 21be e3f9 243d
00000090: 7395 8ebc a30a ce3d a2d3 51bd acc4 203e
000000a0: d99c 193e 390b 3f3d 0273 32bc 1c15 06bd
000000b0: 8ba2 0fbd 48c2 5c3d 3eda 443d 1a74 003e
000000c0: 69d6 4b3c 8384 943d 4b83 6b3b b940 f1bd
000000d0: 9afa cebd 6107 9f3d 2aba 22bd a1a3 87bd
000000e0: 9c0c 4dbd a5f9 1dbe ddea fb3d 2719 07be
000000f0: 4c83 74bd aaa5 36bc 8fb3 30bd 5a48 69bc
00000100: b921 753c 32c2 e33d f39c 0e3d a0d9 033e
00000110: 4459 c73d 3011 5bbc eb56 27bd bab6 80bb
00000120: edb3 9fbd 53bb 103e 2551 0d3e c88b 30bd
00000130: aa94 a53d f7bc e03c b36d 233c 256d 68bd
00000140: e67b d73c 0229 1abd cabe 9ebc 0667 8b3c
00000150: ba94 003e 239d 453d 8999 c23c cfc1 853c
00000160: cbee 87bd 6da8 06bd caff a93d 0d88 0cbe
00000170: e66d 03be 2a7c eb3d f5d8 f13d 1080 053e
00000180: 2d80 1339 4d61 9e3d 0b88 07be 7408 f83d
00000190: e4fe d23d 94c8 953d 7a6c e7bc 33ab fb3c
000001a0: 6aa3 0ebd d468 903b 009b 8fbd b28e 96bd
000001b0: ee46 11bd 56a5 08bd b72f 83bc 81b6 0dbe
000001c0: 7013 d53d 19ce 3ebd cad5 88bd 4ba5 e5bd
000001d0: b3a7 e43d c9c4 743d dbd1 95bd 7d3d 45bd
000001e0: 54c8 05be 02a1 da3c eb1e edbd 2fa5 f53c
000001f0: 4435 b6bd 4b2d ea3d f905 9ebd fc0e 043e
-0.100104645 0.16535966 0.062033378 -0.008182237 0.14668405 -0.02834484 0.021831539 0.12611273
-0.13477539 0.046759836 0.061028596 -0.0065424773 -0.07814328 0.11449643 -0.113303915 0.071647026
0.082386896 -0.068904325 -0.008385912 0.112141185 -0.029537987 0.111276805 -0.06931196 0.022463733
-0.14768821 -0.1451214 0.06694948 0.036307544 0.031096105 0.02979928 0.03134426 0.053061124
0.032642446 0.09964913 -0.15726137 0.040277373 -0.017405247 0.100606225 -0.05122722 0.15700024
0.15001239 0.046641562 -0.010891678 -0.032734975 -0.035067122 0.05389622 0.048059694 0.12544289
0.012441256 0.07251837 0.003593641 -0.11779923 -0.10106392 0.07765079 -0.03972832 -0.066230066
-0.050060853 -0.15427263 0.12300656 -0.13193189 -0.059695527 -0.011147896 -0.04313999 -0.014238441
0.014961653 0.11121024 0.034817647 0.12875986 0.09733823 -0.013370797 -0.040854376 -0.0039280327
-0.0779799 0.14133959 0.13800485 -0.043102056 0.08084996 0.027433855 0.009974885 -0.056744713
0.026304197 -0.037636764 -0.019378085 0.017016899 0.12556735 0.04824556 0.023754852 0.016327767
-0.06637343 -0.032875467 0.08300741 -0.13723774 -0.12834892 0.11498292 0.118089594 0.13037133
0.00014066762 0.077334024 -0.1323549 0.12110987 0.10302523 0.07313648 -0.028249968 0.030721283
-0.034823813 0.0044070277 -0.07011986 -0.07351436 -0.035468034 -0.0333608 -0.016013963 -0.13839151
0.10404098 -0.04658327 -0.06681402 -0.11213168 0.111647986 0.05975798 -0.073154174 -0.048154343
-0.130647 0.026688103 -0.11578163 0.029985992 -0.08896878 0.1143442 -0.07715983 0.12896341

actor.2.weight f4 [128, 128]
00000000: 23e4 5d3c 496e dd3d 5518 a6bd 1731 cbbc
00000010: fef9 863a 8996 4dbb aeb1 29be 94f2 a8bc
00000020: cfc1 603d 73b2 e33c f80d c43d b8f1 833d
00000030: 3372 07be b650 fb3c c61c a9bd 6075 993d
00000040: afcf 8bbc 120e af3d c0ab bebc d4b9 cc3c
00000050: 81e6 f0bc b512 913d d08b ba3d 71ff 233d
00000060: df6c 61bc 2814 eabb 19ae c23d e804 d2bc
00000070: 0755 883d bda7 25bd bc06 6cbd ab99 8e3d
00000080: ca26 95bd 6829 72bd 78d8 ac3d 8e72 89bc
00000090: d2e4 5d3c 7941 0bb9 fa54 4ebc 9f82 b93d
000000a0: 8299 bdbd 5ee6 a53d bacf fb3c 51f9 94bd
000000b0: 78c9 f83b 82e7 29bc fd66 81bd 3bc5 1dbd
000000c0: f195 153d 1d87 963d 36d8 d53c d747 87bd
000000d0: 6252 823c fa78 c13d 89e6 a5bd 1e91 c73c
000000e0: c655 56bd a6dc 403d da5e b43d bb35 503d
000000f0: 61bd 31bd 52cd 573c 57af ff3d 4fac 9ebd
00000100: 851d d83d 11d2 053d f720 ee3c 15b9 59bd
00000110: 033b 39bc 776e b6bd de42 46bd 1cc4 d63d
00000120: fbe4 c9bd 8e42 2d3d 5f88 5a3d 6da5 f9bd
00000130: 498a 333d 4a76 b33d 9ff2 c0bd 0e3d 97bd
00000140: 2106 dfbd 03ae 1b3d 49d0 0fbd da06 7cbd
00000150: 62e7 b63d 5bff 03be f424 c4bc fdae 8abc
00000160: 4d39 c8bd 3ab0 843d 2bfc 7dbd b068 8a3d
00000170: bcf7 283c 9b2f af3b dcc6 7cbd e989 9bbd
00000180: 2d05 dcbc eaa0 46bd 9fa6 363d a5f3 3abd
00000190: 9f91 453d d033 943d 6252 0a3c c86e be3d
000001a0: cf80 b33c b5b4 a9bb a7cf 5fbc aa1a 4cbd
000001b0: d03f b43c 07b9 0dbc f94d 763d 4b5d 823d
000001c0: fe40 da3d 324b 843d 77e1 673d 72ad d43c
000001d0: 67d1 4dbd 4ab2 eebc 6e90 9b3c d732 5a3b
000001e0: 6e90 263d c7b2 fe3c 18c7 b33c 8f60 823d
000001f0: babd 69bc a9d3 9bbd 1ec5 97bd 8251 8ebd
00000200: 830a cf3c 46fd 6a3d 25fc b53d f797 7a3d
00000210: 2728 333c 0ed8 34bd 9dee 223e 6c8f d23d
00000220: 124e a73c 3e46 d2bd 92c8 e93c b113 a3bd
00000230: 2e6f 9c3d 830c 7fbd b9e9 5e3c f323 133c
00000240: 669e a3bd a24e 0f3d b373 46bd 03b2 193d
00000250: f643 33bd 846d ac3c 5a39 ee3c bb12 b23d
00000260: 1c2b a2bd 31d1 143d 34a5 91bd 88cc bbbd
00000270: 1eca 5d3d a653 853d 3f47 d639 770c 333d
00000280: 5d10 213d 62bc a93a 9749 183d fc3b fdbc
00000290: 55e4 51bd d239 febb 4973 19bd 8b17 0b3d
000002a0: 8fd5 99bd a303 a43d 2434 d93c cadf 1bbc
000002b0: e480 5abd f6d9 383d 4b24 353c 98d0 db3c
000002c0: 81e7 773c 4a50 183c daa4 bd3d 9ea6 d73c
000002d0: 8037 633d a745 fdbd 47d2 ca3d db74 82bd
000002e0: 4cf4 c63d 22dd 563d 9939 b8bd b1bb 5c3d
000002f0: e3e4 a5bd 4027 13bd 00fc 7d3c 62f9 c9bc
00000300: 1603 99bd 3255 043d c57b 193c 26df 8cbd
00000310: 82e6 0cbd 52dc 213c 52ff 5b3d 3db4 9bbc
00000320: bce2 a23d 0f32 32bd 3075 b43b cc21 01bd
00000330: 8663 c63c 5566 bf3c 2783 613d 6827 643d
00000340: 69f7 433d 9cf0 693c 97b0 b03d c036 8cbd
00000350: 5e62 a6bd 857e cf3d 8cf6 94bd cc41 e03b
00000360: 7b30 273d ad3a 773d 0e66 893d 7a29 ebbc
00000370: 2476 153d 8d78 0b3d b14f ac3b a19e 8e3c
00000380: b8cb b93d c288 d73d ef3e 6dbd 20d7 4a3d
00000390: 6558 41bd 533c ac3d d749 d4bc 2bc8 673d
000003a0: 2086 a73d 26fa 9b3d 7145 0c3d d424 61bd
000003b0: 76a8 403d e6d9 0dbd b672 b83d 430b 1e3d
000003c0: b5a9 a63d 2889 f13b 8d5b 553d e0f0 833d
000003d0: a829 d13d 0360 1f3d d632 33bd fc34 ab3d
000003e0: 8da5 94bd 95b4 6d3d 8727 873d d781 353d
000003f0: 1f8a 6fbc 2a98 ca3d 1316 7e3d 8ef5 01bd
0.013543162 0.10812051 -0.0811011 -0.024803681 0.0010297892 -0.0031370244 -0.16571686 -0.020623483
0.05487233 0.027795052 0.09572977 0.064425886 -0.13227157 0.030678134 -0.08257441 0.07493091
-0.017066805 0.085476056 -0.023275256 0.024990954 -0.029406788 0.07083646 0.09108698 0.04003853
-0.013758867 -0.007143516 0.09505863 -0.025637105 0.06656843 -0.04044317 -0.05762361 0.069629036
-0.07282789 -0.05912152 0.08439726 -0.016778257 0.013543325 -0.00013280463 -0.012593502 0.09058117
-0.09257795 0.0810058 0.0307387 -0.07274116 0.0075923763 -0.010370137 -0.063184716 -0.03851817
0.03651995 0.073499896 0.026104074 -0.06605499 0.015908424 0.094469026 -0.08100612 0.02436119
-0.052327894 0.047085427 0.08807154 0.05083249 -0.043393496 0.013171511 0.12484615 -0.07747709
0.105525054 0.032671038 0.029068453 -0.053155024 -0.011305573 -0.08907788 -0.048403613 0.10486624
-0.09858128 0.0422998 0.05335271 -0.121897556 0.04383305 0.08762796 -0.09421276 -0.07384692
-0.10889841 0.038007747 -0.035110746 -0.06152997 0.089308515 -0.12890379 -0.023943402 -0.016929144
-0.09776554 0.06478925 -0.062008064 0.06758249 0.010312971 0.005346251 -0.061713085 -0.07594664
-0.026857937 -0.048493303 0.044592496 -0.045642514 0.04823458 0.07236445 0.008442493 0.092984736
0.021912007 -0.0051790127 -0.013660348 -0.049830116 0.022003084 -0.008650071 0.060132954 0.063654505
0.106569275 0.06459655 0.056611504 0.025961611 -0.05024853 -0.02913775 0.018989768 0.0033294463
0.040665083 0.031091107 0.021945521 0.06366073 -0.014266426 -0.0760873 -0.07410644 -0.0694914
0.025273567 0.057370447 0.088859834 0.06118008 0.010934866 -0.04415136 0.15911336 0.10281262
0.020422969 -0.10267304 0.028538022 -0.0796274 0.07638393 -0.06226779 0.0136055285 0.008980739
-0.079891965 0.0349871 -0.048450183 0.03752328 -0.043765984 0.021048315 0.029080082 0.08694979
-0.07918379 0.036332313 -0.07111588 -0.091698706 0.054147832 0.06510095 0.00040870343 0.04371306
0.039322246 0.0012949819 0.037179556 -0.030912392 -0.051243145 -0.0077583576 -0.03746346 0.033958
-0.07511436 0.08008506 0.02651412 -0.009513805 -0.053345576 0.04512974 0.011056016 0.026832864
0.015130878 0.009296486 0.092599586 0.026324566 0.05547285 -0.12366801 0.099033885 -0.06369945
0.09714565 0.052456982 -0.08995361 0.053889934 -0.08100297 -0.035926104 0.015501976 -0.024655048
-0.07471292 0.03230781 0.009367888 -0.068785 -0.034399517 0.009879189 0.05371029 -0.019006843
0.079534024 -0.04350477 0.005507134 -0.03152637 0.024217378 0.023364225 0.055056717 0.055701643
0.04784337 0.014278557 0.08627432 -0.0684638 -0.08124231 0.101315536 -0.072735876 0.006843781
0.04081772 0.060358692 0.067089185 -0.028706301 0.03648962 0.034050513 0.0052585234 0.017409625
0.090720594 0.10524131 -0.057921346 0.049521565 -0.04720344 0.084099434 -0.025914116 0.05658738
0.08179879 0.076160714 0.034245912 -0.054966763 0.047035657 -0.034631632 0.090062544 0.03858496
0.08137838 0.0073710866 0.052089263 0.06442428 0.102130234 0.038909923 -0.043749653 0.08359715
-0.07258139 0.058033545 0.06599336 0.044313278 -0.014620333 0.09892304 0.06203277 -0.03172832

actor.2.bias f4 [128]
00000000: d42d 123c 8886 833d 6de7 88bd 6c15 a1bd
00000010: c519 513d dddc 5b3d b7d8 8bbd 77f0 cebd
00000020: ffb0 453c bae3 2fbb 9526 f0bc 9780 8c3d
00000030: 0ab0 883d 43f1 3a3c 1103 603d c55a 58bd
00000040: c7e2 c93c 63cb dd3c 511b d03c 38fe 8b3d
00000050: ba97 a73d 2ce9 80bb d360 a73c 582d d83d
00000060: f8f7 f23d 56b5 833d 492d cf3c 3fb5 83bd
00000070: bbab 9a3d 46d0 ffbd eeca abbd 4b9e 023d
00000080: cf67 abbd 3cf6 dc3d ec4d af3d eb31 6e3d
00000090: e24f 85bd d90d adbd 58a0 413d a5b0 ff37
000000a0: c53c 8b3d 049c 023d 198a 90bd e8ae 89bd
000000b0: 7077 a9bd f5a9 8dbd 28d8 993d 2199 3b3c
000000c0: 9593 083c a68e 1cbc 5ea1 89bd b48c 8c3a
000000d0: 78ff d2bd da02 b5bc f13c 433d cb2b 3e3c
000000e0: e2bf 2d3d 442a 14bc 860a 6b3c 85b7 a33d
000000f0: c010 903d 0c4c 763d efb4 b7bd 49a6 c4bd
00000100: fa6a 233d 9ab8 313d d41d 8f3d fd2b e53d
00000110: f204 d2bd 39fa f1bc 2972 303d 9f62 12bd
00000120: c0df 9bbc 44a4 2a3d 713d 51bd 9f1c 0abd
00000130: 875e acbd f816 01bd 3c48 5f3d d4bb 883d
00000140: f8d7 2d3d 5cb4 90bd 3279 c83b 51c4 213c
00000150: 7449 7a3d 4b9c 1ebd 879a 933d 1554 933d
00000160: 05e2 a3bd f04f 4bbd 933e 07bd 6c04 bcbc
00000170: 4ee1 433c f5ac 31bc 029c c23d c22c 7bbd
00000180: a378 e83c e8bd c43c a03c 0ebd 8ca6 52bd
00000190: 5109 b9bb 1f0d 5e3d b07c a9bd f364 213d
000001a0: 81c1 f83c e102 3c3d 2211 abbd 343d 713d
000001b0: 4c4e 6d3d e251 43bc 4a72 26bd 5473 a93d
000001c0: d69c d13d 7bf5 9fbc 4198 673d 5127 d23b
000001d0: c99c d1bc a673 66bd 57ee ecbc 341a 193d
000001e0: 64ae 12bc 1c36 13bd a584 49bd f69a 5dbd
000001f0: 21de 3cbd 7a1f 9e3d 06ea a3bd f2b6 903d
0.008922059 0.06422144 -0.06684766 -0.07865414 0.051049966 0.05367743 -0.068284445 -0.10104459
0.012066125 -0.0026838616 -0.029315272 0.06860464 0.06674202 0.01141006 0.054690424 -0.05282094
0.024644269 0.027074521 0.02540365 0.06835598 0.081832364 -0.0039340463 0.020431912 0.10555524
0.118637025 0.064310715 0.025290148 -0.06431054 0.07552286 -0.12490897 -0.08388315 0.03188924
-0.08369409 0.10789153 0.08559784 0.058153074 -0.06509377 -0.08449907 0.047272056 3.0480625e-05
0.067987 0.03188707 -0.0705759 -0.06722814 -0.08274734 -0.06917182 0.07511932 0.011450083
0.008335968 -0.009555494 -0.067202315 0.0010723085 -0.10302633 -0.022096086 0.04766554 0.011607121
0.04241932 -0.00904328 0.014345771 0.07993988 0.07034445 0.060131118 -0.08970057 -0.09602029
0.039896943 0.04338894 0.06988111 0.11190031 -0.102548495 -0.02953826 0.04307762 -0.035738584
-0.01902759 0.041660562 -0.051083986 -0.0337187 -0.08416467 -0.031516045 0.054512247 0.0667645
0.042442292 -0.07065651 0.006117963 0.009873466 0.061105207 -0.03872327 0.07207208 0.07193772
-0.08002094 -0.04963678 -0.03301866 -0.022951327 0.011955572 -0.010844459 0.095024124 -0.06132198
0.028377837 0.024016336 -0.034725785 -0.051428363 -0.0056468626 0.054211732 -0.082757354 0.039402913
0.030365707 0.045901183 -0.08352877 0.05889626 0.057935998 -0.011921378 -0.04063634 0.0827395
0.10234992 -0.019526234 0.056541685 0.0064133783 -0.025587456 -0.056262635 -0.028922243 0.037378505
-0.008952711 -0.035940275 -0.049198765 -0.05410286 -0.046110276 0.077208474 -0.08003621 0.07066144

actor.4.weight f4 [128, 128]
00000000: 8068 003e 0302 9abd d48e 753d c03c 9dbc
00000010: aaf7 f93d f27d d43c f77f bebd 2db0 b3bd
00000020: ac6b e63d 659d 993d e407 3dbd 3cfa 3f3e
00000030: 3537 123d 325a cdbd 098c 553d acf2 82bd
00000040: f959 763d 2f0a 97bd a88d 7a3d 8e7f b6bd
00000050: d5b1 68bd c059 61ba ef74 e4bb 0ad8 f13d
00000060: 3436 c23d 4d2d acbd 08f8 04bd e269 f5bc
00000070: 1e86 d3bb e5e3 573d b8cb 773d e96e b03c
00000080: ed5f 8f3d ec7c 733c 320f b83d 6407 f8bc
00000090: ab06 a83d 5124 cf3c ff15 e53d 8ce9 083d
000000a0: f8e2 d83d b32e aabc a488 94bd 2207 913d
000000b0: 42ec 4a3d 002f 7c3d d0a3 713d d164 803d
000000c0: 33c5 4abc 8c70 81bd ab6f 75bd 66d4 a2bc
000000d0: 8af5 c5bc b75f 20bd 0a6e 84bd 0275 27be
000000e0: e3f6 163d 478c 94bd f2bb a43c 7165 cabd
000000f0: 97a5 e83b 0ca9 a63d c399 283d 08b4 8b3d
00000100: 44fb ba3c f643 21bb 4d7c 433b 8512 5e3d
00000110: 4d59 693d 4390 3d3d c945 243d df96 7b3d
00000120: c482 e0bc 1091 2e3c 4707 d3bc db61 973d
00000130: 79a3 d33d a2d7 90bd 5bed 0dbc 7ee3 0abb
00000140: 5a0e 2cbd 776f a4bd 4dcd b13b 4bec 33bd
00000150: cb9c 293d 5ca6 97bb 1598 b0bd 5522 53bc
00000160: baee 443d 8b0c 53bd fad8 8c3d 7378 6b3d
00000170: d167 a9bd 1bac 3b3d c02b 683d dee3 793c
00000180: fd8a 6abc d3bf 40bd d387 0ebd b6d0 013d
00000190: 2e66 5e3c e1da 1b3d bfd8 e3bc 939d 24bd
000001a0: 3ef2 52bc ec97 123c 6c0e 17bd d3db b53c
000001b0: 986e 1c3a 3eec 42bd 4775 8bbd a606 31bc
000001c0: 33e4 ccbc 1736 b6bc ac36 bb3d 156c bebb
000001d0: 2e4a 923c 9e6f 133d 4a40 ddbc 6e89 ddbd
000001e0: b5c9 afbd 79c7 0c3d 9ea6 9339 4167 0a3d
000001f0: 69ff b3bc a2c5 e0bb 3b34 5cbd 4376 3e3b
00000200: 60ee db3d e915 bb3d 25c9 8b3d 62d1 bcbd
00000210: c283 6a3b 79b8 0e3e 4ae0 5bbd d964 683c
00000220: d096 6ebd f8ed 63bd 5544 be3c 5064 fb3d
00000230: 07a3 b6ba 5bed 813d 0efb b73d c6fa 3b3d
00000240: 596e e7bc 5f55 d5bc 7f80 513d d8a9 303d
00000250: e74d cebc 465a be3b d91f b93b 1542 9cbc
00000260: 3a13 bb3c 4f98 643c cabd 4b3d a3a7 8c3d
00000270: 4c26 ac3d 42bc 373d ea53 c43d 739f 88bc
00000280: ff3a 8bbd 06e7 62bc 426e 3b3d 8860 bc3d
00000290: 7392 83bc e75f bebc 4d09 6abc 40cc a23d
000002a0: 539e c83d 13fc e43d 9953 913c a6ff 8e3d
000002b0: c02b ac3d 2be3 533c 26ab a8bc ee32 6a3d
000002c0: 2d7c e03d 9c77 62bd f9bd 84bd 22e4 1f3d
000002d0: 546b f63d afc9 a0bd 8dd8 1dbd 762a 55bd
000002e0: 7d0d 11bc 28b6 81bd 23a2 b5bd eacf 7f3c
000002f0: 59bc 223d 00f7 853d dfee 8e3d ad66 c3bc
00000300: c0bd a03d 2026 ab3d 519b 61bd 6f55 463c
00000310: a706 363d 2025 9fbd 904a f83b 4dd3 913d
00000320: ce43 b73d 0c54 13bd 950c ce3d 22b2 5a3d
00000330: 8746 213d 2360 56bd c297 303c 94f6 263d
00000340: 57ec 21bd 0d48 a43d 7814 a7bd f712 b33c
00000350: c0d9 4f3a abb9 603c 9af5 9cbc 2b74 813d
00000360: 9b02 2e3d b386 bf3d e911 9ebd 3fc0 88bd
00000370: 1a44 4fbd 9f9a 053d 3c1e 3e3d 3980 4bbd
00000380: da72 f53c d149 acbd dda5 9e3d 9ffd 253d
00000390: 7884 1fbd 559a eabc e1bd 6e3d 6cb1 23bd
000003a0: 6def a3bd d212 bd3d 8112 69bd c1f3 50bd
000003b0: 7c6f 5abd 3ee0 d33c 62f0 51bd bd05 56bd
000003c0: 3f51 68bd 2319 123d 5f15 853d 9aad 803d
000003d0: d442 113d bf2a b03d e8af ad3d bd5e 133d
000003e0: 6e08 e5bc fc79 b83d 35db 523b beeb 94bd
000003f0: 3384 0c3d 3eb0 d83d 1ffd bd3c 89ee 613d
0.12539864 -0.07519915 0.059950665 -0.019194007 0.12205441 0.025938962 -0.09301751 -0.08773837
0.112510055 0.07500724 -0.046150103 0.187478 0.03569718 -0.10026969 0.0521355 -0.06393942
0.0601444 -0.07374989 0.06117025 -0.08911048 -0.05681022 -0.00085964426 -0.0069719474 0.11808784
0.09482995 -0.08407078 -0.032463104 -0.029957715 -0.006455197 0.05270757 0.060497016 0.021537261
0.07000718 0.014861327 0.08987273 -0.030276962 0.08204397 0.025285872 0.11185836 0.033425853
0.10590166 -0.020774221 -0.07252625 0.070814386 0.04954172 0.06156826 0.058994114 0.06269229
-0.0123761175 -0.06320295 -0.059920948 -0.01987667 -0.024164934 -0.03915378 -0.06466301 -0.16353229
0.036856543 -0.07253318 0.02010915 -0.0988263 0.007099818 0.08137712 0.041162264 0.068214476
0.02282489 -0.0024607158 0.0029828728 0.05421688 0.05696993 0.046280157 0.040105615 0.06142318
-0.027406104 0.010654703 -0.025760306 0.07391711 0.10333914 -0.07072379 -0.008662547 -0.0021192725
-0.042005874 -0.08029073 0.005426085 -0.04392652 0.041409295 -0.004627986 -0.08622757 -0.012886603
0.04807923 -0.051525634 0.068773225 0.057487916 -0.082717545 0.04581843 0.05668235 0.015252082
-0.014315364 -0.047057938 -0.0347975 0.031693183 0.013574166 0.038050536 -0.027813314 -0.040189337
-0.012875138 0.008947354 -0.03687899 0.022199547 0.00059674075 -0.04758858 -0.06809478 -0.010804808
-0.025011158 -0.022242589 0.09141287 -0.005811224 0.017857637 0.03599512 -0.027008194 -0.10817228
-0.085833944 0.03436992 0.00028162164 0.033789877 -0.021972375 -0.006859497 -0.05376075 0.0029062189
0.10738826 0.091350384 0.06825475 -0.09219624 0.00357841 0.13937558 -0.053680696 0.0141842
-0.058249295 -0.055646867 0.023225943 0.122749925 -0.0013934084 0.063441 0.08983432 0.045893453
-0.02825086 -0.026041685 0.051147934 0.043130726 -0.025183631 0.0058091013 0.0056495485 -0.01907448
0.022836316 0.013952329 0.049741544 0.06867912 0.08405742 0.04485727 0.09586318 -0.016677594
-0.06798362 -0.013849026 0.045759447 0.091980994 -0.016061043 -0.02323909 -0.014284444 0.07949114
0.09795823 0.11180892 0.017740058 0.06982355 0.08406782 0.012932579 -0.020589422 0.057177477
0.10961185 -0.05528985 -0.06481547 0.039035924 0.1203219 -0.07850968 -0.038536597 -0.052042447
-0.0088533135 -0.06333572 -0.08868816 0.015613535 0.039730404 0.06541252 0.06979155 -0.02385267
0.07848692 0.08356881 -0.055079762 0.01210533 0.044439938 -0.07770753 0.007577248 0.071203806
0.089484796 -0.035968825 0.100609936 0.053392537 0.0393739 -0.052337777 0.010778369 0.0407625
-0.039532032 0.08021555 -0.08158201 0.02185963 0.00079288706 0.013716142 -0.01916008 0.063209854
0.042482954 0.09351864 -0.0771826 -0.06677293 -0.050602056 0.03261816 0.046415552 -0.04968283
0.029961992 -0.08412517 0.0774648 0.040525075 -0.03894469 -0.028638044 0.05828655 -0.039964125
-0.08004651 0.09232105 -0.056902412 -0.05101371 -0.053328976 0.025863763 -0.051254638 -0.052251566
-0.056718107 0.035668503 0.06498217 0.06283112 0.035464123 0.08601903 0.08480817 0.03597902
-0.027958121 0.09007642 0.0032174115 -0.07271527 0.034305762 0.105804905 0.023191987 0.055159125

actor.4.bias f4 [128]
00000000: 54c0 c63d 4334 afbc 7c44 4fbd b2b2 cabc
00000010: c47c 80bc 9a60 d13d 2ace a3bd 427a 27bd
00000020: 6bc1 4a3d 1aed 8b3d 4138 5b3d ea5e 023d
00000030: 38ff a6bc 6f90 99bd d46d cabd f558 77bd
00000040: 54f7 86bd 5546 acbd 878e 6abd c871 bcbd
00000050: 9d74 acbd faea a1ba 8bbb a83d 68af 4d3d
00000060: 461b 933d a96c a03d 198b 17bb 3dc7 3e3d
00000070: 91fb 4e3d be4a 913d b1eb c53d d6d3 a33d
00000080: c4fa 09bd af96 1dbd 5b45 973d b7fb ae3c
00000090: 37cf 513c 81c4 ee3c 3cea 673d ad2f c13d
000000a0: 16b2 91bd 0cb5 81bd 2681 043d 8f05 5abc
000000b0: 859c 1e3c b63f 5f3d 3b1f 983d 4262 38bd
000000c0: 889b 603c 5145 15bd 36fd f7bc 4ae3 62bd
000000d0: ff39 713c ba52 133d 8df6 e13b 6817 88bd
000000e0: bea2 d139 404b ab3d ace9 a93c f0cc e1bc
000000f0: e34b 45bd d3fc 2e3c 1b28 173d 35de d83d
00000100: 3ff6 93bd 7e86 67bd d057 91bd 7913 c83d
00000110: dd0d 9fbd 9d9f be3c e9de 32bc 0eca 8a3d
00000120: a29e 803d b480 2bbd 1412 7a3d 9a17 763c
00000130: 2170 aebd 9459 2b3d d0fa 03bc 0f12 4abd
00000140: 2545 a73d cf29 8a3d 16b4 0e3d 6bfb d83d
00000150: 6718 1e3d f2b8 253d 7d59 fa3c a73e a53b
00000160: 2b42 0bbc 43bc 64bd e3d4 b5bb ba03 1e3c
00000170: b27e 2ebb f934 e33d b68d 75bd 10de eebc
00000180: 580e 8d3d ff27 543d b3ac ec39 332f 96bb
00000190: 1a40 823b f4d6 303d 2962 01bd ef31 96bd
000001a0: 6c9e d13d e6dc 5bbd 7063 163d 1872 30bd
000001b0: fcd9 df3c a820 71bd a449 ad3d 7963 ca3c
000001c0: 83ac 67bd 12bc 66bd 7fb0 713d 9ca8 a4bd
000001d0: f89b 23bd 2fb4 ee3c 701e 843d dda4 5ebc
000001e0: ef08 1fbd f746 92bd cea7 d3bd 9ed1 083c
000001f0: acf0 a8bb 02af c13d 96db 7e3d 2eb1 50bd
0.097046524 -0.021387225 -0.05060242 -0.024743412 -0.015684493 0.102235034 -0.07998307 -0.04088808
0.049500864 0.06832333 0.053520445 0.0318288 -0.02038537 -0.07498252 -0.09884229 -0.06038757
-0.06590143 -0.08411852 -0.05726483 -0.092013896 -0.0842068 -0.0012353354 0.08238896 0.05021611
0.07182936 0.07833225 -0.002312368 0.046576727 0.05053288 0.07094334 0.09664095 0.07999389
-0.033686414 -0.03847378 0.073862754 0.021360261 0.0128057515 0.029146435 0.056619868 0.094329216
-0.07114045 -0.0633336 0.032349728 -0.013306989 0.009680872 0.05450412 0.07427832 -0.04501558
0.013708957 -0.03644306 -0.030272108 -0.05539254 0.0147233 0.035967566 0.006895846 -0.066450894
0.0003998484 0.08363962 0.020741306 -0.027563542 -0.048168074 0.010680395 0.036903482 0.10589258
-0.07224702 -0.056524746 -0.07096827 0.09769339 -0.07766316 0.023269469 -0.010917404 0.0677682
0.06280257 -0.041870788 0.061052397 0.0150202755 -0.08517481 0.041833475 -0.008055404 -0.04933363
0.08167485 0.067462556 0.034839712 0.10594829 0.03859749 0.04045958 0.03056025 0.005042869
-0.008499662 -0.055843603 -0.0055490597 0.009644443 -0.002662581 0.11094088 -0.0599496 -0.029158622
0.068875015 0.051795956 0.000451421 -0.0045832633 0.0039749267 0.043173745 -0.031587753 -0.07333743
0.10235295 -0.053677462 0.036715925 -0.04307756 0.027325623 -0.058869034 0.084613115 0.024705635
-0.056561004 -0.0563317 0.05900621 -0.08039972 -0.039943665 0.029138653 0.06451118 -0.013589111
-0.03882688 -0.07142442 -0.103347406 0.008350758 -0.0051556434 0.09457208 0.062221132 -0.05095022

actor.6.weight f4 [1, 128]
00000000: d768 f1bd 5766 acbd 44e4 b1bd c270 2b3d
00000010: 98c8 c33c d643 a63d d460 a3bd 4780 8fbd
00000020: a478 48be ff7a 083e 4015 9d3d 7717 d93d
00000030: 439c b3bd 09af bfbc 5271 823d 7e27 053d
00000040: e17f b6bd e2ab eb3c 8117 96bd d250 f23d
00000050: b755 aa3d 716b 293d d0f2 a53d c605 f0bd
00000060: 098f f5bd e1bc e23d a4ab 1a3d 3da1 0fbe
00000070: c9b9 cc3d a901 cf3d 2a62 1ebe 7bf3 18be
00000080: 6b12 91bc f261 853d f9f6 d1bd 149c a83d
00000090: 0433 573d 98f4 d4bd 36f0 a5bd 154f b2bd
000000a0: 56f2 823d 2fb4 113c e8c2 0abe c856 903d
000000b0: 6cc6 b8bd dac7 03be f6e1 0dbe 564f e4bd
000000c0: f2dd 8e3d 130c b2bc 46ed aabd cdfd cebd
000000d0: 60ff debd 2367 cf3d ffeb 94bd e014 273d
000000e0: 1cf9 cb3d 8dbe 0cbd babe f13d 358b 87bd
000000f0: 03f3 dd3d b449 453d d26d 8d3d bafc 073e
00000100: d522 8f3d 5809 6abd a13d 56bd f65d 0bbe
00000110: e22f 48bd 3c83 dabd b9d5 913d c11f 833d
00000120: d603 42bd cd24 adbd d69f 023e 0bfa d8bc
00000130: 9ab5 aa3d ba30 32bd 1c25 3e3e 210a e83c
00000140: 2580 533d ddc8 883d 6537 3e3d 8640 ab3d
00000150: d9ae 09be 129f ffbd 192c ed3d a003 c03d
00000160: 1c94 21bd 62f8 103e 0477 b8bd eb89 90bd
00000170: 66b7 a0bd 7b25 453d 5c3c 873d c1fc 283d
00000180: 108f c3bd 3814 4bbd 6a25 943d 7544 da3d
00000190: 593b a33d e4a4 c7bd 4369 9d3d 0c1c 44bd
000001a0: d947 09be 64e2 e63d de2b 1e3e 0804 dcbd
000001b0: bf0c 09be b39c b53d 8960 c3bd d972 32be
000001c0: c4e8 9bbd d2a2 1b3d a760 743d cda3 9f3d
000001d0: d4b6 d1bc 501a a0bd 3c1a 0c3e 1116 ba3d
000001e0: ca29 933d fe87 3dbd 7cc3 e6bd c9ec d6bd
000001f0: b0d8 7abd e8f4 9d3d ede0 023e 6067 633d
-0.11787575 -0.08417957 -0.08686116 0.04185558 0.023899361 0.081184074 -0.07977453 -0.07006889
-0.19577271 0.1332817 0.07670069 0.10600179 -0.08770039 -0.023398893 0.063692704 0.032508366
-0.0891111 0.028768484 -0.07328702 0.118318215 0.0831713 0.04136223 0.081029534 -0.11719851
-0.119901724 0.11071182 0.037761346 -0.14026351 0.09996373 0.101077385 -0.15467134 -0.1493663
-0.017708978 0.06512822 -0.102521844 0.082328945 0.052538887 -0.10398215 -0.08102457 -0.0870649
0.06393878 0.008893057 -0.13550913 0.07047802 -0.09022221 -0.12869206 -0.13855729 -0.11147945
0.069759265 -0.021734273 -0.083460376 -0.101070024 -0.10888553 0.10127094 -0.07271575 0.040791392
0.09959623 -0.03436141 0.11803956 -0.066183485 0.108373664 0.048165992 0.06905712 0.13280001
0.069890656 -0.057137817 -0.052304868 -0.13610062 -0.04887379 -0.10669562 0.071208425 0.06402541
-0.04736694 -0.08454285 0.12756285 -0.026486417 0.08335419 -0.0435035 0.18568844 0.028325142
0.05163588 0.06678937 0.046439547 0.08361916 -0.13445605 -0.12481512 0.115806766 0.093756914
-0.03944789 0.1415725 -0.090070754 -0.07057556 -0.078474805 0.048131447 0.066033095 0.04125667
-0.095487714 -0.04957983 0.07233699 0.106575884 0.07970304 -0.09748247 0.07686093 -0.04787831
-0.13406314 0.11273649 0.15446422 -0.107429564 -0.13383768 0.08867779 -0.09539897 -0.17426623
-0.07612756 0.037997074 0.059662487 0.077949144 -0.025599875 -0.07817519 0.13681883 0.0908624
0.07185705 -0.04627227 -0.112677544 -0.10494382 -0.061241806 0.07712728 0.12781115 0.055518508

critic.0.weight f4 [128, 54]
00000000: 9dcb b43f 5c96 943e 7629 25bf 29b0 683d
00000010: d188 e1bc 9fd2 57bd 5f7e a5bd bdec 103b
00000020: 1786 353d 6c88 1dbd f4bf f2bc af9b 3e3d
00000030: 2854 00bc 804c 673d a719 0d3e 250b 0f3e
00000040: d0ab ddbc f7e3 c4bd 73fa 01bd f1c8 1cbe
00000050: 939e b4bd fafb 143d e921 f83c 4005 e13d
00000060: 5f5e c23d 3463 b1bd d322 14be f504 9cbc
00000070: 0035 75bc 47de 483c 3850 9b3d 71fd 313c
00000080: c272 363d c209 15be 644c 9b3d 3990 aabc
00000090: d013 bb3c 86dd febd 8208 afbc 3ac7 fa3d
000000a0: 761d 3d3d 187e e23d f560 a1bd 580e 80bd
000000b0: b046 debb 5fa2 253d 7302 ebbc 92b3 d43d
000000c0: a1d2 573d a78e d83a 0493 1dbe 29a9 c53b
000000d0: a9b3 42bb 3a2a 2c3d 289f 64bf 29c1 3b3e
000000e0: 7513 95bc 03e5 1b3e 7f04 213e ef22 693d
000000f0: 6109 043e 9e76 953d fc82 e63c 8197 af3c
00000100: 3590 913c 0389 4ebd 2be6 e2bd 1ef7 953d
00000110: f2fb cebd c249 c23c 5524 183e 306a aabd
00000120: 8a2c 7a3a d6d1 83bd 01cb e13c 319e 263e
00000130: b329 b4bd 3ac9 21bc b68f 13bd e7c4 093d
00000140: 7cbe 8f3d 3595 343e 44d9 3c3e 5f07 1a3e
00000150: c7e4 96bd 7a43 663d 2317 c53d 0d41 b23d
00000160: d68a 5a3d 5d0c 253e 92ca 853d 8fd6 03bd
00000170: 2beb e23c 59ee aa3d 95de 213d 04b4 a03d
00000180: 2121 023d 0a53 4abd 067e 603d f3ab 3b3e
00000190: 17f6 46bb e687 3e3e 127b 843d 9c1b b83c
000001a0: 5351 6abc a17b 0d3d 81b9 433e 305a dc3d
000001b0: 0242 833f bf8e 9b3e 77d6 8fbc 6af0 323d
000001c0: 36c4 c4bd 8875 0bbd 7257 00be 3d7b 2dbe
000001d0: dea6 a13a 27d8 bdbd 1bac 39be ed79 0b3c
000001e0: 8f8f 7e3d 850a b93d 78bf 0abc 1241 bf3d
000001f0: 3fd5 453d ae6f f63d 93d2 89bc 89a3 17be
00000200: 48bd ffbd 4699 b8bd 58e7 cabd 2d4a f1bd
00000210: 91ce a43d 43e3 c0bd f99b d43d d89c 8a3d
00000220: b646 843d 1151 cbbd d871 8e3d 2691 67bd
00000230: 7e1d 913d f86f b53d 5e43 b63d 3c44 2dbe
00000240: 0801 30bc 391f 2c3d 4355 2f3d 626e e1bc
00000250: 0104 b93d a2a6 16bd f8b7 c23d c057 8bbd
00000260: 374a a63d 1329 04be 3335 21be cf6b 7abd
00000270: 2ce2 603c 7a54 f03c ebee ce3d 70f5 003d
00000280: 8495 19be cd31 09be 9a54 603f 77f6 0c3e
00000290: 7103 cf3e fb8a 3abc 8e73 02be 4a61 b83d
000002a0: 4a58 cfbb 323d 55be f40b 13be 1420 e5bd
000002b0: 67cd 0ebe b171 603d 9f0e c9bc 5eb8 94bd
000002c0: 5427 d23d afd1 9e3d a2ac ee3d f592 293e
000002d0: 41d9 5d3d ecb4 033e 33c6 863d ca56 093c
000002e0: d164 4e3e 7b8f ea3d e3fc 643e 31eb 6d3e
000002f0: 55a5 403e 2c11 acbb 9957 2e3e edf6 933d
00000300: 2949 4c3d 839f 7abd 90e9 39bc 50e4 dcbd
00000310: d052 af3c 9dd1 15be 24ea 3ebd 8b2d acbd
00000320: add5 be3d a371 36bd fd58 b3bd a2d3 19be
00000330: 6036 eebd 3510 b73d 0dbb 04be a97f 54bd
00000340: d1cd 29be 153a d0bd 29e6 92bd 76ba e2bd
00000350: 4415 e23d ab39 e63d a88f d2bd 3464 ca3c
00000360: 6489 783f 7306 c63d e5de a73e ab96 963d
00000370: cad0 e6bc a87e c13d f499 b4bd fbd8 febc
00000380: c05f 1bbb cbd6 473d 4f59 5b3d efda 103c
00000390: 85e0 94bd 1731 9dbc 7685 8a3d 1937 b53d
000003a0: 7b5d 4dbd 7c20 ad3d 5df7 1fbb fbf1 763c
000003b0: 3822 10bd 99d7 17be 2c34 86bd 262c 05be
000003c0: 5dc9 7c3d ac7a 10be 7885 9ebd 9b55 1cbe
000003d0: 4803 d53d 19f5 853d eab2 5839 361a efbd
000003e0: 61d6 1a3d 9ee2 203d 8270 dabd d0e8 ccbc
000003f0: bfde 98bd ab9b 22bd 0045 373d beaf 313c
1.4124638 0.29020965 -0.6451639 0.056808624 -0.02753106 -0.0526911 -0.08080744 0.0022113763
0.04431733 -0.03846018 -0.029632546 0.04653519 -0.007832564 0.05646944 0.13779317 0.13969095
-0.027059466 -0.09613793 -0.031732988 -0.15311028 -0.08819308 0.036373116 0.030289607 0.109873295
0.09490656 -0.086614996 -0.1446641 -0.019045332 -0.0149662495 0.012260026 0.0758366 0.010863648
0.044543035 -0.14554504 0.0758293 -0.020820724 0.022836596 -0.12444596 -0.021366362 0.12245031
0.046170674 0.11059207 -0.07879821 -0.06252736 -0.006783329 0.040438052 -0.028687691 0.10385813
0.052691106 0.0016522006 -0.15388113 0.0060321284 -0.0029709137 0.042032458 -0.89305353 0.18335404
-0.018197754 0.1522408 0.15724371 0.05691808 0.12894203 0.07298015 0.02813863 0.021434547
0.017768959 -0.050423633 -0.11079057 0.073225245 -0.101066485 0.023716811 0.1485761 -0.08321035
0.000954338 -0.064365074 0.02756262 0.16271283 -0.08797016 -0.009874636 -0.036025725 0.033635046
0.07018754 0.17635043 0.18442255 0.15041874 -0.073678546 0.056216694 0.096235536 0.08703814
0.05335506 0.16117997 0.06532778 -0.03218704 0.027700027 0.083462425 0.03951891 0.07846835
0.031769875 -0.0493956 0.054807685 0.18327312 -0.0030359083 0.18606529 0.06468786 0.022474103
-0.014301616 0.03454173 0.19113733 0.107593894 1.0254519 0.30382344 -0.01755832 0.043686308
-0.09607737 -0.034047633 -0.12533358 -0.16941543 0.0012333055 -0.092697434 -0.1813206 0.008512956
0.062148627 0.090352096 -0.008468501 0.09338583 0.04829907 0.1203302 -0.016824042 -0.14808477
-0.124872744 -0.090136096 -0.099074066 -0.11781726 0.08047212 -0.09418347 0.10381312 0.06768197
0.064587995 -0.099275716 0.06955308 -0.05653491 0.07085703 0.08859247 0.08899568 -0.1692056
-0.010742433 0.042021964 0.04280592 -0.027518455 0.09033967 -0.036780007 0.095077455 -0.06803846
0.08119624 -0.12906294 -0.1574295 -0.06113797 0.013725799 0.029337157 0.10104164 0.031484067
-0.14998442 -0.13397904 0.8762909 0.13765894 0.40432313 -0.011385675 -0.12739393 0.090029314
-0.0063276635 -0.20824125 -0.14360029 -0.11187759 -0.13945542 0.054795925 -0.024543105 -0.07261728
0.102614075 0.07754838 0.11654021 0.16559966 0.054162268 0.12861985 0.06580772 0.0083825085
0.20155646 0.11453148 0.22362094 0.2323425 0.18813069 -0.0052510705 0.17025603 0.07224832
0.04987446 -0.06118728 -0.01134719 -0.10785735 0.021401793 -0.14630742 -0.046610013 -0.08407124
0.09318099 -0.044541966 -0.087572075 -0.15022138 -0.11631465 0.08938638 -0.12961979 -0.05187956
-0.16582419 -0.10167328 -0.07172806 -0.11070721 0.11039212 0.11241468 -0.102813065 0.024705984
0.9708464 0.09669199 0.32787243 0.073529564 -0.02817573 0.09447986 -0.08818427 -0.031109324
-0.0023708194 0.048788827 0.05355197 0.00884126 -0.07269386 -0.019188447 0.06763737 0.088484
-0.050137978 0.084534615 -0.0024408915 0.015072341 -0.035188884 -0.14828338 -0.0655292 -0.13005123
0.061715472 -0.14109296 -0.07740301 -0.15267031 0.104010165 0.06540889 0.00020666016 -0.11674921
0.037802104 0.03927862 -0.106659904 -0.025013357 -0.074643604 -0.039699238 0.044743538 0.010845123

critic.0.bias f4 [128]
00000000: 3e4a 2bbf e9de dbbe 6adc 01bf 5781 d9be
00000010: 990a 9fbe a833 adbe 9b5c 1cbe 203d 4f3e
00000020: 7c43 363f 844e 493e e0f1 00bd 4e32 11bf
00000030: 29fc 20bf dd14 20bf 5ca2 263f a45d aebe
00000040: 2b16 5bbe e4a3 96be cdfa 28be 5bb7 8e3e
00000050: d480 c0bd cbb4 ffbe 6483 4bbf 6b37 933d
00000060: 22ef 41bf 54c7 3dbf 5640 0abf 5f4d d43d
00000070: 6598 d6be 8901 23bf c161 593e d70e fbbe
00000080: d8cb 5fbe faaf 7dbe fd42 90be 8a2e b43e
00000090: 4d33 17bf 39bd ff3e 61a6 81be 3a95 2abf
000000a0: 2745 133f 5a20 4c3e cd2b 9b3e 5f84 18be
000000b0: 9637 933d 5ec3 263f 1697 0fbf ff0f 553d
000000c0: 1ed0 183e a002 14bf c496 563f 72df 3f3c
000000d0: 35cf afbe 6b76 0bbf 5255 29bf 4b75 02bf
000000e0: 5a02 65bf 78fa c63e ac30 86be fcfb 07bf
000000f0: da4c f2be 55e2 e6bd e09e 19bf ef10 b5be
00000100: 22e8 eb3e 767a 37bf 186d e4be aded 48bf
00000110: d49d 003f f0f2 7cbe 65b5 30bf 3693 ce3e
00000120: b0b2 d2be dce6 e83d 6ebb 49bf ba33 a33e
00000130: dd69 fc3e b624 78be 9079 7ebb 644b bb3d
00000140: c37c 14bf 9e6f b4be 363b c53e e017 63bb
00000150: 4565 a8be 25f0 4fbe 2d20 88be 2fba 78be
00000160: dee9 a5be f439 bcbd 5e89 123e bad8 f7be
00000170: 7e63 fabe 1a91 acbe 5a12 ffbe 5b56 163f
00000180: f4d4 ddbe 5c5d 19bd 1c70 583e 0059 c7bd
00000190: 0ccb e23e 5d62 a3bd 6d03 a13e ca56 2e3e
000001a0: 0d70 01bf 7ebe 26bf 646c 87be 7481 d1be
000001b0: c5d4 10be f51e 3cbf bdfa 25bf ccb1 3fbe
000001c0: 3dec d3be 2eea 94be efbf 883e 1968 debe
000001d0: 846e 82be 12fe babe 2c15 cbbe 370e 43bf
000001e0: 6f09 41bf 9f51 5bbf d265 5ebf fbbf 37bf
000001f0: c233 033f 0836 3dbf 1a6d 27bf e6db 273f
-0.6691016 -0.42943504 -0.5072695 -0.4248149 -0.31062773 -0.33828473 -0.15269701 0.20238161
0.71196723 0.19658858 -0.03148067 -0.56717384 -0.62884766 -0.62531835 0.6509149 -0.34055817
-0.21395175 -0.29421914 -0.16501923 0.27874264 -0.09399572 -0.49942622 -0.7949736 0.071883045
-0.7575551 -0.74132276 -0.5400442 0.1036632 -0.41913143 -0.6367422 0.21228696 -0.4903476
-0.21855104 -0.24774161 -0.28176108 0.35191756 -0.59062654 0.49949053 -0.2532225 -0.6663395
0.57527393 0.19934216 0.30306855 -0.14894246 0.071883366 0.65141857 -0.56089914 0.05201721
0.1492314 -0.57816505 0.838238 0.011710988 -0.34337774 -0.54477566 -0.66145813 -0.50960225
-0.89456713 0.38862967 -0.2620901 -0.5311887 -0.47324258 -0.11273638 -0.6000805 -0.35364482
0.4607554 -0.71671236 -0.44614482 -0.78487664 0.50240827 -0.24702048 -0.69026786 0.40346688
-0.41151953 0.11372158 -0.7880162 0.31875402 0.49299517 -0.24232754 -0.003882978 0.09145239
-0.5800287 -0.35241407 0.38521737 -0.0034651682 -0.32889763 -0.20306452 -0.26587048 -0.24289773
-0.3240499 -0.09190741 0.14310214 -0.48407537 -0.48904032 -0.33704454 -0.4981869 0.5872552
-0.43326533 -0.03744255 0.21136516 -0.09733772 0.44295537 -0.07977746 0.31447926 0.17025295
-0.505616 -0.6513442 -0.26449883 -0.40919077 -0.14143665 -0.73484737 -0.6483572 -0.18720168
-0.41391173 -0.29084915 0.26708934 -0.43438795 -0.25474942 -0.36521965 -0.3966459 -0.76193565
-0.7540502 -0.8567142 -0.86874115 -0.71777314 0.5125085 -0.7391057 -0.6540085 0.65569913

critic.2.weight f4 [128, 128]
00000000: 6be9 3c3f 50ea 093e 94ad 7c3e f9e6 e13d
00000010: a17a ae3e 4a21 693e 1907 9fbc 3e80 02be
00000020: 1161 013d dbe7 b4bd a280 753d e53e 4c3e
00000030: a5be 683f 2dd5 a03e c12d 84bd 3422 cc3e
00000040: 4e3b b8bd f558 5d3d 3b82 f23d 86a9 4d3c
00000050: 182c 37bd 7bb8 023e 5e3b a83e 1160 103e
00000060: d441 513f 31e0 793e f489 393e 1b9b 433e
00000070: 56ad dd3e 38cc 4d3e 0522 043d bcb3 cb3e
00000080: 55a0 803d e3d4 633e b3e2 fa3d 9d3a 843c
00000090: afa4 f73d 28ef 8a3c b858 a13d c7b3 3a3e
000000a0: a0ba 2e3d b202 f7bc b4bc 0f3e fed1 d3bc
000000b0: 7768 8d3d 20b3 473e 72d3 703f 1185 8fb9
000000c0: f28e 803c b863 6b3f 4995 2d3e 3041 babd
000000d0: b560 d73d ed53 9b3e bb93 8b3b c375 dd3b
000000e0: 0872 1b3f 7183 653d 0eab 353e 999c 033e
000000f0: 730c 5bbd 4514 433e 950b 513f ca77 223e
00000100: 50ef 6f3d 1ab0 593f 32a1 9cbc 127e 9d3e
00000110: 96ef ac3e 297c d83c 0643 803e d42e 60bd
00000120: f88e 163f 24fa 3d3e 2dec f63e 81b7 f8bd
00000130: 838a 44bc f9f0 213f 2313 563f 1f4d cdbc
00000140: d075 0d3f f1e7 9b3e 3530 113e 7675 9cbd
00000150: 4e15 303f d1ff 343e 75cd 283d 7d5f 583e
00000160: bc85 313e 6b21 f4bc ad25 92bd c76f 963e
00000170: 779f a73d 187a a13d 07ee 553e 162b fd3d
00000180: 9901 a2bd 0e84 debc 616e 53bd 739a 6d3e
00000190: a9fb f23c fe54 173e a244 cf3d a2a6 f23d
000001a0: f854 a63e 9404 f73e 1df8 883d 4b6c 853d
000001b0: 17c1 563f cd1c 403f 233a 883c 64b0 0d3e
000001c0: 4ceb 4d3e c285 8a3e fbf3 d2bd 10a3 903e
000001d0: 6553 8b3d 08b9 903d 2a49 ec3e 72c3 2e3f
000001e0: e2f5 fc3e 28ae 3c3e 3015 783d f870 00bd
000001f0: 3688 a43d 715e 293f 9238 1a3e 302b f63c
00000200: 1187 0a3b bc64 853e 7479 513e 1d84 463e
00000210: 75bb e33c f2b5 7dbd fbe1 083c d0f9 743e
00000220: 9658 373d d39d e23d edbf 6f3e 787e c9bd
00000230: 0fc9 23bf ce0b ddbb 7fc3 d13d 6a49 8fbd
00000240: 43ac 543c e1d8 3ebd 5001 aabd 656e 563d
00000250: 4c50 883e 718d 293d 6704 c33c 5405 e13d
00000260: 2736 97be 20fa 193e 9d9d 233e 0483 373d
00000270: d832 a73c 3d8c 35be 8691 f63c b28e f2bc
00000280: fede 193e 7648 263e d21e 823d 83f4 833d
00000290: c7b1 f8bc 0f3b 9dbc aab3 f2bc f78e 18be
000002a0: d154 bebd db99 423e d469 0c3d 2ba1 b63d
000002b0: 9865 143e 759a 56be d41a c3be 61a0 2a3e
000002c0: 2922 9fbd 38ef 0dbf 251e 9dbd 901b 523d
000002d0: 0f5e 1f3d bf76 7f3d 7c71 763d c8b4 ac3d
000002e0: 97b9 61be 2435 d5bd 9e88 163e c5d7 ce3d
000002f0: 45f5 833d 0323 203e 4759 83be d38d 2d3e
00000300: 2f49 fc3d 91fe 44bf bfb5 11bd 5e90 90be
00000310: 9da6 85be 93f9 1a3e 5147 1b3e 13d5 2b3d
00000320: 6e8b 07be a4d1 543e 7d1e d9be 7661 ddbe
00000330: 520d 933d 1e5b dfbe 8eba edbe 5489 fb3c
00000340: f1e6 df3d 5aa2 eb3d d5a5 0d3e a982 7f3d
00000350: b145 e8be 12cc 303d 270b 883d b4e3 7d3d
00000360: b987 223e 00be 773e 76c6 7d3d fcfb 043d
00000370: 0093 35bc 6ef9 a53d 6171 9abd ed7b 7fbd
00000380: 662e 5a3c 6c94 ddbd 5a86 d23d fd0e c73d
00000390: da54 4f3e ea46 f0bc bcc2 613e b4cd 213e
000003a0: d7ae 7abd 4389 ccbe cd49 3b3d c7dd 5c3e
000003b0: 3205 cabe 96f5 aebe 2a8e 65bd 3629 033e
000003c0: 0d5d f73d c763 d83c 3deb 183d f610 06be
000003d0: 3755 5a3d 3918 8bbd 49c8 62bc 0af2 febe
000003e0: 5206 e4be 90f2 0d3d d30d b7bd 9a9f 45bc
000003f0: d4f9 893d 9812 7bbe ab73 8d3e 7b9f 0cbe
0.7379367 0.1346829 0.2467559 0.11030383 0.34077933 0.22766605 -0.019412564 -0.12744233
0.03158671 -0.088332854 0.059937127 0.19945867 0.909159 0.3141264 -0.06454039 0.39869845
-0.089956865 0.054039914 0.11841246 0.012552625 -0.044719785 0.12765686 0.32857794 0.14099146
0.8174107 0.24401928 0.18119031 0.19102137 0.43296307 0.20097435 0.032259006 0.39785564
0.06280581 0.22249179 0.12250271 0.01614123 0.12091958 0.016959742 0.0787825 0.18232642
0.04265845 -0.030152652 0.14036828 -0.025856968 0.06904691 0.19501925 0.9407264 -0.00027374228
0.015693162 0.91949034 0.16951479 -0.09094465 0.10516492 0.30337468 0.004259554 0.006758423
0.6072087 0.056033555 0.17741033 0.12852706 -0.05347867 0.19050701 0.816583 0.15866008
0.058577836 0.85034335 -0.019119833 0.30760247 0.3377654 0.026426392 0.25051135 -0.05473216
0.58811903 0.18552452 0.48227063 -0.121443756 -0.011995914 0.6325832 0.8362295 -0.025061188
0.5525789 0.30450395 0.14178546 -0.076395914 0.6878251 0.17675711 0.041211564 0.21130176
0.17336172 -0.029801091 -0.07136092 0.29382154 0.081847124 0.07884616 0.20891581 0.123617336
-0.07910461 -0.027162578 -0.051618937 0.23203449 0.029661017 0.14778516 0.101205125 0.11848189
0.324867 0.4824568 0.06687949 0.06514796 0.8388838 0.75043947 0.016629284 0.13836819
0.2010929 0.27055174 -0.10300442 0.28249407 0.068030156 0.07066542 0.4614957 0.68266976
0.49406344 0.1842581 0.06056708 -0.031357735 0.08033793 0.6615973 0.15060642 0.03004989
0.0021137635 0.26053417 0.20456487 0.19386335 0.027799347 -0.061941095 0.008354659 0.23923421
0.044762217 0.11065259 0.23413058 -0.09838575 -0.63978666 -0.006745792 0.10242366 -0.069964245
0.0129805235 -0.04659355 -0.083010316 0.052351374 0.26623762 0.041394655 0.02380581 0.109873444
-0.29533502 0.15036821 0.15978093 0.04480268 0.020409986 -0.17729278 0.030098688 -0.029609058
0.15026471 0.16238579 0.06353535 0.06443121 -0.030358208 -0.0191932 -0.029626686 -0.14898287
-0.09293521 0.19004004 0.034280613 0.08917459 0.1449188 -0.20957358 -0.38106406 0.16662742
-0.077701874 -0.55443144 -0.07671765 0.051295817 0.03890806 0.062369104 0.06016682 0.08432919
-0.22043453 -0.104105264 0.14700553 0.100997485 0.06443266 0.15638356 -0.2565405 0.16948633
0.12318646 -0.7695094 -0.035573717 -0.28235143 -0.26103678 0.15134268 0.15163924 0.04195125
-0.13236782 0.20783097 -0.42406073 -0.4323842 0.07180275 -0.43624204 -0.46431392 0.030705132
0.109327205 0.115055755 0.13832791 0.062380467 -0.4536567 0.043163367 0.06642752 0.061984733
0.15872087 0.24193573 0.061956845 0.032466874 -0.011082411 0.081042156 -0.075411566 -0.062374044
0.013316726 -0.10819325 0.10279532 0.09719656 0.20247212 -0.02933069 0.22046942 0.15801126
-0.061201897 -0.39948472 0.04572468 0.21568976 -0.3945709 -0.34171742 -0.05604378 0.1280869
0.12078295 0.026414765 0.037333716 -0.13092408 0.053303923 -0.067917295 -0.013841697 -0.49794036
-0.44536072 0.034655154 -0.08938184 -0.012061978 0.06737104 -0.24518812 0.2762731 -0.13732712

critic.2.bias f4 [128]
00000000: 758f 0cbe 3d4c 3ebe 1898 16bf 1878 05be
00000010: 65eb 94bd 04fb 2bbe 9af9 9cbe 32f8 82be
00000020: 0430 e5be 8834 053e 108a 5cbd 2434 fbbd
00000030: 2615 75be 2add 3abe bee8 4abe 2ec5 853e
00000040: 7982 16bf fe3a 45bf 2fec 37bd e2b0 59be
00000050: e3de aabd dcff e4bd 4f58 983e d145 fe3d
00000060: ca5d 48be 2a81 78be 0ede acbd 9175 aabd
00000070: a0db 3c3d cbde 85bd 4d79 19be 911a a8be
00000080: 02e1 9dbe d20b 17be 0b01 0ebd fac4 883d
00000090: 9dfa 613e 604f 1f3c 8a94 c4bd 4b67 d3be
000000a0: 11b1 b73d 1604 28be 8ff6 c33e 73da 4cbe
000000b0: 60f5 3d3e 3d8c 4abe 3838 633e 1dc9 0cbe
000000c0: 3bed 48be 238b bdbd b08d a5be a9b6 60be
000000d0: 908d 4bbe c035 98bd e9db 5bbe 9f78 2bbf
000000e0: 6e07 21bf 56e8 963d dcd6 ccbd 699e bfbd
000000f0: e955 01be 228b fabd 6813 fcbc fc11 803d
00000100: b838 b33e 57d1 54be 1780 2bbe 6470 92bd
00000110: 38f3 4fbe f902 84be 75d0 59be 46dd 82be
00000120: 9e60 80bd 7655 043e fb2c eabd 8187 0c3d
00000130: 2bb5 403e 2d1c dfbd e304 14be ea4f 94bd
00000140: 11ac e1bd 70c6 a9bd 876d 71bd 42e9 59be
00000150: 381d 54bd 65f7 c5bd 8462 f2bd d4c1 8abd
00000160: 87c4 223f 9657 0bbe 9741 82be eba6 e5bd
00000170: 8d7d 6dbe cec7 6abe c40b c33e f3dd f43d
00000180: f71b 22be 8adf 1ebe e404 57be b403 45be
00000190: 17cc 9a3b 7a7a 213e b593 3cbe da70 e9bd
000001a0: 38f0 47bd d939 b5bd 2357 933c 19e9 0ebf
000001b0: ef7b 28be e68d 59be 9da5 773e b01a 28be
000001c0: 185c 68be dd30 86bd 4d5e fcbe 777f 8bbe
000001d0: 159e 0dbe e285 173f 7f29 dfbe d693 50bf
000001e0: 8586 7ebe c031 0fbe b087 4ebe 4f57 36be
000001f0: a477 283e 1873 c4bd 2dcf 49be 9136 9ebd
-0.137266 -0.1858377 -0.58825827 -0.13034093 -0.072714604 -0.16794974 -0.3065918 -0.25579983
-0.44763196 0.1300832 -0.053842604 -0.122658044 -0.23933849 -0.1824843 -0.19815347 0.26127
-0.58792835 -0.7704314 -0.044902977 -0.21258882 -0.083432935 -0.11181614 0.29754874 0.1241566
-0.19567028 -0.24268022 -0.08440791 -0.08323205 0.04610789 -0.06536635 -0.14987679 -0.3283277
-0.3083573 -0.14750603 -0.034668963 0.06678195 0.22068258 0.009723514 -0.09598644 -0.41289744
0.089693196 -0.16407809 0.38274047 -0.20005207 0.18550634 -0.19780059 0.22189415 -0.13748594
-0.19621746 -0.09255054 -0.3233466 -0.2194468 -0.1987822 -0.07432127 -0.21470608 -0.6698093
-0.6290196 0.07368533 -0.10001919 -0.09356386 -0.12630428 -0.12233569 -0.030770972 0.0625343
0.3500421 -0.20782982 -0.16748081 -0.07150343 -0.20307624 -0.25783518 -0.21270926 -0.25559443
-0.06268428 0.12923226 -0.114343606 0.034308914 0.1881911 -0.10894046 -0.14454989 -0.07241805
-0.11019147 -0.08289802 -0.058942344 -0.21280387 -0.051785678 -0.096663274 -0.118351966 -0.06775251
0.63581127 -0.1360763 -0.25440666 -0.11213478 -0.23192425 -0.22927782 0.38094914 0.11956396
-0.1583098 -0.15514961 -0.2099796 -0.19239694 0.0047240364 0.15769377 -0.18415721 -0.11398478
-0.048813075 -0.08848924 0.017985886 -0.5582443 -0.16453527 -0.21245536 0.2418427 -0.1641643
-0.22691381 -0.06552289 -0.49290696 -0.27245685 -0.13829835 0.59188664 -0.43586347 -0.8147558
-0.24856003 -0.13983822 -0.20168948 -0.17806743 0.1645189 -0.09592265 -0.19707938 -0.077252515
