experiments/exp001_bc_with_a_ego/results/checkpoints/bc_with_a_ego.pt (torch, 232805 bytes, 9 tensors)

trunk.0.weight f4 [128, 57]
00000000: 9dc2 b63d b851 06c0 4fe7 833e c033 a3be
00000010: 9108 c2bf 40c8 98bd 50a1 bf3d 8ba7 893d
00000020: 9e45 023d 1520 38bd 66f3 423d 4e44 ad3d
00000030: 6535 ad3d 0497 303d f26d 14bd 97a7 8b3c
00000040: f5cb cd3d 0181 083d 60fd 82ba dfa1 243e
00000050: 4e5c 4abd 20b4 a3bb eb84 863b 5ec4 9f3d
00000060: 030c 95bc 993e b53d 109c 94bd f961 ae3d
00000070: a457 eabd 6d8d 25bc eff1 d9bc 648f ad3c
00000080: 163a ac3d ea18 393e 99f7 55bd 16e1 213d
00000090: 77ec be3c 4b02 003e 6c4b 863d 6c32 273d
000000a0: ceb9 09be d21d 04be 70d2 75bc 369c 3f3d
000000b0: c05e d3bd 8cfc d4bd b68d 183c f64c 21be
000000c0: cc6d 013d 4bc2 14bd 8d16 2dbe b8a3 303d
000000d0: af2f 40be 7034 d2bd 654f 113d 06a4 413d
000000e0: 5fd7 043e 4afe 65bd 9b15 82c0 2f1e 3240
000000f0: 3622 9a3e 150f e33e bc62 0cbe 3fcf e03d
00000100: 471c 563c c425 683d 21ee f9bd 2bcd a43c
00000110: 7f02 2fbe 2e61 1bbe 77a2 803c 01f1 3c3d
00000120: 271a 0cbe fd6b b13d 2b16 b63d 06e1 643d
00000130: d64c a43c 4d8d e8bd 2ac3 6e3d 7c1d 29bd
00000140: 1603 a83d a623 a53d 0819 eebd ff5f 593c
00000150: e3fd bc3b 3dc3 6b3c cc4e ad3d e003 5a3d
00000160: b3c0 6a3d c6c1 4fbd 56b0 da3c b051 2abe
00000170: d074 16be b814 cebd 132f 043e 7cd6 9fbd
00000180: 3311 323b 15ec 54be 48df 56be ed26 90bd
00000190: 54ec 403d d59b 653d 3354 20bd b3c0 cf3d
000001a0: 53e4 883c dc4c e6bd 58af 363c 9999 b93d
000001b0: 41c1 b5bd bd70 aa3d cb36 dc3c 63ae ccbd
000001c0: 9c82 d73d e9af 783b 5906 9abd bb9b 953e
000001d0: 0bd3 9bbe b2f9 c73e 9e31 acbf d400 813d
000001e0: 1260 50be 06d5 1b3d ab05 78bd 676f 1ebd
000001f0: 3cd2 153d dcb5 763d 989a e5bd a1b1 babd
00000200: 264b f3bc acf1 863d 4cc1 a3bd c02f dfbd
00000210: e1d2 0dbe 50f2 513b 241e c43d 85a9 cd3d
00000220: 9b11 013e e06b 0cbd 353c 0ebe 3b84 29be
00000230: 2710 983d daf8 21be a992 1ebe 660e f03b
00000240: 34eb eebc c169 e9bd 0514 a5bd ecd2 bf3d
00000250: 56be 93bd f0e3 473d 3554 c73d 168d 0dbc
00000260: 16d5 8c3d 85d8 87bd afd0 2f3e 4c1a 2f3b
00000270: 5685 043e c5aa 133d 9103 c73d 2cd5 313c
00000280: ee19 a63d 39a9 a7bc 74f3 37bb f8a1 e13d
00000290: f3ba 883d 58b2 093c f97a 6dbd 6b85 ba3d
000002a0: 2084 13bc feba 2dbe c396 283d 5ab9 12be
000002b0: e317 3340 baa6 70bf 1457 50bf 86e5 f8bd
000002c0: 0bb3 8b3d 95c1 7fbe b44a bcbd a60f 24be
000002d0: bbbc 46be 013e 6cbe 1d43 f2bd beea 2ebe
000002e0: 1558 c23c 6977 4dbc 97a7 ec3d b13d f13d
000002f0: dca1 153e 5537 233b 0d81 67bc b289 3d3e
00000300: 1649 65bd 9f93 583d 86cf da3d 3e61 253e
00000310: dba2 ae3d 089b bcbc 5924 343e 9f2b 4a3e
00000320: 8810 253e c35c 373e 2166 173e c984 5d3d
00000330: a581 083e dbb2 223d dfd2 f43d 2fe5 72bd
00000340: 9a23 99bd c32a cb3d d612 b83c c38e 93bd
00000350: 5019 8a3b bda9 df3d fd3b 4ebd 31e7 56bd
00000360: e61a 003e 17d8 05be 13d4 953d 707e 4ebd
00000370: ddb6 60bc 4abe 55b9 7fd3 82bc 73a7 dd3c
00000380: d80f 383d a756 1c3d 02fa 4dbc 19c6 043e
00000390: b8b4 433d fad5 44c0 a150 8740 11ba 533f
000003a0: 1594 1d3e 536c 2abe 9b7f 12be 2778 87be
000003b0: 6b36 cfbd a4a6 97bd 4670 bbbd 64b5 86bd
000003c0: e9c3 bcbc d57e 4f3d b5cd 8e3d 22cd 1a3c
000003d0: cd63 6e3c ecd7 a9bd 4ab6 1fbe b102 9f3c
000003e0: 4d4e fc3b 2a79 563b 64e9 7d3d 8443 1e3b
000003f0: 486b 70bc 2e09 db3c c679 df3c a8b3 7f3b
0.08923838 -2.0987377 0.25762412 -0.3187542 -1.5158864 -0.0746007 0.0935694 0.067214094
0.031804673 -0.04495247 0.047595404 0.08460294 0.0845745 0.04311277 -0.036237665 0.017047687
0.10048667 0.033326153 -0.0009993725 0.16077374 -0.049404435 -0.004995838 0.0041052005 0.07801126
-0.018194204 0.0884983 -0.07256329 0.085147806 -0.114424974 -0.010104519 -0.02660462 0.021186538
0.084095165 0.1807591 -0.05223808 0.0395213 0.023306115 0.12500875 0.06557354 0.04081957
-0.13449785 -0.12902 -0.0150037855 0.046779834 -0.103208065 -0.10399732 0.00931113 -0.15752015
0.03159885 -0.036318105 -0.16903134 0.043124884 -0.1876819 -0.10263908 0.035476107 0.047275566
0.12972783 -0.056150712 -4.0651374 2.7830923 0.30104226 0.44347444 -0.13709539 0.10977029
0.013068265 0.05667664 -0.122036226 0.020117363 -0.17090796 -0.1517379 0.01570247 0.046128277
-0.13681851 0.08663175 0.08890947 0.05587866 0.02005617 -0.11355076 0.05829159 -0.041287884
0.082037136 0.0806344 -0.11625868 0.013267516 0.0057675703 0.01438981 0.08462295 0.05322635
0.05731268 -0.050721906 0.026695412 -0.16632724 -0.14692998 -0.100625455 0.12908582 -0.078045815
0.0027170896 -0.20793183 -0.20983613 -0.070386745 0.04710038 0.056056816 -0.0391428 0.10144176
0.016710436 -0.112451285 0.011150204 0.090624996 -0.08874751 0.08322284 0.026881596 -0.09994199
0.10522959 0.0037946647 -0.07520742 0.29220375 -0.3043445 0.3905769 -1.3452642 0.06298986
-0.20349148 0.03804495 -0.06055228 -0.03868046 0.03657745 0.06023203 -0.11211127 -0.09115911
-0.02969892 0.06589064 -0.07995853 -0.108977795 -0.13849975 0.0032035299 0.09576061 0.10042099
0.12604372 -0.034282565 -0.13890155 -0.16554348 0.07424956 -0.15817586 -0.15485634 0.007325935
-0.029164888 -0.11397124 -0.08060459 0.09366402 -0.07214038 0.048801363 0.09732858 -0.008639595
0.068765804 -0.06633095 0.1716945 0.0026718555 0.12941489 0.03605153 0.09717477 0.010854047
0.081104144 -0.020466434 -0.0028068693 0.11017221 0.06676283 0.008404337 -0.057978604 0.09107479
-0.009003669 -0.16965863 0.041159403 -0.14328519 2.798333 -0.94004405 -0.8138287 -0.12153153
0.06821259 -0.2497619 -0.09193936 -0.16021594 -0.19407932 -0.23070528 -0.11829207 -0.17081735
0.023723641 -0.012540677 0.11555403 0.11779345 0.14612526 0.0024904807 -0.014129889 0.18509558
-0.055977903 0.052875157 0.10684113 0.16150376 0.08527156 -0.023023143 0.1759199 0.19743203
0.16119587 0.1790648 0.14785053 0.054081712 0.13330705 0.03972135 0.11954283 -0.059300598
-0.074774936 0.099202655 0.02246992 -0.07204964 0.0042144433 0.10921047 -0.050350178 -0.052466575
0.12510261 -0.13070713 0.073158406 -0.05041355 -0.013715473 -0.00020384151 -0.01596999 0.027057385
0.044936985 0.038168576 -0.012571814 0.12966193 0.04777977 -3.07556 4.2285924 0.8270579
0.1538852 -0.16642885 -0.1430649 -0.26458856 -0.10117801 -0.07404831 -0.09152274 -0.06577566
-0.023042636 0.050658066 0.06972829 0.009448322 0.014550162 -0.08293137 -0.15596882 0.019410463
0.007699764 0.0032726028 0.061990157 0.002414913 -0.014674015 0.026737776 0.027279746 0.0039016996

trunk.0.bias f4 [128]
00000000: ad07 10c0 1084 3c3f ac5c 22c0 fbe5 233f
00000010: 04cc 863f 714f b9bf 1518 abbd 28f8 72bf
00000020: e629 d7bf 71e2 00c0 2e46 563f c606 69bf
00000030: c164 9ebf 5a6a 0dc0 0e90 babf b4a3 e43f
00000040: 6c57 1940 4b88 0fc0 191f 31bf 997a ec3e
00000050: 9638 01c0 7ba5 0bc0 220d 563f 8756 c2bf
00000060: 8d3a f8bf deb2 c2bf 03dd e6bf 02fb f8bf
00000070: 2bf1 d9bf 43a1 ffbe 6763 033e 9b07 d2bf
00000080: 925f f5bd 80d7 9bbf d68c 48bf 3a7f b6bf
00000090: aa98 9a3f 066f 953f a8b2 d0bf 9c1c bcbf
000000a0: 0e63 43be 2616 3d3f d852 f8bf 5bd3 5b3f
000000b0: d4fc d4bf 2822 e73e dbc1 d5bf 7220 e7bf
000000c0: becc b8bf 502c eabf 9933 82be 54a9 8cbf
000000d0: 60be c8bf caa0 eebe bbe5 0340 98b6 e2bf
000000e0: e329 eabf 1fbe 8abe 87b5 f1bf f245 d0bf
000000f0: 2705 363f e2b0 dabf 5c9f 15bf af32 42bf
00000100: b065 edbf a4e1 2e3f d8c5 ebbf fc41 21c0
00000110: bd44 e6bf 72e8 7ebf 7a38 c4bf 15cf 463f
00000120: cbaa a0bf a7f1 87bf 9750 0ebe 365f c7bf
00000130: 2310 acbf 4ef4 ecbf bb3d 6cbf 4ff3 96be
00000140: a50d e9bf 4231 a4bf f323 12c0 4ebc a8bf
00000150: 37dc 32c0 ffc0 09c0 ae29 0b40 d22e babf
00000160: 56a5 bdbf 7d57 84bf bc64 91bf 16e1 b0bf
00000170: d711 833f 12b8 90bf 6822 afbf dc8e d5bf
00000180: 1e89 05c0 cdb2 b2bf 92ef fdbf e4cb d8bf
00000190: 05f1 dd3f aa31 b1be 7363 dbbf 22d5 6ebf
000001a0: 39a8 b1bf f8d7 a9bf 8d27 533f 1fd9 9fbf
000001b0: 03b9 08be fa65 0240 f4f9 1dbf 3a55 b1bf
000001c0: a75b 2ec0 304b e0bf 555c cebf b4cb 08c0
000001d0: 1a80 f1bf a02a 0240 c446 abbf 1ca1 e6be
000001e0: 2d33 8abe b74f 87bf be52 9cbf 7090 0bc0
000001f0: 1a2c cfbf e498 903f b02d f7bf 5350 8ebf
-2.2504685 0.7363901 -2.5369062 0.640228 1.0531011 -1.4477369 -0.08354203 -0.94909906
-1.6809661 -2.013821 0.83700836 -0.9102596 -1.2374498 -2.2096162 -1.4575212 1.7862458
2.3959608 -2.2426937 -0.69188076 0.46187285 -2.0190787 -2.1819751 0.8361379 -1.5182656
-1.9392868 -1.5210836 -1.8036197 -1.9451602 -1.7026724 -0.4992772 0.12830888 -1.6408571
-0.11981119 -1.217514 -0.783399 -1.4257576 1.2077839 1.1674507 -1.6304522 -1.4696231
-0.19080755 0.7386192 -1.9400282 0.8586938 -1.6639657 0.45143247 -1.6699785 -1.8056777
-1.4437482 -1.8294773 -0.2542999 -1.0989175 -1.5683098 -0.46607047 2.0608966 -1.7711973
-1.8294033 -0.27098176 -1.8883523 -1.6271346 0.7110161 -1.708523 -0.5844629 -0.7585859
-1.8546658 0.6831305 -1.8419752 -2.5196524 -1.7989727 -0.99573433 -1.5329735 0.7765973
-1.2552122 -1.0620621 -0.1389793 -1.5575931 -1.3442425 -1.8512056 -0.92281693 -0.29482505
-1.8207289 -1.2827532 -2.2834442 -1.3182466 -2.7946908 -2.1524045 2.174419 -1.4545538
-1.4816082 -1.0339199 -1.1358867 -1.3818691 1.0239819 -1.1306174 -1.3682375 -1.6684222
-2.086494 -1.3960816 -1.9838736 -1.6937222 1.7339178 -0.34608203 -1.7139724 -0.93293965
-1.3879462 -1.3269033 0.82482225 -1.2488135 -0.13351826 2.0374742 -0.61709523 -1.3854134
-2.724344 -1.7522945 -1.6121927 -2.137433 -1.8867218 2.0338516 -1.3380971 -0.45044792
-0.2699217 -1.0571202 -1.2212751 -2.1806908 -1.6185334 1.1296659 -1.9310818 -1.1118263

actor_layers.0.weight f4 [128, 128]
00000000: 135e 9e3e 0b60 1dbe 2202 603e 7185 1b3e
00000010: 800d 57bd 27a0 aa3d 0a3e 41bd 8efc 7c3a
00000020: e082 2d3d 9aba 8e3d 7166 ba3d b6af 2abd
00000030: 0e1b 05bd aa72 903d 0f93 74bd 0cf6 bebd
00000040: 20cb c23d cc91 463e 8dba e3bd 4bb0 adbd
00000050: da17 763c e191 893b 1018 fcbc b0eb d23d
00000060: 58ae c43d 24db 8a3e 6647 5a3e fac5 113e
00000070: c5bf 9ebd 37b7 9e3e e334 c2bb 82fd 9ebe
00000080: 5d1c 8bbd 17ee 013e da34 373d d0c3 b9bd
00000090: 3df8 a5bd f631 1e3e f42f c43d 91f2 923d
000000a0: 86b6 06be 16b6 e7ba 2bcb d83d 10c4 f0bd
000000b0: f7df d1bd fdeb 85bd 4952 2ebd a995 20bc
000000c0: 0e9b 903e 89f0 5bbe fce4 92bd 8a79 023d
000000d0: a001 68be db48 1c3e 3525 b33d 22a8 7b3d
000000e0: 843d 833e 49ac ea3d 26da 7c3d f740 06bd
000000f0: cdb8 8fbc a513 8c3c bc8b 493e ffb7 4bbd
00000100: ce37 fd3d 5fa2 0e3e 2a11 0f3e 1af2 873e
00000110: 821f 00be a5b7 943e 0229 873c 75f3 b9bc
00000120: 1af3 4e3e 2d80 053e f6a2 b4bb 53ad 603b
00000130: 50b2 9f3e d748 483e 99dc 19bc 9115 c43d
00000140: 8e2c e9bd cb0e 923d cfea b63d 12ef 82bd
00000150: 57e1 f73d 6bb3 a03c b5a6 3a3c 3d36 b23e
00000160: e234 8b3d 4d53 80bd 8e90 a13d bd0a 4fbd
00000170: 544c 8d3d 36e1 863e 9a65 1d3c 912a e0bd
00000180: eed3 09be a843 76bd faf0 633e 25e3 dd3c
00000190: f5fb 98bd d49e b93d 0b7f de3b 90ce 803c
000001a0: 67d9 783b 7fcb 8e3e 931f 3d3d fb20 be3d
000001b0: 8145 a13d 2cef 603d 89ae 09bd f240 c03d
000001c0: e09d 9f3e 7f6d be3d f5f7 253e 1946 083e
000001d0: 8643 6f3d c364 403e 9a84 acbb 6492 9b3c
000001e0: 735e 3a3d 133c 723d 38c0 d83d d228 7dbe
000001f0: 2eed e23d f9f1 87bd 046c a7bc 466e 103e
00000200: 1551 6bbc d151 913d 9de6 943e 29f9 fdbe
00000210: eba3 3a3e 52e1 083d 9142 493e ac6d 2b3e
00000220: a400 c0bc 55ee a93e 36d0 303e a9cb dcbd
00000230: c0a5 6e3e ee5e cb3d 0e86 d43e 7f57 223e
00000240: d60f e4be 048f e63c a298 013e 2662 623d
00000250: 443b 773e 5617 0cbd 7a4a 0cbf 53ce 183d
00000260: f946 88ba 63c9 523d 93d3 163e 0ba2 6b3e
00000270: 5fd1 1f3d b139 afbd 3619 0dbe 6f29 333e
00000280: 0c70 3cbd 158a c73d 241b fc3d 6c86 133e
00000290: 1565 e2be 28d8 8f3e 77ed 213e 9576 383e
000002a0: 04ed fc3d cf2b d6be 6717 513c 8740 2f3e
000002b0: 60e8 99bd 3a90 a03d e6ec be3e f833 153e
000002c0: 41f9 aa3d c0e1 e83d 0a98 c1be 476a 22be
000002d0: 1bc2 6d3e 6f08 abbe 540e 693c 49f5 973e
000002e0: 791f 463d c51e 093e e50d 813e 0452 333d
000002f0: 6428 e0bd 055f b43e 7ad2 abbd cb35 993e
00000300: 9883 04be c241 36bf 0a94 a53e 3973 003e
00000310: 0ea9 d33e b103 633e 9757 4c3e 8b8b f1bd
00000320: de6a 8d3e 85d3 debc bf81 debd cfaf 2e3d
00000330: df57 083d 066c b83e fb75 e5bc 9b49 23be
00000340: bf27 e03d f79e fa3d e430 9c3e 9851 c43d
00000350: c632 f13d c850 073e b047 e6bd efbe 033f
00000360: 6831 393e 93f2 acbc 6a06 17bd e89b 59bd
00000370: bd95 23bb c24e b53e 69ab f6bb c469 163d
00000380: 2c5c 8b3c 3446 583e 0583 3fbc ec03 083d
00000390: cec2 88be eed4 693d cc73 613d 6796 afbe
000003a0: 52b2 bdbd a903 9bbd 6969 02bf ea42 363d
000003b0: c33a 0fbf d199 4d3e 3a8b 93bd 98a5 9a3e
000003c0: 66ce b13e 9abe 973e c68b 023d 8ea5 2a3e
000003d0: f98e c33d 4df7 13be 5f9c 85bd 9e94 71be
000003e0: 9221 183e d842 0c3e cb45 6b3e 32a2 1c3e
000003f0: c260 9d3d 2eeb dcbd 42fa a53e 6705 063b
0.30931148 -0.15368669 0.21875814 0.15187623 -0.05250311 0.08331328 -0.047178306 0.00096506707
0.04236114 0.06969185 0.091015704 -0.041671477 -0.032496504 0.070531204 -0.05971056 -0.093242735
0.09511399 0.19391555 -0.11119566 -0.08480891 0.015020335 0.0041982983 -0.030773193 0.1029886
0.09603566 0.27120316 0.21316299 0.14235678 -0.07751421 0.30999157 -0.0059267147 -0.31052786
-0.06792519 0.1268848 0.044728138 -0.090705514 -0.08103988 0.15448746 0.09579459 0.07175172
-0.13155565 -0.0017678167 0.10585626 -0.11756146 -0.10247796 -0.06539152 -0.042558942 -0.009801307
0.28243297 -0.21478476 -0.071725816 0.03185419 -0.2265687 0.15262167 0.08747331 0.06143964
0.2563287 0.11458642 0.06173148 -0.0327768 -0.017544175 0.017099211 0.1968221 -0.04973602
0.123641595 0.13929127 0.13971391 0.26551896 -0.1251202 0.2904636 0.016499046 -0.022699097
0.20209923 0.13037176 -0.0055125905 0.0034282997 0.3119073 0.19559036 -0.0093909735 0.09574426
-0.11385451 0.07131728 0.08931505 -0.06393255 0.12103527 0.019616803 0.011392285 0.34807006
0.06797196 -0.06265888 0.078889 -0.05054735 0.06899324 0.26343697 0.009606743 -0.10945619
-0.13459751 -0.060123116 0.22259894 0.02708585 -0.07469932 0.09063497 0.006790047 0.015723497
0.0037971379 0.2788963 0.04617269 0.09283634 0.07874585 0.054915592 -0.033613715 0.09387387
0.31175137 0.092982285 0.1620787 0.1330799 0.058414005 0.18788438 -0.005264831 0.018990703
0.04550023 0.059139322 0.10583538 -0.24722603 0.11080395 -0.066379495 -0.020437248 0.14104566
-0.014362593 0.07095683 0.29082194 -0.49604157 0.18226592 0.033418007 0.196543 0.16741055
-0.023437805 0.33189645 0.17266926 -0.107810326 0.23305416 0.09930216 0.41508526 0.1585369
-0.44543332 0.028144367 0.12655881 0.055269383 0.24143702 -0.034201942 -0.5480114 0.03730614
-0.0010397128 0.05146159 0.14729147 0.23011033 0.03901803 -0.08555926 -0.13779148 0.17496274
-0.046005294 0.09743134 0.12309864 0.14406747 -0.44217744 0.28094602 0.15813242 0.18013985
0.12349895 -0.41830298 0.012761927 0.17114459 -0.07515025 0.07840009 0.37290114 0.14570606
0.08348323 0.113711834 -0.3781131 -0.15860854 0.23218577 -0.33404872 0.0142246075 0.29679325
0.04836986 0.13390644 0.25205913 0.043779388 -0.10945204 0.35228744 -0.083897546 0.29923853
-0.12940824 -0.7119409 0.32339507 0.12543954 0.41339916 0.22169377 0.19955288 -0.11794194
0.27620596 -0.02720047 -0.10864591 0.042648133 0.033286925 0.36019915 -0.028010359 -0.15946047
0.10945081 0.122373514 0.3050605 0.09585875 0.117772624 0.1321441 -0.11244142 0.51463217
0.18085253 -0.021111762 -0.03687135 -0.0531272 -0.0024961077 0.3541165 -0.007527758 0.03672196
0.017011724 0.2112053 -0.011688952 0.033206865 -0.26711124 0.05708783 0.055042073 -0.34294435
-0.092625275 -0.075690575 -0.50942093 0.044497408 -0.5594904 0.20078208 -0.0720429 0.30204463
0.34727782 0.29637605 0.03187158 0.16664717 0.09548754 -0.14449807 -0.06523966 -0.23591849
0.14856556 0.13697374 0.22975843 0.15296248 0.07684471 -0.107870445 0.32417494 0.0020449997

actor_layers.0.bias f4 [128]
00000000: 2b40 8f3d 688b 83bf 98f2 b7be be17 163f
00000010: be17 b8be db64 563f 44db a73e b319 f5bb
00000020: 6cc9 d1be 4d23 abbd d109 abbf d6d4 443f
00000030: 4166 f8bf b031 0cbf 9bdc 96bf ffbf 25be
00000040: 8b8f f1be 36f5 a9bd ea76 afbf 120d ba3f
00000050: 148b 5cbd 960a c4bf ca0e 40c0 d96f 0cbf
00000060: f216 fc3f db1a 11be b529 38bd f762 71bf
00000070: e021 e7be cc1f 343f 3156 b5bf 013b b8be
00000080: 8467 893d 4296 8bc0 01c4 0f40 76aa 34be
00000090: 3cd7 f7bf a978 66be d548 07be 9cc1 cdbd
000000a0: 1a16 54be 1e29 f0be f990 5ebe 0d65 a5bf
000000b0: 6d15 1d40 af16 37bf 3e11 443f 4f97 17c0
000000c0: d1e5 44be 6e1f 25bf 82c9 193f b37a 1cbf
000000d0: c87c a03d 5c0a 913e 913d 6a3f 3b43 2bbe
000000e0: 3ce7 49be 92f7 cabe f82f 8bbe e28c 3540
000000f0: 5c51 c83f 49a1 60bf 4708 e0bc f248 16bf
00000100: 8a6b 24bf 37b2 99bf c5e1 43be 7e94 233d
00000110: ede8 e3be 2d4a 5dbf 73cc 6abf 1287 803f
00000120: 2c0a 273f cedf 8fbf 37ba 92bd cdb2 d2be
00000130: 2b7e ccbe e3d4 bbbe 872c 4abf 0f0d 0bc0
00000140: 6263 bc3f 1d28 45be edf2 62be ef4e 103d
00000150: b689 e73e 0f27 373f 1b03 083e c8e3 2b3d
00000160: c4f2 9cbf 24c6 c9bf a642 e73e 85ab 80bf
00000170: 8ded 40be f552 ffbd d8d7 7dbf bc89 37bf
00000180: 88a9 193f ff98 72bf bb65 29bd 8cbe d0bd
00000190: f011 23be e0ac 1abd 6f00 12bd b944 073f
000001a0: cb1b 88bf 7504 93bd 16f1 843f 7f61 83be
000001b0: 0fde 82bf 2b12 453c 0056 2bbe e010 8abf
000001c0: 5e2b f83c 3241 e3be 4d78 183f ba39 1cc0
000001d0: 484b c7bd 4c54 f63c 22b9 acbd 26b4 c93e
000001e0: 75c7 873e b050 b9bf 8b80 973e cb5d af3f
000001f0: 0660 1dbf 0eaf c7bf ba44 f1bd c524 15bf
0.06994661 -1.0276918 -0.35927272 0.5862998 -0.35955614 0.83747643 0.32784474 -0.00747987
-0.40973985 -0.083563425 -1.3362371 0.7688726 -1.9406205 -0.5476332 -1.1786073 -0.16186522
-0.47179827 -0.082987234 -1.3708165 1.4535239 -0.053843573 -1.531573 -3.0009027 -0.54858166
1.9694502 -0.14170401 -0.04496165 -0.94291633 -0.45143032 0.7036102 -1.4166929 -0.35982516
0.06709197 -4.362092 2.2463381 -0.1764315 -1.9362559 -0.22506966 -0.13211377 -0.10046694
-0.20711556 -0.4690637 -0.2173499 -1.2921463 2.4544327 -0.7151899 0.7658881 -2.3686101
-0.19228293 -0.6450108 0.600731 -0.61124724 0.078363 0.28328216 0.9150019 -0.16724865
-0.19717115 -0.39642006 -0.27185035 2.8367238 1.5649829 -0.877461 -0.027347697 -0.58705056
-0.6422659 -1.2007512 -0.19129093 0.039936535 -0.44513646 -0.8644131 -0.91718215 1.004122
0.65249896 -1.1240175 -0.07164424 -0.4115204 -0.3994001 -0.36685857 -0.78974193 -2.172672
1.4717829 -0.19253583 -0.22162981 0.035231527 0.45222253 0.71543974 0.13282435 0.041965276
-1.2261586 -1.5763593 0.45168036 -1.0052344 -0.18840618 -0.12466995 -0.99157476 -0.7169454
0.6002431 -0.94764704 -0.041356783 -0.10192594 -0.15924811 -0.037762523 -0.035644945 0.5283924
-1.0633482 -0.071785845 1.0386074 -0.2566032 -1.0224017 0.012028257 -0.16732025 -1.07864
0.030294117 -0.44385678 0.59558564 -2.4410233 -0.09731156 0.030069493 -0.08433749 0.39395255
0.2651936 -1.4477749 0.29590258 1.3700498 -0.61474645 -1.5600297 -0.11780687 -0.5825923

actor_layers.2.weight f4 [128, 128]
00000000: df94 113d fb3a aebe b8d3 96bd ebc2 55bf
00000010: 8645 d43d 4055 10be 83ce a7be a2c5 a03c
00000020: 8e9a 7d3d b2b1 ccbd ff25 693d 6974 20bf
00000030: 48c7 35be a138 ee3d d18b a53e 6565 453d
00000040: d4de cebe 1272 9e3e 193a a23d 020e 403d
00000050: f9f4 e9be 4878 ed3d d459 87bd affd 0e3e
00000060: 7115 d1be 66cd 113e 5b0a c13c 5d25 32be
00000070: 4ae9 183e a7ce a0be 59cc 223e 2a71 3d3e
00000080: 1302 a03e 3cb9 18be eb17 88bd 8c84 87bd
00000090: 1d59 a1be a650 8abd 861a 1d3d 75b6 9b3e
000000a0: 0394 d0bd 256a e63d 3f73 803e 377a 56be
000000b0: dac6 a3be ad4a 213e 9b82 db3d 5ba1 953d
000000c0: 468e 893d 934a febe 0781 e8bd 7308 54bd
000000d0: 2f94 f53a b221 9e3e 1814 debd cdd4 0fbf
000000e0: ccac 5b3c 2662 ddba 4724 073e 39cf 9abc
000000f0: 9f2c c3be 906b 893d 38ad 343d afc2 7dbd
00000100: 9887 da3d 2992 d5bc 2c06 5bbd 418d d73d
00000110: 1489 4fbe b7db d63d c337 c5bc da95 cebd
00000120: b066 f8be fbd8 96bd e7a3 bb3d fef8 c13e
00000130: 0063 20bd 1a59 a9bd baf6 3abe 5807 783e
00000140: 2e7d ccbe abf7 cd3c 6af9 e53e 6cbd 923b
00000150: 4384 63bd 389f 813e 10f5 12bf 4f29 ecbb
00000160: 5d79 64bd 7a86 9cbb 3054 143e 5e34 d93d
00000170: 7142 16bc 53e8 023d 81a7 5a3e 9f4b fe3c
00000180: 9b32 10be 769f 953d 96bb 9e3e 02df 6d3d
00000190: 94cb ed3d 22b0 be3c e007 73bd b0be 36bd
000001a0: 0838 ae3d 4fd8 513d 1416 96be 8219 c43d
000001b0: 0fac e9be 1d54 8ebe 14e2 4f3d 8f5b 763e
000001c0: ba2d ab3e 02d2 d0be 8d2d 3e3e ff03 ca3d
000001d0: 4a48 c3be 593e 903c ffe6 b93c 43cb 03be
000001e0: 43fa b8be f0e0 7ebe d1f8 0f3f 7a8e 49bd
000001f0: 6c3d bb3d 9bd7 1b3e b9a6 c63d 16da 5bbe
00000200: 08be d9bc 5351 7b3d 61fa fbbd e092 3ebe
00000210: 2cfc 3abe 0ab4 f2bd 2722 9fbd cf40 ad3c
00000220: 4d0b e3bd d7f2 9bbb 284b 50be 2e54 57be
00000230: c91c 63be 8580 8c3d 9475 03be 6064 533c
00000240: 4dbb 8ebe 6d63 ddbd d570 ccbd 6fbd 77bd
00000250: 137a e23d b528 20be 7ff0 08be cb25 bd3c
00000260: 8f44 edbc 15af c5bd 4aad 1bbc 900c a1bd
00000270: 8883 8abe 9aa3 0f3e 010c 8fbe 00ba 17bc
00000280: 694a b0bd 0a6a 33be 10e8 b93d 7d30 e7bd
00000290: 76bd 1fbe 3fa8 6abd 051a 073e f633 c6bc
000002a0: 8906 5ebd d957 9d3d 22e0 b53c 125a ffbd
000002b0: 5804 73be 123b d53b 9b86 79be 8431 49be
000002c0: 112b 6ebe c467 0d3d b762 1ebe 7ff5 4c3e
000002d0: bf95 883e b341 b63d 2a0d 47bd 6cce 183d
000002e0: 3d33 613c 2292 b63d 7fe4 a1bc 28ac 85be
000002f0: c6a3 21be 4e01 4e3d 0c9a 7dbd e0e6 d4bd
00000300: ced2 16be 4578 5b3b 302a 563d 1195 73bd
00000310: c626 d3bd 1127 27be ad3a 733e 66c9 84be
00000320: 0d1c 173d 385d afbc 2080 e6bd 742e b9bd
00000330: 5a2c 18bc be33 6c3d 2a5d d23d 114f a0bc
00000340: c226 4dbd 7dcd 28bc 07ad 093d c6db 823c
00000350: f574 23be 840f 8c3e 25ff 6ebe a35f cd3a
00000360: d220 423e 8b3f 40bd e862 a43e 6855 14be
00000370: f9b3 633d bc58 91bd 6254 a0be a6e2 b7bd
00000380: 93ba 8bbd 8819 c2bc 911e 9f3c e2e2 823d
00000390: f6c8 ec3d 7759 64bd d319 efbd 0bd2 8b3d
000003a0: 6a0e 53be c9be ffbb 28a7 73be e119 1bbe
000003b0: e110 aa3d 1cbe d83d aa0f 4f3e 12ed 6cbb
000003c0: 6b96 653e fa15 773d 69fd 413e ba16 56be
000003d0: b194 5bbd fb73 ad3d 8ba8 35bd 7f71 6bbd
000003e0: d6bd 01be 97ce 3abe f04f 7dbe be7a 0bbe
000003f0: 0b44 90bd 69a7 2bbe 5fd2 e2bd 3280 bdbd
0.035542365 -0.34029374 -0.07364601 -0.83500546 0.10364823 -0.1409502 -0.32774743 0.019625489
0.061914973 -0.0999483 0.056921 -0.6267763 -0.17751801 0.11631895 0.32333234 0.0481924
-0.4040438 0.30946404 0.079212375 0.04688836 -0.45694712 0.115952075 -0.0660893 0.1396396
-0.4083667 0.1423851 0.023564508 -0.17397065 0.14932743 -0.31407663 0.15898265 0.185002
0.31251583 -0.14914411 -0.06645187 -0.06617078 -0.315133 -0.06753664 0.038355373 0.3041264
-0.10184481 0.11250714 0.25087926 -0.20945059 -0.3198765 0.15751143 0.107182704 0.07306167
0.0671659 -0.4966627 -0.11352735 -0.05176587 0.0018736179 0.30885082 -0.10843676 -0.56184083
0.013407897 -0.0016890212 0.13197432 -0.01889764 -0.3811998 0.06709969 0.044110507 -0.061953243
0.10670394 -0.026070671 -0.053472683 0.10524989 -0.20267135 0.10491126 -0.02407444 -0.10087176
-0.48515844 -0.073656045 0.09162121 0.37885278 -0.039156914 -0.08268948 -0.18258181 0.24221551
-0.39939255 0.025142511 0.4491685 0.0044781473 -0.055546056 0.25316787 -0.57405186 -0.007207073
-0.055779804 -0.004776773 0.1448524 0.106056914 -0.009171114 0.031959843 0.2135296 0.031041918
-0.14081804 0.073058054 0.31002492 0.058074005 0.11611095 0.023277346 -0.059333682 -0.044615448
0.08506781 0.05123168 -0.2931372 0.09575178 -0.45639083 -0.27798548 0.050752714 0.24058364
0.33433324 -0.40785223 0.18572064 0.098640434 -0.3814109 0.017607855 0.022693155 -0.12870507
-0.36128435 -0.24890494 0.5623904 -0.049208142 0.09142575 0.15218966 0.096997686 -0.21469912
-0.026579872 0.061356854 -0.12303615 -0.18610716 -0.18260258 -0.11850746 -0.07770186 0.021149067
-0.1108614 -0.0047591734 -0.2034117 -0.21028206 -0.2217895 0.06860451 -0.12837821 0.012902349
-0.27877274 -0.108099796 -0.099824585 -0.060483392 0.1105844 -0.15640529 -0.13372992 0.02308931
-0.028963355 -0.09652535 -0.009501765 -0.07863724 -0.27053475 0.14027253 -0.27938846 -0.009260654
-0.086079426 -0.1752092 0.090774655 -0.11288545 -0.15599617 -0.05728936 0.1319352 -0.024194699
-0.05420545 0.07682771 0.022201601 -0.124683514 -0.23732126 0.006507286 -0.24367754 -0.19647795
-0.23258616 0.034522787 -0.15467344 0.20015524 0.26676747 0.0889925 -0.04859654 0.037306234
0.013745126 0.08914591 -0.019762276 -0.26107907 -0.15785131 0.050294213 -0.06191449 -0.103955984
-0.14728853 0.0033488434 0.052286327 -0.059468333 -0.1031013 -0.16323496 0.23752852 -0.25934905
0.036891986 -0.021406755 -0.11254907 -0.09042063 -0.009287918 0.057666533 0.10271676 -0.019568952
-0.05008579 -0.0103028985 0.033612277 0.015973937 -0.15962584 0.27355587 -0.23339517 0.0015668761
0.18957832 -0.0469356 0.3210671 -0.14485705 0.055591557 -0.07097003 -0.3131438 -0.08978777
-0.068226956 -0.023693815 0.019423755 0.06390931 0.11561768 -0.055749383 -0.116748475 0.06827172
-0.20610967 -0.007804726 -0.23794234 -0.15146591 0.08304001 0.105831355 0.20220819 -0.0036152047
0.22420661 0.060323693 0.18944325 -0.20907107 -0.0536086 0.08469387 -0.04435019 -0.057481285
-0.12670073 -0.1824287 -0.24737525 -0.13621041 -0.07044228 -0.1676308 -0.11075281 -0.09252967

actor_layers.2.bias f4 [128]
00000000: 035f a3be 6571 eb3e 666f c4be d7b1 8bbd
00000010: 2fc4 48bf b0c3 47be 4600 9bbc 2025 01bf
00000020: 4828 49bd 1835 02be 3d2b babe 10b1 993e
00000030: dc13 5dbe f627 1c40 6769 f2be 10ee 65bf
00000040: df2f 0bbd 2435 753f fd1d d0bd 9be6 f43f
00000050: f1a5 34bd e50c 29bf a14b 26be 45bc 393f
00000060: 1a07 90be b2f6 25be 831d e3bd b0b2 bcbe
00000070: fc90 893e 172e 52bf 183c 8dbe 03cc 83be
00000080: db2f bdbe 6732 78bb e671 84bc a8d2 1dbf
00000090: 02bd 33bf c361 38be 66fd a2be ba5d 693c
000000a0: 650a 83be c82c 00bb f7c2 30be e6b9 76be
000000b0: 718d 50bd 31e8 3abd 4163 adbd f26a 6bbf
000000c0: 5e79 1dbe 7a16 04be dd9d 0fbe 75fd 5dbf
000000d0: 6439 a2bd be58 bdbd 9dab 4bbd 3477 63be
000000e0: 65ec bebc f6f5 d1be e579 a3bd 5cc4 b1bf
000000f0: 5de8 2ebd a5ed 64be efc6 e8bd d703 d6bd
00000100: efb2 e43d 37e7 cf3d 6246 a13f 3cc4 28bf
00000110: e530 5ebe 7269 d3be 35ba 8c3d f2ba 1dbe
00000120: 4166 91bd 5c2e 05bf a44a 9e3f db10 95bd
00000130: 18c6 4fbe cdf9 bfbe 4407 4f3d 85a5 41be
00000140: 5640 b5be 0399 4b3f b44a 2d3d c3a2 94bf
00000150: f882 bfbd 41bf 9abd fa8f e3bd 4679 f13c
00000160: 9274 1bbb cdf8 e1be e94d abbd fb38 9bbe
00000170: 58aa 7dbf 77d6 28be a4c1 09be 1e7b b7bd
00000180: bab7 39be 2000 fabe bfa0 07bf 1847 25bf
00000190: 2eae 4a3e 9f17 89bc 11ae 8dbf dfa9 3fbd
000001a0: a765 033f 3a1f aebd 4e43 2c3e 5fd6 1abf
000001b0: 6f99 e5bd 4d79 033f 4e2f cc3c 36d5 b5be
000001c0: cb6d 443d d520 48bd 6d7d a5be 2ade b4bd
000001d0: 98b3 96bf f3f4 8bbe f0d3 14bf 2998 39be
000001e0: 9d53 7b3e 0dbf 903e fca4 02be 7b2a 36bf
000001f0: 1423 6bbe 656e 573c 648a 8fbe 70cb 46be
-0.31908426 0.4598495 -0.3836624 -0.0682103 -0.7842435 -0.19508243 -0.018921029 -0.50447273
-0.04911068 -0.12715566 -0.36361113 0.300179 -0.21589607 2.439939 -0.4734604 -0.8981638
-0.0339812 0.9578421 -0.1016197 1.9132875 -0.044103567 -0.660353 -0.16239788 0.725529
-0.28130418 -0.16207388 -0.11089613 -0.36855078 0.26868427 -0.8210158 -0.2758491 -0.25741586
-0.36950573 -0.003787184 -0.016167592 -0.6164956 -0.7021028 -0.18006043 -0.31833953 0.014243538
-0.25593868 -0.0019557942 -0.17261873 -0.24094352 -0.05091614 -0.04563159 -0.08466197 -0.9196006
-0.15378329 -0.12899199 -0.14025064 -0.8671487 -0.07921103 -0.09245442 -0.04972421 -0.22213441
-0.023306081 -0.41007966 -0.07982234 -1.3888049 -0.042702068 -0.22356279 -0.113660686 -0.10449951
0.111669414 0.101515226 1.2599604 -0.6592443 -0.2169834 -0.41291386 0.06871454 -0.15403345
-0.070995815 -0.52023864 1.2366529 -0.072786056 -0.2029041 -0.3749527 0.05054404 -0.18910797
-0.35400647 0.7953035 0.04230757 -1.1612171 -0.09351152 -0.0755601 -0.11111446 0.029476773
-0.0023720604 -0.44135132 -0.083644696 -0.3031691 -0.9908805 -0.16488062 -0.13452774 -0.089590296
-0.18136492 -0.4882822 -0.52979654 -0.64561605 0.19793007 -0.016734896 -1.1068746 -0.04679286
0.51326984 -0.0850205 0.1682255 -0.60483354 -0.11210906 0.51356965 0.0249249 -0.3551423
0.04795627 -0.048859436 -0.32322255 -0.08831437 -1.1773558 -0.2733532 -0.5813589 -0.1812445
0.24543615 0.2827076 -0.12758249 -0.7115857 -0.229626 0.013148879 -0.2803527 -0.19413543

actor_layers.4.weight f4 [128, 128]
00000000: 4ce3 783e 78b9 0bbd ba66 2ebd 12b4 b0bb
00000010: b43e febc fd54 953d 8eb7 20be cd18 23be
00000020: 4321 c83c 0e82 693d e3fd 9a3d f6af 813d
00000030: 1abf be3d e8a3 3abf 28ee e03e 7530 883e
00000040: 6346 d7ba 578a 5fbe 9dda 1c3d 978a 73be
00000050: 52ab 0ebe 0662 843c 3e5b 9dbd 4276 173c
00000060: 8ee6 fb3c fe29 07bc 1562 00bd 1574 a93c
00000070: da07 3bbe a6a5 5ebd 72ed bbbd e2ba f6bb
00000080: a185 513e 4262 e53c 9949 a63d b51f b43d
00000090: 094c e43e eff2 ca3c 2fad 0ebb 12f0 683d
000000a0: d44e 573e 7cad 8fbd 0e10 413d b027 2d3d
000000b0: 7018 2b3d 0dfa 8abc 4386 a0bb 88d9 abbc
000000c0: d5f9 8c3d 87c9 03be 2a2c e6bc e631 a13e
000000d0: 9de7 7bbd e12e fbbb d459 813d df93 153d
000000e0: 794b 963b 6e8e 45bd dd98 1b3d 0813 243b
000000f0: 999b 45bd a6a3 f7bc a7e5 73bd 6301 0b3e
00000100: 0e69 1bbe 3d0b 1ebe 3964 75bd b391 8cbe
00000110: 0e20 db3c 0218 6cbd bacd 98be 3a46 21bc
00000120: 08cd 863a e7f2 923e d6fc 9cbc 33a2 a6bd
00000130: f144 973a 8b07 ca3e eedc b63d d27f fbbd
00000140: 02e9 16bc 3f7c 7fbe 80a9 9f3c c581 823e
00000150: 9ae4 0ebd ddf0 b23c 07fb d43d 71b3 093d
00000160: e0a9 febd 117b b1bd 8fc5 233d 0d29 413d
00000170: 87b7 92bd 6eba 0b3e ec08 f43c fa60 2dbd
00000180: 8f10 f03d 8488 e3bd 87bf 0dbe f110 bb3d
00000190: 0eb6 5b3d a7d5 a73d 5e69 beb8 0331 843e
000001a0: 9e32 203d ce93 3bbd cbec 493d ba0c ce3d
000001b0: 9120 94bc 3351 743b 625e 1bbd 5b7d c1bd
000001c0: adaa ad3d d3a3 543d 00d9 8d3d 128a 6a3d
000001d0: 3850 a4be 43ec 70be 5e9c 2d3d ea47 a4bd
000001e0: 0657 043e e620 b1be acd1 053c 812f 08bd
000001f0: e875 533d 8995 943c ea3a d73d 0e83 91bc
00000200: a990 013e 0d3a a7bd 8461 42be f12c ae3c
00000210: 94f7 3f3e c2ab 2b3c 9399 2d3d 9157 d03b
00000220: c9d3 b93d 6fc0 1ebe 0011 08be 6573 e83d
00000230: f1f5 5abd cba0 c9bd b9eb a33c 77e0 93bd
00000240: 58c5 7ebd 82f7 7abd dfd5 1b3d f2e0 46be
00000250: 4631 f13d 9759 a6bd 3d6b 5dbc 166c 113e
00000260: b845 2a3e 216c abbd 8e04 f13c 03b1 813d
00000270: 69b0 28bc 2186 db3d 43f5 823d fe8c 6dbd
00000280: 5d61 fbbd 185d 9ebd 5111 e63c f2ec c73d
00000290: a58a 9bbe d9e4 abbd b8f6 cabc d699 7bbd
000002a0: 5deb 263d 3448 8c3d ba85 2c3c 692c c43d
000002b0: bfb6 473c 08ae 223c 300e 5dbd 4b7b 833d
000002c0: 6236 ba3d 0261 88bd 8a47 053d d7d3 7cbe
000002d0: 9c4b debd c5a5 8ebd 9bfe 483d 97ab 463c
000002e0: 26c6 e8be f750 0bbe 34ea 8f3d 44cf 553d
000002f0: f814 9abd 311f eabd 1858 7cbd dd5f ca3d
00000300: 730b ba3d 0f1b a7be f62a 72be dd1a 23bd
00000310: 590c 93bb b13b 093e e6f5 02bd ee06 923c
00000320: 0bab 9ebd 5550 d63d 178a 62be bb7e b1bc
00000330: 8417 233d f499 043d fc3f bdbc 8d87 933d
00000340: 03a7 9cbc 74a0 d6be 4432 953d cd75 1e3e
00000350: 704d 3bbd 0410 9bbc 70cc 1f3c ba9c 9dbd
00000360: b984 973d 93ce bf3d 5066 1abd 4098 4dbe
00000370: 8532 86bd 33b2 be3d fa24 ed3d c185 57bd
00000380: 7649 a53d 4e11 803d e3ae 7f3e 3d88 0dbe
00000390: 2145 37be 261c 4bbd 5cb9 263e 002f 71bd
000003a0: e689 b0be 4083 8bbc 5031 18bd fdac fabd
000003b0: f5a4 2e3a 3d6c 9dbb f34b 39bd 620d 43be
000003c0: c164 fabd 3484 b23c dac9 b9bb ca24 87bc
000003d0: b460 b63d 323f 9d3c b9dd 95bc 7be6 993a
000003e0: 04f6 72bd 439e 6dbd d1d8 0ebd f3a1 bc3b
000003f0: ff0f 4f3d f34e 4bbd 6e3b 7d3d 9362 8abd
0.24305457 -0.034112424 -0.042578436 -0.00539256 -0.031035759 0.07291601 -0.1569502 -0.1592743
0.024429923 0.057008795 0.07567956 0.0633239 0.093137935 -0.7290635 0.439317 0.2659947
-0.0016424175 -0.21830116 0.038294423 -0.23783337 -0.13932541 0.016160022 -0.07683419 0.009244503
0.030749585 -0.008249758 -0.03134354 0.020685235 -0.18264714 -0.054357193 -0.091761485 -0.0075296024
0.20461132 0.028000955 0.081195064 0.0879511 0.4458926 0.024774043 -0.0021770706 0.056869574
0.21026164 -0.070155114 0.04713445 0.042274177 0.041771352 -0.016964937 -0.0048988177 -0.02097775
0.06883589 -0.12869845 -0.028097231 0.31483382 -0.06150018 -0.0076655005 0.063159615 0.036517974
0.0045866338 -0.048231535 0.03798758 0.0025035758 -0.048244093 -0.0302294 -0.059545185 0.13574748
-0.15176794 -0.15433975 -0.059910033 -0.2745491 0.026748683 -0.057640083 -0.29844457 -0.0098434035
0.0010284493 0.28700945 -0.01916353 -0.08136406 0.0011540932 0.3945888 0.08928858 -0.12280239
-0.009210827 -0.2494974 0.019490004 0.2548963 -0.03488598 0.021843368 0.10399442 0.033618394
-0.12434745 -0.08666051 0.03998333 0.04715829 -0.07163911 0.13645336 0.02978941 -0.042328812
0.11721908 -0.11110023 -0.13842593 0.09134091 0.053640418 0.08195048 -9.079532e-05 0.25818643
0.039110772 -0.045795254 0.04929809 0.10061021 -0.018081935 0.0037279844 -0.037931807 -0.09447738
0.084798194 0.051914047 0.06926155 0.05726058 -0.32092452 -0.23527627 0.04238545 -0.08021529
0.12923822 -0.34595412 0.008167665 -0.03324843 0.051626116 0.01813771 0.10509284 -0.017762687
0.1265284 -0.08165369 -0.18982512 0.021261664 0.18746787 0.010477962 0.042382788 0.006358095
0.09073598 -0.15503095 -0.13287735 0.11350135 -0.053457204 -0.09845122 0.020009862 -0.07220548
-0.06219992 -0.061271198 0.03804576 -0.19421747 0.11776976 -0.08122557 -0.013514337 0.14201388
0.16628158 -0.08370233 0.029421117 0.063325904 -0.010295966 0.107189424 0.06394436 -0.05799579
-0.1227443 -0.077326 0.028084429 0.097619906 -0.30379215 -0.083932586 -0.024775848 -0.061426006
0.040751804 0.06849709 0.01052993 0.09578783 0.012189566 0.009929188 -0.05396861 0.06420001
0.09092404 -0.06659128 0.032538928 -0.24690185 -0.10854265 -0.06965212 0.049070936 0.012125871
-0.45463675 -0.13605104 0.070270926 0.052199617 -0.07523531 -0.114317305 -0.06160745 0.09881566
0.09084215 -0.32637832 -0.23649201 -0.03982054 -0.004487556 0.13401677 -0.03197279 0.01782557
-0.077474676 0.10464541 -0.2212299 -0.021666875 0.039817348 0.032373384 -0.0231018 0.07203589
-0.019122606 -0.4191929 0.07284978 0.15474625 -0.045728147 -0.018928535 0.009753332 -0.07695909
0.07398362 0.09365573 -0.03769523 -0.2007761 -0.065526046 0.093113326 0.11579318 -0.052617792
0.08070652 0.062533006 0.24969058 -0.13821502 -0.17897464 -0.04958739 0.16281646 -0.058882713
-0.34480208 -0.017030358 -0.037156403 -0.12240026 0.0006662154 -0.004804163 -0.045238446 -0.19048074
-0.122262485 0.021791555 -0.0056698145 -0.016497035 0.089051634 0.019195173 -0.018294202 0.0011741662
-0.05931665 -0.05801226 -0.03487474 0.0057566105 0.050552364 -0.04963584 0.061824255 -0.06757083

actor_layers.4.bias f4 [128]
00000000: 4e0b 20bf 4627 8bbf f4fd 5abf a133 19be
00000010: 539f a0bf 63f7 4abf c693 83bf 67e4 b9bf
00000020: 51ce a3bf 978e b0bf 198f b33e 5601 57bf
00000030: 0ddf c7be 382a 73bf 88eb 19bf a520 14bf
00000040: 441a 91be 3041 71bf 6c94 9cbf 9a28 a2be
00000050: f0df 83bf 9326 20bf 3913 65be a70b 81be
00000060: b70e f83d dfdf fcbe eaaa 12bc 3e13 debf
00000070: 4654 4cbf e6da 58bf 5227 82bf 1adc 2dbf
00000080: 2b00 b2be 33b4 06bf 5e53 24bf 029a 02bf
00000090: 3d84 c4be 71b8 f1be bbfa 8abd beb6 41bf
000000a0: 04d2 b7bf c5cb 56bd b82f 68be 0f0d 44bf
000000b0: 277c 80bd b18f bdbf cf6e 4f3e 1140 a5bf
000000c0: ffc6 e5bd d2b9 27bf 1a8d 3dbf 10aa 92bf
000000d0: ca0d a73f 85e6 1bbf 23dd 58bf d074 e0bf
000000e0: 4143 cbbd cd97 6e3f ba25 2dbf fe78 68bf
000000f0: 3038 50bf a2cc 2bbf 5add a7bf 65a5 61bf
00000100: 37be 15be 6e81 fcbd 1d05 29bf 835f b3bb
00000110: 5b7f f83e 7129 aabf 245e 3fbe 5878 a4be
00000120: 5535 86bf 88b9 97bf 0ac7 86be e2d8 b5be
00000130: 904d 59be aa74 73bf 5f8f 9bbf 5bf3 66be
00000140: 13fc 9cbf 02d8 7ebf f6c1 7abf 277c a2bf
00000150: fb4f 8dbd dc4b c13c 0d60 cabe a0ce afbe
00000160: 999b 9cbf 987e 54bf eec6 1bbf a1f9 16bf
00000170: e7b7 8fbf 445b 0cbf e65b cebf 5b62 1dbf
00000180: 2a46 ffbe 95db 66bf 576e 3bbf 8956 50bb
00000190: d8e3 bdbe e28d 26bf b672 76bf fb19 0e3f
000001a0: 52f2 61bf 121f e4be 6438 543e bc49 60bf
000001b0: 1083 30bf 5254 2cbf 716b 73be dc47 07bf
000001c0: acce d4be 5df8 d4bf 1a36 083f f199 57bf
000001d0: b0c4 42bf 6f33 23be 51c2 11be 27af d7be
000001e0: 4a36 d4be 7213 e9bf 620d aebf 6cb0 0ebf
000001f0: 452a 15bf 7ab6 38bf 8611 93bf f26e 4fbf
-0.6251725 -1.087136 -0.8554375 -0.14961101 -1.2548622 -0.7928373 -1.0279472 -1.4522828
-1.2797338 -1.3793515 0.35070112 -0.83986413 -0.39037362 -0.94986296 -0.6012502 -0.5786231
-0.28340352 -0.94240093 -1.2232795 -0.31671602 -1.0302715 -0.6255886 -0.22370614 -0.25204203
0.12112182 -0.4938955 -0.008951882 -1.7349622 -0.7981609 -0.8470901 -1.016825 -0.67913973
-0.34765753 -0.5261871 -0.6418971 -0.5101625 -0.3838214 -0.4721103 -0.06786104 -0.7566947
-1.4360967 -0.052440424 -0.22674453 -0.76582426 -0.0627368 -1.4809476 0.20257114 -1.2910177
-0.11219596 -0.65517914 -0.7404343 -1.1458149 1.3051083 -0.6089862 -0.8471243 -1.7535648
-0.09924937 0.9320038 -0.6763569 -0.9080962 -0.81335735 -0.6710912 -1.3114426 -0.88143
-0.14623342 -0.12329374 -0.6602343 -0.0054740324 0.48534665 -1.3293897 -0.18688256 -0.32123065
-1.0485026 -1.1853495 -0.2632373 -0.3551703 -0.21220994 -0.9509989 -1.2153128 -0.2255377
-1.2264427 -0.9954835 -0.9795221 -1.2694138 -0.06900021 0.023595743 -0.39526406 -0.3433733
-1.2234985 -0.83005667 -0.6085042 -0.58974653 -1.1227998 -0.5482676 -1.6121795 -0.61478204
-0.49858218 -0.90178806 -0.7321524 -0.003178986 -0.37087893 -0.65060246 -0.96268785 0.55508393
-0.88260376 -0.44554955 0.20724636 -0.8761251 -0.68949986 -0.6731616 -0.23771454 -0.52844024
-0.41563928 -1.6638294 0.5320755 -0.8421927 -0.7608137 -0.15937589 -0.14234282 -0.42125818
-0.4144767 -1.8209059 -1.3597834 -0.5573795 -0.58267623 -0.7215344 -1.1489723 -0.81028664

actor_mean.weight f4 [1, 128]
00000000: 89e0 01bd 2454 473d c37d ee3c 094c 0dba
00000010: b336 f23c f6bb a43c e70d 9a3d f212 da3a
00000020: 8cda a5bb 63ee b33d e94f acbc 3cb3 8ebc
00000030: d850 69bc fd19 663d ed6a 8ebd 0729 3d3d
00000040: 0241 a7bc 07ef 02bd 6ccb dcbc d4e8 0cbd
00000050: 65e0 3c3c 675f 0e3d 3018 b7bc 77f2 433d
00000060: cb57 e2bc 68b2 4bbd 2275 b9ba ab05 af3d
00000070: 8c3b 2ebd 6f04 98bd 1175 2abe f07e 14bd
00000080: 8c41 713d 4f6e c43c 0a71 293d e913 933d
00000090: 7063 c1bd 50c9 7239 2a40 c5bc f478 bfbb
000000a0: d301 87bd 84c7 033c 8333 803c 08cf 173d
000000b0: d7e9 01bc e081 9bbd 80d7 003d c528 adbc
000000c0: 9025 36bd 9803 32bc d768 283d e0ac 88bc
000000d0: 53cf 393d fdba dfbd 62ac d13d 0a68 3ebd
000000e0: c617 a93c 88f4 873c 1608 b23d fa2e 37bd
000000f0: 83ed a23d 46da 213b 4c16 e53b 43b7 04bd
00000100: 7ee1 473d 1cfa 92bc d1c8 12bd c120 ee39
00000110: 8d22 713c aa92 0d3e 585c 87ba a48b 02bd
00000120: 6ad4 42bc 3770 04be f707 77bd c7cc a9bc
00000130: b5bf 5abd 6aa9 00be c9ef 33bd 4c3b d83d
00000140: 1ff9 bc3c a1c9 5ebd 9a34 34bd 3277 bfbc
00000150: 6107 adbb da03 573c efb4 f43b c239 febc
00000160: e07a 1bbd eef4 193c 5ad6 083e 76ea c13d
00000170: b3a3 683d 013b be3c 3da6 803d 66b0 25bd
00000180: be4e 06be 457f 77bd 1af4 66bd 06dd 323b
00000190: 096b 493d 1b3a 993c a6fc dd3c 12f4 fd3c
000001a0: 9594 25bd 7046 c23c 947f 113d 9772 8cbb
000001b0: 441d 4e3c 8081 81bb 8b0b 84bd 7d24 5fbd
000001c0: c9fc ccbc c61c 66bd 5efb 5d3d 97b2 10bd
000001d0: 0fbd eebc b502 933c a126 4c3d 4269 31bd
000001e0: 548b 863b 2861 8c3c 9a36 93bd 50c9 e8bd
000001f0: 2e80 09bc 2bc3 29be 2092 12bd 5f93 1a3c
-0.031708274 0.048664227 0.029112702 -0.0005390053 0.029567098 0.020109158 0.07522183 0.0016637726
-0.005061453 0.08785703 -0.021034198 -0.01741945 -0.014240466 0.056177128 -0.06953988 0.046181705
-0.02041674 -0.031966235 -0.026952468 -0.03440173 0.011528109 0.03475895 -0.0223504 0.047838654
-0.027629754 -0.04973069 -0.0014149288 0.08546003 -0.042537257 -0.07422721 -0.1664622 -0.03625387
0.0589004 0.02397838 0.041367568 0.07181532 -0.09442794 0.00023153913 -0.024078447 -0.005843276
-0.06592145 0.008043174 0.015649563 0.037062675 -0.007929287 -0.07593131 0.031455517 -0.021137604
-0.044469416 -0.010865115 0.041115608 -0.016683996 0.045363735 -0.10924337 0.102379575 -0.046485938
0.020641219 0.016596094 0.086929485 -0.044722535 0.07955458 0.0024696751 0.0069911834 -0.032401334
0.04879903 -0.017941527 -0.035836045 0.000454193 0.01471771 0.13825479 -0.0010327203 -0.031871453
-0.011891464 -0.12933432 -0.06031033 -0.020727528 -0.053405482 -0.12564626 -0.04392985 0.10558185
0.023068009 -0.054391507 -0.043995477 -0.023372266 -0.0052804206 0.013123477 0.007467858 -0.0310334
-0.03795898 0.009396775 0.13363019 0.09468548 0.05679674 0.023221495 0.062817074 -0.04045143
-0.13115975 -0.060424108 -0.056385137 0.0027292385 0.049174342 0.018704465 0.027098011 0.03100017
-0.040424902 0.023715228 0.03552206 -0.004286121 0.01258022 -0.003952205 -0.06447514 -0.054478157
-0.025022881 -0.056179784 0.0541948 -0.035326567 -0.029142885 0.017945627 0.049841527 -0.043313272
0.0041059647 0.017136171 -0.07188149 -0.11366522 -0.008392377 -0.16578357 -0.035783887 0.00943455
