attempts/bc_ppo_best.pth (torch, 433038 bytes, 16 tensors)

trunk.0.weight f4 [128, 55]
000000 23 9e ed bc 35 44 c9 3e 30 25 4e be 37 e3 b7 3c
       -0.02900607 0.3930985 -0.20131373 0.022447212
000010 8a 23 32 be b6 27 50 bd 18 8a cd bb 74 a2 02 3e
       -0.1739637 -0.05081912 -0.0062725656 0.12757283
000020 2d e5 a9 3c 9b de 9c bd 72 f0 6c 3c 8a dc de bc
       0.020739162 -0.07659646 0.0144616235 -0.02720477
000030 e6 e9 71 3d b3 6e 14 3e 20 fc f4 3d 74 e2 dc 3d
       0.059060954 0.14495353 0.119621515 0.1078538
000040 88 ef bd 3d c9 5b 90 bd ba 02 84 3d 83 86 56 3d
       0.092742026 -0.07048757 0.064458326 0.052374374
000050 4f 52 d7 3d 19 93 8e 3d ea 2f 88 3d e2 ee 50 bd
       0.10513746 0.069616504 0.06649764 -0.051009066
000060 6c 6a 9f 3d 7c 0e 38 3e f4 5b 34 3d 17 d4 e5 bd
       0.0778397 0.17974275 0.044033006 -0.112220936
000070 f1 bf d0 3a 91 72 18 bd 21 b7 cf bd a1 6f fd 3d
       0.0015926344 -0.037218634 -0.10142351 0.12374807
000080 91 9a 6f 3b 23 d8 a9 bd 72 3e 5d 3d a1 0f 3a 3e
       0.0036560635 -0.08293178 0.05401463 0.18170024
000090 6a e9 0d 3e cb 8f 51 3e 38 91 6c 3e 2c 7e 86 3d
       0.13858572 0.20465009 0.23102272 0.06567034
0000a0 cb 0e 74 3e c3 59 5f 3d e3 e7 2e 3e 83 71 66 3e
       0.23833768 0.054528963 0.17080645 0.22504239
0000b0 96 40 59 3e 12 90 26 3e 95 af d0 3d 07 1d 33 3d
       0.21216044 0.16265896 0.101897396 0.043728855
0000c0 0f cd 85 3e ae 8c a1 3d 79 63 09 3d a1 cd b4 3c
       0.2613301 0.07888161 0.03354213 0.022070708
0000d0 83 ab 1d 3e f1 92 6d 3d 83 e4 69 3d 3a 91 84 3e
       0.15397458 0.058001462 0.05710269 0.2589205
0000e0 8c 00 19 3e c1 e8 5a 3e c4 ea ec 39 12 45 16 bd
       0.14941615 0.21377851 0.00045188342 -0.036686964
0000f0 c5 97 8f bd ae 0e d8 bd 14 0a f3 bd 16 05 80 be
       -0.070113696 -0.10549675 -0.118671566 -0.2500388
000100 06 db c4 bd a8 c1 d3 bd 11 92 e0 3c b0 2e a1 bc
       -0.09612088 -0.103396714 0.0274134 -0.019675583
000110 38 4a 5f be 24 56 6d be 79 b2 1c 3d d2 57 33 be
       -0.21805656 -0.23177391 0.038256142 -0.1751397
000120 53 12 db 3b a2 e1 99 3d 0a db 1f be b9 6f 8f 3d
       0.006685534 0.07513739 -0.156109 0.07003731
000130 0d 21 81 bd 03 be e6 bb d8 3d 1c 3e fb b1 19 3e
       -0.06305132 -0.007041694 0.15257967 0.150093
000140 ab 0b 79 bc 46 d3 24 3e 60 8d ea bb e5 ca 95 3d
       -0.015200536 0.1609622 -0.0071579665 0.0731409
000150 3d 60 04 3e 8b 70 1b 3e 38 ba 21 3d c7 f5 90 bd
       0.12927337 0.1517965 0.039484233 -0.07078128
000160 f3 5a 7f 3b 89 ac 15 3e d6 c8 94 bd a0 54 ab 3d
       0.0038964122 0.14616598 -0.07264869 0.0836575
000170 61 33 e0 bd 56 27 ed 3d 7d ae 27 bd fa 97 5c 3d
       -0.109473 0.11579768 -0.04093789 0.053855874
000180 bf 1b 85 3d 75 10 f4 3d 17 91 18 3e 88 b1 e2 3c
       0.06499433 0.119172014 0.14899097 0.027672544
000190 93 07 21 3e 1e e6 f4 3d b8 e2 2a ba a9 f9 ea 3d
       0.15725546 0.11957954 -0.0006518769 0.114734
0001a0 bb 50 43 bd b3 88 2f b9 7b 22 90 3d a3 cd 1f 3e
       -0.047684412 -0.00016740225 0.07037827 0.15605788
0001b0 54 ec c9 3d db c1 d3 bd d8 14 db 3e 05 b6 12 3e
       0.09859529 -0.10339709 0.4278934 0.14327247
0001c0 57 6b b7 bd ea 9b 33 be 69 6f de 3c 3d bf b9 3d
       -0.0895602 -0.17539945 0.027152734 0.09069679
0001d0 71 a4 64 3d 8b 46 67 be c0 00 93 bd f5 c8 59 bd
       0.055820886 -0.22585504 -0.071778774 -0.053170163
0001e0 30 4c 11 3d 9d 8f 07 3d ac f5 fc bd ae 2c 53 bd
       0.03547305 0.033095945 -0.12351546 -0.05155628
0001f0 3b ef ae 3d e6 3c d3 3c ae 3a 98 bd e5 dc 18 bc
       0.08541723 0.025785875 -0.07433067 -0.009330009
000200 5a 0f b2 3c 6f 43 6a 3d 2a 1f c9 3d 3c b7 99 bc
       0.021735836 0.057193216 0.09820397 -0.01876413
000210 11 8f c2 bd 14 b9 bc bd f8 3d b7 bd 6b 9f 83 bd
       -0.09499944 -0.09214988 -0.089473665 -0.06426891
000220 02 7c 3f be 4c 52 68 bc c6 ed 51 be 1a ed 4b be
       -0.18699649 -0.014179777 -0.2050086 -0.19914666
000230 41 3b 2e 3d cf 29 53 bd 37 53 30 be 5c c0 35 be
       0.042536978 -0.051553544 -0.17219244 -0.1774916
000240 d0 94 28 bd 8c e1 19 3e f6 88 34 bc c7 bb 8d bb
       -0.041157544 0.15027446 -0.011018982 -0.0043253633
000250 2f c5 1f 3e 3a 37 8f bc 00 f9 b7 3d a9 dc 04 3e
       0.15602563 -0.017482389 0.0898304 0.129748
000260 89 6f 5b 3e 32 35 29 3e 54 70 0f 3e b6 74 7a 3d
       0.21429266 0.16524199 0.14007694 0.06114646
000270 c0 cb 11 bd b6 bb c8 bd 5f 2b 1a be 8b 51 6a bd
       -0.0355947 -0.09801428 -0.15055607 -0.05720667
000280 ff 16 93 bd 3f c2 60 bd c5 d7 29 3d f3 db ce 3d
       -0.071821205 -0.054872748 0.04146554 0.10100546
000290 76 e0 7a bd 6a f5 68 bc 52 54 c4 3d 3e 14 0d 3e
       -0.06124922 -0.0142186675 0.09586395 0.13777253
0002a0 0e f9 fb bd 35 3f 3b 3e 23 1d bb 3d 52 bf ba bd
       -0.12303363 0.1828583 0.09136417 -0.09118523
0002b0 7c ff 6a 3b 35 a5 03 3e ce 66 69 bd 3d a1 d3 bd
       0.0035857847 0.1285599 -0.056982808 -0.10333488
0002c0 d3 d6 1d bd 69 42 3c 3d ff ca 94 bd 8a f6 19 be
       -0.03853495 0.04596177 -0.07265281 -0.15035453
0002d0 bf 98 3b be bc 43 a8 3c cc 80 3a be 91 df 9f 3c
       -0.18319987 0.02054011 -0.18213195 0.019515784
0002e0 26 19 c5 3d e5 2c 56 ba 1c 12 1c 3c 82 b7 a4 bd
       0.09623937 -0.0008170142 0.009525802 -0.08042814
0002f0 c2 00 cc bd ec 23 26 3d 87 b2 fe 3d f5 cc ad bd
       -0.09961082 0.0405616 0.12436395 -0.08486358
000300 11 a6 e7 3c 2a 31 fa 3d f4 0e 6b bc 47 45 e8 3d
       0.028277429 0.122164086 -0.014346827 0.113413386
000310 95 f5 d6 3c e1 26 9e 3d f9 29 50 3c c7 ec dc 3b
       0.02624015 0.07722259 0.01270532 0.0067420932
000320 4c 61 fc 3c 21 de 04 3e 19 24 74 3c ee 8f 99 3d
       0.030808114 0.1297536 0.0149011845 0.074981555
000330 15 1d b8 3d c0 e5 b3 bd 27 0e b9 3d 36 93 6d bd
       0.08989922 -0.08784056 0.090359025 -0.05800172
000340 4e fd 2d 3c fc 0f f9 bc 52 95 51 bd 75 19 36 bc
       0.010619475 -0.03040313 -0.051167794 -0.011114468
000350 15 1a 53 bc 2e 77 08 be 10 2d 79 be 03 41 cc bd
       -0.012884636 -0.13326713 -0.24333596 -0.099733375
000360 fa 1e f5 bd 8a 16 d4 be 89 4e a4 be 12 e5 c2 bd
       -0.11968799 -0.41423446 -0.32091168 -0.09516348
000370 72 18 d6 be 0f 6b 59 3e 3d 0d c0 bd e2 9e cc 3b
       -0.41815525 0.21232246 -0.09377525 0.0062445262
000380 f6 a1 22 3d e0 dd 82 3d 45 13 90 bd 86 9d d1 3c
       0.03970524 0.063899755 -0.07034925 0.025587808
000390 38 ac 94 bd 52 8e 94 bd 57 7c 8c 3d 43 4f 1c be
       -0.072594106 -0.07253708 0.068596534 -0.15264611
0003a0 15 52 1e 3d 68 6a 1d bd c8 34 01 be bb 88 fd bd
       0.0386525 -0.038431555 -0.1261779 -0.12379595
0003b0 3e d8 b2 3c c8 5b 06 be de d3 b2 3c 44 4a cd 3d
       0.021831628 -0.1312095 0.021829542 0.10023931
0003c0 8b e3 c1 3d 23 e6 c3 3c 25 d6 71 3d eb ec b8 3c
       0.094672285 0.023913449 0.059042115 0.022573909
0003d0 fb 4c 5a be 37 f9 0b be 84 68 4e 3d e7 6b 0d be
       -0.21318428 -0.13669287 0.050392643 -0.13810693
0003e0 af b0 42 bd 41 40 e4 bb e5 1e b7 bd 18 ba eb 3c
       -0.04753178 -0.0069656675 -0.089414395 0.02877526
0003f0 ea 8d 21 be e4 bf 8c 3d 8c 82 b6 bd 9f 0d 30 3d
       -0.15776792 0.06872538 -0.089116186 0.04298174

trunk.0.bias f4 [128]
000000 18 65 86 be 95 37 db bd 18 b1 d5 bd 95 81 a6 bb
       -0.26249003 -0.10703961 -0.104341686 -0.0050813654
000010 f8 19 6e be cb b0 96 bd 20 40 3c 3e 69 89 91 bf
       -0.23252094 -0.07357939 0.18383837 -1.1370059
000020 50 bb 94 3c ad 75 2c be 19 d3 80 bd 5c c7 84 be
       0.018155724 -0.16841765 -0.06290264 -0.2593335
000030 a9 e9 27 be f6 ea dc be 0b 63 b0 3d 51 72 48 bf
       -0.16397728 -0.4314801 0.08612641 -0.78299433
000040 0d 0a c6 be c2 9d fc 3d cc 1d d3 be 1e d6 d1 3d
       -0.38679543 0.123347774 -0.4123367 0.10245918
000050 e3 41 31 3e 3c f7 f1 bd 0a 2d 40 be ed 5f 56 bf
       0.1731029 -0.11814734 -0.18767181 -0.8374012
000060 84 00 f4 bc 01 27 1b bc 04 55 52 bd 6b 77 f5 3c
       -0.029785402 -0.0094697485 -0.05135061 0.02996417
000070 07 ba b2 bc d1 62 96 3e af 71 9c be f7 12 ca 3e
       -0.02181722 0.29372266 -0.30555484 0.39467594
000080 ff 52 f0 3e 72 b8 14 3e 93 83 e2 be f6 ac 41 3e
       0.4693832 0.14523485 -0.44241008 0.18913636
000090 ef 4e 70 bf e5 ad ba 3d 92 08 2d 3e 80 b0 3b be
       -0.93870443 0.09115199 0.168978 -0.18329048
0000a0 fc e0 09 3e 27 c0 48 be 7a d8 c7 3d cf 88 c6 bd
       0.13464731 -0.1960455 0.097580865 -0.09694063
0000b0 6a 12 76 3e 06 48 30 be 8b ed 8b be a5 4b 7f 3e
       0.24030462 -0.17214975 -0.27329668 0.249312
0000c0 aa dd 8b 3e 15 4d b2 3d 4b 76 40 bd a6 ce 39 be
       0.27317554 0.087061085 -0.046987813 -0.18145236
0000d0 b4 5c 1b bf d7 48 16 be 63 e5 39 3e c2 c3 47 3e
       -0.6068833 -0.14676224 0.1815391 0.1950827
0000e0 70 c1 be be b9 7b 7e 3c 7f 3e 89 3e 80 67 08 be
       -0.37256956 0.0155324275 0.26805493 -0.13320732
0000f0 0e 3d 48 3d 01 be ce 3c 4e 3f 0a be ce af b9 3d
       0.04888635 0.025237085 -0.13500711 0.09066735
000100 48 6a 14 3c 00 73 1c 3d 3f 0d 95 be f7 37 8f 3e
       0.009058543 0.03819561 -0.29111668 0.27972385
000110 93 1f f1 bd 8e ea 33 bf 5e f1 ce be c4 45 35 be
       -0.117736004 -0.7027978 -0.40418524 -0.17702395
000120 94 67 6c be f5 9d 62 3e 14 a9 04 3e 4d 1e c8 be
       -0.23086387 0.22130568 0.12955123 -0.39085618
000130 56 b5 d0 be 1e 38 09 3e e8 bf d1 3e 9d 30 b6 bd
       -0.40763348 0.13400313 0.40966725 -0.08895991
000140 c1 b5 b3 be 04 91 bc be a4 54 14 bf 6a 18 32 3e
       -0.35099605 -0.36829388 -0.5794165 0.17392126
000150 88 e8 3e 3e 4c 80 18 be e8 bd cc bc 60 ad 61 be
       0.18643391 -0.14892691 -0.024992898 -0.22038794
000160 1b c8 94 be c0 74 79 be 2d ef 2f bf 06 5e 47 bd
       -0.29058918 -0.24360943 -0.6872433 -0.048673652
000170 36 42 8f bc a8 57 30 be aa 0e de 3d d1 a0 a4 3e
       -0.017487627 -0.17220938 0.10842641 0.32153943
000180 90 1d bf be 9d 8a 56 be ba 25 8e bd 09 80 82 3e
       -0.37327242 -0.20951314 -0.069407895 0.25488308
000190 9e 78 9b bc b7 17 4f 3e a5 72 0f bd 6d b9 3c 3e
       -0.018978413 0.2022389 -0.035021443 0.1843011
0001a0 97 82 a6 bc 07 30 4c 3d c8 c5 f7 bc a3 b0 27 bf
       -0.020325942 0.04985049 -0.030245677 -0.655039
0001b0 d4 3e 0a 3d 0a cb c7 3d 94 b5 72 be 40 45 28 be
       0.033751324 0.097555235 -0.23702079 -0.16432667
0001c0 9c 8c 11 3e e6 8a 9c 3e f2 54 57 3d 20 aa e5 be
       0.14213794 0.3057472 0.052571245 -0.44856358
0001d0 43 31 7d bf c1 69 25 be 3a 26 c2 3d 4c 14 b3 3e
       -0.9890329 -0.16153623 0.094799474 0.34976423
0001e0 ee 7f 0f bf 9b e5 ac 3d 4d 42 de bd 2f d9 d2 bd
       -0.5605458 0.08442231 -0.108524896 -0.10295331
0001f0 a7 49 6e 3e 95 14 52 be c6 90 bb 3e d5 96 b3 3e
       0.23270284 -0.20515664 0.3663389 0.35076013

actor_layers.0.weight f4 [128, 128]
000000 18 31 22 be 8f 41 21 bd 91 e7 3f bd 46 a3 d1 3b
       -0.1583904 -0.039369162 -0.0468517 0.0063976375
000010 2d d8 47 3d 0b cc 47 3d ce a8 e1 bd ff fc ad bd
       0.048790146 0.048778575 -0.11018525 -0.08495521
000020 3f 7c 1e 3b 2b c4 2d be ba b3 d2 3d 43 99 e0 bd
       0.0024182943 -0.16969363 0.10288186 -0.10966732
000030 9a 27 9a 3b 71 ca 1a bd 72 aa a6 3c 2c c3 f3 bc
       0.004704428 -0.03779072 0.020344947 -0.029756151
000040 4f 73 ab bd 21 83 29 bc 7b 6a 12 bd 9e 9a 88 bd
       -0.08371603 -0.010346205 -0.03574608 -0.06670116
000050 92 31 ad bd 77 f8 6d 3d ab 55 22 be ef 09 30 3d
       -0.084567204 0.058098283 -0.15852992 0.042978223
000060 6f e6 61 3d 24 93 05 be 7e f5 e0 bc 6d 6a 4d be
       0.0551514 -0.13044411 -0.02746081 -0.2006013
000070 bf f6 05 3d 7a ef 65 bc 61 32 39 3b a1 21 08 be
       0.03270602 -0.014034146 0.0028258788 -0.13294078
000080 0c e6 49 3c e2 d0 c8 bd b4 34 c4 bd 64 5c 1b 3e
       0.012322914 -0.09805466 -0.09580365 0.15171963
000090 16 63 5c bc a7 86 21 3e ca c3 8f bb 1a 35 16 3d
       -0.013451358 0.15774022 -0.0043873535 0.036671735
0000a0 9a 29 53 bd bd e7 61 3b 00 5b 9e bd b0 cb 53 3d
       -0.051553346 0.0034470402 -0.077322006 0.051707923
0000b0 7d aa df 3d 4c a9 00 be 54 05 8b bd f7 c5 98 bd
       0.1092119 -0.12564582 -0.06788126 -0.07459634
0000c0 b4 01 71 be 9e 5f 85 3d 35 9d 59 bd ed 79 63 3d
       -0.23535806 0.06512378 -0.05312844 0.0555362
0000d0 a2 c3 07 3b 25 37 8f bc 50 20 51 bd fc ed ae bd
       0.0020715971 -0.01748235 -0.051056206 -0.08541486
0000e0 5b 13 11 3d 4b a9 04 bb ee 5f 8f bb bc 33 ad be
       0.03541885 -0.0020242508 -0.0043754494 -0.33828533
0000f0 79 65 52 3d 3f 9f 9f 3a 17 38 b2 bc c0 a3 09 3d
       0.051366303 0.0012178196 -0.021755261 0.03360343
000100 df ce cb 3c a6 db 1c 3c 0e cf 82 bd 96 e5 19 3c
       0.024878917 0.009573853 -0.06387149 0.009393116
000110 27 9e 86 bd 18 c3 d9 b9 91 71 cc bd 28 24 ff bc
       -0.06573134 -0.00041534822 -0.099825986 -0.03114517
000120 67 f1 28 bd 3f 19 90 3d 87 19 38 3e 26 57 03 3d
       -0.041245844 0.07036065 0.17978488 0.032065533
000130 32 d3 fc bd 89 ee c2 bd c4 ac d6 3c 1d 66 12 3d
       -0.1234497 -0.09518153 0.026205428 0.035741914
000140 67 39 35 be 53 61 ca be 3d 4e 68 bc 43 0f e4 bb
       -0.17697679 -0.39527377 -0.01417881 -0.006959827
000150 54 c2 8e 3d 75 3f 64 3d bc 04 b8 bb 17 4e 45 be
       0.06970659 0.05572458 -0.0056157988 -0.1926807
000160 fa 6f 89 bc 30 2e 01 3c 27 03 1c bd 22 08 d9 bd
       -0.016777027 0.007884547 -0.038088944 -0.10597254
000170 81 aa 90 bc 54 f4 86 bd e3 a8 10 be f5 e6 59 3d
       -0.017659428 -0.06589571 -0.14126925 0.053198773
000180 7f 96 9b be 1e 18 d9 bd 5e 57 ab 3c fe 0a 42 bd
       -0.30388257 -0.10600303 0.020915683 -0.047373764
000190 f4 7f 6f 3d e3 1d 56 3d 02 1a a3 bc cf 96 c8 bd
       0.058471635 0.052274596 -0.019909862 -0.097943895
0001a0 25 4d 3d bd a3 9f 26 be 03 85 c6 3d 18 cb 6f bc
       -0.04621615 -0.16271834 0.09693339 -0.014635824
0001b0 67 62 cd 3d 3e 55 91 3d be 21 d3 bd be fe 0c be
       0.100285344 0.07096337 -0.1030917 -0.13769051
0001c0 ad c8 4d 3d f5 13 8e bc a2 82 a9 3d df 23 0f bd
       0.050240207 -0.0173435 0.08276869 -0.03494632
0001d0 e5 85 52 bd eb a2 3d bd a8 21 54 3c e4 18 61 3d
       -0.051397223 -0.04629795 0.012947477 0.05495538
0001e0 3e 50 dc bd ad 21 0c 3d e8 89 15 3e 46 61 47 be
       -0.107574925 0.034211803 0.14603388 -0.194707
0001f0 86 fa 0f bd d0 86 ba bb b8 31 6e 3d 36 d9 88 3c
       -0.035151027 -0.0056923404 0.058152884 0.016705137
000200 93 ec f9 3c bb ef 2a 3d 93 57 e8 3c 23 2c 07 3d
       0.030508315 0.04173253 0.028362071 0.033001076
000210 87 92 9a 3d 1e 5a df bb 58 ff b0 bc da 41 81 bd
       0.07547479 -0.0068161627 -0.021606132 -0.06311388
000220 0a f7 e3 bb 5b d3 7b 3d c3 17 90 3d 3d 0f fd bb
       -0.0069569396 0.06148086 0.07035782 -0.007722764
000230 83 2b 8d 3d 95 6c 5a bb ba 11 0b be 6c 4c a0 bd
       0.06893065 -0.003332888 -0.13580981 -0.07827076
000240 21 83 5b bd 4f 2e 48 3b a9 81 84 3d 4b 59 ce 3c
       -0.05359185 0.003054518 0.06470043 0.025189063
000250 fa 09 51 bc 53 d0 3f 3d 6a d0 87 3b 91 78 66 bd
       -0.012758726 0.046829533 0.004144718 -0.056267325
000260 52 73 67 3d f6 34 aa bd d3 79 63 3d c4 9b 52 3d
       0.056506462 -0.08310883 0.055536103 0.05141808
000270 7b 5e 6f 3d 04 d4 91 3d f2 b5 0b bd f8 e9 d5 bc
       0.058439713 0.07120517 -0.034109063 -0.026112542
000280 20 46 cf 3d 55 89 46 bd 77 cf 97 3c ad 36 b3 3d
       0.10120797 -0.048470814 0.018531544 0.08750663
000290 f7 62 8f bb 84 4c 4b 3d 64 b4 40 3d 81 7b 65 bd
       -0.004375811 0.049633518 0.047047034 -0.056025986
0002a0 de 73 72 3d 05 6d d0 3d 93 32 e7 3d 7d db 6a 3d
       0.05919253 0.10177044 0.11288943 0.057338227
0002b0 44 d8 85 3d b5 3a 34 3d 77 d1 82 bc 82 f0 ce bb
       0.0653539 0.0440013 -0.015969021 -0.006315292
0002c0 d2 0b 3f 3b b7 89 87 3c b4 fb 25 3d 7b 9f db bc
       0.0029151333 0.01654516 0.040523246 -0.026809445
0002d0 e7 7a d0 3c 9e 55 32 3c 64 c6 17 3d ef 4a 10 3c
       0.02544923 0.010884671 0.037054434 0.008806928
0002e0 45 27 6f 3c d8 36 f5 3c 1d 80 08 3d 76 f7 74 bc
       0.014596765 0.029933378 0.033325303 -0.014951577
0002f0 38 cb 12 bd e5 d9 48 3d 70 20 26 3c dc 56 c2 3c
       -0.035838336 0.049035925 0.01013957 0.023723058
000300 f4 d5 fa 3d 4a c8 12 be 9e 2f b7 bc 2d c8 a5 bc
       0.122478396 -0.14334217 -0.022361573 -0.020237053
000310 0e 4c 09 3d 1a 8b 8d bb a2 d6 65 3d 15 eb 1a 3d
       0.033519797 -0.0043195607 0.056112893 0.037821848
000320 78 5b 97 3c 64 16 06 3e 51 68 1f 3d 69 77 b6 bd
       0.018476233 0.13094479 0.038917843 -0.089094944
000330 9b 2c ad 3c da 4f 96 3d 6d 98 84 bd de 9b ab 3d
       0.021139434 0.07339449 -0.064743854 0.08379339
000340 c2 93 2a bd 87 34 e9 bb 57 73 8e 3d 5c 8d 18 bd
       -0.04164482 -0.0071168575 0.06955593 -0.037244186
000350 0d 89 80 3c a1 57 5b 3d 6d df 91 bc 27 8b c4 3d
       0.01569035 0.053550366 -0.017806733 0.09596854
000360 af a1 40 3c 61 5b 62 3d 76 65 13 3d ae dc c3 bd
       0.011757298 0.055262927 0.035985433 -0.09563576
000370 07 ed 54 3d c2 3c 5d 3c dc 61 66 bd 7e 66 18 bd
       0.05198386 0.013503255 -0.05624567 -0.03720712
000380 bd c7 29 3d 99 f7 62 3c 54 e0 b4 bb 62 be 5d 3d
       0.04145025 0.013852977 -0.005519906 0.05413664
000390 87 02 7a 3d e3 05 7c 3d 9e 4a 40 3d 44 f0 dc 3d
       0.061037567 0.06152905 0.04694616 0.107880145
0003a0 3f aa 56 3d 94 7b 21 bd 11 c5 02 3e 13 fa a6 3b
       0.052408453 -0.039424494 0.12770487 0.005095729
0003b0 7d 14 dc 3d 65 45 84 3d 65 c4 23 bc 4e d7 5f 3d
       0.10746095 0.064585485 -0.009995555 0.05464869
0003c0 f6 e9 d1 3d 1d 4d 2d 3d 46 75 98 3a 8a 79 a8 3d
       0.10249703 0.04230987 0.001163163 0.08226307
0003d0 44 5f b1 bd e5 b6 e7 3d e5 cf 10 3d 27 31 b4 3c
       -0.086607486 0.11314181 0.035354514 0.021996094
0003e0 37 1e 06 bd 69 52 23 3d 12 68 c5 3d 2a 8b 06 be
       -0.03274366 0.039873514 0.096389905 -0.13139024
0003f0 b9 59 af 3b 0a 0a f3 bc ec e1 97 bc 89 d7 ad 3d
       0.005351272 -0.029667873 -0.018540345 0.08488376

actor_layers.0.bias f4 [128]
000000 bf b1 1b 3e 38 32 db bd de 3f 55 bd 68 7c e7 3c
       0.15204524 -0.10702938 -0.05206286 0.028257564
000010 66 5e ba 3d 7f 27 0d 3e 7b 9c 44 be 5e a9 c3 bc
       0.09100036 0.13784598 -0.19200318 -0.023884472
000020 35 6d e8 3d ee e5 4a 3d dd 7e 60 be 7a 4d 8f bd
       0.113489546 0.049535684 -0.21923395 -0.06997199
000030 5f 2e 7d 3e e7 b0 ae 3d 9f f0 12 3d ac 48 e8 3d
       0.2472472 0.08529835 0.035874005 0.11341986
000040 21 3e 2b be f0 d3 8e be b7 6c aa bd 8d 70 21 3e
       -0.16722919 -0.2789607 -0.08321517 0.15765591
000050 5b e9 b6 3e b4 23 4f bd ab f7 f2 bc c4 e1 8f 3e
       0.3572491 -0.05057116 -0.029659113 0.28101933
000060 14 99 40 3e a3 98 10 be 41 da 20 be 1f 13 7f bd
       0.18808395 -0.14120726 -0.15708257 -0.062274095
000070 a4 b4 19 be ec fb 6b 3d 89 75 23 3e 8a 0f dd bd
       -0.15010315 0.0576133 0.15962805 -0.107939795
000080 29 8d e5 3b fe 11 8c bd 3a de 6a bc 59 94 01 3e
       0.007005353 -0.06839369 -0.0143352095 0.12654246
000090 51 a0 d1 bd 35 6b e7 3d 3e 2f d5 bd e5 af c3 be
       -0.10235656 0.11299745 -0.10409401 -0.38220134
0000a0 14 65 77 3e 96 1c a7 bd 71 4a c8 be 52 70 c5 bd
       0.24159652 -0.08159749 -0.39119294 -0.09640564
0000b0 a6 cd f7 3d 10 ba 26 3e 3e 81 9c bd 4e 11 07 be
       0.12099771 0.16281915 -0.076418385 -0.13190195
0000c0 d3 e2 26 bd 5f 2e 04 be 5d b0 6c bf e7 c1 3a be
       -0.04074366 -0.12908314 -0.9245661 -0.1823803
0000d0 3f 54 e7 3d 1f 06 61 3e 1a 89 99 3d f5 1a 2b 3c
       0.112953655 0.21974991 0.07496853 0.010443439
0000e0 63 23 56 be 1e e5 85 bd 1a 51 88 bd 51 85 bb 3d
       -0.20911936 -0.06537841 -0.06656094 0.091562875
0000f0 c7 b4 9f bd 7c 0a dd 3d d6 7c be bd 70 4f 9c bd
       -0.077981524 0.10793015 -0.09301154 -0.07632339
000100 97 a6 8f be ba 12 95 bb a9 68 59 be e2 bc 2a 3d
       -0.28056785 -0.0045493515 -0.21231331 0.04168404
000110 32 9c 29 bc 0a 9c 15 bd 2c 89 b8 bc 31 25 b7 be
       -0.010352181 -0.036525764 -0.022526346 -0.35770562
000120 9b 2f 1a 3d 19 ef c8 3d 89 7e 04 be a6 5a ec 3d
       0.037643056 0.09811229 -0.12938894 0.11540727
000130 96 31 36 3e a3 9e 29 bc 60 1b a5 3d 37 61 89 be
       0.17792353 -0.010352763 0.08061862 -0.26831982
000140 a2 39 98 3d c6 44 c1 bd fb 39 85 3e 56 02 8d bd
       0.074328676 -0.094369456 0.26020798 -0.06885211
000150 5c 0c f5 bd 84 15 13 bd 0f 73 18 bf 2b a6 0d bd
       -0.11965248 -0.03590919 -0.59550565 -0.0345823
000160 9d 61 89 be 89 90 04 be e4 8e a5 3d 1e be af 3e
       -0.26832286 -0.12945761 0.08083895 0.34324735
000170 5b 39 67 bd c8 c1 28 3e 5f 7c b6 bc c4 27 01 3d
       -0.056451183 0.16480172 -0.022276102 0.031532064
000180 4a bb fd 3d 7e 8e b8 bd 12 63 3d 3d 60 5b 09 3e
       0.12389238 -0.09011553 0.04623706 0.13413763
000190 07 8b 58 be 20 83 b7 3d 0e 24 ec 3d 5b 61 12 be
       -0.21146785 0.08960557 0.115303144 -0.1429495
0001a0 19 ec 14 3d 42 6b 09 bd ea a1 80 bd 27 a9 a6 3d
       0.036357973 -0.033549555 -0.06280883 0.08137732
0001b0 46 7e 4c be 4c b3 c2 bd bb 32 86 3d 95 df 00 be
       -0.19970044 -0.095068544 0.06552645 -0.1258529
0001c0 39 9e 30 3e c5 81 45 3e 29 f6 7d 3d c2 22 1a be
       0.17247857 0.19287784 0.062002335 -0.15052322
0001d0 64 b1 d9 3c 53 ff 4c bc a9 36 ec bc 7c 83 67 3e
       0.026573844 -0.012512046 -0.028834658 0.22608751
0001e0 e3 95 de bd fd 22 7e bd 2d e1 7a 3e eb ed 61 3c
       -0.108684324 -0.062045086 0.2449996 0.013789634
0001f0 fe 04 65 be 23 c5 31 bc 33 98 3a bd 62 d9 c8 bc
       -0.22365186 -0.010850224 -0.045555305 -0.024517719

actor_layers.2.weight f4 [128, 128]
000000 4a 9f 01 bc a3 85 c7 3c 9f cc 55 bd 7d cc e5 bd
       -0.007911513 0.024355715 -0.052197095 -0.11220644
000010 9d 2a be bd 37 6e 90 bd 02 24 37 3e 95 5d a0 3d
       -0.092854716 -0.07052272 0.1788483 0.07830349
000020 c1 29 24 3d d8 8c 03 3e 39 15 92 3c ff a4 5d 3d
       0.040078882 0.12846696 0.017832385 0.05411243
000030 80 45 12 3e ac 05 14 be 24 40 8f 3d fe 89 f6 3c
       0.14284325 -0.14455289 0.06994656 0.030095097
000040 8b b9 28 3e 15 23 48 3d 2f 02 67 bd a7 3f b7 bd
       0.16477029 0.04886158 -0.056398567 -0.089476876
000050 69 49 22 bd 76 72 e7 bc ac f4 ad 3d db 15 0d 3d
       -0.03962079 -0.028252821 0.08493933 0.03444467
000060 05 16 a3 3b 26 a6 a2 bb 0b 94 cd 3d 9c c1 2f 3d
       0.00497699 -0.004963654 0.100380026 0.04290925
000070 a2 07 f0 bd 13 c2 b8 bc c3 80 cf bc 69 96 b2 3d
       -0.11720206 -0.02255348 -0.025329953 0.08720095
000080 7b 9e 33 3b ed 3d 2b bd 39 f9 f3 bc 11 b1 d6 3d
       0.0027407694 -0.041807104 -0.029781925 0.104829915
000090 bd 78 de 3b fe e4 71 3e 62 e2 38 3d db 8d 66 bc
       0.0067892955 0.2362251 0.04513777 -0.014071907
0000a0 3d 7d 80 bd bc e1 38 3d f0 f2 28 3d 69 52 73 3d
       -0.06273887 0.045137152 0.04124731 0.059404764
0000b0 6f 0e 9e bc 56 16 08 be 18 e4 54 3d 16 7e 0f 3d
       -0.019293992 -0.1328977 0.05197534 0.035032354
0000c0 df 50 7c 3d a1 96 a3 3b 9c d1 49 3d 71 bd 2f bd
       0.061600562 0.0049923216 0.049272165 -0.042905275
0000d0 c0 d7 ec 3d 23 91 49 3d a3 aa 26 3e f2 a8 4d bd
       0.115645885 0.04921068 0.1627603 -0.050209947
0000e0 9f 9c 6a 3d 0f de 3f bd b8 8a 47 3d 4e 62 3d bd
       0.05727827 -0.04684263 0.048716277 -0.04623633
0000f0 9b 15 58 3d 8f 5b 35 bd 69 b3 b2 3d b5 b8 dd bc
       0.05275498 -0.04427677 0.08725626 -0.027065614
000100 64 30 bc bc 99 d9 50 bd c3 8c 6d bd 9e 59 cb 3d
       -0.022972293 -0.050988767 -0.05799557 0.099292025
000110 04 54 01 3d 9b 6e 14 3c 84 4d 6a 3e f6 f0 e1 3c
       0.031574264 0.0090595735 0.22881132 0.02758072
000120 84 5a 91 bd e2 55 3a bb c7 f8 18 bd 1b fb df 3d
       -0.070973426 -0.0028432538 -0.037346628 0.109365664
000130 1e f2 9c 3d 04 12 f7 3d 45 1c c0 3d 0a 73 e1 3d
       0.07663368 0.12063983 0.09380392 0.1100827
000140 45 d9 69 3d 10 06 54 bd 02 d8 05 bd 93 0b 8f bc
       0.05709197 -0.051763594 -0.032676704 -0.017461574
000150 7e cb 35 3b 4b b9 e0 3b 40 81 ad 3c 0d 24 10 bd
       0.00277397 0.006858026 0.021179795 -0.03519063
000160 98 76 01 3d 79 10 3e bd c2 27 ec bd f1 fe 80 3e
       0.03160724 -0.04640243 -0.11531021 0.25194505
000170 85 88 21 3d ec a8 0b 3c 5e 0d eb 3c 9e fd bf 3b
       0.039436836 0.008524161 0.028692897 0.005859091
000180 fa 43 9f bc d5 7a 28 bd 19 61 cb 3b 48 ac 29 3a
       -0.019441593 -0.041132767 0.0062066433 0.000647251
000190 0a b3 6f 3d cc a8 98 3d bd c0 05 3a ba da f0 3b
       0.058520354 0.074540704 0.00051022676 0.007350293
0001a0 e3 49 2e 3e 2d 21 0a 3e c3 63 ac 3b b2 fc 89 3d
       0.17020373 0.13489218 0.005260916 0.06737651
0001b0 45 ac ad bc a3 75 d8 3c e1 bb 06 3c bb 70 8b bc
       -0.021200309 0.026423281 0.008223505 -0.017021528
0001c0 dd 2f 91 3c d9 cb 35 3d 58 96 30 3e 76 b9 b5 bc
       0.017723018 0.044383857 0.17244852 -0.022183161
0001d0 2e 8c 9f 3c 27 0e e7 3d ef 20 67 3d 78 1f 1f 3e
       0.019476023 0.11281996 0.056427892 0.15539348
0001e0 51 0a db bc 02 39 74 bd 28 15 24 bd b7 18 1f 3d
       -0.026738318 -0.05962468 -0.04005924 0.03884193
0001f0 46 e2 c3 3d d4 f0 0c 3e 3d 8e 8e bd e5 f4 3c 3d
       0.095646426 0.13763744 -0.069607235 0.046131987
000200 98 f2 af bb f3 78 4c bb b7 f7 29 bd 63 34 f0 bc
       -0.0053694956 -0.003120002 -0.041496005 -0.029321855
000210 f2 c5 8b bd f5 47 93 3c 0a 3c 67 bd 71 2d de 3c
       -0.068248644 0.017978648 -0.056453742 0.027121278
000220 4e 09 8a bc 94 dc 0c bd 56 d2 02 bb f9 97 fe 3c
       -0.01685014 -0.034390047 -0.0019961796 0.031078326
000230 e1 c3 a8 3c 7c 4e 8f 3d c1 82 5a bd de 40 c0 bd
       0.020601215 0.069973916 -0.053347353 -0.093873724
000240 1c 70 01 3d af b7 07 3d 10 e6 e1 3c ff d3 10 bc
       0.031601056 0.03313416 0.027575523 -0.008839606
000250 95 9a 4c bd 01 e9 97 bd b7 a4 9a 3d 4d 4c 99 bc
       -0.04995211 -0.07417489 0.07550948 -0.01871314
000260 74 86 58 bd c4 a3 a4 bb d0 bb b0 3b 6e 3b 64 bd
       -0.0528626 -0.005024405 0.0053934827 -0.05572074
000270 68 a5 05 3c 6f 2a 14 bb 7a fc 10 bd e0 79 f1 bc
       0.008157112 -0.00226083 -0.03539703 -0.02947706
000280 3a cc 96 bd 2b 0f c3 3c 2b ce 16 bc a6 b2 e6 bd
       -0.07363172 0.023810944 -0.009204428 -0.11264543
000290 b3 58 8e bc 7d 43 be 3c 0e 17 83 bd be 39 93 bd
       -0.01737628 0.02322554 -0.06400882 -0.07188748
0002a0 ae f6 1c 3d 9c 1c 9a bd 48 99 94 bb 9c f1 de bd
       0.03832119 -0.07524988 -0.004534874 -0.10885927
0002b0 0b 70 1a 3d 29 a7 b6 bd 49 3d 3c 3d 8d 2b 57 bd
       0.03770451 -0.08918602 0.045956884 -0.052531768
0002c0 9a f6 d6 3c 62 e8 b7 bd 6b 5e 75 bd 27 e2 2f bc
       0.026240636 -0.089798704 -0.059904497 -0.010735071
0002d0 05 c5 78 bd 1d 95 17 bd 50 70 9f bd 0e bd 09 bd
       -0.060734767 -0.03700744 -0.07785094 -0.033627562
0002e0 ae 59 77 bd ca 29 91 bd db e8 ae bd d9 af 2a 3d
       -0.06038826 -0.07088049 -0.085405074 0.041671608
0002f0 3a 4b f9 bc 72 5e 01 bd 6f b8 3d 3d ca 10 20 bc
       -0.030431379 -0.03158421 0.046318468 -0.009769628
000300 a7 04 5c 3d 2f 91 b7 3c c7 72 97 3c 7f a0 9e 3c
       0.053715374 0.022408096 0.018487347 0.01936364
000310 b8 cf 79 3d 9a ce 38 3b 81 c7 4b bd fe 86 ab bc
       0.06098911 0.0028199316 -0.04975081 -0.020938393
000320 0e 02 9d bd ee b1 2e bd 93 c2 24 3c 77 9f 5f bd
       -0.076664075 -0.042650156 0.010056156 -0.054595437
000330 6f 5a 8c 3d 16 94 19 bd 36 26 b2 bd 0f b1 1c bc
       0.06853186 -0.03749474 -0.086986944 -0.009563698
000340 fc 4a 2e 3d 29 92 82 bd b0 ff 9d bd f4 91 ff 3b
       0.04255198 -0.06375534 -0.07714784 0.0077993814
000350 17 ee 04 bd 61 c8 8d 3d 9c ec 61 bc cf 03 2a bc
       -0.032453623 0.06922985 -0.013789322 -0.010376885
000360 9d 6e 0a bd b8 48 82 3d 47 e1 02 bd a2 8f 4a 3c
       -0.033796895 0.06361526 -0.031953122 0.012363346
000370 3a 72 0c bd 61 9d 2a bc 67 37 ab bc c2 6e 8f bb
       -0.034288622 -0.010413499 -0.020900441 -0.004377217
000380 c3 a1 34 bd 89 7d 23 bd 3c d3 99 3c 09 67 d3 3a
       -0.04409958 -0.03991464 0.018777482 0.0016128729
000390 a6 e0 97 bd d9 d3 22 bb fb c8 e4 bd df 90 bc bc
       -0.07415895 -0.002484551 -0.111711465 -0.023018299
0003a0 a9 8c 55 bb 28 d0 76 bd 81 a1 81 3d ba 29 2d 3d
       -0.003258506 -0.060257107 0.063296326 0.04227612
0003b0 ea e5 2d bc 5b de 9d 3c 1e a6 21 bc 54 89 59 bc
       -0.010613898 0.019271066 -0.009866266 -0.0132773705
0003c0 a2 e7 b0 3c fc 9f 9d bd 17 b7 25 bc 72 12 03 bc
       0.021594826 -0.0769653 -0.010114453 -0.008000003
0003d0 2a 54 14 3d f6 e5 8c 3d 9b 97 39 3b a0 29 60 bd
       0.036213078 0.06879799 0.0028319124 -0.054727197
0003e0 a9 fd 36 3d c4 24 78 3d c4 d1 77 bd 16 7e 0b 3d
       0.044675503 0.060581937 -0.060502782 0.03405579
0003f0 8e 51 9f 3d e0 db aa bd 8f b8 ff 3c e4 a1 d7 3c
       0.07779227 -0.08342719 0.031215934 0.026322313

actor_layers.2.bias f4 [128]
000000 bd f3 db bf e3 66 2e be cf 41 99 bd 23 85 18 3e
       -1.7183758 -0.17031436 -0.07483255 0.14894538
000010 c6 98 09 be 27 bb 4c be f7 81 8d 3e a5 a3 a5 3d
       -0.13437185 -0.19993268 0.27638218 0.08087853
000020 16 ba 3e 3e 16 bf ab 3c 09 71 84 3d 27 ef c3 bd
       0.18625674 0.02096514 0.06466872 -0.09567099
000030 c1 f0 f3 3d 84 e6 9f 3d b1 29 71 3d c8 63 6b be
       0.119111545 0.07807639 0.05887765 -0.22987282
000040 24 55 64 3e 51 9d 80 bd 77 5f b1 be fa 2a 93 3d
       0.22298104 -0.06280006 -0.34643146 0.071859315
000050 02 a1 1d 3d 78 cc 4d 3d 84 1b 73 3d 47 6d 2d bd
       0.038483627 0.050243825 0.059352413 -0.042340543
000060 83 87 a1 be d7 f1 84 bd 63 c2 7b 3e e9 a9 1c 3e
       -0.315487 -0.0649144 0.24585871 0.1529919
000070 6b 4e b5 3d 9b 14 7a 3e e6 5a a8 bd a2 7c 52 bd
       0.08852848 0.24421923 -0.082204625 -0.05138839
000080 b5 ea db 3c aa 23 c8 3c eb 17 77 3e ca 91 16 be
       0.026845315 0.024431068 0.24130218 -0.14704052
000090 87 84 ec 3d ca 6f 2a 3e 9b 0f 8a 3d 11 27 a0 3c
       0.11548715 0.16644207 0.06741258 0.019549878
0000a0 be e2 a4 3e 79 77 9c bd a5 57 e1 3c bf 7a 97 be
       0.3220424 -0.07639975 0.027507612 -0.29585835
0000b0 ff b1 b9 3d 30 18 e6 bc 30 61 3a be d8 17 41 3e
       0.09067153 -0.028087705 -0.18201137 0.18856752
0000c0 fa d1 53 be b5 f2 d4 bd 6f bf 0a bd 3f a9 d9 3d
       -0.20685568 -0.10397855 -0.03387397 0.10627984
0000d0 ef db a9 3e 82 a1 bc 3d f4 9d f6 bd 98 4f a0 bc
       0.3317561 0.09210493 -0.12041846 -0.019569203
0000e0 7f bc fc 3d da ce c1 3c 4e a3 ab 3d c2 90 bf bd
       0.1234064 0.023658205 0.08380757 -0.09353782
0000f0 e4 46 27 bc a6 e1 79 3a 47 7f 55 bf ba e8 4f 3d
       -0.010209773 0.00095322204 -0.83397335 0.050759055
000100 ad a4 08 be 8b 86 13 3e e7 46 4e 3d 93 07 b5 3d
       -0.13344069 0.14406793 0.050360586 0.08839335
000110 1b 18 58 be ec e8 d5 bd 7e 22 0f be 32 a0 65 be
       -0.21102946 -0.10444817 -0.13978001 -0.22424391
000120 34 32 81 3e 3f e9 58 3d 00 5e e1 3d de 92 a3 bd
       0.25233614 0.052956816 0.11004257 -0.07986997
000130 4e d3 c4 3d 92 b5 d0 bd 19 9b 65 bd e6 d3 81 3d
       0.09610616 -0.10190882 -0.056056116 0.063392445
000140 41 cc f9 bd 66 5e 7a 3e ba fd 8c bc c8 ef a3 ba
       -0.121971615 0.24450073 -0.01721083 -0.0012507373
000150 d8 b4 8e 3e 41 19 a4 be e5 78 0c 3e 24 cf a7 3c
       0.27872348 -0.32050517 0.13717993 0.020484515
000160 07 3a 3f 3e 2d b2 20 be 76 94 8b bd 8a e5 89 3c
       0.1867448 -0.15692969 -0.06815426 0.016833086
000170 35 b9 d3 be 7a 73 be bc 0d cd a9 be d5 c5 a6 3d
       -0.4135224 -0.023248423 -0.33164254 0.08143202
000180 05 51 6a bc c1 e2 1a 3c 6f 91 14 be 75 e5 f2 3d
       -0.014301543 0.009453476 -0.14508604 0.11860172
000190 41 85 2e 3d 64 9d b6 3b ab d8 71 be a3 56 93 bd
       0.04260755 0.0055729616 -0.23617809 -0.07194259
0001a0 ad ad bb 3e a0 ee 93 be 47 91 69 bb 42 24 7d bd
       0.36655942 -0.28892994 -0.003563957 -0.061802156
0001b0 b7 b1 57 bd 62 af 8a 3d 34 90 24 3d 3f 7e a9 3e
       -0.052659716 0.06771733 0.040176585 0.3310413
0001c0 4c 55 13 3e 41 1b 89 3d c8 d1 46 3e f1 1d 40 be
       0.14388007 0.066946514 0.19415963 -0.18761422
0001d0 d5 ab 8a bd 4b 3e 76 bc 37 ae cd 3d c5 8b f0 3b
       -0.067710556 -0.0150295 0.100429945 0.0073408806
0001e0 7e 93 33 bd 4f 26 18 3e f1 fe 4c bd 08 1d 98 3d
       -0.04384183 0.14858364 -0.05004782 0.07427412
0001f0 fa 62 55 bc c7 61 51 bd ae 56 2e bd 85 04 21 ba
       -0.013024086 -0.05111864 -0.042563133 -0.0006142336

actor_layers.4.weight f4 [128, 128]
000000 0e b4 a1 bd da 3e 4e bc fc da 71 bc 21 58 e0 3d
       -0.07895671 -0.012588227 -0.014761683 0.10954309
000010 d6 05 81 bc f1 83 42 3d 50 f6 18 bd 11 cf a4 bd
       -0.015749853 0.04748911 -0.037344277 -0.08047307
000020 32 5c 75 bc 96 5c 63 3d 7c 7f 36 bd a7 c8 84 bd
       -0.014975594 0.05550822 -0.044555172 -0.06483584
000030 e7 de 5b 3d d7 55 33 3b 9b dd 85 ba a4 c9 d9 3c
       0.053679373 0.0027364397 -0.0010213138 0.026585408
000040 78 c4 9b 3d 8c a4 36 3d 30 5c 96 3c 60 b4 85 bd
       0.07605833 0.044590518 0.018354505 -0.065285444
000050 ef 53 41 3d a5 fe 9e 3c 9b 7b 2d 3d b2 b3 43 bb
       0.047199186 0.019408533 0.042354207 -0.0029861745
000060 ab dc 3e 3c 8b 60 41 bd 60 a8 aa bd 49 21 60 bd
       0.011649291 -0.04721121 -0.08332896 -0.054719243
000070 15 88 09 3d 68 26 9a bd f6 a7 ac bb 92 0d c4 3c
       0.033577044 -0.07526857 -0.005269046 0.023932252
000080 ae 72 16 3d c7 e0 7c bc 50 9a ce 3d f3 bf 74 3c
       0.03673046 -0.0154344505 0.100880265 0.014938342
000090 37 14 e8 bc 2c a4 b1 bb 69 c3 2b 3c f2 2b 04 bd
       -0.028329952 -0.005421182 0.010483601 -0.032268472
0000a0 36 59 51 bd c3 60 dc 3d 80 84 4e bc b5 cc ca ba
       -0.05111047 0.10760643 -0.012604833 -0.0015472384
0000b0 8f bb d8 bd e6 f2 2f 3d d0 51 5f bd 1c a7 1f bc
       -0.10582649 0.042956255 -0.05452138 -0.009744432
0000c0 47 ae 51 bd e0 0a 30 3c cc bd a2 3c 0c ed f4 3d
       -0.051191594 0.01074478 0.019865893 0.119592756
0000d0 ae 26 83 bd b5 fc b8 bb 5d fc a6 bd 45 fd 90 bb
       -0.06403862 -0.0056453594 -0.08153603 -0.0044247233
0000e0 b7 30 29 bd f5 e8 c6 3c e1 56 80 3d a4 2d 98 3d
       -0.041306224 0.024281004 0.06266571 0.0743058
0000f0 78 35 b7 3d bf 1d 0e 3d b9 16 dd 3c 8d 72 0b 3d
       0.08945745 0.034696337 0.026988374 0.03404479
000100 0e 66 5a 3d 38 6f 1e bd e7 2e 65 3d f6 ac da bc
       0.053319983 -0.038680285 0.055952933 -0.026693802
000110 fa 92 8d bd 63 08 56 bc 08 0f 7e 3d 41 67 f0 bc
       -0.06912799 -0.013063523 0.062026054 -0.02934611
000120 72 34 c3 3d 7a ac 19 bd f8 44 e3 3d 43 dc 45 3c
       0.095314875 -0.037518002 0.11097139 0.01207644
000130 54 6e 7f 3d b5 66 a1 bd 05 73 7e bd 9a b2 81 bd
       0.062361076 -0.07880918 -0.06212141 -0.06332894
000140 4c 38 25 3d fe 80 04 bd 47 d9 85 bb b4 2a 2d bd
       0.040336892 -0.03234958 -0.0040847394 -0.042277053
000150 6c 5e 61 bc c1 66 8c bd 62 34 bb bd 10 1f 63 3c
       -0.013755422 -0.06855536 -0.091408506 0.013862386
000160 26 a0 3a 39 aa d7 a0 bb 8c 29 c6 bd e2 4d 7b 3c
       0.00017798002 -0.0049085217 -0.09675893 0.015338393
000170 41 60 71 3b 49 50 4f 3d cb a4 eb 3c 5f 53 4b be
       0.0036831053 0.050613675 0.028765103 -0.19856022
000180 7c ce 1e bd 84 03 68 3e f0 64 72 bd a8 42 38 3d
       -0.038771138 0.22657591 -0.059178293 0.044985443
000190 a2 29 9d 3b 8e 14 89 3c a3 18 cc 3c 49 6f 94 bc
       0.004796223 0.016733434 0.024914091 -0.018119471
0001a0 ee 4e a5 3d f0 51 73 3d 60 36 26 bc 25 53 b0 3d
       0.08071695 0.059404314 -0.0101448 0.086096086
0001b0 a2 e4 e9 3c 0d 9d 2b 3d b8 c1 33 bd 35 f3 0a bd
       0.028551403 0.041897822 -0.043885916 -0.033923347
0001c0 42 39 9d 3c 16 7f 71 3d 9c b3 66 3d a8 c2 f3 3c
       0.019192342 0.05895909 0.056323633 0.029755905
0001d0 03 0d 19 3d 65 bb 38 3d b8 5c 7d bd c9 c5 53 3d
       0.037365925 0.04510059 -0.061856 0.051702294
0001e0 31 7c cd 3d 59 ad 48 bd 77 fe cb bc 81 aa 3f 3d
       0.10033453 -0.048993442 -0.024901612 0.046793465
0001f0 c3 4b 96 3d 41 3c 1b 3d 28 e1 63 bd db 67 35 3d
       0.07338669 0.03789926 -0.055634648 0.044288497
000200 d7 c9 d9 bd e5 d9 59 3d c0 4b 88 3c d8 7c c1 bd
       -0.10634201 0.053186316 0.016637683 -0.0944764
000210 64 de 59 3d 8c 11 d0 bd de b5 a0 bc a3 3f 68 bd
       0.053190604 -0.10159597 -0.019617971 -0.056701314
000220 23 c1 a7 bd e8 9a 8b bb df cf 85 bd cc d9 e1 bc
       -0.08191135 -0.0042604096 -0.06533789 -0.027569674
000230 2c c6 03 bd e8 33 8b bd d8 0d 92 bb 0b 97 37 bd
       -0.032171413 -0.0679701 -0.0044572167 -0.04482178
000240 eb d1 6d 3d 1e 3d 67 bd ee 40 8a 3d 60 44 99 bd
       0.05806152 -0.05645477 0.067506656 -0.074837446
000250 7c 68 cc bc a4 70 1b 3b 07 9b 2c 3d 0d 40 02 be
       -0.024952166 0.0023718262 0.042140033 -0.12719746
000260 fa e4 00 3c c6 ef 85 3d 9a 8e 12 bd 1d 6d 02 be
       0.007867092 0.06539874 -0.035780527 -0.12736936
000270 b6 e3 53 3c 4f 60 38 bd 0b 9d 9e bd 7b ec c3 3c
       0.0129327085 -0.045013722 -0.07744797 0.023916474
000280 cb 8f 72 3d c2 af 7c 3d 32 a6 32 3b 18 6f ba bc
       0.059219163 0.061691053 0.0027259705 -0.022758052
000290 4a 27 5d bc 02 86 f0 3c c0 90 9e 3d 74 7e 76 bd
       -0.013498137 0.029360775 0.077424526 -0.06017919
0002a0 91 11 94 bd 5a fb 3a 3d bd f5 14 bd 44 ad cc bd
       -0.07229913 0.045649864 -0.036367167 -0.09993985
0002b0 e9 84 e9 3c b0 56 58 bc 9a 26 11 3d f9 e6 e0 bc
       0.02850576 -0.013204262 0.035437204 -0.027453886
0002c0 76 e1 93 3d 54 e3 e6 3a f6 3c 4d bd d8 c3 d4 bd
       0.07220738 0.0017615356 -0.050106965 -0.10388917
0002d0 96 fd 19 3c 85 46 d7 b9 c0 3b 15 bd 09 4c 8d 3d
       0.0093988385 -0.00041060537 -0.036433935 0.06899268
0002e0 2a 20 43 3d 79 83 07 be 48 50 73 3d 24 b6 06 bc
       0.047638096 -0.13233747 0.059402734 -0.008222137
0002f0 1e 17 df ba 3d 21 03 3d bf 20 65 3d 11 6e 2c bd
       -0.0017020439 0.03201412 0.055939432 -0.042097155
000300 42 68 85 bd bc ae ae bb a9 b9 96 bd ee 61 20 bd
       -0.06514026 -0.0053308886 -0.073596306 -0.039155893
000310 4a 1a 3b 3d 88 15 47 3d 7f 2a 4c 3d 67 78 a0 bb
       0.045679368 0.04860452 0.049845215 -0.0048971656
000320 bf 68 82 3c 36 96 21 bc fc e9 34 3d 4a d1 9d 3c
       0.015919087 -0.009862473 0.044168457 0.019264836
000330 c7 22 58 3d d8 1c f1 bc d4 41 c6 3c 55 7f 0e 3c
       0.05276754 -0.0294327 0.024201311 0.0086973505
000340 d1 bf db 3c eb e0 96 3c 17 51 cd bc f7 d4 27 3c
       0.026824864 0.018417796 -0.02506308 0.010243646
000350 1b 4e 94 bc 44 b0 a2 bd d3 e7 0f 3d dd d0 76 bd
       -0.01810365 -0.07943776 0.035133194 -0.06025778
000360 97 e9 80 3d f4 3f cc bc 86 0a d0 3c d3 35 b6 bd
       0.06294554 -0.024932839 0.025395643 -0.08896985
000370 d1 44 ae 3d e5 76 b6 bc e4 9d a8 bd be c4 29 3c
       0.085092194 -0.02227349 -0.0823324 0.010361848
000380 47 63 26 3c 79 f8 87 3d 56 b6 f4 bc 77 5e 82 bd
       0.0101555055 0.06639189 -0.0298721 -0.06365674
000390 f4 ed 50 bd 0a 6c 37 3d 97 65 94 3c 71 42 83 bb
       -0.05100818 0.04478077 0.018114848 -0.004005723
0003a0 12 a6 e9 bd 89 32 62 bd 1d a3 33 3d fd 08 bd 3c
       -0.114086285 -0.055223975 0.04385673 0.023075575
0003b0 cc fa 5f 3c 1d 15 02 3d 69 60 eb bc 6e 0b ba 3c
       0.0136706345 0.031758416 -0.028732495 0.022710528
0003c0 03 6e 5c 3d 9f dd 9e bc 9c 1c 21 bd c3 13 2e 3d
       0.053815853 -0.019392787 -0.039333925 0.042499315
0003d0 36 cf 3b 3c 17 c0 a2 bc 77 04 f7 bd 9f cb 81 bd
       0.011462977 -0.019866986 -0.120613985 -0.06337666
0003e0 e2 c3 ce bc 37 7c bc 3c 13 a6 a7 3c e1 d5 93 3c
       -0.025239889 0.023008449 0.020464933 0.018046321
0003f0 8a 1e 64 bd 39 22 08 bd 22 bd 4e 3d f4 d2 e7 3b
       -0.055693187 -0.033235762 0.05047334 0.007074708

actor_layers.4.bias f4 [128]
000000 4a 3e 33 be f1 f0 a9 bd ba 06 9c bc fc 7a 4a bf
       -0.1750423 -0.08297909 -0.019046176 -0.7909391
000010 2e 00 29 bd 9d 19 12 be aa 4c 85 3e fb 6c 7a 3e
       -0.041259937 -0.14267583 0.26035053 0.24455635
000020 7f 7b 93 bd 44 40 ca bd f1 ae 98 be ad ad fe bd
       -0.072012894 -0.09875539 -0.2982097 -0.1243547
000030 88 55 1b be 74 51 66 3d f4 d1 01 be 90 9a 61 3e
       -0.15169346 0.056230024 -0.12677747 0.22031617
000040 23 52 9c bd 03 aa ac 3e 24 4e 6b 3e a6 44 39 3e
       -0.07632854 0.3372346 0.22979027 0.18092594
000050 b2 96 6a 3e 46 48 ff be 9c 73 cf bc c2 78 2b be
       0.22909048 -0.49859828 -0.025323682 -0.16745284
000060 2e 22 cb 3d 7d 93 84 be ba 0f 19 bd bb 4d 73 3e
       0.09918629 -0.25893775 -0.037368514 0.2376012
000070 3d 7e fe be 99 93 e7 3d e8 8b 89 bc 36 85 cb bd
       -0.49705687 0.11307449 -0.016790345 -0.09937517
000080 49 c9 1e 3e b1 34 a6 be 7d 93 fc 3e f0 ec 2f be
       0.15506472 -0.32462075 0.49331275 -0.17180228
000090 37 b8 f9 bd 46 57 41 3e 4a d3 46 bd 6f 59 5b bd
       -0.12193339 0.18880948 -0.048541345 -0.053552087
0000a0 21 2b 74 bd dc 4f c5 bd 79 0b 29 be 4f 73 57 bd
       -0.059611443 -0.096343726 -0.16508283 -0.0526002
0000b0 31 ea 7b be be 7a 25 bd e8 a7 f3 bd 47 06 46 be
       -0.24601056 -0.04040026 -0.1189726 -0.19338332
0000c0 28 3a 09 3e 07 a0 08 be 76 b7 f0 3d 4d 82 22 be
       0.13401091 -0.13342296 0.117537424 -0.15870018
0000d0 c5 ea e6 bc b3 6b 32 be 9c 3b 0d be df b5 53 be
       -0.028188119 -0.17423896 -0.1379227 -0.20674847
0000e0 7e 9b 1c bd a9 12 9a 3d a2 bd d0 be 74 fb ba be
       -0.038234226 0.075230904 -0.40769678 -0.36519969
0000f0 da 07 2f 3e ba 07 0a 3d 68 91 94 3e 3b 6c da be
       0.17092839 0.033698775 0.29017186 -0.42660698
000100 d5 c4 9d 3e e6 dc d7 bd 06 d2 db 3d 33 74 97 3c
       0.30814233 -0.1054018 0.10733418 0.018488025
000110 f5 6b 97 3d 3a 5b 8f 3c 66 ea 8e 3d 07 7f 32 bc
       0.07393638 0.017499555 0.06978302 -0.0108945435
000120 ea 63 dc bd 13 e6 d4 bd c1 08 c2 3c 8d d0 51 3e
       -0.107612446 -0.10395446 0.023685815 0.20489712
000130 5d 45 24 3e 45 65 1e bb dc 12 21 be 61 97 2a 3d
       0.16042085 -0.0024169248 -0.1572985 0.041648272
000140 16 f3 51 bd 35 c5 2b 3f 91 ef d4 3c 43 d9 12 3e
       -0.051257215 0.6709779 0.02599314 0.14340691
000150 94 61 93 be 0d 2f ff 3c 69 e2 d1 3d e7 1e 0f be
       -0.28785384 0.031150365 0.102482624 -0.13976632
000160 47 84 6f 3d a2 75 1f 3a 85 04 e4 3d 20 78 c1 3e
       0.05847576 0.00060828973 0.111336745 0.3778696
000170 4d 27 54 3e 96 ba e1 3e 4b 94 88 3e 24 71 03 3f
       0.20718117 0.44087666 0.2667564 0.51344514
000180 ab dd 8e 3e 1f 49 cf 3e 39 4a bc bc 2d ae 89 be
       0.27903494 0.40485474 -0.02298461 -0.26890698
000190 73 93 2d 3e 40 f2 e3 bc 9c 22 08 be 0c 89 e9 bd
       0.16950779 -0.027825475 -0.13294452 -0.11403093
0001a0 81 95 58 be fb ac 28 be 7f 77 0d 3f 72 f0 45 be
       -0.21150781 -0.16472237 0.5526046 -0.19330004
0001b0 c9 eb bc 3c 47 f4 fc bc b5 38 2c bd 0b bc bc 3d
       0.02306165 -0.0308782 -0.042046268 0.09215554
0001c0 02 6a 56 bf b0 6f 62 bd 45 d2 4e be fd 38 01 3e
       -0.83755505 -0.055282295 -0.20197399 0.12619396
0001d0 e3 43 14 be 48 2f a2 bd d7 95 8f 3d 0d ec c7 3e
       -0.14479022 -0.079191744 0.070110016 0.3904728
0001e0 97 17 2c be 8a b4 87 be 3a 48 f5 3c d2 69 95 3e
       -0.16805874 -0.26504928 0.029941667 0.29182297
0001f0 2a f6 cd 3d 69 21 d9 3d d7 27 50 be 9d 07 af 3d
       0.10056718 0.106020756 -0.20327698 0.08546374

actor_mean.weight f4 [1, 128]
000000 21 4b 06 3d 31 06 31 3c 61 76 ea 3b 81 2e 37 3d
       0.032786492 0.010804699 0.007155225 0.044722084
000010 b5 b9 ac 3c 99 b4 0c 3c ee 0f 1f 3d a0 7a 9d 3d
       0.021084646 0.00858798 0.03883355 0.076894045
000020 e2 c0 fb 3c f9 9e 9f bb a0 5b 02 bb 68 53 29 bb
       0.030731622 -0.004871246 -0.0019891039 -0.0025837068
000030 3e 01 20 3c b6 e4 89 bb f1 df 93 3b 30 43 84 bd
       0.009765921 -0.0042081727 0.00451278 -0.064581275
000040 09 96 78 bb 92 40 58 be 61 62 3d 3d f4 a7 b8 3c
       -0.0037931225 -0.21118382 0.0462364 0.022541024
000050 a3 27 13 be 52 ee 15 bd f1 4f 1e 3c 45 5a 5a 3d
       -0.14370589 -0.036604233 0.009662614 0.053308744
000060 40 fd e6 bb 77 3c ed bc 17 f9 db bc e6 30 b7 bd
       -0.0070492327 -0.028959496 -0.026852174 -0.089448735
000070 01 95 92 3d d8 63 1c bd e4 d8 95 3d e1 ca a7 bc
       0.071573265 -0.038181156 0.07316759 -0.020482482
000080 ef df da bd 99 c4 cf bc 7d 6d c5 3d f4 81 f7 ba
       -0.10687243 -0.0253623 0.09640024 -0.0018883334
000090 21 4e 99 bb c9 f5 86 bd ad ec 0f bc f7 e1 42 3c
       -0.004678503 -0.065898485 -0.008784455 0.0118946945
0000a0 f1 8f a0 bb c9 37 1e 3b 2a ad a7 3d 97 8e 49 3d
       -0.0048999717 0.0024142137 0.08187325 0.04920825
0000b0 16 ad ca 3c 8b f5 32 3c b5 f5 98 3c 94 b5 ad 3c
       0.024740737 0.0109228 0.01867185 0.021204747
0000c0 b3 21 95 bc 5a 22 8d bc 1a df a7 bc c2 ce c7 bc
       -0.018204546 -0.017228294 -0.020492125 -0.024390582
0000d0 12 f5 3d bc 78 19 b1 3b 61 72 82 bc 2a 9d d4 3c
       -0.011594074 0.0054046474 -0.01592368 0.025953848
0000e0 10 e5 7e ba be 4b b6 3d 31 c1 9b bc 67 be 5c bc
       -0.0009723464 0.089011654 -0.01901302 -0.01347313
0000f0 a4 8c 2f 3e f1 ce 99 bc 6d 32 a2 bd 2d 9b a5 3a
       0.17143494 -0.018775435 -0.07919774 0.0012634747
000100 44 f1 5a 3d 79 e7 72 bc ae 68 4f bb 78 be 9c 3d
       0.053452745 -0.014825695 -0.0031648087 0.076535165
000110 2f 4b f2 bb 8b c4 8a bc a8 ec d0 bb 2a eb c4 bb
       -0.0073942165 -0.016939422 -0.006375868 -0.006009479
000120 31 59 b9 3c c9 06 11 bb 58 4a da bb fb 88 78 bd
       0.022625538 -0.0022129288 -0.0066616945 -0.06067751
000130 51 1e 43 be e3 e9 ec 3d 90 60 03 3c a4 ed 18 bd
       -0.19054534 0.11568048 0.008018628 -0.037336007
000140 aa d8 cd 3c cc f0 5e 3e aa f0 00 3d bd f7 9d 3c
       0.025127728 0.21771544 0.031479515 0.01928317
000150 ea 10 27 bc a6 ef 13 be 09 f8 58 bd 43 3b a8 bc
       -0.010196904 -0.14446887 -0.05297092 -0.02053607
000160 1a b2 f8 3c 7d 7d 4a be 69 92 92 bc 2c d9 29 3d
       0.030358363 -0.19774432 -0.01789208 0.041466877
000170 97 ce 60 3c f4 00 ca 3d 43 ae 24 be 47 91 81 bb
       0.01372113 0.09863463 -0.160821 -0.003954086
000180 d5 94 7c 3e 99 f1 a5 3d 27 01 19 bc 0b 13 da b7
       0.2466615 0.08102722 -0.009338654 -2.5996493e-05
000190 8c 65 78 bc e7 1a 57 3c 51 d8 03 bc 07 ae 27 3c
       -0.015160929 0.013128973 -0.008047179 0.010234362
0001a0 70 cc f5 ba 56 1a 64 3b 5d 7f e8 bd e6 bd 8d 3c
       -0.0018752944 0.0034805737 -0.113524176 0.017302465
0001b0 c0 3e 42 ba e6 9d c9 3c cd 39 bc bb 34 c2 f7 3c
       -0.0007409863 0.024611425 -0.005744195 0.03024397
0001c0 b8 d0 3b 3d 96 f4 14 bc 25 60 9d bc e1 9f 81 3c
       0.045853347 -0.009091517 -0.019210884 0.015823307
0001d0 15 0c 41 3c 5f fe 20 3c 7e 57 df bc 0b f1 19 3d
       0.011782666 0.009826272 -0.0272634 0.037583392
0001e0 62 4d 8b bb d7 94 95 bb 16 7a 7c 3c 8e 2c 92 3d
       -0.004251168 -0.004564862 0.015409967 0.071374044
0001f0 e2 9b 35 bd 09 58 8e bc 51 41 ce 3a a9 77 50 bc
       -0.044338115 -0.017375963 0.0015736019 -0.012723842
