attempts/online_rl_policy.pth (torch, 22913 bytes, 5 tensors)

net.0.weight f4 [64, 10]
0	0x3c2e7caf	0.010649844
1	0x3cb1b3a7	0.02169211
2	0x3cb3869a	0.021914769
3	0xbbf7812a	-0.0075532394
4	0xbbb14e44	-0.0054109413
5	0x3b5bf7f4	0.003356454
6	0xb94886d6	-0.00019123717
7	0xbbee16c0	-0.0072658956
8	0xbb9df9d7	-0.004821043
9	0x3b169345	0.0022975963
10	0xbc1296c3	-0.008947077
11	0x3c0cfd69	0.00860534
12	0x3ba81ce3	0.0051303967
13	0x3bb1a573	0.0054213344
14	0x3c6a3a73	0.014296162
15	0x3c0be0c2	0.008537473
16	0x3c0166ce	0.007898046
17	0x3c21ab19	0.009867453
18	0xbc024ff4	-0.007953633
19	0xbcb618c6	-0.02222861
20	0xbac3b88c	-0.0014932319
21	0x3ab5c6b1	0.0013868419
22	0xbbc65318	-0.006052386
23	0xbc6ab716	-0.014325878
24	0x3c5dbb39	0.013533407
25	0xbb75b5e0	-0.003749244
26	0x3cfbc442	0.030733231
27	0x395159cf	0.0001996525
28	0xbb15f14a	-0.0022879415
29	0x3c33ebd9	0.010981523
30	0x3b147745	0.0022654098
31	0x3b407644	0.0029367367
32	0x3c4b2b6d	0.01240049
33	0xbc7618e9	-0.0150205875
34	0x3c789cbd	0.015174088
35	0xbb92295b	-0.0044604964
36	0x3c2c569f	0.010518699
37	0x3aa19d5a	0.001233022
38	0xbbc53145	-0.0060178363
39	0x3aa40661	0.0012514108
40	0xbb1d72a6	-0.0024024635
41	0xba0aed52	-0.00052996457
42	0x3c010e8d	0.007877004
43	0xba0eacf9	-0.0005442645
44	0xbc00d72f	-0.007863804
45	0x3cca5081	0.02469659
46	0x3c343637	0.010999254
47	0x3c738221	0.014862568
48	0x3bcd4046	0.0062637655
49	0x3b8f7a60	0.004378602
50	0x3a0d11fa	0.0005381402
51	0x3ccc6a29	0.024952965
52	0xbb30ef16	-0.0026997975
53	0xbb55fa9e	-0.00326506
54	0xbc26f382	-0.010189893
55	0xbba177a0	-0.0049275905
56	0x38b51885	8.63532e-05
57	0xbc5468df	-0.012964456
58	0xbc007999	-0.007841491
59	0xbbd6401e	-0.006538405
60	0xbb2b3ebb	-0.002612992
61	0xbb78e6e7	-0.0037979425
62	0x3a00e489	0.0004916867
63	0x3b26c0ca	0.00254445
64	0xbc00ffe3	-0.007873508
65	0xbb9bcdf4	-0.004754776
66	0x3c336035	0.0109482305
67	0xbbf4c138	-0.0074693225
68	0x3b5813a1	0.0032970684
69	0xbc8a700e	-0.016899135
70	0x3c4acec5	0.012378399
71	0x3a8b1fa3	0.0010614287
72	0x3c2e0eb4	0.010623623
73	0x3ca4d85c	0.0201227
74	0xbb3d6fb7	-0.0028905699
75	0x3cc55ab7	0.024091108
76	0xbbf525ec	-0.0074813273
77	0x3b79014b	0.0037995155
78	0xbbd1601d	-0.0063896314
79	0xb9c25212	-0.0003706371
80	0x3ccd3987	0.025051845
81	0x35d3d468	1.5782543e-06
82	0x3b2d938d	0.0026485652
83	0x3b1e1645	0.002412216
84	0x3ce83e6c	0.028350078
85	0x3b2bcd1f	0.002621479
86	0x3b93a1ae	0.0045053577
87	0x3c4812ec	0.012211543
88	0x3b224cca	0.0024765008
89	0xbb99f1d6	-0.0046980185
90	0x3bc33dea	0.0059583085
91	0xbba15288	-0.0049231686
92	0xbc9e4b09	-0.019322889
93	0x3c98ee5e	0.01866835
94	0x3b29421e	0.0025826762
95	0x3b1e50b1	0.0024156983
96	0x3c367b6b	0.011137824
97	0xbc2ab555	-0.0104192095
98	0xbbb90a8a	-0.0056470083
99	0x3c305d01	0.010764361
100	0x3cc811ee	0.024422612
101	0x3c3d0047	0.011535711
102	0x3c6376a0	0.013883263
103	0x3c906585	0.017626533
104	0x3c061fd8	0.008186303
105	0x39d5b439	0.00040760802
106	0x3c6d59d6	0.014486751
107	0x3b111067	0.002213502
108	0xbbf24250	-0.007393159
109	0x3c441d1a	0.011969829
110	0xbc60c4b3	-0.013718772
111	0x3c273636	0.010205796
112	0x3c528b5a	0.012850607
113	0xbb90f2b3	-0.0044234633
114	0x3b5a296f	0.0033288857
115	0xbc8a6c0b	-0.016897222
116	0xbc7bd4f2	-0.015370594
117	0xbc079447	-0.008275098
118	0x3c19e124	0.009392057
119	0x3caf2f7a	0.021384943
120	0xbc6e7a28	-0.0145554915
121	0xb98e5ce2	-0.00027153554
122	0x3c615794	0.01375379
123	0x3c08ec5e	0.008357136
124	0xbc2f455b	-0.010697688
125	0xbcb38604	-0.02191449
126	0x3b2badc5	0.0026196104
127	0x3c62a0b6	0.013832262
128	0xbc12d4e5	-0.008961891
129	0xbc16d540	-0.009206116
130	0xbbef49a9	-0.007302482
131	0xbbc17bcd	-0.005904651
132	0x3b30e15f	0.00269898
133	0xbbc1191d	-0.0058928863
134	0xbc002992	-0.007822411
135	0x3ca67838	0.020320997
136	0xbb0aafe4	-0.0021161968
137	0x3c586d81	0.0132097015
138	0xb7b236db	-2.1244798e-05
139	0xbc900ef7	-0.01758526
140	0x3c3cc974	0.01152264
141	0x3c535b64	0.012900207
142	0xba70459a	-0.0009165645
143	0xbc3f5a79	-0.011679285
144	0x3c1238b6	0.008924654
145	0xba8ba816	-0.0010654952
146	0xbaa85bad	-0.0012844704
147	0x3bc2a5cb	0.005940174
148	0x3c020427	0.00793556
149	0xbc0c9822	-0.008581193
150	0x3b505012	0.0031786007
151	0xbc2a9828	-0.010412253
152	0x3c34ea3e	0.011042176
153	0xbb919254	-0.0044424925
154	0xbb511f8c	-0.0031909673
155	0xb89d3a92	-7.497253e-05
156	0x3c2b3b76	0.010451188
157	0x3c856f39	0.016288387
158	0x3c583fa9	0.0131987715
159	0x3c3707d7	0.011171303
160	0x3a537f0a	0.00080679415
161	0x3c5fd53b	0.013661678
162	0xbc1bbdb5	-0.009505679
163	0x3cd5050f	0.026003389
164	0x3ca1d3d0	0.01975432
165	0xbcaf0d50	-0.021368653
166	0x3c1be37f	0.0095146885
167	0xb9a147ea	-0.00030761893
168	0x3aa21bdc	0.0012367922
169	0xbbc36592	-0.005963036
170	0xbb6b8ec9	-0.003594326
171	0xb8b65b28	-8.6954155e-05
172	0x3c154020	0.009109527
173	0x3b8263c0	0.0039791763
174	0xbae1c185	-0.0017223811
175	0x3be4fab7	0.0069878954
176	0xbb011b72	-0.0019700197
177	0xbbc5665d	-0.0060241655
178	0x3c876cfc	0.01653146
179	0x3c23a171	0.009987221
180	0xbb19d9db	-0.00234758
181	0xbb06d682	-0.0020574634
182	0xbc08184f	-0.008306577
183	0xbbc53787	-0.0060185823
184	0xba8b6802	-0.0010635855
185	0x3bcd89eb	0.0062725446
186	0x3bfa6486	0.007641378
187	0xbb476521	-0.0030425268
188	0x39699c47	0.0002227883
189	0x3bb071a4	0.005384641
190	0x3bf3343b	0.007421998
191	0xbc9eb2ff	-0.019372461
192	0xbcf551d0	-0.029946238
193	0x3c64f471	0.013974295
194	0xbc70a3c1	-0.0146874795
195	0xbc33bb5e	-0.010969965
196	0xbb978183	-0.0046235933
197	0xbbfc1499	-0.007692885
198	0xbb20b429	-0.0024521446
199	0xbbf0042b	-0.0073247156
200	0x3b31ac72	0.0027110842
201	0x3c050eb9	0.008121186
202	0xbc2fa34e	-0.010720087
203	0xbc20efd1	-0.009822802
204	0xbcc965fc	-0.024584763
205	0xbb9ccc0f	-0.004785068
206	0xbcb03747	-0.021510733
207	0x3c81295c	0.015766792
208	0x3c31402c	0.010818522
209	0xbc8d862c	-0.017275892
210	0xbc5303d4	-0.012879331
211	0x3bbc2cf5	0.005742664
212	0xbca5d10f	-0.020241288
213	0x3c8fc0b1	0.017547937
214	0xbc999ea1	-0.018752398
215	0x3c9e69ba	0.019337524
216	0x3bff32fa	0.0077880593
217	0xbc209dd2	-0.009803252
218	0x3ce754c9	0.02823867
219	0x3c87e001	0.016586306
220	0xbb327ff6	-0.0027236915
221	0x3b7ba596	0.0038398257
222	0xbcf1e02f	-0.029525844
223	0xbcc88434	-0.024477102
224	0x3c276123	0.01021603
225	0x3bc4bbf9	0.0060038534
226	0xbc7db7a0	-0.015485674
227	0xbc2f6eb3	-0.010707545
228	0xbc6abde5	-0.014327501
229	0x3c43151d	0.011906889
230	0x3c80e41f	0.015733777
231	0xb96c87af	-0.0002255726
232	0xbcbc3be4	-0.022977777
233	0x3c56ea8d	0.013117445
234	0xbbd82b4d	-0.0065969587
235	0xbc8da921	-0.017292561
236	0xbc3a7382	-0.011380078
237	0x3ba407a2	0.0050057927
238	0x3c9d8144	0.019226678
239	0x3c9f83f8	0.019472107
240	0x3c006621	0.007836849
241	0xbc52cafe	-0.01286578
242	0x3bbd79ba	0.005782333
243	0x3c1e104d	0.009647441
244	0xbc829c11	-0.015943559
245	0xbc332d4e	-0.010936094
246	0xbc716abd	-0.014734921
247	0xbbc5c6a5	-0.006035643
248	0xbc89c1c2	-0.016816024
249	0x3b3a7053	0.0028448298
250	0xbca401fe	-0.020020481
251	0x3c4824da	0.012215817
252	0xbc1234c4	-0.008923713
253	0x3c2ea7e7	0.010660148
254	0x3bb8a0f0	0.0056344196
255	0x3b846501	0.004040361

net.0.bias f4 [64]
0	0xba444523	-0.0007487109
1	0x3a3fdc6a	0.0007318916
2	0x3a59538c	0.00082903425
3	0xba016f45	-0.000493754
4	0xb9cc1920	-0.00038928632
5	0xba5d956b	-0.0008452746
6	0xbac4f26c	-0.0015025861
7	0x3a666b26	0.000878977
8	0x3a4a4094	0.00077153114
9	0x3b0fb12a	0.0021925666
10	0x3a4927bc	0.00076734624
11	0xba77bd7e	-0.0009450539
12	0x39e0af3f	0.00042855178
13	0x3a52b0b7	0.0008037197
14	0x3a50d81b	0.00079667725
15	0xb91b18aa	-0.0001479114
16	0x3a0a92b2	0.00052861415
17	0x3a7537af	0.0009354306
18	0xb9cc532a	-0.00038971874
19	0xba17df99	-0.00057935115
20	0x3a09f744	0.00052629807
21	0xb96ee90b	-0.00022784264
22	0xba400bf9	-0.0007326003
23	0xb9e131d1	-0.0004295246
24	0xba541128	-0.00080897147
25	0x3a51dc1c	0.0008005516
26	0x3a6d6f79	0.0009057443
27	0x3a478979	0.00076117326
28	0x3a2c6c8e	0.0006577455
29	0x39d943bb	0.00041439928
30	0xba3beaf8	-0.0007168497
31	0xb8652096	-5.4628203e-05
32	0x39cfd98a	0.00039644196
33	0xba5f7614	-0.000852437
34	0xba0709d6	-0.0005151307
35	0x3a03cd50	0.00050278474
36	0xba1d83dc	-0.0006008723
37	0x3a1a9b67	0.00058977905
38	0xba9ac66d	-0.0011808403
39	0x3a7d1e73	0.00096557214
40	0x3a011604	0.000492424
41	0xba7b2dec	-0.0009581733
42	0xba528aca	-0.00080315454
43	0xba8b09a3	-0.001060773
44	0xba24dfff	-0.00062894815
45	0xba067c84	-0.00051302486
46	0xba8b9c92	-0.001065152
47	0x3a6e68ea	0.0009094613
48	0x3a692cba	0.00088949094
49	0xbac92dae	-0.0015348697
50	0x3a295781	0.00064598775
51	0xb9b46fad	-0.0003441548
52	0xba0d0d06	-0.0005380664
53	0x3a51f482	0.0008009152
54	0x3a4bf76b	0.00077807036
55	0xba7a5b4e	-0.00095503486
56	0xba0bad86	-0.0005328286
57	0xba56c871	-0.000819332
58	0xb8541866	-5.056746e-05
59	0xba866e4e	-0.0010256262
60	0xba6cb7b2	-0.0009030058
61	0xba8e8e78	-0.0010876199
62	0xba213de8	-0.00061508873
63	0xb8e09bd2	-0.00010710176

net.2.weight f4 [64, 64]
0	0xbbfa2fca	-0.0076350914
1	0xbc787660	-0.015164942
2	0xbc098703	-0.008394006
3	0xbb8653b7	-0.004099335
4	0xbb8938a7	-0.0041876617
5	0x3bd25462	0.0064187506
6	0xbc4ebfe3	-0.012618992
7	0xbc563dfb	-0.013076301
8	0xbc0cb3e0	-0.008587807
9	0x3c0462f6	0.008080235
10	0x3bc3d0fb	0.00597584
11	0xbc4373fb	-0.011929507
12	0x3cf124fc	0.02943658
13	0x3c849fe7	0.016189529
14	0xbb0f2aa9	-0.0021845496
15	0xbbef4e7d	-0.0073030577
16	0xbadb6bdb	-0.0016740517
17	0xbbc124ce	-0.00589428
18	0x3bd121a1	0.0063821827
19	0xbbbd3b07	-0.005774859
20	0x3a22c15a	0.0006208621
21	0x3cc6789d	0.024227435
22	0x3c4f933d	0.012669382
23	0x3c3c89e1	0.011507482
24	0x3d1da355	0.038485844
25	0xbc0e7bde	-0.008696524
26	0x3a03dd97	0.0005030273
27	0x3c1927ac	0.009347837
28	0xbc5b1601	-0.013371945
29	0xbcc82f83	-0.024436718
30	0xbc0631b5	-0.008190562
31	0x3b8c29c4	0.00427744
32	0x3ba22f4f	0.0049494873
33	0x3c3ed043	0.011646333
34	0xbc1e3f03	-0.009658578
35	0x3ba9de1d	0.0051839487
36	0xbc14f0d5	-0.009090622
37	0x3c848aa5	0.016179392
38	0xbc49721f	-0.012295275
39	0x3c7f5d12	0.015586155
40	0x3c7d307b	0.015453453
41	0x3a137f6b	0.0005626592
42	0x3c89b43d	0.016809577
43	0xba5efdb6	-0.0008506434
44	0x3b594655	0.0033153493
45	0x3ca051ae	0.019570198
46	0xbc06b021	-0.008220703
47	0xbb4a0106	-0.0030823364
48	0x3c379924	0.011205945
49	0xbc457fbf	-0.012054383
50	0x3be97448	0.0071244575
51	0x3b7e4d52	0.003880341
52	0x3c968c8b	0.018377563
53	0x3c0e85b4	0.0086988695
54	0xbc61c499	-0.013779783
55	0x3c2112f5	0.00983118
56	0xba79785c	-0.0009516531
57	0x3ba251cd	0.004953599
58	0x3cf7d65c	0.030253582
59	0x3b9e2d89	0.0048272056
60	0x3bceea5b	0.0063145584
61	0xba3eb795	-0.00072752807
62	0x3b5a071a	0.0033268393
63	0xbc360b5b	-0.011111106
64	0xbcfb8274	-0.030701853
65	0xbbccb47b	-0.006247101
66	0xbc325cc3	-0.010886374
67	0xbc038c5f	-0.008029073
68	0x3ba9c8e1	0.0051814173
69	0x3c230b99	0.009951496
70	0x3b14a5aa	0.0022681751
71	0xbbdfdc94	-0.006831715
72	0x3c05ca1f	0.008165865
73	0x3cada7b9	0.02119814
74	0xbb5ac73e	-0.0033382918
75	0x3c16f154	0.009212811
76	0xbc744619	-0.014909291
77	0xbcad9b79	-0.0211923
78	0xbcc984b0	-0.024599403
79	0xbb8fa744	-0.0043839533
80	0xbc6bdd92	-0.014396088
81	0xb99ecac6	-0.00030287186
82	0x3ca5fdae	0.020262565
83	0xbc6c3a75	-0.014418234
84	0xbc49ead8	-0.0123240575
85	0xbc321df7	-0.010871402
86	0x3b133740	0.0022463351
87	0x3d0723d2	0.032993145
88	0xbc1af39c	-0.009457495
89	0x39ab2088	0.000326399
90	0x3b60b058	0.0034284797
91	0xbaa2813d	-0.0012398135
92	0xbb835a4b	-0.0040085665
93	0x3c6dcfa0	0.014514834
94	0x3c87d3bf	0.01658046
95	0xbb51e4f5	-0.0032027338
96	0xbcefa4c5	-0.029253373
97	0x3bc8dd3d	0.0061298893
98	0xbc2021b3	-0.0097736595
99	0x3bc34411	0.005959042
100	0x3bf1957d	0.0073725567
101	0xbc05a485	-0.0081569
102	0x3b8328b4	0.004002655
103	0xbb91cfe5	-0.004449832
104	0x3c302751	0.010751561
105	0xbb2a0d9d	-0.0025948056
106	0xbc1ea512	-0.0096829105
107	0xbcb65c61	-0.022260847
108	0x3b11d250	0.00222506
109	0x3bf783bd	0.007553546
110	0x3c95c6a3	0.018283194
111	0x3bf0031d	0.00732459
112	0xbb280eba	-0.0025643543
113	0xbc788bca	-0.015170047
114	0x3c1ead2d	0.009684843
115	0xbc028437	-0.007966093
116	0x3b4c7723	0.003119894
117	0x3b19fb55	0.0023495753
118	0xbc82348e	-0.0158942
119	0xbabc34c4	-0.0014358987
120	0x3b3d8284	0.0028916905
121	0x3c299d04	0.010352377
122	0x3c9a3f3a	0.018828977
123	0xbc0a3b0e	-0.008436931
124	0xbc60a0a8	-0.013710178
125	0x3c23b354	0.009991486
126	0x3c394b12	0.011309402
127	0x3c04162a	0.008061925
128	0x3c78d8dc	0.015188422
129	0xbbb6b563	-0.005575822
130	0xbc1efc2c	-0.009703677
131	0xbc63b27c	-0.013897534
132	0x3a323b93	0.00067990384
133	0xbba891b0	-0.0051443204
134	0x3a7441cf	0.00093176676
135	0x3ca28a47	0.019841326
136	0x3c8c14f5	0.017099837
137	0x3b913cf7	0.0044323164
138	0xb955ef75	-0.00020402468
139	0xbc3f602e	-0.011680646
140	0xbbe231c9	-0.0069029075
141	0xba883272	-0.001039101
142	0x3b76c149	0.0037651828
143	0xbb15ced5	-0.0022858877
144	0xbc507963	-0.012724253
145	0x3ba9cbba	0.005181757
146	0x3c6fcf44	0.014636818
147	0xba197665	-0.0005854129
148	0x3d12a24d	0.035799313
149	0x3c4049fb	0.011736388
150	0x3bb37762	0.005476878
151	0xbc9e8998	-0.01935272
152	0xbc08fc26	-0.008360898
153	0xbb4c1ae9	-0.003114397
154	0xbc727db3	-0.014800477
155	0x3b92cb96	0.0044798357
156	0x3c0755c8	0.008260198
157	0x3b40b6e4	0.0029405886
158	0xbcce0ffd	-0.025154108
159	0xbbbe1454	-0.005800763
160	0x39b02de3	0.00033603524
161	0xbc913389	-0.01772477
162	0xbcc48a37	-0.023991687
163	0x3c167c46	0.0091849025
164	0x3af92f2c	0.0019011251
165	0x3cf12943	0.02943862
166	0x3c8a3dba	0.016875137
167	0x3cb624e5	0.02223439
168	0x3c8bc67a	0.017062414
169	0xbb9e1926	-0.0048247753
170	0x3ad459da	0.0016201094
171	0xbc88cbae	-0.016698685
172	0x3b74f766	0.0037378906
173	0xbc6a9a9f	-0.014319091
174	0xbc0fefee	-0.008785231
175	0x3c070725	0.0082414495
176	0x3bbe6b49	0.005811129
177	0xba33661f	-0.00068435253
178	0x3c22c29c	0.009934094
179	0xbc6e13ac	-0.014531057
180	0xbc1588be	-0.00912684
181	0x3bb59d9d	0.0055424706
182	0xbae72c79	-0.0017637155
183	0xbc9ae564	-0.01890821
184	0x3ad469bc	0.0016205828
185	0x3bbbcccc	0.005731201
186	0x3ad8a969	0.001652998
187	0xbc505fed	-0.012718183
188	0xbae1c4ab	-0.0017224749
189	0x3c6c8c54	0.014437754
190	0x3c03edbb	0.008052285
191	0x3cbd5910	0.023113757
192	0xbc746136	-0.014915755
193	0xbbfe30b0	-0.007757269
194	0x3bb05c2d	0.005382082
195	0x3c0f86df	0.008760183
196	0x3c3fc599	0.011704826
197	0x39c5a901	0.00037700686
198	0x3c9e3357	0.01931159
199	0x3b04ef49	0.0020284227
200	0xbb38b589	-0.0028184375
201	0xb952668d	-0.00020065364
202	0x3c894c9f	0.016760169
203	0x3b9ee840	0.0048494637
204	0xbc28fd8f	-0.010314359
205	0xbc0acf8a	-0.008472333
206	0x3aeb1b36	0.0017937187
207	0xbc10ca82	-0.008837344
208	0x3c240bf7	0.010012618
209	0xbb23bcf2	-0.0024984446
210	0xbc04c793	-0.008104223
211	0xbb814760	-0.003945276
212	0x3c5a855f	0.013337462
213	0x3c191465	0.009343241
214	0x3c9044dd	0.017610962
215	0x3c3beca5	0.011469995
216	0xbb940b8a	-0.004517977
217	0xbb8a260e	-0.0042159623
218	0xbc9ddb16	-0.019269507
219	0x3c9db0ac	0.019249283
220	0x3a789c4c	0.0009483739
221	0x3c13e792	0.009027379
222	0xbc0f3e76	-0.008742919
223	0x3cceaa45	0.025227675
224	0xbc0c3e7a	-0.008559817
225	0x3a8b6dce	0.0010637583
226	0x3be4e18d	0.0069848956
227	0xbc5df716	-0.013547679
228	0xbc8b3e51	-0.016997488
229	0x3c7e8e65	0.015536879
230	0x3cb446c6	0.022006404
231	0xbc0693c6	-0.008213943
232	0xbbd64af3	-0.0065396964
233	0x3ce3e83b	0.027820697
234	0xba6b0287	-0.0008964915
235	0xbbd22dd5	-0.006414155
236	0x3cd077e3	0.025447791
237	0xbadabb52	-0.0016687906
238	0xb889fb6c	-6.5795e-05
239	0xbc84ecb1	-0.016226145
240	0xbb33defb	-0.002744614
241	0xbbcf791c	-0.006331576
242	0x3b6febdc	0.003660909
243	0x3cb19c35	0.02168093
244	0x3c35a9fe	0.011087893
245	0xbb7f74f3	-0.003897962
246	0xbbbf35e3	-0.005835281
247	0xbc41e11a	-0.011833454
248	0xbc0bbaca	-0.008528421
249	0xbc132415	-0.008980771
250	0x3b973ea2	0.0046156207
251	0xbc391c9c	-0.011298325
252	0xbbb93e0e	-0.0056531494
253	0xbbda27d6	-0.006657581
254	0xbd0f58b3	-0.0349967
255	0xbc12cafb	-0.008959527

net.2.bias f4 [64]
0	0xba4488d7	-0.00074971974
1	0xba43f78f	-0.0007475549
2	0x3a54df75	0.0008120456
3	0x3a53427b	0.00080589176
4	0x3a30fe37	0.0006751748
5	0xba6d5ca9	-0.000905464
6	0x3a57600b	0.00082159106
7	0xba53c149	-0.0008077813
8	0x3a3b5150	0.00071456004
9	0xba3a7a41	-0.0007113554
10	0x3a552a25	0.0008131585
11	0xba370c69	-0.0006982745
12	0xba349d51	-0.0006889897
13	0xba5b018c	-0.00083544175
14	0x3a29f572	0.00064834126
15	0x3a4f4ac1	0.00079075625
16	0x3a29c8f4	0.0006476783
17	0x3a5f42f6	0.0008516753
18	0xba527424	-0.00080281706
19	0x3a0e2b8d	0.00054233597
20	0x395d037e	0.00021077503
21	0x3a54f50f	0.0008123675
22	0x3a4c1bc8	0.0007786122
23	0xba081c58	-0.0005192212
24	0x3a52ed58	0.0008046231
25	0x3a60c249	0.00085738726
26	0xba4d40f3	-0.00078298076
27	0xba511664	-0.0007976054
28	0xba535e12	-0.0008063029
29	0x3a5ae592	0.00083502487
30	0x3a407941	0.0007342287
31	0xba475ddf	-0.00076052354
32	0x3a49315d	0.0007674897
33	0x3a3df995	0.00072469685
34	0x3a5d91ac	0.0008452188
35	0xba55a74a	-0.0008150233
36	0x3a2ba80d	0.0006548174
37	0xba4b38e5	-0.00077523134
38	0xb881c2b4	-6.1874656e-05
39	0x3a4db320	0.0007846821
40	0x3a49085b	0.00076687866
41	0xba5a9410	-0.0008338103
42	0xba19bd55	-0.00058646995
43	0xba4234cc	-0.000740838
44	0x3a4fe3d0	0.000793037
45	0xba45507e	-0.0007526948
46	0x3a35f35b	0.0006940865
47	0x3a7245b7	0.00092419557
48	0xba49f674	-0.0007704266
49	0xba261bab	-0.00063365203
50	0xba3a5679	-0.00071082223
51	0xba52f878	-0.0008047889
52	0x3a5582a7	0.0008144774
53	0x3a45f87f	0.00075519824
54	0x3a5ec94d	0.0008498624
55	0x3a427ef6	0.00074194313
56	0xb9ee500c	-0.00045454537
57	0xba0825c4	-0.0005193616
58	0xba5165ec	-0.0007987905
59	0xba494b91	-0.0007678802
60	0xba4e4dc6	-0.00078698655
61	0xba490bf3	-0.0007669322
62	0xba537c51	-0.0008067536
63	0x3a5a1d5f	0.00083204167

net.4.weight f4 [1, 64]
0	0xbbea798d	-0.0071556033
1	0xbc51aa63	-0.012796971
2	0x3d028dd1	0.031873528
3	0x3bb5e8f5	0.0055514523
4	0x3b92ccdb	0.004479987
5	0xbb1e43c9	-0.002414929
6	0x3bde0727	0.006775755
7	0xbc446601	-0.01198721
8	0x3bd5f67e	0.0065296283
9	0xbbb1fbf5	-0.005431647
10	0x3b98dd47	0.00466505
11	0xbbd96a81	-0.0066350107
12	0xbc295670	-0.01033555
13	0xbc7f2569	-0.015572884
14	0x3b92f358	0.0044845752
15	0x3c11b01d	0.008892086
16	0x3b59904b	0.0033197578
17	0x3c00e570	0.007867202
18	0xbcfcb9f3	-0.030850386
19	0x3b2b6b24	0.002615639
20	0x3a24cffe	0.0006287097
21	0x3c9c5a77	0.019086106
22	0x3b9e64ad	0.004833779
23	0xbb66d426	-0.0035221665
24	0x3add374e	0.0016877444
25	0x3ba6dff8	0.005092617
26	0xbcd41b0c	-0.025891803
27	0xbc3f6005	-0.011680608
28	0xbb755a4b	-0.0037437852
29	0x3b551fe7	0.0032520236
30	0x3b8b3986	0.0042488007
31	0xbcc60ff7	-0.024177535
32	0x3cdc8eb2	0.026923511
33	0x3c7596db	0.01498958
34	0x3c0724bd	0.008248505
35	0xbc0ce418	-0.008599304
36	0x3b4b9257	0.0031062567
37	0xbc416799	-0.011804485
38	0x3b0def8b	0.0021657671
39	0x3c3da723	0.011575493
40	0x3c3afec5	0.011413281
41	0xbba6949e	-0.0050836345
42	0xbb8183fd	-0.003952502
43	0xbbc116c2	-0.0058926055
44	0x3cd2f4bb	0.025751462
45	0xbc25cc1e	-0.010119466
46	0x3bfc5adc	0.007701261
47	0x3ae0f933	0.0017164111
48	0xbc2ebe42	-0.010665478
49	0xbb77ad18	-0.003779238
50	0xbbc327b7	-0.005955662
51	0xbb87f4ab	-0.0041490397
52	0x3c24a8b9	0.010049992
53	0x3c6a1a3a	0.014288479
54	0x3b6c5e5d	0.0036066987
55	0x3c209d23	0.009803089
56	0xbb31f680	-0.0027154982
57	0xbaa0fa6b	-0.0012281662
58	0xbc0a880a	-0.008455286
59	0xbc5d31d5	-0.01350065
60	0xbc88e604	-0.016711242
61	0xbbf51d55	-0.0074803033
62	0xbc4ac844	-0.012376849
63	0x3c0f0b50	0.008730724
