attempts/ppo_pure_best.pth (torch, 434112 bytes, 16 tensors)

trunk.0.weight f4 [128, 57]
00000000: 6e8e 34be d3c3 28be 32c5 0e3e 38ab 343e
00000010: 83d5 e73d 79cb 303e b57a e13d 4b10 f63c
00000020: 4673 b73d ff50 d93d cf82 79bd 711d d63c
00000030: c0c8 923c 8c29 29bd 4f16 38bc cffd 91bd
00000040: 09ee 22bd 0743 8d3d 932c 81bd f7f5 cb3c
00000050: 9a67 bfbd c2b1 953b 9f7b 4f3d 7025 74bd
00000060: 5c49 093c cec0 f4bc 0186 e1bc 8f5f a2bc
00000070: b9e1 b63d aab4 ef3d 03f3 2cbd f735 3cbd
00000080: 0ad6 123e 5dc8 ad3d 9513 d83d c3ad 213e
00000090: 0a66 313d 3a72 853c 56ed babd c162 d5bd
000000a0: f373 8fbd 17c4 a6bd 1aa1 333e a7bc 8abb
000000b0: 93a3 a7bd 0743 85b9 c2fd 513d 64f6 673b
000000c0: 56ab 85bd f367 c33d 006b bd3d abc5 9d3d
000000d0: a557 9f3d 39a1 cf3d cf2a 1f3e bd85 e5bd
000000e0: 0516 573d 14bc af3d c049 acbd 0bb9 403d
000000f0: e905 fbbd 4aa2 4f3e 3a14 2f3e f866 a73d
00000100: 2f56 853d 8e9b 683c 485b c0bd d5cf 1b3d
00000110: e9e9 b1bd 3808 9abd 386c ee3c f4a7 8bbd
00000120: 1803 9f3d 6ef1 683d 25c3 003d fcd1 4cbd
00000130: 0ac6 e6bc 3430 f23c 3708 a33d e66d 04be
00000140: 92d3 78bd a5f8 8e3d 9c15 ac3c 25f8 583d
00000150: f68d 0d3d d844 193d d677 c8bd f9f9 c63d
00000160: b89c fb3d cd98 78bd bd81 93bd cea2 e4bd
00000170: 354d b13b b558 e33d 62dd 02be ab91 cebd
00000180: 3908 b23d b816 7dbd 51d4 f93d 5347 ffbd
00000190: 3f47 dabd ac68 743d f92c ca3a 49f6 163d
000001a0: 5110 80bd 9722 debd d94c 0c3d f520 503d
000001b0: 143b 303d 7bb2 993d fa24 0b3e bc2a ba3d
000001c0: 5f0c cd3d a89b d53d d2da 373d b8bf 153e
000001d0: d0bc a43d 6e04 42bc 504f 82bb 9292 6f3d
000001e0: eb01 b03d e391 bbbd fa39 9d3d 0def d0bd
000001f0: fda8 d93d 38b0 a9bd 9ebd 19bd d6f3 0a3e
00000200: d566 8dbd 7713 0abc 7ec6 5a3d 53c8 a9bd
00000210: 0d1e 1bbd 14fc 183c fee8 183e 5da8 01bd
00000220: d2f2 bbbd 28f6 bc3d e76a fa3d 98a6 80bd
00000230: 12e1 dcbd 0449 fc3d 92f7 eb3b 081a 5f3d
00000240: e9f4 dabd 7193 a4bd 61f5 a03b 5701 3c3d
00000250: be04 d53c bd1e 83bb 21e6 1ebd bafd 90bc
00000260: f236 64bd 9c0d d4bd f2e6 9cbd 8181 0b3c
00000270: 0f92 a13d b770 96ba fb0d 4cbd a827 8a3d
00000280: 8467 553c 2d70 003e f39b c13d b052 063e
00000290: da9b 57bc d9b6 a83d 2899 aebd b8ba 5ebd
000002a0: b869 85bd c90f b1bd 270b eb3d 064a c13b
000002b0: 9e5e 28be ac78 f83d 8bb5 69bc be6e 8e3a
000002c0: d634 22bd 9db8 bc3d 5f8f 223d 2d23 313c
000002d0: abd9 cfbc 4cc3 783d 10b7 30bd fedf d63d
000002e0: bfa8 5d3b 78b6 89bd 0faf 35bc 05cd 86bd
000002f0: 4daa d8bc a60c 25bd 8840 20bd b453 f1bd
00000300: 3c1e 1ebd e58c 7bbd 579a 993c c6ac ca3d
00000310: 977c e63d 6952 08bd cccb e33d cd5a 213c
00000320: ede7 22bd 153b b8bd 29f2 34bd c4ee 873c
00000330: 6cbf 2d3d ed6a 48bd 790c 58ba b409 a43d
00000340: 7c61 ea3c 48cd be3d 1c88 b33d e632 ed3d
00000350: 91dd 8b3d 1498 4a3d f62e 043e ea9c 143e
00000360: 6e6d f73d 6529 8ebc 6a94 c2bd 1b2b 9bbd
00000370: f12e bb3d 0f7d 0a3b 5c96 2b3e edb9 be3d
00000380: a90f 21bd 40e6 263e 6b8c cfbd 11b5 c23d
00000390: 2942 ec3d 14f5 3bbe 9cd6 10be 3548 bc3d
000003a0: 8a0a 0b3e cb16 07be a4ff 373c 9cbf a73d
000003b0: 3d85 a23c d68f f23c 3986 26bd 6d8f 14be
000003c0: 11fa 593c fa66 a9bc d91b 9d3d a19f 043d
000003d0: 0a70 9d3c 8715 7f3d 5bee 0abd 5826 9e3b
000003e0: 8f26 d5bd 6c56 8b3d 08bc c23d 6e83 06be
000003f0: 1103 7d3d c490 74bd 721a c93c 35c8 02be
-0.17632458 -0.16480951 0.13942412 0.1764344 0.11320021 0.17265119 0.11009733 0.030037066
0.089575335 0.10611152 -0.060915764 0.026137086 0.01791799 -0.041299388 -0.0112357875 -0.07128488
-0.03977779 0.0689755 -0.0630733 0.024897559 -0.09345932 0.0045683095 0.050655004 -0.059606016
0.008379307 -0.029877093 -0.027529718 -0.019820957 0.08929772 0.11704381 -0.04222394 -0.045949902
0.14339462 0.08485482 0.1055061 0.15788941 0.043310203 0.016289819 -0.091272995 -0.104192264
-0.070045374 -0.0814287 0.17541924 -0.004233915 -0.08185496 -0.00025417676 0.051267393 0.0035394663
-0.0652682 0.09541311 0.09248924 0.07703718 0.07780389 0.10138173 0.15543674 -0.11207149
0.052511234 0.08580795 -0.08412504 0.04705147 -0.12256987 0.20276752 0.1709756 0.081739366
0.06510579 0.014197243 -0.093924105 0.03804 -0.08687193 -0.07521099 0.029104337 -0.06819144
0.07764262 0.05687087 0.031436104 -0.050004944 -0.028170604 0.029564 0.07960551 -0.12932548
-0.060748644 0.06981019 0.021006398 0.052971024 0.034559213 0.03741917 -0.09788482 0.09715647
0.12285751 -0.060692597 -0.0720248 -0.11163865 0.005410815 0.11100904 -0.12779763 -0.10086378
0.086929746 -0.061789244 0.12198699 -0.12464776 -0.1065812 0.059670135 0.001542478 0.03685597
-0.06253112 -0.10846441 0.034252975 0.05081268 0.04302509 0.075047456 0.13588324 0.09090182
0.10012125 0.1043008 0.044886418 0.14623916 0.080438256 -0.011841876 -0.00397674 0.05848939
0.08594116 -0.09158685 0.07677074 -0.10201845 0.10627935 -0.08285564 -0.03753435 0.13569579
-0.06904379 -0.008427492 0.053411953 -0.08290162 -0.037870456 0.009337444 0.1493263 -0.031654704
-0.09177174 0.09226638 0.12227421 -0.06281775 -0.10785116 0.12318614 0.0072011435 0.054468185
-0.10691244 -0.08035935 0.004912064 0.045899715 0.026003238 -0.004001467 -0.038793687 -0.017699111
-0.055716462 -0.10354158 -0.07661237 0.008514763 0.078891866 -0.0011477683 -0.04981802 0.06745845
0.013025168 0.12542792 0.09453573 0.1311748 -0.0131597165 0.082380004 -0.08525306 -0.054377288
-0.06514305 -0.08645589 0.114767365 0.005898717 -0.16442344 0.12132391 -0.014264475 0.0010866744
-0.03960117 0.092149 0.03968751 0.010811609 -0.025372347 0.060733125 -0.043143332 0.10491942
0.0033822504 -0.06724256 -0.0110891005 -0.06582073 -0.026448393 -0.040295266 -0.03912404 -0.11783543
-0.038603052 -0.061413664 0.018750353 0.09896235 0.112542324 -0.033281717 0.111228555 0.009848309
-0.039771963 -0.08995644 -0.044176254 0.016593345 0.042418882 -0.048930097 -0.00082416047 0.08009663
0.028610937 0.09316498 0.08766195 0.11581974 0.0682937 0.04946144 0.12908539 0.14512983
0.12081419 -0.017353723 -0.09500964 -0.07576581 0.09139813 0.002113167 0.16756576 0.09312806
-0.039321575 0.16298771 -0.101342045 0.09507192 0.115360565 -0.18355209 -0.14144367 0.0919346
0.13578239 -0.13192289 0.011230383 0.081908435 0.019838924 0.029609602 -0.04065535 -0.14507838
0.013304249 -0.020678986 0.07671327 0.032378796 0.019218463 0.06227639 -0.03391872 0.0048263483
-0.10407745 0.06803593 0.0950852 -0.13136074 0.061770502 -0.05970837 0.024548743 -0.12771685

trunk.0.bias f4 [128]
00000000: 6944 0dbd f187 b23d 286a 273e 4f50 3fbd
00000010: 60de 843e 23c6 9c3d c708 153e 2460 1dbe
00000020: 0539 123e 93c9 3abe 8607 983d 8a86 353e
00000030: 1821 1bbe caf4 db3d 522e 8abe 027c 75be
00000040: a175 9f3d bbf8 3a3e 9acc d13c e139 3fbe
00000050: 02ee d2bd 077a 68be e1b4 d83d ed89 7f3e
00000060: 5f18 1d3e 2d00 d33d 9e00 603d 2603 163d
00000070: ef8f 053e f97f 343c f0ab b7bd 47f9 35bd
00000080: 1d5a 913e a4a5 903e 2433 97be 6355 303e
00000090: 8ba9 81be 541b 97bd a06b 1cbe 3d3e 58be
000000a0: e6fc 60be a532 4c3e 5251 ce3d c4d5 6fbd
000000b0: e6f9 34be 4045 b13e 5527 ab3d c287 96be
000000c0: f9f9 7a3e 9e55 71bd 9596 be3c 2ffb e13d
000000d0: f2fd 9abe ce92 8abe 6b81 9b3e bcac 123e
000000e0: fcb9 5bbd 88d9 4cbe 4062 c83d 23c8 533e
000000f0: 6a61 28be bc31 8e3e b7ec e63d f386 463e
00000100: ff8b 993d 8d1b 92bd 38f2 343e 0a96 fc3d
00000110: 28b5 863e d8c8 303e 6ae8 fabd b8ba 21be
00000120: a1f1 4f3e b723 173c 1745 cb3d b60a 2f3c
00000130: 72e3 933d 584d 4b3e 1910 0ebd 7cd8 943e
00000140: 8e01 a13e 73c9 9cbd 9e9a 08bd ff71 9e3e
00000150: fbf0 153e 7ae2 ca3c 9d67 bcbd 0150 49be
00000160: 143a f8bd b897 a3be dc18 673e cf2a e03c
00000170: 1f3c 7e3e 210a 8cbd 36cf 0a3e d9d3 453e
00000180: 8c05 013e 62de 97bd 23ef 8b3d c72c 273d
00000190: dc0c 0bbd d8de 573e 66dc 043e ccb3 a63d
000001a0: 9656 863d 904e e0bd fa4c 1d3e f488 b13d
000001b0: 47fa fa3c 864c c23d ce73 503e f5c8 a1bd
000001c0: db39 0fbe 0aa3 bdbd 1767 8dbe a29d da3d
000001d0: 6fc2 1b3d 85ae 1b3d 26d7 3b3c 6ddd 3c3e
000001e0: a409 d83c 646a 623e ca15 3f3e a7f7 173e
000001f0: 9046 143e bf60 00be eaa1 053e d8bf 84bd
-0.03448907 0.08717335 0.16349089 -0.046707448 0.2595091 0.07654979 0.1455413 -0.15368706
0.14279564 -0.18240957 0.0742331 0.17727104 -0.15149343 0.10740049 -0.26988465 -0.23973086
0.07786108 0.18258946 0.025610257 -0.18674423 -0.10299303 -0.227028 0.10581375 0.24954958
0.15341328 0.10302768 0.05468809 0.036624096 0.13043188 0.011016839 -0.08968341 -0.044427183
0.28389063 0.28251374 -0.29531205 0.17220072 -0.25324664 -0.07378259 -0.1527543 -0.21117492
-0.21971473 0.19941194 0.10074104 -0.058553472 -0.17673454 0.34623146 0.08357111 -0.2940045
0.2450942 -0.05891954 0.023265162 0.110342376 -0.3027187 -0.27065128 0.30372176 0.14323705
-0.053644165 -0.20004857 0.09784365 0.20681815 -0.1644341 0.2777232 0.112756185 0.19387417
0.07497405 -0.07134161 0.17670524 0.12333305 0.26310086 0.17264116 -0.12251361 -0.15793884
0.20307018 0.009224824 0.09925287 0.010683706 0.07221116 0.19853723 -0.03468332 0.29071414
0.314465 -0.07655611 -0.03335058 0.30946347 0.14642708 0.024766196 -0.0919945 -0.19659425
-0.121204525 -0.3195169 0.22568077 0.027364163 0.24827622 -0.068378694 0.13555607 0.19319095
0.12599772 -0.07415463 0.06832721 0.040814187 -0.03394781 0.21081102 0.129747 0.08139762
0.06559484 -0.109524846 0.15361395 0.086687 0.03063692 0.09487252 0.20356676 -0.07899658
-0.13986914 -0.09259613 -0.27617714 0.10674597 0.038027223 0.03800823 0.01146487 0.18443842
0.026371785 0.22110897 0.18660656 0.14840566 0.14480042 -0.12536906 0.13050047 -0.06481904

actor_layers.0.weight f4 [128, 128]
00000000: 0b7a 12bd ab7a 8fbd 3ccd d2bb 6f08 363d
00000010: 9d70 453c 4b99 88bc a05a 533d 32ac 56bd
00000020: c178 80bc 3cf8 72bd 09bf 2f3a 238a 61bc
00000030: 55a3 c5bd 0588 233c 912b 93bd 4cda 7abd
00000040: 51c3 a4bd c97c 25bd 187e 4c3d 25ad a6bd
00000050: ae7e e8bc 38c4 863d d4cc b3bd 7ed2 5dbd
00000060: 7c24 3cbd f3ab 903d 6e1a 193d c7b7 2cbd
00000070: c9b3 68bc a8bb 75bd 7350 cbbc 8609 91bc
00000080: 2ed7 303d 4924 f13c 91c1 9e3d 048d d4bc
00000090: 19c9 6a3d 6e8e 8c3c 476a a03d 8a2f 98bd
000000a0: cefd 48bd 2e39 8dbd 9d72 4dbd 970e e7bc
000000b0: 12b4 363d d0c1 acba 0a69 c8bd f7f2 37bd
000000c0: fe09 0bbb 9b61 443d fddb 813d d6bd 673d
000000d0: 7653 fa3c a6b5 853d 2ef4 553d 6a66 34bd
000000e0: 20d5 223d 4870 abbd f729 b5bd b189 b8bc
000000f0: 2dc9 113d a429 90bc dc10 193d 56f9 333d
00000100: 4d6a e5bc 44e6 80bd ffd3 dc3c 45d9 0bbd
00000110: a4c2 81bd aa36 393c 35af 1fbd 4d7a c4bd
00000120: d6bd 8f3d 8b9d bebd 1f89 3f3d fb7f a43d
00000130: 76a1 9fbd 878f 5d3d d04c 3abd 90da 4ebd
00000140: cdc5 54bd c1ff d63c cbf1 9ebd 6c58 95bd
00000150: 246b 563d ddbb 3ebd c588 d4bb beb6 bc3d
00000160: eab8 90bd 086f 8c3d fdeb 50bd b6e7 073d
00000170: 268c 8ebc 08b1 19bd b9e1 46bd 11eb 41bd
00000180: 9aff 5c3d dc32 69bc 98b1 00bb 00b6 1a3d
00000190: 6438 733d 5311 82bd f874 923d 7ffd bdbd
000001a0: 59e6 b4bd f64e 55bd 7ff0 5a3d 7a44 84bb
000001b0: 1e0b 3abd 4b3e 1fbd 4cae b6bd 0ea9 8f3c
000001c0: ba00 873d af9a 3a3c 7592 12bd bebc c63c
000001d0: 7011 72bd fe88 98bd aeb1 ae3c 55d9 3b3b
000001e0: 0c0c 81bc e137 1b3b 53e2 b2bd e467 54bd
000001f0: 7d0b 7c3d 62cf 3a3d 6167 9bbd b79d 603d
00000200: 85fb a63d 8787 3b3c 143d 9f3d 4959 29bd
00000210: ea74 54bd f4f6 1f3d 43ab 6d3c 739f d43c
00000220: 32ac 4d3d ff59 8dbd 4c9e 76bc 80d9 b5bb
00000230: cdc8 a83d 81da 9d3c be12 823d a0a5 8e3d
00000240: 351f eabc 96df 383d ff13 25bd 9d13 933c
00000250: 4058 90bd 30ac f13c 31c8 a43d 1b1d 883d
00000260: dc80 8d3c 8566 51bd 7975 4cbd 4fbd 23bd
00000270: ea0f e03b 682b b9bc 61e9 833c b17b bbbd
00000280: c179 733d 51c9 1c3d 606b 9c3c afbf 04bd
00000290: c14a 453d 6da0 a6bd 533a 2dbd dc61 733d
000002a0: 053b b73d 4b0c 823c f91d 393d fc59 343c
000002b0: 1d7f 4d3d 2601 69bb dc05 55bd e116 723d
000002c0: a5bf 563c a1df 263d c88c f83b eddb 5ebd
000002d0: 4c23 203d 9d2c 21bd d58f 093d c04e 103d
000002e0: e948 4b3b 2b13 243d 8944 afbc b059 c5bd
000002f0: bdab 9dbd fc92 39bd 08b5 473d e4c3 c63d
00000300: fe65 d43c 6e53 1cbd 58ad 8b3d 57c7 273b
00000310: 6214 573b 3053 0ebd f4e4 413d b924 89bd
00000320: 00cf 543d 5572 75bd fc2b 37bd 1698 563d
00000330: a5e4 c8bd ae8e cabb 0866 833d 9ebf dfbc
00000340: 88bb 97bd 453e 7cbd 4ff9 92bc 0ca7 6b3d
00000350: 05a9 033d ada9 893d 5c55 dd3c 6bcc 9f3d
00000360: 901a 9f3d d230 bebd b4fc 3cbd 4c18 df3c
00000370: 0c31 19bc 813f 37bc 6dcb 523c a82d fc3b
00000380: 965a a43d da1f 88bd b16b 093b ca9f 893b
00000390: d014 143c 9bbc 2fbc 96d8 85bd e4c6 653c
000003a0: ae4a a63c a84e 88bd 7323 1f3d 3429 763d
000003b0: dca1 943d 09a6 803d 72dd d9bc 696f 34bc
000003c0: 4871 c13c 678a f5bc 1357 ae3d 4641 bb3c
000003d0: c8ed 263c 0132 63bb 2fde 99bd 7b47 a23c
000003e0: 81ba 8b3d 78a5 8ebd f6d9 483d 913f 91bd
000003f0: 1dda 7a3d 7601 e13a 5afc 2abd afd5 383d
-0.03576092 -0.07005819 -0.0064331573 0.044441637 0.012050775 -0.016674658 0.0516001 -0.052410312
-0.01568258 -0.059318766 0.00067041867 -0.0137658445 -0.09650294 0.00998116 -0.07186044 -0.06124334
-0.08045066 -0.040402208 0.04992494 -0.081384934 -0.028380718 0.065803945 -0.08779302 -0.05415582
-0.04593323 0.07064047 0.03737872 -0.04216745 -0.01420302 -0.059993416 -0.024818635 -0.017704736
0.04317396 0.029436247 0.077517636 -0.025946148 0.057320688 0.01715776 0.07832771 -0.07430942
-0.049070172 -0.06895672 -0.050158132 -0.0282052 0.044605322 -0.0013180319 -0.097856596 -0.044909444
-0.0021215673 0.047944646 0.063407876 0.056577526 0.030557375 0.06528787 0.05223482 -0.044042982
0.039754033 -0.08371025 -0.08845895 -0.022526594 0.035592247 -0.01759798 0.037369594 0.043938957
-0.02800479 -0.0629392 0.026956556 -0.03414275 -0.06335953 0.011304537 -0.03898545 -0.095936395
0.0701863 -0.09307393 0.04676163 0.08032223 -0.07794468 0.054091956 -0.04548341 -0.050501406
-0.05194645 0.026245 -0.07760962 -0.07292256 0.05234827 -0.04656588 -0.0064860308 0.09214543
-0.070665196 0.06857115 -0.051006306 0.03317996 -0.017400812 -0.037522346 -0.04855511 -0.047343317
0.0539547 -0.014233317 -0.0019637104 0.037771225 0.05937995 -0.063509606 0.07151216 -0.09276866
-0.08832998 -0.052077256 0.05345201 -0.0040364834 -0.04542076 -0.038877767 -0.08919963 0.017536666
0.065919355 0.0113894185 -0.035784204 0.024259921 -0.05909866 -0.07448004 0.021324959 0.0028663476
-0.015752815 0.002368443 -0.08734574 -0.05185689 0.061534394 0.045607932 -0.07588077 0.05483791
0.08153442 0.011445886 0.077753216 -0.041344915 -0.05186931 0.039053872 0.014506164 0.025954938
0.050213046 -0.06901931 -0.015052389 -0.0055496097 0.08241425 0.01926923 0.06351231 0.06965184
-0.028579334 0.045135103 -0.040302273 0.017953688 -0.07048082 0.02950105 0.08045996 0.066461764
0.017273359 -0.05112316 -0.04991672 -0.03997546 0.0068378346 -0.022603706 0.016102495 -0.09154452
0.059442285 0.038277928 0.01909417 -0.032409366 0.048166994 -0.081360675 -0.04229195 0.059419498
0.08946804 0.015875002 0.0451946 0.011007782 0.050170053 -0.0035553663 -0.05200754 0.05910385
0.013107215 0.040740613 0.007585142 -0.054408956 0.03909616 -0.039349187 0.033584435 0.03523135
0.00310188 0.040057342 -0.021394985 -0.09636247 -0.07698772 -0.04530619 0.04875663 0.09705332
0.02592754 -0.038165502 0.06820172 0.0025600994 0.0032818546 -0.034747303 0.047337487 -0.066964574
0.051955223 -0.05992349 -0.04471968 0.052391134 -0.098092355 -0.0061815595 0.06415945 -0.02731305
-0.074088156 -0.061582822 -0.017941145 0.057532355 0.03214361 0.06721816 0.027018242 0.078026615
0.07768738 -0.092866555 -0.046139434 0.027233265 -0.009350073 -0.011184574 0.012865883 0.0076958723
0.080250904 -0.066467 0.002096873 0.0041999565 0.009038165 -0.010726119 -0.06535451 0.01402447
0.020299282 -0.066556275 0.038852166 0.060097888 0.07257435 0.06281669 -0.026594851 -0.01101289
0.023613587 -0.029973222 0.08512702 0.022858273 0.010188527 -0.0034667256 -0.07513081 0.019809475
0.06822682 -0.069651544 0.04903599 -0.070922025 0.061243165 0.0017166573 -0.041744567 0.04512566

actor_layers.0.bias f4 [128]
00000000: c319 9a3d 2a8e a9bd 4c78 f33a b918 413d
00000010: f077 a33c 695d 52bd 8ae3 143d d718 1ebd
00000020: de52 febc e5b1 4e3d d65b ffbc ea54 2cbd
00000030: bb03 d63d 509f d73d d24b c73c a418 bf3c
00000040: 4958 34bd 38fc b63c 4bae 61bc 9de9 3bbc
00000050: 0d14 d3bd 0cb1 1dbc e278 2f3d 34f8 b63c
00000060: ac31 893d aa1e a2ba ecb2 b53d b565 b6bd
00000070: ca4c 8dbd 139b 9c3d a30f a5bd f333 2f3d
00000080: ec14 c03d a340 19bd c450 23bb 5769 f53c
00000090: 2015 b63d 4600 983c 82c5 97bc d8e4 acbc
000000a0: a157 233d 2cc8 b9bd eee3 25bd c205 b9bb
000000b0: 6f1a a1bd b006 1dbc f41a 6dbb 7a56 2cbd
000000c0: 153a d9bc b3f9 d2bd 8ec7 51bd 0da6 193c
000000d0: cb23 2b3d 6ef1 90bd 0924 d33b 49fe 853d
000000e0: 8608 ae3d a6fe 1fbd 7f17 6abd a910 983d
000000f0: 90ae 39bd b0bd 483d 7e79 523d 9ec9 2bbd
00000100: ddcf a33d f4bf 9c3d 436b 8cbd 0c18 a3bc
00000110: 21d9 8a3c a638 95bd d226 b73d 7a98 1e3d
00000120: a89b c13c d699 983c c621 66bd 0fb4 b3bd
00000130: 20d4 8d3d d3ab 1ebd 4d6e a23d c63c cebd
00000140: f2b0 89bc 3f2e 983d 0da8 39bd 9dd3 b5bd
00000150: 8835 f33c af9a 50bc a5d9 77bd 132c 123d
00000160: b1d0 543b 0750 babd aaca f0bc 15cc afbc
00000170: 504f a9bc 9b5a 61bd 323a 853d 10bc 8dbd
00000180: a8b6 423d e244 773b be61 713d db94 72bd
00000190: 6645 0e3d 30a2 b93d 5255 a73b a5a6 053c
000001a0: ea62 74bd acc7 393d 93db 71bd 1bf6 083b
000001b0: b4b9 7c3d a208 0dbd e7ac 65bc a539 a8bd
000001c0: 279b be3d 799a b6bd 0d15 153d 7c15 b33c
000001d0: cfe6 473d 3ab5 223d 46e3 f2bc ca8d d0bd
000001e0: b0cb 22bd 1611 f43c 4b64 4abd d98f bd3d
000001f0: 7f96 71bd ed9b febb 7a1c 633d 1300 9bbd
0.07524445 -0.08279069 0.001857528 0.047142718 0.019954652 -0.051358614 0.03634981 -0.038597908
-0.031045374 0.050462622 -0.03117172 -0.042073168 0.1044993 0.10528433 0.024328146 0.02332718
-0.044029508 0.022337064 -0.013774465 -0.011469272 -0.10306559 -0.009624731 0.042839892 0.02233515
0.06698927 -0.0012368758 0.08872017 -0.08906118 -0.06899412 0.076467656 -0.08059623 0.042774152
0.093789905 -0.037415158 -0.0024919966 0.029957457 0.08890748 0.018554818 -0.018526796 -0.021105215
0.03987849 -0.09071383 -0.040500574 -0.0056464383 -0.0786637 -0.009584114 -0.0036179395 -0.042074658
-0.026516953 -0.103015326 -0.0512157 0.0093779685 0.04178218 -0.07077299 0.0064435047 0.06542642
0.084977195 -0.03906121 -0.057151314 0.07425053 -0.04533249 0.049009025 0.051385395 -0.041940324
0.07998631 0.076538 -0.06856396 -0.019908927 0.016949238 -0.072861955 0.08942951 0.03871963
0.023633793 0.018628042 -0.056184553 -0.08774578 0.06925225 -0.038738083 0.079311945 -0.10070185
-0.016808007 0.07430696 -0.04532628 -0.08878253 0.029688612 -0.012732192 -0.060510296 0.035686564
0.0032473023 -0.09097295 -0.029393513 -0.021459619 -0.020667702 -0.05501805 0.065052405 -0.06920636
0.047537476 0.0037730266 0.058931105 -0.05922399 0.034734152 0.09064138 0.0051066065 0.008157407
-0.059664644 0.045356438 -0.059047293 0.0020898643 0.061700538 -0.03443206 -0.014018274 -0.0821412
0.09306937 -0.08916182 0.03639703 0.02186083 0.0488041 0.039723612 -0.029649388 -0.10183294
-0.039745033 0.029793303 -0.049412053 0.092559524 -0.058981415 -0.0077700526 0.05544708 -0.075683735

actor_layers.2.weight f4 [128, 128]
00000000: c25c f6bc c2ed f7bc 1da6 823d 8d19 c9bc
00000010: cb89 61bc 303c a9bd 41d6 86bd 87e5 62bd
00000020: c470 ac3c 9541 9abd 5154 773d 28d5 aebd
00000030: 9503 0cbd 19a7 b1bd 067e 0bbd ed9c 11bd
00000040: fdf0 42bc c5ee 5b3d d3fa 70bc f213 523d
00000050: aeed 653b 2adf 063d 1a3a adbd cf92 babc
00000060: a3ae 81bd 9ae7 13bd 3a32 963d 7d90 663d
00000070: 4b17 ecbc 16e7 713c d0c6 b1bd fec3 003d
00000080: 7d59 a3bd d962 7f3d 84f0 b3bd 2a50 253c
00000090: f5f9 a1bc 5e1f a23c 0451 423d a6b2 adbc
000000a0: dadf 243d 3a1a 9ebd a2de 9bbd 5d3e d5bc
000000b0: 479d 72bd 0cce b1bd b8bd 47ba 56e7 d63c
000000c0: e259 aa3c f3e1 a03d 892a 6c3d 4eeb dcbc
000000d0: ea15 77bd faf3 9c3d f797 38bc c37d 223d
000000e0: 8df0 2cbc ea67 553c 6f1e 8dbd 172a b23d
000000f0: a15e 93bd 98e2 50bb e1f7 5c3c 7849 743d
00000100: c5e5 893d 18fd f1bc 1c2b 48bd 5502 0bbb
00000110: 3c6f fd3c 2a00 373d 5a28 1e3d 567e 853c
00000120: 9e39 eabc 757e 03bd 0d93 30bd 48fd 77bd
00000130: 2841 0a3d df64 293d 5337 0dbd 0461 86bd
00000140: 41c0 2ebc 6c25 913d 0e9c 103d a457 8dbd
00000150: b2cc 94bc 1dec 5b3d 5c46 133c fe6d 2c3d
00000160: 28ca 91bd 8717 30bd 37c7 85bb ad68 723d
00000170: c7ef 18bd 5bfe 693d c8aa afbd 05ca eabc
00000180: e5b9 b3bd e475 93bd 9898 913d 6329 a1bd
00000190: 19e3 be3c 8efc d93c 5d57 f4bc 9781 9fbd
000001a0: 175f 9b3d 3cb5 82bd 9c27 8bbd 9f09 1cbd
000001b0: ff02 703d 7607 053c 5a16 ef3a 1a7b c6bc
000001c0: e1d7 f2bc 7b95 eabc 4741 82bc c46d adbc
000001d0: 5c34 313d e0c0 c43c 9e5a 8dbd d277 47bd
000001e0: 937d 9cbb 20f5 47bd c883 9cbd fbf2 0dbd
000001f0: 81ae 9a3d 70f5 d6bc e728 983c 2921 733d
00000200: de48 59bd 854b 32bd 5ade a3bc 957d a63d
00000210: 136a 16bd 1dce 06bd 84d7 36bc 8ca6 bebb
00000220: 78b6 48bd 8863 893d d528 d93b 3b8c 763d
00000230: c79c 6d3c 2147 8fbd 92cd 5a3d 55b9 80bd
00000240: c498 0c3d c9ae 973d 84cb 7ebd 7724 0ebd
00000250: 1813 893d ec6d f8bb cfb9 d6bc 9885 aabd
00000260: 7b14 72bd c13b 57bd 7912 eeba 81e1 dc3c
00000270: c71c be3a 86c9 203d 35fd ddbc 72ac aa3d
00000280: 9ee8 7e3d 5698 943d ea3e a4bd 9553 25bd
00000290: 1a23 9a3d fbe8 94bd e7aa e33c a76d 9d3b
000002a0: 1843 3e3d 0167 b5bd f4ec fb3c 71fc 2ebb
000002b0: 3722 c63c 946a 873d e250 62bd 8783 bb3c
000002c0: d64a 2f3d c6e2 903c 3c6b 22bb 1dd9 a6bd
000002d0: 145a 90bc 38ff 80bd 977d 04bd 3d73 b9bd
000002e0: c171 043c 087a 993d de9f 8f3d 4692 9dbc
000002f0: f51c a0bc 0071 983c ffc1 913c 1308 5ebc
00000300: a9d0 3b3d cb49 a4bd 1065 423d ec3d 5d3d
00000310: 3236 e43c 6ba1 69bd 7404 a83c 14cc 873d
00000320: eaa2 9bbd 93d8 ac3d 046f 7c3d 4e03 ecbc
00000330: 4c2c 47bd 1145 173d e7e9 6fbd 18a1 983d
00000340: f9e5 943d 7322 d6bb a608 8c3d 8c9d 183d
00000350: 7da3 c6bc e189 963d 5b2a f63c 8163 33bd
00000360: 091d 1b3d 3ea0 73bd 5442 013c 681f 4d3d
00000370: fffe b4bd cb39 393c bec1 7a39 2fed 6dbd
00000380: 864d cabc bc9c 0f3d a80b 26bd 8bd9 fdbc
00000390: 69a4 573d 9615 6a3d 9281 84bd 7dd8 893c
000003a0: 8b0f b5bd b646 183d 83df 90bd 3ab2 e8bc
000003b0: 6427 2cbb d6de 1f3d 040b d93c bdb8 a1bd
000003c0: d519 483d 98f1 98bc 0e2f 893d e5e2 97bd
000003d0: ace0 8cbd 30e1 1a3d c8b0 04bd 9403 4bbd
000003e0: 3a26 afbc e5c4 1f3d 21c6 c4bd 11e1 75bc
000003f0: 5c67 823d c85f b1bd 4ddf 85bc 2306 f9bc
-0.030073527 -0.030264739 0.0637934 -0.024548316 -0.013765763 -0.08263433 -0.065838344 -0.055394676
0.021049865 -0.0753204 0.060383145 -0.0853675 -0.034183104 -0.086744495 -0.034055732 -0.035550047
-0.011898276 0.053694505 -0.014708239 0.051288553 0.0035084295 0.03292767 -0.084583476 -0.022775082
-0.063321374 -0.036109544 0.07333799 0.05629014 -0.0288197 0.014764568 -0.086804986 0.031436913
-0.07976053 0.062350128 -0.08786109 0.010089913 -0.01977251 0.019790348 0.047440544 -0.02120335
0.040252544 -0.07719846 -0.07610823 -0.026030714 -0.059232023 -0.086818784 -0.0007619518 0.026233356
0.020794813 0.078555964 0.057657752 -0.02696767 -0.060323633 0.07663722 -0.0112667 0.039670717
-0.010555399 0.013025263 -0.0689057 0.08699434 -0.071957834 -0.0031873342 0.013486833 0.059640378
0.06733278 -0.02953963 -0.048869237 -0.0021211107 0.03093683 0.04467789 0.0386127 0.016295593
-0.028591927 -0.03210302 -0.04310899 -0.060544282 0.033753544 0.041355964 -0.03447659 -0.06561473
-0.010665954 0.07087216 0.035305075 -0.06901482 -0.018164013 0.053691972 0.008988943 0.042097084
-0.07118636 -0.042991187 -0.004082586 0.059181858 -0.037338044 0.057127338 -0.08577496 -0.028660784
-0.08775691 -0.0720022 0.07109183 -0.07869222 0.023301648 0.026609685 -0.029826814 -0.07788389
0.07586496 -0.06382224 -0.06794664 -0.038095113 0.058596607 0.008119455 0.0018240914 -0.024228621
-0.029643955 -0.028635731 -0.015900267 -0.021170504 0.043262824 0.024017751 -0.069020495 -0.048698254
-0.004775712 -0.048817754 -0.07642323 -0.034655552 0.07552815 -0.02624008 0.018574191 0.059357796
-0.053048007 -0.043529052 -0.020003486 0.081294216 -0.036722254 -0.03291141 -0.011159781 -0.005818194
-0.04900214 0.06708437 0.006627182 0.060192328 0.014502711 -0.06995989 0.053418703 -0.06285349
0.034325376 0.074063845 -0.062205806 -0.034702744 0.06693095 -0.007581463 -0.026211647 -0.08326262
-0.059101563 -0.05254722 -0.0018163464 0.026962997 0.0014504426 0.039254688 -0.027098278 0.083336726
0.06223356 0.07255618 -0.080198124 -0.040362913 0.07526226 -0.07271 0.027791454 0.0048043313
0.046450704 -0.08857537 0.030752636 -0.002670076 0.024186237 0.06612125 -0.055252917 0.022889866
0.04279598 0.017686259 -0.0024783155 -0.0814688 -0.017621078 -0.06298679 -0.032346334 -0.09055183
0.008083762 0.07493979 0.07012914 -0.019234788 -0.019545058 0.01860857 0.0177927 -0.01355173
0.04585329 -0.080218874 0.047459662 0.05401413 0.027857874 -0.057038706 0.020509936 0.06630722
-0.07599433 0.08439746 0.06162931 -0.02881017 -0.04862623 0.0369311 -0.058572676 0.07452601
0.07270426 -0.0065348684 0.06837587 0.037259623 -0.02424788 0.07350517 0.030049494 -0.043796066
0.037869487 -0.05947899 0.007889349 0.05007878 -0.08837699 0.011305283 0.00023914032 -0.058087524
-0.02469517 0.035061583 -0.04053846 -0.030987522 0.052647028 0.057149492 -0.06470026 0.016826862
-0.08840855 0.03717681 -0.070738815 -0.028405298 -0.0026268596 0.039030872 0.02649451 -0.07896564
0.04885276 -0.018669888 0.06698428 -0.074163236 -0.0687879 0.03781241 -0.032395154 -0.04956396
-0.021380533 0.039006133 -0.096081026 -0.015007273 0.063673705 -0.08660847 -0.01634183 -0.030398434

actor_layers.2.bias f4 [128]
00000000: 0f6e e6bc cfd8 80bd 804f bbbd 70ab 333d
00000010: 99fe 7ebd e895 42bc 90ab efbb b9c2 0ebb
00000020: cd50 733d a638 e8bc 4015 cfbc 024b 3a3d
00000030: 149b de3c 2239 a93d 301f 453d bcd7 9a3b
00000040: f3d3 053e c1a8 743d 618b 61bd 5b00 9cbd
00000050: f3dd ac3d f2e9 43bd db36 803d 4d7b a8bd
00000060: 4298 033e 661e dfbc 2d50 74bd b8b0 58bc
00000070: b15d dbbc c222 c3bd 40b5 d9bc 6d3e 813d
00000080: 27cc 01bd e973 96bc 5158 10bd bed5 a53d
00000090: e3bf 4cbd b48a 7e3d 2622 82bd 7417 30bc
000000a0: 1bfc 6cbd 2425 e0ba 41ce 133d 5699 7cbd
000000b0: 58f6 7abd 9497 35bd 169a 68bd d2bd d8bc
000000c0: 7426 80bd 2d0f 32bd 9b71 383d 0589 2abd
000000d0: 968e 483d 6dd7 46bd cb7c 443c e27c 0c3d
000000e0: b3e1 75bb e397 833c 86a3 adbd dbe3 bc3c
000000f0: bee2 6fbd 4792 a83d 5ab1 673d f579 87bd
00000100: deed a4bd 0380 87bd c10a b2bc 6257 97bc
00000110: 5faa bf3d 45c0 8e3c 12bc 1ebc 54f5 123d
00000120: cd89 923d 4c3e f2bc e47a 963c 7bd4 3abc
00000130: 2a79 c7bd ba18 6bbd 9749 173d 195f fa3c
00000140: 2a6c 65bd f951 fb3d 5cc2 c1bc a191 20bc
00000150: a53c 9e3d b422 babb 4d27 a63d 5a8a 393d
00000160: 52e5 f43b ca8c 8b3d 0348 7e3d aa7b 733d
00000170: f281 1d3c 11b5 003e fad1 243d f0bb 683c
00000180: 4c48 023d 07c6 183c 14f5 b43c 3a05 f4bb
00000190: a1e9 4dbd bcae 693d 1e4a 043e 73f6 57bd
000001a0: c997 ba3d cb11 60bd a5c6 8ebd 0a29 a33d
000001b0: a081 5abd 650f 46bc 9c0f ee3c d2c1 3c3d
000001c0: 127b 80bd 9435 2dbd f23d 83bd 9f82 8fbd
000001d0: 97a9 36bd f117 e83d f656 a4bd 2854 9e3d
000001e0: 9eff ed3d fece 353d d89c 743d f36a 80bc
000001f0: 25f7 b03c 4992 823d 0440 b4bd 5ee4 3fbd
-0.028128652 -0.06291353 -0.09146023 0.043864667 -0.062254522 -0.011876561 -0.007314153 -0.0021783544
0.05940323 -0.028347325 -0.025278687 0.04548169 0.027173556 0.0826285 0.048125446 0.0047254246
0.13069133 0.05973125 -0.055064563 -0.07617255 0.08440771 -0.04783053 0.06260463 -0.08226643
0.1285105 -0.027236175 -0.059646774 -0.013225727 -0.026778074 -0.09528114 -0.026575685 0.06310735
-0.031688835 -0.018365817 -0.035240475 0.08097409 -0.049987685 0.062143996 -0.063541695 -0.010747779
-0.057857614 -0.0017100913 0.03608537 -0.06166967 -0.061270088 -0.04433401 -0.056787573 -0.0264577
-0.06257334 -0.043471504 0.045030218 -0.04163458 0.048964106 -0.04854529 0.011992644 0.034298785
-0.003751856 0.016063636 -0.08478455 0.023057869 -0.058565848 0.08231025 0.05656562 -0.06615058
-0.08053182 -0.06616213 -0.021733643 -0.018474285 0.093586676 0.017425666 -0.009688394 0.035878494
0.0715519 -0.029570721 0.018369146 -0.011403198 -0.09739907 -0.057396628 0.036935415 0.030562924
-0.056011356 0.122714944 -0.023652248 -0.009800346 0.07726411 -0.0056804065 0.08112965 0.045297958
0.007473626 0.06813963 0.062080394 0.059444107 0.009613501 0.12569071 0.04023931 0.014204964
0.03180723 0.009324557 0.022089519 -0.007446912 -0.050271634 0.057051405 0.12918898 -0.052725267
0.09110982 -0.05470447 -0.06971482 0.07966812 -0.053346276 -0.012088631 0.029060178 0.04608328
-0.06273474 -0.042287424 -0.064082995 -0.07007336 -0.044595327 0.113326915 -0.08024399 0.07730895
0.11621021 0.044386856 0.05971989 -0.015675997 0.021602223 0.06375558 -0.088012725 -0.046848647

actor_layers.4.weight f4 [128, 128]
00000000: 880d 423d 8880 b43c 4243 4dbb f829 c83d
00000010: 9ef8 aabc 663c 203c ee1c bfbc 587a 543d
00000020: 5116 b6bd 886b 763d d0b7 433d cb5d 00bc
00000030: 7f33 77bb bd72 af39 a1d4 33bd ada5 983d
00000040: 6808 febc 6956 943d c179 50bd bb53 5ebd
00000050: 2b4f 043d 20f0 93bd d245 b03d f233 93bd
00000060: b7d1 113d 75bb 173d 2561 b8bd 7885 c23b
00000070: 58fb 57bc ce53 8b3d 3a93 163d ce86 8cbd
00000080: 3148 273d 8e4a ec3c 9d74 b53a d1cf 93bd
00000090: fc2a 743d 4c7e aeb9 6efa 273d 13b9 87bd
000000a0: 35ec 5c3d 2b74 69bd 4d59 26bd 8295 23bd
000000b0: 5e4d b23d 6822 c2bc 9bf1 93bd 2349 143c
000000c0: 6d95 bebc 9b9e b33d 4870 523d f00e c1bc
000000d0: 49e7 23bd 86bf 50bc e059 f23c 8371 21bd
000000e0: 8684 6ebd 8cab 6f3c b1f9 44bd a87a fb3c
000000f0: 6414 67bd 47c4 10bd 3a25 a03b 7d17 1f3c
00000100: fe6f 613d 0516 8e3d e0c4 763d 3118 0cbd
00000110: 69c7 00bd 29de b8bc 25fa 19bd ec91 8dbb
00000120: 4eb4 c63c e555 bc3d ef09 333d f59d 75bd
00000130: 61d5 573d 7a77 283d c210 a2bc e8bd 7f3d
00000140: ffb7 3cbc fba5 603d b88a c0bd 5a8e 44bd
00000150: 3c0f 65bd 9a62 213d 5489 3dbd 1490 ef3c
00000160: fead a03d de5f 2dbd f1b1 3f3b 71d6 a93d
00000170: 8498 dfbc 169b 96bd 800d 8d3d 3d57 b83d
00000180: 41de 9c3c 96f1 2e3d 7f08 b03c 9a88 46bb
00000190: 8ef8 afbd 1f28 5d3d b1db 9cbd 2192 e9bc
000001a0: 9b31 c53d 4ad0 433d 7667 29bd e40f 733d
000001b0: 6104 d93c c924 a03d 3854 6a3d 11df 95bd
000001c0: f093 943d e6ab bfbc 1fca 883d 28d4 003d
000001d0: b615 023d ba2a 9b3d e33e b3bd 4128 46bd
000001e0: 1bdf e63a ceec 80bd 9130 fdbc 0fbd 0ebd
000001f0: 863f 5bbd 4687 2d3d 2b35 18bc 9a88 59bd
00000200: e603 99bd daf8 413d 0660 15bc bef6 483d
00000210: 96dd 75bd 07b6 d13d 6c59 5b3d e338 dfbc
00000220: d420 893d ad27 993d a46e 913d ac95 27bc
00000230: e411 a63b 8f8a fb3c 2e81 30bd 7b7c a5bd
00000240: 1f0c b93b adeb 813b 1c4e 35bc 4a2f 86bd
00000250: 45fc 40bc 6583 c93c 3f88 183d a2ce 9cbd
00000260: e2f1 213b 814f 9cbd b99f 803d bf3d 3cbb
00000270: 5f53 45bd 2e9a c6bd 8a97 883d 1b4e a8bb
00000280: c85b 65bd ed3b f33c 3516 5fbd 8551 a4bd
00000290: 1049 4b3d 9aac a4bc e3ea c0bc 1007 1e3d
000002a0: 5ab8 0cbd e467 a63d 377e 903d 23eb 4ebd
000002b0: 1fb4 a8bd 8897 9cbd 3bbe 8cbd 25bd a5bd
000002c0: f867 21bc a8fb 0c3d 4fa2 293c da08 a53c
000002d0: 4cd8 183c 40f5 913c 6936 3cbd c494 ab3d
000002e0: 516e 9f3c edb4 913d 4ce2 af3c 017a 9abc
000002f0: bff1 c5bc 0680 353c 450f 3ebd 9e1c 953c
00000300: 0adc 313d 3619 093d 1bbc a0bb 77f8 4abd
00000310: 29c6 c3bc 083c d9bc 8755 62bc 0c23 35b9
00000320: 093d 6d3d d2c7 d93b ca86 1ebb 0163 a03d
00000330: 87e2 aa3d 3395 403d 35e3 643d 070a 7cbc
00000340: fb24 bd3c b569 17bd d367 953d ac7c 4b3d
00000350: 81c5 b1bb 5818 64bd 33db 2cbc f6e3 a5bc
00000360: 6ba2 00bc bf48 023b 4f58 9b3d 093e 6bbd
00000370: 765b ac3d cc18 8bbd 474f 863b f990 5d3d
00000380: 9f18 843c e02f c23c e3d7 75bd f8d8 5bbb
00000390: 4c67 cdbc 18be 62bd 8335 33bc 1cba a93c
000003a0: b7a6 0bbd e1b6 763d 4691 a43d ebfa 29bc
000003b0: def1 9cbd 441e ed3c b652 553c e346 0abd
000003c0: b3f3 7f3d 81ee c53c 9933 12bd 7187 d13c
000003d0: 04e9 99bd f956 1abd 1968 c3bb 830d 893d
000003e0: 84bb ac3c d3aa a93d dac1 4fbd 6445 21bd
000003f0: eec5 7c3d 00f6 ca3c 593b 553d 4a64 063d
0.047376186 0.022033945 -0.0031320606 0.0977363 -0.020870503 0.009780025 -0.023329224 0.05187449
-0.08890975 0.060161144 0.04778272 -0.007834862 -0.0037719903 0.00033464088 -0.04390395 0.07453475
-0.031009868 0.07243044 -0.050897364 -0.05427907 0.032302063 -0.072235346 0.08607067 -0.07187642
0.03560039 0.037044007 -0.09002904 0.005936321 -0.013182484 0.06803094 0.0367615 -0.068616495
0.04084033 0.028844144 0.0013843958 -0.07217372 0.059611306 -0.00033281965 0.041010313 -0.06627097
0.053936202 -0.056995552 -0.040612508 -0.039937504 0.08706163 -0.023698047 -0.07223817 0.00905064
-0.023264611 0.08770486 0.05137661 -0.023566693 -0.040015493 -0.012740975 0.029583871 -0.039414894
-0.058231853 0.014628302 -0.048089687 0.030698135 -0.05641593 -0.035343435 0.0048872503 0.00971019
0.055038445 0.06937794 0.06024635 -0.03420276 -0.031440172 -0.022566872 -0.037592072 -0.0043203738
0.024255898 0.091960706 0.043710645 -0.059965093 0.05269373 0.041129567 -0.019783381 0.062436968
-0.011518477 0.05484579 -0.094014585 -0.04798732 -0.05592273 0.039400674 -0.046273544 0.029243506
0.078456864 -0.042327754 0.0029250348 0.082928546 -0.027294405 -0.07353799 0.068873405 0.090010144
0.019148948 0.042710863 0.021488426 -0.0030293823 -0.0859233 0.05399334 -0.0765909 -0.028512063
0.09628602 0.04780606 -0.041358434 0.059341326 0.026491346 0.07819516 0.057209224 -0.07317937
0.07254779 -0.023397397 0.066791765 0.031452328 0.031758986 0.07576509 -0.08752229 -0.048378233
0.0017614098 -0.06295167 -0.030906947 -0.03484827 -0.053527378 0.042365335 -0.00929002 -0.05310879
-0.07471447 0.047356464 -0.009117132 0.049063437 -0.060025774 0.10239797 0.053552076 -0.027248805
0.066957146 0.07478271 0.07101181 -0.010228556 0.0050680507 0.030705718 -0.043091945 -0.080803834
0.005647197 0.0039648623 -0.011065986 -0.065519884 -0.011778896 0.024598787 0.03723931 -0.076565996
0.0024710824 -0.07632352 0.06280465 -0.0028723327 -0.048175212 -0.09697376 0.06669529 -0.005136264
-0.055995733 0.02969166 -0.054464538 -0.08023361 0.049630225 -0.020101834 -0.023549503 0.038580954
-0.0343555 0.08125284 0.070553236 -0.050517213 -0.0823748 -0.0764609 -0.06872221 -0.08092717
-0.009851448 0.034419686 0.010353639 0.020145822 0.009328913 0.01781714 -0.045950327 0.08377984
0.019461783 0.07114587 0.021470211 -0.018857004 -0.024163125 0.011077886 -0.04640128 0.018202122
0.043422736 0.03347131 -0.0049052364 -0.04955336 -0.023898201 -0.026517883 -0.013814337 -0.00017274561
0.057919536 0.006646135 -0.0024189227 0.078313835 0.08343988 0.047017287 0.055880744 -0.01538325
0.023088923 -0.036966044 0.072951935 0.049679443 -0.0054251556 -0.05568728 -0.010550308 -0.020250302
-0.007851223 0.0019879786 0.07585203 -0.05743221 0.08415882 -0.06791839 0.004098806 0.054093335
0.016125022 0.02370447 -0.06002034 -0.0033546071 -0.02507367 -0.05535707 -0.010938051 0.020718627
-0.03409454 0.060233 0.08035521 -0.010374765 -0.0766332 0.028945096 0.013020208 -0.03375901
0.06248827 0.02416158 -0.03569374 0.025577279 -0.07515147 -0.0376806 -0.005963337 0.0669203
0.021085508 0.08284535 -0.05072198 -0.039372817 0.061712198 0.024775505 0.05205855 0.032810487

actor_layers.4.bias f4 [128]
00000000: ffbc 89bc c146 acbd 6417 4b3d c9a0 84bd
00000010: 42b7 41bd 982b a33d a31f 333d ba32 773d
00000020: c4a7 5a3d 7e33 87bd c9ea a03c 734c 50bc
00000030: 5edb 863d ebd1 c23d 10c3 9b3d e47e 04bd
00000040: 1162 b53c 6680 8d3c 2455 8e3c 498a 5b3b
00000050: 28fd 7dbc 2be4 523d 4635 c73d 9b4b 4b3d
00000060: 5c4b 5c3c edb9 ee3c 7054 c63d efa9 e0bd
00000070: cc6e 4b3d dd94 623d 32a0 803d 8b86 5cbd
00000080: e7ee 0b3d 7ee0 1f3d 2faf adbd 5bf7 c6bd
00000090: e07a 5dbc 7ff1 f83b d6b8 4f3d cb81 c2bc
000000a0: 5465 0dbd 44aa 75bc ec24 1c3d ed45 03bd
000000b0: 051a 00bd c26e a43c 67ce 313d 71e1 36bd
000000c0: 570e 3abc f55b 81bb 9bdd 653d 8bc6 19bc
000000d0: b78a ab3d fdfd edbc 04f2 5bbd 875d 99bc
000000e0: 42f5 8ebc 16c8 0b3d 614b 463d 3e0a 84bd
000000f0: b978 953d 7b8f 36bd 84c9 d2bc 7168 94bd
00000100: 0225 9d3d acb7 3ebc e1f9 c93c 5e1e c5bc
00000110: 99f3 013d 2307 853d 1570 3dbd 0394 563d
00000120: f228 443d 9213 193d 7e43 54bd c0af 253d
00000130: 1082 f53c 9f16 e73c c74a 8d3d b644 6a3d
00000140: a11d 8b3d 8458 9cbc 4f00 a83d 02ac c4bc
00000150: 1021 48bc cfdc 90bd dd75 523d c372 9fbc
00000160: 9cc7 53bd c3f7 643d 7468 98bd b1c8 c9bd
00000170: c8c8 97b9 12a2 953d fc91 403c 7d2d b0ba
00000180: 7b5e edbc 6989 c1bd 03d2 acbd 73aa e5bc
00000190: a24e a5bd 33d9 b2bd 3eb0 9dbc 1b34 a1bd
000001a0: 2126 383d 4553 cfbc 49e9 09bd 2228 91bd
000001b0: a80b 90b8 6d78 a13d 2efc 1d3d 9c93 6ebd
000001c0: e0bd a6bb 6030 52bc 5caa d73d 682a 6fbd
000001d0: 546c bc3d d61b e4bb 9439 80bd 76c1 12bd
000001e0: c206 9fbc 1626 69bd 48a3 023d c735 dd3b
000001f0: 9c7e 88bd ad76 093c 47dd 9fbd 568c 86bd
-0.016813753 -0.08411933 0.049582854 -0.0647598 -0.04729391 0.07967299 0.043731343 0.06035111
0.05338265 -0.06601618 0.019643204 -0.012713539 0.0658481 0.09512695 0.076055646 -0.032347575
0.022141488 0.01727314 0.017374583 0.0033499172 -0.015502252 0.05148713 0.09726958 0.04963265
0.013445701 0.02914139 0.09684074 -0.10969912 0.04966621 0.05531775 0.06280555 -0.053839248
0.034163382 0.03903245 -0.08480679 -0.09715148 -0.013518065 0.007597148 0.050713383 -0.02374353
-0.034520462 -0.014994208 0.03812115 -0.03204911 -0.031274814 0.020072345 0.04340973 -0.04464859
-0.011355958 -0.0039477297 0.056119543 -0.009385715 0.08376067 -0.029051775 -0.0536976 -0.018721355
-0.017450932 0.034126364 0.04841173 -0.06447266 0.07298417 -0.044570427 -0.025730856 -0.07246483
0.07673074 -0.0116404705 0.024655284 -0.024062332 0.031726453 0.06495502 -0.046249468 0.05238725
0.04789061 0.03737218 -0.051822178 0.04045081 0.029969245 0.028209029 0.06899028 0.057194434
0.06792761 -0.019085176 0.08203184 -0.024007801 -0.012214914 -0.07073366 0.051381934 -0.019463902
-0.051704034 0.055900346 -0.07441798 -0.09852732 -0.00028950558 0.07306303 0.011753555 -0.0013441291
-0.028975716 -0.09450037 -0.08438494 -0.028035378 -0.08071639 -0.08732834 -0.019249078 -0.078712665
0.044958238 -0.02530826 -0.033669744 -0.07087733 -6.868626e-05 0.078842975 0.038570575 -0.05824624
-0.005088553 -0.012828916 0.1053054 -0.05839005 0.092003495 -0.006961326 -0.06260982 -0.03582903
-0.019412402 -0.056921087 0.031894 0.0067507955 -0.06664774 0.008390111 -0.07805877 -0.06569736

actor_mean.weight f4 [1, 128]
00000000: 4264 cabb a30d 91bd bd7c 06bc 1cdc 50bd
00000010: 4884 293d 8d3d 07bc 2ea1 cbbc 76fc ef3c
00000020: a4fb b23d 119e 66bc 33fc 1e3b 067d a53d
00000030: 3a7e 31bd 3a84 88bd 6d34 c9bd 2405 9d3d
00000040: a5c0 603d 911f 59bd c47a 903c b829 b73b
00000050: eea5 803d 7d5e 1b3d 3d0d c2bc c5cb 84bd
00000060: 2e2f 0e3c 9045 6c3d 40ed f0bc a9bf 123a
00000070: dc98 453d 9773 febb a544 3fbd 1fc1 35bc
00000080: d1a2 d03d 54b4 abbd 0327 4bbd 95ef 19bc
00000090: 362d 403c 70f8 0f3d 1fdc aabd 52e7 84bd
000000a0: 0a14 88bd 8946 0c3d 4df1 6e3d 7a84 4a3d
000000b0: 8332 bbbb 56d4 6a3d bbdd 8c3d e31a 893d
000000c0: ba87 7b3d 5a22 9cbd fb9f f7bc fa4f 863c
000000d0: af21 82bc 9c43 e73d 013c 6a3d 917c 59bd
000000e0: 766e 17bd 77a3 3dbd 2f0b 75bd 5a58 233c
000000f0: b361 03bd 1570 043d 10c4 453c 08cb 943d
00000100: aebc db3c e7f8 89bd 953f 663c 0c3e c8bc
00000110: 5038 d1bc f682 cabc 7edd 1f3d 2a56 54bb
00000120: 4813 e03b ed8f 0b3d 4e3c e93c 381d 14bd
00000130: 2004 9ebd 4e64 7c3b 863f a9bb 8ef5 85bd
00000140: f33d 9bbb dcd2 903b d70e 21bd 2272 4dbd
00000150: 4131 713d ce21 5cbd 94cf 253d 4323 a53c
00000160: c952 72bd 1d0f 483d 276b 593c ddfe b9bc
00000170: c881 ac3d c20b 873c ee3e 9f3d e84d 3c3c
00000180: 15ce 9d3d f5ad 91bd 8f12 edbb 896a 8a3c
00000190: b101 e13a 829a 21bc 9e51 4a3c 61da 26bc
000001a0: cea9 54bd 4742 4d3d 5d09 493d e004 3bbd
000001b0: d657 9e3d e7f2 2d3d dd1d 1e3c 912a aabd
000001c0: 976d c9b8 6f05 163b 0492 babd 6008 253d
000001d0: 8783 99bd 5384 4d3b 9ed9 193c a0bf eabb
000001e0: e821 a23d dbf3 06bc 60ec ca3d 3b16 583d
000001f0: 0473 94bb 3ed2 dabb 23c3 18bb 0d39 66bd
-0.0061765024 -0.07082679 -0.008208451 -0.050991163 0.04138592 -0.008254421 -0.02485713 0.029295187
0.08739403 -0.014075772 0.002425921 0.08080487 -0.04333327 -0.06665845 -0.098244525 0.07666996
0.05487122 -0.05300862 0.017636664 0.00558969 0.062816486 0.037931908 -0.023687953 -0.064841785
0.008678241 0.057683527 -0.029410005 0.00055980176 0.04824148 -0.007765244 -0.046696324 -0.011093407
0.10187305 -0.08384004 -0.04959775 -0.0093955 0.011729529 0.035149038 -0.08342766 -0.06489433
-0.06644447 0.034246955 0.05833559 0.049442746 -0.0057128086 0.057331406 0.06878229 0.06694581
0.061408736 -0.076237395 -0.030227652 0.016395558 -0.015885202 0.11292192 0.05718613 -0.05309731
-0.036970578 -0.04629847 -0.05982512 0.009969795 -0.032075595 0.032333452 0.012070671 0.07265288
0.026823368 -0.067369275 0.014053245 -0.024443649 -0.025539547 -0.02472065 0.03902959 -0.003239999
0.006838236 0.034072805 0.028471138 -0.036160678 -0.077156305 0.0038511935 -0.0051650433 -0.065409765
-0.0047376095 0.0044196676 -0.039320793 -0.050157674 0.058884863 -0.053743176 0.040481165 0.020158416
-0.05916098 0.04884254 0.013270176 -0.022704536 0.08423191 0.016485099 0.07775675 0.011493184
0.07705323 -0.07113258 -0.0072348784 0.016896503 0.0017166642 -0.009863498 0.012348561 -0.0101839015
-0.05191975 0.050112035 0.049081195 -0.045658946 0.07731597 0.042467978 0.009650675 -0.083089
-9.6048396e-05 0.0022891422 -0.091098815 0.04029119 -0.0749579 0.003135939 0.009390263 -0.0071639568
0.07916623 -0.008236851 0.09908366 0.052755576 -0.0045303125 -0.006677895 -0.002330967 -0.05620675

critic_layers.0.weight f4 [128, 128]
00000000: 19a0 5abc 46b2 2f3d 2904 82bd 6995 bfbd
00000010: 22ae 513d 6cfb 893d d909 5b3d c1fe 203c
00000020: 4316 9dbd 922c 8ebd 83e1 243d a4c6 383b
00000030: 67fc 953d ad58 ca3c 9337 e7bb 62d4 2ebb
00000040: 689d 093d ee8a 2ebd 8ff1 0f3d c168 dcbc
00000050: 4f5f 983d e0cb cf3b 2ecd 4a3d d6c5 563c
00000060: f00b a6bc ab2e 83bd a42c d93c 3187 2c3d
00000070: 6428 0d3d 96c4 303c d409 e1bc 7e60 ea3b
00000080: 73f4 9abd e310 9dbc 8502 a5bd 7808 b6bd
00000090: 4cc0 b0bc 019a 893d 5db8 0a3d 4767 0e3d
000000a0: b73c 18bd faa9 8b3d 6f98 d73c 0332 423d
000000b0: f256 88bd f947 0ebd aff3 063d 7870 85bd
000000c0: 7846 97bd 81d2 4a3d b9d2 1ebd aa44 11bd
000000d0: 9dc5 d4bd 9fe5 54bd f73a dc3d 637f 1abd
000000e0: ce55 793c 9db7 7abd 5836 48bd 3eb5 95bd
000000f0: 2907 57bd 8110 dbbb 608f f73c 16cc 1cbd
00000100: e22b 64bd 0699 da3c decb 84bd 09cd 9dbc
00000110: d8b2 ca3d 3e69 ff3c caa8 49bd e10f 863c
00000120: 195f 633c 7fa8 b23d 4662 65bd 0cdc cbbc
00000130: 562d 7cba 33ca 7abd f941 73bd ef8b ecbb
00000140: 081f 61bd 9ec0 02bd 3a2b 123d cd06 d03d
00000150: 8325 47bc 73a0 663d a6a8 a6bd 76c7 b3bd
00000160: cb29 7b3d 9853 c5bd 6173 943c 49a3 8fbd
00000170: f08c 473d 8f09 5dbd 826e 693d 5f82 a13d
00000180: 9c96 6a3c 2d15 acbd 3022 c4bd 83e0 4bbd
00000190: b3b9 953d c6f0 3e3d 54a8 1f3d 916b a83d
000001a0: 7138 423d 2380 88bd eef7 a43d fb66 933d
000001b0: 4bff 17bd a9d4 cebb 0dba 0fbc ad1b c13d
000001c0: 584f b5bd 29e6 23bd 7632 cfbb 3601 df3c
000001d0: fc8b 0cbd 2ed6 643d 9f38 593d 7f12 ba3d
000001e0: 00ef 5ebd a834 ef3c 9728 1d3d 76f2 853d
000001f0: 680b 99bd 3ac6 36bd a1b9 763d a74e f73c
00000200: c68e 1e3d 8c8e ba3c bf7a 87bc 3215 1e3c
00000210: 1fcb 463d c086 0ebd 8b3e 733d a83f 3ebd
00000220: 59cc 70bc a12f 12bd b0bb 85bd 4c23 41bd
00000230: b599 a7bd c9c4 013d adc5 c6bd 42e8 15bd
00000240: fe2d 0a3e a22a 283d 5d91 b33c 3399 37bd
00000250: 721c a13d be94 05bd 6929 2abd d6e8 58bd
00000260: 9545 3e3d 0979 90bd 39c3 a73d ad12 bc3d
00000270: b41b adbd 97a0 ba3d b0b9 6bbc 0869 ab3a
00000280: cfe0 b53d 592b 593d 765e a1bc 934d a43d
00000290: e875 3d3d cc58 cf3d 646b bebd a590 e83c
000002a0: 07c7 0ebd af75 913d 51f7 8c3d 6400 bbbd
000002b0: e2d4 17bd e509 aabc 7035 2bbd 9b99 a0bd
000002c0: 3f3d b339 b02a eb3c 318e e63c 0b01 e63b
000002d0: cd27 a3bd 4396 f83c 3d0c 933d fb21 283d
000002e0: 824a a6bc aaa0 863b 440d b63d 00d4 2bbc
000002f0: cd09 793d beed 39bd 8c96 bebc 1a5d 1bbc
00000300: 0d66 10bd 59d6 c03c 5d09 823d d409 483d
00000310: f40a 203d ab03 d23c c1ae 8fbd ad0a 653d
00000320: 5858 b4bc 695b b53d 2df0 7c3c eb79 663d
00000330: afcf 853d 14f9 9c3c 014a 423c 13bf 483d
00000340: fa21 55bb 27cd bcbd 859e 053c 0ae9 703d
00000350: ac24 2ebd 9630 dc3c 3160 3abd 1a14 ca3c
00000360: dcf7 7f36 37e4 c2bd 0428 a03d 1258 d8bc
00000370: faa0 73bd 1790 913d b2aa 6dbd fb31 6d3d
00000380: b08a 693d 75ad c83c 773e 98bd a446 74bd
00000390: 75ee 8ebd f5cb 973d d4fd 9a3b 7a49 6ebd
000003a0: acfc a6bd b579 b23c 18aa a13d fb42 043d
000003b0: 6a8a 15bd 33f3 733d ba8d 9c3c b18e 31bd
000003c0: 05d7 69bc c8eb 26bd 79c9 b7bd ca96 2fbd
000003d0: 9755 383d f842 b43d b05d 453c 864e bdbc
000003e0: 8808 0bbd 86bc d13c cfc9 183d be4a 95ba
000003f0: c5e1 22bd 115d 023d 9f82 563d 6176 19bd
-0.013343834 0.042894624 -0.0634845 -0.093546696 0.051191457 0.06737408 0.05347619 0.009826363
-0.07670262 -0.06942095 0.040254127 0.002819457 0.073235326 0.024700487 -0.0070561855 -0.0026676883
0.03359738 -0.042612962 0.035142478 -0.02690542 0.07440054 0.0063414425 0.04951208 0.013108691
-0.020269364 -0.064053856 0.026510544 0.042121116 0.034462348 0.010789057 -0.027470507 0.007152616
-0.07566156 -0.019173091 -0.08057121 -0.08888334 -0.02157607 0.06718827 0.03386723 0.03476646
-0.037167277 0.0681953 0.026317803 0.047410976 -0.066572085 -0.034736607 0.03294724 -0.06515592
-0.07386488 0.04951716 -0.03877518 -0.035465874 -0.10389254 -0.051976796 0.10753434 -0.03771914
0.015218211 -0.061210264 -0.04887995 -0.0730996 -0.052497063 -0.006685317 0.030219734 -0.03828057
-0.055705912 0.026684295 -0.06484197 -0.019262807 0.09897393 0.031178113 -0.049233235 0.016364994
0.0138776535 0.08723544 -0.056001924 -0.0248852 -0.00096197927 -0.06122799 -0.05938909 -0.00721883
-0.054961234 -0.031921975 0.035685755 0.10157547 -0.01215494 0.05630536 -0.08137636 -0.087782785
0.061319154 -0.09635085 0.018121423 -0.07013566 0.048718393 -0.053964194 0.056990154 0.078861944
0.014318135 -0.084024765 -0.09576833 -0.049774658 0.0731081 0.04661634 0.03897889 0.08223642
0.047417108 -0.06665065 0.08055101 0.07197376 -0.0371087 -0.006311972 -0.008772385 0.09429107
-0.08853024 -0.04001442 -0.006323154 0.027222257 -0.034313187 0.05586832 0.053032514 0.09085559
-0.054427147 0.029199913 0.038368788 0.065403864 -0.07472879 -0.044622637 0.060235623 0.030188872
0.038710378 0.02277305 -0.016538022 0.009648608 0.048533555 -0.034796476 0.059385817 -0.046447426
-0.014697158 -0.035689954 -0.06529939 -0.047152802 -0.08183614 0.03168181 -0.097056724 -0.03659845
0.13494107 0.041056283 0.0219199 -0.044823837 0.07866754 -0.032612555 -0.041543398 -0.052956425
0.046453077 -0.070543356 0.08191533 0.091832496 -0.084525496 0.09112661 -0.014387533 0.0013077566
0.088807695 0.053019855 -0.019698363 0.080226086 0.046255022 0.101243585 -0.09297827 0.028389284
-0.034857776 0.071025245 0.06883109 -0.09130934 -0.037068255 -0.020756671 -0.04179901 -0.07841798
0.00034187172 0.028706878 0.028143974 0.0070191673 -0.07966576 0.030345088 0.07180069 0.04104803
-0.0202992 0.004108508 0.08889249 -0.010487556 0.060800362 -0.045392744 -0.023265146 -0.009482646
-0.035253573 0.023539709 0.06349442 0.048837498 0.039072946 0.025636515 -0.070157535 0.055918384
-0.022014782 0.08855326 0.015438122 0.056268614 0.06533753 0.019161738 0.011858464 0.049010348
-0.0032521472 -0.09218817 0.00815547 0.058815993 -0.04251544 0.026878636 -0.04550189 0.024667788
3.8142234e-06 -0.09516185 0.078201324 -0.026409183 -0.05947969 0.07107561 -0.058024116 0.057908993
0.05701703 0.024496773 -0.07433789 -0.05963768 -0.06979076 0.074119486 0.0047299657 -0.05817554
-0.08153662 0.02178655 0.07893771 0.03229044 -0.036508955 0.059558105 0.01911055 -0.04334897
-0.014272456 -0.040752202 -0.08973975 -0.042868413 0.0450035 0.08801836 0.012046263 -0.023108732
-0.033943683 0.02560259 0.037301835 -0.0011390073 -0.03976609 0.031827036 0.052370664 -0.03746641
