attempts/ppo_residual_best.pth (torch, 410148 bytes, 16 tensors)

trunk.0.weight f4 [128, 10]
0.30207792 0.14903903 -0.3610265 0.2848186 -0.018064847 -0.075425304 0.14001852 0.17350768
-0.33407372 0.26721886 -0.03598207 0.1095086 0.24973993 -0.2269485 0.19619718 -0.09526127
0.14028524 -0.07492788 0.051049612 -0.35777837 -0.2158332 0.08579111 -0.21197514 0.03195119
0.0020574273 -0.20803332 -0.37327442 -0.21400367 0.14631853 0.27242061 0.06026254 -0.19752201
-0.13101679 -0.051784944 -0.28817266 -0.5569348 -0.4665191 -0.331854 -0.35102412 -0.57230294
0.22507034 0.10274779 0.07505564 0.0057286564 0.1274352 0.016176226 0.15003215 -0.46252137
-0.020784546 0.14357118 0.08336188 0.056166053 0.041444518 -0.26123887 0.2862712 -0.3050759
0.15685059 -0.44022062 0.049384367 0.34686863 0.013595859 -0.23832688 0.052812498 -0.10971048
0.21652286 0.26993302 0.14683735 0.009970296 0.14613582 -0.5054982 -0.2761906 0.24252392
0.12707682 -0.0012123261 0.17884497 0.030551948 -0.40831915 0.059384327 -0.039943278 0.16517855
0.098276906 0.5610119 -0.120996006 -0.05545129 -0.0995788 0.11309641 -0.37561893 -0.33701956
0.24134824 0.30282196 0.14346308 0.22011152 0.38768658 0.20419304 -0.12761967 0.13282843
-0.1310319 -0.11697843 -0.19538756 -0.82357424 0.21229549 -0.06798611 -0.28432453 0.16907103
0.3146045 0.317439 -0.08871039 -0.17659876 0.16486919 -0.294686 0.049287014 -0.069675356
-0.16105396 0.016023427 0.07582445 0.2046429 -0.35986638 -0.15720506 -0.12000822 0.25036493
0.29880446 0.00305615 -0.09086871 -0.019602073 0.032302044 0.10944109 -0.4598052 -0.04678095
0.04463167 0.30404982 0.26643157 0.16267258 -0.06812927 -0.012132784 0.08375543 -0.009553783
-0.06333517 -0.17753494 0.17285676 -0.5297318 0.3827496 0.3815239 -0.23799811 0.12930354
0.004109263 -0.29642674 -0.2674767 -0.54657465 0.05385827 0.07983669 -0.057634972 -0.058108717
-0.2678779 -0.015293322 -0.20027071 0.058494866 -0.38633296 -0.12166771 0.15145394 -0.742449
0.39148012 0.14786255 -0.11314468 -0.019275237 -0.41840577 -0.22667262 -0.20883429 0.34748018
-0.21830049 -0.112332575 -0.086592376 0.12324313 0.07185872 -0.17445357 -0.25404248 -0.12099281
-0.19477767 0.20823143 0.21862493 -0.29865503 0.0004569874 0.026497789 0.09396101 -0.08471355
-0.31088772 -0.43091914 -0.30013984 -0.51279575 -0.5621787 -0.46830842 -0.18461956 -0.020870052
-0.28146914 -0.01784859 -0.5518572 -0.44274658 0.061685182 -0.15490353 -0.16644228 -0.21486557
-0.18612936 0.046454042 0.033637818 0.024007399 0.07711592 -0.07733498 -0.001403068 0.23649217
0.45726034 -0.40532777 -0.22779141 0.42544648 -0.30369148 -0.117797084 0.13129778 0.13694546
-0.31322822 0.09348773 0.14859778 0.049970414 -0.31117377 0.38611943 0.0017710673 -0.028699145
-0.09404694 -0.21566135 -0.38178 -0.1451775 -0.4770177 -0.5190124 0.13916947 0.43095115
0.12572716 -0.19349596 0.04828648 -0.14808084 0.13430165 0.17909096 0.067763634 0.48965433
-0.08239445 0.037515964 0.18850338 0.1101584 -0.086540364 -0.46164924 -0.4750239 -0.27517542
0.19046643 0.26400247 -0.124074936 -0.23569079 -0.21569552 -0.49133638 0.1889293 -0.1805855
00000000: f5a9 9a3e b09d 183e 77d8 b8be bed3 913e
00000010: bbfc 93bc 9578 9abd 0461 0f3e ffab 313e
00000020: b60b abbe e9d0 883e ef61 13bd 0b46 e03d
00000030: d3bb 7f3e 3065 68be eae7 483e 5718 c3bd
00000040: efa6 0f3e ca73 99bd 6619 513d ba2e b7be
00000050: 6103 5dbe 40b3 af3d 0310 59be 40df 023d
00000060: e7d5 063b b006 55be d31d bfbe c723 5bbe
00000070: 86d4 153e b77a 8b3e dad5 763d 3643 4abe
00000080: 4429 06be 731c 54bd 5e8b 93be 4793 0ebf
00000090: 97db eebe c4e8 a9be 6fb9 b3be 7282 12bf
000000a0: d778 663e 6f6d d23d c5b6 993d 74b7 bb3b
000000b0: 607e 023e 0184 843c 07a2 193e 9acf ecbe
000000c0: 5a44 aabc 5304 133e a2b9 aa3d 600e 663d
000000d0: bac1 293d 1ac1 85be 2492 923e e932 9cbe
000000e0: 719d 203e 9964 e1be 4347 4a3d c498 b13e
000000f0: 2ac1 5e3c f60b 74be eb51 583d e3af e0bd
00000100: 2bb8 5d3e a934 8a3e 885c 163e 745a 233c
00000110: a1a4 153e 5468 01bf db68 8dbe 3158 783e
00000120: 6d20 023e eae6 9eba 2323 373e 1448 fa3c
00000130: 350f d1be fb3c 733d 909b 23bd 9124 293e
00000140: 6745 c93d 7a9e 0f3f c1cc f7bd e420 63bd
00000150: f8ef cbbd 179f e73d 2051 c0be d48d acbe
00000160: fe23 773e 7b0b 9b3e fce7 123e ea64 613e
00000170: db7e c63e fb17 513e bbae 02be 2d04 083e
00000180: 3a2d 06be 6392 efbd ad13 48be c3d5 52bf
00000190: fd63 593e 4d3c 8bbd fc92 91be f520 2d3e
000001a0: d713 a13e 5d87 a23e cbad b5bd 4ed6 34be
000001b0: 78d3 283e 15e1 96be 2ee1 493d f4b1 8ebd
000001c0: 54eb 24be 9043 833c d949 9b3d e98d 513e
000001d0: 6840 b8be 5dfa 20be dfc6 f5bd d52f 803e
000001e0: e6fc 983e b049 483b 6019 babd 8794 a0bc
000001f0: 264f 043d a622 e03d 966b ebbe 629d 3fbd
00000200: b3cf 363d 6bac 9b3e b869 883e a493 263e
00000210: 5c87 8bbd 96c8 46bc f887 ab3d 7887 1cbc
00000220: dfb5 81bd b8cb 35be 5d01 313e 819c 07bf
00000230: c1f7 c33e 1a57 c33e c7b5 73be 2668 043e
00000240: ffa6 863b 3fc5 97be b5f2 88be 51ec 0bbf
00000250: 7d9a 5c3d 6b81 a33d a612 6cbd 6803 6ebd
00000260: 4b27 89be d790 7abc c413 4dbe 5098 6f3d
00000270: 6fcd c5be ec2c f9bd be16 1b3e 2311 3ebf
00000280: 1570 c83e 4869 173e 66b8 e7bd 1ae7 9dbc
00000290: 4839 d6be de1c 68be a8d8 55be ece8 b13e
000002a0: 2a8a 5fbe 9f0e e6bd 5857 b1bd e566 fc3d
000002b0: aa2a 933d f5a3 32be db11 82be 14cb f7bd
000002c0: cc73 47be 9f3a 553e 37df 5f3e 50e9 98be
000002d0: d097 ef39 e411 d93c a16e c03d 4c7e adbd
000002e0: ad2c 9fbe 6fa1 dcbe eeab 99be 9546 03bf
000002f0: f1ea 0fbf 1fc6 efbe e90c 3dbe acf7 aabc
00000300: b91c 90be 3537 92bc 8346 0dbf aeaf e2be
00000310: 9aa9 7c3d 089f 1ebe d86f 2abe b805 5cbe
00000320: b298 3ebe 9846 3e3d cfc7 093d 2aab c43c
00000330: f4ee 9d3d cd61 9ebd 26e7 b7ba 012b 723e
00000340: 071e ea3e 1f87 cfbe 2742 69be 1fd4 d93e
00000350: 737d 9bbe 993f f1bd ed72 063e 6e3b 0c3e
00000360: 735f a0be 7f76 bf3d 042a 183e c7ad 4c3d
00000370: 2b52 9fbe 72b1 c53e 2823 e83a 781a ebbc
00000380: af9b c0bd 54d6 5cbe ab78 c3be 69a9 14be
00000390: aa3b f4be ffdd 04bf 7182 0e3e a1a5 dc3e
000003a0: 9fbe 003e ce23 46be 0bc8 453d 81a2 17be
000003b0: 5f86 093e 9f63 373e a9c7 8a3d f9b3 fa3e
000003c0: 6cbe a8bd 57aa 193d 0807 413e ba9a e13d
000003d0: 133c b1bd 4a5d ecbe 5536 f3be cbe3 8cbe
000003e0: a209 433e 552b 873e 001b febd ed58 71be
000003f0: 49df 5cbe 7190 fbbe af76 413e 68eb 38be

trunk.0.bias f4 [128]
-0.18648154 0.30419508 -0.22366399 -0.06632309 -0.06373697 -0.15496543 0.11749894 -0.08508802
-0.18911393 0.13077512 -0.10792556 -0.28027803 -0.06669184 -0.16157688 -0.07810337 -0.008452653
-0.027309706 0.24104287 0.03689411 0.21392582 -0.30607098 -0.1714231 -0.1581409 -0.2801964
0.2387872 -0.30241388 0.18942046 -0.34077725 -0.057371322 -0.07392103 0.18052155 -0.3995573
-0.18280011 -0.15377972 0.028840426 0.03576317 -0.38164964 -0.13315634 -0.019381033 0.05760066
0.18497977 -0.17673858 0.12202332 0.20835276 0.121212505 0.23136185 0.031989176 -0.16904166
-0.14898406 0.26488233 -0.030502789 0.21052079 -0.044247217 0.08666495 0.24966368 0.36311668
-0.27043235 -0.11655803 -0.08000873 0.11763302 -0.08625284 -0.29406852 0.08331154 -0.13754512
0.18084571 0.10935019 0.042852875 0.09905793 0.20110627 -0.39553872 0.10404225 -0.21212994
0.2147361 -0.40760437 0.14216779 -0.17048506 0.19509195 0.2219676 0.2842343 0.24448772
0.3917124 -0.13897565 -0.011482951 0.40749058 -0.1668229 0.33337298 -0.25333494 0.37437972
0.29451585 -0.16201046 -0.18180948 -0.41921452 0.35590893 0.18774419 -0.1209762 -0.38782072
0.20667705 0.0760941 0.1489894 0.23145676 -0.018666886 -0.33086953 0.2600804 -0.10109995
0.30588478 -0.017992506 0.09468151 0.25166073 -0.08971902 0.13101271 -0.2262473 0.16078861
-0.012542325 0.1313479 0.17258717 -0.08224878 -0.34379804 -0.18452933 -0.14139998 -0.162571
-0.15197569 -0.098886624 0.26159513 -0.16094482 -0.10743019 0.33066836 0.15343674 0.13147235
00000000: 04f5 3ebe 75bf 9b3e 2c08 65be 66d4 87bd
00000010: 8788 82bd 42af 1ebe 49a3 f03d a142 aebd
00000020: 15a7 41be eae9 053e 1308 ddbd 9a80 8fbe
00000030: bb95 88bd 6974 25be a9f4 9fbd ff7c 0abc
00000040: 9bb8 dfbc f1d3 763e 471e 173d 5f0f 5b3e
00000050: 56b5 9cbe 8a89 2fbe b0ef 21be e775 8fbe
00000060: a284 743e fed5 9abe 70f7 413e 5b7a aebe
00000070: 31fe 6abd e963 97bd a4da 383e c692 ccbe
00000080: f42f 3bbe 6e78 1dbe c242 ec3c 677c 123d
00000090: 9567 c3be 235a 08be f9c4 9ebc abee 6b3d
000000a0: 566b 3d3e f5fa 34be 5de7 f93d 6d5a 553e
000000b0: 433e f83d 1fea 6c3e 1507 033d 4219 2dbe
000000c0: 478f 18be a89e 873e fce0 f9bc c392 573e
000000d0: 923c 35bd 657d b13d d6a7 7f3e 6eea b93e
000000e0: 1c76 8abe fab5 eebd 9edb a3bd 95e9 f03d
000000f0: 54a5 b0bd 2690 96be 3e9f aa3d a1d8 0cbe
00000100: 9e2f 393e fef2 df3d 7f86 2f3d e2de ca3d
00000110: cdee 4d3e 0d84 cabe 1a14 d53d 9738 59be
00000120: c8e3 5b3e 85b1 d0be 6f94 113e a393 2ebe
00000130: 2fc6 473e 794b 633e 2887 913e fd5a 7a3e
00000140: 878e c83e a24f 0ebe fd22 3cbc 9ba2 d03e
00000150: 9fd3 2abe ddaf aa3e 1eb5 81be b3ae bf3e
00000160: c8ca 963e 12e6 25be 442c 3abe 49a3 d6be
00000170: b239 b63e 0340 403e 5fc2 f7bd 7090 c6be
00000180: 26a3 533e 39d7 9b3d ad90 183e 0003 6d3e
00000190: 4ceb 98bc bb67 a9be 4229 853e 7e0d cfbd
000001a0: ee9c 9c3e 0565 93bc 61e8 c13d add9 803e
000001b0: 9bbe b7bd 3228 063e 5fad 67be c5a5 243e
000001c0: 537e 4dbc 1080 063e b1ba 303e 0c72 a8bd
000001d0: 4c06 b0be 42f5 3cbe 28cb 10be 0379 26be
000001e0: 849f 1bbe 1285 cabd ccef 853e b8ce 24be
000001f0: 5c04 dcbd 5d4d a93e 851e 1d3e b0a0 063e

actor_layers.0.weight f4 [128, 128]
0.072751835 0.071106754 -0.019597726 -0.044065252 -0.12158041 0.05590577 0.10581126 -0.032756146
-0.022598293 -0.15160994 -0.022019671 0.030516654 -0.22296615 -0.06563023 -0.19964743 -0.109217115
0.11179499 0.028076883 0.055560086 -0.15359625 -0.04931553 0.06390111 -0.017446503 0.05478207
-0.11194542 0.16860408 0.016255097 -0.13437214 0.027690733 0.0056061964 -0.099417575 0.056818355
-0.15742283 -0.06049803 -0.071065955 -0.023700451 -0.12566446 -0.06912555 -0.1516344 -0.21966544
-0.08942381 0.006890035 0.029429382 -0.14397576 -0.1250898 -0.044344436 -0.07301008 -0.18561058
-0.048764434 -0.07965129 0.071198024 -0.13885061 -0.007007831 -0.16629149 -0.12233262 -0.04299093
0.09956488 -0.18885054 0.026725464 0.085729524 -0.02615682 0.061818194 -0.06625891 -0.122251965
-0.031916253 -0.06259201 0.11720003 -0.12727213 0.0066817617 0.013423369 0.00027755476 -0.11138108
-0.16250986 -0.09238661 -0.2994813 -0.12872298 -0.07920284 -0.10043475 -0.016368782 0.071091935
-0.10890733 -0.08419924 0.024747286 0.13992313 -0.1289389 0.0068781544 -0.054696992 0.0017692768
-0.16958305 0.04313761 0.012749944 -0.04280259 -0.08995831 -0.18229872 -0.1078523 -0.09142113
-0.09550752 -0.053653795 -0.16704793 -0.04671934 -0.23819785 -0.095439635 0.047989316 -0.1810709
-0.096500255 -0.1281389 -0.122770615 -0.0053407555 0.059220474 -0.16706696 -0.02633785 0.060853418
-0.1751776 -0.12321576 -0.08962228 0.11227651 0.12507185 -0.12525497 0.045505743 -0.042136114
-0.18495122 -0.09124123 -0.0175067 -0.23691371 0.1815234 0.021522569 -0.05019045 0.0073266346
0.08439786 -0.12893394 -0.02871892 -0.071366206 -0.11073497 0.02372971 -0.012052213 0.017734643
0.015505983 0.056107033 0.031175017 -0.0715234 -0.10675671 -0.0672504 0.020032303 -0.024550552
-0.09507755 -0.06456109 0.035180688 0.054997936 -0.101973325 -0.036850173 -0.016755816 -0.037233308
-0.06159817 -0.019396735 -0.0034643104 0.07842173 -0.10544508 -0.026736485 0.023060888 0.031306785
-0.026969953 0.027572298 -0.12703197 0.062234677 -0.08673277 -0.0843548 0.076916166 0.03670029
0.058471516 -0.07204298 -0.012004707 -0.06350893 0.07008161 0.023724047 -0.04805867 -0.055090588
-0.038989358 -0.09813853 -0.021952897 0.030688843 0.055489555 -0.02859953 -0.042767625 -0.065938935
-0.06763017 -0.03459988 0.04394505 -0.009889013 -0.06689214 -0.03377724 -0.04343135 0.01878623
0.039262667 -0.093144715 0.072007746 0.014689044 -0.113663554 0.009614446 -0.00018338532 0.052250806
0.02332672 -0.0079125585 -0.008897512 -0.06546631 -0.016724478 -0.037323456 -0.097911716 -0.054611094
-0.060043905 0.068995856 -0.027169367 -0.046569195 -0.064871565 -0.066839255 0.07280349 -0.05871747
0.06339259 -0.013900868 -0.06447684 -0.069630794 -0.08349092 0.03688873 -0.004069616 0.0017777011
0.038674787 0.05007556 -0.0122565 0.030055257 0.06015839 -0.022381384 0.07489036 -0.04177556
0.05165948 0.049082443 -0.062703684 -0.08832621 -0.005467398 0.05601179 -0.07496847 -0.072692566
0.046712436 -0.03269975 0.04216403 -0.13366477 -0.031745497 0.012145555 0.025495129 0.015170212
0.05518546 0.013682524 -0.068726815 -0.055794753 0.03376531 0.027059952 -0.09952107 -0.053452946
00000000: eafe 943d 6ba0 913d 698b a0bc c47d 34bd
00000010: 26ff f8bd 73fd 643d 93b3 d83d 4f2b 06bd
00000020: 0e20 b9bc a33f 1bbe 9962 b4bc 10fe f93c
00000030: 3d51 64be 2469 86bd 6070 4cbe 39ad dfbd
00000040: c6f4 e43d 7e01 e63c f992 633d 5648 1dbe
00000050: 15ff 49bd 96de 823d f8eb 8ebc 2a63 603d
00000060: a443 e5bd 8ca6 2c3e 6929 853c da98 09be
00000070: add7 e23c 2fb4 b73b 719b cbbd 5dba 683d
00000080: 7333 21be c8cc 77bd 078b 91bd 7327 c2bc
00000090: 2fae 00be b291 8dbd 0c46 1bbe faef 60be
000000a0: d523 b7bd cdc5 e13b e315 f13c 626e 13be
000000b0: 8a17 00be 83a2 35bd 4f86 95bd b310 3ebe
000000c0: 37bd 47bd 3720 a3bd 45d0 913d db2e 0ebe
000000d0: f2a1 e5bb 5148 2abe 8689 fabd 4217 30bd
000000e0: ace8 cb3d 0962 41be 5cef da3c f692 af3d
000000f0: d446 d6bc 1335 7d3d c0b2 87bd 3d5f fabd
00000100: 9eba 02bd 3d30 80bd 9206 f03d a053 02be
00000110: aef2 da3b b1ed 5b3c c584 9139 c31b e4bd
00000120: fc68 26be 3135 bdbd 9d55 99be f5cf 03be
00000130: 1935 a2bd bcb0 cdbd d317 86bc a698 913d
00000140: ce0a dfbd a770 acbd d2ba ca3c 0248 0f3e
00000150: 8f08 04be 2462 e13b f409 60bd 14e7 e73a
00000160: 2ea7 2dbe 10b1 303d 24e5 503c c551 2fbd
00000170: 103c b8bd 84ac 3abe abe1 dcbd 003b bbbd
00000180: 7299 c3bd 15c4 5bbd 9d0e 2bbe c75c 3fbd
00000190: 23ea 73be db75 c3bd 7290 443d a66a 39be
000001a0: eda1 c5bd d836 03be 296f fbbd 8101 afbb
000001b0: 2b91 723d 9a13 2bbe 7ac2 d7bc 6f41 793d
000001c0: c261 33be 8b58 fcbd e38b b7bd 3af1 e53d
000001d0: d612 003e d742 00be 3b64 3a3d eb96 2cbd
000001e0: da63 3dbe afdc babd 366a 8fbc 8299 72be
000001f0: 45e1 393e 1950 b03c 8094 4dbd 4414 f03b
00000200: c9d8 ac3d 4207 04be f143 ebbc 7228 92bd
00000210: 04c9 e2bd cf64 c23c a576 45bc 3e48 913c
00000220: ce0c 7e3c 7dd0 653d c062 ff3c dc7a 92bd
00000230: 43a3 dabd 94ba 89bd c91a a43c 3d1e c9bc
00000240: 05b8 c2bd 9b38 84bd a019 103d 8445 613d
00000250: 64d7 d0bd 35f0 16bd 7e43 89bc f481 18bd
00000260: 5d4e 7cbd e7e5 9ebc 7c09 63bb 929b a03d
00000270: 97f3 d7bd 7906 dbbc 30ea bc3c 8b3b 003d
00000280: 17f0 dcbc 4ddf e13c ab14 02be cae9 7e3d
00000290: f3a0 b1bd 36c2 acbd 3986 9d3d 0b53 163d
000002a0: d47f 6f3d 458b 93bd 64af 44bc f810 82bd
000002b0: f286 8f3d ef58 c23c 2bd9 44bd aba6 61bd
000002c0: 4eb3 1fbd dbfc c8bd 90d6 b3bc 2b67 fb3c
000002d0: 0449 633d 9049 eabc 1b2d 2fbd fe0a 87bd
000002e0: b081 8abd 9bb8 0dbd baff 333d 8705 22bc
000002f0: bffe 88bd 015a 0abd 12e5 31bd 94e5 993c
00000300: e4d1 203d a8c2 bebd cc78 933d 51aa 703c
00000310: 70c8 e8bd e985 1d3c 1f4b 40b9 f104 563d
00000320: ad17 bf3c ada3 01bc dfc6 11bc 3313 86bd
00000330: c601 89bc 7be0 18bd f085 c8bd e2af 5fbd
00000340: 99f0 75bd b34d 8d3d 4b92 debc 57bf 3ebd
00000350: 62db 84bd 05e3 88bd ff19 953d bb81 70bd
00000360: f9d3 813d 77c0 63bc 6f0c 84bd 979a 8ebd
00000370: 4afd aabd a318 173d 6a5a 85bb c001 e93a
00000380: 7469 1e3d 081c 4d3d 7dcf 48bc 7136 f63c
00000390: a568 763d 2a59 b7bc 1e60 993d d91c 2bbd
000003a0: e498 533d ac0a 493d ca6a 80bd 5fe4 b4bd
000003b0: dc27 b3bb 9e6c 653d 1289 99bd d7df 94bd
000003c0: 8a55 3f3d 2cf0 05bd 31b4 2c3d 6bdf 08be
000003d0: 9107 02bd 26fe 463c 29db d03c 7b8c 783c
000003e0: 260a 623d aa2c 603c a5c0 8cbd 0a89 64bd
000003f0: 7e4d 0a3d d5ac dd3c b4d1 cbbd 7af1 5abd

actor_layers.0.bias f4 [128]
-0.12496362 0.021761876 0.052610222 -0.08726926 -0.104991764 -0.04084865 0.12807153 -0.012205606
-0.14142144 -0.0010355904 -0.012702339 -0.023447163 0.05845913 0.017405212 -0.073358685 0.08289029
0.027090611 -0.13960779 0.086885124 -0.052651677 -0.09053745 -0.059001546 -0.06539169 0.029683534
0.008397316 0.02547516 0.007780173 -0.025902191 -0.093934335 0.12580703 -0.09435997 -0.041617915
-0.014061697 0.014750745 0.06843071 -0.14156511 0.025449948 -0.0041041845 0.09222346 -0.048569486
0.022366665 -0.009216125 -0.07950033 -0.1083543 0.035418354 -0.03291144 0.025928445 -0.08113685
-0.07681537 -0.05616924 -0.06710482 -0.08635697 -0.081851386 -0.08347831 0.046101622 0.039347664
-0.026293589 -0.07990466 -0.035753533 0.044738486 -0.08497881 0.06522139 0.051143453 0.01148611
-0.033294827 -0.10655175 -0.047064394 -0.030177385 0.056553405 0.03690217 -0.048234023 0.0029325432
0.011559774 0.009201973 -0.10038107 0.027379407 -0.022566535 -0.052131236 -0.09566061 -0.107834235
0.023180598 0.04292355 -0.053700402 -0.06338903 0.013589389 0.01727349 -0.069828466 0.064688
0.02511263 -0.06221664 0.009641493 -0.05232578 0.0035947785 -0.033607736 -0.1371687 -0.059506148
-0.07067993 0.023311362 -0.0021813745 0.040307797 -0.033346884 -0.036594354 0.015010836 -0.098205276
0.100099444 0.03362496 -0.0047518546 0.04838664 -0.03694832 -0.06903799 -0.045306303 0.041878164
-0.0056550764 -0.11418932 -0.014863756 0.022258904 -0.10166045 -0.023324354 -0.0019460717 -0.014527794
0.045894902 -0.09255747 -0.079947814 0.02631485 0.025154468 0.0029470515 0.033904765 -0.12171913
00000000: edec ffbd f645 b23c d17d 573d 3aba b2bd
00000010: ec05 d7bd ea50 27bd 2f25 033e 06fa 47bc
00000020: c8d0 10be a6bc 87ba 791d 50bc 4414 c0bc
00000030: d772 6f3d 6095 8e3c 143d 96bd 62c2 a93d
00000040: 21ed dd3c 58f5 0ebe d4f0 b13d 49a9 57bd
00000050: b36b b9bd 9bab 71bd 14ec 85bd e22a f33c
00000060: e594 093c 48b1 d03c d2f0 fe3b d530 d4bc
00000070: a560 c0bd 8fd3 003e cd3f c1bd 8c77 2abd
00000080: 0863 66bc 1cad 713c 6625 8c3d 72f6 10be
00000090: 697c d03c 657c 86bb a7df bc3d ccf0 46bd
000000a0: 4c3a b73c 3bff 16bc 12d1 a2bd dce8 ddbd
000000b0: d612 113d 25ce 06bd e467 d43c 142b a6bd
000000c0: 6051 9dbd b811 66bd 406e 89bd ecdb b0bd
000000d0: b3a1 a7bd adf6 aabd 0ed5 3c3d 042b 213d
000000e0: a765 d7bc 0ea5 a3bd 4c72 12bd b43f 373d
000000f0: 5f09 aebd cb92 853d cc7b 513d 3d30 3c3c
00000100: 2860 08bd ce37 dabd 98c6 40bd 9036 f7bc
00000110: 8ba4 673d bb26 173d 0a91 45bd e92f 403b
00000120: 3565 3d3c dfc3 163c 9794 cdbd c74a e03c
00000130: 74dd b8bc 9087 55bd b6e9 c3bd 32d8 dcbd
00000140: 3de5 bd3c 9bd0 2f3d f4f4 5bbd 1cd2 81bd
00000150: 07a6 5e3c 2281 8d3c 3a02 8fbd 247b 843d
00000160: 01b9 cd3c e0d6 7ebd 5af7 1d3c 8f53 56bd
00000170: 6096 6b3b 44a8 09bd f475 0cbe b8bc 73bd
00000180: a4c0 90bd 78f7 be3c 64f5 0ebb ca19 253d
00000190: be96 08bd f6e3 15bd 02f0 753c d91f c9bd
000001a0: f000 cd3d 53ba 093d 72b5 9bbb 1231 463d
000001b0: 1f57 17bd ca63 8dbd 1a93 39bd 7088 2b3d
000001c0: 384e b9bb 17dc e9bd 1c87 73bc 4e58 b63c
000001d0: 5b33 d0bd b712 bfbc 5513 ffba fc05 6ebc
000001e0: 4bfc 3b3d c58e bdbd aebb a3bd 3e92 d73c
000001f0: be10 ce3c 5223 413b b9df 0a3d e147 f9bd

actor_layers.2.weight f4 [128, 128]
-0.05086988 0.07313035 -0.117124446 0.067982174 -0.019361256 0.056942225 0.071370155 0.08059443
-0.13624178 -0.04881798 -0.076324895 -0.08068132 -0.0984242 -0.114540026 0.054168474 0.13562502
-0.040737547 -0.064171046 0.064372435 -0.12254862 -0.06951239 -0.027022742 -0.11167601 0.108033754
-0.043211915 -0.040883735 0.0033485903 -0.041114014 0.015343607 -0.26912415 0.0430103 -0.009853889
0.00906498 0.007977796 -0.006461176 -0.014659884 0.10742451 0.10421797 -0.04359665 -0.08556921
-0.022076892 0.07311325 0.01801471 -0.06575419 0.031119302 0.020514952 -0.0029618402 0.14940923
-0.12080085 -0.09626893 0.031052258 0.039700303 0.029549813 -0.020347062 -0.01092148 0.079092935
-0.0135813365 0.0063201 -0.037008364 -0.05619855 0.008113514 -0.005662946 -0.065901525 -0.038214155
0.030558726 0.016702691 -0.1654338 -0.07759134 0.013136282 0.027877945 0.08419684 0.036301486
-0.07770635 0.0021997455 -0.059275 0.023669802 -0.09429208 -0.049672626 -0.10708576 -0.027567286
-0.05738149 -0.046377525 0.056940585 0.07231154 -0.058747075 -0.038543165 -0.08160984 0.0076224413
0.10585297 0.096677355 -0.0059295674 0.091168694 -0.029576197 -0.0745341 -0.038414717 0.0018898891
0.030278731 0.03226252 0.058315426 0.003228315 0.015368216 0.020196682 -0.17947116 0.03819799
-0.015111768 -0.0063948007 -0.024132233 -0.093163684 -0.01438141 -0.13489114 -0.08110327 0.0030521853
-0.02888488 0.015986072 0.073895946 0.056020763 0.059137583 -0.32142055 -0.0050692633 -0.0012325009
-0.009770382 -0.07711442 -0.035747256 -0.09432909 -0.0668877 0.013138045 -0.07932991 0.043160398
-0.048874795 0.035144616 -0.040495113 -0.04908548 -0.031285517 -0.05070037 0.09046085 0.08376785
0.08715537 -0.051891077 -0.009745927 -0.17224243 -0.059168912 -0.015484837 -0.052428555 0.09202082
-0.07180043 -0.03810921 -0.30299115 0.053101454 -0.039544005 0.034148443 -0.0021348814 -0.12801176
0.051410668 0.009669582 0.04630216 -0.010534789 -0.07169728 -0.01407034 -0.18034086 -0.09975905
0.025873594 -0.03848848 0.04970042 -0.061929032 -0.1099633 0.012987223 -0.15673739 -0.0665695
-0.09169246 0.040792186 -0.020612426 0.054651987 -0.096865 -0.20401904 0.017332563 -0.00954657
-0.21578723 -0.087627105 -0.19100122 0.022735618 0.046621952 -0.00011132036 -0.01774212 -0.0711012
0.044398025 -0.016950736 -0.013120962 0.12992044 0.011391778 -0.0053213807 -0.031494234 0.04752502
-0.0042932406 -0.15178029 -0.17332308 -0.09761592 -0.036881782 -0.05095214 -0.077830404 0.026706252
-0.04761345 0.031201102 0.10048091 -0.07195795 0.03148442 -0.08015067 0.10233296 0.04230401
-0.07035088 -0.28972405 0.042851698 -0.017925866 0.091426685 0.053344402 -0.08449711 0.040926475
0.06474368 -0.12689674 -0.036297135 -0.120218135 0.120005876 -0.07417595 0.021398967 0.03580314
-0.014982119 0.087281436 -0.10587489 -0.016476901 -0.07727339 0.020569058 -0.09304154 -0.087464295
-0.071108416 -0.052372828 0.05171861 0.06146254 -0.027233219 -0.092201635 -0.0072990153 0.03748339
-0.08638818 0.07378267 0.090384044 0.039333355 0.032396086 0.02674132 -0.102886476 0.06647044
-0.023295246 0.07172999 -0.062199537 0.055977494 0.058532994 -0.044095986 0.05068114 0.026526421
00000000: ef5c 50bd 5dc5 953d f1de efbd 3d3a 8b3d
00000010: 7f9b 9ebc 403c 693d 842a 923d b10e a53d
00000020: f782 0bbe 5df5 47bd 3a50 9cbd 3f3c a5bd
00000030: a192 c9bd f693 eabd c3df 5d3d 49e1 0a3e
00000040: 6adc 26bd 1c6c 83bd b2d5 833d c5fa fabd
00000050: 835c 8ebd cc5e ddbc 64b6 e4bd cd40 dd3d
00000060: fafe 30bd b475 27bd 0674 5b3b 2b67 28bd
00000070: c163 7b3c a4ca 89be 912b 303d 3572 21bc
00000080: 4885 143c 4db5 023c 46b8 d3bb 0330 70bc
00000090: 6201 dc3d 3b70 d53d 6792 32bd e93e afbd
000000a0: 99da b4bc 66bc 953d 9693 933c 22aa 86bd
000000b0: e8ed fe3c f90e a83c 6f1b 42bb bcfe 183e
000000c0: 7066 f7bd a528 c5bd 4e61 fe3c c99c 223d
000000d0: 7312 f23c e2ae a6bc 02f0 32bc 7afb a13d
000000e0: 4184 5ebc d718 cf3b 1596 17bd 7330 66bd
000000f0: 8bee 043c 3c90 b9bb 61f7 86bd 7286 1cbd
00000100: 4b56 fa3c 15d4 883c 7a67 29be 35e8 9ebd
00000110: 8f39 573c 4a60 e43c 656f ac3d deb0 143d
00000120: 8224 9fbd 9b29 103b 58ca 72bd 2ce7 c13c
00000130: 351c c1bd 8675 4bbd c74f dbbd cad4 e1bc
00000140: da08 6bbd 5cf6 3dbd 883a 693d 1318 943d
00000150: c6a0 70bd 70df 1dbd 0f23 a7bd acc5 f93b
00000160: 71c9 d83d c7fe c53d d14c c2bb a7b6 ba3d
00000170: c849 f2bc 56a5 98bd c058 1dbd 28b6 f73a
00000180: 1a0b f83c b425 043d 28dc 6e3d 2392 533b
00000190: f8ca 7b3c 8373 a53c 4ac7 37be 7f75 1c3d
000001a0: 5997 77bc 7a8b d1bb f6b0 c5bc 9acc bebd
000001b0: 01a0 6bbc e720 0abe 7919 a6bd 2c07 483b
000001c0: fc9f ecbc 39f5 823c c256 973d 0776 653d
000001d0: 403a 723d 3c91 a4be 101c a6bb de8b a1ba
000001e0: f413 20bc 2aee 9dbd b76b 12bd 9c2f c1bd
000001f0: 6bfc 88bd f440 573c b877 a2bd f5c8 303d
00000200: f030 48bd cdf3 0f3d 34de 25bd db0d 49bd
00000210: 3e25 00bd 31ab 4fbd 8a43 b93d 7b8e ab3d
00000220: 847e b23d bd8b 54bd 61ad 1fbc 5260 30be
00000230: 1a5b 72bd 1db4 7dbc 53bf 56bd 6975 bc3d
00000240: 1b0c 93bd 6718 1cbd a821 9bbe e980 593d
00000250: e5f8 21bd 3ddf 0b3d 5ee9 0bbb 8415 03be
00000260: fe93 523d 2b6d 1e3c 55a7 3d3d 1c9a 2cbc
00000270: 06d6 92bd 4987 66bc 46ab 38be 794e ccbd
00000280: dcf4 d33c 19a6 1dbd ab92 4b3d 4ca9 7dbd
00000290: 7034 e1bd 5dc8 543c c47f 20be 9755 88bd
000002a0: 42c9 bbbd b515 273d 64db a8bc c3da 5f3d
000002b0: 2861 c6bd 5eea 50be 05fd 8d3c 3769 1cbc
000002c0: 54f7 5cbe d775 b3bd d395 43be 0c40 ba3c
000002d0: a9f6 3e3d aa74 e9b8 ec57 91bc 829d 91bd
000002e0: b4da 353d 45dc 8abc 4ef9 56bc dd09 053e
000002f0: 94a4 3a3c fa5e aebb 1900 01bd 98a9 423d
00000300: 50ae 8cbb 4b6c 1bbe 9b7b 31be dbea c7bd
00000310: 5a11 17bd 31b3 50bd 8c65 9fbd 12c7 da3c
00000320: 5206 43bd 7499 ff3c efc8 cd3d b15e 93bd
00000330: cff5 003d 0926 a4bd f193 d13d f846 2d3d
00000340: 1f14 90bd b656 94be 4385 2f3d 44d9 92bc
00000350: ea3d bb3d a97f 5a3d d20c adbd 85a2 273d
00000360: 5698 843d 38f1 01be 4eac 14bd ed34 f6bd
00000370: a4c5 f53d 8fe9 97bd e34c af3c 50a6 123d
00000380: 9077 75bc 9cc0 b23d efd4 d8bd 91fa 86bc
00000390: 8341 9ebd 7180 a83c 908c bebd 7b20 b3bd
000003a0: 4aa1 91bd e484 56bd e5d6 533d 25c0 7b3d
000003b0: 3318 dfbc 36d4 bcbd 942c efbb 2f88 193d
000003c0: 49ec b0bd 5e1b 973d 451b b93d 031c 213d
000003d0: c2b1 043d 9d10 db3c 25b6 d2bd a721 883d
000003e0: acd5 bebc 2ce7 923d f1c4 7ebd a848 653d
000003f0: 4bc0 6f3d fe9d 34bd 0797 4f3d f04d d93c

actor_layers.2.bias f4 [128]
-0.084029324 -0.016721793 0.018076507 -0.12419284 -0.143139 -0.028276157 -0.008642536 -0.07663101
-0.119509384 -0.020052383 -0.12178848 0.05659163 -0.0013606773 -0.05545044 -0.0246922 0.048622273
-0.16058862 -0.036716577 -0.13252085 -0.08571722 -0.07276483 -0.102080405 -0.025288237 -0.09117263
0.058200445 -0.06589784 -0.08294819 -0.04846975 -0.033677608 -0.041986033 -0.14248572 -0.118861035
-0.0072615994 -0.045339104 -0.0016368232 -0.203261 0.043975543 0.0010340473 -0.03767699 0.0010932758
-0.010968291 -0.11390673 0.0016457596 -0.043778595 -0.123602234 -0.08183437 0.0016370717 0.030276207
-0.13281277 -0.0405855 -0.1308066 -0.09035298 0.07236361 -0.14995459 -0.08397721 0.058371715
0.008574967 0.012829638 -0.09382555 -0.06605964 0.049000606 -0.12289513 -0.078008264 -0.07468068
-0.059760187 -0.16218925 0.03656733 -0.055642616 -0.07025442 -0.06073759 -0.107506886 -0.066977866
-0.1292173 -0.07387202 -0.07494485 -0.0568123 -0.07542986 -0.03676123 -0.10207716 -0.04447894
-0.0887518 -0.08789525 -0.067904875 0.009859243 0.025056254 0.0028277722 -0.060697924 -0.12469661
-0.05315111 0.093118384 0.029466735 -0.0156114865 -0.15488747 0.004148065 -0.11696054 0.010646293
-0.06672068 -0.0051737474 -0.11224 -0.111430585 -0.040097345 -0.10984355 -0.06440246 -0.063241564
-0.14543888 -0.11078873 -0.07604285 -0.010997756 0.044809535 0.07253441 -0.102935135 -0.17340253
-0.0046283947 -0.028267812 0.026323438 0.047609758 -0.060378086 -0.035532568 -0.051615763 -0.035077706
-0.10654688 -0.049424335 -0.0028348707 0.05397431 -0.08870135 -0.11340738 -0.09085828 -0.008012072
00000000: 9117 acbd 24fc 88bc 2f15 943c d158 febd
00000010: 0893 12be 66a3 e7bc 6c99 0dbc b8f0 9cbd
00000020: 56c1 f4bd e544 a4bc 3d6c f9bd a0cc 673d
00000030: c158 b2ba 0020 63bd 4c47 cabc 2628 473d
00000040: 5871 24be 1f64 16bd 8cb3 07be 838c afbd
00000050: ba05 95bd 880f d1bd 4729 cfbc b7b8 babd
00000060: 9763 6e3d 72f5 86bd bee0 a9bd 3788 46bd
00000070: 88f1 09bd 8cf9 2bbd c7e7 11be 6a6d f3bd
00000080: b6f2 edbb 7fb5 39bd ac8a d6ba a723 50be
00000090: b31f 343d df88 873a 3053 1abd 404c 8f3a
000000a0: 59b4 33bc ef47 e9bd 87b6 d73a 2f51 33bd
000000b0: 2b23 fdbd c798 a7bd 0393 d63a cf05 f83c
000000c0: 1200 08be fb3c 26bd 2af2 05be fc0a b9bd
000000d0: 5f33 943d b28d 19be 3efc abbd 2e17 6f3d
000000e0: 057e 0c3c 6733 523c 9c27 c0bd 474a 87bd
000000f0: dcb4 483d 71b0 fbbd ccc2 9fbd 2ff2 98bd
00000100: 19c7 74bd f014 26be a0c7 153d 83e9 63bd
00000110: 8de1 8fbd fbc7 78bd 922c dcbd b12b 89bd
00000120: 8a51 04be 374a 97bd af7c 99bd 04b4 68bd
00000130: f87a 9abd f292 16bd d40d d1bd 8d2f 36bd
00000140: 81c3 b5bd 6d02 b4bd b611 8bbd aa88 213c
00000150: c642 cd3c 2552 393b 639e 78bd f060 ffbd
00000160: fab4 59bd dab4 be3d 3964 f13c 52c7 7fbc
00000170: d29a 1ebe 7eec 873b 0289 efbd ca6d 2e3c
00000180: daa4 88bd 8a88 a9bb 16de e5bd b835 e4bd
00000190: 1d3d 24bd a8f5 e0bd 70e5 83bd cb84 81bd
000001a0: eeed 14be 34e5 e2bd 5bbc 9bbd ef2f 34bc
000001b0: 348a 373d ec8c 943d a8cf d2bd 6f90 31be
000001c0: caa9 97bb e691 e7bc 40a4 d73c 7302 433d
000001d0: 034f 77bd 998a 11bd 0d6b 53bd a4ad 0fbd
000001e0: 4035 dabd 2c71 4abd 3dc9 39bb 2b14 5d3d
000001f0: 0ea9 b5bd 2142 e8bd e813 babd 1145 03bc

actor_layers.4.weight f4 [128, 128]
-0.06199109 0.043425478 -0.03209837 0.06742837 -0.019242533 -0.10001049 -0.0782843 -0.07490464
0.06891903 -0.038564987 -0.08821342 0.042023886 0.048076574 0.04584548 -0.014854562 0.011920843
-0.0850994 -0.08688892 0.024503915 0.058094453 0.03924275 0.00723242 0.018385459 -0.0701758
0.040052462 0.06799683 -0.08257373 -0.07791351 -0.042623837 -0.032472305 -0.06368367 0.046530984
0.026541019 0.020724604 0.01638535 -0.07630172 -0.01923666 -0.04503394 0.0419852 0.0034977354
0.014139845 -0.012242005 -0.075094365 -0.0042603193 -0.005898963 -0.06190612 -0.018649105 -0.053837195
0.082294784 -0.028546058 -0.03662793 -0.08666269 -0.009571144 -0.031236261 0.047526736 -0.058355168
0.036750555 0.029847758 -0.0386021 0.01570695 -0.02817823 0.05252771 -0.049352493 0.015240311
0.045465093 -0.08825446 0.011709068 -0.04231518 0.03233945 -0.029509114 -0.025697744 -0.07969436
0.010871637 -0.06443602 0.020984445 -0.025827894 0.0037419342 -0.058423832 -0.0055139773 -0.08199811
-0.054294836 -0.02849304 -0.04333519 -0.03197779 0.047860358 -0.100972086 -0.01309939 -0.01909913
0.033819582 -0.035557833 -0.015043021 0.06282381 -0.07339911 0.014226089 -0.017081616 0.032690864
0.013728822 -0.00051126967 -0.08574688 0.07006219 0.03521407 0.0075097675 -0.07755059 -0.056862265
-0.0027515863 0.040484004 -0.07078959 -0.07968925 -0.079991594 -0.031605035 -0.055882562 0.023958756
-0.023308802 -0.071240045 -0.012367301 -0.057864655 -0.025830548 -0.10671822 -0.08086161 -0.07329737
-0.044566855 -0.02326782 -0.02553785 0.045378078 0.0012996811 0.07204862 -0.06324178 -0.02183299
0.06497925 0.027735746 -0.033413786 0.0069085276 0.061660968 0.0019302684 -0.076929756 -0.035813514
-0.06455619 0.057309218 0.058689147 -0.10107754 -0.0053175916 -0.06782148 -0.07984422 -0.056756362
-0.020173462 -0.046058267 0.027884344 0.029146913 -0.07096556 0.071705535 0.08272798 0.07242779
-0.057181545 -0.026979186 0.03805285 0.0028953552 -0.052085668 0.030232573 0.052064463 -0.015747236
0.070983715 0.0069015087 -0.034935877 -0.005597315 0.009968257 0.053062037 0.08323494 0.004077381
0.025973912 0.027530285 -0.062488623 -0.06574925 -0.012423374 -0.02755498 0.038198877 -0.025563853
-0.05193711 -0.060706727 -0.029282155 0.061349932 0.011439759 -0.021654695 0.07153818 -0.035468254
0.017462486 0.08534427 0.006833068 0.045491356 -0.029313939 0.027293524 -0.00075648323 -0.051368464
-0.024547813 0.064746134 0.027253173 -0.010324485 0.045441616 0.0374991 0.08523753 0.005965052
-0.04104688 -0.019884644 -0.025130557 -0.06021077 -0.015432458 -0.033257283 0.00084676844 -0.05831679
-0.024330568 -0.07651279 -0.063532956 0.00505791 0.022391776 -0.052791495 0.08678428 -0.08295936
-0.031271555 -0.00073771813 0.07463206 0.008795258 -0.01766445 -0.0357722 -0.09345332 0.070233665
0.032402568 0.121077664 -0.032206986 0.019220598 -0.010644361 0.04284009 0.062661774 -0.08235834
0.04162432 0.020844255 -0.075026415 0.07583591 -0.06992059 -0.009546757 -0.06522279 -0.055320583
-0.07380062 0.061204776 0.020412004 -0.02865318 -0.016905313 -0.083009444 -0.08575111 -0.061322883
0.06733239 -0.06189788 -0.03815942 0.009763233 -0.069585234 -0.070506856 -0.077170394 -0.048978735
00000000: 5fea 7dbd eade 313d 9579 03bd e317 8a3d
00000010: 84a2 9dbc 4dd2 ccbd 8553 a0bd 9b67 99bd
00000020: 6c25 8d3d 52f6 1dbd 3da9 b4bd 3d21 2c3d
00000030: f1eb 443d 78c8 3b3d 8c60 73bc a44f 433c
00000040: 9848 aebd d1f2 b1bd 6fbc c83c 73f4 6d3d
00000050: 01bd 203d f0fd ec3b 1a9d 963c 54b8 8fbd
00000060: 0d0e 243d ec41 8b3d 6a1c a9bd 1e91 9fbd
00000070: 5596 2ebd ae01 05bd 956c 82bd 4697 3e3d
00000080: 8d6c d93c a5c6 a93c 923a 863c 1444 9cbd
00000090: 3396 9dbc 8275 38bd acf8 2b3d 433a 653b
000000a0: cfaa 673c b192 48bc 13cb 99bd 269a 8bbb
000000b0: 174c c1bb 4691 7dbd 02c6 98bc 6484 5cbd
000000c0: 2b8a a83d 6cd9 e9bc 2b07 16bd 357c b1bd
000000d0: 4ad0 1cbc 30e3 ffbc 65ab 423d d405 6fbd
000000e0: c087 163d 4983 f43c 3c1d 1ebd ddab 803c
000000f0: 08d6 e6bc 4c27 573d d725 4abd 7fb2 793c
00000100: 9b39 3a3d c1be b4bd 64d7 3f3c af52 2dbd
00000110: 5f76 043d 19bd f1bc 1384 d2bc cc36 a3bd
00000120: f31e 323c 08f7 83bd 92e7 ab3c 0595 d3bc
00000130: 3d3b 753b d44d 6fbd 98ae b4bb a0ee a7bd
00000140: 4364 5ebd 3c6a e9bc 3d80 31bd 25fb 02bd
00000150: 3909 443d 74ca cebd d39e 56bc c775 9cbc
00000160: 6786 0a3d 17a5 11bd 0177 76bc c5a9 803d
00000170: 4652 96bd 8b14 693c bfee 8bbc dbe6 053d
00000180: daee 603c ba06 06ba 0f9c afbd c47c 8f3d
00000190: a13c 103d 7f14 f63b d8d2 9ebd 68e8 68bd
000001a0: f553 34bb 8ed2 253d 22fa 90bd 1e34 a3bd
000001b0: a2d2 a3bd 4874 01bd 1de5 64bd 2745 c43c
000001c0: 1af2 bebc 4de6 91bd 38a0 4abc 7d03 6dbd
000001d0: 969a d3bc 158f dabd c69a a5bd ee1c 96bd
000001e0: bc8b 36bd 289c bebc c134 d1bc 5dde 393d
000001f0: 105a aa3a 3a8e 933d e884 81bd 19db b2bc
00000200: d713 853d 1336 e33c e5dc 08bd ee60 e23b
00000210: 3690 7c3d 0f01 fd3a 598d 9dbd 31b1 12bd
00000220: 0936 84bd 12bd 6a3d 0864 703d be01 cfbd
00000230: 313f aebb fde5 8abd 5e85 a3bd 5c79 68bd
00000240: d142 a5bc 98a7 3cbd b56d e43c 82c5 ee3c
00000250: 6456 91bd 5ada 923d 4a6d a93d 0555 943d
00000260: 3237 6abd 7403 ddbc 4edd 1b3d 00c0 3d3b
00000270: c857 55bd 4daa f73c 8c41 553d 5900 81bc
00000280: e95f 913d 0d26 e23b ec18 0fbd ae69 b7bb
00000290: e651 233c 9457 593d 1577 aa3d 8d9b 853b
000002a0: 3ec7 d43c 3187 e13c 12f4 7fbd 8ba7 86bd
000002b0: 688b 4bbc fbba e1bc 6d76 1c3d 496b d1bc
000002c0: 02bc 54bd 9ea7 78bd 21e1 efbc 114a 7b3d
000002d0: d46d 3b3c 3065 b1bc 9c82 923d 2947 11bd
000002e0: 7d0d 8f3c fac8 ae3d eee7 df3b 2555 3a3d
000002f0: c923 f0bc ab96 df3c bb4e 46ba bd67 52bd
00000300: 7f18 c9bc 9f99 843d 0c42 df3c 0728 29bc
00000310: fd20 3a3d a898 193d 0491 ae3d 7c76 c33b
00000320: c620 28bd 1fe5 a2bc 99de cdbc 929f 76bd
00000330: 6cd8 7cbc ca38 08bd abf9 5d3a 96dd 6ebd
00000340: e650 c7bc bdb2 9cbd 911d 82bd d3bc a53b
00000350: f56e b73c e53b 58bd f5bb b13d 99e6 a9bd
00000360: 9a16 00bd 6d63 41ba b2d8 983d fc19 103c
00000370: 09b5 90bc df85 12bd 7464 bfbd abd6 8f3d
00000380: 8eb8 043d 91f7 f73d 79eb 03bd 8474 9d3c
00000390: b065 2ebc 1779 2f3d d154 803d 7dab a8bd
000003a0: 437e 2a3d 92c1 aa3c 73a7 99bd dc4f 9b3d
000003b0: 8732 8fbd 006a 1cbc 8793 85bd d697 62bd
000003c0: c824 97bd dcb1 7a3d 1337 a73c 13ba eabc
000003d0: 037d 8abc db00 aabd 479e afbd b42d 7bbd
000003e0: 90e5 893d a288 7dbd 0d4d 1cbd f8f5 1f3c
000003f0: b482 8ebd e665 90bd 830b 9ebd ed9d 48bd

actor_layers.4.bias f4 [128]
-0.05780932 -0.07615592 -0.0260238 -0.13744438 -0.13027865 0.006148071 -0.04557216 -0.13613081
-0.13538294 0.01013737 -0.05656015 -0.1212585 -0.13416296 -0.06937252 -0.089395955 -0.18540037
-0.066598 -0.0878823 -0.11571081 -0.04506818 0.051527478 0.02088124 -0.17108653 -0.10090282
0.016036697 -0.022435442 -0.06479555 -0.08169776 -0.061583202 -0.09541584 0.06856983 0.043875482
-0.08964974 0.025715433 -0.008433108 -0.116685 0.049492445 -0.023030289 -0.011845836 -0.08767296
-0.102198556 -0.02654547 -0.14469536 -0.046222 -0.096207105 -0.064064145 -0.09772659 -0.02881174
-0.09228867 -0.10227097 -0.002721475 -0.065433845 -0.020700565 -0.122707576 -0.09481286 -0.023669947
-0.03891139 -0.08529137 -0.02233364 0.049896367 0.07964093 -0.09337402 0.036257967 -0.13847274
-0.10441648 -0.12259128 -0.016361779 0.032317836 -0.05057999 0.039425157 -0.052154962 0.045646835
-0.10902758 -0.010579242 0.0077301613 0.042207487 -0.010396162 -0.037771314 -0.080894 -0.116782986
-0.018758535 -0.08348426 -0.07966227 -0.098591484 -0.12239093 -0.07745634 -0.11574449 0.04898302
-0.08875233 -0.013235506 -0.044571787 -0.004733834 -0.017085107 -0.072065845 -0.07601077 0.012873168
-0.04347508 -0.039091732 -0.08572842 -0.087036334 0.07370877 -0.0309721 -0.096254095 0.0575013
0.099806584 -0.07092922 0.06986186 0.0066654044 0.03191722 -0.02484269 -0.09068094 -0.02019065
-0.07791048 -0.04575343 -0.06124979 -0.1012002 0.075197525 0.05722406 -0.1513318 0.07804031
-0.12713099 -0.018207591 0.06973792 -0.061903965 -0.01454833 -0.049781755 -0.085886836 -0.07859648
00000000: 77c9 6cbd a3f7 9bbd dd2f d5bc 38be 0cbe
00000010: c467 05be c275 c93b e0a9 3abd e065 0bbe
00000020: d3a1 0abe 3617 263c 9eab 67bd 6056 f8bd
00000030: 0462 09be 2e13 8ebd 3a15 b7bd 98d9 3dbe
00000040: 8864 88bd a3fb b3bd caf9 ecbd 6999 38bd
00000050: 7a0e 533d 220f ab3c 4f31 2fbe 23a6 cebd
00000060: 645f 833c 88ca b7bc 88b3 84bd 2851 a7bd
00000070: ab3e 7cbd 6169 c3bd 576e 8c3d c7b6 333d
00000080: 489a b7bd 2ca9 d23c 052b 0abc 8cf8 eebd
00000090: 97b8 4a3d 04aa bcbc 0a15 42bc e18d b3bd
000000a0: 7a4d d1bd e375 d9bc 052b 14be 4853 3dbd
000000b0: 3b08 c5bd 1034 83bd e124 c8bd 9906 ecbc
000000c0: d801 bdbd 7173 d1bd c65a 32bb 2e02 86bd
000000d0: 3b94 a9bc 1c4e fbbd 3f2d c2bd 7ae7 c1bc
000000e0: 8d61 1fbd 3ead aebd 0af5 b6bc 2260 4c3d
000000f0: c91a a33d e13a bfbd 3c83 143d cccb 0dbe
00000100: 4fd8 d5bd 2311 fbbd 2309 86bc b55f 043d
00000110: f72c 4fbd 467c 213d 71a0 55bd 2df8 3a3d
00000120: da49 dfbd 8f54 2dbc 4b4d fd3b c2e1 2c3d
00000130: aa54 2abc 18b6 1abd c1ab a5bd eb2b efbd
00000140: 80ab 99bc ccf9 aabd f925 a3bd 55ea c9bd
00000150: 19a8 fabd 6ea1 9ebd 720b edbd 6ba2 483d
00000160: c8c3 b5bd bcd9 58bc e890 36bd 471e 9bbb
00000170: 11f6 8bbc 4297 93bd 89ab 9bbd fbe9 523c
00000180: ed12 32bd a71e 20bd 6292 afbd 1b40 b2bd
00000190: a0f4 963d 34b9 fdbc de20 c5bd 7c86 6b3d
000001a0: 6567 cc3d 5743 91bd bc13 8f3d 7769 da3b
000001b0: a2bb 023d e682 cbbc eeb6 b9bd dd66 a5bc
000001c0: 888f 9fbd f367 3bbd 0fe1 7abd 0d42 cfbd
000001d0: 2901 9a3d c763 6a3d b9f6 1abe 99d3 9f3d
000001e0: a02e 02be 1628 95bc c1d2 8e3d 038f 7dbd
000001f0: 1e5c 6ebc f4e7 4bbd 70e5 afbd 31f7 a0bd

actor_mean.weight f4 [1, 128]
-0.03893158 0.0036773789 0.024194002 0.12032009 -0.017430803 -0.07478203 -0.027714936 0.029352406
0.013855248 0.0023030376 -0.0011040396 -0.018782264 -0.03651591 -0.021107942 0.008140442 0.1518925
-0.032685176 0.00067943044 -0.009456452 -0.052905228 0.12969288 0.0028336677 -0.058696244 0.0145172505
0.0090699075 0.011394355 -0.055530123 -0.07961974 0.0051499275 -0.0028082517 0.10448746 -0.038594965
-0.010537261 0.06920792 -0.09100261 -0.062376678 0.04492189 0.007469756 0.024912009 -0.006008408
-0.026535057 0.0006868286 0.031570815 -0.06676884 0.14286523 -0.00842923 -0.046549186 -0.005140983
0.07410407 0.00922693 0.051579952 -0.0036097972 -0.0045745634 0.0028497316 -0.053075135 -0.013715801
0.032705344 0.072242156 0.020234225 -0.024031265 -0.033869922 0.0037968145 0.06985081 0.019628169
-0.14122938 0.03826159 -0.0072788014 0.07106707 -0.05520671 0.06085236 0.036501557 0.043547668
-0.08622426 0.0207294 -0.0015138448 -0.009451112 0.005060579 0.0065820194 0.039161894 -0.02217969
0.007619972 0.0026197357 0.03346656 -0.0091955485 -0.016072491 -0.0025552278 0.021178842 -0.031721767
0.026196241 0.005398868 -0.0747142 0.025886264 0.01196526 -0.010936559 -0.016076058 0.00048205262
-0.0029098787 0.027674232 0.012566679 -0.0039032896 -0.038118843 -0.0026646934 -0.053961765 0.050333217
0.13685048 -0.046377618 -0.06739264 0.003209967 0.058350258 0.04192315 -0.0120265 0.005973982
-0.0023036902 -0.012497324 -0.040095672 -0.09776202 -0.04801218 0.09175028 0.019274956 0.08791401
-0.0047093267 0.001422759 -0.04519816 0.06838052 -0.0005525091 0.03043877 0.021846522 0.033531256
00000000: b876 1fbd 2e00 713b 8032 c63c 616a f63d
00000010: 0bcb 8ebc 5227 99bd 6f0a e3bc 7574 f03c
00000020: 1f01 633c 8fee 163b 6cb5 90ba 43dd 99bc
00000030: b591 15bd 90ea acbc 7d5f 053c b589 1b3e
00000040: e4e0 05bd ce1b 323a 3cef 1abc 27b3 58bd
00000050: 36ce 043e 0eb5 393b 796b 70bd c3d9 6d3c
00000060: f399 143c 64af 3a3c 8e73 63bd ad0f a3bd
00000070: b9c0 a83b a50a 38bb 85fd d53d c115 1ebd
00000080: 7aa4 2cbc e2bc 8d3d 945f babd b07e 7fbd
00000090: 0400 383d dbc4 f43b 4514 cc3c 2ee2 c4bb
000000a0: 0c60 d9bc 490c 343a 6650 013d 1abe 88bd
000000b0: 434b 123e c11a 0abc 5caa 3ebd b175 a8bb
000000c0: e0c3 973d 8d2c 173c 8045 533d 5992 6cbb
000000d0: 38e6 95bb 90c2 3a3b 5065 59bd 3db8 60bc
000000e0: 0af6 053d b2f3 933d 3fc2 a53c 37dd c4bc
000000f0: 30bb 0abd fad3 783b f10d 8f3d 41cb a03c
00000100: 6f9e 10be 2fb8 1c3d 0383 eebb 9d8b 913d
00000110: 6e20 62bd 5340 793d a882 153d 0a5f 323d
00000120: 5896 b0bd b4d0 a93c 346c c6ba d6d8 1abc
00000130: 37d3 a53b fbad d73b 3968 203d 2eb2 b5bc
00000140: f5b0 f93b dfaf 2b3b 3b14 093d eda8 16bc
00000150: 75aa 83bc 9c75 27bb 407f ad3c afee 01bd
00000160: 8099 d63c fde8 b03b c203 99bd 6e0f d43c
00000170: f009 443c 412f 33bc f0b1 83bc 02bc fc39
00000180: aab3 3ebb 12b5 e23c 79e4 4d3c 55ce 7fbb
00000190: 8122 1cbd 23a2 2ebb 0307 5dbd 342a 4e3d
000001a0: 8822 0c3e 75f6 3dbd 2705 8abd 4f5e 523b
000001b0: ae00 6f3d 9cb7 2b3d cc0a 45bc 65c1 c33b
000001c0: 82f9 16bb 93c1 4cbc 5c3b 24bd 7437 c8bd
000001d0: 6ba8 44bd 92e7 bb3d 83e6 9d3c 430c b43d
000001e0: b250 9abb df7b ba3a b521 39bd 160b 8c3d
000001f0: 42d6 10ba ba5a f93c 7af7 b23c 1258 093d

critic_layers.0.weight f4 [128, 128]
0.09902806 -0.034322523 0.06539279 -0.1464258 0.09458385 0.07979157 -0.14134759 0.118205644
0.12749451 -0.05623024 -0.31630215 -0.15882045 0.10969457 -0.20046909 0.2563635 -0.2291602
-0.07408944 0.077857316 -0.18370825 -0.07678915 -0.038550023 -0.13960665 -0.2626726 -0.020678766
0.058005795 0.021778848 0.057450287 0.07593992 0.016433429 -0.08506902 0.08207875 -0.117280886
-0.05869318 -0.015779104 0.1105141 -0.5739703 -0.21167493 -0.03812593 0.03621088 -0.0062603233
0.01026749 0.038678817 0.010699179 0.045383483 -0.3995373 0.02465384 -0.33346766 -0.05950799
0.026809877 -0.093900576 0.061442927 0.045221977 0.011940057 -0.038123954 0.044003986 0.00842582
-0.23755576 -0.0048158863 -0.10564287 -0.04130091 -0.1378354 0.28076425 -0.06989456 0.09194186
0.0029906598 0.0050108624 0.009080372 0.15994564 -0.05667387 0.051989727 0.1112241 0.1627824
0.074431464 -0.14295611 0.03403796 0.2769046 0.07779903 -0.05572496 0.124972224 -0.084692724
-0.06501754 0.09592062 0.03835009 -0.14417772 0.02716541 -0.17477123 -0.07201719 0.03316887
-0.05578714 0.06871868 0.13280857 -0.014788185 0.050864585 0.11525539 0.092068456 -0.07845965
-0.06437466 0.11109423 -0.123899445 -0.034657653 0.027046708 -0.11348015 -0.004059167 -0.16349274
0.06001805 -0.009969183 -0.015176392 -0.019956606 0.10143904 -0.32528764 -0.16471694 0.13251616
-0.04442651 -0.0081889285 0.08947829 -0.0074828365 -0.40524784 -0.0064515513 -0.4096717 0.059267923
-0.023560492 -0.35329887 0.06432091 0.13467617 -0.2439697 -0.036189985 0.10497178 -0.05380345
0.12475094 0.008166505 0.0854408 0.09028171 -0.01795702 0.08451654 -0.015209836 0.0017688617
0.035542205 0.032606747 -0.15789776 -0.00090690545 -0.015383209 -0.018608443 0.045682736 0.09516948
-0.12938054 -0.0690801 -0.040737398 -0.081649214 -0.1619762 -0.17057706 -0.04783874 -0.009309556
-0.073450685 -0.08362356 0.04252548 0.04501234 0.026248172 -0.12847823 0.19964638 -0.080034964
0.04364496 -0.09381278 0.08249325 0.09280826 -0.09875827 0.07452098 -0.027302742 -0.07240256
0.004293665 0.07732654 0.004958069 0.024007715 -0.082973324 -0.016398646 -0.028066546 -0.03797865
-0.0006584512 0.089099854 -0.13051184 0.07566057 0.042631544 -0.12847838 0.08401701 -0.0017994245
-0.055691272 -0.103134274 -0.110657655 -0.10801171 -0.12659842 0.10376617 0.2476506 -0.032554023
0.07526796 0.032359503 0.0030770279 0.081404924 0.02088299 -0.13729753 0.014925534 -0.08244695
-0.045631975 -0.027969735 -0.04185686 -0.005851904 0.010721851 0.05753577 0.09285177 0.090339765
-0.09050425 -0.012714519 0.07393282 -0.04939142 -0.04846041 -0.09504242 0.06493289 -0.048491262
-0.081191465 0.11080272 0.0038237663 0.033885784 0.07719719 0.050476152 0.11535305 -0.005211755
0.053241216 0.20152237 0.16520931 0.009068245 0.027453505 -0.17539643 0.052054394 -0.104709774
0.102569364 0.002985227 0.1007627 0.025186956 -0.07461636 -0.04937025 0.09283208 0.07860176
-0.04095942 0.13587415 -0.049514342 -0.12189645 -0.119484976 0.105415866 0.11947884 -0.02315769
-0.2537563 0.05335348 -0.017643986 0.033977754 -0.057754073 0.11629187 0.035973225 -0.077647656
00000000: 39cf ca3d c695 0cbd a8ec 853d a5f0 15be
00000010: 2db5 c13d c369 a33d 6cbd 10be cd15 f23d
00000020: ec8d 023e ae51 66bd 5bf2 a1be d4a1 22be
00000030: 8ca7 e03d c547 4dbe 1442 833e f9a8 6abe
00000040: 34bc 97bd a873 9f3d 041e 3cbe a143 9dbd
00000050: a1e6 1dbd 0cf5 0ebe 067d 86be 8466 a9bc
00000060: 7c97 6d3d 8e69 b23c fe50 6b3d 6486 9b3d
00000070: 669f 863c ab38 aebd e718 a83d f630 f0bd
00000080: 4368 70bd 2e43 81bc 3755 e23d b8ef 12bf
00000090: 50c1 58be ef29 1cbd dc51 143d 6623 cdbb
000000a0: f938 283c ae6d 1e3d 9c4b 2f3c 08e4 393d
000000b0: 2790 ccbe daf6 c93c 46bc aabe a6be 73bd
000000c0: 63a0 db3c f24e c0bd 94ab 7b3d ae3a 393d
000000d0: 3ba0 433c dd27 1cbd 863d 343d 730c 0a3c
000000e0: d141 73be 95ce 9dbb 4a5b d8bd 252b 29bd
000000f0: b924 0dbe 55c0 8f3e e124 8fbd 044c bc3d
00000100: f2fe 433b 2932 a43b d7c5 143c cac8 233e
00000110: dc22 68bd 2ef3 543d 76c9 e33d 6eb0 263e
00000120: 866f 983d 1663 12be 636b 0b3d 71c6 8d3e
00000130: 1955 9f3d db3f 64bd 70f1 ff3d 6173 adbd
00000140: ea27 85bd 0872 c43d fc14 1d3d 53a3 13be
00000150: fe89 de3c 3bf7 32be c07d 93bd 15dc 073d
00000160: 0e81 64bd 61bc 8c3d f8fe 073e 254a 72bc
00000170: 6257 503d 050b ec3d 638e bc3d 74af a0bd
00000180: ddd6 83bd 5f85 e33d febe fdbd 2ff5 0dbd
00000190: 0f91 dd3c 4868 e8bd c302 85bb a46a 27be
000001a0: 7dd5 753d c955 23bc 67a6 78bc 097c a3bc
000001b0: 45bf cf3d 1a8c a6be 8fab 28be 51b2 073e
000001c0: 92f8 35bd db2a 06bc 6540 b73d 9532 f5bb
000001d0: a57c cfbe 8967 d3bb 7dc0 d1be ecc2 723d
000001e0: ef01 c1bc 97e3 b4be aeba 833d 8de8 093e
000001f0: 31d3 79be f33b 14bd 72fb d63d 0261 5cbd
00000200: 6c7d ff3d cecc 053c 96fb ae3d 9ee5 b83d
00000210: 9a1a 93bc 0217 ad3d ad32 79bc 26d9 e73a
00000220: b494 113d a78e 053d f3af 21be 65bd 6dba
00000230: db09 7cbc bc70 98bc d21d 3b3d 37e8 c23d
00000240: 557c 04be de79 8dbd 42dc 26bd b437 a7bd
00000250: 17dd 25be c1ab 2ebe 8ef2 43bd 1c87 18bc
00000260: 506d 96bd d442 abbd 332f 2e3d dc5e 383d
00000270: 6806 d73c cc8f 03be 1a70 4c3e 5fe9 a3bd
00000280: 0fc5 323d ea20 c0bd 39f2 a83d 4212 be3d
00000290: c741 cabd 759e 983d 00aa dfbc cb47 94bd
000002a0: dfb1 8c3b 615d 9e3d 4c77 a23b d4ab c43c
000002b0: ebed a9bd 7456 86bc d0eb e5bc 808f 1bbd
000002c0: e99b 2cba fc79 b63d e5a4 05be eef3 9a3d
000002d0: 6a9e 2e3d d68f 03be 1c11 ac3d abda ebba
000002e0: 881c 64bd 1038 d3bd 7ba0 e2bd 3e35 ddbd
000002f0: 04a3 01be 5c83 d43d 1e98 7d3e 5e57 05bd
00000300: 1726 9a3d 668b 043d f6a7 493b a0b7 a63d
00000310: ce12 ab3c b997 0cbe 3a8a 743c f2d9 a8bd
00000320: 98e8 3abd c920 e5bc 1972 2bbd 54c1 bfbb
00000330: b4aa 2f3c a1aa 6b3d 1229 be3d 0e04 b93d
00000340: 4b5a b9bd 8f50 50bc 176a 973d a84e 4abd
00000350: 6c7e 46bd 9aa5 c2bd 89fb 843d c69e 46bd
00000360: b647 a6bd 89ec e23d 2798 7a3b d2cb 0a3d
00000370: 8f19 9e3d 15c0 4e3d 383e ec3d 5fc7 aabb
00000380: 7613 5a3d e15b 4e3e a12c 293e fa92 143c
00000390: 2ce6 e03c 1f9b 33be fd36 553d 1472 d6bd
000003a0: e30f d23d cca3 433b ad5c ce3d e054 ce3c
000003b0: 76d0 98bd 7638 4abd bf1e be3d f6f9 a03d
000003c0: 11c5 27bd 9822 0b3e 8dcf 4abd d9a4 f9bd
000003d0: 8ab4 f4bd 46e4 d73d 52b1 f43d 32b5 bdbc
000003e0: 59ec 81be 2e89 5a3d 1f8a 90bc 422c 0b3d
000003f0: 898f 6cbd 6f2a ee3d a958 133d bc05 9fbd
