experiments/exp025_with_history/model.pth (torch, 156507 bytes, 11 tensors)

conv.0.weight f4 [16, 1, 5]
000000 3c d9 4e 3e 75 15 39 3e 6f e7 7a 3d 05 fb c9 3d
       0.20200056 0.18074591 0.06125587 0.09862331
000010 db 61 8c be 6b e8 bc bd b2 1a 8e 3e 9c 2c 00 be
       -0.27418408 -0.09224018 0.27754742 -0.12517017
000020 b0 c4 9a be 21 fe 50 be 76 e6 46 3f 68 19 1b 3f
       -0.30228186 -0.20409442 0.77695405 0.6058564
000030 12 37 b8 3e 8e e9 23 3f 49 50 04 3f 07 31 4f be
       0.35979515 0.6402825 0.51685005 -0.20233546
000040 de 0b 2d bb e1 45 13 3f 77 5c c6 3e b0 33 c9 b8
       -0.0026404778 0.575285 0.3874242 -9.5940544e-05
000050 b9 05 31 be 14 47 2f 3e 8f f5 9c bb bd 82 80 be
       -0.1728734 0.17116958 -0.004790015 -0.25099745
000060 15 d4 8d 3c 2f 48 a1 be 21 2c 26 3e 33 82 c6 be
       0.017313043 -0.31500384 0.16227771 -0.3877121
000070 d8 18 60 3e 04 34 1d bd 2a 58 c6 3e 01 87 99 3e
       0.21884477 -0.038379684 0.3873914 0.29985812
000080 b7 d5 b1 be ce e0 4c 3e 66 e0 b4 be b4 d1 d8 3e
       -0.34733364 0.20007631 -0.35327452 0.4234749
000090 82 2d c0 bd 95 23 9f 3e 68 6f 15 be ef 3c 42 bb
       -0.0938368 0.31081834 -0.1459328 -0.002963837
0000a0 38 fa d1 be 4e ec 99 3e 2e 64 d0 be 0c a9 dc be
       -0.41011214 0.300631 -0.4070143 -0.43097723
0000b0 4f 5c 39 3e 8f bb a0 3e 35 f4 81 be a4 e8 10 3f
       0.18101619 0.31393096 -0.25381628 0.5660498
0000c0 9d 4c 3e bd 94 5d eb 3e c8 9d 5e 3e 9d e9 81 be
       -0.046459783 0.45969832 0.21739876 -0.25373545
0000d0 76 bc ac be 57 56 2d be a4 92 84 3c a2 f3 5c 3e
       -0.33737534 -0.16927467 0.016183205 0.21577314
0000e0 4f 69 18 3d 1b 35 23 3d 48 44 be be 8a 57 5c be
       0.037209805 0.039845567 -0.3716147 -0.21517769
0000f0 95 83 bf be b2 f7 73 3e 21 5b bf bd 4f 1b b4 3e
       -0.37405077 0.23824957 -0.09343553 0.35177085
000100 82 70 a8 3d e1 7e 28 be 09 c1 b7 3e 57 16 71 3e
       0.08224584 -0.1645465 0.35889462 0.23543678
000110 8f 41 12 bd 72 4f 6b 3e 82 8f ba bc 5f b2 db be
       -0.035707053 0.22979525 -0.022773508 -0.42909524
000120 f5 cd 71 be e8 b6 45 be 64 2c 07 be 95 86 e2 bc
       -0.23613723 -0.19308054 -0.13200527 -0.027652064
000130 64 9f 33 bd 0e 82 a8 be 83 57 21 be 1e 88 67 bc
       -0.04385318 -0.32911724 -0.1575604 -0.014131574

conv.0.bias f4 [16]
000000 0e b1 c7 3e bb bc 76 3d 84 d0 ba 3e 2f 45 d2 bb
       0.3900227 0.06023858 0.3648721 -0.0064169387
000010 77 1a 8c be 29 55 0d be 1d 43 e8 be 4a a1 9d 3e
       -0.2736394 -0.13802017 -0.45363703 0.30787116
000020 67 7a d5 be 04 68 89 3d 2a 99 bd 3e a6 9d d2 3e
       -0.41694948 0.067092925 0.37030917 0.411359
000030 6a c0 83 3e f2 db 88 be ee e4 be 3e bf 0a 6c 3e
       0.25732738 -0.26730305 0.37284034 0.23050974

conv.2.weight f4 [32, 16, 5]
000000 18 2e eb 3d cb 05 09 3c 38 12 91 3c 29 5a c0 bd
       0.11483401 0.008363198 0.017708883 -0.09392197
000010 91 ae 3a 3d 26 32 f9 bd 0d 60 8e 3d c1 dd c1 3d
       0.045576636 -0.12167768 0.06951914 0.09466124
000020 66 71 41 3d 7d 93 ad 3c d3 42 f3 3d 1c 3a 2c 3d
       0.047227286 0.021188492 0.1187798 0.042047605
000030 1c bb 03 bd 92 9c c9 bc b5 9f a2 3d bc ab c0 3b
       -0.032160863 -0.024610791 0.07940618 0.0058798473
000040 7d af 25 3c 89 42 76 3e 67 d4 f7 3d f6 0c 8f 3d
       0.01011264 0.24048819 0.121010594 0.06984894
000050 8f 07 67 3d d1 16 89 3d e8 d2 a7 3d 4a 99 c1 bd
       0.056403693 0.06693805 0.08194524 -0.09453066
000060 ad 17 8c bd 67 12 11 bd bf 35 cf 3c ec b6 9c bd
       -0.06840453 -0.03541794 0.025294183 -0.07652077
000070 7f e8 da bc 49 0d 97 3d 62 b5 9d bc b5 63 d0 bd
       -0.02672219 0.07375581 -0.01925153 -0.101752676
000080 75 68 bb 3d 41 68 c5 bd 75 04 bc 3c fa 58 54 3d
       0.09150783 -0.096390255 0.022951344 0.051842667
000090 2a 5a 8f bc 81 b4 88 3d 38 10 f6 bb fc 34 87 bb
       -0.017499048 0.066750534 -0.0075092576 -0.0041261893
0000a0 28 dd c5 bc 40 0a c4 3d b0 70 68 3d f6 c2 ac bd
       -0.024153307 0.095722675 0.056748092 -0.08435623
0000b0 f9 55 97 3d 94 9a 75 bd 7b b3 ec 3d ad c6 01 bd
       0.07389445 -0.05996187 0.11557671 -0.031683613
0000c0 1c 9a c0 3d 80 6a 07 bd 29 30 02 3d 50 3d 2f bd
       0.09404394 -0.03306055 0.03178421 -0.04278308
0000d0 d9 f1 9a bc a1 c7 a4 3d 03 dd 59 3d 98 b0 39 bb
       -0.01891415 0.08045889 0.05318929 -0.0028334018
0000e0 64 6e 5c bb 43 57 fd bc b9 4f 87 bc 41 dd bb bd
       -0.0033635134 -0.030925399 -0.016517507 -0.0917306
0000f0 cc ba 9c ba 19 4c fa 3c d4 7e dd bd 0e d7 4c bc
       -0.0011957525 0.030553864 -0.10815206 -0.012502445
000100 b9 3e 38 bd ab 76 20 bd 74 65 40 3c 2d 66 50 3d
       -0.044981692 -0.03917567 0.011742938 0.050878692
000110 cd 89 1e bd c6 56 a8 bc c0 5c db bc fe 85 5f 3d
       -0.038705636 -0.02054919 -0.026777625 0.054571144
000120 e0 93 90 3d 18 67 46 3d e8 ec 87 3d 6c 87 d9 bc
       0.07059455 0.04843816 0.06636983 -0.026553832
000130 91 38 de bd b7 1d 3b 3d 60 56 14 bd 43 82 99 bd
       -0.10850633 0.045682635 -0.036215186 -0.074955486
000140 3a 99 b6 3d 2b cd f2 bb ea c2 84 3c e0 f8 0d 3d
       0.089159444 -0.007409712 0.016206224 0.034661174
000150 40 b2 32 3c a2 d8 db 3d 9c 44 9d 3c 1c ac d4 3d
       0.010906756 0.10734679 0.019197755 0.1038439
000160 ca 30 28 bc 3e 97 87 3c 59 3b db 3d 5a 67 91 3d
       -0.0102655385 0.01655161 0.10704679 0.07099791
000170 42 80 d0 bc c3 9f 9b bd 40 b2 32 bd 93 d4 29 be
       -0.025451783 -0.075988315 -0.043627024 -0.16584997
000180 12 a4 34 3d 93 e6 07 bd be de b5 3b bb c8 1f bd
       0.044101782 -0.033178877 0.0055502346 -0.03900979
000190 65 93 8b bd a6 04 0e bd b2 8f 86 bc 91 b2 6c bd
       -0.06815223 -0.0346724 -0.016425941 -0.05778748
0001a0 72 dd 35 3d ed f2 53 3d e2 19 b9 bc 07 23 bc bb
       0.04440064 0.051745344 -0.02259535 -0.0057414803
0001b0 ae 84 cf 3d 8d 9a 40 bd d7 27 f8 3d 62 03 ab bd
       0.101327285 -0.04702239 0.12116974 -0.083502546
0001c0 33 ab d6 3d d1 66 b8 bd 8b 6b ba 3d 6f c9 54 3d
       0.104818724 -0.09003986 0.091025434 0.051949915
0001d0 8c 08 ab bc 4f 13 41 bc dd 3c c9 3d 9b 48 5a 3c
       -0.020878099 -0.011784389 0.09826062 0.013322975
0001e0 e9 1a f1 3d 79 f9 12 3d 19 7f 57 bc 0e 27 91 3c
       0.11772711 0.035882447 -0.013152861 0.017718818
0001f0 16 8e a8 bd 59 dc 3d bc ed e5 04 bd 87 2e e2 3c
       -0.08230226 -0.0115881795 -0.032445837 0.027610077
000200 56 fd 8f 3d ba 57 c1 3c ff da 93 bd 05 45 07 bd
       0.07030742 0.023601402 -0.072195046 -0.033024807
000210 be 35 70 bd 5e 11 0c bd 8b 8e 04 3e 5f cc 19 3c
       -0.058645003 -0.03419625 0.12945001 0.009387105
000220 aa 87 67 bd 5d 37 db 3d cf d5 48 bd 0f 37 bb 3d
       -0.056525864 0.10703919 -0.04903203 0.09141361
000230 c5 96 a5 bd ed 7b b4 bd 2e fb 14 3d 3c cd 17 3d
       -0.08085398 -0.088126995 0.036372356 0.03706096
000240 e0 62 8c bd b5 d6 00 3d 80 83 b9 bd 1f 22 58 3d
       -0.068547964 0.03145476 -0.09058285 0.052766915
000250 59 ab f2 bb b1 5f ec bb 92 77 74 3d 8c e5 6b bd
       -0.00740568 -0.0072135557 0.059684344 -0.05759196
000260 3f 42 ba 3c 70 23 d6 bb 9c d7 42 3c 37 40 fe 3d
       0.022736667 -0.006534986 0.011892226 0.12414592
000270 59 e8 ea 3d 7d 8c de bc dd ec 64 bd e6 84 ef 3c
       0.11470098 -0.0271666 -0.055889953 0.029238176
000280 af 00 9c bd 41 a4 a6 bd da 68 85 bc c5 44 0e 3d
       -0.07617318 -0.08136798 -0.016285349 0.034733552
000290 ff c5 34 bd 15 bb d9 bd 80 7a 05 3c b3 63 2b 3d
       -0.044134136 -0.10631386 0.008146882 0.041843127
0002a0 cd 03 d0 ba 84 eb b1 3d 7c 70 a0 3d bf 34 4f bd
       -0.0015870273 0.08687499 0.07833955 -0.050587412
0002b0 1b b4 2e bd ca b6 cd 3d e2 3f c0 3c 2c 66 34 3e
       -0.04265223 0.1004463 0.023467962 0.176171
0002c0 8a fd 29 bd 82 c4 60 3b 5f c6 20 3e 5e 0e a6 3d
       -0.04150156 0.0034296815 0.15700673 0.08108209
0002d0 83 7f f4 bd 4e 6c f6 3c c1 b0 25 3d cb 54 c1 bd
       -0.119383834 0.03008094 0.04045177 -0.09440001
0002e0 f4 1c 28 3c 65 c5 5f 3a 01 b7 97 3b fa 81 ef 3c
       0.010260809 0.0008536189 0.00462997 0.029236782
0002f0 02 84 9f 3d 9d a0 42 3d b7 66 c2 bd 08 0c 50 3d
       0.0778885 0.047516454 -0.094922476 0.050792724
000300 57 41 79 3d 51 71 f5 3c a0 7a d8 bd c6 f0 dd 3d
       0.06085333 0.02996126 -0.10570264 0.108369395
000310 65 b9 9d 3d 71 c0 d3 3d bf f1 4d bd ce ee a1 bd
       0.07701377 0.1033944 -0.050279375 -0.079068765
000320 6c b8 f8 3c 74 c7 b5 3d 1a 2a c5 bd af b8 21 3d
       0.030361377 0.08875933 -0.09627171 0.03948277
000330 de 6f c0 3d 1f 83 1d 3d af b6 16 bb 2b 54 f3 3c
       0.09396337 0.038455125 -0.0022997072 0.02970322
000340 72 f1 e7 3d 08 f3 18 bc 0b 11 80 3d 00 c1 01 bd
       0.11325349 -0.009335287 0.06253251 -0.0316782
000350 38 4a de bd ec 22 8b bd 5b d6 d1 3d 72 43 60 3d
       -0.10854 -0.0679377 0.10245963 0.05475182
000360 f0 d6 aa 3d b6 fd 83 3d fb df e4 bd 12 c3 4a bd
       0.08341777 0.06444876 -0.111755334 -0.04950244
000370 c2 1b 38 bc 3c 9c 6f bd a7 34 b1 bd 8d 72 95 bd
       -0.011237087 -0.058498606 -0.08652621 -0.072972395
000380 52 d1 85 3d 5a d0 87 3d 90 7b d2 3d 3d ba a9 bd
       0.06534065 0.06631537 0.10277474 -0.08287475
000390 29 8d 3e bd 45 ad b6 3d c9 69 94 bd 64 93 37 bd
       -0.04652134 0.08919767 -0.072467394 -0.044818297
0003a0 67 82 b5 3d 2d c2 d0 bc 3d 26 87 3d 66 96 b1 bd
       0.08862763 -0.025483215 0.0659909 -0.08671264
0003b0 df 00 fb bc d2 de 0d 3b 98 03 96 3d 4d 35 7e 3d
       -0.030640064 0.0021647704 0.07324904 0.06206255
0003c0 6f ef ac 3d 4f 16 74 bd 1c 84 b9 3d 50 60 32 3c
       0.08444106 -0.059591588 0.09058401 0.0108872205
0003d0 bf ac db bd 4c 14 8d 3d 34 f8 dd bd 68 13 42 3b
       -0.10726308 0.06888637 -0.108383566 0.0029613618
0003e0 ad 15 f3 bd 37 03 a7 3d 35 9a 1f 3d 2d b0 56 bd
       -0.11869369 0.0815491 0.038965423 -0.052414108
0003f0 90 e8 15 3d e4 e9 e4 bd 88 d4 78 bd fc 9a 55 3e
       0.036598742 -0.111774236 -0.06074956 0.20859903

conv.2.bias f4 [32]
000000 b3 8b b3 3c a7 3f b2 3d 2f d3 bf 3d f2 4d 72 bd
       0.0219172 0.08703547 0.09366452 -0.059156366
000010 fa f4 b4 3d 47 da b2 bd 15 99 37 3d 1a 02 87 3c
       0.08835788 -0.08733039 0.044823725 0.016480494
000020 a3 75 55 bd 98 46 8c 3d 56 96 a5 bd 38 46 8c 3d
       -0.05211414 0.06849402 -0.08085315 0.06849331
000030 c3 20 75 3d c2 7c 75 bd b0 ff fc bc 12 1d af 3d
       0.059845697 -0.05993343 -0.03088364 0.085504666
000040 89 60 48 3d a3 1e 0b bd b0 92 aa bc e0 6b 0a bd
       0.048920188 -0.033964764 -0.0208219 -0.033794284
000050 e6 87 d3 bc 1f 12 0b bd 75 5c d2 bd f6 5c c2 bd
       -0.025821637 -0.03395283 -0.10271541 -0.09490387
000060 b2 b7 9a 3d 5f d0 38 bd 97 3f 93 3c 3d a8 ad 3d
       0.07554568 -0.045120593 0.017974658 0.084793545
000070 6a 51 04 bd 54 a8 18 bd 2d 54 c8 bd cc 8b a2 3d
       -0.032304205 -0.037269905 -0.0978168 0.079368204

conv.4.weight f4 [16, 32, 3]
000000 85 c3 32 3d ef bf 24 bd 95 28 93 3d fa e7 ee bd
       0.043643493 -0.040222105 0.07185475 -0.1166534
000010 13 1a 7b bd f7 53 9d 3d 38 70 bb bc 77 18 72 bd
       -0.061304163 0.07682031 -0.022880659 -0.059105363
000020 5e 42 b0 bd c5 14 00 bd 60 e7 2e 3d 31 87 97 3d
       -0.086064085 -0.031269807 0.042701125 0.073988326
000030 c6 3d d4 bd 3a 42 b3 bd 25 52 99 bc 73 55 2f bd
       -0.10363345 -0.08752866 -0.018715927 -0.0428061
000040 c5 cd 3b 3d e5 f3 0c bb be 5b 8d 3d ca 67 80 3d
       0.045850534 -0.0021507677 0.06902264 0.06269796
000050 e8 7d 94 3a fd da 96 3d 78 8e b7 3b 05 7e b8 3c
       0.0011329027 0.073659874 0.0056017004 0.022521028
000060 59 8b 87 3d e9 9b 70 3d f6 00 37 3d 54 ac 87 3c
       0.06618375 0.058742438 0.04467865 0.016561665
000070 15 20 a3 bd eb 42 c8 3c f2 c1 24 3d 7c 6d a0 3d
       -0.079651035 0.024445971 0.040224023 0.078333825
000080 71 5a bd bd ee c7 87 bd 9e b7 52 3d 48 80 35 bd
       -0.09245766 -0.066299304 0.051444642 -0.04431179
000090 f4 70 d6 bd ab a4 38 bd 88 81 c1 bd f1 f4 75 bd
       -0.10470763 -0.045078915 -0.09448534 -0.060048047
0000a0 f7 96 fa bc f9 a1 86 3d da 5a b1 3d 22 01 a0 bd
       -0.030589564 0.065738626 0.08659907 -0.07812716
0000b0 56 2d c9 bd 77 2f 96 3d eb d9 5f 3d 0b 69 c2 3d
       -0.098231 0.07333272 0.054651182 0.094926916
0000c0 fb a6 68 3d ab ce a2 bc ce 0c e4 3c 5b 53 8e bd
       0.05679987 -0.019873938 0.027838137 -0.069494925
0000d0 16 7d c7 bc 19 6f 19 3c e4 ff 7a bd 8e e8 b9 bd
       -0.024351638 0.009364867 -0.061279193 -0.090775594
0000e0 4f 5e 5a 3c 0f db 3b bd 0d 5d c6 bd e3 c3 81 bd
       0.013328149 -0.045863207 -0.09685717 -0.063361906
0000f0 18 f4 7e bc 43 f5 9b 3d bb a5 0d be eb be ab 3d
       -0.015561126 0.07615139 -0.13832752 0.08386024
000100 38 fe 0c bb 32 bd f3 3c 2c 05 bc bd b0 c4 d3 bd
       -0.002151383 0.029753301 -0.09180674 -0.103402495
000110 1e 59 66 bd 60 29 97 bd 2d 21 8b 3d ac 1b d1 bd
       -0.056237333 -0.073809385 0.06793437 -0.10210356
000120 30 16 75 3d 17 bc 0d bc 6b 1d bc 3d fb eb d0 3d
       0.059835613 -0.008650801 0.091852985 0.1020126
000130 5d 04 28 bd 42 a4 e3 3d 42 f5 b3 bd a8 b5 7d bd
       -0.041019786 0.11115314 -0.087870136 -0.06194082
000140 a7 cb a4 3d 57 94 5d 3d f5 bd f0 bc 80 da 57 3d
       0.08046656 0.054096546 -0.029387454 0.052698612
000150 c7 b3 eb bd 9d 6d 03 3c 9b b4 c7 bd 9b 30 43 bd
       -0.11508899 0.008021739 -0.09751245 -0.047653776
000160 2c c5 d0 3b 1e 1c c0 bd 07 4a ae 3d c9 e5 14 bd
       0.006371161 -0.09380363 0.08510213 -0.036351953
000170 02 4c ca 3d 95 d8 dd 3d 7a b4 5f bd 20 58 d3 3b
       0.098777786 0.10832325 -0.054615475 0.0064497143
000180 15 57 b3 3d 44 7a 85 bd 1e 48 3f bd 87 2d ce bd
       0.08756844 -0.06517461 -0.046699636 -0.100672774
000190 23 40 91 3d e6 78 a4 3d 5b e6 f3 3b 66 0a 12 bd
       0.07092311 0.08030872 0.007443232 -0.035654448
0001a0 2d 7a e4 bb d7 f3 a2 3d 9b c5 65 3d 3e 49 9b bd
       -0.0069725723 0.07956665 0.056096654 -0.07582329
0001b0 87 45 a2 3c 8c 84 3c 3d 01 d7 89 3d ce 4b 4e bd
       0.019808544 0.046024844 0.06730462 -0.05036526
0001c0 77 68 9b 3c 56 9c 2f 3d 39 ba 78 3d f1 fd ce 3d
       0.018970711 0.042873703 0.06072447 0.10107029
0001d0 26 4b b7 bd a1 13 75 bd 5d 1b ee 3c 4e 5c 74 3d
       -0.0894988 -0.059833173 0.029065782 0.05965834
0001e0 a3 80 50 bd 27 92 c0 3c 1d 6a 97 bd 55 8d 75 3d
       -0.050903928 0.02350719 -0.073932864 0.059949238
0001f0 1b ce b9 bd 4e ce ac bd f6 e3 07 bd f1 cc 98 3d
       -0.090725146 -0.08437787 -0.033176385 0.074609645
000200 02 da a7 3d fa 7d 84 3d 1f f4 0b 3d 7d 0d 9f 3d
       0.081958786 0.064693406 0.03416836 0.077662446
000210 85 34 5d bc ad b4 65 3d 1f fc ab 3d bd 2c 26 3d
       -0.013501291 0.05608051 0.08397698 0.04057001
000220 80 58 6e bd b7 26 ea 3c e3 d6 4f bd 8e 59 25 bd
       -0.05818987 0.028582914 -0.05074204 -0.04036861
000230 b5 d4 d2 3c da c3 29 3d e4 f3 30 3d e5 ee 13 3c
       0.025736192 0.041446544 0.043201342 0.009029125
000240 cb c5 94 3d ee a3 37 bc d7 3d 53 bc 8b 3d ea 3b
       0.072642885 -0.0112085175 -0.012893162 0.00714845
000250 e3 30 9b 3d b7 10 92 3d 15 65 13 3d 2a c2 96 3d
       0.07577684 0.07132094 0.03598507 0.073612526
000260 1c 52 9d 3c 15 ab a1 3d 96 e7 08 3d fb f5 5b bd
       0.019204192 0.078939594 0.033423983 -0.053701382
000270 bd ba 50 3d a1 f6 96 bd 5f 41 02 bd db 73 f3 3c
       0.050959338 -0.073712595 -0.031800624 0.02971833
000280 e4 88 c6 3c 22 c0 68 bc c1 26 25 bc 71 0d b7 bd
       0.024235196 -0.014205964 -0.01008004 -0.089381106
000290 8d 5d c7 bd 0c 89 b2 3d 6e e0 f8 3c ea 8b 8e 3d
       -0.0973464 0.08717546 0.030380454 0.0696028
0002a0 ab 8c 80 3d 11 03 59 3d e0 5d aa 3d 4b 49 97 3d
       0.0627683 0.05298144 0.083186865 0.073870264
0002b0 94 ad 36 3a 18 fc 6e 3a e2 19 c3 3b 0e 9a 96 3b
       0.0006968614 0.00091165444 0.005954013 0.0045960015
0002c0 bc 75 41 3c ac 6f 18 bc 34 7b 53 3d e2 69 b0 bc
       0.011807855 -0.009303968 0.051631168 -0.021534864
0002d0 16 34 c6 3d 23 2e b8 3d bf 59 7b bd 9c e1 d8 bd
       0.09677903 0.08993175 -0.061364885 -0.105899066
0002e0 f7 0b a6 3d f9 bf 7b 3d 5a 04 b8 3d f8 2d 16 bd
       0.08107751 0.061462376 0.08985205 -0.036664933
0002f0 bd 68 c3 3c 17 62 19 bd f2 72 be bd 47 c3 4f bd
       0.023853654 -0.03744706 -0.09299268 -0.05072334
000300 aa 3d 21 3d 20 a6 91 bc e4 41 d4 bd 75 bc 69 bd
       0.039365448 -0.01777941 -0.1036413 -0.057064492
000310 f1 c2 26 bd 69 15 76 bc ef 4a 72 3c 87 61 3b 3d
       -0.040713254 -0.015019753 0.014788373 0.045747306
000320 28 4b c1 3d b3 78 15 bd 11 70 a7 3c f4 73 96 3d
       0.09438163 -0.03649206 0.02043918 0.07346335
000330 45 5b 9a bd 21 61 27 3d 29 7b b1 bd 72 0e 69 bd
       -0.075369395 0.040864114 -0.08666069 -0.05689854
000340 24 6f 01 3d 8f 92 b3 3d f5 4a 30 bd 65 ea bb 3d
       0.031600133 0.08768188 -0.043040235 0.091755666
000350 e1 53 8b bd dc 8b d1 bd a4 86 a3 3c ea d4 89 3d
       -0.06803108 -0.10231754 0.019961663 0.06730063
000360 6d 78 84 3d 8e dc c1 bd ea 0e 0d 3d 01 cd 92 3d
       0.06468282 -0.094658956 0.03443805 0.07168008
000370 ce 37 1e bd be 3b b5 3d de e2 1d bd 2f c1 d0 3d
       -0.03862744 0.088492855 -0.038546436 0.10193097
000380 b1 92 9a 39 9a 3e cb 3c b4 95 e4 3c 47 65 31 3d
       0.00029482463 0.024810124 0.027903415 0.043309476
000390 1f 6d 78 3c 4e f1 ae 3c fe 44 60 3d 37 60 c8 3d
       0.015162735 0.021355297 0.054753296 0.097839765
0003a0 27 c9 31 3b 23 9b f5 b9 33 58 9d bc de 3e d7 bd
       0.0027127953 -0.00046845627 -0.019207096 -0.10510038
0003b0 e3 dd 25 3d 05 0f 84 3c 4a 33 63 bd e7 b7 87 3b
       0.04049481 0.016120443 -0.055468835 0.004141796
0003c0 b4 0a ca 3a bc 07 e2 3b e3 7a 2a 3d 6b 78 ed bb
       0.0015414567 0.0068978947 0.0416211 -0.007247021
0003d0 ac 4c a9 3c b6 69 97 3c 7f a4 9b bd a2 55 5e 3d
       0.020666443 0.018483024 -0.075997345 0.054280885
0003e0 c7 f6 51 3c 6f 21 22 bd 7d 89 a5 bd 70 77 ba bd
       0.012815184 -0.039582666 -0.080828644 -0.09104812
0003f0 67 01 44 3d 95 f8 93 3d e1 6d 68 3d 0f 02 2b bd
       0.0478529 0.07225148 0.056745414 -0.04175001

conv.4.bias f4 [16]
000000 0e 88 91 3d 84 7a cb bd a8 3f 48 3c d2 3e ff 3b
       0.071060285 -0.099354774 0.012222208 0.007789471
000010 e7 57 43 bd 95 a3 c5 bd 4e ba 5b bd ab 70 ba 3c
       -0.047691252 -0.096503414 -0.05364447 0.022758802
000020 09 82 e4 3c fa af 8f 3d e4 3d a8 3c 14 3d 8c bc
       0.027894037 0.07015987 0.020537324 -0.017118968
000030 1f 4e 8a 3d a0 ee 39 bd 81 91 66 bd db 63 9f bd
       0.06753182 -0.045393586 -0.056291107 -0.07782718

mlp.0.weight f4 [128, 133]
000000 b7 c5 06 bc 51 4e 3a 3d a7 85 c9 3c a5 fe eb bb
       -0.00822585 0.045484845 0.024599863 -0.007201987
000010 f8 ca 4c 3d 93 01 11 bc 45 41 96 3d 1c 2a aa bd
       0.049998254 -0.008850473 0.07336668 -0.08308813
000020 86 70 b6 bd 6a 20 04 bd cd 7b 54 3c 54 d2 fa bc
       -0.08908181 -0.032257475 0.0129689695 -0.03061787
000030 e6 71 73 bc 7f 19 8f 3d 17 ef a1 3d eb 43 72 3d
       -0.0148586985 0.06987285 0.07906931 0.059146803
000040 5f 46 70 bd 6f 9b 9d bd 0d e4 5f bc 97 ee 6a bb
       -0.05866086 -0.07695662 -0.013665211 -0.0035847777
000050 33 07 a8 bd 3f fc 9f 3d 7d 93 8b 3d d9 56 08 bd
       -0.08204498 0.07811784 0.068152405 -0.03328595
000060 68 20 50 bd 81 71 4b 3c 24 94 8f bd 9b a4 20 bd
       -0.050812155 0.012417198 -0.070106775 -0.03921948
000070 49 8e 7e bd 1f 1a 86 bd b4 e1 ea bc 8f 29 da 3c
       -0.062147412 -0.06547951 -0.028672077 0.026631145
000080 69 b6 b2 bd a1 d9 63 bd 8e 40 92 3c 4d ef 91 bd
       -0.08726198 -0.05562747 0.017853048 -0.07125721
000090 c7 95 12 3d 17 1e b9 3d 05 47 e1 bc a8 2d 75 3d
       0.03578737 0.09038942 -0.027499685 0.059857994
0000a0 6d 60 af 3d da 56 ad 3d 21 50 a8 bd c5 1e 62 3d
       0.08563314 0.08463831 -0.082184084 0.055205125
0000b0 08 fc 8c 3d 71 b9 a8 bd e3 e9 88 3b 84 a6 79 3d
       0.06884009 -0.08238495 0.004178272 0.060949817
0000c0 49 e0 96 3d a5 ea ab 3c c9 9a 4f 3d 20 36 ae bd
       0.07366998 0.02098591 0.050684724 -0.08506417
0000d0 64 40 93 3a a3 f1 b9 3b 1b e6 55 3d 9d d6 c2 3c
       0.00112344 0.0056745573 0.0522214 0.023783976
0000e0 46 d1 a6 bd 9e dc 00 3d cb e8 4c bd 86 66 7f 3c
       -0.081453845 0.031460397 -0.050026696 0.015588408
0000f0 92 ea 02 3c 2e 31 88 3d 4c 56 8c bd 0f 33 92 3d
       0.007990496 0.06650005 -0.06852397 0.07138645
000100 c7 22 a0 3d 40 13 6e bd 02 e2 13 bb e4 85 8e bd
       0.07819133 -0.058123827 -0.002256513 -0.06959131
000110 39 a1 9b 3d 86 da 96 3c 67 b9 10 3d 09 6b a0 bc
       0.0759911 0.018414747 0.035333063 -0.019582288
000120 1d bf be bd 23 92 69 3d 63 88 9c bd de 5d e3 bd
       -0.09313796 0.057024132 -0.07643201 -0.11101888
000130 31 a2 ba bd 08 f0 90 bd c3 33 8a bd 0e 88 e2 bc
       -0.09112967 -0.07077032 -0.06748154 -0.027652767
000140 ef 73 b6 3c 42 2a 88 3d a0 3a a7 bd 3d d8 9b bd
       0.022272078 0.06648685 -0.08165479 -0.076096036
000150 8e c5 22 3d 80 70 ef bc d8 92 aa bc 88 db ed 3c
       0.039739184 -0.029228449 -0.020821974 0.029035345
000160 92 73 9b 3d 72 1a 4a 3d 26 ec d3 bc e3 dd ed 3c
       0.07590403 0.049341626 -0.02586944 0.029036468
000170 c9 fc 10 3d ec fe 6e 3d 51 ea 7e 3d a1 3f 38 3d
       0.035397325 0.05834858 0.06223518 0.044982556
000180 e8 32 7d 3d 83 99 67 3d ac 23 00 bd 35 a8 66 3b
       0.061816126 0.056542885 -0.03128402 0.0035195474
000190 0c a9 0e bd dc 52 ea bd 63 41 42 3d c2 4b 91 bd
       -0.034829184 -0.114415854 0.04742564 -0.07094528
0001a0 96 e2 88 3d 28 2e 0b bd e0 44 5e bd b0 b2 b5 3d
       0.06683843 -0.033979565 -0.054264903 0.088719726
0001b0 5e 51 7c 3d 90 4c 06 3d c0 5d 44 3b 93 a3 8d 3c
       0.061601035 0.03278786 0.0029963106 0.017289912
0001c0 fb 5d b9 bd 67 76 9a bd 61 58 b7 bc 42 86 13 3c
       -0.090511285 -0.07542115 -0.02238101 0.0090041775
0001d0 99 cd 43 3d 74 ef 94 3d b7 f0 83 3d 84 ff b2 3d
       0.047803495 0.072722346 0.06442397 0.08740142
0001e0 27 3a f6 bb 76 36 89 bd ea c7 a7 3d 0a 3d 45 3d
       -0.0075142565 -0.06699841 0.081924275 0.048153915
0001f0 e3 76 bd bb d9 d5 f7 bc c4 8f 08 3c 59 b5 fe 3c
       -0.0057819947 -0.030253338 0.008335058 0.031092333
000200 e6 0a 83 bc ad 93 a7 3d 54 85 03 bc e3 18 f3 3c
       -0.015996408 0.08182464 -0.008027393 0.029674953
000210 50 b5 9d 3d 70 5a c0 3c c0 da e7 3c ae 4a 0e 3d
       0.07700598 0.023480624 0.02830255 0.03473919
000220 00 90 86 3d 00 bc c6 3c 8e e4 97 3d d7 c4 98 3d
       0.065704346 0.024259567 0.0741664 0.07459419
000230 e8 f1 d8 bc 45 94 06 bd be 83 fc ba a5 a5 3f bd
       -0.026482537 -0.032856245 -0.0019265336 -0.04678883
000240 be 5c 36 3c a4 55 57 bd d2 49 ad 3c 6e 8d 42 bd
       0.01113051 -0.052571908 0.021153364 -0.04749816
000250 fa 7d 83 3d 30 8e 8b 3d db ed b1 bd 39 de 1b bd
       0.064205125 0.068142295 -0.086879455 -0.038053725
000260 dd b1 42 3d d4 13 9a bd 48 4a ad bd 57 bb 40 3d
       0.047532905 -0.07523313 -0.08461434 0.04705366
000270 b0 18 1c 3d 8c 34 83 3d 5e 15 60 bd 0a 57 d0 3c
       0.03810948 0.06406507 -0.054707877 0.025432128
000280 21 3a d2 bc 73 07 6d bc 3b 2b f0 3b 3f 36 3f 3a
       -0.025662484 -0.014467108 0.007329372 0.0007294155
000290 e2 7e 7d 3d 03 11 a0 bd a0 4f 2f bd 86 a1 84 3b
       0.061888583 -0.07815745 -0.042800546 0.0040475754
0002a0 aa a7 22 3c 92 f9 9f bb fe 13 95 3b 3d a6 50 3d
       0.00992767 -0.004882046 0.0045495024 0.050939787
0002b0 27 57 ae bc 79 9a 10 3d 4f 8b 51 3d 11 b6 60 bc
       -0.021281792 0.035303567 0.051158246 -0.013715283
0002c0 dc 0a 91 bd df a1 86 3d ab da 02 bc b9 0e 4b bc
       -0.070821494 0.06573843 -0.007986705 -0.012393647
0002d0 da ce a0 3d 4b 44 19 bd ce 34 03 bd 37 92 3a 3d
       0.07851954 -0.037418645 -0.03203278 0.045549598
0002e0 5c e7 4e bd 61 d3 57 bb e8 39 53 3d 95 af 0d 3d
       -0.05051361 -0.0032932388 0.051568896 0.034591276
0002f0 21 b0 48 3d c8 8d 8b 3d 8c b4 80 3d 1a b7 d0 3c
       0.048996095 0.06814152 0.062844366 0.025477935
000300 de a7 58 bc 51 f2 6f bd 89 2d 3c bd 1d b1 a5 bd
       -0.013223616 -0.0585807 -0.045941863 -0.08090422
000310 24 b9 6b bd 5e 43 46 bd cd 45 a8 3c 98 20 59 3d
       -0.05754961 -0.04840409 0.020541096 0.0530096
000320 e2 a6 e3 3c 1c 88 ef 3c 16 50 9a bd 3a ef 4c bd
       0.027789537 0.029239707 -0.075348064 -0.05003283
000330 03 79 8f 3c 8b 2d 9e bd 92 76 97 3d c7 ba b1 bd
       0.017513758 -0.077235304 0.07395662 -0.08678203
000340 0e ef aa bd 50 7e ac bd f2 43 e2 bc ac f1 8f 3d
       -0.08346377 -0.0842253 -0.02762029 0.07028517
000350 5d 37 8c bd 93 1b 28 3d 29 5d 9b bd a8 03 81 bd
       -0.06846497 0.04104192 -0.07586128 -0.062995255
000360 49 6f 57 3d be 0f ad 3b 06 84 b2 bc 08 59 9d bd
       0.052596364 0.0052814176 -0.02179147 -0.07682997
000370 54 a4 8d bc 38 67 cf bb 0c 99 ab bd 4d 2a 83 3d
       -0.017290272 -0.0063294433 -0.08378801 0.064045526
000380 ea 98 cd bc b3 b2 8c 3d d2 c5 a6 3c 26 13 b0 bc
       -0.02509733 0.06870022 0.020358 -0.021493506
000390 46 fe 9e 3d a5 5d 43 3d 9d 5c a8 3d 70 fc 24 bd
       0.077633426 0.04769673 0.082207896 -0.040279806
0003a0 08 96 2f bd a3 7d e9 3c fd 36 bb bd c3 cc 1e 3d
       -0.04286769 0.028502291 -0.091413476 0.038769495
0003b0 f4 bf 1b 3d 12 59 a0 bd df 13 96 bd 64 3c 8b bd
       0.038024858 -0.07829489 -0.07328009 -0.06798628
0003c0 b9 03 b1 3d 05 7b 06 3d 3b 17 b5 bd b2 1d b2 3c
       0.08643288 0.032832164 -0.088423215 0.021742675
0003d0 07 ee e7 bc 99 7b 1b 3d cc 03 87 bd d6 c0 53 bd
       -0.028311742 0.03795967 -0.06592521 -0.051697575
0003e0 95 c2 8d bb d6 32 a5 bd f6 dc 0d bd 25 cd 93 bd
       -0.0043261745 -0.08066337 -0.034634553 -0.072168626
0003f0 97 f4 94 bd e4 69 45 3d 25 2c b8 3c d0 61 0b 3d
       -0.07273214 0.04819669 0.022481987 0.03402883

mlp.0.bias f4 [128]
000000 de 26 cc ba 73 83 48 bd b3 be ec bc 13 2b a3 bd
       -0.0015575548 -0.048953485 -0.028899526 -0.079672
000010 33 ee 8a bc be ef 84 3d cf ac 12 3d 18 26 82 3d
       -0.016959285 0.0649104 0.035809334 0.06354922
000020 18 c9 82 3d 4b b3 10 bd 64 60 89 3d 38 0a 08 bd
       0.06386012 -0.035327237 0.06707838 -0.03321287
000030 95 a4 2d 3d 21 c9 6c bd f5 6a af 3d a6 92 89 bd
       0.042393286 -0.057809 0.08565322 -0.06717424
000040 ef 41 60 3d 64 0a bb bc 75 82 c1 3b 85 eb 0f 3d
       0.05475038 -0.022832103 0.0059054443 0.03513672
000050 65 19 a3 3b 56 71 d8 bc 22 4c 18 3c d6 e4 86 3d
       0.0049773925 -0.02642123 0.009295495 0.06586616
000060 32 79 c8 3c 9b 61 55 3d 76 ad c5 bc db 9a 3e bd
       0.024471853 0.052095037 -0.024130564 -0.0465344
000070 69 07 0a 3d 9d a1 8e bd ee ff a9 bd 20 96 13 3d
       0.033698473 -0.06964419 -0.08300768 0.036031842
000080 1c da 77 bd 24 2f b0 3c 35 64 20 bc d7 0c 0d 3d
       -0.06051074 0.021506853 -0.009789516 0.034436073
000090 4d 91 b2 bc d0 7a 88 bd b8 78 30 bd 06 84 a5 3c
       -0.0217978 -0.066640496 -0.043083876 0.020204555
0000a0 a3 3c 3f bc e9 e9 cc 3c 1e 78 8c 3d ff 63 14 bd
       -0.011672172 0.02501388 0.06858848 -0.036228176
0000b0 76 87 6e 3d 63 03 02 3d e3 0c 0f 3d 4b c8 87 bd
       0.058234654 0.03174151 0.0349244 -0.0663
0000c0 05 65 14 bd 05 e7 2f 3c 70 71 93 3d 91 d9 5a bd
       -0.036229152 0.010736232 0.07199371 -0.053430144
0000d0 2f 8d 3c 3d d6 67 84 bd 58 d1 3c bd 6f 17 88 bd
       0.04603308 -0.06465118 -0.046098083 -0.066450946
0000e0 6d ab 40 3c ae c5 40 bd 0f e9 f4 3c d6 36 54 3d
       0.011759621 -0.047063522 0.029896287 0.051810108
0000f0 20 84 49 bd 04 e0 17 3d 5d 87 b4 bb b8 76 f9 3c
       -0.04919827 0.037078872 -0.0055093006 0.030452117
000100 bf a5 5c bd 99 7b 6a 3d 97 8c 6c bd 5c 07 27 3c
       -0.053869005 0.05724678 -0.057751264 0.010194626
000110 1e 62 9c 3d 05 26 7d bd eb 5e 20 bc cc fe a6 3d
       0.07635902 -0.061803836 -0.009788255 0.081540674
000120 46 bd ef bc c2 51 83 bd f5 76 69 bd 52 b7 27 3d
       -0.029265057 -0.064120784 -0.056998212 0.040946312
000130 5d 59 9b 3c a7 59 a4 b9 38 be 13 3b 5f 66 9b 3c
       0.01896351 -0.00031347314 0.00225438 0.018969713
000140 d0 67 4a 3d 9f a8 5b 3d 66 47 8d bd 90 c1 48 bc
       0.04941541 0.053627606 -0.06898384 -0.01225318
000150 89 fd 75 3d 09 16 1f bc 54 c1 79 ba 67 92 db 3a
       0.060056243 -0.009709843 -0.00095274043 0.0016752005
000160 f3 e5 e6 3c 14 f4 37 3c c7 dd cd b9 06 21 6f 3c
       0.02818582 0.011227626 -0.00039265884 0.014595276
000170 03 64 9d 3c 6f 0f 21 bd 3f 03 b0 bc 65 0a 75 bc
       0.019212728 -0.03932136 -0.021485923 -0.0149560915
000180 b9 8d 35 3d 28 26 53 3d c0 68 bc bc 7f e1 b2 bb
       0.04432461 0.05155006 -0.022999167 -0.00545901
000190 a8 0a 0b bd 9b 5a 89 3d a2 ce 9d 3d 0c c4 26 bd
       -0.03394571 0.06706735 0.07705428 -0.04071431
0001a0 7c 22 1e 3d ea 62 2d 3d ba f1 98 3d 79 19 78 3d
       0.038607106 0.04233066 0.07467981 0.060571168
0001b0 3f 0e 59 3d 6d 2d 31 bd dd f4 23 3d d6 03 b6 3c
       0.0529921 -0.043256212 0.04002844 0.022218626
0001c0 1e 12 18 bb 67 b9 ae bc da df e7 3b 19 c2 42 bd
       -0.0023204158 -0.021328641 0.0070762457 -0.047548387
0001d0 91 90 6a 3d f4 97 00 bd 91 43 81 bd 53 f9 27 3d
       0.057266776 -0.031394914 -0.063117154 0.04100926
0001e0 0c 64 bb bc 09 f2 48 3c d3 c3 91 bd 36 de 05 bd
       -0.022874855 0.012264737 -0.07117429 -0.03268262
0001f0 34 ba 9e bd 1f d6 8e 3d 4a 60 67 3c f0 c3 6e 3d
       -0.07750359 0.06974434 0.014122078 0.05829233

mlp.2.weight f4 [128, 128]
000000 2c 1b bc 3d 4f 63 e2 3c cd 35 e7 ba e7 e1 8a 3c
       0.0918487 0.027635245 -0.0017639935 0.016953422
000010 ce 1e 13 3d de a5 cc 3d 33 28 e5 3c 98 13 dc 3d
       0.03591805 0.09992574 0.02797327 0.10745925
000020 0a fb c9 3a c1 02 85 bd 9f 94 87 3d 3e 3c 82 bd
       0.0015409898 -0.06494666 0.06620144 -0.063591465
000030 5a 34 b0 bd a9 30 2c bc 04 05 b7 bd c4 d5 de 3c
       -0.08603735 -0.010509648 -0.089365035 0.02720154
000040 ff fb 4f bc 9a 98 70 3c 99 91 51 3d 70 47 58 bd
       -0.012694358 0.014684821 0.051164243 -0.052802503
000050 26 86 c4 3c eb 29 a9 bd 15 f2 e3 bc 69 8e bc 3c
       0.023989748 -0.08259948 -0.027825395 0.023017125
000060 a1 53 74 bd 64 78 a2 bc b1 10 5e bc 11 5c bd bd
       -0.059650067 -0.019832797 -0.013553784 -0.09246076
000070 8d cf 92 bd ee f0 34 bd 2c 1e 16 bc 9d f1 78 3d
       -0.071684934 -0.04417508 -0.009162467 0.060777295
000080 ee dd 1a bb 6c a9 63 bd 30 27 cb bc 73 8c 97 bd
       -0.0023630816 -0.055581495 -0.02479896 -0.073998354
000090 35 00 95 3c be 8e 3e 3d 84 9b 54 3d ca 86 b8 bc
       0.018188575 0.04652285 0.051906124 -0.02252521
0000a0 de e3 07 bd c9 62 f2 bc 50 d5 20 bc 45 b1 16 bd
       -0.033176295 -0.02958812 -0.009816483 -0.03679015
0000b0 3e a5 18 3c 56 fc a1 bb e2 b8 77 3c 9b 5b 21 bd
       0.009316741 -0.004943411 0.015119763 -0.039394002
0000c0 ab a4 44 bd 12 3e 45 3c 63 82 5c bd 36 4e bd bc
       -0.048008602 0.0120387245 -0.053835284 -0.023108583
0000d0 a4 64 61 bc 24 aa 23 bd 9b 1a 8f bd a3 e2 66 bb
       -0.013756905 -0.03995718 -0.069874965 -0.00352303
0000e0 b2 de ef 3c 26 fe a9 bd a5 2a 74 bd 5f 02 82 bb
       0.029280994 -0.08300428 -0.05961098 -0.003967568
0000f0 8d 02 8b 3d 0a 63 4c 3d 97 00 a5 3c 54 bf aa 3c
       0.06787596 0.04989914 0.020141883 0.020843185
000100 de 8c 86 bb c9 77 99 3d 67 77 e0 3c 95 f9 5a 3d
       -0.004106148 0.0749355 0.027400685 0.053460676
000110 02 12 cc 3c b2 c9 2c 3a 53 ba 49 3d 98 d9 30 3d
       0.02491093 0.0006591334 0.04924996 0.043176264
000120 d2 90 69 3d bf 2f 6a 3d 48 cc 4e 3d 0a 50 8d 3d
       0.057022877 0.05717444 0.050487787 0.06900032
000130 af 78 66 3d da fe 68 3d 11 a3 a1 3c 7e 4a bf bd
       0.056267437 0.05688367 0.019731076 -0.0934038
000140 e6 d2 e9 bc 8d 76 67 3d b9 e4 b1 3d 89 d6 90 bb
       -0.028542947 0.056509543 0.086862035 -0.004420106
000150 0a b3 5c 3d fc 0f e9 bc 33 95 f7 3c 09 06 db 3b
       0.053881682 -0.028450005 0.03022251 0.006684069
000160 17 73 b1 bd 9d 7d 68 3b fa 49 6a 3d 17 59 1d 3b
       -0.0866453 0.0035475262 0.057199456 0.00240094
000170 2e bd a2 3b fb 9e 8a bd 87 91 17 bd e5 04 6d 3d
       0.0049663996 -0.06768604 -0.03700402 0.057865996
000180 1d c4 6f bc 53 23 37 bd f1 3a 49 bd 61 bc 95 bd
       -0.014634159 -0.044711422 -0.049128477 -0.07311321
000190 8d b9 6e 3d fc df a6 bc 81 20 d5 bd 22 ab 6e 3c
       0.058282424 -0.020370476 -0.1040659 0.014567168
0001a0 48 5c fe 3c 44 39 39 3d 90 89 c1 3d 5d df f8 3c
       0.031049863 0.04522063 0.09450066 0.030379945
0001b0 e4 91 49 bc 56 fd dd bc 3d 56 82 bd 02 69 d4 3c
       -0.012302849 -0.027098339 -0.06364105 0.025928978
0001c0 70 97 b3 3d 75 9c 9d 3d f2 5e c9 3d 58 ea af bd
       0.08769119 0.076958574 0.098325625 -0.085896194
0001d0 89 9c a7 3d c0 c5 b5 bd 7a 21 3a bd df ab b6 bd
       0.081841536 -0.088756084 -0.045442082 -0.089195006
0001e0 f8 15 9a bd 92 c8 11 3d af 29 64 bd cc d9 93 bc
       -0.075237215 0.03559167 -0.055703815 -0.01804819
0001f0 4b 17 03 3d 32 3c a1 3d 29 ad 56 3d 20 fc be bc
       0.032004636 0.078728095 0.052411232 -0.023313582
000200 b0 6c 79 3d d8 d3 7c 3d f4 97 95 3d be 78 fb ba
       0.060894668 0.061725467 0.073043734 -0.0019185764
000210 46 52 70 3d e2 3d a9 bc 6f 0d 9c bb 54 5a 9d 3d
       0.058672212 -0.02065939 -0.0047623436 0.07683244
000220 a1 63 d6 3c 15 a2 6c bd c8 db 5a 3c 4b 5a 72 bc
       0.026170554 -0.05777176 0.013358064 -0.014792035
000230 85 11 8a 3c 3c ab c4 b9 d7 8e a3 3c 62 c5 ae bd
       0.016854057 -0.00037511613 0.019965572 -0.085337415
000240 b0 e3 4f 3c 9c 1a 04 bd f2 74 9f ba 07 28 91 bd
       0.012688562 -0.03225194 -0.001216559 -0.07087713
000250 fc e2 31 bd ef 30 89 bd 97 dc 37 bc 71 bb 6b bd
       -0.04342936 -0.066987865 -0.011222026 -0.057551805
000260 a7 7a 91 3d 6d f2 7d 3d 80 8e 4f bd 71 8a 4d 3d
       0.07103472 0.061998773 -0.050673008 0.050180856
000270 ce 68 8d 3d 42 93 a9 3d 88 fb 8d bd 39 6e 97 bd
       0.069047555 0.0828004 -0.069327414 -0.0739407
000280 ce d3 0c 3d 0a fe 88 3d 38 7c b9 bc f1 74 4c 3d
       0.03438168 0.06689079 -0.02264224 0.04991621
000290 01 d2 aa bd cc 65 be bd 40 0d cb 3c 6d 6e 66 3c
       -0.08340836 -0.0929676 0.024786592 0.0140644135
0002a0 68 a5 ce b9 4b 32 f2 3c 6c b3 5d 3c 33 45 a9 3d
       -0.0003941462 0.029564997 0.013531547 0.08265152
0002b0 b0 18 20 3c 4b 0a a5 bc 56 b1 39 bd 29 26 fe bc
       0.009771511 -0.02014651 -0.045335136 -0.031024056
0002c0 09 5c 87 3d 12 88 9e 3d 7e a6 b1 3d 48 bc 7f 3d
       0.06609351 0.07740797 0.08674334 0.06243542
0002d0 0e 51 19 bd f6 24 59 3c 51 86 47 bd 5d 50 2a bd
       -0.037430815 0.013253441 -0.04871208 -0.041580547
0002e0 c2 0e a1 3d ae 9e 1d bd f7 c5 84 bd 09 65 7c 3c
       0.07864143 -0.038481407 -0.06483071 0.015404948
0002f0 9a 46 20 bc e5 32 05 3c 0a 7f bb bd 16 75 98 3d
       -0.009782458 0.00812981 -0.0915509 0.07444207
000300 dc 64 32 bd ec 4f 1b 3d b5 95 5e 3d 4b 46 27 3b
       -0.04355322 0.037918016 0.05434199 0.0025524076
000310 4d 08 a9 3d b9 f8 2a 3d 84 ad 26 3b 53 b0 a7 bd
       0.082535364 0.041741107 0.0025433013 -0.08187928
000320 ca dc 0d bd 85 6f 8d 3d 1c 31 99 bd e1 db ff bc
       -0.03463439 0.06906036 -0.0748007 -0.031232776
000330 49 e3 58 3d 33 09 1d 3c 5a 27 c2 3d ec c4 a7 bd
       0.05295113 0.009584713 0.09480162 -0.08191857
000340 93 89 77 bd a9 e9 58 3d e2 ea b9 bd db 80 3a 3d
       -0.060433935 0.05295721 -0.090780035 0.045533042
000350 c2 27 fd 3c a3 80 ae 3d a2 3a 35 bc d2 9d ca bc
       0.030902747 0.08520629 -0.011061342 -0.024733458
000360 27 20 f1 ba 21 56 ac b9 db 6c 49 bd 6d ef 2f bb
       -0.0018396423 -0.00032870568 -0.04917608 -0.002684559
000370 9e 06 9a bc a4 63 31 bd a1 1e 7a bb 2c 1b a0 3d
       -0.018801983 -0.043307915 -0.003816523 0.078176826
000380 67 f5 2e 3d ec 43 1a 3d 78 22 2f bc 96 00 23 bd
       0.042714503 0.03766243 -0.01068937 -0.03979548
000390 46 e5 ec bc 9a e4 94 3d 5b 33 99 3b 1e c8 24 bd
       -0.02891792 0.07270165 0.0046753115 -0.04022991
0003a0 7b 95 5d bd ee bc c3 bc da 6a fc bc 3b 0d 89 bd
       -0.054097634 -0.0238938 -0.03081267 -0.06691977
0003b0 8b 46 a2 bd 9e 40 d4 3c 9d 1d a5 bb 76 f0 95 bd
       -0.07923611 0.025909718 -0.0050389306 -0.07321255
0003c0 2a 85 e9 3c 42 1f 74 bd 2d bf b6 3c 64 cf 8e 3d
       0.02850588 -0.059600122 0.022307957 0.0697315
0003d0 84 6e b0 bd 05 b4 88 3d d9 4a 99 bd bb 0a 61 3c
       -0.08614829 0.06674961 -0.07484979 0.0137354685
0003e0 d2 a8 31 3d 0a 89 9d bd 72 73 15 3d 87 ab e3 bc
       0.04337389 -0.07692154 0.03648705 -0.027791752
0003f0 ba 04 73 bd 4f a9 3d bd 9e 95 73 bc 38 fc 86 bc
       -0.05933068 -0.046304043 -0.0148672145 -0.01647769

mlp.2.bias f4 [128]
000000 8b 9c 04 3d 9e 41 9d bd 3a 05 88 bd ab c2 12 bd
       0.032375854 -0.07678531 -0.06641622 -0.03583018
000010 f0 25 3e bd 08 9c 8f bd c0 d7 a1 bd f5 5b a6 3d
       -0.0464229 -0.070121825 -0.07902479 0.08123008
000020 e0 fc 8b 3d 5e 9c 8f bd 01 12 8b bd c4 36 a9 3d
       0.068353415 -0.070122465 -0.06790543 0.08262399
000030 e4 45 d9 bc cc 4b ed 3c 88 e0 46 3d f2 78 20 3d
       -0.026522584 0.028966807 0.048553973 0.039177842
000040 18 05 3c bc c5 8b 54 bd 3b 4a 99 bd 0a 12 49 bd
       -0.011475824 -0.051891107 -0.074848615 -0.04908947
000050 8a 6c 40 bd a1 12 fe 3c c2 4d 25 3b 92 40 73 3d
       -0.04697851 0.031014742 0.002522335 0.05938775
000060 1d 4b 49 3d be 7a a5 3d da 33 a5 bc 86 18 6b 3c
       0.0491439 0.08080052 -0.020166326 0.014349109
000070 dd 51 90 bd 6a 03 54 3d 25 ca 16 bd 91 eb 86 bc
       -0.07046864 0.05176107 -0.036813874 -0.016469749
000080 73 c8 41 bc 28 cf 02 bd 1b e0 0f bc 39 7c d3 3c
       -0.011827576 -0.03193584 -0.008781458 0.02581607
000090 1d 3d 15 3d 29 91 74 3d 27 57 93 3c 61 17 80 3d
       0.036435235 0.059708748 0.017985893 0.06254459
0000a0 b0 2e 4c 3c 2f 8c 0c 3c a3 09 1d bd 43 b7 16 3d
       0.012462303 0.008578344 -0.03833927 0.036795866
0000b0 df e6 b6 3c ba 44 8a bc d6 81 58 3d f0 f4 19 bd
       0.022326885 -0.016878475 0.052858196 -0.037587106
0000c0 d9 a1 8f bc 7b df d5 3c 12 cf 30 3d 2a 8e e8 3c
       -0.01753323 0.02610754 0.043166228 0.028388102
0000d0 cf 9f 79 bc 9f b3 27 bd 73 d8 b1 bd 33 af 4a bd
       -0.015235855 -0.040942784 -0.086838625 -0.04948349
0000e0 d0 3b 22 bd 03 b4 11 bd 10 51 01 bd 75 8e 75 3d
       -0.039607823 -0.035572063 -0.031571448 0.05995031
0000f0 b4 85 03 3c 4c b8 cc bc e0 84 d5 3c 66 5c 6e 3b
       0.008027483 -0.024990223 0.026064336 0.0036370992
000100 a4 a9 83 3d 66 91 3f 3c f2 7e 6e bd 4f 0a 9b 3d
       0.06428841 0.0116923805 -0.058226533 0.075703256
000110 e4 bd 96 3d 52 e3 6a bc ad 9b b7 bc 92 35 45 bd
       0.073604375 -0.014336424 -0.0224131 -0.04814679
000120 e9 0d 81 b8 62 63 99 3d ef b7 46 3d f3 24 a3 3d
       -6.15379e-05 0.07489659 0.048515256 0.07966032
000130 ec 7d a3 bd 0d a8 cf bc 8c 38 3d bd d0 58 b8 bc
       -0.07983002 -0.025348688 -0.046196505 -0.022503287
000140 f4 b6 7c 3d 71 b0 4c bd 9b db 3b 3c ee 38 47 3b
       0.061697915 -0.049972955 0.011465932 0.0030398923
000150 7b 3c 19 3b 88 c0 ac 3d 28 bd 29 3c f8 c0 6a 3d
       0.0023381996 0.0843516 0.01036004 0.057312936
000160 4a 46 b3 bc 9a 64 d5 bc 12 49 5e bd e5 09 b1 bd
       -0.021884102 -0.026048947 -0.054268904 -0.08644465
000170 3d bc 48 3d 34 24 73 bd 97 11 a1 39 e5 e7 82 bd
       0.049007643 -0.059360698 0.00030721418 -0.063918866
000180 2e b0 9c 3a a8 42 69 3d 49 20 46 3d 5e 21 8b bd
       0.0011954361 0.056948334 0.048370633 -0.06793474
000190 48 b2 64 bc 2b f4 7b 3d 08 6f dd ba ec 94 07 3d
       -0.013958521 0.061512154 -0.0016894052 0.033101007
0001a0 95 72 4c 3d b1 36 6a 3d 99 db 5e bd 3b 0f 9a 3d
       0.04991396 0.057181064 -0.054408643 0.07522436
0001b0 55 8d b0 3d 54 1e 96 bd 6a 2f a3 3d bb 3f ac 3d
       0.08620707 -0.073300034 0.07968028 0.08410593
0001c0 ce 8f a8 3d 3d cf b2 bb 44 d0 15 3d 6c 52 5b bc
       0.082305536 -0.0054568336 0.03657557 -0.01338635
0001d0 e6 db 24 bc 47 61 e5 bc 62 f6 2f 3d 80 89 13 bd
       -0.0100621935 -0.028000487 0.04295958 -0.036019802
0001e0 db 7e 25 3d ab b4 48 3c 84 52 2a 3d d8 24 a5 ba
       0.040404182 0.012250106 0.0415826 -0.0012599481
0001f0 37 8d 43 3d 80 18 fe 3c 4f 75 98 3c bd ae 93 3d
       0.047742095 0.031017542 0.018610625 0.07211063

mlp.4.weight f4 [1, 128]
000000 cf 2f 86 3d c7 9f 61 bd 5f 1d 14 bd 0a 28 45 bc
       0.065520875 -0.055084016 -0.036160823 -0.012033472
000010 a8 5e 55 bd 64 01 c4 bd f5 2f 13 bd 4e ff 77 bd
       -0.052092224 -0.09570578 -0.035934407 -0.060546212
000020 e5 f9 37 bd a1 f5 84 bd a5 8c a8 3d 00 1a 15 bd
       -0.044916052 -0.064921625 0.08229951 -0.03640175
000030 55 a3 fa bc 9f ae a4 bd 7e 1e 01 3d 87 50 a5 bd
       -0.03059546 -0.08041119 0.03152322 -0.08072
000040 8c af 07 3d d2 ac 97 3d 4b 5e a8 39 f0 57 b6 3c
       0.0331264 0.0740601 0.0003211371 0.022258729
000050 fa 97 cc bd c5 b6 88 3d da 97 4c 3d 0e 5a 95 bc
       -0.09989925 0.066754855 0.049949504 -0.018231418
000060 97 4a fc ba 22 ee 5c 3d cb 04 1e bb 6a cc eb bb
       -0.0019248304 0.05393804 -0.0024111744 -0.007195999
000070 25 9f 58 3d f7 95 90 bd 01 61 af bd 5a 8b 54 bb
       0.052886147 -0.070598535 -0.08563424 -0.0032431693
000080 32 76 0d b8 ba c3 4c 3d 71 12 08 bd f6 2a ab bd
       -3.3727098e-05 0.049991347 -0.033220712 -0.083578035
000090 6b 21 1c 38 c9 5d 17 3d b3 f2 3d bd cf ff 20 bd
       3.722442e-05 0.036954675 -0.046374034 -0.039306458
0000a0 50 72 8a 3c 17 3d b2 3d b4 a1 a4 3d 38 d4 2b bd
       0.016900212 0.08703058 0.08038655 -0.041950434
0000b0 d9 4d a7 3d c3 24 c9 3c 4d 6a 6e 3b 10 9d b3 bd
       0.08169145 0.024553662 0.0036379278 -0.08770192
0000c0 af 09 7f 3d 62 13 80 3d 98 5c 8f bd d3 41 3d bd
       0.062265094 0.06253697 -0.07000083 -0.046205353
0000d0 62 f7 1f 3d e7 e6 a3 3d 8c e5 c1 3d 4a e1 19 bc
       0.039054282 0.080030255 0.09467611 -0.009392092
0000e0 bf 2c 97 bd f9 d5 0c bd e4 74 8f bd 6f 4b 7c 3d
       -0.073815815 -0.034383748 -0.07004717 0.061595377
0000f0 0d 81 64 39 64 62 b8 bd 0e 17 0c bc a6 20 03 3d
       0.0002179185 -0.090031415 -0.008550419 0.032013558
000100 eb da 99 bc c3 97 33 3c 0a 04 84 bd ba b5 93 bd
       -0.018781146 0.010961476 -0.06446083 -0.07212396
000110 99 66 fa bc 46 d8 09 b9 88 41 28 bd 6e c2 88 3d
       -0.0305665 -0.00013145906 -0.04107812 0.066777095
000120 ec 23 90 bd 98 63 23 bc 81 60 b5 3d 38 cd a2 bd
       -0.070381016 -0.0099724755 0.08856297 -0.079492986
000130 6b 7a 9c 3d 53 63 16 bd e8 d4 9f 3d 0b 96 8a 3d
       0.07640537 -0.036715817 0.078042805 0.067669
000140 47 ac 1c 3d 64 20 75 3d 14 a8 62 3d aa da c7 bd
       0.038250234 0.059845343 0.055336073 -0.09758504
000150 4a 06 c7 3c 0a db b1 bd 70 32 8d bd c7 7f 35 3c
       0.024294991 -0.086843565 -0.06894386 0.011077828
000160 e3 98 4e bd 95 52 2c 3d 5b cd ce bc 7e cc 42 3d
       -0.050438773 0.042070944 -0.025244405 0.0475583
000170 29 81 a8 3d 52 95 aa bd 2a 89 f0 b8 9a 75 7a 3d
       0.0822776 -0.08329262 -0.000114696406 0.06114731
000180 37 95 16 bd 71 7f c1 bd c3 fd 22 3d 3e 9f 8e bd
       -0.036763396 -0.09448136 0.039792787 -0.06963967
000190 70 05 c5 3d 5b 98 31 3d 0c 84 29 3d 2e 8a b6 bd
       0.09620178 0.043358188 0.041385695 -0.089130744
0001a0 e7 bf 8c bd 34 2b 88 3d d1 4a 15 bd ff b6 38 3d
       -0.0687254 0.06648865 -0.036448304 0.045096394
0001b0 97 20 a3 bd 72 e8 49 3d 93 6c 67 bd 76 b2 82 bd
       -0.079652004 0.049293943 -0.05650003 -0.06381695
0001c0 a6 83 5d bd a9 44 75 bd dc a7 17 bd 67 08 66 3d
       -0.054080628 -0.059879933 -0.037025318 0.056160357
0001d0 4e f2 77 bd f6 b9 5f bd 65 2e 81 3c 4c 4a 9e bd
       -0.060533814 -0.054620706 0.015769193 -0.07729015
0001e0 35 64 93 bd b9 68 51 bc 80 9e 97 3c b6 a9 e1 bc
       -0.07196847 -0.0127813155 0.018508196 -0.027546745
0001f0 bb 7c 8b bd 52 41 93 3d c6 f8 9d bd 62 af ce bc
       -0.068109 0.07190193 -0.077134654 -0.025230113
