experiments/exp046_pid_plus/mlp_weights.npz (npz, 1998 bytes, 4 tensors)

W1 f8 [6, 16]
000000 5a aa 78 9f 1d 97 cf bf ba 1a 56 66 e5 a0 e7 3f
       -0.2467991856259058 0.7383906363255257
000010 40 f3 c1 66 d2 1a f0 bf e6 08 09 e7 f8 9b f0 3f
       -1.0065483106584026 1.0380791687790007
000020 72 09 73 db e6 7c e2 bf 17 05 39 aa 7b 7d f1 bf
       -0.577746800052678 -1.0931355141950172
000030 b7 3e 86 37 d0 9a d3 bf ce da dc 8c d8 28 df bf
       -0.3063240568380751 -0.4868680358517111
000040 df 62 95 e6 64 62 cb bf 65 cf 05 d4 3a 15 eb 3f
       -0.2139402509590331 0.8463415280407217
000050 25 2c 71 1b 74 b6 c7 3f 14 f0 8a 4b 81 16 cb 3f
       0.18525554027505212 0.211624299894425
000060 c9 36 53 4c 24 b3 d6 bf 46 03 b1 fc 57 63 f3 3f
       -0.3546839471208441 1.2117538328895576
000070 f5 cc f4 79 1f 28 d0 3f bb ff 5a 22 d2 14 e1 bf
       0.2524489108065631 -0.5337916060452622
000080 f4 5e c3 13 7f 50 d8 bf 8f 61 f8 3b 9b 48 c1 3f
       -0.37991311006543005 0.1350282709906989
000090 c6 e1 d3 62 77 16 d2 3f 8b a3 7e 54 b5 6f f0 bf
       0.28262123728884736 -1.0272725391934923
0000a0 29 6e b3 e8 3b 8b e1 3f 6e c8 e4 34 1e 97 cb bf
       0.548246340269036 -0.21554925520610219
0000b0 da b8 54 17 0c 8f f1 3f 3d 01 4d b9 59 97 f0 3f
       1.0974236403813422 1.0369508016884332
0000c0 34 13 fd 20 a3 97 fd bf e1 a2 15 b2 ef 03 dc bf
       -1.84952080618059 -0.43774025336328576
0000d0 75 7f e7 cf 3b 26 e5 bf 20 23 f7 cd 97 62 e7 bf
       -0.6609171925192486 -0.7307852766763041
0000e0 0a f5 5f 82 10 6a ec 3f c1 96 b1 e1 10 56 b6 bf
       0.887947325361581 -0.08725076208210238
0000f0 a1 68 43 8a b6 d4 ec 3f 57 65 83 30 c9 e9 e6 bf
       0.9009659481482865 -0.7160383174442967
000100 6f 8c 21 46 d5 87 de 3f 3e 3b fe c7 cd 44 f2 bf
       0.47704059456572784 -1.1417978107671867
000110 92 d5 56 a1 e0 6a e3 bf 2c 17 17 a0 aa 1e e0 bf
       -0.6067965651661089 -0.503743469883124
000120 35 28 b4 90 99 ba dc 3f 30 59 3b 70 1f 9e e4 bf
       0.44888915187096085 -0.6443021003749774
000130 a7 29 c9 bb ca 2b f0 3f 83 92 ca 59 24 88 f4 bf
       1.0106913886435025 -1.2832377917740423
000140 fd 69 c6 11 2a 83 ed bf 00 67 74 bf 5f c1 e1 3f
       -0.922261271206764 0.5548552264546913
000150 59 df 18 94 bc 9e ee 3f 8e 3b b0 2c f2 40 c1 bf
       0.9568770306131952 -0.13479449445773323
000160 6b 0e f8 cd d2 6c e1 3f 5e 42 1e 09 0a 45 d6 bf
       0.5445341132003255 -0.3479638184590267
000170 76 6b b6 33 a6 37 dc bf 3d 55 f5 b0 38 8f e3 bf
       -0.4408965592389714 -0.6112330871789379
000180 ce 5b 05 49 64 bd b7 bf bc 04 7b 9e 00 9a d2 bf
       -0.09273363859880066 -0.29064956165900546
000190 aa 75 4a 3d f4 d8 d9 3f dd 87 1c 5d 39 df ef 3f
       0.40386682496486037 0.9959990328391047
0001a0 82 30 97 b1 1b 57 ed 3f 83 b3 28 76 a7 aa b9 3f
       0.9168833225790112 0.10026022562733598
0001b0 03 1b de 80 b9 b0 e1 bf 4e db f1 db 8e e9 e2 3f
       -0.552822829908877 0.5910105033679913
0001c0 c2 51 49 84 71 6c ee 3f 45 d2 b9 d1 7b 86 db 3f
       0.9507377227515053 0.4300832317451618
0001d0 b6 c6 01 db 2d 81 ab 3f fb 6a 7b 52 5c 60 f9 bf
       0.053719933494801905 -1.5860255453068806
0001e0 75 69 d9 60 26 ed d5 3f 9b 6e 21 97 2b f3 d8 bf
       0.34259948213516306 -0.38984193571898523
0001f0 56 6b e1 4d 75 cd d8 3f 37 2a ef e1 a2 f3 d4 bf
       0.3875401745369137 -0.3273703771962206
000200 d9 89 a9 07 38 6e ed 3f d4 9e 46 05 b8 2d c3 3f
       0.9197044515279301 0.14983272798166658
000210 57 95 af ea d4 72 b5 bf 29 3b 87 cf 0e 2e d4 3f
       -0.08378344277988013 0.3153111483233482
000220 6a a9 18 51 91 d7 d1 bf 44 74 bc 9d 79 ee e2 bf
       -0.2787822048145673 -0.5916107254776155
000230 98 9e d0 77 7b af e8 3f 92 26 76 dc 08 6b d6 3f
       0.7714211788306384 0.35028287438817884
000240 07 06 2a 09 c3 21 c8 3f 8d 81 d3 df 69 ef e5 bf
       0.18853033015697937 -0.6854752894978887
000250 3f ea 2e 7c a0 4e e6 3f d9 bc 64 01 1a 7e df bf
       0.6970980096296627 -0.4920716298683608
000260 a3 fb b7 44 df f7 ce bf 43 9d cb 5e 82 82 cf bf
       -0.2419394574680754 -0.24617032650642487
000270 1d 97 e5 61 53 82 f0 bf b8 5a fe 27 db 38 e4 3f
       -1.031817800912399 0.6319404393314789
000280 e8 e8 76 3c 5a 05 dc bf 88 cc e9 d9 1e ae df bf
       -0.4378266897653149 -0.49500247269242736
000290 75 07 c2 38 59 0f e1 bf fc 98 c8 b8 c3 8a e2 3f
       -0.5331235989144562 0.5794390305570967
0002a0 64 8b 1a 0e 44 5e e7 bf a8 fb 5f 48 52 05 e1 3f
       -0.7302570605719265 0.5318995870182919
0002b0 df f8 a9 e3 43 01 c7 bf e8 64 7a 98 4b 8d e7 bf
       -0.17972611061481467 -0.7359979608619627
0002c0 3a 0b 9d 83 28 41 c8 bf e7 41 f2 4c 85 ce e2 3f
       -0.18948847223699677 0.5877100470407272
0002d0 f6 53 ca 9a e3 44 d4 3f 9b b7 b9 23 8c a0 d3 bf
       0.3167046558021974 -0.3066740368729996
0002e0 8b c9 da 0c 97 cb fb bf be 14 5c 71 31 2d b9 bf
       -1.7372045995840348 -0.09834584252901643
0002f0 76 33 ec 4c 0d d2 d4 3f cf c1 bb 5b a0 14 d7 3f
       0.3253205538938383 0.36063393553106676

b1 f8 [16]
000000 32 87 6f a8 1c ac a6 bf a1 14 7c a9 7b 18 20 bf
       -0.04428185993289303 -0.0001227999643946031
000010 78 d3 13 38 d7 24 2c bf 23 e2 da 6c 22 a1 7b 3f
       -0.0002147209852762196 0.006745466683860476
000020 b0 6f d8 2f 14 f0 61 bf 9a c2 e4 93 bd 2e 1f 3f
       -0.0021896738314932315 0.00011895210352431477
000030 1b 68 8d a0 3e 70 3b 3f 61 10 be 77 3a 5d 56 3f
       0.00041867760642377996 0.0013650008176862227
000040 dd a0 97 d1 a7 84 84 bf e4 17 07 23 16 34 6b 3f
       -0.010018645366429652 0.0033207352027799664
000050 ea aa 4e 05 35 68 90 3f 48 02 91 87 e0 db 19 3f
       0.016022518586093527 9.864385528236222e-05
000060 3d ed 44 56 07 a6 9d bf 61 ec 67 c7 05 d3 61 bf
       -0.028953661575753065 -0.00217581871697585
000070 4e 0a 81 23 04 af 8c bf 1d 2b 7f c5 46 3b 9c bf
       -0.01400569184636882 -0.027569871715779393

W2 f8 [16, 1]
000000 c3 b8 77 dd bd e7 e6 3f ba 1c 83 89 18 6f bf bf
       0.7157887769260686 -0.12278893811445615
000010 8f 47 d7 03 44 09 95 bf 31 7e d3 ba 29 14 d0 3f
       -0.020543158277923686 0.25123065228214886
000020 11 16 70 ea 44 68 87 3f 54 ab 85 14 9a f6 a3 bf
       0.011429346470332143 -0.03899079800142738
000030 74 ab 11 e1 d2 ad a6 3f f0 19 93 28 79 51 bc 3f
       0.044294919943090344 0.11061818352309394
000040 e1 37 fd 74 99 31 d7 bf 8e 51 34 9b ae fe ca bf
       -0.3624023096534739 -0.2108972795327983
000050 60 0b 27 02 ef bc e6 bf 1d 5e d6 38 01 4a 9c 3f
       -0.7105631868401865 0.02762605580718801
000060 4c b9 34 b9 22 40 cd bf 0d 02 9f d0 be d1 cc bf
       -0.22851976435908694 -0.2251509207399213
000070 0e 31 04 46 ce 4b d4 3f 67 43 aa c2 00 0e cf bf
       0.31712681615387417 -0.24261483674174686

b2 f8 [1]
000000 00 17 6f df c4 59 94 3f
       0.01987369168980191
