experiments/exp030_vehicle_state/model.pth (torch, 190417 bytes, 13 tensors)

future_conv.0.weight f4 [16, 2, 5]
0	0xbd9d8581	-0.076914795
1	0x3eb47a66	0.35249633
2	0xbc9e3026	-0.019310068
3	0x3ce05c89	0.027387874
4	0xbe930bed	-0.28720036
5	0xbeabfd61	-0.3359175
6	0x3e8675b2	0.2626167
7	0xbdfe1f90	-0.12408364
8	0xbe3abfd7	-0.18237244
9	0xbe825363	-0.25454244
10	0xbe883257	-0.26600906
11	0xbe65bc05	-0.22435005
12	0x3dbf6dab	0.093470894
13	0x3ea4e1c5	0.32203498
14	0xbe7c6b00	-0.24650192
15	0xbdc83b21	-0.09776903
16	0xbd75c38b	-0.060000937
17	0xbe2a2fde	-0.16619822
18	0x3daec950	0.08534491
19	0xbe8c0a85	-0.27351776
20	0x3e01e526	0.1268507
21	0x3e17fc5b	0.1484236
22	0x3ded2c0a	0.115806654
23	0x3e068a85	0.13138779
24	0x3d6b6a2e	0.057474308
25	0xbc1f150c	-0.009709608
26	0xbcde7bd4	-0.027158655
27	0x3e155078	0.14581478
28	0xbea1233b	-0.3147219
29	0xbe8574f8	-0.26065803
30	0xbdc359ba	-0.09538598
31	0x3e6cf777	0.23141275
32	0xbd875288	-0.066075385
33	0x3e53f83e	0.20700166
34	0x3dbebd87	0.09313493
35	0xbea044ad	-0.31302395
36	0xbe87e5aa	-0.26542407
37	0x3e535dd3	0.2064126
38	0xbe45fca6	-0.19334659
39	0x3e218f76	0.15777382
40	0xbdf616d5	-0.120160736
41	0xbd6fc339	-0.05853579
42	0xbe6e6924	-0.23282295
43	0x3df54aaf	0.119771354
44	0x3d61d405	0.05513384
45	0xbe387387	-0.1801282
46	0x3e88d54d	0.26725236
47	0x3e055dc0	0.13024044
48	0x3c6136bb	0.013745959
49	0xbdb497bd	-0.08818004
50	0xbe87b804	-0.2650758
51	0xbe0401f8	-0.12891376
52	0x3e865514	0.26236784
53	0x3e206df5	0.15666945
54	0x3ea5c95a	0.32380182
55	0x3dd2ad73	0.10286989
56	0x3e7565bc	0.2396459
57	0x3e9d9595	0.30778185
58	0xbddbc5f3	-0.10731115
59	0xbdaac86a	-0.08339007
60	0xbea3e2e9	-0.32009056
61	0xbd8bdef7	-0.068296365
62	0xbe44a132	-0.19202116
63	0x3c098453	0.008393365
64	0x3e9b033f	0.30275914
65	0x3e374ea1	0.17901088
66	0xbc1c66bd	-0.009545979
67	0x3d9668a6	0.07344179
68	0xbe1e7154	-0.15472919
69	0xbe3afb69	-0.18259968
70	0x3e2243de	0.15846202
71	0xbd9431b3	-0.07236042
72	0xbe2ec3c2	-0.17066863
73	0x3e84e54d	0.25956193
74	0xbe537efc	-0.2065391
75	0x3e24a0a6	0.16076908
76	0x3bb86ca3	0.005628185
77	0x3db04bab	0.086081825
78	0xbde5cfe7	-0.11221295
79	0x3d290c20	0.04127133
80	0xbea758f9	-0.32685068
81	0x3e0847bf	0.13308619
82	0x3dadcd68	0.08486444
83	0x3e81fd84	0.2538873
84	0x3dc4bd87	0.09606462
85	0xbe21c69a	-0.15798417
86	0xbeadf915	-0.33979097
87	0x3e42c808	0.19021618
88	0xbe888392	-0.2666288
89	0xbd1352b3	-0.03596754
90	0x3d19610f	0.037446078
91	0xbc1e9447	-0.009678907
92	0xbe39d466	-0.1814743
93	0xbde66303	-0.11249354
94	0x3ea6dec0	0.3259182
95	0xbd43f3aa	-0.047839798
96	0x3e649909	0.22324003
97	0xbe3bf42f	-0.18354867
98	0xbd4b3851	-0.049614254
99	0xbea0913d	-0.31360808
100	0x3e70efd7	0.23528992
101	0x3e933f57	0.28759262
102	0xbd915204	-0.07095721
103	0xbd873682	-0.066021934
104	0xbdce3a7f	-0.10069751
105	0x3d0f34a6	0.03496232
106	0xbe726434	-0.23671037
107	0x3c2d945f	0.010594456
108	0xbe2d56be	-0.16927621
109	0xbe96d5d3	-0.2946001
110	0x3e718b2b	0.23588245
111	0xbdca9637	-0.098919325
112	0xbdf31d56	-0.1187083
113	0x3e63c639	0.22243585
114	0xbdb9d1df	-0.09073233
115	0x3e561d45	0.20909603
116	0x3dc0474f	0.09388601
117	0xbdbfdfd0	-0.09368861
118	0x3d11c1a6	0.03558507
119	0xbea3114b	-0.3184913
120	0xbe62797a	-0.22116652
121	0xbe16f8c8	-0.1474334
122	0xbdfd51cd	-0.12369118
123	0x3ea0e2f4	0.31423151
124	0x3d7293d2	0.059223004
125	0xbddfe274	-0.109318644
126	0xbe779c96	-0.24180827
127	0xbe0f7fad	-0.14013548
128	0x3de85f53	0.11346307
129	0xbe69b1e8	-0.22821772
130	0xbe4b6c00	-0.19865417
131	0x3e73124f	0.23737453
132	0xbe6b56c7	-0.22982322
133	0xbd00b68c	-0.03142409
134	0x3e8878c0	0.26654625
135	0x3d81bee4	0.063352376
136	0x3e0b225a	0.13587323
137	0x3e6a4ea9	0.22881569
138	0xba86d23a	-0.0010286041
139	0x3d681894	0.056664065
140	0x3ea41b69	0.32052162
141	0x3c8d4a0d	0.017247224
142	0xbdba23c4	-0.09088853
143	0xbea9307f	-0.33044812
144	0x3e8e6f30	0.27819204
145	0x3ea25c56	0.31711072
146	0xbc052bb1	-0.008128093
147	0xbe35715d	-0.17719026
148	0x3e85c63a	0.26127797
149	0xbe927b45	-0.28609672
150	0xbe3f35a4	-0.18672806
151	0x3db06c9f	0.08614468
152	0x3de46903	0.11152842
153	0x3e9dbecf	0.30809638
154	0x3e6a9d63	0.22911601
155	0xbe046585	-0.12929352
156	0xbe9fbebe	-0.31200212
157	0x3e8cd05e	0.27502722
158	0x3e29244e	0.16517755
159	0xbd629eb0	-0.055327117

future_conv.0.bias f4 [16]
0	0x3e8e022f	0.2773604
1	0x3de75096	0.112946674
2	0x3e90124e	0.28138965
3	0xbd94e624	-0.07270458
4	0x3dfea508	0.12433821
5	0xbe63e0a6	-0.22253665
6	0x3dc404b5	0.0957121
7	0xbe92c1c4	-0.28663456
8	0xbd24abe1	-0.04020298
9	0x3eae6155	0.34058633
10	0xbd94a096	-0.07257192
11	0x3e687355	0.22700246
12	0xbe2f86b3	-0.17141227
13	0xbe807de5	-0.2509605
14	0xbe03bb1a	-0.12864342
15	0xbeab79c3	-0.33491334

future_conv.2.weight f4 [32, 16, 5]
0	0x3bdc4a61	0.006722734
1	0x3b548219	0.0032426177
2	0x3c9778f2	0.018490288
3	0x3dcd9c9f	0.10039639
4	0xbd1fc38f	-0.03900486
5	0xbdc4045f	-0.09571146
6	0x3d011e2e	0.031522922
7	0xbe1df673	-0.15426044
8	0xbe36c5d9	-0.1784891
9	0xb873dc9c	-5.8141173e-05
10	0x3e222a40	0.1583643
11	0xbd2ad80f	-0.041709956
12	0x3de68c24	0.112571985
13	0xbdc1b9cc	-0.09459266
14	0xbd48b330	-0.04899901
15	0x3d1ad00f	0.037796076
16	0x3db61a1e	0.088917
17	0xbe58c75e	-0.21169803
18	0xbe7d15e4	-0.24715382
19	0xbd0a5b1e	-0.033778302
20	0x3d93cebe	0.07217167
21	0x3db5603d	0.088562466
22	0xbdbfa06a	-0.093567684
23	0xbdb3e93f	-0.087847225
24	0x3d563e3d	0.05230545
25	0xbda83a3a	-0.08214231
26	0xbe036ce4	-0.12834507
27	0xbe6e94c9	-0.23298945
28	0xbe6c1363	-0.2305427
29	0xbe1bfaed	-0.1523244
30	0xbe1ad52f	-0.15120386
31	0x3925d64e	0.00015815461
32	0xbdb4c646	-0.0882688
33	0x3d2a16ef	0.041525777
34	0xbd83193b	-0.06401297
35	0x3ddaffb9	0.106933065
36	0x3db4be06	0.088253066
37	0x3d0e1ea1	0.03469718
38	0xbd8f4deb	-0.069972835
39	0x3db46294	0.08807865
40	0x3e26eb08	0.16300595
41	0x3daa90a9	0.08328373
42	0xbdab7921	-0.08372713
43	0x3db75109	0.08951003
44	0x3db89b6f	0.090140216
45	0xbcdbc7a4	-0.026828595
46	0x3d27d11c	0.040970907
47	0xbd8227c4	-0.06355241
48	0x3d88055c	0.06641647
49	0xbb45c990	-0.0030179955
50	0xbdbc5ef7	-0.091978006
51	0x3d52e1eb	0.051484983
52	0xbd85ff89	-0.0654288
53	0xbd1f0edb	-0.038832527
54	0x3d900836	0.07032816
55	0x3d21fa13	0.03954513
56	0x3de76d67	0.11300164
57	0x3d7165f0	0.058935106
58	0x3d67cb03	0.05659009
59	0x3df8aaba	0.121419385
60	0x3cca9b71	0.024732323
61	0x3caf2513	0.021379983
62	0x3d69f1de	0.05711543
63	0x3d3dc32a	0.0463287
64	0x3ddb93b4	0.107215315
65	0xbde05ee8	-0.10955602
66	0x3d491ed3	0.049101662
67	0xbd559744	-0.05214621
68	0xbce3e2f8	-0.027818188
69	0xbd677453	-0.05650742
70	0x3e1da062	0.15393212
71	0xbcac063c	-0.020999067
72	0x3daf34a8	0.08554965
73	0xbbbd8533	-0.005783701
74	0x3ca43d91	0.020048888
75	0x3ca4e9f5	0.02013109
76	0x3cb612ea	0.022225816
77	0xbdc302aa	-0.095219925
78	0xbe17a42d	-0.14808722
79	0xbdc73e54	-0.09728685
80	0x3ba8ffbe	0.00515744
81	0x3b9e9421	0.0048394357
82	0xbe08bb18	-0.1335262
83	0x3d9aea45	0.075642146
84	0x3c19f881	0.009397627
85	0x3a1ec974	0.00060572405
86	0x3cfed2bd	0.031106347
87	0x3d2d4beb	0.04230873
88	0x3db17baf	0.08666169
89	0xbccd3071	-0.025047513
90	0xbd29b81e	-0.041435353
91	0x3d4b51f0	0.04963869
92	0xbdcced70	-0.10006225
93	0x3d9be853	0.07612672
94	0x3d76fdc4	0.060300604
95	0xbd5453c1	-0.051837686
96	0xbce191dc	-0.027535371
97	0xbe1242a3	-0.14283232
98	0xbd8e3ccd	-0.069451906
99	0xbc816ac2	-0.015797976
100	0xbde63d95	-0.112422146
101	0x3ce3eb04	0.027822025
102	0xbdef1d83	-0.11675551
103	0xbda6ac4c	-0.08138332
104	0xbd9fdde6	-0.07805996
105	0xbe026d24	-0.12736946
106	0x3d54a0a3	0.051911008
107	0xbd9efe03	-0.07763293
108	0xbdf99497	-0.121865444
109	0xbdd7c093	-0.105347775
110	0x3d2a5b23	0.04159082
111	0xbd025150	-0.031815827
112	0xbdabd93b	-0.08391043
113	0xbce2b9c7	-0.027676476
114	0x3bf15c73	0.007365757
115	0x3d7acdb3	0.061231326
116	0xbd265783	-0.0406108
117	0x3d4b2ede	0.049605243
118	0x3dae2439	0.08503003
119	0x3d3c9dce	0.04604893
120	0x3c6fd4cb	0.014638136
121	0xbda8871f	-0.08228897
122	0xbd2a5ae1	-0.041590575
123	0x3b6f9a54	0.0036560493
124	0xbdd132ef	-0.10214793
125	0x3cbcdbb1	0.023053976
126	0xbbcddda9	-0.0062825275
127	0x3c58866f	0.013215645
128	0xbd7130f1	-0.058884565
129	0xbca7cfa1	-0.020484747
130	0x3b3631b2	0.0027800617
131	0x3d489bd1	0.048976723
132	0x3dbdef74	0.09274188
133	0x3e106f5c	0.1410498
134	0x3d011aed	0.03151982
135	0x3cbe43bd	0.02322566
136	0xbcac38f3	-0.02102325
137	0xbcf60fdf	-0.030036865
138	0x3dd7020f	0.104984395
139	0x3da018bf	0.0781722
140	0xbd47ace0	-0.04874885
141	0xbdce1efa	-0.10064502
142	0x3cc5f7c1	0.02416599
143	0xbdaef366	-0.08542518
144	0xbc782b1b	-0.015146996
145	0xbdda0295	-0.10645024
146	0x3ce6ae3a	0.02815925
147	0xbd8b7fb4	-0.06811467
148	0x3d2adadc	0.041712627
149	0x3d858e9a	0.0652134
150	0xbdd50bf5	-0.10402671
151	0xbd8dbfe1	-0.069213636
152	0xbc47fda8	-0.012206472
153	0x3a8f94aa	0.001095434
154	0xbd5f7512	-0.054555006
155	0xbd9ff3f9	-0.07810206
156	0x3cba0443	0.02270711
157	0xbd02af83	-0.031905662
158	0x3d971b87	0.07378297
159	0xbdb450ff	-0.08804511
160	0xbdb9130b	-0.09036835
161	0xbd5abd8c	-0.053403422
162	0xbde5ba81	-0.112172134
163	0xbd9694ec	-0.07352623
164	0x3d1af04f	0.037826832
165	0x3b8664f2	0.004101389
166	0x3d84afc6	0.064788386
167	0xbdaa2580	-0.08307934
168	0x3d657eff	0.056029316
169	0xbcda67be	-0.026660796
170	0x3ca3840f	0.019960431
171	0x3ad6827b	0.001636579
172	0xbce262c5	-0.027634988
173	0xbdbf8f35	-0.093534864
174	0xbd833619	-0.06406803
175	0x3dd8dca9	0.105889626
176	0xbd7e097e	-0.06202077
177	0x3d790c2b	0.06080262
178	0x3dab291d	0.08357451
179	0x3d96d21a	0.073642924
180	0x3d95047f	0.07276248
181	0xbc976c67	-0.018484307
182	0x3c13c3c3	0.009018841
183	0xbe066017	-0.13122593
184	0xbd90d665	-0.070721425
185	0xbda1ae62	-0.07894589
186	0x3d4a9800	0.049461365
187	0x3dd37b8e	0.103263006
188	0xbc60b24f	-0.013714387
189	0xbde2e59d	-0.110789515
190	0x3b0aaa62	0.0021158685
191	0x3d3af600	0.04564476
192	0xbd76b636	-0.060232364
193	0xbbb80135	-0.0056153783
194	0x3d49aad0	0.049235165
195	0xbdd71f93	-0.10504069
196	0xbd46e54b	-0.048558515
197	0xbc5f5c1b	-0.0136327995
198	0x3ce374e0	0.027765691
199	0x3c9dd028	0.019264296
200	0xbd88566e	-0.0665711
201	0x3c3b75c3	0.011441651
202	0x3d12be30	0.03582591
203	0xbd89e921	-0.06733919
204	0xbd532a60	-0.051554084
205	0xbdcd6a36	-0.10030024
206	0x3c9a894b	0.018864295
207	0x3d9e4113	0.07727256
208	0x3d8e1e6a	0.06939395
209	0xbb0a9479	-0.0021145626
210	0xbd89c374	-0.06726733
211	0xbd51fe46	-0.051267885
212	0xbcda5777	-0.026653035
213	0x3c7c7850	0.015409544
214	0xbb9ad451	-0.004725017
215	0xbd66b024	-0.056320325
216	0xbc998ccd	-0.018743897
217	0xbda29cf2	-0.07940091
218	0xbdb64741	-0.08900309
219	0x3d5e6a42	0.054300554
220	0x3d5c8dc4	0.053846136
221	0xbc6fd20c	-0.014637481
222	0x3da79d6f	0.08184325
223	0xbdad8167	-0.08471947
224	0xbd08ef4f	-0.033431347
225	0xbd87295b	-0.06599685
226	0x3b8c46f9	0.0042809215
227	0xbdb31a47	-0.087452464
228	0xbd206a1a	-0.039163686
229	0xbdb4b3f8	-0.08823389
230	0x3ca8a661	0.020587148
231	0xbdfde9ae	-0.123980865
232	0x3d7e8040	0.062134027
233	0xbdf22094	-0.1182262
234	0x3d9fa41f	0.077949755
235	0xbc7569ee	-0.014978869
236	0xbd07f96e	-0.03319686
237	0xbd9ffcbe	-0.078118786
238	0x3d54d97b	0.051965218
239	0xbbca31f4	-0.0061705057
240	0x3dfa7fef	0.12231433
241	0x3d9f1952	0.07768501
242	0x3c1ed2d5	0.009693821
243	0x3dfb93e9	0.12284071
244	0x3dcc44bf	0.0997405
245	0x3d530fa7	0.0515286
246	0x3d3847ca	0.04499034
247	0xbd3682a0	-0.044558167
248	0xbdd218ab	-0.10258611
249	0xbdf27a33	-0.11839714
250	0x3a93be3f	0.0011271908
251	0x3d08cad5	0.03339656
252	0x3b5f0b50	0.0034033842
253	0xbde85667	-0.11344605
254	0xbd72772e	-0.05919569
255	0xbdceb889	-0.10093791

future_conv.2.bias f4 [32]
0	0xbd367716	-0.044547163
1	0xbd066a26	-0.032816075
2	0xbbaa3a35	-0.005194927
3	0x3d98d5e0	0.074626684
4	0xbd949ab6	-0.07256071
5	0x3d0a3d0d	0.03374963
6	0x3db52aab	0.08846029
7	0xbe054c2d	-0.1301734
8	0xbcaa5b17	-0.020795388
9	0x3d640f9e	0.055678956
10	0xbd030691	-0.031988684
11	0x3ca7969b	0.020457556
12	0x3c96ab0a	0.018392105
13	0xbc8f389d	-0.01748305
14	0x3ba57a75	0.0050499984
15	0xbdafb106	-0.085786864
16	0xbdf57308	-0.11984831
17	0xbd85e0fe	-0.065370545
18	0x3d86174c	0.06547412
19	0xbbe79f76	-0.00706857
20	0xbcf4d61b	-0.02988725
21	0xbddb0a8e	-0.106953725
22	0xbc8dd35c	-0.017312698
23	0xbda8dd72	-0.08245362
24	0x3dd2a1bd	0.102847554
25	0xbd10c7eb	-0.035346907
26	0xbd0bab3e	-0.034098856
27	0xbdc34e09	-0.095363684
28	0x3cb44842	0.022007111
29	0x3d523185	0.051316757
30	0xbd7c0bc4	-0.061534658
31	0xbd950926	-0.072771356

future_conv.4.weight f4 [16, 32, 3]
0	0x3cb697f0	0.022289246
1	0x3e76248a	0.24037376
2	0x3e9165b9	0.2839792
3	0x3d6cc614	0.05780609
4	0xbd07fece	-0.033201985
5	0xbd9bb29b	-0.07602426
6	0x39c8f750	0.00038331235
7	0xbb3ce3c7	-0.002882229
8	0xbd422a25	-0.047403473
9	0x3cd6cc65	0.02622051
10	0x3d049486	0.032368205
11	0x3c5a7b7b	0.013335104
12	0x3d80e840	0.06294298
13	0x3cc3c512	0.023897681
14	0x3d17b5f7	0.03703877
15	0x3e32999d	0.17441411
16	0x3e540d15	0.20708115
17	0xbc9b4b63	-0.018956846
18	0xbdbd6d1f	-0.09249329
19	0xbda033bf	-0.0782237
20	0x3daa7f3c	0.08325049
21	0x3ea915d8	0.33024478
22	0x3e429b8b	0.19004647
23	0x3e340ffd	0.17584224
24	0x3bc479bb	0.0059959567
25	0x3dc18916	0.09449975
26	0x3d42488e	0.047432475
27	0x3ccfa5a4	0.025347538
28	0x3b71f293	0.0036918267
29	0x3cbd87d2	0.023136053
30	0xbdafda3d	-0.085865475
31	0x3d8c13db	0.06839725
32	0x3dfda4ad	0.12384925
33	0xbd33e475	-0.043919045
34	0xbc908f2e	-0.017646398
35	0x3cbe9bdf	0.023267685
36	0xbd19becc	-0.037535474
37	0xbd513c63	-0.05108298
38	0x3d95f3ae	0.07321869
39	0x3dafbd42	0.0858102
40	0xbd6e9352	-0.058245964
41	0x3dc9e1fe	0.09857558
42	0x3e026574	0.12734014
43	0x3d325d48	0.04354599
44	0x3e7e64ee	0.24843189
45	0x3c234db4	0.009967256
46	0x3d13020d	0.035890628
47	0x3dc204fd	0.09473608
48	0x3cf587f1	0.029972048
49	0x3d7fc7ec	0.06244652
50	0xbd113413	-0.035450052
51	0x3d205da9	0.03915182
52	0xbc111be7	-0.00885675
53	0x3d2a6e50	0.04160911
54	0x3e0fa7e5	0.1402889
55	0x3e4f32b4	0.20234185
56	0x3d8a9f12	0.067686215
57	0x3dd320df	0.10309004
58	0x3b1c7f40	0.0023879558
59	0xbc9c638d	-0.019090438
60	0x3c805233	0.015664196
61	0x3d61b16b	0.05510084
62	0xbce1651a	-0.02751403
63	0xbd3ee6e2	-0.046606906
64	0xbdb45141	-0.088045605
65	0xbc0090e0	-0.007847041
66	0x3de53db7	0.11193412
67	0x3d8c3d08	0.06847578
68	0xbd0d8f2b	-0.034560364
69	0xbd0b3dfc	-0.03399466
70	0x3da758a6	0.08171205
71	0x3db8ed08	0.09029585
72	0xbcfa95d8	-0.03058903
73	0x3df510de	0.11966108
74	0x3e01a22e	0.12659523
75	0xbd3399d0	-0.04384786
76	0x3da59e1d	0.08086798
77	0x3dd208c8	0.10255581
78	0x3aa48aad	0.0012553536
79	0x3de6d716	0.11271493
80	0x3daeacf2	0.085290805
81	0xbc9b62f0	-0.018968076
82	0xbcfd1936	-0.03089581
83	0xbce24c06	-0.027624141
84	0x3ddc3467	0.107521825
85	0x3d9d4fac	0.07681212
86	0x3dd6d2da	0.104894355
87	0x3d6c0d24	0.05762972
88	0xbcd85f75	-0.026412705
89	0x3cfb3f59	0.030669855
90	0x3b6e12e8	0.0036327187
91	0x3ce59bdf	0.028028427
92	0x3d929448	0.07157189
93	0x3dc8c1d2	0.09802593
94	0x3c8e47ab	0.017368158
95	0xbc5306d3	-0.012880045
96	0x3d08a7e9	0.033363257
97	0xbce0bca4	-0.0274337
98	0xbde37da6	-0.1110795
99	0xbdb04bcc	-0.08608207
100	0xbd9a06dd	-0.0752084
101	0xbdec0eb5	-0.11526243
102	0x3db361ca	0.08758886
103	0xbd9b9b2b	-0.07597955
104	0x3cef22f9	0.029191481
105	0xbd0f2fc4	-0.034957662
106	0x3bd08995	0.0063640573
107	0x3d478d54	0.048718765
108	0x3c89b367	0.016809179
109	0x3cd861b8	0.026413783
110	0x3dcfa398	0.10138625
111	0xbe46795b	-0.19382231
112	0xbdfca3ef	-0.12335955
113	0xbc7a23c9	-0.015267321
114	0xbcf95cfa	-0.030439842
115	0xbda5e07c	-0.080994576
116	0x3c5f60b1	0.013633893
117	0xbe2862bf	-0.16443919
118	0x3cdf0bda	0.027227331
119	0xbe2a3918	-0.16623342
120	0xbdaa5ceb	-0.08318504
121	0xbc88c11a	-0.01669364
122	0xbd0d3c79	-0.0344815
123	0xbda1757a	-0.07883735
124	0xbda25d32	-0.07927932
125	0xbd623630	-0.05522746
126	0x3d8f671c	0.070020884
127	0xbd51be6e	-0.051207
128	0xbda6e30d	-0.08148775
129	0x3d968aba	0.07350679
130	0xbd0d487a	-0.034492947
131	0xbd2274a6	-0.039662026
132	0xbdb5a7dc	-0.08869907
133	0xbe075b75	-0.13218482
134	0x3d9f7dd7	0.07787674
135	0xbe1b39bc	-0.15158743
136	0xbd8e04a0	-0.06934476
137	0xbe0e9a59	-0.13926066
138	0xbdaccfff	-0.084381096
139	0xbe024696	-0.12722239
140	0xbdfab648	-0.12241799
141	0xbbce42b9	-0.006294575
142	0xbca79409	-0.02045633
143	0x3dc44706	0.09583859
144	0xbe0c1d79	-0.13683118
145	0xbe192b3d	-0.149579
146	0xbd10b23b	-0.035326224
147	0x3d80493d	0.06263969
148	0x3d426c97	0.04746684
149	0x3dd91de0	0.10601401
150	0x3dd551d2	0.104159966
151	0xbbad4b89	-0.0052885455
152	0xbcc2ce4d	-0.023780013
153	0x3a861d69	0.0010232154
154	0xbd041ac2	-0.03225208
155	0x3cd5894d	0.026066447
156	0xbcfed8ed	-0.031109298
157	0x3b89ec5c	0.0042090844
158	0xbd702651	-0.05863029
159	0x3dadeb99	0.08492202
160	0x3d8571a8	0.06515819
161	0x3d0cc768	0.034369856
162	0xbc4037c1	-0.011732043
163	0x3bd0e894	0.0063753817
164	0xbda53b86	-0.08067994
165	0xbcbd2c58	-0.023092434
166	0x3d1b2c32	0.037883945
167	0x3df5df35	0.12005464
168	0xbd9bee41	-0.07613803
169	0xbd84ce41	-0.06484652
170	0xbda01adc	-0.07817623
171	0xbc80ffde	-0.015747007
172	0xbcb2baae	-0.021817531
173	0xbb303086	-0.002688439
174	0xbe11bb5d	-0.1423163
175	0xbe0de12d	-0.13855429
176	0x3cd17691	0.025569232
177	0xbd3398bf	-0.043846842
178	0xbd902512	-0.070383206
179	0x3dca4212	0.09875883
180	0x3d514344	0.05108954
181	0xbd21b791	-0.039481703
182	0x3d488996	0.048959337
183	0x3d93a960	0.0721004
184	0x3dae908a	0.085236624
185	0xbcd50632	-0.02600393
186	0x3d060aa5	0.032724995
187	0x3d6b9b7d	0.057521332
188	0xbd984225	-0.07434491
189	0x3d06ad2d	0.032879997
190	0x3dbfe2b6	0.093694136
191	0x3d454ffa	0.048171975
192	0xbc68c4eb	-0.014207105
193	0xbd9956d1	-0.07487262
194	0x3d9eb1b0	0.07748735
195	0xbc0b3b1b	-0.008497979
196	0xbd8f7ae8	-0.070058644
197	0x3d7d35a5	0.061818738
198	0x3d898e63	0.06716611
199	0x3a1f5526	0.0006078057
200	0xbdd1b6eb	-0.10239967
201	0xbc63977a	-0.013891095
202	0x3bc09675	0.005877311
203	0xbdc9b903	-0.09849741
204	0xbd2f21d8	-0.042756885
205	0xbd62415f	-0.055238124
206	0xbd98e208	-0.07464987
207	0xbdd1798d	-0.10228262
208	0x3d999e46	0.075008914
209	0x3d4a17e2	0.049339183
210	0xbd05cf56	-0.032668434
211	0x3cb04fe5	0.021522472
212	0xbd42862a	-0.04749123
213	0xbdaa900f	-0.08328258
214	0xbd8f37a5	-0.06993035
215	0x3dc43bcd	0.095817186
216	0x3d9eed3e	0.07760094
217	0xbd60f76d	-0.054923464
218	0xbd0f0c05	-0.034923572
219	0x3dc1f460	0.09470439
220	0xbd9e543f	-0.077309124
221	0x3d09f26a	0.03367845
222	0xbd523cde	-0.05132758
223	0xbcff3b11	-0.031156095
224	0x3c7fc342	0.015610518
225	0x3c9a1028	0.018806532
226	0x3d4b88e1	0.049691085
227	0xbdd3183e	-0.10307358
228	0xbd8823ee	-0.06647478
229	0x3ae4bf5b	0.0017452048
230	0xbdd67da0	-0.1047318
231	0xbddbb68e	-0.10728179
232	0xbd4aaa8a	-0.049479045
233	0xbd39d740	-0.045371294
234	0xbdc64082	-0.09680273
235	0xbd083ad5	-0.03325923
236	0x3d31539c	0.043292627
237	0x3daee20c	0.08539209
238	0x3d9d9fd0	0.076964974
239	0x3d84db9e	0.06487201
240	0xbd49e344	-0.049289003
241	0x3c11cab4	0.008898426
242	0x3bf44e22	0.007455603
243	0x3bded5a6	0.006800371
244	0xbcf817f3	-0.030284857
245	0xbc02b12c	-0.007976811
246	0x3dc4a7e9	0.09602339
247	0xbd933c6b	-0.07189258
248	0xbdb8b352	-0.09018578
249	0x3d12bfe4	0.035827532
250	0xbd019468	-0.03163567
251	0xbd936c43	-0.07198384
252	0x3d8df9c6	0.06932406
253	0xbd929777	-0.07157796
254	0x3b6a834e	0.003578383
255	0xbce6813b	-0.028137794

future_conv.4.bias f4 [16]
0	0xbdbdbb23	-0.09264209
1	0x3d885455	0.0665671
2	0xbd13c7c8	-0.036079198
3	0x3d824eb2	0.06362666
4	0xbd53e000	-0.051727295
5	0xbd1bd430	-0.038044155
6	0x3c4f4be0	0.012652367
7	0x3d9dbfa3	0.077025674
8	0x3a86a237	0.0010271732
9	0xbd755571	-0.059895936
10	0x3d87ef58	0.06637448
11	0x3d94340e	0.07236491
12	0xbd8768b7	-0.0661177
13	0xbc20e3e1	-0.009819956
14	0x3cd30ac4	0.02576197
15	0x3d68135a	0.05665908

net.0.weight f4 [128, 134]
0	0x3c8e939a	0.017404366
1	0x3d3376e8	0.04381457
2	0xbd50d178	-0.050981015
3	0x3d28682d	0.041114975
4	0xbd0b142e	-0.03395479
5	0x3da87f03	0.082273506
6	0x3d5287cf	0.05139905
7	0xbcb08b2d	-0.02155074
8	0xbd8f4465	-0.06995467
9	0xbd9e6417	-0.077339344
10	0x3d8ff4b2	0.07029094
11	0x3d92b6a7	0.071637444
12	0x3d92579f	0.07145619
13	0x3d6b2888	0.0574117
14	0xbc99b2a9	-0.01876195
15	0x3d7cbed6	0.061705433
16	0xbd801aaa	-0.06255086
17	0x3d6a05e8	0.05713454
18	0xbd929da5	-0.071589746
19	0xbd91e28d	-0.07123289
20	0xbc9f5ef5	-0.019454459
21	0xbd391603	-0.045187008
22	0x3d53fa61	0.05175245
23	0xbd5a8d95	-0.05335768
24	0x3c600a2a	0.013674298
25	0x3d9ad5c0	0.07560301
26	0x3d1336c6	0.035940908
27	0xbd94fbaa	-0.072745636
28	0xbbeb6367	-0.0071834805
29	0xbc9e9f3d	-0.01936304
30	0x3d52c588	0.05145791
31	0x3c530e77	0.012881867
32	0x3c3e7fd9	0.011627161
33	0xbc669f33	-0.014076042
34	0x3da13fca	0.07873495
35	0x3b9ba1f1	0.0047495295
36	0xbc8a8356	-0.016908329
37	0xbcc4f368	-0.024041846
38	0xbac9c229	-0.0015392947
39	0xbc3b5def	-0.01143597
40	0xbd5b1402	-0.053485878
41	0x3c177617	0.009244463
42	0x3d0c9f3d	0.03433155
43	0xbd0b79f2	-0.034051843
44	0x3d6e3756	0.05815824
45	0x3d353e5b	0.04424892
46	0xbda6e71d	-0.0814955
47	0xbc93277d	-0.017963165
48	0xbd54179c	-0.05178033
49	0xbd29e2b6	-0.041475974
50	0xbc459000	-0.012058258
51	0xbd87f5e0	-0.06638694
52	0x3d6a3525	0.05717959
53	0xbd0119e7	-0.031518843
54	0x3dbf4be7	0.09340649
55	0xbd05d343	-0.032672178
56	0x3d156331	0.03647155
57	0x3b2f21a9	0.0026722944
58	0xbd94f915	-0.07274071
59	0x3db15778	0.086592615
60	0xbc9e8983	-0.01935268
61	0xbd9cc4d4	-0.076547295
62	0xbd8452ae	-0.064610824
63	0x3d3a0993	0.045419287
64	0x3d96a332	0.07355346
65	0x3d629ccf	0.055325326
66	0xbc698c5e	-0.014254658
67	0xbda50e79	-0.08059401
68	0x3c84c7a5	0.01620848
69	0xba2d8805	-0.0006619695
70	0x3d047d54	0.032346085
71	0x3d432419	0.047641847
72	0x3d3c9069	0.046036158
73	0x3d393760	0.045218825
74	0x3c359972	0.0110839475
75	0xba1ef6e1	-0.00060640095
76	0xbcec14b9	-0.028818475
77	0x3d9719ac	0.073779434
78	0x3cf2c5f1	0.029635401
79	0x3c5e4b3e	0.013567744
80	0xbd3ae45a	-0.04562793
81	0xbdb25bef	-0.08708941
82	0xbd5e868f	-0.054327544
83	0x3d0b6510	0.034031928
84	0xbd520c0d	-0.051281024
85	0xbd5870fb	-0.05284212
86	0xbd715e61	-0.058927897
87	0xbd59834d	-0.053103734
88	0xbd41a372	-0.047275014
89	0xbd3b19f7	-0.04567906
90	0x3cf0c704	0.029391773
91	0xbda155c5	-0.07877687
92	0x3c01ed45	0.007930105
93	0x3d86f309	0.06589324
94	0xbc0d2fe3	-0.008617374
95	0x3d915145	0.07095579
96	0xbd612d1e	-0.054974668
97	0xbc985cea	-0.018598992
98	0x3d9fd16a	0.078036144
99	0xbd32d96a	-0.043664373
100	0xbd5fcd8f	-0.054639395
101	0xbc42de66	-0.011893844
102	0xb99985dd	-0.0002928217
103	0x3d8f18ff	0.069871895
104	0x3da895b8	0.082316816
105	0x3b31aa54	0.002710958
106	0xbb257e87	-0.0025252418
107	0xbd0f6a13	-0.03501327
108	0x3b731c31	0.003709566
109	0xbcce7d0f	-0.025206117
110	0xbdd5b09b	-0.104340754
111	0x3d6d7d55	0.057980854
112	0xbdc49b0f	-0.095998876
113	0xbd9075de	-0.070537314
114	0x3b874ee4	0.0041292775
115	0xbd3ecb1c	-0.04658042
116	0xbc684c72	-0.014178382
117	0x3c675e8b	0.014121662
118	0xbd30b62a	-0.043142475
119	0x3cee1d11	0.029066594
120	0x3d14c876	0.036323987
121	0xbc2bb2a4	-0.010479603
122	0xbd441cc7	-0.047879007
123	0xbda6e5bc	-0.08149287
124	0x3cc642ea	0.024201829
125	0xbda151f3	-0.07876959
126	0xbc26b579	-0.010175102
127	0x3d9d210b	0.07672318
128	0xbca8323f	-0.020531772
129	0xbc9dd287	-0.019265426
130	0xbced4bba	-0.028966773
131	0xbc4cb8f0	-0.012495264
132	0xbd809753	-0.06278863
133	0x3ca28837	0.019840343
134	0x3d92a20b	0.071598135
135	0xbd8ea3b7	-0.0696482
136	0xbd24b45d	-0.04021107
137	0xbd263f6f	-0.04058784
138	0x3c57a9b2	0.013163017
139	0xbdbb8da0	-0.09157872
140	0x3bbc77d9	0.0057515916
141	0x3d6f7b4b	0.05846719
142	0xbd6beae8	-0.05759707
143	0xbc347f65	-0.011016701
144	0x3d66ba73	0.056330156
145	0xbc86d6b2	-0.016459797
146	0x3cfd76d6	0.030940454
147	0x3cd49613	0.025950467
148	0xbd7ce2a8	-0.061739594
149	0xbd0923db	-0.03348146
150	0x3da4bb77	0.080435686
151	0xbd29d9e2	-0.041467555
152	0xbd83dfcf	-0.064391725
153	0xbb400ed5	-0.0029305716
154	0x3d7b7083	0.061386596
155	0x3c8cf637	0.017207248
156	0x3c8ebd35	0.017424205
157	0x3d9f8408	0.07788855
158	0xbd8cffc5	-0.06884722
159	0x3caaa020	0.020828307
160	0xbcf09d0c	-0.02937176
161	0x3d97d84c	0.07414302
162	0x3d90b6db	0.07066127
163	0xbd97104c	-0.07376155
164	0x3d3870d9	0.045029495
165	0xbca7877c	-0.020450346
166	0xbd1d7abd	-0.03844713
167	0x3d8f16b3	0.069867514
168	0x3d6c998c	0.05776362
169	0x3d690859	0.056892727
170	0xbd18e90f	-0.037331637
171	0x3cd0d778	0.025493369
172	0xbd4d74bc	-0.050160155
173	0xbd8938db	-0.067002974
174	0x3d2fd839	0.042930815
175	0xbb78a3e2	-0.0037939479
176	0x3d2beb51	0.041972462
177	0xbba1721c	-0.004926933
178	0xbd8d6e69	-0.06905825
179	0xbd54eac8	-0.051981717
180	0x3bf767d0	0.007550217
181	0xbb8d4eaa	-0.004312356
182	0xbcc728ac	-0.024311386
183	0xbc8459f5	-0.016156176
184	0xbcb2b4ae	-0.02181467
185	0xbd6a1415	-0.057148058
186	0x3dab4508	0.08362776
187	0x3c786eb0	0.015163109
188	0x3d07fb0d	0.033198405
189	0x3b935126	0.0044957576
190	0xbd4bd0f3	-0.049759816
191	0x3d816663	0.06318357
192	0x3d52da8e	0.05147796
193	0xbd46aef2	-0.048506685
194	0xbd510773	-0.051032495
195	0xb9c02d26	-0.00036654732
196	0x3d84e666	0.064892575
197	0xbd972256	-0.07379596
198	0xbc616cce	-0.013758851
199	0xb9c608fa	-0.0003777219
200	0xbd924723	-0.071424745
201	0x3d489ac3	0.048975717
202	0xbd2456d0	-0.040121853
203	0xbd9a26c0	-0.07526922
204	0xbdf83c17	-0.12120836
205	0xbc432572	-0.011910783
206	0xbda9719b	-0.08273622
207	0xbccd0d20	-0.025030673
208	0xbd4f8850	-0.050667107
209	0x3b1a98a9	0.0023589528
210	0x3d09b183	0.033616554
211	0x3d741c70	0.059597433
212	0xbce64a7e	-0.028111693
213	0xbd644966	-0.05573406
214	0xbd91170b	-0.07084473
215	0x3c621b69	0.01380048
216	0xbc1e077f	-0.009645342
217	0xbc79c756	-0.015245279
218	0x3d78ca20	0.060739636
219	0x3d99af35	0.07504121
220	0xbce7f867	-0.02831669
221	0x3d4f5fde	0.050628535
222	0xbd3f5b71	-0.046718065
223	0xbd7c75ef	-0.061635908
224	0xbca85ca1	-0.020551981
225	0xbd25c4e5	-0.040470976
226	0xbd80d9c3	-0.06291535
227	0x3da49613	0.08036437
228	0x3ba5ce1e	0.0050599715
229	0x3dadafca	0.08480795
230	0x3d811cf3	0.0630435
231	0xbd996e79	-0.07491774
232	0x3cb1c649	0.021700995
233	0x3c4556e4	0.012044642
234	0xbda8c77a	-0.08241172
235	0x3cf8ce20	0.030371726
236	0xbd7049a7	-0.05866399
237	0x3bfeb5d4	0.0077731404
238	0xbd4d0b95	-0.050059874
239	0x3d3e8a47	0.04651859
240	0xbd48cee1	-0.04902542
241	0xbc9e7b69	-0.019345956
242	0x3cd589ba	0.02606665
243	0xbd667353	-0.056262325
244	0x3e29c447	0.1657878
245	0xbdd29999	-0.10283203
246	0xbd30cca1	-0.0431639
247	0x3c9518bb	0.018200269
248	0x3d0e4b81	0.034739975
249	0x3db3bae1	0.08775879
250	0xbdd0d0ee	-0.101961
251	0xbd425b4e	-0.047450356
252	0xbda780df	-0.08178877
253	0x3da921f7	0.082584314
254	0xbd2d0067	-0.04223671
255	0xbcccb053	-0.024986422

net.0.bias f4 [128]
0	0x3d8e6fdc	0.06954929
1	0x3cdbe5f2	0.026843045
2	0x3c3e8ba6	0.0116299745
3	0x3d6ca1d3	0.057771515
4	0xbc8649a8	-0.016392544
5	0xbd2be820	-0.04196942
6	0x3d2b9f92	0.041900225
7	0x3bd2c639	0.0064323214
8	0xbd870507	-0.06592756
9	0xbcc79bd6	-0.0243663
10	0xbab0fea0	-0.0013503619
11	0x3d10e3c8	0.03537348
12	0x3cc50c12	0.024053607
13	0xbce6ac53	-0.028158342
14	0x3b8ce808	0.004300121
15	0x3b68e312	0.0035535735
16	0xbaf6fc08	-0.0018843422
17	0x3bc0bb1d	0.0058816806
18	0x3c80a476	0.015703421
19	0xbc613b75	-0.013747086
20	0x3ce419aa	0.027844269
21	0x3d22d82e	0.039756946
22	0xbb8b966a	-0.004259874
23	0x3d949a0a	0.07255943
24	0x3d3590ab	0.04432742
25	0xbd06dad9	-0.032923553
26	0xbd0cddaa	-0.034391083
27	0xbc20639a	-0.009789372
28	0xbb8d2cc0	-0.004308313
29	0xbd3be0f7	-0.04586884
30	0x3d7bc38f	0.061465796
31	0xbcc7dcc3	-0.02439726
32	0x3bf2704b	0.0073986403
33	0xbd8b87f0	-0.068130374
34	0x3c0809bf	0.008303105
35	0xbcecbecb	-0.02889957
36	0x3d7042be	0.0586574
37	0x3d06fd1f	0.03295624
38	0x3bae4f98	0.005319547
39	0xbd5acf28	-0.053420216
40	0xbd0faeea	-0.03507892
41	0xbc9069e8	-0.017628625
42	0x3cefbe69	0.0292656
43	0xbd4d4db3	-0.050122928
44	0xbcf2834d	-0.029603625
45	0xbcf18c4e	-0.029485848
46	0xbd5e1144	-0.054215685
47	0x3c89dd96	0.016829293
48	0x3cdf5d8b	0.027266284
49	0xbd2f02b3	-0.042727184
50	0x3d4e3749	0.050345693
51	0x3c6b1646	0.014348572
52	0x3d632a2a	0.055460133
53	0x3d0a99d7	0.03383812
54	0x3c830bc4	0.015996821
55	0xbd5da39d	-0.054111112
56	0xbd085aff	-0.033289906
57	0xbcbb0617	-0.022830052
58	0xbd8e1001	-0.06936646
59	0x3d546bb5	0.05186053
60	0xbd49c34b	-0.04925851
61	0xbd21a34d	-0.039462376
62	0xbd12e673	-0.035864305
63	0xbd77b47c	-0.060474858
64	0x3d7df1c3	0.06199814
65	0xbd2353f9	-0.039875004
66	0x3d404c26	0.04694762
67	0xbd7919b5	-0.06081553
68	0xbd17014a	-0.036866464
69	0xbd5883d2	-0.05286009
70	0xbd00d8b9	-0.031456683
71	0xbcc0b58c	-0.023524068
72	0xba38d882	-0.0007051305
73	0x3d61418f	0.054994162
74	0xbb4badda	-0.0031078965
75	0x3cbf41f8	0.023346886
76	0x3d371fe7	0.04470816
77	0x3b2d1ce2	0.002641492
78	0xbd9d7c82	-0.076897636
79	0xbb12f9e9	-0.002242679
80	0xbd85bd2c	-0.06530222
81	0xbbe7931b	-0.007067097
82	0xbc8ff615	-0.017573396
83	0xba97fa11	-0.0011594911
84	0x3c9a1c9f	0.018812476
85	0x3d41ab82	0.047282703
86	0xbd92da8d	-0.071705915
87	0x3ccf351a	0.025293875
88	0xbd065144	-0.032792345
89	0xbc857ae5	-0.016293952
90	0xbd470f88	-0.048598796
91	0xbd901104	-0.070344955
92	0x3cc49f45	0.024001727
93	0x3d8e9d01	0.0696354
94	0xbd9a16a1	-0.07523847
95	0x3d85df3d	0.0653672
96	0xbd2a6b3b	-0.04160617
97	0x3cda8215	0.026673356
98	0x3bb0aebf	0.005391925
99	0x3c512353	0.01276477
100	0x3d9ad8b7	0.07560866
101	0x3d758bc5	0.059947748
102	0xba12787c	-0.00055874116
103	0xbc30a93e	-0.010782538
104	0xbbdc418d	-0.0067216814
105	0x3d9877b7	0.07444709
106	0x3d381c9c	0.04494916
107	0xbd8bdc37	-0.06829112
108	0x3c6590ec	0.014011603
109	0x3d7612dc	0.06007658
110	0xbcf7ca4a	-0.030247826
111	0xbd01b034	-0.03166218
112	0x3cf7fa24	0.030270644
113	0xbb952d66	-0.004552531
114	0xbd0be452	-0.03415329
115	0xbd600ceb	-0.05469982
116	0x3d6051c8	0.054765493
117	0xbd2ba53a	-0.04190562
118	0x3d63fca5	0.055660862
119	0xbd197388	-0.037463695
120	0x3c9b0dfc	0.018927567
121	0xbc4e30fd	-0.012584922
122	0x3ca91211	0.020638498
123	0xbc378f78	-0.011203639
124	0xbc0785d3	-0.008271652
125	0x3a8c1e34	0.0010690154
126	0xbc89e160	-0.0168311
127	0xbd0781f4	-0.033082917

net.2.weight f4 [128, 128]
0	0xbd590ce4	-0.05299081
1	0xbd5e9b3e	-0.05434727
2	0xbd109566	-0.035298727
3	0x3db9a2f8	0.09064287
4	0x3c81290f	0.015766649
5	0x3d39375a	0.045218803
6	0x3d2e4cde	0.042553775
7	0x3d8fdc3c	0.07024428
8	0x3db7051a	0.0893652
9	0x3cdbaf08	0.02681686
10	0xbcf67f37	-0.030089958
11	0xbd3e052c	-0.04639165
12	0x3d00d4be	0.031452887
13	0x3cb8e1e3	0.022568649
14	0xbcf84261	-0.03030509
15	0xbd33194f	-0.043725308
16	0xbd9ed709	-0.077558585
17	0xbcf12d7e	-0.029440638
18	0xbcf8b62f	-0.03036031
19	0x3d0b4add	0.034006942
20	0x3c732daa	0.01484243
21	0x3da403d0	0.0800854
22	0x3d0adbc2	0.033900984
23	0x3d940a43	0.0722852
24	0x3d1db2ce	0.0385006
25	0x3d8acc0c	0.067772
26	0x3c944577	0.01809953
27	0xbd46b178	-0.04850909
28	0x3d0d68b7	0.034523692
29	0xbda81048	-0.082062304
30	0x3bd75958	0.00657193
31	0xbd2e1889	-0.042503867
32	0xbb9c331f	-0.0047668363
33	0x3d6a8b2e	0.05726164
34	0x3cac5597	0.021036906
35	0x3d9e962c	0.07743487
36	0xbb956797	-0.004559468
37	0xbd215bbd	-0.03939413
38	0xbd8e9596	-0.06962125
39	0xbd2b94b1	-0.04188985
40	0x3dbe9b64	0.09306982
41	0xbd51a833	-0.051185798
42	0x3d6a8a00	0.057260513
43	0x3d145016	0.03620919
44	0x3d5be36e	0.05368369
45	0xbda8472e	-0.082167014
46	0xbd9877f1	-0.07444752
47	0xbd2bec25	-0.04197325
48	0x3cc240f2	0.023712609
49	0x3d850dbf	0.064967625
50	0xbd86daf7	-0.06584733
51	0xbd14e3c8	-0.03635004
52	0x3d617fef	0.055053648
53	0x3cf5c0c0	0.029999137
54	0xbd3a6e86	-0.04551556
55	0x3b94f3e3	0.004545675
56	0xbcc8d123	-0.024513787
57	0xbd930144	-0.07177976
58	0xbd62a613	-0.055334162
59	0xbd872e75	-0.06600658
60	0x3da626d5	0.08112875
61	0x3d718a91	0.058970038
62	0xbdb56b6e	-0.08858381
63	0x3d040135	0.032227714
64	0xbd222a96	-0.039591394
65	0x3d34d402	0.0441475
66	0x3d6ea800	0.058265686
67	0xbc6787a9	-0.014131465
68	0x3d94f6e0	0.0727365
69	0xbd9f5df7	-0.07781594
70	0x3d2a4470	0.041569173
71	0xbc9bd1b3	-0.01902089
72	0x3d3805e8	0.044927508
73	0xbc2c697a	-0.010523194
74	0xbcc94c5e	-0.024572548
75	0x3ccdf9ad	0.025143469
76	0x3d02a4cb	0.03189544
77	0x3d42f6d9	0.047598694
78	0x3cc27449	0.02373709
79	0x3d015889	0.031578574
80	0x3b2e6703	0.0026611693
81	0x3dbdb02b	0.09262117
82	0x3d3eb21a	0.04655657
83	0xbc847169	-0.01616736
84	0xbc91dec7	-0.017806424
85	0x3c9cb4cf	0.019129185
86	0xbd3090d9	-0.043106887
87	0x3d38f682	0.045156963
88	0xbd9d69d6	-0.07686202
89	0x3b4994c0	0.0030758828
90	0xbc101dd9	-0.008796179
91	0x3d66c16e	0.056336813
92	0x3cd7c710	0.026340038
93	0x3da20a7e	0.079121575
94	0x3d8fce09	0.0702172
95	0x3db11594	0.08646694
96	0x3c67d9fe	0.0141510945
97	0x3d3b0e5d	0.045667995
98	0xbd3d0585	-0.046147842
99	0xbd79acf9	-0.060955975
100	0x3b8ef8b5	0.0043631443
101	0x3d0b173a	0.033957697
102	0x3d953b4c	0.072867006
103	0x3d85bb44	0.06529859
104	0xbd93556e	-0.07194029
105	0x3d5e83e8	0.054325014
106	0x3cb32d83	0.021872288
107	0x3dbc9a70	0.09209144
108	0xbda1f898	-0.079087436
109	0xbbccd472	-0.0062509114
110	0xbd2e5983	-0.042565834
111	0xbcf9bdd2	-0.030486021
112	0x3c706349	0.014672109
113	0xbd849e5a	-0.06475516
114	0xbdb4351a	-0.08799191
115	0x3c82106a	0.015876967
116	0xbc9013e1	-0.017587604
117	0x3cd687c0	0.026187778
118	0x3b685576	0.003545133
119	0xbd6e6905	-0.058205623
120	0xbccc5e01	-0.024947168
121	0xbd294f19	-0.0413352
122	0x3d313ca0	0.043270707
123	0xbd38ef7d	-0.04515027
124	0x3d8b6e49	0.068081446
125	0x3c062f0e	0.00818993
126	0x3d546df4	0.051862672
127	0x3cb01f4e	0.021499302
128	0x3da9a541	0.08283473
129	0xbb98b588	-0.004660312
130	0xbd825513	-0.06363883
131	0xbd8db5b0	-0.0691942
132	0x3d8d66bf	0.06904363
133	0x3d6cf8d5	0.057854492
134	0xbd9bd9cc	-0.07609901
135	0xbda8edeb	-0.08248504
136	0x3d96c3cd	0.07361565
137	0x3dbab172	0.09115876
138	0x3cbc2476	0.022966605
139	0xbd1ac922	-0.03778947
140	0xbd96f733	-0.07371368
141	0xbd0716a9	-0.032980595
142	0xbb651f34	-0.0034961225
143	0xbdcaea3a	-0.099079564
144	0x3d43cb76	0.047801457
145	0xbd196fb3	-0.03746004
146	0x3d946e31	0.0724758
147	0xbd69e666	-0.05710449
148	0xbccc620b	-0.024949094
149	0x3ba23f36	0.004951383
150	0xbd1ccff6	-0.038284265
151	0xbd8f8864	-0.07008436
152	0x3d14ea3e	0.036356203
153	0x3d29584b	0.04134397
154	0xbd36ede7	-0.044660475
155	0xbcd3e99b	-0.025868228
156	0x3d7fadf9	0.062421773
157	0xbd0ad161	-0.033891086
158	0x3d9a7504	0.0754185
159	0xbc302784	-0.010751609
160	0xbd884f8e	-0.06655799
161	0xbd857532	-0.06516494
162	0xbc921a2f	-0.017834751
163	0x3bb351b7	0.0054723877
164	0x3d2a6c93	0.04160745
165	0x3d09048c	0.033451602
166	0xbcea6f88	-0.028617635
167	0x3ccf52e7	0.025308086
168	0xbb61c130	-0.0034447424
169	0xbc81a856	-0.01582734
170	0x3d8a920c	0.067661375
171	0xbd97e8d8	-0.07417458
172	0xbda0dcc8	-0.07854611
173	0x3d3940aa	0.045227684
174	0x3accd0d3	0.0015626199
175	0x3d2bfd0a	0.041989364
176	0xbda16f28	-0.078825295
177	0xbd9528e0	-0.07283187
178	0x3b843731	0.0040348996
179	0x3db18bf4	0.08669272
180	0x3c161f76	0.009162774
181	0x3d55deba	0.05221436
182	0xbd91bb77	-0.07115834
183	0xbc09506a	-0.008380989
184	0xbd9bafb5	-0.07601873
185	0xbb2b1b3e	-0.0026108767
186	0x3cc238aa	0.02370866
187	0xbd39f06a	-0.045395292
188	0x3db3155d	0.08744309
189	0xbae4c6ef	-0.0017454306
190	0x3c96e48f	0.018419532
191	0x3bc429da	0.0059864344
192	0xbc50f0a1	-0.012752683
193	0xbd1cb4c7	-0.03825834
194	0x3d5b10c5	0.05348279
195	0x3dc7e0c7	0.0975967
196	0x3db6a7f6	0.08918755
197	0x3cb149b0	0.021641582
198	0xb98db973	-0.00027031786
199	0xbd8619c2	-0.06547882
200	0x3b406836	0.002935899
201	0xbd0ec75c	-0.034858093
202	0x3cc6f9b9	0.024288999
203	0x3d74623f	0.059664007
204	0x3d282abe	0.041056387
205	0x3b36aa34	0.0027872445
206	0x3d3b8d82	0.04578925
207	0xbd180eb4	-0.037123397
208	0xbd36cdcc	-0.044629857
209	0x3bba93fe	0.0056939116
210	0xbcc5986b	-0.02412053
211	0xbac81f38	-0.0015268093
212	0x3b2bc45e	0.0026209573
213	0x3c99185a	0.01868837
214	0xbd18b29e	-0.037279718
215	0x3dabdc9b	0.083916865
216	0x3d597399	0.05308876
217	0xbcdc28d6	-0.02687494
218	0x3d859a4e	0.06523572
219	0x3dc39637	0.095501356
220	0x3d9beb32	0.07613219
221	0x3d55bd0d	0.052182246
222	0x3d1aa163	0.037751567
223	0x3d8d3e31	0.06896628
224	0x3d8c60cc	0.068544
225	0x3d073dc7	0.0330179
226	0xbdc6dade	-0.09709714
227	0x3d5c3bbd	0.05376791
228	0xbd809fab	-0.06280454
229	0x3cb084eb	0.021547755
230	0xbc6121eb	-0.013740997
231	0x3dce4162	0.100710645
232	0xbd7b4092	-0.061340876
233	0xbcaa1ea5	-0.020766566
234	0xbd94bc5c	-0.07262489
235	0x3c72b926	0.014814651
236	0xbd21f631	-0.039541427
237	0x3d339202	0.043840416
238	0xbd8a1065	-0.06741408
239	0xbd2b7803	-0.0418625
240	0x3c910443	0.017702227
241	0x3d4f852d	0.050664116
242	0xbd332d36	-0.04374429
243	0x3d8df93f	0.069323055
244	0x3d0d99fc	0.03457068
245	0x3d0bf43f	0.034168478
246	0xbdb992dd	-0.09061215
247	0x3d707202	0.058702476
248	0xbd60f2a2	-0.054918893
249	0xbd3c8901	-0.046029095
250	0xbd642437	-0.0556986
251	0x3ba1d8fe	0.0049391976
252	0xbd313b2c	-0.04326932
253	0xbdb31a5b	-0.08745261
254	0x3cd94186	0.026520502
255	0xbd4b41c7	-0.049623277

net.2.bias f4 [128]
0	0xb9f951e6	-0.00047554
1	0x3cb5fc65	0.022215078
2	0x3d1b9409	0.037982974
3	0x3bca847f	0.0061803455
4	0xbda5855c	-0.08082077
5	0x3d7f764d	0.06236868
6	0xb99aa988	-0.0002949948
7	0xbd75ad10	-0.0599795
8	0xbc9ead4e	-0.019369747
9	0xbd3ef3ed	-0.046619345
10	0xbdb0f9d7	-0.08641403
11	0x3d809bb9	0.06279702
12	0x3d6dfd07	0.058102634
13	0xbd91c3be	-0.07117413
14	0xbd4db5a4	-0.050222054
15	0x3bf4617a	0.007457909
16	0x3ce890c3	0.02838934
17	0xbbbbc661	-0.0057304357
18	0xbb0aa3e4	-0.0021154815
19	0xbcaa050f	-0.020754365
20	0xbd711a81	-0.058863167
21	0x3d78edef	0.060773786
22	0x3cd96e74	0.026541926
23	0x3cc0d725	0.023540089
24	0xbd4d1b89	-0.050075088
25	0x3d8d5ae6	0.06902103
26	0xbbdbfdc8	-0.0067136027
27	0x3d3be90e	0.045876555
28	0x3d21f1ec	0.039537355
29	0xbc272c23	-0.010203394
30	0x3d305ab3	0.043055248
31	0xbd12effc	-0.0358734
32	0xbd0e49b7	-0.03473827
33	0x3d08f935	0.033440787
34	0x3d1aea68	0.037821203
35	0xbd0e0818	-0.034675688
36	0x3d55b7e5	0.05217733
37	0xbc91b4e0	-0.017786443
38	0xbb8b9430	-0.0042596087
39	0xbc3294e1	-0.010899753
40	0xbd446102	-0.047944076
41	0x3d01dab1	0.0317027
42	0xbd97d6f2	-0.074140444
43	0x3d830512	0.063974515
44	0x3d89d0c6	0.067292735
45	0x3b96e4e6	0.0046049235
46	0xba5c479c	-0.00084030046
47	0xbd1b2cd9	-0.037884567
48	0x3bc9e4f0	0.0061613247
49	0x3d6dcd9d	0.058057416
50	0xbbe5ba18	-0.0070107095
51	0x3d38d978	0.04512927
52	0xbbdfb387	-0.0068268212
53	0xbc913c36	-0.017728906
54	0x3befaebb	0.0073145307
55	0x3ae64d1f	0.0017570591
56	0xbb9ba91e	-0.004750385
57	0xbc84ebbc	-0.016225688
58	0xbcbaf66d	-0.022822583
59	0xbd316678	-0.043310612
60	0xbbc02b21	-0.0058645164
61	0x3c8fb651	0.01754299
62	0xbd007c6e	-0.031368665
63	0x3d851d02	0.064996734
64	0xbd39fa39	-0.045404647
65	0xbcd8e741	-0.026477458
66	0xbce0804b	-0.027404925
67	0xbbc394b4	-0.0059686545
68	0x3d10b506	0.035328887
69	0xbd0e3bbc	-0.034724936
70	0xbc2c621c	-0.010521438
71	0xbc8e85f8	-0.017397866
72	0xbd8ba1c5	-0.068179645
73	0x3d568894	0.052376345
74	0x3d534c38	0.05158636
75	0xbcdddc3e	-0.027082559
76	0xbd9fb8ff	-0.07798957
77	0xbca0111d	-0.01953941
78	0xbd9c99ad	-0.07646499
79	0xbb319ea2	-0.002710261
80	0xbbf20629	-0.0073859883
81	0xbcd4d68f	-0.025981216
82	0xbd52326d	-0.05131762
83	0xbcf4f9db	-0.029904297
84	0xbd9b0415	-0.07569138
85	0x3d9bb3b9	0.07602639
86	0x3d19e880	0.037575245
87	0xbca32544	-0.01991523
88	0xbcf5806b	-0.029968461
89	0xbc92b479	-0.017908322
90	0x3c3bd5e5	0.011464571
91	0x3d7caa4d	0.06168585
92	0x3cfe4c20	0.031042159
93	0xbca72ccf	-0.020407109
94	0x3cca74d4	0.024713911
95	0xbd29f02d	-0.041488815
96	0x3bfea56f	0.007771186
97	0xbc0c5de6	-0.008567309
98	0xbd7d88cd	-0.06189804
99	0x3b17a392	0.0023138267
100	0xbcec79c6	-0.02886666
101	0xbb7cd948	-0.0038581658
102	0xbba97da6	-0.005172449
103	0x3cb7d9a4	0.022442646
104	0xbb644800	-0.0034832954
105	0x3b4807b0	0.003052216
106	0x3d55f486	0.05223515
107	0x3ca9a1dc	0.020707063
108	0x3c63c4ae	0.013901873
109	0x3c95ced7	0.018287105
110	0xbc0d4bd1	-0.008624033
111	0xbd88805b	-0.06665107
112	0x3d080303	0.033205997
113	0xbd997937	-0.07493823
114	0xbd8df8bf	-0.0693221
115	0x3d8316fd	0.06400869
116	0xbd0556c3	-0.032553446
117	0x3d82b5e5	0.0638235
118	0x3c13e64d	0.009027076
119	0x3d4f062b	0.05054299
120	0xbd2d4a59	-0.04230723
121	0x3d4f3d66	0.050595663
122	0xbcac0854	-0.021000065
123	0x3d989df1	0.07452
124	0x3d19951c	0.037495717
125	0x3c2b852e	0.010468764
126	0x3bc4daf5	0.006007547
127	0xbc99ce6a	-0.018775184

net.4.weight f4 [64, 128]
0	0xbd3d40a6	-0.04620423
1	0x3d7cba47	0.061701085
2	0xbcd5e687	-0.0261109
3	0x3d8ef152	0.06979622
4	0x3cda7fde	0.0266723
5	0x3d7b97a1	0.0614239
6	0x3dc603a5	0.09668664
7	0xbcb7c576	-0.022433024
8	0x3bfcede4	0.0077187885
9	0xbd7fdc31	-0.06246585
10	0x3cf44dee	0.029822316
11	0x3cf4b0f3	0.029869532
12	0x3c372c4a	0.011179993
13	0x3d2b653e	0.0418446
14	0xbd2c7b29	-0.042109642
15	0x3d768662	0.06018675
16	0xbd4ab04e	-0.049484544
17	0xbd8bd9c7	-0.06828647
18	0xbd637b99	-0.055537794
19	0xbc007843	-0.007841173
20	0x3d306262	0.043062575
21	0x3ae15587	0.0017191627
22	0x3d8d0d62	0.06887318
23	0x3d38ff55	0.04516538
24	0x3d09fdf5	0.033689458
25	0xbd5978e9	-0.053093825
26	0xbcd3d31c	-0.0258575
27	0xbc9ccda5	-0.019141028
28	0xbc069289	-0.008213648
29	0x3c8073aa	0.015680153
30	0xbd343817	-0.043998804
31	0xbd3427c5	-0.04398324
32	0xbd20177d	-0.0390849
33	0xbdad2525	-0.084543504
34	0x3b3c63ba	0.0028745965
35	0x3c8cac36	0.01717196
36	0x3c9f0c09	0.019414918
37	0xbca0346a	-0.019556243
38	0x3dae1a37	0.08501094
39	0xbbd43133	-0.0064755916
40	0xbb63eaef	-0.0034777483
41	0x3cc511f6	0.024056416
42	0x3d880eb9	0.06643433
43	0xbd2603a1	-0.040530805
44	0xbd5b4d1c	-0.053540334
45	0x3d490073	0.049072694
46	0x3ca3baf5	0.019986609
47	0x3cd7cbac	0.026342236
48	0x3d140ddb	0.036146026
49	0xbd6d9a67	-0.058008578
50	0x3c195cfb	0.009360547
51	0x3d92cbaf	0.07167756
52	0x3ca51302	0.020150665
53	0x3d00f6ad	0.03148525
54	0xb98758b0	-0.00025815284
55	0x3d705959	0.05867896
56	0x3d8286c5	0.063733615
57	0x3cb830bd	0.022484178
58	0xbdaf27e7	-0.08552533
59	0x3d6f7f4c	0.05847101
60	0xbc953834	-0.018215276
61	0xbce8baff	-0.02840948
62	0x3d274859	0.04084048
63	0xbd05ec90	-0.032696307
64	0xbd85311c	-0.065035075
65	0x3d89b8cc	0.067247
66	0x3b5728b3	0.0032830655
67	0xbd42c138	-0.04754755
68	0xbd29888a	-0.04138998
69	0xbcff15c9	-0.031138318
70	0xbd1af9ca	-0.037835874
71	0x3c4e614a	0.012596438
72	0xbcb44973	-0.02200768
73	0x3d699485	0.057026405
74	0xbd3cdc70	-0.046108663
75	0xbaea8242	-0.0017891603
76	0x3dca05df	0.09864401
77	0xbd488a7c	-0.048960194
78	0xbc0d9dce	-0.008643581
79	0xbd693bc6	-0.05694177
80	0xbc4e51cc	-0.012592744
81	0x3d872976	0.06599705
82	0xbd320acf	-0.04346734
83	0x3dcf6af6	0.10127823
84	0x3d712ebb	0.058882456
85	0x3d7d6a05	0.061868686
86	0x3ca8c80b	0.0206032
87	0x3d17f7d2	0.037101574
88	0xbd64e4ec	-0.05588238
89	0xbd751e9b	-0.05984364
90	0xbcf692a2	-0.030099217
91	0x3cf325e5	0.029681155
92	0xbc58777c	-0.013212081
93	0x3c75e2bb	0.01500767
94	0x3c27c03f	0.010238706
95	0x3bdbe3cb	0.0067105046
96	0xbd606bae	-0.05479019
97	0xbcea3d52	-0.028593693
98	0xbb8749ca	-0.0041286694
99	0x3d804624	0.06263378
100	0xbd0ce6ca	-0.034399785
101	0x3c13976e	0.009008272
102	0xbbb4c1f0	-0.005516283
103	0xbd809514	-0.062784344
104	0x3daca7c8	0.08430439
105	0xbdb4deff	-0.08831596
106	0x3b8eac4a	0.0043540346
107	0x3cdbec1c	0.026845984
108	0x3de837f4	0.11338797
109	0xbbe573b0	-0.0070023164
110	0xbc44a708	-0.012002714
111	0x3db79d84	0.089655906
112	0x3cae7cf1	0.021299811
113	0x3d1d2fc4	0.03837563
114	0x3d130e3b	0.035902243
115	0x3be6a224	0.0070383716
116	0x3d135558	0.035970062
117	0x3cb6be2f	0.022307483
118	0xbdb2a78e	-0.08723365
119	0x3dc43015	0.095794834
120	0xbd7d8faa	-0.061904587
121	0x3d37392b	0.044732254
122	0x3d92cb56	0.071676895
123	0x3be007f9	0.006836888
124	0xb9ba5fb0	-0.00035547977
125	0xbd7357cc	-0.0594099
126	0xbc99ae78	-0.018759951
127	0x3d74a295	0.059725363
128	0x3d3d39ec	0.046197817
129	0xbd6f32db	-0.05839811
130	0xbdaa7ef9	-0.08324999
131	0x3d53d498	0.051716417
132	0xbdb5828c	-0.088627905
133	0x3dafd201	0.08584977
134	0xbda6ac9f	-0.081383936
135	0xbd6e2a6a	-0.058145918
136	0xbbab86b3	-0.0052345633
137	0x3d43ea96	0.04783114
138	0x3aff5dba	0.0019482889
139	0x3d5d4a28	0.0540258
140	0xbd5763a4	-0.05258526
141	0x3d3cf161	0.046128634
142	0x3d2f6300	0.042819023
143	0x3d69072d	0.05689161
144	0xbd11ec97	-0.03562602
145	0x3c867d7e	0.016417261
146	0xbd96ea7c	-0.07368943
147	0x3d8b0c5f	0.06789469
148	0x3c53821e	0.01290944
149	0x3d8af5d9	0.06785173
150	0xbd826e7d	-0.0636873
151	0xbd8f0f91	-0.06985391
152	0xbcff27ec	-0.031146966
153	0x3bb0cd9d	0.0053956048
154	0x3d924621	0.07142282
155	0xbd152686	-0.036413692
156	0x3cc8e2fc	0.024522297
157	0xbda81a3c	-0.08208129
158	0xbbbc6606	-0.005749467
159	0xbd7cb51b	-0.061696153
160	0x3aa234ab	0.0012375315
161	0x3d50ff01	0.05102444
162	0xbd45dfc4	-0.048309103
163	0x3d30c4a3	0.043156277
164	0xbd2fa8e6	-0.042885683
165	0xbb944992	-0.004525372
166	0xbc3e3330	-0.011608884
167	0xbd4ce75e	-0.050025336
168	0x3d85ff1a	0.065427974
169	0xbcc1dc58	-0.023664638
170	0x3d760b6c	0.060069486
171	0x3d8c5970	0.06852996
172	0x3d539dc4	0.05166413
173	0x3d1bc3f7	0.038028684
174	0x3d0ee077	0.034882035
175	0xbd420668	-0.04736939
176	0x3da3578f	0.07975685
177	0xbcf11731	-0.029430004
178	0x3baadd2d	0.0052143545
179	0x3ce1c854	0.027561344
180	0x3cdd49e0	0.027012765
181	0xbd1855d6	-0.037191235
182	0xbd0e4cb0	-0.034741104
183	0xbd4e43a7	-0.050357487
184	0xbd28e519	-0.04123411
185	0xbcd287f0	-0.025699586
186	0x3d84bb19	0.064809985
187	0xbd462640	-0.04837632
188	0x3cece78c	0.028919004
189	0x3d936478	0.07196897
190	0xb9967e72	-0.0002870444
191	0xba25c15d	-0.0006323064
192	0xbdb8206c	-0.08990559
193	0x3d573289	0.05253843
194	0x3bef54d5	0.007303814
195	0xbda0c490	-0.07849991
196	0x3c371170	0.011173591
197	0x3d5f54f6	0.054524384
198	0xbb105c64	-0.0022027725
199	0xbd7d7353	-0.06187756
200	0x3d9466fe	0.07246207
201	0x3d9b5711	0.07584966
202	0xbb465c14	-0.0030267285
203	0xbd1ca788	-0.038245708
204	0xb9d037f2	-0.00039714534
205	0xbd6a916b	-0.057267588
206	0xbcb06e67	-0.021537019
207	0x3d97042b	0.07373842
208	0x3be05e93	0.0068472116
209	0xbd334a44	-0.043771997
210	0x3b69d1a7	0.003567794
211	0xbca5a4a7	-0.020220114
212	0x3d61f913	0.055169176
213	0x3d2530e8	0.040329844
214	0xbd759743	-0.059958708
215	0xbd574583	-0.052556526
216	0x3d17703e	0.036972277
217	0x3b61b272	0.0034438637
218	0xbc6a3953	-0.014295894
219	0x3d3cbd4c	0.046078965
220	0xbce98c99	-0.028509425
221	0xbd407c32	-0.046993442
222	0x3cc9c19b	0.024628451
223	0xb8e7cee4	-0.00011053475
224	0x3c2fb891	0.010725156
225	0x3d3bec03	0.045879375
226	0x3d87e7bc	0.06635997
227	0xbd54ac03	-0.051921856
228	0x3d107712	0.035269804
229	0x3cd63fb8	0.02615343
230	0xbcb3f865	-0.02196903
231	0xbceab93b	-0.028652778
232	0xbc832a8a	-0.016011495
233	0xbcb6238f	-0.022233753
234	0xbd9eb5c2	-0.07749511
235	0xbdb1a42b	-0.08673891
236	0x3c99ccfd	0.018774504
237	0xbd443cca	-0.047909535
238	0x3c2ebc4e	0.0106650125
239	0xbdab458f	-0.083628766
240	0x3d4d8a0b	0.050180476
241	0xbc2b8d6f	-0.010470732
242	0x3af6f89c	0.0018842402
243	0xbdb9dc05	-0.090751685
244	0x3cde529c	0.027139
245	0x3d8058fb	0.06266972
246	0xbd9d2848	-0.07673699
247	0xbc8716bb	-0.01649033
248	0xbd5cf29c	-0.053942308
249	0xbccb7473	-0.0248358
250	0x3cac05bf	0.020998834
251	0x3d85ec0a	0.065391615
252	0xbcbc90ab	-0.023018202
253	0x3db1cf60	0.08682132
254	0xbd71d9ea	-0.05904571
255	0xbd59f1e8	-0.053209215

net.4.bias f4 [64]
0	0x3d2e91d7	0.042619552
1	0xbccf3edf	-0.025298534
2	0x3c590a13	0.013247031
3	0xbd9e24fc	-0.07721898
4	0xbc8dae72	-0.017295096
5	0x3d536c87	0.05161717
6	0x3d741088	0.059586078
7	0xbd213567	-0.03935757
8	0x3d8f1d24	0.0698798
9	0xbd87d790	-0.06632912
10	0x3d078093	0.033081602
11	0x3d701d18	0.058621496
12	0x3c826157	0.015915556
13	0xbd4bf77e	-0.049796574
14	0x3d80f779	0.06297202
15	0x3d89d60b	0.067302786
16	0x3daa3826	0.08311491
17	0x3dbf90d6	0.09353797
18	0x3c831545	0.016001353
19	0xbc644c22	-0.013934167
20	0x3d178365	0.036990542
21	0xbc21f0a2	-0.0098840315
22	0x3daa9bd0	0.083305
23	0x3d7350da	0.059403278
24	0xbd9f2633	-0.07770958
25	0xbd913cd5	-0.07091681
26	0x3d8c63db	0.068549834
27	0x3c8c3c6a	0.017118651
28	0x3c3a5d08	0.011374719
29	0xbda90bee	-0.082542285
30	0xbc065fc4	-0.008201543
31	0xbcf03c7c	-0.029325716
32	0xbc878c71	-0.01654646
33	0x3b355e3a	0.0027674572
34	0x3ccf6784	0.025317915
35	0xbd946a16	-0.07246797
36	0xbd6c2655	-0.057653744
37	0xbc9b2f44	-0.018943436
38	0xbce53ae9	-0.027982192
39	0x3c413e26	0.0117946025
40	0xbd40329b	-0.04692326
41	0xbaa484e9	-0.0012551817
42	0x3d1c127e	0.038103573
43	0x3d800361	0.062506445
44	0xbd518fd4	-0.051162556
45	0x3d686c22	0.05674375
46	0x3c3cc7c7	0.01152224
47	0xbcb23951	-0.021755846
48	0x3d88cb8d	0.06679449
49	0x3c07d1ad	0.008289737
50	0xbd982ea1	-0.07430769
51	0xbda398f1	-0.07988156
52	0xbc074f70	-0.0082586855
53	0x3d752351	0.059848133
54	0x3d95857f	0.07300853
55	0xbd141e0f	-0.03616148
56	0x3c862c76	0.016378623
57	0xbcdcbeb6	-0.026946407
58	0xbcedb4dd	-0.029016906
59	0x3d9167f9	0.07099909
60	0x3d800ddd	0.06252644
61	0x3d29f039	0.04148886
62	0xbd12804e	-0.035766892
63	0xbd110a4c	-0.03541021
