experiments/exp042/outputs/best_model.pt (torch, 25785 bytes, 5 tensors)

fc1.weight f4 [64, 55]
000000 57 b4 70 3d e1 65 55 3d 29 47 65 bd f4 bb 47 3d
       0.058765735 0.052099112 -0.055976067 0.04876323
000010 50 29 2c bd e2 e0 f7 3c 09 06 bf bb bb a7 dc bb
       -0.042031586 0.0302586 -0.005829577 -0.006733862
000020 55 2c 05 3d 44 da 11 3c 0a 01 26 3a 8e 9e b4 bb
       0.03251298 0.008902136 0.00063325523 -0.0055120653
000030 20 d7 c2 3c 85 4d a4 3c 2e df 98 3c d0 5c 56 3c
       0.02378422 0.020056495 0.018661108 0.013083652
000040 c0 02 a6 3b 15 ba 42 3d 21 41 8b 3c e3 d9 8e 3c
       0.005066246 0.047540743 0.01699883 0.01743788
000050 d5 6f e3 3c 27 6d 01 3d 47 4b 46 bc 1f 14 c9 3c
       0.027763287 0.031598236 -0.012102908 0.024545727
000060 94 5a 3e ba d7 45 e6 3c e2 4b 46 3b e1 82 d6 3a
       -0.0007261422 0.028109474 0.0030257632 0.0016365909
000070 ba 8b 9f 3c 92 01 4f bc 87 e6 76 3c e3 12 67 3c
       0.019475807 -0.012634652 0.01506961 0.014103624
000080 5f 02 bb 3c dc 1b 7b 3c 60 cc 93 38 f2 3c 9d 3c
       0.022828279 0.015326466 7.047574e-05 0.0191941
000090 94 89 92 3c 9f 0c cc 3a b3 1a 1e 3b f0 41 35 3c
       0.017887868 0.0015567726 0.00241248 0.011063084
0000a0 cb 4c 81 3c 71 9e 7f 3c 8a c8 6e bc 69 3f 81 3a
       0.015783688 0.01560174 -0.014574179 0.0009860817
0000b0 8c 97 4e 3c d0 7f 93 3b af 0b 0e 3d 75 60 f9 3b
       0.012609374 0.0045013204 0.03467911 0.0076103755
0000c0 4d 6d 1d 3c e0 61 5e 3c b3 22 81 3b e0 74 4d 3c
       0.009608579 0.01357314 0.003940904 0.012540072
0000d0 8c 93 8d 3c f2 e4 23 3d bd 14 1f 3d fd b8 3b 3e
       0.01728227 0.04001326 0.038838137 0.18332286
0000e0 e1 d4 38 3d 37 c6 c6 bd ac f6 2e 3d 8d 30 29 be
       0.045124892 -0.09705775 0.042715713 -0.16522427
0000f0 d3 56 6a bd bb 22 8b bb c4 a2 38 bd d9 64 6b bd
       -0.05721171 -0.0042460836 -0.0450771 -0.057469223
000100 f7 1d 06 be fd 82 40 3d 6c b5 74 3d 72 b2 83 3c
       -0.13097368 0.04699992 0.05974333 0.0160763
000110 2d f8 39 3d 12 25 77 bd 48 be 35 3d a6 8f 40 bb
       0.045402694 -0.060338087 0.04437092 -0.0029382496
000120 3f 6f 5a 3c e2 5b 33 3d 77 c7 5c bb 68 eb 9a 3c
       0.013332187 0.0437888 -0.0033688226 0.018911079
000130 d1 f8 99 3c 71 6d a0 bd 3c 05 fd bd 2a a6 ae bd
       0.018795403 -0.07833374 -0.12354514 -0.08527787
000140 c9 e0 bf be 9b 57 36 be 50 67 72 3c 8e 36 68 be
       -0.37476185 -0.17806856 0.014795139 -0.22677061
000150 c2 ed e7 bd e0 22 6f be c9 b7 bc bd 33 a8 5f be
       -0.113246456 -0.23353148 -0.09214742 -0.21841507
000160 cb fd 1d bd 2c c3 82 bd c4 e9 8b bc c8 1c 10 be
       -0.038572114 -0.06384882 -0.017079242 -0.14073479
000170 a2 c2 54 3d c2 51 1d 3e f1 87 07 be 11 5a 2f be
       0.05194343 0.1536322 -0.13235451 -0.17124201
000180 22 f7 a5 3d 8f be 80 be 79 9b 38 be 52 6e 27 be
       0.081037775 -0.25145385 -0.18028058 -0.16350678
000190 ba 71 db bd db fa 38 bd 61 50 28 be 17 b5 9e be
       -0.10715051 -0.04516111 -0.16436912 -0.30997536
0001a0 7a 04 1e bd 40 e9 c4 bd af 50 a7 bd 1a 49 e0 bd
       -0.038578488 -0.096148014 -0.08169686 -0.10951443
0001b0 44 70 62 3d 2f d6 af bd 80 f6 05 3e 41 a3 60 3d
       0.055282846 -0.08585774 0.13082314 0.05484319
0001c0 bd 6f 95 bd 22 5f 20 bc 8e ff 2b 3d 37 5d ca 3c
       -0.07296703 -0.009788306 0.041991763 0.024702651
0001d0 d2 f0 90 3c 81 ac ab bb 39 13 5d 3b 35 08 ca bc
       0.017692957 -0.00523907 0.0033733381 -0.024662117
0001e0 c0 cb 5f 3c d6 69 77 3c 4e 93 50 bc ca 5b 94 bb
       0.013659418 0.015100917 -0.012730433 -0.0045275437
0001f0 6f 94 ca 3a 5c 41 97 3c 52 8a 6b bb 7c c5 20 3d
       0.0015455614 0.018463783 -0.00359406 0.039250836
000200 7d 9a b5 3c a8 bf e3 3c b7 79 1e 3d 73 cb da 3c
       0.022168392 0.02780135 0.038690295 0.02670834
000210 88 53 49 bd 65 bf 7b 3c 81 55 4a 3c ba 93 a7 3b
       -0.049151927 0.015365456 0.012349487 0.005114046
000220 d6 e3 fd 3b 9d 82 93 3c 0c ed 86 3c 26 7a 92 3c
       0.0077481074 0.018006617 0.016470455 0.01788051
000230 48 2e dd 3c 46 10 06 3c 00 25 92 3d 78 12 fa bc
       0.026999608 0.008182591 0.071359634 -0.030526385
000240 f6 92 9c ba 06 fa 3c bc bd b2 ab 3c 82 70 7c 3c
       -0.0011945653 -0.01153422 0.020959252 0.015407683
000250 01 23 36 3c 89 25 c5 bb cd 7c 09 3c 57 d7 92 3c
       0.011116744 -0.0060164374 0.008391571 0.017924948
000260 80 c0 4e 3b c9 4b 51 3c a1 ce c4 3c 81 81 9b 3b
       0.0031547844 0.012774416 0.02402431 0.0047456627
000270 fc 80 c1 3c e1 aa 0d 3d 9c e2 a6 3a de 83 13 3c
       0.023621075 0.03458679 0.001273233 0.009003608
000280 e3 67 8f 3a 10 62 24 bb 75 e9 e0 3c 76 69 90 3c
       0.0010940995 -0.0025082864 0.027455071 0.017628413
000290 e0 d9 67 3d ef 2e 06 be 05 44 8a bd cb 3c 42 bd
       0.056604266 -0.13103841 -0.06751255 -0.047421258
0002a0 20 79 4b 3d 82 8f 9d bd b1 08 b6 bc ba ba a0 bc
       0.04967606 -0.076933876 -0.022220941 -0.019620288
0002b0 d3 51 06 bd 27 81 93 b9 5a d6 33 bc 82 32 cf bc
       -0.032792877 -0.0002813425 -0.010976398 -0.025292639
0002c0 93 91 ba bc b9 e8 89 bc 74 b3 20 3c b2 2b c6 ba
       -0.022774493 -0.016834604 0.00980841 -0.0015119223
0002d0 f2 72 46 3c 38 81 7c bc f9 b9 0c bd dd 5a c4 bc
       0.012112366 -0.0154116675 -0.034357045 -0.023969108
0002e0 6f e0 e8 bc b6 2d 86 bb 0e b2 74 3d 0c fd 3c 3c
       -0.02842733 -0.0040948046 0.05974012 0.01153494
0002f0 bc d8 a2 ba eb f5 b7 bc fd a5 c8 bb af 61 31 bc
       -0.0012424211 -0.02245613 -0.006123303 -0.010826512
000300 72 45 fc bc 5e 5b 83 bc 54 db d3 bc 04 58 a3 bc
       -0.030794833 -0.016034778 -0.02586142 -0.01993943
000310 66 e1 1f bc c2 4d 8e bb ec b8 5e bc 18 3a c1 3c
       -0.009758329 -0.0043427655 -0.0135938935 0.023587272
000320 73 13 04 3b 61 e5 5a bc c1 1d f0 bc 84 6b ad 3b
       0.0020153194 -0.013360352 -0.029311063 0.005292358
000330 88 53 41 bb ca 59 25 bc fe f4 7a 3a 15 95 a2 bc
       -0.0029499251 -0.010092208 0.000957325 -0.019846478
000340 1d ce ce bb 40 01 ab bc 8c 03 52 3c 31 9b d4 bb
       -0.0063111917 -0.02087462 0.012818228 -0.006488227
000350 08 35 28 bd 6f bd 72 bd 01 4b c7 bc 86 61 dd bc
       -0.0410662 -0.05926269 -0.024327757 -0.027024042
000360 4f 5a e7 bc b9 c3 c4 bc 13 fb 1d bd d3 5c 52 bd
       -0.028241305 -0.02401911 -0.03856952 -0.051358055
000370 c1 49 a0 3d fa fc 57 3d 16 f8 5e bc d2 57 37 3d
       0.078265674 0.05273149 -0.013608953 0.044761486
000380 b6 45 42 bd 44 63 3e bb dd 9f 9e bc d3 77 fc bc
       -0.047429763 -0.0029050866 -0.019363338 -0.030818855
000390 45 6f 2b bc 21 1f 33 3c d5 1d b7 3b ce b5 a9 bc
       -0.01046354 0.010932715 0.005588273 -0.020716574
0003a0 19 ec 80 3d d2 46 fd bb 7a a4 47 bc 9b 9d 97 bc
       0.06295032 -0.0077293897 -0.01218521 -0.01850777
0003b0 3c 5e e4 3c 4a 19 04 bd 53 e1 8b bc 08 18 18 3b
       0.027876966 -0.03225068 -0.017075216 0.0023207683
0003c0 ec 34 7f 3b 2f 9c 45 bc 9b ba a3 3a 37 16 88 3c
       0.0038941456 -0.012061163 0.0012491526 0.016612155
0003d0 d0 c5 15 bd d5 85 c0 3c c3 f5 ad 3a bc d0 0e 3d
       -0.0365656 0.023501316 0.0013272095 0.034867033
0003e0 cc 1e 51 3d 21 92 a1 3d 68 42 93 bc 6b bf 62 3b
       0.05105476 0.078892 -0.017976 0.0034598957
0003f0 29 7c e2 3c 49 ce c8 ba 53 30 23 3d ad f6 15 3d
       0.027647095 -0.0015320267 0.039841007 0.0366122

fc1.bias f4 [64]
000000 70 e6 97 bc f3 7d 92 3c ca 60 1a bd ca 12 01 be
       -0.018542498 0.017882323 -0.03768996 -0.12604824
000010 84 53 15 bd 54 cd 50 bd 7d f8 94 3d f8 9a d1 3c
       -0.0364566 -0.050977066 0.07273958 0.02558659
000020 9c 85 5b 3c a9 28 88 bc 92 90 69 bd 0b 7b 9a bd
       0.013398554 -0.01662095 -0.05702264 -0.07543
000030 20 50 07 3d 35 b9 b6 3d 88 da ea 3c 84 2f 49 3c
       0.033035398 0.08922044 0.028668657 0.012279395
000040 61 b7 d2 bc 1d 32 75 bd 0f 1a ea 3d a8 3b ae bd
       -0.025722208 -0.059862245 0.114307515 -0.08507472
000050 19 88 21 3d 2d d6 78 bc 51 e8 fd 3d 81 ce 29 3d
       0.039436433 -0.015187782 0.123978265 0.041456703
000060 80 f7 23 bb 81 c1 b4 bd 7e fd a5 3c 95 73 50 bd
       -0.0025019348 -0.088259704 0.020262476 -0.050891478
000070 17 86 42 3e c4 89 ac 3a cd bf ab 3c 6e 10 37 bd
       0.18996464 0.0013163616 0.020965481 -0.044693403
000080 e4 f9 9e bd 91 20 0c bf 11 f8 cf bd b5 96 f2 3c
       -0.077625066 -0.5473719 -0.10154737 0.029612878
000090 e0 1d 33 bd 83 5e ff bb cf cc 41 bd c5 13 43 3c
       -0.043729663 -0.007793249 -0.04731446 0.011906569
0000a0 be 39 9c 3d 11 06 3d 3d 81 14 9b 3d 13 a2 0b 3e
       0.07628201 0.046148364 0.0757227 0.13636045
0000b0 4c 63 84 be 2e 47 52 3c ee 1a 70 bd 41 e3 b7 3d
       -0.25857008 0.012834353 -0.058619432 0.08978892
0000c0 4a 3e 5e 3d 80 2b c2 3d 80 83 75 bd a6 1c 93 bd
       0.054258622 0.09480953 -0.05993986 -0.07183199
0000d0 16 a3 8e 3d d8 c3 d4 bd 59 83 5f bc 05 b7 04 3c
       0.069647 -0.10388917 -0.013642156 0.008100276
0000e0 be d3 9d bd 5c 6b 1c bd 63 e9 2a 3d 30 f0 07 3c
       -0.07706402 -0.038188323 0.04172648 0.008297011
0000f0 67 8d 7a bc aa f8 c3 bd c9 21 41 3d aa a7 d8 3d
       -0.015292502 -0.09568913 0.04715136 0.105788544

fc2.weight f4 [32, 64]
000000 34 c4 8d bc 1f e3 bb bd 9d ad 86 bc bb 1f b8 bd
       -0.017305471 -0.09174179 -0.016440207 -0.08990427
000010 3d 1f 00 bb 40 d9 a7 3c fc ba ed b8 51 ab 08 be
       -0.001954987 0.020489335 -0.00011335869 -0.13346602
000020 a2 4b 80 bd 8f 2a 48 3d 3d 66 d6 ba ca 0e e3 3a
       -0.06264426 0.048868712 -0.0016357374 0.0017323133
000030 bf 8b 29 3a 84 16 48 bc dc 19 18 3c ec b9 10 be
       0.0006467662 -0.012212399 0.009283509 -0.14133424
000040 6b a0 8c bc 42 a0 1b 3d d0 db 41 3d 6a 89 83 bd
       -0.017166337 0.03799463 0.04732877 -0.06422694
000050 4a 14 6d 3d c0 e1 6a 3b 5f 38 0c 3e a3 9d dc bc
       0.057880677 0.0035840124 0.13693379 -0.026930636
000060 25 dd e8 bb 36 45 89 3c 6b 1b 84 bd ac 6f 38 3d
       -0.0071064406 0.016756635 -0.06450542 0.045028374
000070 5f d7 4b be 37 68 7d bd af be 39 bd 8e ff 04 3e
       -0.19906376 -0.061866965 -0.045347866 0.12988111
000080 ca dc 88 3c 5b aa d4 3c 77 ad 96 bd 25 cc ca 3c
       0.016706843 0.025960138 -0.073573045 0.024755547
000090 6d 85 56 bc 27 c6 36 3d f8 02 da b7 77 bc a6 3d
       -0.013093335 0.044622567 -2.5989008e-05 0.081414156
0000a0 b9 e2 81 39 2f f0 1c 3c f8 52 c7 bc c0 3d a3 bc
       0.0002477372 0.009578749 -0.024331555 -0.019926906
0000b0 78 2e 23 be 97 26 7f 3d d1 07 b7 3d 5c 9a 95 3c
       -0.15935695 0.06229266 0.08937038 0.01826208
0000c0 6c db a1 3c 7a ce a4 bd aa b0 ab 3d 6f a8 d8 3c
       0.019757949 -0.08047195 0.08383305 0.026447503
0000d0 df 4b 26 3c 9f 13 15 3d a1 36 39 3c 60 55 1c bd
       0.010149925 0.036395665 0.011304528 -0.038167357
0000e0 79 9a 87 3d f7 ff 6a 3c 03 1e 85 bd 39 7e 08 bd
       0.0662126 0.014343253 -0.06499865 -0.0333235
0000f0 ea 96 a7 bd 31 30 82 3b 08 7a 1a 3c da ef 3d bd
       -0.081830814 0.00397303 0.009428509 -0.04637132
000100 2d ec 29 3d 6d f0 26 bb 49 78 8c 3d d8 80 e6 3d
       0.041485 -0.0025472895 0.0685888 0.11255044
000110 5b aa 1d bb 16 bb 5a bd db b1 09 3e 85 f5 54 3d
       -0.0024057839 -0.053401075 0.13446753 0.05199196
000120 7f 59 a0 bd 22 82 8b bd 5d a1 83 3d 41 60 ea bc
       -0.0782957 -0.0681193 0.06427262 -0.02861035
000130 3f d5 3b bd 34 46 bb bd df 93 cb bd 4f 52 26 bd
       -0.045857664 -0.091442496 -0.099403135 -0.04060584
000140 6a 81 07 bd 9f 55 a4 bc 9a 2a 8e bd 35 3c 1d be
       -0.033082403 -0.020060359 -0.06941719 -0.15354998
000150 93 0a 04 3b 12 9b 49 3d 54 b6 92 be 49 cb 5b bd
       0.0020147904 0.049220152 -0.2865473 -0.053660665
000160 28 8c e8 3b 9e 58 1c be 1b 4f 5e bd e9 cd 26 bc
       0.007096786 -0.1526818 -0.05427466 -0.010180929
000170 4c d3 95 3e b6 03 5d 3d 7b 5c da 3c 97 72 86 bc
       0.2926277 0.053958617 0.026655426 -0.016412063
000180 51 50 e3 3b 07 3a 11 be 7a 0e 2a 3d c8 ed 71 bc
       0.0069370647 -0.14182292 0.041517712 -0.014766164
000190 90 be bc bd fa 56 35 bd 47 43 2e 3d c8 eb 19 3e
       -0.092160344 -0.0442724 0.04254463 0.1503135
0001a0 ec e6 d2 3a c5 1b b6 bd 32 a0 d5 bc d2 26 69 bd
       0.0016090549 -0.08892015 -0.026077364 -0.056921788
0001b0 67 fb 26 bd 4d 1e 53 bc ae 66 bc 3d 3e ae b0 3c
       -0.0407671 -0.012885642 0.09199272 0.02156746
0001c0 01 cc 06 bd fb 14 30 bd 7e cc a0 bd f1 17 f9 bd
       -0.032909397 -0.04298876 -0.07851504 -0.121627696
0001d0 70 8f 92 bd 6f 7e 33 3e 3d 1c 06 3e 4e 01 a8 bd
       -0.07156265 0.175287 0.1309671 -0.08203374
0001e0 b4 21 a6 bc 8a b1 c0 bd 5c 2e 4d 3a 3b 62 92 bc
       -0.020279743 -0.09408863 0.00078270375 -0.017869106
0001f0 da 85 20 bd 3b a9 af 3d cc 8c 84 bd b4 71 a9 3d
       -0.03919015 0.085772 -0.064721674 0.0827364
000200 32 27 15 3d 76 ac 10 bc ad 45 20 3e 62 4e 44 bc
       0.036414333 -0.00883018 0.15651579 -0.011981579
000210 fd e4 56 3d f7 c2 59 3d 38 f5 92 bb 20 f3 2d 3e
       0.052464474 0.05316445 -0.0044847988 0.16987276
000220 62 2b 46 3d a0 ed 5e be 40 37 fc 3d 60 ab 33 3e
       0.048381217 -0.21770334 0.123152256 0.17545843
000230 22 85 f2 bc e9 95 0b 3e 49 16 17 bd c4 50 66 3e
       -0.029604498 0.13631405 -0.036886487 0.22491747
000240 a6 f7 45 bc 81 64 17 3c 73 d4 cb 3d fb a9 99 3d
       -0.01208297 0.009240271 0.09952631 0.07503124
000250 c4 04 66 bd 3b dc 7d 3d 09 41 46 bd 25 b9 5c 3a
       -0.05615689 0.061977606 -0.048401866 0.00084199227
000260 74 1c 12 3e 38 b3 1f 3e 8d 0b e6 3d 58 15 8b 3d
       0.14268667 0.1559571 0.11232672 0.0679118
000270 47 b8 59 3c c4 92 32 be 2f 0a 0e bd 2a 86 0e be
       0.013288564 -0.17438799 -0.03467768 -0.13918367
000280 c8 18 38 bd 9d 26 6b 3d d7 bd 1b be 75 c7 8e 3d
       -0.04494551 0.05740987 -0.15209137 0.06971637
000290 b9 be c8 3d 0b 87 61 3e 34 23 a9 3e cf d2 b8 be
       0.098020025 0.22024171 0.3303467 -0.36098334
0002a0 9a ce 22 be d5 a2 00 be 0d 16 84 be a2 2b ce 3c
       -0.15899125 -0.12562115 -0.25798073 0.02516729
0002b0 d2 63 51 3d 6b 65 2b be 40 af 73 3d fb cd 03 3e
       0.051120587 -0.16737907 0.059493303 0.12871544
0002c0 72 e3 26 be 2c 00 86 be 78 2d 3a 3e 02 9f 56 bd
       -0.16297701 -0.26172006 0.18181407 -0.052397735
0002d0 91 4b ff 3c 73 1a 88 bc b4 b4 d1 3d 5d f1 a6 bd
       0.031163963 -0.016614174 0.102395445 -0.08151505
0002e0 df 36 67 3e ef 37 47 be 8b 77 17 be a5 7b 8e 3d
       0.22579525 -0.1945493 -0.14791696 0.06957177
0002f0 91 b7 4d 3d ef 9b a4 3c b6 d9 08 be aa 07 1c 3c
       0.05022389 0.020093886 -0.133643 0.009523312
000300 e8 51 5c bc 11 60 49 3d 27 e4 93 bb 6b 9c 38 bd
       -0.013447262 0.04916388 -0.004513282 -0.045071047
000310 e4 fd b2 bd f9 b4 50 3d 47 85 93 3d 56 6b f0 bd
       -0.08739832 0.05095384 0.07203155 -0.11739223
000320 bd d0 85 3d aa b8 cc 3d 2b 84 f2 bd e6 ea 68 bd
       0.06533954 0.099961594 -0.11841615 -0.05686464
000330 f3 cd 02 be 89 5b 26 be f6 f4 8e 3d c8 e2 e9 bd
       -0.12773876 -0.16245855 0.06980316 -0.11420208
000340 6f af 96 bd f1 92 e2 3d 97 c9 ba bd f4 43 9c be
       -0.0735768 0.11063183 -0.091204815 -0.30520594
000350 84 75 10 3d 03 c0 6a be b1 f8 fc 3c ad ad 20 3e
       0.03526832 -0.22924809 0.030880304 0.15691252
000360 83 56 09 bd b7 7c 8f be 3d f0 c5 bd c8 77 33 be
       -0.03352977 -0.28024837 -0.096649624 -0.17526162
000370 ff d5 d6 3c b5 1d 24 bb c6 d8 7d bc 4f 33 07 be
       0.026225088 -0.002504212 -0.015493577 -0.13203166
000380 b2 3e 2a 3e 1b 6f b4 3a 4d 68 0a 3e c1 20 27 3d
       0.16625479 0.0013766022 0.1351635 0.04080272
000390 df cb 1c be bd 66 67 be 65 20 b8 be d9 51 a7 3e
       -0.15312146 -0.22597785 -0.35962215 0.32679632
0003a0 bb c7 fd 3d 05 25 15 3e a1 a9 d8 3d 66 e1 95 ba
       0.12391611 0.14564903 0.10579229 -0.0011434972
0003b0 02 50 4c be 1b 56 2d 3d 46 36 e5 bc 48 bb 98 bd
       -0.19952396 0.042318445 -0.027979981 -0.07457596
0003c0 5f a2 4a 3d 04 16 61 3e 9c 78 80 be 8b 1e 3d 3e
       0.049471255 0.21981055 -0.25092018 0.18468682
0003d0 ed af 28 3e 19 7a a6 3d ab d7 92 3d c4 1a 82 3c
       0.1647336 0.08128757 0.07170042 0.015881903
0003e0 51 62 fb bc a1 26 05 3e ab bb cc 3d ab 72 ba bc
       -0.03068653 0.13003017 0.09996732 -0.022759756
0003f0 0d 22 c5 bd 84 3c 0a 3e 3e 29 80 3d 4a ad ce 3d
       -0.09625635 0.13499647 0.06257866 0.10091646

fc2.bias f4 [32]
000000 7f 65 9c 3c 90 95 d5 bd 2a b8 d3 bd ba bc c9 3d
       0.019091366 -0.104289174 -0.10337861 0.0985045
000010 dd 33 3e bc 54 9e 09 3e c8 ea f4 3b 7f ba 0b bc
       -0.011609045 0.13439304 0.007474277 -0.008528351
000020 1c 2f c3 bd 8a 34 4e bb de 6a 29 3d 6d 02 e6 bd
       -0.0953047 -0.0031464421 0.041361682 -0.112309314
000030 33 00 30 bd 6d ba 7f 3d 0c 3d b1 3d 5c 79 a7 3d
       -0.04296894 0.06243365 0.08654222 0.08177444
000040 aa f6 75 bd cf ac 9e ba 9a 9e d6 bd 72 cb e3 3c
       -0.06004969 -0.0012105944 -0.104794696 0.027806971
000050 1e 99 d1 3c 3e 51 a8 3d 79 28 68 bd 1d 6a c4 3d
       0.025585707 0.08218621 -0.056679223 0.09590552
000060 db 76 54 3d 1f aa 25 3e 5a 0b 5d bd d9 fe 5d bd
       0.051871162 0.16178177 -0.053965904 -0.05419812
000070 d5 03 06 bc 85 6e 91 bd 7a 26 cc 3c 18 d9 bb bc
       -0.008179625 -0.07101158 0.02492069 -0.022930667

fc3.weight f4 [1, 32]
000000 4e 4a 70 bb 6b 04 9f 3b d9 3a 33 3e 24 13 ae bd
       -0.0036665383 0.0048528216 0.17502917 -0.084997445
000010 e8 ee c5 3e f9 f5 95 bd 9e 6c 30 bd 20 b2 7a 3a
       0.38658834 -0.07322306 -0.043072335 0.0009563286
000020 a0 87 98 be a2 b3 85 3b 61 fd 51 bc 7a 6f 0d be
       -0.29790974 0.004080252 -0.012816758 -0.13812056
000030 db 35 52 3e 2d 84 80 be 09 c2 be bd 17 5a 51 3e
       0.20528357 -0.25100842 -0.09314353 0.20444523
000040 0c e1 b1 be 0c a5 25 be 6a e3 83 be 1f b1 6d be
       -0.3474201 -0.16176242 -0.2575944 -0.23212098
000050 67 16 82 be e9 45 66 3e 0d 5a bc bd 3c f5 45 3e
       -0.25407717 0.22487606 -0.09196863 0.1933183
000060 14 ed 13 3e df d4 a0 3d d8 82 4e be 05 64 a6 be
       0.14445907 0.07853102 -0.201671 -0.32498184
000070 bd b6 a8 3e f1 f0 b3 be a4 0b f2 bd ed d8 cf 3e
       0.32951918 -0.3514476 -0.118186265 0.4059519
