experiments/exp042/outputs/best_ppo_model.pt (torch, 50689 bytes, 10 tensors)

actor_fc1.weight f4 [64, 55]
00000000: c8bb 273d 698a 173d c3af 81bd 4853 293d
00000010: 11e6 c2bc 86ad 083d cd60 813b c3a3 923c
00000020: 9be0 0a3d 6d95 d63c 150d 383c c8c7 353c
00000030: df41 3d3d 2408 2f3d fcbc f73c 6712 d73c
00000040: 9a45 893c 6f14 893d 958f e43c b7aa 803c
00000050: ba7e 343d 95f4 0f3d 48dd 0abd 49a5 23bc
00000060: 40bb 57bc d3ee 4c3d 848c 5abc e83b 4cbb
00000070: cfca d63b b2cf 1cbc 222e e53c 621f 1c3c
00000080: 609b 7d3c a711 f93c 2bd2 05bd 5e73 6a3c
00000090: c8d2 773c 0887 f23c d357 f23b 0ab8 d53c
000000a0: af1e 523d 3a96 843d a4c5 9e3c 21f2 593b
000000b0: 71d4 6c3c 6957 df3b b83a 723d 1738 ff3c
000000c0: ffad 693c cea3 1f3d a755 56bc 7d08 db3c
000000d0: 6e84 083d ec54 143d bd14 1f3d 1cf3 333e
000000e0: 8f2f 823c db40 8cbd c4e1 243d b335 1bbe
000000f0: 32a8 08bd 196a 7e3c 253e 1fbd 583f 3abd
00000100: a506 d7bd 7f97 3d3d 68c7 633d 5401 e43c
00000110: 9263 473d bdc9 7abd fb50 563d 010c 29bd
00000120: eeb6 e63c 5858 dc3c 90c5 623c fa8b 353d
00000130: 4f7b 443d 9621 99bd 8467 28be 1eac b5bd
00000140: 8806 afbe 946a 24be b0ed 493c 986a 57be
00000150: 1d4a cfbd 1e95 5ebe e1b6 acbd d0f9 50be
00000160: 3370 07bd aa63 a4bd 699b 1ebd f4c1 1ebe
00000170: bc23 7d3d c92b 2d3e 7b7f efbd 39e3 15be
00000180: d595 e73d ddb0 6abe 2fee 33be 8b34 25be
00000190: 1302 d4bd 04f9 15bd b07c 1abe c408 92be
000001a0: e139 bebc 1613 bebd 3714 91bd 31f4 a7bd
000001b0: 7500 603d 2fd6 afbd ff25 013e 0863 0f3d
000001c0: 614c 33bd 6c4d a6bc cc20 6d3d 1892 f83c
000001d0: b1bc a43c 2c7e b53c 7903 a73c aa8c fcbb
000001e0: 6e18 5c3c 62e2 08bc e68b 49bb bc39 153c
000001f0: 4217 3abb 5279 2f3d d67d e73c 3f09 8c3d
00000200: 8fa8 603d cf1e 473d 70cc 8a3d 3132 4b3d
00000210: 63c1 31bd 17e7 743c 27ee 0c3d 473b 553c
00000220: 76d1 a93c 2319 1e3d 704c 063d 1895 263d
00000230: 6bc1 483d 3fb8 c63c 7256 b33d 41ee 16bd
00000240: d48e a0bc 3fe3 f2bc f6ed 4c3c 59d7 243c
00000250: aa9f 8a3b c9de 45bc 7106 1a3d 335b 583d
00000260: 3c4a 053d 1aa8 633c d96d 0a3d 4f49 c63c
00000270: fb3f 5c3d eeba 893d 3753 f23c aa83 473d
00000280: b64f ab3c 827f 2d3d c967 503d d287 113d
00000290: e0d9 673d 6349 f3bd d172 8abd a9a9 32bd
000002a0: 3cc7 673d aa2d b7bd da2f ccbc 1360 d7bc
000002b0: 72fd 41bd 4649 073c 4059 adbc 482e aabc
000002c0: 9ce8 e1bc 0269 16bd 8ed4 60bc 76a6 7d3c
000002d0: e625 2b3a 9907 59ba 0aa0 5ebd 90d6 07bd
000002e0: 7e7f 53bd a99d eabc f3c6 163d 9e80 a53c
000002f0: b096 113d 3e4b c13c 648f e1bc ab63 a73b
00000300: 9292 5abd 3533 9abc 9fa3 4bbd 2fd3 3ebd
00000310: e171 0dbd 9e8d 77bb cf1a dfbc a8a9 0b3d
00000320: f049 8b3a 4a21 6dba 5da3 27bd 6d54 933c
00000330: f419 5fbc 8894 28bd 6395 27bc fdf6 0bbd
00000340: 1115 c1bb f2ce 45bc d011 523b da72 b8bc
00000350: 938b 68bd 6e63 acbd 0e0a 29bd def6 a3bc
00000360: 22c8 8ebd e7a5 11bd f669 4abd d35c 52bd
00000370: c543 8b3d 60fd b33c 1bf5 5f3c 5da8 d93c
00000380: 03dd 2abd 3665 ca3b 850d 9abc 91f6 e9bc
00000390: 849f efbb 52db 8db9 075a 4abc e5c7 25bd
000003a0: 87ec 6b3d a9c4 013c adbc e9bc 177f bebc
000003b0: c821 233d eca2 e8bc 7b89 8bbc e53b 8b3c
000003c0: 3d61 19bc aa53 c2bc 8ffc c9bc 647b 84ba
000003d0: fbfc 74bd 3301 41bb e04b 38bc 6e3d fc3c
000003e0: 1ed1 4b3d d431 b03d da80 8cbc 62d7 d03b
000003f0: 4f56 163d b4f5 85bc d836 ce3c ac5f e13c
0.040950567 0.036997233 -0.06332352 0.04133919 -0.023791345 0.03336861 0.003948307 0.017900353
0.033905607 0.026194299 0.011233588 0.011094995 0.046205398 0.042732373 0.030241482 0.026253892
0.016756821 0.066933505 0.027900496 0.015706403 0.04406617 0.03514536 -0.033902436 -0.0099881375
-0.0131672025 0.050032448 -0.013339166 -0.0031163637 0.0065549384 -0.009571003 0.0279761 0.009528967
0.015478939 0.030403925 -0.032671135 0.014309732 0.015125938 0.029605404 0.0073957234 0.026088733
0.051298793 0.06473966 0.019381352 0.0033255892 0.014454947 0.00681584 0.05913803 0.031154675
0.014262675 0.038974576 -0.013081945 0.026737446 0.03332942 0.0362138 0.038838137 0.17573208
0.015891818 -0.06848308 0.04025437 -0.15157203 -0.03336353 0.015528225 -0.038877625 -0.045470566
-0.10499314 0.046287056 0.05561009 0.027832665 0.048678942 -0.06122755 0.052323323 -0.041271213
0.0281634 0.026897594 0.013841048 0.044322945 0.04796916 -0.07477109 -0.16445738 -0.088707194
-0.3418467 -0.16056281 0.0123247355 -0.21036756 -0.10121558 -0.21736571 -0.08433319 -0.20407796
-0.033065986 -0.08026822 -0.03872243 -0.15503675 0.061801657 0.16911234 -0.11694237 -0.1463746
0.11307875 -0.2291903 -0.17571329 -0.16133325 -0.10351958 -0.036614433 -0.15086627 -0.28522313
-0.023220958 -0.09280984 -0.07083934 -0.08200873 0.054687936 -0.08585774 0.1261215 0.035006553
-0.043774012 -0.02030059 0.057892606 0.0303431 0.020109506 0.02215489 0.020387398 -0.007707198
0.013433559 -0.008354755 -0.0030753552 0.009108003 -0.002839521 0.04284031 0.028258245 0.06837701
0.05484825 0.048613366 0.067772746 0.049608413 -0.04339732 0.014947674 0.034406807 0.013014621
0.020729762 0.03859819 0.03278774 0.04066953 0.049012583 0.024257777 0.087567225 -0.03684831
-0.019599356 -0.029649375 0.012507906 0.0100611085 0.004230459 -0.012077042 0.0376038 0.05282135
0.0325415 0.013895059 0.033796165 0.024204878 0.053771954 0.06725107 0.029580696 0.04870955
0.020912033 0.04235793 0.050880227 0.03552992 0.056604266 -0.11879232 -0.06760181 -0.04361883
0.05658649 -0.089442566 -0.024925161 -0.026290929 -0.047360845 0.008257216 -0.021160722 -0.020774022
-0.027576737 -0.036721237 -0.013722552 0.015481582 0.00065287796 -0.0008279025 -0.054351844 -0.033163607
-0.051635258 -0.028639631 0.036810827 0.020202931 0.035544097 0.023595449 -0.027534194 0.005108317
-0.053362437 -0.018823246 -0.049716588 -0.04658812 -0.03453243 -0.003777362 -0.027234463 0.034097344
0.0010626893 -0.0009045793 -0.04092728 0.017984593 -0.013617028 -0.041157275 -0.010228488 -0.034171093
-0.005892404 -0.012073265 0.0032054074 -0.022515703 -0.056773733 -0.08417402 -0.041269355 -0.020015176
-0.06971766 -0.035558607 -0.04941746 -0.051358055 0.068000354 0.021971405 0.013669278 0.02656954
-0.04171468 0.006176616 -0.018805275 -0.028559955 -0.007312717 -0.00027057022 -0.012350566 -0.040473837
0.057598617 0.007920423 -0.02853235 -0.02325396 0.03982714 -0.028398 -0.01703333 0.016996333
-0.009361562 -0.023721535 -0.024656562 -0.0010107574 -0.059811573 -0.0029450178 -0.011248559 0.03079101
0.049759977 0.08603254 -0.017151285 0.006373332 0.036703404 -0.016352512 0.025172636 0.02751144

actor_fc1.bias f4 [64]
00000000: 650a 92bc aea5 bc3c ee49 13bd f174 02be
00000010: 7e75 04bd 4511 51bd 8b76 233d 66f3 e43c
00000020: 63c6 b03c 9e64 61bc 8daa 60bd 77f9 3ebd
00000030: 5f56 1e3d 0fc6 bb3d f565 0c3d ddd6 1e3c
00000040: 4af7 bfbc 4838 81bd 4bd1 ec3d 25c4 aabd
00000050: 966e 2b3d 22d8 53bc 3594 383e 0968 263d
00000060: 1f95 83b9 6e7a afbd a6b9 bb3c 8fe2 4dbd
00000070: 8b5e 353e cd97 c5ba fa4b a33c 5fac 44bd
00000080: 5450 a3bd 4b89 07bf 5b7c cebd 1946 023d
00000090: 3e4e 2ebd 0ca0 18bc 5cb3 2fbd 4393 743c
000000a0: 7420 9c3d 73aa 393d 8c05 9a3d 4a1d 0e3e
000000b0: 5a50 84be 93d5 d63b 615c 6cbd 3c2d bb3d
000000c0: b673 563d c4cc cb3d d54e 67bd d0f3 98bd
000000d0: 9a2b 8a3d 7f1a d6bd 3d90 08bc edff 473c
000000e0: d06e 9abd bbdf 66bd ba2a 493d 285b 033b
000000f0: b844 7bbc 1e9d c2bd 8bfb 5b3d da41 d63d
-0.017827222 0.023028221 -0.035959177 -0.12739922 -0.03233861 -0.05104186 0.039907973 0.027948093
0.021578973 -0.013756899 -0.05485015 -0.046624627 0.03865659 0.09168636 0.03427692 0.009694782
-0.023433346 -0.06309563 0.11563357 -0.08338193 0.04185351 -0.012929948 0.18025286 0.04062656
-0.0002509737 -0.085682735 0.022915673 -0.05026489 0.17711847 -0.0015075147 0.01993369 -0.04801595
-0.07974306 -0.5294387 -0.10082313 0.03180513 -0.042555086 -0.009315502 -0.04289566 0.014927688
0.076233774 0.04532857 0.07520589 0.1387836 -0.25842553 0.0065562217 -0.057705287 0.09139487
0.052356444 0.09951165 -0.056471664 -0.074683785 0.067465976 -0.104542725 -0.00833517 0.012207014
-0.07540667 -0.05636571 0.049113013 0.0020043347 -0.015336208 -0.09502624 0.053706687 0.10461779

actor_fc2.weight f4 [32, 64]
00000000: b0a0 16bd 6f18 e0bd b843 ecbc fc5c 9abd
00000010: aa70 88bc 8b4b c53c 917f b13b b6cd 08be
00000020: b99d 8abd 53d3 cd3c 5acc 8dbc 1dab c5ba
00000030: 9d89 22bc a712 05bd 4efa 1abc e21b 1cbe
00000040: c4ec 0fbd a7e5 623d f5c6 213d 46c3 93bd
00000050: 9a5b 163d eb58 b6bb be71 033e 31ec f5bb
00000060: 6809 afbc 5c63 883c 9257 a1bd 4396 0c3d
00000070: 89bb 4cbe ad89 4ebd 9dc4 f3bc 5900 053e
00000080: 90de f03c a3e6 173d ac63 bebd 4472 023c
00000090: e721 dabc b293 8a3d bbd9 babb 4d83 b53d
000000a0: 4053 503c 6bd6 b53c 1208 cabb 2895 f9bc
000000b0: 0f74 20be 2e0f 873d e3a2 cd3d 977d a8b9
000000c0: c549 0b3d 7951 afbd 03fd 9a3d 663f 293d
000000d0: 3d72 c03c 3251 7b3d 27ef 3b3c 2b80 24bd
000000e0: a2a1 513d 984b a63c b900 a0bd 83c6 eabc
000000f0: 730f a3bd 9c1f a53c 6198 2bbc 51c6 06bd
00000100: 85f0 833c 68ad a6bc cd87 3e3d 1a2e 063e
00000110: e4ea cfbc 6535 3cbd 9073 0b3e e578 683d
00000120: 8644 b7bd 4063 c5bd bc8c 2d3d a577 e3bc
00000130: 244a 86bd fc9e e9bd f114 03be 80a3 6bbd
00000140: 5269 82bd 11b7 343c fdb8 aebd be4b 2fbe
00000150: c6a4 e0bc a8eb f83c 0f00 94be 3245 dfbc
00000160: b0c4 0cbc 7a95 22be 7f52 9cbd f179 eebc
00000170: 5e29 923e f302 993d 516a 4d3d 5db9 b6bc
00000180: 4908 ef3c 33d6 febd 162a 873c e2fe 20bd
00000190: 14b0 e3bd 9917 7ebc 439d 073d 1043 2a3e
000001a0: 5f78 a53c f4a2 91bd 5611 76bb d772 98bd
000001b0: bcf5 07bd 41d3 70bc f2a8 d93d 49d6 96bb
000001c0: f77c 64bc 0b6d 63bd fd34 c2bd 3d94 c8bd
000001d0: 04ba 57bd f893 513e eb20 0c3e e973 cfbd
000001e0: 8fe0 35bd e061 bbbd ae98 8bbc 590b 10bc
000001f0: 2627 efbc eaaf dd3d ae9e bbbd 31a7 d23d
00000200: b876 393c 0abe fcbc bd21 083e 5313 5f3c
00000210: 3f61 f93c 912b 843d 1920 ebba ee87 353e
00000220: 6d2c e83c 99e1 7dbe 4004 d03d a783 333e
00000230: 8ac7 64bd db28 e23d d336 8abd 30e5 5c3e
00000240: 7ba0 18bd accd 123d b8b0 973d e890 713d
00000250: 821d adbd 4407 213d 6670 44bd 6779 b63c
00000260: eb10 f43d 814e 173e ea0d b53d c149 3f3d
00000270: f392 7b3b b470 1abe 46ce 3ebc b634 16be
00000280: 4fa2 91bc f0a4 903d c164 33be 37bb 293d
00000290: 1fb0 9c3d 4a7e 7f3e e99e a33e 51a1 afbe
000002a0: 83be 0fbe cc5b d7bd b21f 71be 389a 713b
000002b0: ace9 773d 2f8c 2fbe cbdd ae3d 678f cf3d
000002c0: cc49 0fbe 25e3 8cbe 720f 293e 9d10 e2bc
000002d0: 6d72 503d 3d9d 653c 5251 e13d 86f2 cebd
000002e0: 5010 533e 8fff 43be 4647 31be 97a3 b03d
000002f0: 7977 793d d8ec 3d3d c925 29be 3684 ec3c
00000300: 56b8 4e3b c9e6 613d 20c8 f53b 1208 63bd
00000310: e662 9abd 8bee 493d a39f 803d 752b edbd
00000320: 4d0b 8c3d e97a f03d 0a20 ddbd 1054 4abd
00000330: baeb eebd f94a 1cbe 28f9 af3d a3e9 cbbd
00000340: d491 76bd 0479 cb3d e348 a8bd af60 98be
00000350: 1a40 523d a0e6 5ebe 9343 1c3d ac65 113e
00000360: 7d80 a2bc 620e 92be 165a b3bd 2049 26be
00000370: cc3b dd3c 7ba9 4fbc 5146 03bd 8a93 08be
00000380: ca4e 1e3e 2deb 22bb 6819 173e 2c45 633d
00000390: 6c0b 12be d59d 7abe 49af b9be 6820 a13e
000003a0: ec79 e73d 6e4b 083e 955d b93d ad5b 8d3b
000003b0: 8280 4cbe 7ef7 1c3d 5c1e 19bd 4ccb 81bd
000003c0: 44a8 103d ee5d 663e 5785 7bbe 7ac7 333e
000003d0: 2449 1e3e 45d4 853d 65b3 933d f4ec a03c
000003e0: 031d b4bc 9dd2 f63d 67e1 de3d 694d e7bc
000003f0: db48 c9bd 95bd f13d fb8b a63d 99dd b03d
-0.036774337 -0.1094216 -0.028840885 -0.075372666 -0.016655285 0.024083873 0.0054168184 -0.13359722
-0.067683645 0.025125181 -0.017309356 -0.0015080903 -0.009920505 -0.03248849 -0.009459091 -0.15245011
-0.035137907 0.055394795 0.03949638 -0.0721498 0.03670845 -0.005564799 0.12836358 -0.007504963
-0.02136679 0.01664894 -0.07878031 0.03432299 -0.19993414 -0.050424267 -0.029756838 0.12988414
0.029403001 0.037085187 -0.09296355 0.007961813 -0.026627494 0.06766452 -0.005702225 0.08862934
0.012715161 0.022196969 -0.006165513 -0.030466631 -0.15669273 0.06594692 0.10040834 -0.0003213703
0.0340059 -0.085604616 0.075677894 0.041320227 0.023491973 0.06135673 0.011470593 -0.040161293
0.051179536 0.020299718 -0.07812638 -0.02865911 -0.07961931 0.020156674 -0.010473342 -0.032903973
0.0161059 -0.020346358 0.04651623 0.13103524 -0.02538056 -0.04594936 0.13618302 0.05675592
-0.08948617 -0.09638071 0.042370543 -0.027767012 -0.0655711 -0.11407277 -0.12800957 -0.057528973
-0.063677445 0.011029975 -0.085313775 -0.17118737 -0.02742232 0.030385807 -0.28906295 -0.027254675
-0.008591816 -0.15877333 -0.076329224 -0.02911088 0.28547186 0.07471266 0.05015022 -0.022305185
0.029178755 -0.12443199 0.01649956 -0.039305575 -0.111175686 -0.015508556 0.03310896 0.16627145
0.020198999 -0.07111159 -0.0037546954 -0.07443779 -0.033193335 -0.014698804 0.10627927 -0.0046031815
-0.01394581 -0.055523913 -0.09482763 -0.09793899 -0.052667633 0.20466602 0.13684432 -0.1012953
-0.04440361 -0.091495275 -0.017040577 -0.008791768 -0.029193472 0.108245686 -0.09161125 0.102857955
0.011319809 -0.030852336 0.1329412 0.013615447 0.030441878 0.06453622 -0.0017938643 0.17727634
0.028341496 -0.2479309 0.101570606 0.1753069 -0.055854358 0.11042949 -0.06748738 0.21571803
-0.03726242 0.035840675 0.07406753 0.058976084 -0.08452894 0.03931357 -0.047958754 0.022274686
0.11917289 0.1477604 0.088405445 0.046701197 0.003838715 -0.15082055 -0.011645859 -0.14668545
-0.01777759 0.07062709 -0.17518903 0.041438308 0.0765078 0.24950519 0.31957176 -0.34302762
-0.14037518 -0.10515556 -0.23547247 0.0036865603 0.06052558 -0.1714332 0.085383974 0.10134774
-0.13992995 -0.27517048 0.16509798 -0.027595812 0.050890375 0.014014539 0.11001839 -0.101048514
0.20611691 -0.19140457 -0.17312345 0.08624952 0.060904954 0.04636845 -0.1651832 0.028871637
0.0031542978 0.055151735 0.0075006634 -0.05542762 -0.07538395 0.049299758 0.06280448 -0.115805544
0.06838093 0.11742193 -0.107971266 -0.049396574 -0.11666055 -0.15262975 0.08592445 -0.09956672
-0.060197666 0.09935191 -0.08217027 -0.29761264 0.051330663 -0.21767664 0.03815038 0.14198941
-0.019836659 -0.28526598 -0.08757417 -0.16238832 0.027006052 -0.012674685 -0.03204948 -0.13337532
0.15459743 -0.0024859414 0.14755785 0.05548589 -0.1426217 -0.2447427 -0.36266544 0.31470037
0.113025516 0.13310024 0.090510525 0.004313907 -0.19970897 0.038321964 -0.03738247 -0.06337604
0.03531672 0.22496769 -0.24562584 0.17556563 0.15457588 0.06534628 0.07211951 0.019644238
-0.02198649 0.1205189 0.10882836 -0.028235154 -0.09828349 0.11803738 0.08132168 0.086360164

actor_fc2.bias f4 [32]
00000000: 85ad 7d3c 7ecc dcbd 7738 d9bd c950 cf3d
00000010: 1bf2 15bc b6d9 113e c206 643c f013 9fbc
00000020: a1bc c6bd 9987 54ba f558 3b3d d7d6 e3bd
00000030: 2802 40bd ee89 7c3d c2cd c73d 1fc7 a93d
00000040: 1cac 82bd 951d 61ba 7166 d8bd 2e31 e23c
00000050: 3ee0 dd3c 253c a73d 65a0 63bd 179f c23d
00000060: 1a54 4f3d 0a7a 223e 08fb 67bd 1594 5ebd
00000070: 208a c2bb 49d4 8fbd c820 df3c a1a7 adbc
0.015483265 -0.10781191 -0.10606473 0.101228304 -0.009151961 0.14243206 0.013917627 -0.019418687
-0.09703947 -0.0008107364 0.045739133 -0.11124962 -0.046877056 0.061654978 0.09756042 0.082899325
-0.063804835 -0.0008587477 -0.10566414 0.027611341 0.027084466 0.081657685 -0.055572886 0.09503
0.050617315 0.15866867 -0.056635886 -0.05434044 -0.005936876 -0.07022912 0.027237311 -0.021198096

actor_mean.weight f4 [1, 32]
00000000: 0058 963c f0a4 063d 51dc 303e 8283 78bd
00000010: ddf6 c03e c435 8abd b50a 25bd 909b 5b3c
00000020: 976c 9cbe 5423 0fbc 835b 0abc a6e4 05be
00000030: fe15 573e d324 77be 8fa5 c2bd 6d57 593e
00000040: d056 acbe 8baf 2abe fcab 74be f40b 75be
00000050: 416a 80be 42ed 5f3e 1843 b9bd d3bb 3d3e
00000060: bfa5 123e e7fa 9f3d a0bb 24be c5fd a9be
00000070: ce42 a33e 6869 b1be 5e4f fbbd 4ddd ca3e
0.018352509 0.03287214 0.17271544 -0.06067229 0.37688342 -0.06748536 -0.040293414 0.013403788
-0.30551597 -0.00873645 -0.00844467 -0.13075504 0.21004483 -0.24135141 -0.09504234 0.21224757
-0.33659983 -0.16668527 -0.23893732 -0.23930341 -0.25081065 0.2186785 -0.09046 0.1852868
0.1432104 0.07811528 -0.16087198 -0.33201423 0.31886905 -0.3465073 -0.122709975 0.39621964

critic_fc1.weight f4 [64, 55]
00000000: fd1f 423c a75c 07bb f802 75bd df7a e2bb
00000010: 8876 2dbd 3d46 af3c acb4 7dbc eca8 ba3c
00000020: e007 cfbc b98b 4cbd c3c2 6a3a bb27 35bd
00000030: 2b43 f1bb c8c7 cbbd 5799 793d 2a5a 23be
00000040: ce47 4cbd 23fb 17bc 05fd 9f3d 23ba 283c
00000050: fa77 79bd 7976 da3b 2fe1 8bbc 164e 22bd
00000060: 15a1 d1bd 5b3d 95bc e6e6 bfbb 0e60 2cbc
00000070: ad9d 95bd c900 4dbc 4200 c03b 3cb5 26bd
00000080: 9ddd abbd bed3 f1bc c3ac 6dbc 0445 1abc
00000090: e34b efbc a18f 15bc 0310 08bd 3d48 75bc
000000a0: b5a7 7bbc 4795 a9bd ba23 82bc 8f91 6abb
000000b0: 1a44 93bc 279f 74bc 7bb4 90bc dc6e f3bc
000000c0: 3b60 5abc 9776 babc 0861 e5bc 49c6 1dbd
000000d0: ae20 b4bd 4503 90bd 1afc 1dbd 446b c53d
000000e0: fbb1 7a3e 34b4 d73d 0437 14be 7fef 943d
000000f0: 4a89 29bd 5cc4 5dbd 3345 96bd a19b 43bd
00000100: 604b 8ebd ae6e a5bd d16b afbd cd74 99bb
00000110: 20c3 5bbc 5581 193c cc9e 15be 10ea 843d
00000120: 882e 34bd 928e e3bd ffe2 77bd 8960 1cbe
00000130: f839 30bd e60d 46bd f513 5a3c 4249 283e
00000140: c81c 09be a49c eabc 2917 173d da35 25bd
00000150: cca1 9cbd 7377 b9bd 85a5 bdbd 4b87 21be
00000160: 3a1b 673d bdc8 6dbd 739d 89bd 2935 dc3c
00000170: 5fb7 fb3c 54b1 f5bd 3538 9dba 5ed0 083d
00000180: e782 7c3d ca8a 4abe 7658 63bd 6db5 a63b
00000190: f1fc babc 438e 38be f855 45be 4683 8ebe
000001a0: 8590 5dbd 357f 783d 0e41 75bd 497b 21bd
000001b0: 1bca d8bc 7ff7 01be 28d5 a3bd f584 853c
000001c0: 86c9 213e d077 67c0 3cce c43d f8dc f8be
000001d0: 2fb9 4dbf 51c0 85bf b2e6 98bf 8fab bebf
000001e0: 8935 cabf 5d90 bfbf 3ba0 afbf 98ce d2bf
000001f0: 17e9 5dbf 0789 a7bf fc3a 8fbf 2c6f 47bf
00000200: 4828 87bf 5b76 38bf 4fdf 6ebf 3c99 91bf
00000210: 9a83 0fbf b3c9 7fbe cd7f e8be bd2d 5abf
00000220: ed66 35bf 34ed 86bf a1e7 4ebf d4df 64bf
00000230: a7ac 69bf b21e 12bf b728 4fbf 58a7 d9be
00000240: fc98 e2be e8cc 25bf b336 19bf 315a 87be
00000250: f7b9 c8be e741 13bf 14c0 fdbe 7af2 d1be
00000260: b846 4fbe 07c5 01bd f27c 07be 8efb 83be
00000270: c7ae 37be 5815 5cbe f588 4cbe 86da 1cbe
00000280: b810 77be 315e 1cbe 7c3e f3be 0f3e d9be
00000290: 3cce c63c 6296 08be 594f ec3b 3924 edbd
000002a0: b2af 043e ee35 95bd 0bb7 9bbc 00eb 3d3b
000002b0: 24ce 343b 4ec4 c23d f267 b1bc 641c 733b
000002c0: 0de0 4e3d 83b6 1d3d a03d 303d 878f 703d
000002d0: 27fa b93c ac78 5c3d 128a 173d 69e3 343d
000002e0: 1d08 133d 436f b2bc 3ae8 3e3d b7ff b73c
000002f0: 90b3 323d 9b1a e83c f366 67bd f615 f63c
00000300: d1a3 033d e079 bf3c 5c08 5d3c e87d 1c3c
00000310: d127 2b3d adbc d7bc a418 223c 23c1 b23c
00000320: cbfa ad3c 3875 0dbe c1a5 103d eb5b 523d
00000330: c0e6 bd3c d194 a7bd 12e9 443d e2d1 8cbd
00000340: 965b b73c d543 313d 0279 8a3c 3fce f8bc
00000350: aafd da3c 23bd 8d3c 1137 013e 3bcc 50bd
00000360: 8a09 0ebc 3e97 f5bc f743 65be 590f a0bd
00000370: 0056 363d 6473 27ba a44e e2bc a82d b040
00000380: 5488 c23e b5fc 903e a19c 403f c47a 383f
00000390: ca87 533f 522a 9d3f 3001 903f 4b1e 9c3f
000003a0: 213e 8b3f 02b7 543f 4fbf fc3e 3e57 123f
000003b0: 915c 1e3f 6df4 ed3e 37ec 493f b827 283f
000003c0: 7a52 683f 5bb3 793f 216c 6d3f 44a7 66bd
000003d0: 0802 6f3e 5a81 863e 3f8c e53c 5414 c7bc
000003e0: 6b8f bb3c d902 263e c7fc 153d 48db 613c
000003f0: ab51 80bd d243 673d 505d 5a3d 3b0e d63d
0.011848447 -0.002065459 -0.059817284 -0.00691162 -0.04234937 0.021395797 -0.01548497 0.022785626
-0.02527231 -0.049937937 0.00089554134 -0.044227343 -0.0073627434 -0.099502146 0.060937252 -0.15952364
-0.049873166 -0.009276184 0.078119315 0.010298285 -0.060905434 0.006666955 -0.01707515 -0.03962525
-0.10235802 -0.018217733 -0.0058563827 -0.010520948 -0.07305465 -0.012512394 0.0058594057 -0.040700182
-0.08391879 -0.029519912 -0.014506522 -0.009415869 -0.02921099 -0.009128482 -0.033218395 -0.014970836
-0.015359809 -0.082804255 -0.015886176 -0.0035792326 -0.01797681 -0.014930523 -0.017664185 -0.029715948
-0.013328607 -0.022761626 -0.02800037 -0.038519178 -0.08795296 -0.070318736 -0.0385705 0.096396
0.24481957 0.10532418 -0.14474112 0.07272243 -0.041390695 -0.05414234 -0.073374175 -0.04775584
-0.069479704 -0.08077751 -0.08565486 -0.004683113 -0.013413221 0.009369214 -0.14611357 0.064899564
-0.04398969 -0.111111775 -0.060519215 -0.152712 -0.043024033 -0.0483531 0.013310422 0.16434196
-0.13389885 -0.028639145 0.03688732 -0.04033456 -0.07648048 -0.09055986 -0.09260086 -0.15774266
0.05642245 -0.058052767 -0.06719484 0.026880817 0.030727087 -0.11996713 -0.00119949 0.03340184
0.061648276 -0.19779506 -0.055504285 0.0050875456 -0.02282569 -0.18023019 -0.19271076 -0.2783453
-0.054092903 0.06066819 -0.059876494 -0.039424215 -0.026463559 -0.12692069 -0.07999641 0.01629875
0.15799531 -3.6166878 0.096096486 -0.48606086 -0.8036069 -1.0449315 -1.1945403 -1.4896106
-1.5797588 -1.4965931 -1.3720773 -1.6469297 -0.8668379 -1.3088692 -1.1189876 -0.7790401
-1.0559168 -0.72055596 -0.9330949 -1.1374888 -0.56060183 -0.24979286 -0.45410004 -0.8522604
-0.7086018 -1.0541139 -0.8082219 -0.89404035 -0.9127907 -0.5707809 -0.809215 -0.42510486
-0.44257343 -0.6476579 -0.5984909 -0.26435998 -0.3920438 -0.57522434 -0.49560606 -0.41005307
-0.20241821 -0.03168204 -0.13231257 -0.25777858 -0.17937766 -0.21492517 -0.1997412 -0.15317735
-0.24127471 -0.15270306 -0.4750861 -0.4243016 0.024268262 -0.13338616 0.0072116074 -0.115791745
0.12957647 -0.07285677 -0.01900818 0.0028979182 0.002758869 0.095100984 -0.02165601 0.003709578
0.05050664 0.038504135 0.04302752 0.05873063 0.02270229 0.05382602 0.03699691 0.044162188
0.03589641 -0.02178157 0.046608187 0.022460802 0.043628275 0.028332999 -0.056494664 0.030039769
0.03213865 0.023373544 0.013490763 0.009551503 0.04178602 -0.026335085 0.00989357 0.02182061
0.021237751 -0.13814247 0.035314325 0.05135719 0.02318132 -0.08182681 0.048073836 -0.068759695
0.022382539 0.04327758 0.016903404 -0.030371783 0.026732285 0.017302101 0.12618662 -0.05097602
-0.0086692665 -0.029979344 -0.22389208 -0.07815427 0.04451561 -0.0006387739 -0.02762539 5.5055733
0.37994635 0.283178 0.75238997 0.72062325 0.8262907 1.227854 1.1250362 1.2196745
1.0878335 0.8309175 0.49364707 0.5716437 0.61859995 0.46475545 0.7887606 0.65685606
0.9075085 0.975393 0.92743117 -0.05631186 0.23340619 0.26270562 0.028020976 -0.024301685
0.022895535 0.16212024 0.03661802 0.013785191 -0.06265577 0.056461163 0.053311646 0.10451933

critic_fc1.bias f4 [64]
00000000: 4d30 323f 72fd c2bd 6292 a3be d69a 21bf
00000010: cc3f b2be fe40 d8be e7cc 85bf 6d22 c73e
00000020: 706a 253f 3ab0 233f 9d0e eb3e e601 f83e
00000030: 1f0d 6cbd dda7 b03e 322a 3abf a3f4 26bf
00000040: 22ea 443e f8ec 2c3f 7827 e9be e8b2 3e3f
00000050: 0f61 04bf 65fd 883e f0c8 fbbe c2b8 36bf
00000060: a7de 1c3f 619c 14bf 5ac5 a2be 06bf 02bf
00000070: 6966 33be 8dc5 19bf df52 203f e0ee 4b3f
00000080: 001a 0fbf 0f3f 49bf 2e95 0abf d62b eebe
00000090: be67 2b3f f6d9 9f3e 4b90 1fbf 2826 01bf
000000a0: b7ee 833e b503 ea3e 3ba1 1f3e 9988 7cbe
000000b0: e408 f4be 8947 073f 5e75 9a3e e502 b83e
000000c0: d100 533f 8ac3 cabe 0d41 5bbe fc9f c0be
000000d0: eaae 2b3f fdb2 18bf 6fac c6be 1288 02bf
000000e0: 7d57 bd3e 20c8 1ebf fc24 00bf d31f 183f
000000f0: 2e20 d7be cd2c 1f3e 882a e3be 31a3 0abf
0.6960495 -0.09520997 -0.3194762 -0.63126886 -0.34814298 -0.42237085 -1.0453156 0.38893452
0.64615536 0.63940775 0.45909587 0.48438948 -0.0576297 0.3450307 -0.72720635 -0.65217036
0.1922994 0.67549086 -0.45537925 0.7449174 -0.517106 0.26755825 -0.4917674 -0.7137567
0.6127724 -0.58051115 -0.31791192 -0.5107273 -0.17519535 -0.60067064 0.6262645 0.7966137
-0.5589905 -0.78611845 -0.5413388 -0.4651782 0.66955173 0.31220978 -0.6232955 -0.50448847
0.25768062 0.45705953 0.15588848 -0.24661483 -0.47663033 0.5284353 0.3016767 0.35939708
0.8242312 -0.3960231 -0.21411534 -0.37622058 0.6706377 -0.59648114 -0.3880343 -0.50988877
0.3698081 -0.62024117 -0.50056434 0.5942356 -0.4201674 0.15544434 -0.44368386 -0.5415526

critic_fc2.weight f4 [32, 64]
00000000: 12e1 03be 7ec1 303e 4688 233e 0b28 f33d
00000010: 33d6 b13e c07d 57ba 61d2 9f3e 5b18 44be
00000020: 1e74 72be 4247 84be 3e8b 0abe 5642 0ebe
00000030: c3ec e53e ee4d e7bc fd80 4e3e 21d8 773e
00000040: 59f1 983d 0c8b 13be b362 593e 2c8d cbbd
00000050: 8ee6 ac3e e178 393e a4ef 693e d232 6b3e
00000060: 1075 aabc 2371 813d 486f f83c 832b 0b3e
00000070: 50ed e63d 9d51 893e 1210 e7bc c9d4 7fbe
00000080: 56d8 d63c 0962 4f3e 09a8 87bd 70f1 233e
00000090: 8ab9 acbe 7fbe 96be 9494 1c3c fb02 08be
000000a0: 533c bcbd 377e 81be d7e3 923d 5524 093e
000000b0: 314c 4b3e 763a babe d2a3 673c c6bc a5be
000000c0: b2cf fdbd c06e a4bd 4845 49be 4be3 ad3d
000000d0: fae7 7abe 03f0 8d3e b48c 6a3c 503b 163e
000000e0: 42a8 01bf b2fa e03d 89a1 9e3a 5387 8bbc
000000f0: 08a5 503e 7411 2f3e 9a51 11bd 063f e43d
00000100: 028c 573e de1b edbd b256 8dbe 2d8c 6bbe
00000110: d0b6 c8be e14f 47be 762c 2fbf 3ffa 1e3d
00000120: 7a3b 2a3e da70 9a3e 5ee7 a63e 4339 b53d
00000130: c4fd f3be f0f6 623e 8d22 c7be 9ff4 82be
00000140: 0eb8 a33d c335 ed3d 9441 66be d411 b73d
00000150: bcb4 bebe 42e3 3bbe 5084 93be 1615 77be
00000160: 8a3d 963d fdad f9bd 1f57 2bbd 8f7c 53be
00000170: bc8c 8bbd 0d35 39bd 462c 423c 258d 5d3e
00000180: f414 2fbd 6def 14be 3c6e 6bbe 0efd ebbd
00000190: 9193 ad3d 21e3 cb3d a6d9 39be 1796 c23d
000001a0: c4d5 da3d c3f3 663e 3027 1dbb ae83 32be
000001b0: 0963 19bc e06d f73d 1771 cabc bad5 873e
000001c0: 5666 6d3e a457 d13c 7813 97bc 6997 20be
000001d0: 0d16 773e e6a3 39be d18b 813d 4fe5 5abe
000001e0: 8cf1 bb3e e5b3 4dbd 364d 783d c523 1f3e
000001f0: d6b1 9dbd 4494 ed3d 71c7 d43b 8653 34be
00000200: 678e 40bd 759f 22bd e08e ea3d d4af 823e
00000210: 5786 fa3d aba8 6e3e 4a3d 593e 3011 8cbe
00000220: 5838 b7bd daa1 47be fa53 3ebe 48f4 4dbe
00000230: ad03 163e 1ae7 48be 7d6e bb3d f4cf 273e
00000240: 57bf e4bd f5d9 40be f59f 1f3e fbd9 c4bd
00000250: 20c6 6d3e 468d 64be 5a25 5b3e c950 2a3e
00000260: 75bd 4cbe ae01 b03d 78b2 303e d06e 663e
00000270: f82d 6c3d d992 523e 6cb3 3dbe c823 53be
00000280: 1104 073e c07b 943d ffc0 163e a3f9 333d
00000290: 2e40 80be 1500 d0bd 8f97 383e 1151 3a3d
000002a0: a06d 75bd 073e b6bd a553 8f3c d514 813e
000002b0: 3877 253e 0910 98bc da85 8fbd 6456 1fbe
000002c0: 0dd3 84be 6d87 1f3e c635 2a3e 52b4 3e3e
000002d0: 3816 26be 2041 ce3d 13b2 383e 9a99 dc3d
000002e0: df67 bebd eeec 353e 09bb 5d3d f61b e5bc
000002f0: 1b7d 653e 566d f2bd b7d4 a13d 5d4c e13d
00000300: e245 6bbe 48dc a63d 5dea e83e 65f0 843e
00000310: 615b 97bd 62b0 93bc c272 8a3e dce2 bdbe
00000320: a3cf 65be 6d9b 62bc 1c28 45be c725 38be
00000330: 401f 1ebf 1a09 f6be aabd b6bd 5eb5 d63d
00000340: 50f7 0fbe f651 18be 6a2b f43e 1730 2fbc
00000350: 0d48 e43e 8e0c d6bd f9e3 aebd 88f4 e23d
00000360: 9068 233e 7b08 5a3d 2806 4cbd 85a3 5b3d
00000370: aa88 bd3e c67d 143e bb3a 3cbe 2707 d3bc
00000380: b8dd 623e 6801 51bb 9403 b43c 48ab 0d3e
00000390: f523 7bbe 8bd4 f0be 96bd 933d 8cb5 b43d
000003a0: 55cc fdbd 0fb4 32be 2950 323e 3e57 3a3e
000003b0: 1d70 1a3e a8d7 1bbe 6fae 40be b55e 14bf
000003c0: f41e 3fbe 0c6c 393e 456d 7dbe 29c2 513e
000003d0: 3a2d 80bd 34bd 613e 58ca 313d da56 7c3e
000003e0: 819b 1cbf 98ad 263e 2d47 b8bd 3ce6 30be
000003f0: 8cdf ebbb 273d 95be 37c5 a139 b307 2a3e
-0.12878826 0.17261311 0.15969953 0.11872872 0.34733734 -0.00082203373 0.31215194 -0.19149916
-0.23677108 -0.25835615 -0.13529679 -0.13892493 0.44907197 -0.028235402 0.20166393 0.2420354
0.074679084 -0.14408511 0.21229057 -0.09939036 0.3376965 0.18112518 0.22845322 0.22968605
-0.020807773 0.06320407 0.0303265 0.13590817 0.112757325 0.26820078 -0.028205905 -0.24983515
0.026226204 0.20252241 -0.06623847 0.1601007 -0.33735305 -0.29442212 0.009556908 -0.13282387
-0.091911934 -0.25291607 0.07172363 0.13392766 0.19853283 -0.36372727 0.014138179 -0.32370585
-0.1239313 -0.080289364 -0.19655335 0.08490618 -0.24502555 0.27722177 0.014315773 0.14671063
-0.50647366 0.10985316 0.0012102585 -0.017032301 0.20375454 0.17096502 -0.035478212 0.11144833
0.21049502 -0.11577581 -0.27605206 -0.23002692 -0.39201975 -0.19464065 -0.68427217 0.038812872
0.16624251 0.30164224 0.32598394 0.088488124 -0.47654545 0.22164512 -0.38893548 -0.25577256
0.0799409 0.1158252 -0.22485954 0.08938947 -0.37247264 -0.1834841 -0.28811884 -0.24129137
0.073359564 -0.12191389 -0.041831132 -0.20652984 -0.06813952 -0.04521661 0.011851376 0.21635874
-0.04274459 -0.14544459 -0.2299127 -0.11522876 0.08475412 0.09955431 -0.18149433 0.095012836
0.10685304 0.22553925 -0.0023979656 -0.17433044 -0.009361991 0.12081504 -0.024712129 0.26530248
0.2318357 0.025554486 -0.0184419 -0.15682758 0.24129505 -0.18128929 0.06325496 -0.21376537
0.36707723 -0.05022039 0.06062051 0.15540989 -0.07699935 0.11600545 0.006493502 -0.17609987
-0.047010805 -0.03970285 0.114530325 0.2552477 0.122326545 0.23306529 0.21214786 -0.27356863
-0.089462936 -0.19495335 -0.18586722 -0.20112717 0.1464984 -0.19619408 0.09151933 0.16387922
-0.11169308 -0.18833144 0.15588363 -0.09611889 0.2322011 -0.22319517 0.21400967 0.1663238
-0.19994147 0.085940704 0.1725558 0.22503209 0.057661027 0.2056383 -0.18525475 -0.20619118
0.13185145 0.07250166 0.1472206 0.043939244 -0.25048965 -0.10156266 0.18026565 0.045487467
-0.059919 -0.088985495 0.01749594 0.25211206 0.1615876 -0.018562334 -0.07007952 -0.15560299
-0.2594227 0.15579005 0.16622075 0.18623474 -0.16219413 0.10071015 0.1803668 0.10771485
-0.092971556 0.17766163 0.05413345 -0.027967434 0.22411005 -0.118372604 0.079019 0.11000893
-0.22975877 0.08147484 0.45491305 0.25964656 -0.07390476 -0.018028442 0.27040678 -0.37087142
-0.22442488 -0.013831002 -0.19253582 -0.17983161 -0.61766434 -0.4805382 -0.08922894 0.10483812
-0.14059186 -0.14875016 0.47689372 -0.010692618 0.4458622 -0.10451613 -0.08539576 0.11081797
0.15957856 0.053230744 -0.04981056 0.05362274 0.3701833 0.14501104 -0.18381779 -0.025760246
0.22154891 -0.0031891707 0.021974362 0.1383487 -0.24525435 -0.47037157 0.07213895 0.0882369
-0.12392489 -0.174515 0.17413391 0.18197343 0.1508183 -0.15218985 -0.18816541 -0.5795701
-0.18664151 0.18107623 -0.24748714 0.20484222 -0.06258626 0.22044832 0.04340586 0.24642506
-0.6117478 0.16277158 -0.08997951 -0.17275327 -0.0071982797 -0.29148218 0.0003085525 0.166045

critic_fc2.bias f4 [32]
00000000: 6032 1fbe 1d70 983e 3ad9 9ebe e2be 763d
00000010: 2e3c a1bc 204e 963e f16c 59bb d8a8 c9bd
00000020: 51ae 3ebe ff3d 18be 93e6 d23e 1ad4 a0bd
00000030: 614d aa3e ec6b 933d 4b8f aebe 8337 0fbe
00000040: 7cde 14be b9b3 d9be 35b3 eebe 6591 dbbd
00000050: f175 e53e d83d 4bbd 656e ef3c eb35 5e3e
00000060: 0a03 4e3e 5ee5 b9be 5205 a53d b722 5e3e
00000070: c930 503e 239e 903d 9d48 a43d c698 29bd
-0.1554656 0.29773036 -0.31025106 0.060240634 -0.019682016 0.2935648 -0.0033176506 -0.098466575
-0.18621184 -0.148674 0.4119154 -0.07852955 0.3326216 0.07198319 -0.340937 -0.1398602
-0.14537996 -0.4251993 -0.466211 -0.10721091 0.44816545 -0.049619526 0.029227445 0.21700256
0.20118347 -0.36307806 0.080576554 0.2169293 0.2033111 0.07061412 0.080216624 -0.04140546

critic_value.weight f4 [1, 32]
00000000: 58e8 103f 559e fabe f923 eb3e c4bf 2a3f
00000010: e7bd 093f 7964 71bf ebc6 043f ec39 ec3e
00000020: 0972 ed3e 8c38 ea3e e4e1 e6be 7e0f 133f
00000030: 4f1c 0bbf 74c5 10bf aace 423f 1e4a 23bf
00000040: 857e 3cbf b4dd 4a3f b54f 873f 2f8a 403f
00000050: 9009 50bf 3e11 2cbf 165a 19bf 0703 3f3f
00000060: 0be2 e7be 893e ed3e 4e34 273f 4588 2bbf
00000070: e593 ebbe 2c1b edbe fb37 1a3f 483f 2dbf
0.5660453 -0.48948923 0.45925882 0.6669886 0.53805393 -0.94293934 0.51866025 0.4613794
0.46376064 0.45746267 -0.45094216 0.57445514 -0.5434007 -0.5655129 0.76096594 -0.6378497
-0.73630553 0.7924454 1.05712 0.7521085 -0.8126459 -0.6721381 -0.59903085 0.74613994
-0.45289645 0.46336773 0.65314186 -0.67004806 -0.46011272 -0.46309793 0.6024167 -0.67674685
