experiments/exp042/outputs/best_model_conv.pt (torch, 22617 bytes, 13 tensors)

base_fc1.weight f4 [16, 5]
00000000: c30b 013f 820c 873e 72de d2bd 2a7d 0e3e
00000010: 6cb8 23be 85d1 debd 803f 8cbd 1f0c 983c
00000020: f600 ee3e 9c1d 80be 924d 383e c30b 963d
00000030: bdf5 72bd acb1 b0bc 1963 253d ae65 133f
00000040: 7a43 8b3e 5c88 0bbe d571 34be 669b 883e
00000050: 6443 a4bd c628 99bd 9b53 1f3d 12c2 903e
00000060: 0eb5 8bbe f1c8 e3bd 52d1 69bd 8b0f 1e3d
00000070: 3424 adbd 820a bbbe 9a54 09bf 3b6f a3be
00000080: 5c2e 843e 44c8 443e 88fd 6bbd 7895 283e
00000090: ec96 a13d c617 ecbc cabf 503e af08 303d
000000a0: fb59 cebd 1c3c 92bd 9908 203d 5a2e 7a3e
000000b0: 2eb4 223e 1f54 ab3d 8384 6d3d 76c1 163d
000000c0: 79bb 803e 1a01 8bbe 1aac 30be 80e7 8abd
000000d0: 0154 9c3d c641 873d ae7f aabd 950b 293e
000000e0: 8d6b 833d c2f9 5cbd 7d8c af3e 1c28 8abe
000000f0: f320 0abf a03e 99be b047 093e 06d0 5abe
00000100: e77a 133e 67a3 163f a26d a13e b237 23be
00000110: e355 80be 528f 03bd e606 243e 3e14 ae3d
00000120: f0ed 89bc 8ef0 4abe 12c2 dbbe 9f04 f8be
00000130: f6c0 85be a088 d43d 3553 8e3e 21da 823e
0.5040857 0.2637673 -0.10296334 0.13914934 -0.1598832 -0.108798064 -0.06848049 0.018560467
0.46485108 -0.2502259 0.1799834 0.07326462 -0.059316386 -0.021569096 0.04037771 0.57577026
0.27199918 -0.13626236 -0.17621548 0.2668106 -0.08020666 -0.0747848 0.03889809 0.28273064
-0.2728657 -0.11122311 -0.05708439 0.03858904 -0.08454171 -0.36531454 -0.53644717 -0.319208
0.2581662 0.1921702 -0.057614833 0.16463268 0.07890114 -0.02881993 0.20385662 0.04297703
-0.10075756 -0.07140371 0.0390707 0.24431744 0.15889046 0.08365654 0.0579877 0.036805592
0.2514303 -0.27149278 -0.17253152 -0.06782436 0.0763321 0.06604342 -0.08325134 0.16508324
0.06416998 -0.053949125 0.34286872 -0.26983726 -0.53956527 -0.29930592 0.13406253 -0.21368417
0.14402352 0.5884308 0.31528956 -0.15939215 -0.25065526 -0.032119103 0.16018257 0.08499955
-0.01683709 -0.19818327 -0.429215 -0.48441026 -0.2612378 0.10377622 0.27797857 0.25557044

base_fc1.bias f4 [16]
00000000: 25ec 94be 2385 bebe c6af 803e 64e2 6dbe
00000010: ee01 973e 88f1 8ebd 2a37 7f3e 58fb cbbe
00000020: 23cc 73be fef3 123e 6631 ac3d 02fb 0dbe
00000030: 28ec a93e 5c67 b63e e5e4 8abe a90a a4be
-0.29086414 -0.3721095 0.25134104 -0.23230892 0.2949366 -0.06979662 0.24923387 -0.39840198
-0.2380834 0.14350888 0.084078595 -0.13865283 0.33187985 0.35625732 -0.27127758 -0.32039383

base_fc2.weight f4 [32, 16]
00000000: df84 903e 540f 23be c6bd a13b 8d7b 7fbe
00000010: 1cca 74be c02e 49bd 417a 7abd 3352 c5bd
00000020: 6e3e c1bd e81e b2bd 8815 94be 8fa4 a1bd
00000030: 2c2c 5bbe a7ff 2bbe c0dd 9b3e a1b3 643b
00000040: fd53 763e 686c 26be 2ce5 bdbe 4ffc 773e
00000050: 43a9 c83d 00ec df3e 817d c3be 8332 94be
00000060: d703 0ebd 0729 62be f92a b2bd c8a5 b8be
00000070: 212e fabe 640d a53d 1dc1 6e3e 1cff 8fbe
00000080: c046 733e 772f b6bd bef5 853e 79c6 4c3d
00000090: 14aa 97be 4809 383e 97af a6bd f11a 94bc
000000a0: ea39 97be 8c8a 52be f3de e7ba 4257 cfbb
000000b0: 1d79 e03d 1114 84be b31d 8a3e fef5 4abe
000000c0: bf56 143d c742 053e 39a9 37bc 0c5e b83e
000000d0: 91cf d73e 8c99 c4bc fb69 0bbd cc24 94be
000000e0: c7ae e93d d94a 95be 1718 a93e 18cf bdbe
000000f0: d386 2e3a 693a 7e3e 7470 b8bb d8d6 6dbe
00000100: 120d a13e e226 2ebd d22c 0a3e 318a 3abe
00000110: afb9 7c3d 18a7 1fbe 9977 35be da62 7d3e
00000120: 55b0 5cbd f238 0cbd 22d9 30be 10d3 443c
00000130: 04f6 f43d a4db 433b 15a4 fabd 546d 46be
00000140: 3b69 53be 4f18 003e 70f1 e73d fe39 11be
00000150: 510a 463e bdc2 933e 3e1f 94bc ad68 5cbe
00000160: 7533 303e c87a 823d a656 eb3d bc33 0ebe
00000170: c656 2abe cc0e fa3d b98d 3abd c063 bdbd
00000180: 5637 053f 58e0 bb3e a3ab ecbe 903d 993e
00000190: 489a b23e ee8a 503f 8102 a6be 0982 66be
000001a0: 6446 ffbc 6664 02bf 3b76 243f 7b43 12bf
000001b0: b9d3 a8be d1b3 883e 7b7d 83be a468 2abf
000001c0: 123e 693d 1926 543d b01c 413e 71df 743e
000001d0: 094a 88be a308 b6bd b628 42be e8c4 903e
000001e0: 2dc7 02bd 433d 02bd 41f4 f03d 4022 c4bd
000001f0: 556b 86be a632 9a3e 0eba b9bd c548 37be
00000200: d2aa 9cbe 2403 dd3d 057e 9d3e c8d8 9dbd
00000210: 1361 aabe dbae cdbe 00b5 cebd cb01 a63e
00000220: 16ff 873c 6007 933e 69cf b43c b54f 5d3e
00000230: c34e 133e 6e85 babe 1b11 22be a4f7 08be
00000240: 54d9 bc3d 534b 2dbe b8dc a63c 3a35 5fbe
00000250: 5a9f e0bd f2fa 88be a0f1 06be d16e 0e3e
00000260: 783e 0ebe b6be 503e a39a 65bd c2e7 26be
00000270: 920f cc3c 67ab 2ebe fcec aebd 36b4 78be
00000280: 73fa 0d3e e5da 5dbe 33ba 233e e951 363d
00000290: e94b 9f3d 8ba7 5fbe 4608 5b3e f1f4 19bd
000002a0: cfce 183c 5977 713e a639 fbbd 051d 383c
000002b0: 7013 053c efc9 a3be 95f7 453e 79c7 63be
000002c0: 4390 083e 4c82 873e b018 1b3e 7b93 d9bc
000002d0: 2ebb 2fbe 0dbe 103e 0117 0c3e b2e3 8cbe
000002e0: cfc5 053d caf1 5dbe 7412 d5bd 3ed2 c0bd
000002f0: 55c2 1dbe db29 21be 6b04 58be d7d4 a53e
00000300: 8777 3b3d 4d1c 40be 3bac 9e3d c069 bdbe
00000310: 9658 ecbe 0286 d8be ec70 b53e 99eb ab3d
00000320: c82c b4be 46be 463e aae2 79be 520a e23d
00000330: dbf5 6d3e c228 dfbe 626b f83c d260 d53d
00000340: bc45 82be 49b0 973e 3d3a 50be 6088 5e3d
00000350: ebf2 46bd 63da 223d d7a4 8d3e e4af b23d
00000360: d798 95bd 8730 b73c 4fbf 883e 92e9 903d
00000370: e42a 363e 5862 5a3e c9e9 a5bd f267 053e
00000380: 6889 b5be 969b 20bd a69e 5b3e d67b ccbd
00000390: 218b 3dbe 3b9e eebe d5d4 d5bb a14d f6bd
000003a0: 70e0 8dbd 6635 c7bc 0f6d 273e 6c3b ae3d
000003b0: 99a8 7a3d 6991 61be c6cd 27be 5453 5cbe
000003c0: 3715 1fbd 5c1c 2c3e 3036 31be 1beb 313d
000003d0: b5c6 a33d db4e 353c 551a 22be 3746 a3be
000003e0: c320 f2bd 3157 47be 7174 ae3e 7ff6 49be
000003f0: 234f 6abe fd12 093e 7ffc 26bc 7d6f 003e
0.28226373 -0.15923816 0.004935953 -0.24949475 -0.23905224 -0.04911685 -0.061151747 -0.09634819
-0.09435736 -0.08697301 -0.28922677 -0.07892715 -0.21403569 -0.16796742 0.3044262 0.0034897106
0.24055476 -0.16252291 -0.37088907 0.24217342 0.09797909 0.4373474 -0.3818169 -0.28944787
-0.03467163 -0.22085963 -0.08699603 -0.3606398 -0.4886332 0.08059195 0.23315854 -0.2812432
0.23757458 -0.08895772 0.2616405 0.049993966 -0.29621947 0.1797229 -0.0813896 -0.018079253
-0.29536372 -0.20560664 -0.0017690345 -0.0063275406 0.109606005 -0.2579656 0.26975784 -0.19820401
0.03621554 0.13013755 -0.011209779 0.36009252 0.42150548 -0.023998998 -0.034036618 -0.28934324
0.11410289 -0.29158667 0.33026192 -0.37072062 0.00066576636 0.24826969 -0.00562864 -0.23226488
0.31455284 -0.04251755 0.1349366 -0.18216778 0.06170052 -0.15591085 -0.17721404 0.2474474
-0.0538791 -0.034233995 -0.1727033 0.012013212 0.11960986 0.0029885555 -0.122383274 -0.19377643
-0.20645611 0.12509273 0.113253474 -0.14182279 0.19339873 0.2885951 -0.018081304 -0.21524306
0.1720713 0.06371075 0.11491136 -0.13886923 -0.16634664 0.122098535 -0.045545314 -0.092475414
0.5203756 0.36694598 -0.46224698 0.2992978 0.34883332 0.8146199 -0.32423785 -0.22510542
-0.031161495 -0.50934446 0.64242905 -0.5713422 -0.32974032 0.2669969 -0.25681672 -0.6656592
0.05694396 0.051794145 0.188586 0.23913361 -0.26618984 -0.08888366 -0.18960842 0.28275228
-0.03192823 -0.031796705 0.11765338 -0.09576845 -0.26253763 0.30116767 -0.0906869 -0.17898853
-0.30599076 0.10791615 0.30760208 -0.07707363 -0.33277187 -0.40172467 -0.10093117 0.32423243
0.016601127 0.28716564 0.022071557 0.21612437 0.14385514 -0.36429924 -0.15826838 -0.13375717
0.092211396 -0.16923265 0.020368919 -0.21797648 -0.10967894 -0.26753956 -0.1317811 0.1390946
-0.13891017 0.2038525 -0.056055676 -0.16299346 0.024909768 -0.17057572 -0.08541295 -0.24287495
0.1386507 -0.21665533 0.15988998 0.04451171 0.077781506 -0.21841256 0.21389875 -0.03758711
0.009326651 0.23580684 -0.12266855 0.011237388 0.00812231 -0.3199 0.19332726 -0.22244062
0.13336281 0.26466596 0.15146136 -0.026559582 -0.17161247 0.14134999 0.1368065 -0.27517468
0.032659348 -0.21674266 -0.1040391 -0.094151005 -0.15406163 -0.15738623 -0.21095435 0.32388946
0.045768287 -0.18760796 0.07747694 -0.36994743 -0.46161336 -0.4228974 0.35437715 0.08394546
-0.35190415 0.19408521 -0.24402872 0.11037125 0.23238318 -0.43585783 0.030324642 0.10418858
-0.25443828 0.29626682 -0.20334716 0.054329276 -0.04857151 0.03975905 0.27664825 0.08724955
-0.073045425 0.022362007 0.26708457 0.070758 0.17789799 0.21326578 -0.081012316 0.13027933
-0.35456395 -0.03921088 0.21447238 -0.09984557 -0.18510105 -0.46605095 -0.0065256157 -0.12026525
-0.06927574 -0.024317455 0.16350196 0.085074276 0.061195944 -0.22028126 -0.1638709 -0.21516162
-0.03883859 0.16807693 -0.17305827 0.043437105 0.07996885 0.011066164 -0.15830357 -0.31889507
-0.11822655 -0.19466855 0.34073213 -0.19722937 -0.22881751 0.1338615 -0.010192036 0.1254253

base_fc2.bias f4 [32]
00000000: 3340 423e cd68 203e 4212 103e 0a76 0bbe
00000010: 3c54 e2bd c117 553e 981e 893a 95e6 513c
00000020: f47b f13c addb 2cbe 3a51 ccbd 2cc4 3e3e
00000030: 3ae9 6abd 3f83 34bd 1d2b 6fbe 9985 f7bd
00000040: e9c6 343d c5db 14be 5c7f f2bc 8387 783d
00000050: 3a4f 6bbd 9ebe 863d 0d8b 71be 3e79 b3bd
00000060: cc07 143e 6c90 183e 54aa 6cbd bd29 9bbd
00000070: 76c6 26be 3a83 d2bd 5c82 12be bbcf 2dbd
0.18969803 0.15664978 0.14069465 -0.13619247 -0.11051223 0.20809843 0.0010461388 0.012811323
0.02947805 -0.16880675 -0.0997643 0.18629521 -0.05735133 -0.04407048 -0.2335629 -0.120860286
0.044135008 -0.1453696 -0.029601745 0.06067611 -0.057448603 0.06579326 -0.235882 -0.087633595
0.144561 0.14898843 -0.057779625 -0.0757632 -0.16286644 -0.10278936 -0.1430754 -0.042434435

future_conv1.weight f4 [16, 1, 5]
00000000: a6ea d83d 5fc6 d2be b4cd ec3e d700 8c3e
00000010: 6614 cfbe c6af efbd 6949 c13e 3daf 11be
00000020: 17d3 16be 36d1 34be fe7f 8b3e baa9 d2be
00000030: 0c13 1d3e 4a84 dfbd 437f 643d 34af ff3e
00000040: 11ee 8abe 3cd6 78be 14b7 eabd 49d4 563e
00000050: c57f 31be bfa4 b23e eaa3 d6be 49dd 8f3e
00000060: 32d5 2cbd 317a 0ebe e30a 203e ee83 d839
00000070: a5a9 8a3e 3b88 86be 181f 81be b2fa 2c3e
00000080: f7eb 943e 8736 953d 8ba5 a1be 079e 193e
00000090: 0a8a de3c 9c51 2b3e 635e f8be eff8 193e
000000a0: 2b6d 183e 737d 463d bc3f 9abe 3fef 2f3e
000000b0: 27eb 77be 121d 253f 535f 50be 9991 0cbe
000000c0: cf09 b0be 5f4d 4cbd b301 03be c8fe 7a3e
000000d0: c9f9 8a3d 48c2 8d3e 24cc b9be ac56 ec3d
000000e0: 9a4b 203d 945c 3e3d af63 bebe 3460 8b3e
000000f0: d9a0 083e 3764 8dbe da0a c0bd a848 68be
00000100: 49de bb3e 24c4 52be 5ad4 6a3e 26e3 763e
00000110: 69eb e9be 7bdd 153e 2997 1fbe b745 453e
00000120: 231f 703e 291c 15bf d131 8c3e 2d64 ab3e
00000130: 2edc 2a3e a37b 0abf 2829 3ebe 607a 44bd
0.10591631 -0.4116697 0.4625069 0.2734439 -0.4044525 -0.11703448 0.3775132 -0.14227004
-0.14728962 -0.17657933 0.27246088 -0.41145116 0.15339297 -0.10913904 0.05578543 0.49938357
-0.27134755 -0.24300474 -0.11460701 0.20979418 -0.17333896 0.34891316 -0.41921932 0.28098515
-0.042195506 -0.139138 0.15629153 0.00041297026 0.27082554 -0.2627581 -0.25219035 0.16892508
0.29086277 0.07285791 -0.31571612 0.15001689 0.027165432 0.1673035 -0.4850951 0.15036367
0.14885394 0.04845948 -0.3012675 0.17181109 -0.24210797 0.6449748 -0.20348863 -0.13727416
-0.34382483 -0.049878474 -0.12793617 0.24511254 0.06785924 0.27687287 -0.3628856 0.11539969
0.0391346 0.046475008 -0.37185428 0.27221835 0.13342609 -0.2761552 -0.0937707 -0.22683966
0.36693028 -0.20582634 0.22932568 0.24110088 -0.45687416 0.1463527 -0.15585007 0.19264875
0.23449378 -0.58246094 0.27381757 0.33474866 0.16685554 -0.54094905 -0.18570387 -0.04796827

future_conv1.bias f4 [16]
00000000: 7b92 04ba bf49 563e 60ad bb3a 802d 293d
00000010: b507 e3ba 5c4d a3ba 7c3c 9439 2a60 bbbc
00000020: 34db 53be 6457 85bd 4043 c33d 185b 84be
00000030: 5446 e8bd d3da 4d39 bca9 b4ba f25c 853e
-0.00050572277 0.2092657 0.0014318638 0.041303158 -0.0017321022 -0.0012458968 0.00028273824 -0.022873003
-0.20689088 -0.06510809 0.09534311 -0.2585075 -0.11341539 0.00019631842 -0.0013783495 0.26047474

future_conv2.weight f4 [8, 16, 3]
00000000: 0ef4 0fbe 7d55 eabd 709a 513e ebdd ed3d
00000010: 6d77 bd3d 622c 083d ca5e 003c 1bfb 653d
00000020: 04dc ddbd 28b8 98bc 5925 f53d 18a4 dfbd
00000030: 4d15 9cbd 8771 193e 4ecc 8bbc 9bdd 34bd
00000040: 1263 b93b f7b9 493d 39b9 e23c 8712 59bd
00000050: 10cd 403d ec3a 663b e6e9 e4bd 244f 083e
00000060: 26a1 9fbd f64b 30bb 594e 13bc ad41 f5bd
00000070: 26c7 0ebe 380f e33d ae3f b43d 2f3b b3bd
00000080: 8727 84bd 2fb7 d93d b37a 523c 8392 a03c
00000090: a6d6 98bd c3a3 2dbd c59d 343c 320b d2bc
000000a0: 05c8 a8bd bc11 263d 261c 6fbc 0b1a 06bd
000000b0: 6cbc 443c 626a 72bc 6f1d be3d aac3 cb3d
000000c0: ef4c 103d 9aa2 55bd 696d 033d 4b1a 7d3d
000000d0: d29d 88bd f8f6 033e 6a02 dbbd f789 c23d
000000e0: 27ae 9b3c af8f 27bd 8fbd 153e 234a 88bd
000000f0: a945 833b 82c1 c83a 12f7 64bb da02 c63d
00000100: f929 8ebd 1f70 20bc d8b0 a5bd 730d 0c3e
00000110: 764f cdbd a3c6 ecbd e1e6 113c 6dcd 883d
00000120: f9b2 cc3d adda f8bd 1104 a6bd f3ae 9d3b
00000130: 311b d0ba a0f2 513c 1631 833d 64ce 2fbd
00000140: 4168 963d 9503 353d 7203 b8bd 087f 8c3d
00000150: eee2 093d 16ea bb3d 4d31 e5bd f772 c1bd
00000160: a556 963c 5876 f13d b4ec b23a ed48 6fbd
00000170: 0c34 9a3d 60a0 c73c 5e76 0c3e 637b c03c
00000180: 367a a3bd 85fe 74bd 0b90 303e 78d5 443d
00000190: bc47 c6bd d10a 4bbc 5bf3 3dbd ad8d 3abe
000001a0: f052 af3d fdc7 65bd 8c79 0f3b 0f1f 17bd
000001b0: 1452 4f3d 6a73 c13d 0273 94bd 6e80 c9bd
000001c0: 3bb6 2a3d d063 a33d 2e45 d63d b262 2d3d
000001d0: e959 86bd 6583 dfbc 10d5 01be 52a8 bd3d
000001e0: 787f 373d 86b1 9d3c fdb1 f13d feba f43d
000001f0: 3aaa 863b 0169 c7bd c45a 283e 29d2 ccba
00000200: 26f2 8d3c db90 a83d 274d 403d 36b2 3fbc
00000210: 7f52 463d d1a2 c8bd 7773 8cba b2f8 643e
00000220: 4f98 98bd 1e91 11be 4087 213d f3cd f1bd
00000230: a429 f13c fcb4 383d fc0b 1c3e ef90 053d
00000240: e276 b9bd 3319 823d 56cf 36bc 49ee b63d
00000250: 56aa 993d 32ff e83d 3d38 8c3d 6a02 a63d
00000260: 517b cfbd a358 c23c 93f3 cf3a 7356 86bd
00000270: 0aae 763b 92ea b5bd 3950 a03d e9e8 aa3d
00000280: 6287 21be 27d7 773d 8646 27bd 09bb 05be
00000290: 2757 453e faa4 bc3c d323 a53d fec4 56bd
000002a0: b758 903c 0b2e 2b3d b7c2 13be a9fd 063c
000002b0: d33f c4bb 3f25 b7bd c5fd 09be 8c69 d03d
000002c0: 63c9 c13d 5d0e 273d d120 ea3d d6dc 99bd
000002d0: 3ea2 05bd 5d51 493d e8a2 fabc a301 203e
000002e0: 6057 03be d746 ed3d 271a 59bc 33d9 d1bc
000002f0: 8383 fc3d 9289 0ebd 1620 0fbd 5c4b af3d
00000300: c8d3 cfbd 9b6c 0b3d 2d8c a73d 217d 1ebd
00000310: bf39 ccbd 0d9b 9fbd c317 19bd 945a 20bc
00000320: 768a af3d df9a 033d ddc1 d4bc 8469 acbd
00000330: 5e24 2ebb 1e9a 913b 0ff3 6fbd 083e ae3d
00000340: be40 68bd fac7 8fbd 295b ec3c 15b1 d73b
00000350: 67b5 d6bd 3d90 e63d 8301 97bd a3fe 2dbd
00000360: f86a d43d 6587 a03d 4534 b83d 0efb 11be
00000370: fce5 febd dba8 2bbc c941 083e 4623 b23c
00000380: 762d 07be 4e93 8e3c e99b c9bd 32ce 9439
00000390: 7ced 8ebd 75f0 dd3d bcf2 863d 8d68 a93d
000003a0: 6f51 f0bc 3f92 02be 2423 b63b e73b c6bb
000003b0: 516f 9cbc 20da 6bbd 3d16 da3d f8d2 d6bc
000003c0: b432 4bbd 7064 393d 1d79 f53c 92e8 103e
000003d0: 8bce 6f3d a1e9 e0bc 653e 7e3d 107c 033e
000003e0: fbac 7cbe 7d2e 0f3d 06bb 00bd 273c a63d
000003f0: 95e0 093d f856 b8bd bed6 183d b7eb 0f3e
-0.14057943 -0.11442087 0.2046907 0.11614593 0.09251294 0.03324545 0.0078350995 0.056147676
-0.1083298 -0.0186425 0.11970014 -0.1091997 -0.0762125 0.14984713 -0.017065194 -0.044156652
0.005657562 0.049249616 0.027676212 -0.052996185 0.047070563 0.0035130335 -0.11177425 0.1331144
-0.077944085 -0.0026900745 -0.0089908475 -0.11975417 -0.13943157 0.11086887 0.088012084 -0.08751523
-0.06452852 0.106306426 0.012846637 0.019601112 -0.07462816 -0.042392503 0.011023943 -0.025640104
-0.08241276 0.040544257 -0.014594113 -0.03273968 0.012007814 -0.014795871 0.09282958 0.09949429
0.03522962 -0.052157022 0.032086764 0.061792653 -0.06670727 0.1288718 -0.1069382 0.09498971
0.01900394 -0.04090851 0.14623092 -0.066547655 0.004006107 0.0015316459 -0.0034937304 0.09668513
-0.069415994 -0.009792357 -0.08090371 0.13677005 -0.100249216 -0.115613244 0.0089051435 0.06679807
0.09995074 -0.12151084 -0.08106244 0.0048121153 -0.0015877244 0.012814194 0.06405847 -0.04292144
0.073441036 0.04419287 -0.08985032 0.06860167 0.033663683 0.09175508 -0.11191044 -0.09445756
0.018351862 0.117901504 0.0013650865 -0.058419157 0.075294584 0.024368465 0.13717028 0.023496335
-0.07982294 -0.05981304 0.17242448 0.048055142 -0.09681651 -0.012392716 -0.04637466 -0.18218108
0.08560741 -0.056098927 0.0021892516 -0.036894854 0.050615385 0.094458416 -0.072484985 -0.09838949
0.041677695 0.07978022 0.10462414 0.04233045 -0.06560118 -0.027284333 -0.12678933 0.0926062
0.044799298 0.019249689 0.11801527 0.119497284 0.004109648 -0.09736825 0.16440874 -0.0015626597
0.01732738 0.08230754 0.04694858 -0.011700204 0.04841852 -0.0979668 -0.0010715564 0.22360495
-0.074509256 -0.14215514 0.039435625 -0.1180686 0.029438801 0.045094475 0.15238947 0.032608923
-0.09055878 0.063524626 -0.011157831 0.08932168 0.07503192 0.113768 0.06846664 0.08105929
-0.101309426 0.023723906 0.0015865437 -0.06559458 0.0037640356 -0.08882631 0.07827801 0.08345205
-0.157743 0.06050792 -0.04083874 -0.1305963 0.19271527 0.023027886 0.080634736 -0.05243396
0.017620428 0.041791957 -0.14429747 0.008239188 -0.0059890538 -0.08942651 -0.13475712 0.101763815
0.094622396 0.040785182 0.114320405 -0.07512824 -0.03262543 0.04914986 -0.030595258 0.15625624
-0.128263 0.11585777 -0.013250864 -0.025616264 0.12329771 -0.034799166 -0.03494271 0.085592955
-0.10147816 0.03403912 0.08181033 -0.03869355 -0.09971952 -0.077932455 -0.037376177 -0.0097872205
0.08571331 0.03213012 -0.025971347 -0.08418563 -0.002657197 0.004443421 -0.058581408 0.08507925
-0.056702368 -0.070205644 0.028852062 0.006582389 -0.104838185 0.1125798 -0.07373335 -0.04247917
0.10371965 0.078383245 0.089943446 -0.14255926 -0.1244621 -0.01047727 0.13306345 0.021745335
-0.13200936 0.017404225 -0.098441906 0.00028382387 -0.0697889 0.10836879 0.06589267 0.082718946
-0.029335706 -0.12751101 0.0055583883 -0.0060496214 -0.019096049 -0.057581067 0.10648773 -0.026223645
-0.0496089 0.0452618 0.029964978 0.14151219 0.058546584 -0.027455153 0.062071223 0.12840295
-0.24675362 0.034956444 -0.03142836 0.08116942 0.033661444 -0.09000963 0.03731417 0.14054762

future_conv2.bias f4 [8]
00000000: 803c bdbd d596 c8bd 41e6 b53a d0ab 8fbd
00000010: 5a98 903d 6919 07be d320 313d 0ad8 023e
-0.09240055 -0.09794394 0.0013877825 -0.070151925 0.07060309 -0.13193287 0.043244194 0.12777725

future_fc.weight f4 [32, 32]
00000000: b1a7 1e3c 7b66 9d3d e0b4 04be 2f31 093c
00000010: e46a adbc 6ac7 81bd 48fc 303e 0237 d8bd
00000020: 8e94 ebba dccb 1b3c f34a 133c 4ede 18bd
00000030: f341 473d ea0e de3c 7437 453d 839b 00be
00000040: 0f08 1c3d 8a50 76bd 8d0d 613d 3a8f 21bd
00000050: 6b61 5ebc 2d69 be3c 37ef 82bd 0e1a 953d
00000060: 71fe 0f3d 15c0 b93c c9a9 d4bd 2e4c fb3c
00000070: 30e2 283c a478 563c 995e 9abd a437 d93c
00000080: ca3a e0bb 89e7 c6bc a4a1 cfbb 9fd7 143d
00000090: 16fe bebc 894d a23d 2358 e9bd 6fb3 903c
000000a0: 0ad8 0c3d ec57 143b 394a 193c 0b10 8cbd
000000b0: 0202 213b 61fd 99bd b8a7 b83d 0c9c 7abc
000000c0: c1f8 2ebd 852b a53d c755 3b3d e4bc 18bc
000000d0: 4754 0e3d 7df0 d63a 5101 8bbd b101 99b9
000000e0: 6eb9 823d 183c 63bc 34fd 543d 2d0b 653c
000000f0: 279c 38bb 0e5a 7c3d ffdd e9bd 055a a43d
00000100: f0c7 783d 4abf 07bd 3a6b b83c 3bce c9bd
00000110: 6974 d2bc 5a62 f139 2482 023d 7076 bd3c
00000120: c15e e43c 8fbc 453b d3f2 9fbd fd75 2e3d
00000130: 610c 50bd 20b6 96bd 15fb ab3d 08d4 4e3d
00000140: d9b5 59ba b74b e5bc a246 d03d 3499 84bd
00000150: f53b 92bb 0218 b3bb a984 f4bd f961 013e
00000160: 0d13 333d 7157 bcbd 92d3 35bc d8dc 1bbe
00000170: f444 26bd 4f96 5b3d b375 d23c 0825 43bd
00000180: 49d0 b7bc f3a7 cabd baa8 6a3d 26ab 833d
00000190: ff01 8ebd 9f9b 24bd 119e d83d 20ea 2b3d
000001a0: cdd2 4cbd 7e9e 0a3c 0e2b da3d 063e 82bd
000001b0: 9235 13be 2428 b93c effd f5bc cbdf 0e3e
000001c0: 2a8a 1e3d 7a19 1ebd f6cb ed3c 6060 aabd
000001d0: dded 613d 4bc0 cdbb ee7d b0bd c5ad 523d
000001e0: 422b 01be 2bac 21bc 102a 2ebd 9f78 4dbe
000001f0: 9f09 e1bc 00dd ff3c 9d13 abbc 20ff c03a
00000200: b13f b33c 46a7 36bd 4074 2c3d 918b c4bd
00000210: acbf bb3c cc67 cf3d 36ad 89bd 3851 8abd
00000220: ea68 283d 12fe 3b3b 9b5d f0bd 425d 833d
00000230: 5c72 92bd fcf7 c7bd 73b4 433d 637e 1f3e
00000240: 2081 8dbc 5870 8abd 3485 b1bd 457d ee3d
00000250: 9843 1cbd a50b 2e3d 8ed4 b8bc 41b3 453d
00000260: 343a e1bd 1c31 2ebd 8b52 abbc 9cb3 dabd
00000270: 0afe 44bc ffe0 8d3c f6d5 4b3d e890 dcbd
00000280: 9be4 ab3b 1eca dbba 15fb 473d 8190 99bd
00000290: ce66 5a3c 2aee dfbd 703c 61bb 569d 953d
000002a0: b16b 123d bbc1 37bc fa50 a63c 3aee 56bd
000002b0: 13dc 87bd 64f3 a73c 2943 be38 09fc 333d
000002c0: b3be 27bd 973f 3f3d ee03 8d3d d11d 9fbd
000002d0: 99dc 443c 0b05 d1bc d74b 63bd 7736 5e3d
000002e0: 3a15 823c 9fbb 8bbd 2c16 e73d 8c4d e9bd
000002f0: 01af 8dbc 11b8 00bd 1c0f a8bb 3c25 563d
00000300: 4b37 d23c 18cc 373d c16f b3bc d286 7bbd
00000310: cb9a acbc 6d22 13bb 244d b43c 9987 553d
00000320: 9b92 47bc 8c23 173c 3df2 beb9 fdfc 263d
00000330: 52f0 1a3d ac5d cd3d 65d5 2bbe bfdd 303d
00000340: a822 303d 648d afbd f804 d93b eabb 84bd
00000350: 03df 4bbd 3da0 e73c 1acf 8b3d 7713 91bd
00000360: d428 513d b63e 89bd e072 1ebd 4925 d73d
00000370: b005 17bc 0665 ac3a 1832 8e3d b8a5 cebc
00000380: e452 83bd 2b61 f7bb 5079 803d 207d a4ba
00000390: 5f55 c8bd 47e6 ea3d 842f 083d 2523 a0bd
000003a0: dc28 3fbd 7c34 9c3d 4e14 16be ecf3 853d
000003b0: 0706 483d e879 57bd df62 eabc 8089 56bd
000003c0: 11f4 a7bc ccb6 5abd 6122 b1bc c548 df3d
000003d0: 5dde bbbd 604e 37bc f9c1 ac3d 96f0 ca3c
000003e0: 3f5f e33d e199 45bd 3f68 c03d de1c a63d
000003f0: f863 173d 6cb7 22bd 53cd 853d b82e b0bd
0.009683535 0.07685562 -0.12959623 0.008373543 -0.021169133 -0.06336863 0.17283738 -0.10557367
-0.001797335 0.009509053 0.008990037 -0.03732138 0.04864688 0.027106721 0.048148587 -0.12559323
0.038093623 -0.0601354 0.054944564 -0.039443232 -0.013573031 0.023243511 -0.06393283 0.0728036
0.035154764 0.0226746 -0.103839464 0.030675974 0.010307834 0.013090286 -0.07537574 0.02651579
-0.0068429457 -0.024280326 -0.0063364077 0.036338445 -0.023314517 0.07924945 -0.11393764 0.017663686
0.03438572 0.0022635413 0.009356075 -0.068389975 0.0024567847 -0.07519031 0.09016365 -0.015295994
-0.0427177 0.08064941 0.0457361 -0.009322379 0.034748342 0.0016398575 -0.067873605 -0.00029183694
0.06383024 -0.013869308 0.051999286 0.013979715 -0.0028169246 0.06160932 -0.114192955 0.08024982
0.06073755 -0.03314141 0.022512067 -0.098537885 -0.025690274 0.0004604038 0.031862393 0.023127764
0.027877213 0.0030172204 -0.07809987 0.04259299 -0.050793055 -0.07358956 0.083974995 0.050495178
-0.00083049905 -0.027990205 0.10169722 -0.06474534 -0.004462714 -0.0054655084 -0.119393654 0.1263503
0.04371934 -0.091963656 -0.011097806 -0.15220964 -0.040593103 0.053610142 0.025690889 -0.047642738
-0.022438185 -0.09895315 0.057289816 0.06429128 -0.069339745 -0.040187474 0.10577024 0.041971326
-0.050005723 0.008460639 0.10652743 -0.06359486 -0.14375904 0.022602148 -0.030028312 0.13952558
0.038705982 -0.038598515 0.02902792 -0.08319163 0.055158485 -0.0062790266 -0.08617769 0.05143525
-0.12614158 -0.009867708 -0.042520583 -0.20065545 -0.027470408 0.03123331 -0.020883376 0.0014724471
0.021880956 -0.044593118 0.042103052 -0.09596933 0.022918545 0.101272196 -0.067224905 -0.067537725
0.04111568 0.0028685373 -0.11736604 0.06414272 -0.071507186 -0.09764096 0.04777951 0.15575556
-0.017273486 -0.06759709 -0.086679846 0.11644987 -0.0381504 0.042491574 -0.022562291 0.048266653
-0.109974295 -0.042527303 -0.020913383 -0.10678789 -0.012023458 0.0173192 0.049764596 -0.10769826
0.0052457578 -0.001676861 0.048823435 -0.07498265 0.013330175 -0.10934098 -0.00343683 0.073054
0.035747234 -0.011215623 0.020302285 -0.052473284 -0.06633773 0.0205018 9.0724156e-05 0.04394153
-0.04095335 0.046691503 0.06885515 -0.07769359 0.012015485 -0.0255151 -0.05549225 0.05425116
0.015879262 -0.06822895 0.11283526 -0.11391744 -0.017295362 -0.03142554 -0.0051287543 0.052281603
0.025661131 0.044872373 -0.021903874 -0.06140787 -0.021069905 -0.002245094 0.02200944 0.05213127
-0.01218095 0.009224784 -0.00036420106 0.040768612 0.037826844 0.10027632 -0.16780622 0.043180224
0.0430018 -0.0857189 0.006622907 -0.06481154 -0.049773227 0.02827465 0.06826611 -0.07083791
0.051064327 -0.06701414 -0.038683772 0.105051585 -0.009217665 0.0013152666 0.069431484 -0.025225505
-0.064122945 -0.007549425 0.062731385 -0.0012549497 -0.09781908 0.11469703 0.03324844 -0.07819203
-0.046669826 0.07627198 -0.14656183 0.06540665 0.048833873 -0.052606493 -0.028611599 -0.052377224
-0.020502122 -0.053396985 -0.021622838 0.109025516 -0.09173272 -0.01118812 0.08435435 0.024772923
0.11102151 -0.048242453 0.09394883 0.08110975 0.036960572 -0.039725706 0.06533303 -0.08602661

future_fc.bias f4 [32]
00000000: 83a8 52ba 6790 a0bb 6069 523c 518b ae3c
00000010: 079a 753c 44d3 973b 36b8 4cbb 5904 5bbc
00000020: 18bd b5bb 6dbb b3ba d192 203c 2b23 113b
00000030: d097 aa3c 16ce efba 2c9e 00bc d101 c83a
00000040: a2b6 153c e14f e03b c666 863b 505d 663b
00000050: 344d 36bc 5057 b9bb 0a86 783c 08ee 4abc
00000060: a5bc 653c fbca d03b 138f 9db7 a261 193c
00000070: b753 a2bb f936 793a 7958 edbb aef0 93bc
-0.00080359745 -0.0049000266 0.012842506 0.021306666 0.014990336 0.004633339 -0.0031237728 -0.013367736
-0.0055462234 -0.0013712473 0.009800629 0.0022146206 0.020824343 -0.0018295671 -0.007850211 0.001525933
0.009137781 0.00684546 0.004101607 0.0035150833 -0.011126805 -0.0056561604 0.015168676 -0.012385853
0.014022027 0.0063718534 -1.8782483e-05 0.009361656 -0.0049538272 0.0009506788 -0.007243213 -0.018059101

combine_fc1.weight f4 [32, 64]
00000000: 9bf8 7fbc a957 283d c771 08be 5a96 3a3e
00000010: 50ec 1dbe c593 a8bd a5f3 ccbd bd66 d2bd
00000020: e4d0 2bbe d733 92bd 832a 083d 7137 d7bd
00000030: de7a 9d3d 497b 303d 09af 073d 0170 3d3e
00000040: 019e 2d3d 65fd 11bd 2fc6 3d3d c2c5 54bd
00000050: 1229 febc c59e b53d 7bb9 0fbb 22a1 d93d
00000060: 6616 873d fac6 a4bd 1c4b c4bc 0b2c 14bd
00000070: dab0 48bd f297 a93d 42cf 01be 9ce7 f43d
00000080: 4a5f d3bd e488 d7bd c8ba 37bd 6e6f b03d
00000090: f1e9 3e3d 3df2 113d ac89 babc 59ae 6cbc
000000a0: ddaa bbbd c9d6 eaba dcb5 5d3c 6617 873d
000000b0: 23d5 183d 780c c4bd 9ab2 b73c 2464 bbbd
000000c0: cf77 17ba 7c7c c4bd 9432 833d ef26 02be
000000d0: 095e a63d 7817 5f3d 1137 38bd 2053 e1bd
000000e0: 2730 a3bc 7449 abbd 3beb 4a3b 52c8 c0bd
000000f0: fd4f 7f3d 0760 e6bd 853c 9ebd 4d45 5cbd
00000100: 4899 ba3d 21ec 06bd 7c92 75bd 475d 6cbe
00000110: 8aa2 943c 78b1 39be ecf5 6f3c f92d eb3d
00000120: a9a0 7b3e 39b0 263d 661b 913d b144 f1bd
00000130: efb5 a2bd 7c4a 74bd cd5b f93d 5b1f d8bd
00000140: 5a2e d33d 1115 8cbd 7f09 4abe bfad d5bd
00000150: 8045 a93d e67b c03d 86ab 213c 0070 be3d
00000160: 998a 103e 446d 093e 1f22 ff3d 8b2b 71bc
00000170: 1b02 78bd 310e e5bd 6521 d33d 4df2 eebd
00000180: 0f75 7cbd 055b 84bd 7999 e5bd f957 36bd
00000190: fe7e 9c3d 6d3b a5bd a3c7 c93d d08a 4bbd
000001a0: 25af e5ba 1ebf aa3d 6146 9f3d 8e23 d73c
000001b0: 2e54 99bd 2d2d 7ebd 4695 c13c d78e 973d
000001c0: 37f2 873d 6aeb 40bd 913a 26be 1cf9 dbbd
000001d0: 7599 8a3b 2e4c 023d 4f8c 2dbe 95a5 0bbe
000001e0: 9331 2c3d 3d09 c3bc 5ff8 a7bd 767c b2bd
000001f0: 124d f3bc c00c 1b3e 2c4c 813d 0ba9 22bd
00000200: fc19 d7bb ab1a 0c3b 3919 87bd a518 4ebd
00000210: 5b9b 0cbe 482e 39bd 896a 95bd 2963 6cbe
00000220: 5bc2 ccbd 55f2 b6bd 0b3b 0e3e 44c3 013e
00000230: c9ee 323e 0aae a83d 525a 283b 6e5e 8c3d
00000240: fa55 2abe 5e9b 253c dde7 793d eba1 82bd
00000250: 4556 70bd c37c 0e3e 23a1 b33d 5ba6 82bc
00000260: 9ccd ef3d 186f cebd 8ab2 553d 89f2 c23c
00000270: 8544 843d 1902 78bd 3a4f cabd c19b c33d
00000280: 0f2e 453d 4644 133d a6b9 f1bb 3ed7 d1ba
00000290: b473 8bbd e22e 3fbd 2b99 81bd 92d5 5e3c
000002a0: 9f20 a9bc a310 cb3d fe3c 0b3c 464b 02bc
000002b0: a0c1 7c3d 638d 3d3d dc92 003d 0bd8 a33c
000002c0: 4968 8a3b 0c28 a1bd a86c b93c 6e81 a5bd
000002d0: ee17 a73d 1124 bf3d 518a fc3b 0e07 023e
000002e0: 8af1 a4bd 72d2 b33d ab47 903d cae9 29bb
000002f0: cd91 e7bd 4db8 a7bc cf5b 0ebd 66df 883c
00000300: c847 8fbe 3d51 e8bd 0744 5b3c f891 07bf
00000310: 0ac9 21be 45aa e83b 9d56 3bbf 7331 f7bd
00000320: e84e 363f 52b6 8e3c a694 683e b0eb acbc
00000330: e32f e83e b885 9e3d 981a 8b3e 7ff4 70be
00000340: ea9b 60be 3a72 ddbd 3be7 25bf 091b fdbd
00000350: 9da4 3b3f dbf3 d53d 4322 33be 3264 57bd
00000360: 39b2 6c3e 39fe ebbe 74aa 2e3f 16b0 113f
00000370: b123 5dbd 669e bdbe 3816 0f3e a33b 083f
00000380: eb05 b6bc 23dd b6bc 5cca 193d 8554 2c3d
00000390: c75d 313d 77dd 2fbd 6f38 c9bc c0a4 0c3d
000003a0: 6d9f 27bd afe6 013e ec4e 38bd 34eb 64bd
000003b0: c857 58bd 1e5f f43c 9f60 a03c aed2 123e
000003c0: 5205 e33d 9a1b c03d 1094 ebbb 7ebb 8ebd
000003d0: 7afb 5e3c 2487 86bd f2bf 883c 682b 9dbd
000003e0: 6331 35be 6744 1a3d 5c8f e6bd 50c1 f43a
000003f0: b534 cbbc 3ab0 0f3e 32ad b33d 9bbf 43bd
-0.015623237 0.041099224 -0.13324653 0.18221417 -0.15422177 -0.0823131 -0.10007409 -0.10273502
-0.16778904 -0.07138794 0.033243667 -0.105086215 0.07689451 0.043086324 0.03312591 0.18499757
0.042387012 -0.035642046 0.04633158 -0.05194641 -0.031025443 0.088681735 -0.0021930623 0.10626437
0.06596069 -0.08045764 -0.023961596 -0.036174815 -0.048996784 0.082809344 -0.12676719 0.119582385
-0.10320909 -0.10524157 -0.044855863 0.086150035 0.046609823 0.035631407 -0.022770725 -0.014445865
-0.09163449 -0.0017916794 0.013532128 0.0659626 0.037312638 -0.09572691 0.022424031 -0.0914996
-0.0005778046 -0.09594056 0.064061314 -0.12710164 0.081234045 0.05446574 -0.04497439 -0.11002183
-0.019920422 -0.083636194 0.0030962962 -0.09413208 0.062332142 -0.112487845 -0.07726387 -0.053777028
0.09111267 -0.032940034 -0.05995415 -0.23082457 0.01814391 -0.18134105 0.014646035 0.11483378
0.24573006 0.040695403 0.07085304 -0.1178068 -0.07944857 -0.059641346 0.12175713 -0.105528556
0.10311575 -0.068399556 -0.19730185 -0.1043353 0.08265209 0.09398632 0.0098675545 0.09298706
0.14115371 0.13420588 0.1245768 -0.014719854 -0.060548883 -0.111843474 0.10309104 -0.11667309
-0.061635073 -0.06462673 -0.11210913 -0.04451749 0.07641409 -0.08067975 0.09852531 -0.04969293
-0.0017523511 0.08337234 0.077770956 0.026262071 -0.07486759 -0.0620548 0.02363075 0.074002914
0.06637996 -0.04709951 -0.16233279 -0.10740873 0.0042297193 0.03181093 -0.16948055 -0.13637383
0.042039465 -0.023808116 -0.0820167 -0.08715145 -0.029699836 0.15141582 0.06313357 -0.039711993
-0.006564377 0.00213782 -0.06596608 -0.05031647 -0.13731138 -0.045210153 -0.072957106 -0.23084702
-0.09998008 -0.0893294 0.1388971 0.12672144 0.17473902 0.0823632 0.00256886 0.068539485
-0.1663436 0.010107843 0.061012138 -0.0637854 -0.058676023 0.1391478 0.08770969 -0.015948465
0.11709139 -0.10079783 0.05217222 0.02379729 0.064583816 -0.060548875 -0.098783925 0.09551192
0.048139628 0.035953782 -0.0073768673 -0.0016009582 -0.06809178 -0.04667557 -0.063280426 0.013600724
-0.020645438 0.099152826 0.008498428 -0.007952517 0.061708093 0.046277415 0.031390056 0.020000478
0.0042238575 -0.078689665 0.02263482 -0.080813274 0.08158861 0.09333051 0.0077069183 0.12698004
-0.080538824 0.08780374 0.070449196 -0.0025926703 -0.11307106 -0.020473624 -0.034755524 0.016708087
-0.27984452 -0.1134362 0.013382918 -0.52957106 -0.15799347 0.007100376 -0.73179036 -0.120699786
0.7121415 0.017420921 0.22712955 -0.021108478 0.45349035 0.077403486 0.27168727 -0.23530768
-0.21934476 -0.108128026 -0.64805955 -0.12358672 0.73298055 0.10446902 -0.17493539 -0.052585788
0.23114862 -0.46092394 0.6822884 0.5690931 -0.053989116 -0.3703491 0.1397332 0.53216
-0.022219619 -0.022322243 0.0375465 0.04207279 0.043302324 -0.042935815 -0.024563042 0.034336805
-0.040923525 0.12685655 -0.04499714 -0.05588837 -0.05281809 0.029830512 0.019577323 0.1433818
0.11084999 0.093802646 -0.0071892813 -0.06969355 0.013609761 -0.06568745 0.01669309 -0.07674295
-0.17694621 0.03766289 -0.112578124 0.0018673334 -0.024805406 0.14032069 0.08773269 -0.04779015

combine_fc1.bias f4 [32]
00000000: 558b 433d 2fc2 e9bc e398 baba f1d1 023e
00000010: f165 0fbd 7bc5 c0bc 9870 ce3d 00e5 bfbd
00000020: 184b 303d dceb c2bc 4013 3dbd bfbb 983d
00000030: 8513 a03c 1168 debd f7e6 c53d a38c a5bd
00000040: e880 c63d 0306 3bbd 8724 553d fa0e e73c
00000050: e2c3 a23b 0d28 663d 9643 08bc 7bc1 54bd
00000060: 17f9 903d 80e6 983d a063 33bc d5dd e13d
00000070: 90a1 d93b 11f1 65bd e563 4cbd b873 a93d
0.0477403 -0.028534977 -0.0014236238 0.12775399 -0.03500933 -0.023531666 0.10080069 -0.0936985
0.043040365 -0.023794107 -0.046160936 0.07457685 0.019540558 -0.10859693 0.09663194 -0.08083465
0.09692556 -0.04566003 0.05203679 0.028205384 0.0049671987 0.05619054 -0.008316895 -0.05194233
0.0707876 0.074658394 -0.010949045 0.11028639 0.006641574 -0.056138102 -0.049899954 0.08274025

output.weight f4 [1, 32]
00000000: 4c67 e0bd 44a2 3f3e f2f2 6cbe bf6c b83e
00000010: f8ab 47be 5a40 803d 46e1 3f3e d087 733e
00000020: f60a 6ebe dd6e a4bb 5096 70be 6c6d 33be
00000030: 1733 4b3e 3d41 6ebe 72ab 573e e852 b93e
00000040: 2665 ff3d f878 79be f683 7d3b b1f3 01be
00000050: 88b0 a33d dfc4 febe 964b dbbd 71bc 503e
00000060: 7184 773e 10c7 133e 8409 edbe 4010 fd3d
00000070: df2f 243e c99d 0fbe dc84 f83d 5102 bdbe
-0.10957202 0.18714243 -0.23139551 0.36020467 -0.19499195 0.06262274 0.18738279 0.23782277
-0.23246369 -0.0050180987 -0.2349484 -0.1752221 0.19843708 -0.23267074 0.21061495 0.36196065
0.124704644 -0.24362552 0.0038683391 -0.12690617 0.07992655 -0.49759576 -0.10707776 0.20384385
0.24171616 0.14431405 -0.46296322 0.12356615 0.16033886 -0.14025034 0.12134716 -0.3691583
