experiments/exp042/outputs/final_model_conv.pt (torch, 22637 bytes, 13 tensors)

base_fc1.weight f4 [16, 5]
0.52253634 0.27080056 -0.10440035 0.13726631 -0.16031788 -0.11138045 -0.0701107 0.020585252
0.46510825 -0.24710484 0.18207604 0.07482804 -0.06299868 -0.018741073 0.042725287 0.5901431
0.2786492 -0.14413565 -0.17646061 0.2683391 -0.07975846 -0.07700795 0.036616366 0.28535303
-0.26894212 -0.11552587 -0.057399448 0.0376595 -0.0825417 -0.3621871 -0.55766094 -0.33612674
0.26329187 0.19384374 -0.058400907 0.16969101 0.07968119 -0.02900869 0.20346963 0.043527815
-0.101108566 -0.0727607 0.03900731 0.23780006 0.15592873 0.0883398 0.06035498 0.034806766
0.2519168 -0.2726549 -0.1748024 -0.0693403 0.0792596 0.06574372 -0.08257358 0.16658935
0.06535767 -0.05353864 0.34180132 -0.27225292 -0.5534475 -0.3068049 0.1337745 -0.21507525
0.14331104 0.6087219 0.32680476 -0.16534714 -0.25401357 -0.03106137 0.15919581 0.085453585
-0.021838747 -0.19362849 -0.4262829 -0.5149128 -0.27452642 0.10990458 0.2712727 0.2384743
00000000: f1c4 053f 5fa6 8a3e dacf d5bd 8a8f 0c3e
00000010: 5f2a 24be 6f1b e4bd 3396 8fbd 67a2 a83c
00000020: ab22 ee3e 0d09 7dbe 2472 3a3e 723f 993d
00000030: 7405 81bd e186 99bc b600 2f3d 9e13 173f
00000040: 1cab 8e3e 4c98 13be 17b2 34be be63 893e
00000050: 6758 a3bd 58b6 9dbd 0bfb 153d cb19 923e
00000060: c8b2 89be d498 ecbd af1b 6bbd d940 1a3d
00000070: 9f0b a9bd 9670 b9be dec2 0ebf ce18 acbe
00000080: 31ce 863e f97e 463e ca35 6fbd 7bc3 2d3e
00000090: e42f a33d a2a3 edbc 585a 503e 394a 323d
000000a0: 0212 cfbd 9003 95bd 21c6 1f3d dc81 733e
000000b0: c8ab 1f3e 7feb b43d c936 773d 8a91 0e3d
000000c0: 3dfb 803e 6c99 8bbe 66ff 32be 4a02 8ebd
000000d0: db52 a23d a5a4 863d 561c a9bd 6696 2a3e
000000e0: 3eda 853d 554b 5bbd 9500 af3e bc64 8bbe
000000f0: bcae 0dbf 8815 9dbe 2ffc 083e b03c 5cbe
00000100: 21c0 123e 33d5 1b3f f452 a73e c350 29be
00000110: 110e 82be 6a74 febc 3a04 233e 4a02 af3d
00000120: 2ce7 b2bc 8c46 46be c141 dabe 53d1 03bf
00000130: ba8e 8cbe a715 e13d 41e4 8a3e 9b32 743e

base_fc1.bias f4 [16]
-0.28448445 -0.37187046 0.2508761 -0.23145394 0.29501608 -0.06915025 0.24582165 -0.39820668
-0.23786768 0.14299883 0.08395534 -0.13860226 0.33043092 0.3547445 -0.27086893 -0.29720312
00000000: f2a7 91be ce65 bebe d572 803e 4302 6dbe
00000010: 590c 973e a59e 8dbd acb8 7b3e bfe1 cbbe
00000020: 9693 73be 496e 123e c7f0 ab3d c0ed 0dbe
00000030: 3e2e a93e 12a1 b53e 55af 8abe 022b 98be

base_fc2.weight f4 [32, 16]
0.28244695 -0.15911375 0.0061054183 -0.24883406 -0.2395044 -0.05185295 -0.061556213 -0.09588569
-0.09404265 -0.08566749 -0.29118162 -0.07737694 -0.21451955 -0.16716819 0.30421174 0.0035863197
0.24039383 -0.16334549 -0.37114796 0.24317631 0.098630324 0.4378362 -0.38215292 -0.28987098
-0.03589348 -0.22131494 -0.08443956 -0.3625948 -0.48964125 0.08094146 0.23273031 -0.28279915
0.23738165 -0.088364124 0.26174808 0.050361253 -0.2966115 0.17856972 -0.08139091 -0.017470732
-0.294661 -0.20535438 -0.002575475 -0.0053072493 0.109180234 -0.25818947 0.26982462 -0.19760983
0.036958013 0.1300114 -0.0117574055 0.3600403 0.4219592 -0.022304635 -0.034633793 -0.28985438
0.114149414 -0.29231694 0.33149394 -0.37190032 0.0006513522 0.24790297 -0.0059786257 -0.23231137
0.3129844 -0.044492256 0.1364933 -0.18325284 0.0627879 -0.15217857 -0.17624253 0.24546453
-0.05642674 -0.03252552 -0.171826 0.010270126 0.1208139 0.0044508358 -0.12145859 -0.19487314
-0.2051392 0.12586056 0.11202593 -0.14093854 0.19340205 0.2897907 -0.019401401 -0.214806
0.17284721 0.062204696 0.115916796 -0.13915104 -0.16728336 0.12174922 -0.04543641 -0.09288452
0.52437925 0.36634737 -0.46132755 0.3034555 0.34982458 0.8151582 -0.32949486 -0.22668967
-0.031245684 -0.50948054 0.6431391 -0.5729954 -0.33208254 0.27272266 -0.25849795 -0.6707219
0.056300286 0.051857695 0.1880979 0.23923743 -0.26561955 -0.08299786 -0.18976761 0.28207454
-0.0319385 -0.032239776 0.119918235 -0.097247384 -0.2627854 0.30139893 -0.08989508 -0.17881078
-0.3074198 0.10812356 0.30804324 -0.07795752 -0.33329058 -0.40249312 -0.0995094 0.3248225
0.016591962 0.2877443 0.020694444 0.21723993 0.14459066 -0.36498806 -0.15745306 -0.13284038
0.09106225 -0.17012806 0.021954544 -0.21846156 -0.10905493 -0.2686713 -0.13093318 0.13841751
-0.14001961 0.20563325 -0.0563053 -0.16285099 0.02550206 -0.16915177 -0.085831285 -0.24381948
0.13571854 -0.2213885 0.16256635 0.045013566 0.07766003 -0.23950583 0.214567 -0.038867187
0.009855152 0.23357399 -0.12532046 0.0031292436 0.010423784 -0.3210137 0.18174791 -0.2188876
0.13401406 0.2658319 0.15007545 -0.027199063 -0.17226261 0.14183201 0.13698652 -0.27418622
0.033859275 -0.21733867 -0.104044266 -0.09311814 -0.15389147 -0.15908939 -0.21090809 0.32514504
0.038680103 -0.18601145 0.078688726 -0.37544823 -0.4661849 -0.44273946 0.36236337 0.09812055
-0.35040054 0.20167984 -0.24930331 0.12122382 0.23652656 -0.4513569 0.022424249 0.1180096
-0.2545117 0.2970986 -0.20371498 0.05366145 -0.048579905 0.037199978 0.27732942 0.08767582
-0.07193503 0.021984234 0.2668304 0.07165468 0.17854647 0.21297368 -0.082301185 0.13080722
-0.35830474 -0.039237745 0.21703629 -0.10271442 -0.18857862 -0.46945536 -0.0035916388 -0.11952767
-0.068367116 -0.022386802 0.1598662 0.08776885 0.0652865 -0.2190794 -0.16155328 -0.21456692
-0.03850773 0.16781911 -0.17354994 0.043037623 0.08108367 0.011755823 -0.15844083 -0.31969503
-0.11824489 -0.19498532 0.34301034 -0.19876081 -0.22861665 0.13351311 -0.011574263 0.12520595
00000000: e39c 903e b7ee 22be f60f c83b 5bce 7ebe
00000010: a440 75be c263 54bd 5e22 7cbd b75f c4bd
00000020: 6f99 c0bd 7072 afbd c215 95be cd77 9ebd
00000030: 03ab 5bbe 232e 2bbe a4c1 9b3e 7608 6b3b
00000040: cd29 763e 0a44 27be 1b07 bebe 3603 793e
00000050: b2fe c93d 112c e03e 8ca9 c3be f869 94be
00000060: 0b05 13bd 62a0 62be a6ee acbd 07a6 b9be
00000070: 42b2 fabe a3c4 a53d db50 6e3e 0dcb 90be
00000080: 2d14 733e 40f8 b4bd d803 863e 9a47 4e3d
00000090: 76dd 97be fbda 363e 47b0 a6bd c81e 8fbc
000000a0: cedd 96be 6b48 52be 4dc9 28bb 6fe8 adbb
000000b0: e399 df3d 6931 84be 7426 8a3e 3b5a 4abe
000000c0: 4961 173d b521 053e 22a2 40bc 3457 b83e
000000d0: 090b d83e 36b8 b6bc 2adc 0dbd cb67 94be
000000e0: 2bc7 e93d 91aa 95be 93b9 a93e b869 bebe
000000f0: 82bf 2a3a 47da 7d3e 59e8 c3bb 08e3 6dbe
00000100: 7e3f a03e 833d 36bd e6c4 0b3e a2a6 3bbe
00000110: f196 803d b3d4 1bbe ec78 34be 0e5b 7b3e
00000120: ba1f 67bd 7b39 05bd 28f3 2fbe 0844 283c
00000130: 476d f73d 51d8 913b 48bf f8bd d38c 47be
00000140: 0310 52be 97e1 003e da6d e53d 3152 10be
00000150: 300b 463e 725f 943e b0ef 9ebc 1bf6 5bbe
00000160: dcfe 303e 5aca 7e3d c965 ed3d 9c7d 0ebe
00000170: 544c 2bbe a857 f93d 871b 3abd 3d3a bebd
00000180: b83d 063f e291 bb3e 2033 ecbe 855e 9b3e
00000190: 351c b33e 35ae 503f 8db3 a8be 5621 68be
000001a0: f3f6 ffbc 516d 02bf c4a4 243f d4af 12bf
000001b0: b906 aabe 4ea2 8b3e d859 84be 6eb4 2bbf
000001c0: 219b 663d bc68 543d bc9c 403e a8fa 743e
000001d0: 49ff 87be c8fa a9bd 7152 42be 136c 903e
000001e0: f2d1 02bd db0d 04bd b197 f53d a329 c7bd
000001f0: cf8b 86be f650 9a3e e91a b8bd 2c1a 37be
00000200: 2166 9dbe e36f dd3d d8b7 9d3e 31a8 9fbd
00000210: 10a5 aabe 9413 cebe 96cb cbbd 224f a63e
00000220: deeb 873c 3953 933e 6587 a93c 2574 5e3e
00000230: 930f 143e b7df babe 603b 21be 4f07 08be
00000240: d87e ba3d 0d36 2ebe 04da b33c 63b4 5fbe
00000250: 3158 dfbd 498f 89be 5913 06be 52bd 0d3e
00000260: 4d61 0fbe 8691 523e 63a0 66bd 69c2 26be
00000270: b2e9 d03c 1f36 2dbe 50c8 afbd d0ab 79be
00000280: cdf9 0a3e abb3 62be cb77 263e 2560 383d
00000290: 390c 9f3d 0441 75be 74b7 5b3e 3333 1fbd
000002a0: 8177 213c 052e 6f3e 0254 00be ff13 4d3b
000002b0: 85c8 2a3c e85b a4be 201c 3a3e 1224 60be
000002c0: fb3a 093e 1e1b 883e 61ad 193e 92d0 debc
000002d0: 9c65 30be 693c 113e 3246 0c3e 2362 8cbe
000002e0: 06b0 0a3d 078e 5ebe 2915 d5bd b9b4 bebd
000002f0: ba95 1dbe 54e8 22be 4af8 57be 6979 a63e
00000300: 076f 1e3d c979 3ebe 8e27 a13d c03a c0be
00000310: caaf eebe bfae e2be b187 b93e 6df3 c83d
00000320: b367 b3be 2985 4e3e 5e49 7fbe 3244 f83d
00000330: 0534 723e 4018 e7be 0fb3 b73c 04af f13d
00000340: 5c4f 82be 4f1d 983e a99a 50be 1ccc 5b3d
00000350: b9fb 46bd 015f 183d 1ffe 8d3e 618f b33d
00000360: ac52 93bd 4818 b43c ff9d 883e b0bf 923d
00000370: e3d4 363e c615 5a3e 868d a8bd 54f2 053e
00000380: b873 b7be c2b7 20bd c33e 5e3e f05b d2bd
00000390: c11a 41be 745c f0be b361 6bbb ecca f4bd
000003a0: 0f04 8cbd 8764 b7bc f7b3 233e 28c0 b33d
000003b0: eeb4 853d 5a56 60be 396e 25be 6eb7 5bbe
000003c0: 48ba 1dbd c6d8 2b3e 13b7 31be 3848 303d
000003d0: 320f a63d 7f9b 403c 503e 22be 11af a3be
000003e0: 602a f2bd 3baa 47be 0d9f af3e f487 4bbe
000003f0: 7c1a 6abe a9b7 083e faa1 3dbc fd35 003e

base_fc2.bias f4 [32]
0.18959479 0.15724 0.14032498 -0.13605246 -0.109182164 0.2075868 0.0014691326 0.013031812
0.029291712 -0.16784613 -0.09882432 0.18546884 -0.054674607 -0.044262916 -0.23511046 -0.12017918
0.044696383 -0.14525527 -0.029245093 0.060961653 -0.057732955 0.065976486 -0.2398562 -0.087609015
0.14745829 0.15001345 -0.05808552 -0.07560488 -0.16158615 -0.10380488 -0.14174819 -0.042987604
00000000: 2325 423e 8603 213e 5ab1 0f3e 5651 0bbe
00000010: e69a dfbd a291 543e e98f c03a 6283 553c
00000020: 2cf5 ef3c dbdf 2bbe 6864 cabd 8beb 3d3e
00000030: 7bf2 5fbd 084d 35bd ccc0 70be 8020 f6bd
00000040: 8e13 373d ccbd 14be 6893 efbc edb2 793d
00000050: 6479 6cbd ae1e 873d dd9c 75be 5b6c b3bd
00000060: 4eff 163e 209d 193e 15eb 6dbd bbd6 9abd
00000070: d776 25be a797 d4bd 7026 11be c513 30bd

future_conv1.weight f4 [16, 1, 5]
0.084216885 -0.4221685 0.46189454 0.28551468 -0.3848728 -0.106265955 0.39123306 -0.1366429
-0.15406016 -0.18373464 0.28905421 -0.40034172 0.16426894 -0.10509972 0.062523656 0.516762
-0.26612654 -0.25120425 -0.1290674 0.19465554 -0.17239183 0.35040277 -0.41747758 0.28732532
-0.042772517 -0.13746412 0.16368388 -0.017130187 0.24435475 -0.28863457 -0.24932735 0.17938782
0.29730192 0.081481375 -0.30972213 0.14839867 0.021187099 0.15683003 -0.50282896 0.14031298
0.13680431 0.048072673 -0.29332748 0.19143051 -0.23061441 0.6573835 -0.19724482 -0.12900178
-0.3283175 -0.02481398 -0.11550108 0.2549378 0.072852746 0.27968624 -0.3633066 0.094038814
0.010727071 0.022085294 -0.39206806 0.26434705 0.14415482 -0.26020694 -0.083697945 -0.21402375
0.38054433 -0.18965204 0.24257554 0.24914849 -0.4547924 0.14386262 -0.13400759 0.21488072
0.23317236 -0.58536726 0.26483604 0.37307802 0.20050761 -0.5096433 -0.15702136 -0.029297274
00000000: e779 ac3d 7826 d8be 717d ec3e fb2e 923e
00000010: 0c0e c5be f7a1 d9bd b34f c83e 1eec 0bbe
00000020: f2c1 1dbe ef24 3cbe eafe 933e 97f9 ccbe
00000030: 1e36 283e 863e d7bd 670c 803d 844a 043f
00000040: bd41 88be d89d 80be 3f2a 04be c853 473e
00000050: 7c87 30be fe67 b33e 9fbf d5be 4e1c 933e
00000060: 3c32 2fbd 65c3 0cbe bf9c 273e 9b54 8cbc
00000070: 2238 7a3e e9c7 93be ab4f 7fbe 71b1 373e
00000080: f537 983e b5df a63d e693 9ebe d2f5 173e
00000090: 9190 ad3c 0d98 203e 66b9 00bf 35ae 0f3e
000000a0: 6e16 0c3e dae7 443d 052f 96be 5c06 443e
000000b0: 2f26 6cbe 494a 283f 8cfa 49be 0b19 04be
000000c0: 3b19 a8be b046 cbbc d58b ecbd 3587 823e
000000d0: d233 953d 0933 8f3e 5303 babe 6c97 c03d
000000e0: 99c0 2f3c 38ec b43c 25bd c8be 7f58 873e
000000f0: 529d 133e d839 85be d469 abbd 0b29 5bbe
00000100: b5d6 c23e 2534 42be b965 783e c820 7f3e
00000110: 8dda e8be b950 133e 4939 09be b109 5c3e
00000120: bcc4 6e3e a1da 15bf 9798 873e 1504 bf3e
00000130: de51 4d3e fc77 02bf 35ca 20be d600 f0bc

future_conv1.bias f4 [16]
-0.0007792308 0.20760468 0.00030103856 0.03054934 1.6458482e-05 -0.0007497901 -0.000656225 -0.0073266695
-0.20282504 -0.05717172 0.07416878 -0.25434026 -0.10852117 -0.00020887803 -0.0003353241 0.25811222
00000000: 4b45 4cba 5296 543e b6d4 9d39 9c42 fa3c
00000010: 5210 8a37 908d 44ba 8406 2cba 8f14 f0bb
00000020: 5eb1 4fbe e52c 6abd cde5 973d e338 82be
00000030: 5940 debd 4506 5bb9 70ce afb9 4927 843e

future_conv2.weight f4 [8, 16, 3]
-0.14040717 -0.13074297 0.18451656 0.1143196 0.09082992 0.031494353 0.03388692 0.07496307
-0.09580795 -0.020665275 0.12018198 -0.11344316 -0.08246789 0.1576425 -0.006616071 -0.06074092
-0.020999959 0.030457636 0.013872754 -0.08290245 0.01851955 0.003752788 -0.11368879 0.12403763
-0.080312364 -0.006011454 -0.011026486 -0.11448531 -0.13732503 0.112661175 0.0873995 -0.089872845
-0.066575676 0.10564273 0.011819965 0.0180229 -0.07452436 -0.041148536 0.011674918 -0.0070452862
-0.06605476 0.032828987 0.005855597 -0.0077281804 0.017696477 -0.015799671 0.0916775 0.09782087
0.019762423 -0.059007823 -0.003436184 0.05797977 -0.070783205 0.12530564 -0.09545728 0.098242335
0.015659224 -0.02549775 0.15769914 -0.048503004 0.00032516257 -0.0016256172 0.00037326934 0.053961884
-0.102041155 -0.047793195 -0.11087254 0.11941701 -0.13489299 -0.11750835 0.00078512577 0.06098444
0.094789565 -0.12762359 -0.08806065 0.009298411 -0.0004327981 0.014469018 0.06529137 -0.04006434
0.074465275 0.043000296 -0.091453694 0.0689571 0.030298686 0.08689237 -0.1150064 -0.121732965
0.0024151534 0.1098845 -0.008088745 -0.063717626 0.08539934 0.023125913 0.134477 0.02004862
-0.11421888 -0.05283207 0.14733222 0.042852715 -0.10427739 -0.016445696 -0.029260637 -0.12781382
0.10011008 -0.04633573 -0.0011621234 -0.05140235 0.037170652 0.03827202 -0.10958508 -0.1019911
0.041028794 0.102518335 0.055968348 0.009340976 -0.08368759 -0.05140134 -0.15041496 0.07634631
0.035992168 0.009758623 0.10832541 0.09463593 -0.024443856 -0.12733717 0.1585852 -0.005700951
0.017315552 0.0789285 0.042763673 -0.014763151 0.056239955 -0.09147405 0.0014801852 0.20633222
-0.100113206 -0.10982466 0.044472337 -0.1211303 0.07424398 0.039841477 0.14512417 0.025231214
-0.048571967 0.08224613 -0.0013422243 0.09449608 0.08020981 0.119313136 0.03215438 0.03326398
-0.118052945 0.026266178 0.009844442 -0.05723301 0.012904607 -0.061924405 0.07982038 0.10703035
-0.11597028 0.0860196 -0.0038569735 -0.08901808 0.22241606 0.00691638 0.061352618 -0.061105333
0.022291929 0.046692293 -0.13760681 0.03489475 0.018182473 -0.05726585 -0.12949765 0.10847996
0.09954636 0.03840841 0.112004325 -0.07533848 -0.0420009 0.037939977 -0.040922817 0.14962195
-0.14105412 0.10082245 -0.032565102 -0.043564174 0.11247307 -0.033481017 -0.03166525 0.08974706
-0.08645664 0.032783676 0.0790237 -0.034455188 -0.0967043 -0.07660211 -0.0549488 -0.031469446
0.067939974 0.023024121 -0.031077046 -0.09122133 0.013289378 0.030338814 -0.03869322 0.07975201
-0.06762209 -0.0779871 0.037614007 0.015100602 -0.09240414 0.106919505 -0.0879956 -0.06585251
0.11006343 0.08270834 0.09330753 -0.13411288 -0.12093802 -0.01004198 0.12928419 0.015543262
-0.13903339 0.017016798 -0.09798391 -0.00020822519 -0.066099904 0.11549805 0.07488736 0.08930659
-0.01921975 -0.13187693 0.0016065522 -0.005796376 -0.032675825 -0.056022562 0.10789334 -0.024935108
-0.06902424 0.01238125 0.008197097 0.14120974 0.05978679 -0.026043737 0.0571361 0.12056552
-0.2649216 0.03133346 -0.035936143 0.07342379 0.07926212 -0.044484735 0.0830169 0.09987287
00000000: e6c6 0fbe 7ce1 05be e9f1 3c3e 6520 ea3d
00000010: 0905 ba3d 3900 013d 03cd 0a3d 3d86 993d
00000020: f536 c4bd 394a a9bc f821 f63d e354 e8bd
00000030: ede4 a8bd 096d 213e a0cb d8bb 79cb 78bd
00000040: 1b08 acbc 4b82 f93c 8c4a 633c c2c8 a9bd
00000050: 50b6 973c 56f1 753b abd5 e8bd 7107 fe3d
00000060: cf7a a4bd bbfb c4bb 6fa8 34bc 4677 eabd
00000070: ef9e 0cbe e7ba e63d 82fe b23d 410f b8bd
00000080: d458 88bd 375b d83d 87a8 413c c3a4 933c
00000090: 3aa0 98bd 5e8b 28bd 2848 3f3c 25dc e6bb
000000a0: b847 87bd b077 063d 4fe0 bf3b ad3c fdbb
000000b0: 34f8 903c 506e 81bc 6ac1 bb3d 4f56 c83d
000000c0: cee4 a13c 30b2 71bd 9a31 61bb 327c 6d3d
000000d0: c9f6 90bd 1f50 003e 1b7f c3bd 4733 c93d
000000e0: c647 803c a8e0 d0bc e27b 213e 16ab 46bd
000000f0: 957a aa39 a912 d5ba 5db3 c339 2307 5d3d
00000100: f4fa d0bd ccc2 43bd 2411 e3bd e890 f43d
00000110: 6321 0abe 38a8 f0bd e6d0 4d3a d2ca 793d
00000120: 0821 c23d c2af 02be 2459 b4bd 5d58 183c
00000130: 2de9 e2b9 760f 6d3c 7bb7 853d 811a 24bd
00000140: 4081 983d 1421 303d 134c bbbd 6139 8d3d
00000150: f334 f83c a0f4 b13d 7a88 ebbd 224f f9bd
00000160: 8d47 1e3b 200b e13d a886 04bc 637e 82bd
00000170: d9e5 ae3d 8e72 bd3c 57b4 093e 013d a43c
00000180: 97eb e9bd 7166 58bd 42de 163e 5486 2f3d
00000190: 628f d5bd 20b9 86bc 01b4 efbc a0e1 02be
000001a0: 8306 cd3d 89ca 3dbd 6452 98ba 458b 52bd
000001b0: 4140 183d 1fc3 1c3d 246e e0bd b6e0 d0bd
000001c0: cf0d 283d 22f5 d13d 113f 653d e50a 193c
000001d0: 6664 abbd 368a 52bd 6106 1abe 745b 9c3d
000001e0: 866c 133d a2e2 1f3c b6d9 dd3d 7cd0 c13d
000001f0: 7b3e c8bc ad64 02be 2964 223e 0bcf babb
00000200: 58d9 8d3c 44a5 a13d f628 2f3d 25e1 71bc
00000210: de5b 663d bf56 bbbd c602 c23a c148 533e
00000220: 2708 cdbd c0eb e0bd a028 363d 2a13 f8bd
00000230: 3a0d 983d d130 233d 6e9b 143e b1b1 ce3c
00000240: 66f3 46bd a970 a83d 93ed afba 2987 c13d
00000250: 0a45 a43d 725a f43d 50b4 033d d03f 083d
00000260: bec5 f1bd 2b2c d73c 954a 213c 296d 6abd
00000270: d86d 533c 72a4 7dbd de78 a33d ba32 db3d
00000280: d381 edbd 0b2b b03d 47c5 7cbb 1c4f b6bd
00000290: 09c1 633e cda2 e23b e24c 7b3d 9649 7abd
000002a0: 909d b63c 6b40 3f3d cde8 0cbe cced 0e3d
000002b0: 69f3 943c 998f 6abd 089b 04be be2a de3d
000002c0: f6de cb3d 2352 1d3d 8662 e53d 104b 9abd
000002d0: 2309 2cbd f366 1b3d af9e 27bd 7f36 193e
000002e0: 7e70 10be 007c ce3d fc62 05bd 5970 32bd
000002f0: 4858 e63d 6423 09bd 6cb3 01bd 4ecd b73d
00000300: 2e10 b1bd 2d48 063d 2dd7 a13d e220 0dbd
00000310: e70c c6bd 91e1 9cbd fe11 61bd 1be6 00bd
00000320: 1d24 8b3d 159d bc3c 4a95 febc 40d2 babd
00000330: b1bb 593c 1b89 f83c c87c 1ebd 0655 a33d
00000340: 737d 8abd b3b7 9fbd 2511 1a3d 8468 773c
00000350: 623e bdbd 9df8 da3d 0a37 b4bd aedd 86bd
00000360: f068 e13d fd62 a93d 0518 bf3d e354 09be
00000370: 5aae f7bd 1e87 24bc 1363 043e 2aa9 7e3c
00000380: c55e 0ebe d066 8b3c caab c8bd 0657 5ab9
00000390: 635f 87bd 3e8a ec3d 8b5e 993d 60e6 b63d
000003a0: bd72 9dbc bf0a 07be f292 d23a 87ef bdbb
000003b0: 16d7 05bd ea77 65bd 2ff7 dc3d b644 ccbc
000003c0: 955c 8dbd bada 4a3c 1e4d 063c 4999 103e
000003d0: fee2 743d ad59 d5bc 8b07 6a3d 0eeb f63d
000003e0: cea3 87be 8457 003d c731 13bd 365f 963d
000003f0: 2e54 a23d a035 36bd c404 aa3d 268a cc3d

future_conv2.bias f4 [8]
-0.09216316 -0.09544399 0.0023299162 -0.07281359 0.06994483 -0.12792185 0.042082407 0.12597176
00000000: 0ac0 bcbd 2378 c3bd 82b1 183b 4b1f 95bd
00000010: 3c3f 8f3d f2fd 02be 9a5e 2c3d befe 003e

future_fc.weight f4 [32, 32]
0.030555606 0.058033917 -0.13425672 -0.0031810473 0.016558252 -0.070806265 0.16325697 -0.10358353
0.013720345 -0.0066479687 -0.0004806839 -0.0705006 0.02559751 0.039645802 0.038449172 -0.1138153
-0.0031358518 -0.041338827 0.07493863 -0.02784674 -0.011727641 0.024684383 -0.082836024 0.07608587
0.031193534 0.019827802 -0.10721647 0.02878248 -0.016137363 -0.0040008784 -0.064367756 0.010330369
0.023501543 -0.035761863 0.004088717 0.042698704 -0.017707422 0.07653931 -0.110816315 0.025712011
0.01361533 -0.009681541 0.031328995 -0.05462843 0.004285312 -0.060948316 0.074021086 -0.0141485585
-0.047705054 0.06359501 0.04135274 -0.021751523 0.07069687 0.015038558 -0.07512099 -0.009218806
0.053372283 -0.020931039 0.045033127 0.00847976 -0.045366094 0.026786236 -0.09949166 0.08346531
0.035896778 -0.020630324 0.036669776 -0.070790745 -0.055175044 0.02372941 0.057096697 0.035265137
-0.013515787 -0.007418324 -0.06733678 0.07137756 -0.037380844 -0.0789467 0.087341614 0.0533571
0.06255046 -0.047816493 0.07435005 -0.08373913 0.0023889823 0.00031136244 -0.10401441 0.123985894
0.049767483 -0.08680762 -0.0049691554 -0.14654507 -0.027935904 0.039945528 0.002142019 -0.056818295
-0.056957085 -0.09875819 0.026155867 0.05034296 -0.082061715 -0.004258267 0.11473491 0.03773904
-0.036698516 0.030733489 0.07095035 -0.07302779 -0.1359453 0.015235978 -0.0221494 0.13342091
0.06618877 -0.06320733 0.0026851913 -0.08054254 0.010434182 -0.026671225 -0.07061698 0.061757267
-0.11869727 -0.005155642 -0.037642587 -0.19742976 0.019328093 0.035937417 -0.045675725 -0.0037345982
-0.0033050664 -0.0020217632 0.06087922 -0.062858626 0.0012466807 0.10987223 -0.046549927 -0.066288784
0.023659984 0.004109351 -0.13993737 0.071344204 -0.057811577 -0.1081673 0.06279789 0.14633264
0.05110335 -0.043840863 -0.090978436 0.11961256 -0.03550626 0.042037137 0.007803875 0.04805689
-0.10199425 -0.038294643 -0.015825693 -0.10404381 -0.009784087 0.03677868 0.032692786 -0.10988625
-0.024775874 -0.0019819546 0.035972748 -0.07853558 -0.008039176 -0.07490067 0.0061534853 0.074891806
0.0060971673 -0.028635452 0.017588984 -0.029857358 -0.030772923 0.0397172 0.0027116016 0.04801751
-0.016878147 0.023775212 0.06585593 -0.0894279 0.028257012 0.020569868 -0.030679403 0.058566425
0.019958949 -0.06357064 0.11770126 -0.11032245 -0.0022605471 -0.051210135 -0.017081223 0.066385776
0.010608191 0.032493673 -0.023503216 -0.077032395 0.00024988208 -0.042100612 -0.011847211 0.039435554
0.0044730324 0.009814987 -0.012651056 0.010914468 0.00394151 0.07095986 -0.14178033 0.054432873
-0.00030130777 -0.044692446 0.06126492 -0.030151034 -0.06382796 0.010266846 0.08116236 -0.054647904
0.04876911 -0.06993251 -0.040637437 0.10345939 0.0029579715 0.028913816 0.072760634 -0.028611198
-0.01874435 0.0009828539 0.05357264 0.0079163285 -0.060295664 0.096740596 0.019411676 -0.08456671
-0.016977027 0.092790715 -0.15475239 0.075943105 0.06547104 -0.05560607 -0.02295363 -0.06250132
-0.0033635572 -0.024143185 -0.0125766145 0.11129282 -0.05595547 -0.02832605 0.098383255 0.01628135
0.10964986 -0.05121434 0.090316206 0.07666152 0.010172751 -0.0425313 0.058608312 -0.09402339
00000000: c04f fa3c f9b4 6d3d 987a 09be 1e79 50bb
00000010: 2ca5 873c e002 91bd d62c 273e 9a23 d4bd
00000020: 4ccb 603c 34d7 d9bb 4d04 fcb9 9e62 90bd
00000030: dfb1 d13c a363 223d e17c 1d3d ff17 e9bd
00000040: dd82 4dbb e752 29bd 6d79 993d d91e e4bc
00000050: 4b25 40bc e736 ca3c efa5 a9bd e9d2 9b3d
00000060: 9589 ff3c ea6d a23c 4f94 dbbd 3cc9 eb3c
00000070: 8132 84bc cd19 83bb 3ed3 83bd b540 293c
00000080: 4f86 c03c 087b 12bd a5fa 853b d6e4 2e3d
00000090: 280f 91bc a4c0 9c3d aaf3 e2bd ffa1 d23c
000000a0: d512 5f3c 539f 1ebc d552 003d 10c2 5fbd
000000b0: cd6b 8c3b f1a4 79bd 5e98 973d 5bcf 67bc
000000c0: 6066 43bd 1a3e 823d 7e61 293d 4030 b2bc
000000d0: 85c9 903d 4964 763c 09d9 99bd 7a0a 17bc
000000e0: e59c 5a3d 9277 abbc a874 383d b1ee 0a3c
000000f0: ccd1 39bd cf6e db3c 49c2 cbbd dcef aa3d
00000100: 8008 133d ed00 a9bc 0c33 163d bdfa 90bd
00000110: 3aff 61bd 2e64 c23c 3ade 693d 2d72 103d
00000120: 5271 5dbc 6915 f3bb dee7 89bd 662e 923d
00000130: a81c 19bd cfae a1bd 29e0 b23d f98c 5a3d
00000140: 751a 803d 3adb 43bd d744 983d 6c7f abbd
00000150: 7990 1c3b 5c3e a339 8205 d5bd 51ec fd3d
00000160: fdd8 4b3d 32c8 b1bd 4cd4 a2bb e90f 16be
00000170: d6d9 e4bc ec9d 233d 1e61 0c3b 4dba 68bd
00000180: d54b 69bd bc41 cabd d444 d63c 6b34 4e3d
00000190: f90f a8bd ef88 8bbb 23fa ea3d 4094 1a3d
000001a0: 2f51 16bd ccc4 fb3c 6b4e 913d 988f 95bd
000001b0: 3f35 0bbe 53a0 793c a972 b5bc 7e9f 083e
000001c0: fa8d 873d d872 81bd 09fa 2f3b 7df3 a4bd
000001d0: 22f4 2a3c 9d7d dabc a39f 90bd 30f5 7c3d
000001e0: 8e17 f3bd a9f0 a8bb 1d2f 1abd 072b 4abe
000001f0: f355 9e3c 1d33 133d 7816 3bbd 29c0 74bb
00000200: d099 58bb 8f7f 04bb 7d5c 793d 06bc 80bd
00000210: aa67 a33a b104 e13d 23ab 3ebd 6ac2 87bd
00000220: 95d2 c13c bca7 863b be4b 0fbe e91c 923d
00000230: d5cb 6cbd d186 ddbd 2e9c 803d 39d8 153e
00000240: bf51 513d 7a92 33bd e752 babd 6ef7 f43d
00000250: 036f 11bd 222f 2c3d a6b7 ff3b 4dd7 443d
00000260: 5de2 d0bd d8da 1cbd e2a4 81bc ec14 d5bd
00000270: 6f4d 20bc 3ea5 163d dfe8 053d 0b0c e1bd
00000280: c6f6 cabc aee3 01bb 2958 133d 43d7 a0bd
00000290: c0b6 03bc 8665 99bd 2da3 c93b e060 993d
000002a0: bfca c73b e594 eabc c616 903c 6b97 f4bc
000002b0: 7f17 fcbc 81ae 223d 20b5 313b 02ae 443d
000002c0: 0a44 8abc 3cc4 c23c 79df 863d fa25 b7bd
000002d0: 407b e73c 2482 a83c 5f53 fbbc 59e3 6f3d
000002e0: f380 a33c 5331 82bd 5c0d f13d bdf0 e1bd
000002f0: b025 14bb b8c1 51bd eced 8bbc 44f5 873d
00000300: facd 2d3c 1618 053d d189 c0bc 29c3 9dbd
00000310: 9b02 8339 b171 2cbd ce1a 42bc 2d87 213d
00000320: 8492 923b 0acf 203c 6046 4fbc 99d2 323c
00000330: c827 813b 6753 913d dd2e 11be 01f5 5e3d
00000340: d8f8 9db9 6d0f 37bd edf0 7a3d 4dff f6bc
00000350: 3cb8 82bd 4636 283c 7438 a63d 7bd6 5fbd
00000360: 1ec2 473d c738 8fbd 7173 26bd 84e2 d33d
00000370: 87da 413b abdc ec3c 8703 953d 0862 eabc
00000380: c08d 99bc 1bd3 803a fc6e 5b3d 7db3 013c
00000390: 96f8 76bd ef1f c63d 3c05 9f3c 5031 adbd
000003a0: 6813 8bbc 0f09 be3d 6977 1ebe 0f88 9b3d
000003b0: ae15 863d 31c3 63bd 4009 bcbc b100 80bd
000003c0: 206f 5cbb eec7 c5bc 250e 4ebc 7ded e33d
000003d0: 9031 65bd 080c e8bc 297d c93d 7760 853c
000003e0: 1b90 e03d 21c6 51bd b4f7 b83d b700 9d3d
000003f0: 9cab 263c 4d35 2ebd 450f 703d 568f c0bd

future_fc.bias f4 [32]
9.225861e-05 -0.0034587986 0.011466384 0.019588249 0.013112265 0.00256422 -0.0017260019 -0.011424937
-0.0046496876 -0.00072938687 0.008390244 0.0025638673 0.01882847 -0.0029635704 -0.0062090945 0.001799969
0.007321186 0.0047197766 0.002400762 0.0023783436 -0.009147663 -0.0042535504 0.012740342 -0.010331463
0.01203357 0.005360344 -0.0002706772 0.008565654 -0.005009566 0.0012021225 -0.0049477806 -0.015634999
00000000: f77a c138 03ad 62bb 80dd 3b3c 8977 a03c
00000010: d3d4 563c 790c 283b 033b e2ba a92f 3bbc
00000020: 685c 98bb 5334 3fba 3c77 093c 8e06 283b
00000030: 2a3e 9a3c 7638 42bb a975 cbbb f0ec eb3a
00000040: 8fe6 ef3b 5ba8 9a3b 1a56 1d3b fcdd 1b3b
00000050: 14e0 15bc 5e61 8bbb debc 503c 4c45 29bc
00000060: 7328 453c d3a5 af3b aee9 8db9 f556 0c3c
00000070: 4927 a4bb 8a90 9d3a fe20 a2bb f814 80bc

combine_fc1.weight f4 [32, 64]
-0.014375475 0.0425282 -0.13220643 0.1821694 -0.15185429 -0.0828924 -0.09917289 -0.10141827
-0.16754997 -0.06904461 0.03049572 -0.10643059 0.075621255 0.041967478 0.033180926 0.18521321
0.04405644 -0.03708593 0.048326828 -0.05125734 -0.032172624 0.08726584 -0.00037447488 0.105278715
0.06510856 -0.07899547 -0.024185373 -0.038686007 -0.048225015 0.08310579 -0.12669416 0.11933373
-0.11312868 -0.108328484 -0.045357216 0.088354655 0.052994642 0.038602132 -0.024809187 -0.025651105
-0.09085505 0.0036923406 0.022421503 0.06664832 0.035978448 -0.09196141 0.021272086 -0.09810632
0.012530333 -0.09612129 0.06614873 -0.12912226 0.08026737 0.048019715 -0.035989787 -0.11860974
-0.01001184 -0.07240084 -0.000731008 -0.09631909 0.06288405 -0.10864491 -0.073611595 -0.06558382
0.08939126 -0.034906175 -0.06186886 -0.23156671 0.017015837 -0.181788 0.013794908 0.11370008
0.2484576 0.040100984 0.07670447 -0.1166475 -0.07803501 -0.058516916 0.12294723 -0.10648635
0.10164856 -0.06664582 -0.19928302 -0.10493347 0.08382162 0.09574699 0.008195362 0.094379164
0.14202149 0.13290632 0.12529087 -0.011613038 -0.06029252 -0.11220835 0.1049994 -0.11611673
-0.056680974 -0.060861066 -0.10945317 -0.048649825 0.07401998 -0.07944808 0.09766482 -0.04392682
-0.0078004394 0.078583844 0.072609514 0.029369554 -0.066361696 -0.07030221 0.017387891 0.07388174
0.054234337 -0.047523167 -0.15691258 -0.101435065 -0.0018431837 0.03791166 -0.17256731 -0.12883413
0.04027148 -0.03309222 -0.06871169 -0.07777824 -0.027721273 0.14253832 0.05481181 -0.03437017
-0.006707046 0.0010091213 -0.066441864 -0.052344985 -0.1363075 -0.045604844 -0.07471304 -0.23180687
-0.09644373 -0.08649739 0.13839787 0.12722947 0.17638291 0.08312298 0.006089266 0.06771289
-0.1668915 0.01091597 0.060254745 -0.06483719 -0.057355642 0.14020541 0.087310016 -0.014551522
0.118722305 -0.10206928 0.055979017 0.025748722 0.064646736 -0.062762015 -0.097944155 0.09833256
0.04534721 0.03309014 -0.0046047955 -0.0031182594 -0.06696972 -0.04707113 -0.05940141 0.0021246446
-0.016710093 0.10859313 0.012000444 -0.0009661475 0.06265442 0.044959784 0.028971018 0.018070186
0.014568012 -0.07640717 0.01913538 -0.08843218 0.08848818 0.09084413 0.008311314 0.121447474
-0.071320705 0.10052972 0.06573314 0.0021681373 -0.12227783 -0.011377779 -0.030765211 0.008185231
-0.28711233 -0.11225446 0.012712973 -0.5273012 -0.16476825 0.008679233 -0.7343078 -0.12295643
0.709713 0.010648276 0.2302729 -0.014660094 0.4583295 0.08644397 0.2781296 -0.2344433
-0.22753052 -0.10681878 -0.648951 -0.13759714 0.7343552 0.106755055 -0.17712931 -0.049234554
0.23296048 -0.46382293 0.68247783 0.5667045 -0.058536224 -0.37373725 0.13720554 0.53505695
-0.052360408 -0.029212948 0.05003057 0.0629751 0.06306146 -0.03450248 -0.028645122 0.046804085
-0.043067507 0.11876202 -0.052409556 -0.048797723 -0.03891868 0.042604882 0.0121945925 0.14543827
0.118094504 0.09509709 -0.0002608542 -0.063533686 0.00037738902 -0.072635725 0.02496754 -0.07584954
-0.19267748 0.048106216 -0.12197199 -0.005091032 -0.0045043686 0.14232293 0.081581004 -0.05736697
00000000: 1d87 6bbc 0d32 2e3d 1f61 07be 9d8a 3a3e
00000010: b17f 1bbe 7ec3 a9bd 281b cbbd 62b4 cfbd
00000020: 3892 2bbe 4367 8dbd 29d2 f93c 48f8 d9bd
00000030: 51df 9a3d 17e6 2b3d b9e8 073d 88a8 3d3e
00000040: 8774 343d 6be7 17bd 5af2 453d 37f3 51bd
00000050: 71c7 03bd 6fb8 b23d 2b55 c4b9 5e9c d73d
00000060: a357 853d 61c8 a1bd 6720 c6bc 3875 1ebd
00000070: 9887 45bd 5e33 aa3d 1dbc 01be 3e65 f43d
00000080: 02b0 e7bd 53db ddbd 7dc8 39bd 49f3 b43d
00000090: e910 593d 451d 1e3d a33c cbbc 4422 d2bc
000000a0: 3612 babd 32fb 713b 4dad b73c ea7e 883d
000000b0: 235e 133d 4456 bcbd cc42 ae3c f7eb c8bd
000000c0: 074c 4d3c 3ddb c4bd fc78 873d a038 04be
000000d0: 3863 a43d 52b0 443d 076a 13bd aae9 f2bd
000000e0: b308 24bc e446 94bd 1ea1 3fba f142 c5bd
000000f0: 5ac9 803d 3981 debd adc1 96bd cf50 86bd
00000100: c412 b73d c7f9 0ebd 346a 7dbd d31f 6dbe
00000110: cc64 8b3c a226 3abe 0a04 623c 96db e83d
00000120: ab6b 7e3e ee40 243d 3c17 9d3d e2e4 eebd
00000130: d2d0 9fbd 6faf 6fbd c2cb fb3d 8415 dabd
00000140: 1f2d d03d 9b7d 88bd d910 4cbe 5ce7 d6bd
00000150: abaa ab3d ff16 c43d d745 063c dd49 c13d
00000160: 156e 113e 9818 083e 404c 003e 9d44 3ebc
00000170: 4af5 76bd 7ecd e5bd ed09 d73d 9cce edbd
00000180: 4f2a 68bd 7449 79bd fc28 e0bd 0a45 47bd
00000190: ca97 973d adb5 a2bd 7e04 c83d 9cec 33bd
000001a0: d49a ffbb 91f0 a03d 4cb4 943d 6b98 f03c
000001b0: a4e8 87bd 9bfa 8fbd 0d71 8e3c 4f4f 973d
000001c0: d324 5e3d a7a7 42bd b1ad 20be 30bd cfbd
000001d0: fb96 f1ba 4249 1b3d 7cb5 30be 18ed 03be
000001e0: b5f3 243d b58b 07bd b7b8 8cbd 334a 9fbd
000001f0: b917 e3bc 91f5 113e 5982 603d bcc7 0cbd
00000200: c8c6 dbbb 7e44 843a ac12 88bd b267 56bd
00000210: 3194 0bbe 25cc 3abd 2603 99bd c85e 6dbe
00000220: 4a84 c5bd 8b25 b1bd 2cb8 0d3e 7148 023e
00000230: b99d 343e 623c aa3d 7788 c73b 0ead 8a3d
00000240: 9be5 2abe e6d8 323c aecd 763d 5cc9 84bd
00000250: c0ed 6abd 0292 0f3e 98cf b23d 8269 6ebc
00000260: ae24 f33d b309 d1bd 414a 653d fcee d23c
00000270: 8265 843d 5f89 80bd f296 c8bd 9562 c93d
00000280: ffbd 393d 8789 073d d3e3 96bb b65b 4cbb
00000290: 6c27 89bd a8cd 40bd e54e 73bd 9f3d 0b3b
000002a0: 9be3 88bc 1366 de3d 839d 443c 1045 7dba
000002b0: f650 803d c027 383d a154 ed3c ed07 943c
000002c0: acae 6e3c 5d7b 9cbd cdc1 9c3c ee1b b5bd
000002d0: 4a39 b53d 7d0c ba3d 2d2c 083c 74b9 f83d
000002e0: 9710 92bd 87e2 cd3d 199f 863d 4f17 0e3b
000002f0: cd6c fabd dd69 3abc 5307 fcbc 591b 063c
00000300: 6300 93be abe5 e5bd 134a 503c 36fd 06bf
00000310: 02b9 28be 5733 0e3c 99fb 3bbf 95d0 fbbd
00000320: c0af 353f 1b76 2e3c a9cc 6b3e e430 70bc
00000330: 2aaa ea3e 8909 b13d 0167 8e3e e811 70be
00000340: c3fd 68be cec3 dabd a721 26bf 44e6 0cbe
00000350: b4fe 3b3f 65a2 da3d 6361 35be 2caa 49bd
00000360: 318d 6e3e 337a edbe deb6 2e3f 8c13 113f
00000370: aec3 6fbd 7d5a bfbe 9c7f 0c3e 7ef9 083f
00000380: de77 56bd fe4f efbc dbec 4c3d 17f9 803d
00000390: 5e26 813d 7952 0dbd 2da9 eabc a4b5 3f3d
000003a0: 8e67 30bd 8039 f33d 67ab 56bd 1fe0 47bd
000003b0: 3269 1fbd 7582 2e3d d4cb 473c c5ed 143e
000003c0: 88db f13d 43c2 c23d 42c3 88b9 f31d 82bd
000003d0: 4cdc c539 0ac2 94bd ba88 cc3c 0157 9bbd
000003e0: 3f4d 45be 060b 453d 73cc f9bd acd2 a6bb
000003f0: 6299 93bb 1abd 113e f113 a73d a1f9 6abd

combine_fc1.bias f4 [32]
0.047615077 -0.029329525 -0.0017699872 0.12926348 -0.034534886 -0.023158241 0.10068413 -0.09390365
0.04271859 -0.024071721 -0.04632522 0.07455914 0.019392025 -0.10743981 0.09636375 -0.08069062
0.097149536 -0.046032753 0.049366448 0.028585898 0.0052351854 0.057269093 -0.008379941 -0.052201375
0.07076031 0.07455498 -0.010888144 0.109960966 0.0064474093 -0.055440158 -0.049382623 0.08310086
00000000: 0708 433d 7944 f0bc eafe e7ba a55d 043e
00000010: 7474 0dbd 5ab6 bdbc 7b33 ce3d 8f50 c0bd
00000020: b0f9 2e3d 0f32 c5bc 84bf 3dbd 76b2 983d
00000030: 06dc 9e3c 6709 dcbd 5c5a c53d 2041 a5bd
00000040: 56f6 c63d d78c 3cbd 7934 4a3d f92c ea3c
00000050: eb8b ab3b ff92 6a3d 054c 09bc 1cd1 55bd
00000060: c8ea 903d 48b0 983d 3064 32bc 3733 e13d
00000070: ca44 d33b 3815 63bd 6f45 4abd c930 aa3d

output.weight f4 [1, 32]
-0.10698545 0.18552075 -0.23042274 0.36066967 -0.19368744 0.05883485 0.1857902 0.2385286
-0.23304783 0.001055848 -0.23417936 -0.17366263 0.19617084 -0.23135287 0.20978048 0.3609853
0.12494622 -0.24403724 -0.0012974745 -0.1261141 0.0786375 -0.49830395 -0.10489428 0.2014053
0.24347311 0.14208204 -0.46214604 0.1200915 0.16105267 -0.13785398 0.1216136 -0.3701495
00000000: 301b dbbd 27f9 3d3e f0f3 6bbe b2a9 b83e
00000010: 0056 46be d0fc 703d c93f 3e3e d740 743e
00000020: 17a4 6ebe 6164 8a3a b7cc 6fbe 9ed4 31be
00000030: 02e1 483e c4e7 6cbe b2d0 563e 11d3 b83e
00000040: cee3 ff3d e6e4 79be 0510 aaba 0e24 01be
00000050: b30c a13d b221 ffbe d0d2 d6bd 313d 4e3e
00000060: 0451 793e f47d 113e 689e ecbe 88f2 f53d
00000070: feea 243e 9829 0dbe 8d10 f93d 3c84 bdbe
