experiments/exp042/outputs/final_ppo_model.pt (torch, 50708 bytes, 10 tensors)

actor_fc1.weight f4 [64, 55]
0.049735196 0.043336846 -0.0543498 0.04101787 -0.042094827 0.025204375 -0.004689608 -0.0065639187
0.04405766 0.006774877 -0.0011314484 0.0018309758 0.02844585 0.025320238 0.00960239 0.0072453334
0.0040417444 0.050582126 0.015725356 0.021372471 0.03481232 0.041080624 -0.0119979475 0.030899677
0.008232281 0.028217144 0.005296501 0.008025466 0.024984203 -0.016723186 0.016065814 0.016147034
0.019090887 0.009395901 -0.004656931 0.015297924 0.014122683 -0.0049861637 -0.00077885773 0.0058703544
0.014060225 0.017515827 -0.0054124165 0.0067647905 0.011600802 0.007885733 0.031848844 0.008908086
0.018538836 0.023687122 0.01841722 0.023733458 0.016587818 0.045760848 0.038838137 0.18279788
0.032305256 -0.08730849 0.036567975 -0.16237849 -0.05395706 -0.011360457 -0.032890487 -0.041855346
-0.13022895 0.056439854 0.0723524 0.016733032 0.041721333 -0.056842204 0.035287015 -0.017806806
0.0024154 0.043930545 0.0041909246 0.027881484 0.03700023 -0.056300092 -0.10963615 -0.075792775
-0.37110224 -0.1758914 0.027360903 -0.22675225 -0.113679275 -0.23545697 -0.09610223 -0.22336118
-0.042499363 -0.07204702 -0.020775847 -0.1460191 0.04753066 0.15134366 -0.14271197 -0.18168253
0.06818346 -0.2611248 -0.1883945 -0.17161353 -0.113817185 -0.051321607 -0.16936179 -0.31259537
-0.038325712 -0.09337662 -0.08783049 -0.11915693 0.057846095 -0.08585774 0.13126893 0.046182066
-0.062394366 -0.0188021 0.051722962 0.026154835 0.013249853 -0.0020468675 0.02314935 -0.017819535
0.012199625 0.02798241 -0.0055103027 0.004764144 -0.00798663 0.01302577 -0.005941239 0.03774198
0.01920126 0.017753994 0.033675186 0.02338725 -0.05930179 0.0040691746 0.01024138 0.0010546405
0.008270268 0.017603382 0.014821493 0.01935086 0.021335578 -5.705416e-05 0.07534657 -0.025155308
0.0020462293 -0.005859848 0.027007058 0.020003144 0.01798632 0.0074444534 0.0067702224 0.029387102
0.016095106 0.02293555 0.037274458 0.013246747 0.030053915 0.045765482 0.014706662 0.030069394
0.02360362 0.007145578 0.048413847 0.026074363 0.056604266 -0.12589097 -0.06384681 -0.051353384
0.057632536 -0.084355235 -0.022401066 -0.014046598 -0.032803643 -0.003497053 -0.007978336 -0.018095685
-0.029229322 -0.020791821 0.008448321 0.01076969 0.011475235 -0.022555526 -0.039914064 -0.02746947
-0.026421968 -0.0027285898 0.057861708 0.025235444 0.006663429 -0.01899217 -0.005155859 -0.019414427
-0.031928007 -0.020844076 -0.03220984 -0.01730257 -0.0067777946 -0.012336463 -0.020149052 0.016699644
-0.0039677043 -0.022138514 -0.033623885 -0.0037878493 -0.010750695 -0.009128393 -0.0077028247 -0.022464298
-0.0039147693 -0.030893272 0.004367837 -0.011294826 -0.048667934 -0.07639666 -0.042639792 -0.041989136
-0.04492608 -0.041968036 -0.048034713 -0.051358055 0.07142651 0.041868392 -0.00634749 0.036493234
-0.050665237 -0.014030358 -0.03192046 -0.043309838 -0.020041266 0.005164 -0.004625375 -0.016684959
0.055530682 -0.004856853 -0.023092072 -0.024042306 0.025597772 -0.037922334 -0.024707953 -0.017013937
-0.0033573033 -0.018514946 -0.014652723 0.003468489 -0.043705896 0.019740507 0.00042150996 0.031793587
0.04927148 0.07433372 -0.023912007 -0.005650742 0.030449461 0.003738667 0.04533539 0.036717217
00000000: 22b7 4b3d fa81 313d e59d 5ebd 5b02 283d
00000010: a06b 2cbd 6879 ce3c 48ab 99bb 2416 d7bb
00000020: ce75 343d caff dd3b 1c4d 94ba 5afd ef3a
00000030: 4507 e93c 636c cf3c 5853 1d3c 436a ed3b
00000040: 9c70 843b 342f 4f3d 76d2 803c 5215 af3c
00000050: 5d97 0e3d 2844 283d 0a93 44bc 5221 fd3c
00000060: b0e0 063c a427 e73c 458e ad3b 3f7d 033c
00000070: acab cc3c 10ff 88bc 749c 833c c946 843c
00000080: 7e64 9c3c 44f1 193c 2b99 98bb 25a4 7a3c
00000090: d362 673c f962 a3bb 422c 4cba 1a5c c03b
000000a0: dc5c 663c 5a7d 8f3c a45a b1bb 2dab dd3b
000000b0: 4a11 3e3c 2933 013c ef73 023d 39f3 113c
000000c0: c2de 973c 7f0b c23c b6df 963c ab6c c23c
000000d0: 2de3 873c ba6f 3b3d bd14 1f3d 5e2f 3b3e
000000e0: 8452 043d cbce b2bd 4dc8 153d 8c46 26be
000000f0: 1402 5dbd 3621 3abc 2db8 06bd 8370 2bbd
00000100: bd5a 05be 7a2d 673d 7f2d 943d b613 893c
00000110: fde3 2a3d 5fd3 68bd 1e89 103d 94df 91bc
00000120: b04b 1e3b 84f0 333d 0654 893b b667 e43c
00000130: 8e8d 173d ed9a 66bd eb88 e0bd 3e39 9bbd
00000140: 1d01 bebe e01c 34be f923 e03c be31 68be
00000150: aed0 e8bd a21b 71be 3fd1 c4bd cbb8 64be
00000160: d013 2ebd 638d 93bd 1c32 aabc 0886 15be
00000170: 82af 423d d5f9 1a3e 1623 12be fc0a 3abe
00000180: c5a3 8b3d 26b2 85be 7dea 40be 75bb 2fbe
00000190: fc18 e9bd 9b36 52bd 2d6d 2dbe 800c a0be
000001a0: 6cfb 1cbd 3e3c bfbd 79e0 b3bd 8c08 f4bd
000001b0: 07f0 6c3d 2fd6 afbd 5d6b 063e 6829 3d3d
000001c0: 3c91 7fbd dd06 9abc 75db 533d aa42 d63c
000001d0: e915 593c bd24 06bb b5a3 bd3c 46fa 91bc
000001e0: f0e0 473c 5e3b e53c c58f b4bb 891c 9c3b
000001f0: 5bda 02bc 0a6a 553c baae c2bb 5697 1a3d
00000200: f64b 9d3c d370 913c feee 093d 9e96 bf3c
00000210: 6fe6 72bd b656 853b 76cb 273c dd3b 8a3a
00000220: 0580 073c f834 903c d9d5 723c b285 9e3c
00000230: f3c7 ae3c 704d 6fb8 4d4f 9a3d 8112 cebc
00000240: 081a 063b f803 c0bb e83d dd3c a2dd a33c
00000250: 0c58 933c 9af0 f33b bed8 dd3b 38bd f03c
00000260: e2d9 833c 56e3 bb3c 1aad 183d e208 593c
00000270: a133 f63c 9674 3b3d 36f4 703c 1754 f63c
00000280: 615c c13c 7425 ea3b 994d 463d e799 d53c
00000290: e0d9 673d 90e9 00be 1ec2 82bd ed57 52bd
000002a0: 1810 6c3d 70c2 acbd 7182 b7bc b423 66bc
000002b0: 1d5d 06bd d02e 65bb 91b7 02bc 673d 94bc
000002c0: 5572 efbc 9c53 aabc d46a 0a3c 5b73 303c
000002d0: a002 3c3c 5ec6 b8bc ee7c 23bd a707 e1bc
000002e0: e272 d8bc 24d2 32bb 6600 6d3d 90ba ce3c
000002f0: e558 da3b 7895 9bbc 7bf2 a8bb 010b 9fbc
00000300: f1c6 02bd 32c1 aabc 77ee 03bd 1fbe 8dbc
00000310: 4318 debb e01e 4abc a00f a5bc b1cd 883c
00000320: 8403 82bb d45b b5bc 33b9 09bd 913d 78bb
00000330: af23 30bc 418f 15bc fa67 fcbb 0c07 b8bc
00000340: 7747 80bb e313 fdbc 1320 8f3b ef0d 39bc
00000350: 0758 47bd da75 9cbd 10a7 2ebd cdfc 2bbd
00000360: 6904 38bd ade6 2bbd 0cc0 44bd d35c 52bd
00000370: 1048 923d 317e 2b3d 9bfe cfbb ee79 153d
00000380: 5a86 4fbd 96df 65bc 07bf 02bd a865 31bd
00000390: 952d a4bc c636 a93b 7590 97bb e5ae 88bc
000003a0: 2474 633d 3c26 9fbb 962b bdbc 5ff4 c4bc
000003b0: 6bb2 d13c 7354 1bbd 5568 cabc d060 8bbc
000003c0: 3406 5cbb a8ac 97bc fa11 70bc 974f 633b
000003d0: f404 33bd d8b6 a13c 1cfe dc39 fe39 023d
000003e0: e4d0 493d 473c 983d 1de3 c3bc dc29 b9bb
000003f0: 2671 f93c 6c04 753b 9ab1 393d cb64 163d

actor_fc1.bias f4 [64]
-0.014774429 0.02305184 -0.037704222 -0.12874882 -0.031028064 -0.05358528 0.052705985 0.026642881
0.021137932 -0.014505865 -0.056931507 -0.08118575 0.035270136 0.09089092 0.027624704 0.020134805
-0.025966143 -0.06337731 0.11524197 -0.08082446 0.04244774 -0.013813645 0.11875802 0.041779574
-0.00045831857 -0.08321436 0.023938835 -0.05193227 0.18480983 -0.003454753 0.021351965 -0.044009715
-0.08140973 -0.54405683 -0.10548891 0.03183771 -0.04497943 -0.013119713 -0.03980434 0.0026817375
0.07715256 0.04704476 0.074772194 0.1390773 -0.25807306 0.018824967 -0.061698414 0.09093769
0.050434694 0.10729832 -0.058164906 -0.07628024 0.07017459 -0.107838355 -0.0064384174 0.008626954
-0.07720597 -0.051533077 0.04307233 0.004422136 -0.017874928 -0.099773385 0.052340653 0.10387469
00000000: 7210 72bc 36d7 bc3c be6f 1abd bbd6 03be
00000010: 912e febc 3d7c 5bbd 3be2 573d 2c42 da3c
00000020: 7529 ad3c 02aa 6dbc 0331 69bd b744 a6bd
00000030: 6b77 103d 0525 ba3d 344d e23c bff1 a43c
00000040: f3b6 d4bc f7cb 81bd fb03 ec3d 4b87 a5bd
00000050: aedd 2d3d a052 62bc 6837 f33d 0f21 2b3d
00000060: 7a4a f0b9 4a6c aabd 601b c43c efb6 54bd
00000070: ca3e 3d3e 2369 62bb 51ea ae3c 8843 34bd
00000080: 25ba a6bd 4f47 0bbf 920a d8bd 4268 023d
00000090: 5a3c 38bd 11f4 56bc e009 23bd 17c0 2f3b
000000a0: 2902 9e3d 02b2 403d 2a22 993d 486a 0e3e
000000b0: 2722 84be d136 9a3c 7ab7 7cbd 8a3d ba3d
000000c0: 9c94 4e3d 39bf db3d 533e 6ebd d138 9cbd
000000d0: b2b7 8f3d 5bda dcbd 5cf9 d2bb 1158 0d3c
000000e0: 2a1e 9ebd 5914 53bd 9d6c 303d 91e7 903b
000000f0: 716e 92bc fd55 ccbd 2763 563d 41bc d43d

actor_fc2.weight f4 [32, 64]
-0.008880899 -0.08782898 -0.0091815675 -0.09686441 0.0017451715 0.017005822 0.00085105037 -0.13551578
-0.060247947 0.05621432 0.0028277128 0.000120712684 0.0032152974 -0.0034713321 0.015557839 -0.13216881
-0.010943295 0.024576172 0.052822404 -0.058804758 0.0682862 0.0116544105 0.13525496 -0.034097694
-0.00271619 0.018358076 -0.059144128 0.051365882 -0.19650735 -0.069999754 -0.0546292 0.13278084
0.0073347758 0.021085063 -0.06778887 0.030584002 -0.005376216 0.036703844 0.0023081184 0.07517475
-0.0065445704 0.002765681 -0.03211536 -0.018036015 -0.16187583 0.06369332 0.08655947 0.02786736
0.01834614 -0.076070264 0.0892077 0.015294566 0.0042733853 0.026754644 0.00944477 -0.031811874
0.07198315 0.014642258 -0.061633524 -0.03389843 -0.08518237 -0.0046571926 0.016194817 -0.054590184
0.030092457 -0.009264782 0.0585288 0.120876096 -0.009019549 -0.047307894 0.13164592 0.056627613
-0.084439024 -0.079228185 0.056864206 -0.0251626 -0.050826393 -0.10343318 -0.1092188 -0.051520254
-0.041433703 -0.0040551205 -0.07497228 -0.16120945 -0.0112809455 0.038730282 -0.28267944 -0.043390416
0.0004092279 -0.15567303 -0.0618075 -0.01914095 0.28766215 0.064634986 0.038457528 -0.021909684
0.018226994 -0.13529214 0.031985212 -0.023707371 -0.10181641 -0.032719653 0.039001305 0.15805207
0.0117355855 -0.07967073 -0.015541653 -0.060391255 -0.035779327 -0.016425332 0.097508274 0.009725056
-0.029101174 -0.050238036 -0.08586287 -0.10810789 -0.06298758 0.18707018 0.13561249 -0.08946084
-0.02905039 -0.096295446 -0.0068431613 -0.014722201 -0.033126146 0.096713334 -0.07528359 0.09380679
0.02720076 -0.016500246 0.14879501 -0.0030761824 0.04440936 0.05797093 -0.005910305 0.17340481
0.041239295 -0.2281492 0.116000615 0.17757389 -0.038437385 0.12711647 -0.047093622 0.21527041
-0.020268021 0.017961526 0.09073494 0.06968613 -0.06599983 0.054215614 -0.046351068 0.009359431
0.13381562 0.1548655 0.104405396 0.06014911 0.009240881 -0.1664604 -0.025399415 -0.14275223
-0.035812452 0.06332697 -0.15998162 0.060279436 0.09079066 0.2314276 0.32865652 -0.35397917
-0.15194534 -0.11789546 -0.24985349 0.017599162 0.055365566 -0.16947979 0.06840116 0.11938481
-0.15492362 -0.2679439 0.17668122 -0.04408187 0.037930917 -0.0060575576 0.10575013 -0.08768133
0.21952958 -0.19531393 -0.1566119 0.07647969 0.054698586 0.030786682 -0.14536808 0.017341683
-0.0070769866 0.054156017 0.0002610361 -0.050177183 -0.08244213 0.04846334 0.07178116 -0.11872997
0.068662904 0.10715956 -0.11449608 -0.057204597 -0.12212975 -0.1560372 0.07681326 -0.106277436
-0.06835189 0.105068095 -0.08597281 -0.30271882 0.04195973 -0.22469372 0.030564787 0.15114142
-0.027770003 -0.28291327 -0.092002 -0.17047043 0.02819617 -0.0071588997 -0.022052318 -0.13060126
0.16050783 -0.0024084568 0.14010578 0.04716322 -0.14915663 -0.23416138 -0.36118892 0.32265466
0.119948074 0.14087343 0.10036127 0.0034170733 -0.20151986 0.042487606 -0.03352435 -0.06867424
0.044336606 0.22376204 -0.24884377 0.17937814 0.1611666 0.07398273 0.07020589 0.019006725
-0.027581295 0.1291862 0.105181254 -0.025991835 -0.09864301 0.12731522 0.07112535 0.09570434
00000000: 3181 11bc aedf b3bd 496e 16bc d960 c6bd
00000010: 3dbe e43a cb4f 8b3c 0619 5f3a a6c4 0abe
00000020: 8dc6 76bd fd40 663d 2651 393b 2127 fd38
00000030: bdb7 523b 4a7f 63bb 4ee6 7e3c 4357 07be
00000040: 824b 33bc f853 c93c 4e5c 583d 42dd 70bd
00000050: a3d9 8b3d 24f2 3e3c 4780 0a3e 06aa 0bbd
00000060: 1b02 32bb ad63 963c 1d41 72bd 0865 523d
00000070: 3939 49be 085c 8fbd dec2 5fbd b3f7 073e
00000080: 8f58 f03b 95ba ac3c e4d4 8abd 4d8b fa3c
00000090: f82a b0bb c556 163d cd43 173b 38f5 993d
000000a0: d673 d6bb 6d40 353b 658b 03bd 44c0 93bc
000000b0: c7c2 25be a571 823d 1746 b13d 174a e43c
000000c0: a54a 963c baca 9bbd 87b2 b63d 0f96 7a3c
000000d0: c107 8c3b 8e2c db3c 3dbe 1a3c 2b4d 02bd
000000e0: e76b 933d 15e6 6f3c 6f73 7cbd 15d9 0abd
000000f0: 1874 aebd 5d9b 98bb feaa 843c f599 5fbd
00000100: 7584 f63c 50cb 17bc e5bb 6f3d e38d f73d
00000110: bbc6 13bc ecc5 41bd 30ce 063e 5bf2 673d
00000120: 5eee acbd 6342 a2bd 71ea 683d cc21 cebc
00000130: 562f 50bd c6d4 d3bd 1bae dfbd e706 53bd
00000140: 63b6 29bd d1e0 84bb 118b 99bd 1714 25be
00000150: b7d3 38bc a5a3 1e3d 5cbb 90be 26ba 31bd
00000160: a48d d639 c068 1fbe dc29 7dbd 7bcd 9cbc
00000170: 7448 933e 595f 843d a485 1d3d f07b b3bc
00000180: c750 953c 068a 0abe ed02 033d f635 c2bc
00000190: 1f85 d0bd 0b05 06bd d5bf 1f3d 67d8 213e
000001a0: 9d46 403c 682a a3bd 6ba2 7ebc d25c 77bd
000001b0: 588d 12bd 6b8e 86bc 6bb2 c73d d755 1f3c
000001c0: 9665 eebc 66c6 4dbd dfd8 afbd ab67 ddbd
000001d0: a2ff 80bd 538f 3f3e 00de 0a3e 3f37 b7bd
000001e0: 15fb edbc 8c36 c5bd 993c e0bb 6335 71bc
000001f0: 48af 07bd a411 c63d 482e 9abd c61d c03d
00000200: 21d4 de3c 862b 87bc b85d 183e c799 49bb
00000210: 97e6 353d ed72 6d3d 3bab c1bb 0891 313e
00000220: 89ea 283d f29f 69be bb91 ed3d eed5 353e
00000230: 8570 1dbd d22a 023e 3ee5 40bd d96f 5c3e
00000240: 1f09 a6bc 0d24 933c 3dd3 b93d 9ab7 8e3d
00000250: eb2a 87bd 3111 5e3d 9eda 3dbd 4d58 193c
00000260: f606 093e 1095 1e3e 7fd2 d53d ea5e 763d
00000270: 1067 173c 9874 2abe 6f12 d0bc a42d 12be
00000280: 14b0 12bd 92b1 813d 39d2 23be 92e7 763d
00000290: 74f0 b93d 5bfb 6c3e ab45 a83e c23c b5be
000002a0: 8f97 1bbe 2d73 f1bd 98d9 7fbe 1e2c 903c
000002b0: 01c7 623d 1c8c 2dbe e815 8c3d 0680 f43d
000002c0: 4ca4 1ebe f12f 89be eceb 343e 318f 34bd
000002d0: 735d 1b3d 7a7e c6bb 8693 d83d 4592 b3bd
000002e0: 5dcc 603e 6000 48be df5e 20be 62a1 9c3d
000002f0: a00b 603d 5a34 fc3c 5fdb 14be 2510 8e3c
00000300: 11e6 e7bb b3d2 5d3d acdb 8839 9786 4dbd
00000310: 6bd7 a8bd 7f81 463d 0002 933d b328 f3bd
00000320: 239f 8c3d 7976 db3d ec7c eabd 5e4f 6abd
00000330: 2a1f fabd 37c8 1fbe 4550 9d3d fca7 d9bd
00000340: 13fc 8bbd f12d d73d 8312 b0bd f6fd 9abe
00000350: f7dd 2b3d 1c16 66be 0163 fa3c d1c4 1a3e
00000360: eb7d e3bc 02da 90be 8b6b bcbd cd8f 2ebe
00000370: a8fb e63c 3495 eabb 10a7 b4bc 56bc 05be
00000380: 2a5c 243e 33d7 1dbb e477 0f3e 382e 413d
00000390: 84bc 18be 00c8 6fbe c1ed b8be fe32 a53e
000003a0: 56a7 f53d 2041 103e 368a cd3d faf0 5f3b
000003b0: 395b 4ebe 7c07 2e3d d450 09bd 14a5 8cbd
000003c0: 4d9a 353d e021 653e e7d0 7ebe e7ae 373e
000003d0: db08 253e 4284 973d 1bc8 8f3d feb3 9b3c
000003e0: 2bf2 e1bc 6349 043e 4569 d73d d4ec d4bc
000003f0: 5905 cabd ec5e 023e 2baa 913d a300 c43d

actor_fc2.bias f4 [32]
0.020095913 -0.1028437 -0.10607873 0.10579752 -0.006259147 0.14088894 0.012262984 -0.008604341
-0.10126556 -0.006014204 0.044333734 -0.11084388 -0.03981535 0.06763325 0.08792311 0.086321354
-0.06826753 -0.001002721 -0.1013661 0.024733633 0.029742679 0.07766074 -0.053437088 0.09138953
0.04707552 0.15922718 -0.049370386 -0.060610637 -0.0024375634 -0.06837805 0.025790203 -0.018283429
00000000: 2fa0 a43c b89f d2bd ce3f d9bd 5fac d83d
00000010: 8819 cdbb 3145 103e afea 483c 39f9 0cbc
00000020: 5164 cfbd cd12 c5bb 4a97 353d 1e02 e3bd
00000030: 6c15 23bd 4d83 8a3d 0811 b43d 40c9 b03d
00000040: d9cf 8bbd bc6d 83ba 0899 cfbd 309e ca3c
00000050: eba6 f33c 980c 9f3d d9e0 5abd 6f2a bb3d
00000060: 43d2 403d 730c 233e 9a38 4abd dc42 78bd
00000070: 87bf 1fbb cb09 8cbd fa45 d33c 21c7 95bc

actor_mean.weight f4 [1, 32]
-0.0030239013 0.008726134 0.17571245 -0.076650016 0.38595626 -0.06931799 -0.04027372 0.0024399154
-0.29788873 0.011134121 -0.008867833 -0.13654715 0.20485252 -0.24708574 -0.09138432 0.20452768
-0.34658372 -0.1610125 -0.24633774 -0.2321039 -0.24933815 0.22061585 -0.08518015 0.18877411
0.14222331 0.07363148 -0.18484615 -0.3252717 0.32860556 -0.35172117 -0.11752016 0.40521684
00000000: a52c 46bb 0ff8 0e3c f7ed 333e affa 9cbd
00000010: 0f9c c53e 97f6 8dbd 0ef6 24bd fde6 1f3b
00000020: df84 98be e36b 363c 634a 11bc 04d3 0bbe
00000030: dcc4 513e 0b04 7dbe b427 bbbd b46f 513e
00000040: 6c73 b1be 76e0 24be f63f 7cbe a5ac 6dbe
00000050: 8052 7fbe 1fe9 613e ee72 aebd 004e 413e
00000060: fda2 113e 1acc 963d 4f48 3dbe 038a a6be
00000070: fd3e a83e cc14 b4be 69ae f0bd 9578 cf3e

critic_fc1.weight f4 [64, 55]
0.07822636 -0.0014808117 0.016712096 0.008661057 -0.14348032 -0.03448213 -0.050741263 -0.02748439
-0.059159473 -0.053686764 -0.03526755 -0.03928461 -0.054645546 -0.12694345 0.046532217 -0.12871064
-0.06687523 -0.00076754123 -0.010049041 -0.048873894 -0.068348534 -0.00904479 -0.08867606 -0.040862042
-0.15911554 -0.053790204 -0.016935606 -0.043323733 -0.10922154 -0.049737755 -0.04413881 -0.064375564
-0.10046986 0.011937022 0.024427539 -0.024243152 -0.071418025 0.04814967 -0.06818376 -0.06834763
0.031738877 -0.07222598 -0.04806648 0.0710513 -0.04750406 0.04472229 -0.033491515 -0.04479945
-0.017465843 -0.035894807 -0.02944055 -0.036664817 -0.09307243 -0.062489662 -0.0385705 0.038164385
0.18575065 0.0125429565 -0.18440619 -0.002096355 -0.06231399 0.012359156 -0.059488382 -0.019027628
-0.0060023773 -0.06381799 -0.083540425 -0.057815496 -0.019146368 -0.054421477 -0.16066968 0.010613419
-0.11345848 -0.1346921 -0.05254432 -0.1522435 -0.04524952 -0.034692846 -0.020428492 0.1632719
-0.22063936 -0.1272468 -0.068296224 -0.08129432 -0.09598206 -0.120182596 -0.15349358 -0.18386339
-0.09499682 -0.121099904 -0.11448482 -0.06875801 -0.04146603 -0.14910072 -0.08248067 0.027130613
0.08600693 -0.17160669 -0.06774821 -0.04711928 -0.025848351 -0.12142651 -0.13090777 -0.2002716
0.038943287 0.13038526 0.016253877 0.041115426 0.08817864 -0.12692069 -0.07150088 0.002442716
0.2095421 -3.8475206 -0.09093456 -0.67398953 -0.9930631 -1.2413137 -1.4003286 -1.7016507
-1.7972498 -1.7222737 -1.6020535 -1.879965 -1.1020771 -1.5480404 -1.3593144 -1.0215795
-1.300795 -0.96700877 -1.1821464 -1.3898436 -0.8170315 -0.5106582 -0.71965975 -1.1227151
-0.98519194 -1.3382657 -1.1001348 -1.1937829 -1.2216579 -0.8896677 -1.1377689 -0.7639805
-0.78870976 -0.9998385 -0.95645314 -0.6287357 -0.75803876 -0.9415932 -0.8631769 -0.777872
-0.5681717 -0.39678943 -0.49710557 -0.62219316 -0.5449184 -0.58160365 -0.5666786 -0.5193642
-0.60799325 -0.5201642 -0.8433653 -0.79602003 0.024268262 -0.17397092 -0.0664117 -0.023411134
0.13436513 0.10167478 0.098760135 0.11687398 0.09466017 0.1804642 -0.034972142 0.07218158
0.08997912 0.063103445 0.088463366 0.09443515 0.040745363 0.068670474 0.061223414 0.073141456
0.08500306 0.00995585 0.05064265 0.039653353 0.031478856 0.06331389 0.009857214 0.059919197
0.038536415 0.05402057 0.05886827 0.06427225 0.0903109 0.006889645 0.050723594 0.07048973
0.06329648 -0.1136685 0.07844955 0.07368724 0.057791073 -0.036223326 0.060180124 -0.06971302
0.024356918 0.030070027 0.015851967 -0.014656911 0.09565233 0.07034338 0.15398481 -0.042803872
-0.045011565 -0.096835494 -0.27509344 -0.07815427 0.038347177 0.0018001562 -0.05871098 5.6659055
0.35515198 0.25570914 0.7176999 0.6809642 0.7838364 1.1824327 1.0756058 1.1660528
1.0302485 0.7701556 0.4303345 0.50664943 0.55146384 0.39779282 0.7213168 0.58818984
0.83766806 0.9053105 0.8563831 -0.0680481 0.1492674 0.1589464 -0.049980644 -0.096439525
-0.078232706 0.082892925 -0.049923964 -0.1525223 -0.17777961 -0.028441347 -0.011155611 0.0064662765
00000000: 2435 a03d cc17 c2ba cee7 883c 1be7 0d3c
00000010: 81ec 12be 223d 0dbd 12d6 4fbd f226 e1bc
00000020: 3451 72bd a7e6 5bbd b574 10bd e6e8 20bd
00000030: 02d4 5fbd 77fd 01be 9198 3e3d b9cc 03be
00000040: e1f5 88bd d234 49ba bca4 24bc fe2f 48bd
00000050: 51fa 8bbd 9930 14bc cb9b b5bd f55e 27bd
00000060: 2fef 22be 1e53 5cbd 8abc 8abc 3a74 31bd
00000070: 8baf dfbd d1b9 4bbd e6ca 34bd 56d7 83bd
00000080: 24c3 cdbd 8093 433c 431c c83c 9399 c6bc
00000090: 9d43 92bd 9738 453d eda3 8bbd d8f9 8bbd
000000a0: a000 023d 37eb 93bd 5be1 44bd 5883 913d
000000b0: 9e93 42bd b82e 373d 662e 09bd a17f 37bd
000000c0: 8714 8fbc 6f06 13bd 4f2d f1bc d92d 16bd
000000d0: c29c bebd 29f5 7fbd 1afc 1dbd 4252 1c3d
000000e0: 6b35 3e3e f980 4d3c fad4 3cbe 0063 09bb
000000f0: f43c 7fbd 0f7e 4a3c 17aa 73bd d4df 9bbc
00000100: 97af c4bb 02b3 82bd 3e17 abbd f1cf 6cbd
00000110: d8d8 9cbc 0ee9 5ebd 9886 24be e8e3 2d3c
00000120: eb5c e8bd baec 09be b638 57bd b8e5 1bbe
00000130: 9057 39bd 161a 0ebd a759 a7bc c030 273e
00000140: 49ef 61be fc4c 02be e4de 8bbd a37d a6bd
00000150: 3e92 c4bd 4b22 f6bd 6c2d 1dbe af46 3cbe
00000160: b18d c2bd 3a03 f8bd 0477 eabd 00d1 8cbd
00000170: 49d8 29bd dcad 18be a0eb a8bd 0541 de3c
00000180: 6724 b03d aab9 2fbe 93bf 8abd 2500 41bd
00000190: ecbf d3bc 76ae f8bd b00c 06be 0014 4dbe
000001a0: ff82 1f3d b783 053e da26 853c a668 283d
000001b0: 0197 b43d 7ff7 01be 0e6f 92bd f915 203b
000001c0: 3492 563e c73d 76c0 e63b babd 948a 2cbf
000001d0: 6239 7ebf 5ee3 9ebf f83d b3bf b1cf d9bf
000001e0: 480c e6bf 7773 dcbf 1710 cdbf b1a2 f0bf
000001f0: dd10 8dbf 3026 c6bf 04fe adbf 1ec3 82bf
00000200: 7380 a6bf e38d 77bf 9350 97bf 65e6 b1bf
00000210: fa28 51bf 7fba 02bf 9f3b 38bf 21b5 8fbf
00000220: 8a35 7cbf 4a4c abbf 38d1 8cbf e1cd 98bf
00000230: 495f 9cbf 43c1 63bf 69a2 91bf 3a94 43bf
00000240: e2e8 49bf 6af5 7fbf 1dda 74bf d3f4 20bf
00000250: d40e 42bf 410c 71bf 29f9 5cbf 9f22 47bf
00000260: b373 11bf fc27 cbbe 9f84 febe 0d48 1fbf
00000270: c67f 0bbf fae3 14bf d911 11bf 0df5 04bf
00000280: 72a5 1bbf 7b29 05bf cae6 57bf f8c7 4bbf
00000290: 3cce c63c 6f25 32be db02 88bd b5c8 bfbc
000002a0: 0397 093e de3a d03d c142 ca3d a05b ef3d
000002b0: 31dd c13d 9bcb 383e f33e 0fbd f0d3 933d
000002c0: f946 b83d 613c 813d 482c b53d 3767 c13d
000002d0: 9ce4 263d 1ba3 8c3d 67c5 7a3d 30cb 953d
000002e0: 1616 ae3d dd1d 233c ab6e 4f3d 8e6b 223d
000002f0: f9ef 003d b6aa 813d 2780 213c d56d 753d
00000300: 5cd8 1d3d ac44 5d3d db1f 713d 2ba1 833d
00000310: ecf4 b83d 88c2 e13b 8bc3 4f3d eb5c 903d
00000320: 96a1 813d 08cb e8bd 28aa a03d 56e9 963d
00000330: 55b6 6c3d e95e 14bd 6f7f 763d b3c5 8ebd
00000340: 2988 c73c 6b55 f63c fcdb 813c 8a23 70bc
00000350: 5ee5 c33d 3110 903d 32ae 1d3e 1d53 2fbd
00000360: 0c5e 38bd b051 c6bd 0cd9 8cbe 590f a0bd
00000370: ee11 1d3d 38f3 eb3a ed7a 70bd 194f b540
00000380: 7bd6 b53e 4fec 823e 2ebb 373f ab53 2e3f
00000390: 81a9 483f f459 973f 73ad 893f 3841 953f
000003a0: 2fdf 833f eb28 453f ce54 dc3e c7b3 013f
000003b0: bc2c 0d3f 80ab cb3e 38a8 383f 9c93 163f
000003c0: 6a71 563f 6ec2 673f ec3b 5b3f cd5c 8bbd
000003d0: 8ed9 183e d8c2 223e 81b8 4cbd 1682 c5bd
000003e0: 7838 a0bd c4c3 a93d 127d 4cbd ce2e 1cbe
000003f0: dc0b 36be d4fd e8bc 06c6 36bc 0fe3 d33b

critic_fc1.bias f4 [64]
0.51603496 0.19793554 -0.1570852 -0.40062365 -0.0995525 -0.39742997 -0.8733827 0.108057454
0.41457728 0.36666462 0.21253641 0.2619927 -0.028643593 0.17684273 -0.5029637 -0.5922464
-0.013923064 0.53514344 -0.06275899 0.5785658 -0.24387349 0.029728198 -0.23460026 -0.41720745
0.25002334 -0.40799475 -0.39621785 -0.22929329 -0.05186168 -0.3056918 0.41905192 0.7331031
-0.40816745 -0.60146666 -0.22985938 -0.4389921 0.55381024 0.031732246 -0.39544475 -0.57265764
-0.059108585 0.21078798 -0.11120255 -0.1430853 -0.11265401 0.2724871 0.35542896 0.14366165
0.6304799 -0.27128845 -0.37517074 0.00085703726 0.4284092 -0.3538241 -0.13142969 -0.26484704
0.13002871 -0.41900912 -0.40863898 0.41676953 -0.17131945 0.025804939 -0.15138665 -0.3160055
00000000: de1a 043f 9daf 4a3e f1da 20be 8b1e cdbe
00000010: 2ee2 cbbd f17b cbbe 0296 5fbf 3a4d dd3d
00000020: 7943 d43e 77bb bb3e 25a3 593e e823 863e
00000030: f8a5 eabc 4316 353e 3bc2 00bf 769d 17bf
00000040: 901d 64bc 29ff 083f c987 80bd e31c 143f
00000050: f9b9 79be 8d88 f33c 0d3b 70be 379c d5be
00000060: 0f03 803e b0e4 d0be 11dd cabe dccb 6abe
00000070: ea6c 54bd a383 9cbe f98d d63e a5ac 3b3f
00000080: 53fb d0be b8f9 19bf 4260 6bbe 93c3 e0be
00000090: 82c6 0d3f acf9 013d bc77 cabe b199 12bf
000000a0: d81b 72bd ced8 573e 2abe e3bd f484 12be
000000b0: 25b7 e6bd 6e83 8b3e c9fa b53e 0a1c 133e
000000c0: 2167 213f 52e6 8abe 6116 c0be ccaa 603a
000000d0: 7358 db3e 6f28 b5be 8195 06be 089a 87be
000000e0: 3f26 053e 5d88 d6be 2139 d1be d162 d53e
000000f0: 5e6e 2fbe e164 d33c 1a05 1bbe 79cb a1be

critic_fc2.weight f4 [32, 64]
0.035478428 0.13413332 -0.053604946 0.029880099 0.20673096 -0.17189565 0.14675596 -0.20264892
-0.047377218 -0.096606284 0.009403853 0.076626204 0.34672883 0.14962706 0.040223137 0.00023062188
0.0696085 0.08656931 0.106755346 0.0635407 0.15201405 0.26478714 0.012122621 0.06918422
0.14333457 -0.10268974 -0.12267944 -0.050168004 -0.05453496 0.060150377 0.17233759 -0.06999772
-0.121395566 0.036469758 -0.21401611 0.0888928 -0.15217794 -0.15016711 -0.15146859 -0.29825613
0.002946861 -0.09630563 0.006858578 0.07777553 0.19860692 -0.19248132 0.16091377 -0.15598017
0.05094885 -0.08746231 -0.3321701 0.09860695 -0.0752528 0.088198595 -0.14991505 -0.0054965355
-0.41855696 -0.07580373 -0.14894032 0.14571983 0.043816276 0.3477624 -0.15982664 -0.0347631
0.097010456 -0.14144199 -0.1881971 -0.094114065 -0.30557346 -0.11247324 -0.6041397 -0.02873775
0.0031887575 0.18422264 0.20164365 -0.06843229 -0.5636512 0.13467516 -0.30685923 -0.095843144
0.022707848 -0.0040631434 -0.1587873 -0.012483254 -0.23552768 -0.20469 -0.16403446 -0.12714215
-0.016190251 -0.009767798 0.0047612716 -0.08623512 -0.056693766 0.065362856 -0.09986259 0.08917522
0.028809963 -0.054707874 -0.15485416 -0.06255901 -0.0742092 -0.0729956 -0.09856397 0.16660497
0.05190887 0.076348715 -0.010086255 -0.11284238 0.048924867 -0.029580148 -0.11750547 0.19492765
0.11629161 0.05911055 0.032187857 -0.10330031 0.10668289 -0.039592102 0.13173215 -0.1069549
0.2560415 0.075065225 0.14423858 0.025938958 -0.022976106 0.07583504 0.077346556 -0.07116238
0.11268909 -0.07151666 -0.046975072 0.026748177 -0.035890073 0.068453446 0.055764575 -0.07072166
0.084784985 -0.01877836 -0.03919958 -0.018638728 0.09018157 -0.020425232 -0.06643469 -0.028715305
-0.03482641 -0.0055625755 -0.06132333 0.059344534 0.052746993 -0.059888795 0.033916205 -0.027073104
-0.021855563 -0.11499085 0.008632279 0.017417368 -0.108022474 0.01992273 -0.008166975 -0.04023442
-0.04027261 -0.086666204 -0.011790266 -0.1231941 -0.08024859 0.07924915 0.01974471 -0.09924465
0.01933726 0.06941735 0.121123865 0.11041391 -0.00014631673 0.14655417 0.10462815 0.026597984
-0.07308871 -0.035563264 0.050705567 0.036553927 9.895791e-05 -0.081769705 0.02783792 -0.045641642
0.07341051 0.00696424 -0.09821982 0.13317655 0.030767368 0.049188137 -0.09011109 -0.04313288
-0.022944178 0.02495683 0.290501 -0.0097573055 -0.3145586 -0.21917179 0.05473713 -0.22861804
0.0418105 0.12510231 0.036171224 0.008230013 -0.675834 -0.24925612 -0.31282416 -0.17549545
0.04510012 0.14865129 0.23299706 0.19688715 0.18246983 0.12154033 -0.36270645 -0.15128934
0.21753296 -0.20211467 -0.2562722 -0.20089614 0.25582194 -0.11315041 0.10256792 0.16971065
-0.046702314 -0.22540414 -0.13703156 -0.07092596 -0.037811354 -0.16832857 -0.21541165 -0.14729723
-0.10964497 0.038268033 0.14159797 0.060967024 0.034952078 0.04597782 -0.046004705 -0.3913103
0.07108385 -0.04059071 -0.33981952 0.080455415 0.16636707 -0.005534426 -0.1035325 -0.017934034
-0.40622708 -0.06352168 -0.23592503 0.050338496 -0.030788545 -0.12666368 -0.14712186 -0.047520544
00000000: d451 113d 3f5a 093e dc90 5bbd 1cc7 f43c
00000010: 48b1 533e 6a05 30be 3247 163e 3383 4fbe
00000020: 9d0e 42bd 84d9 c5bd 9e12 1a3c 33ee 9c3d
00000030: 7186 b13e d637 193e 04c1 243d 17d3 7139
00000040: e78e 8e3d 404b b13d 8ca2 da3d a021 823d
00000050: 92a9 1b3e 2e92 873e f59d 463c 75b0 8d3d
00000060: 4cc6 123e 004f d2bd 5c3f fbbd f77c 4dbd
00000070: 0d60 5fbd 3e60 763d 4479 303e f75a 8fbd
00000080: 3d9e f8bd 5061 153d 0a27 5bbe 6e0d b63d
00000090: 89d4 1bbe 68c5 19be 951a 1bbe 07b5 98be
000000a0: 2020 413b e33b c5bd ecbd e03b c748 9f3d
000000b0: 9d5f 4b3e d319 45be 94c6 243e 44b9 1fbe
000000c0: beaf 503d 711f b3bd 3312 aabe 71f2 c93d
000000d0: 241e 9abd 77a1 b43d 5583 19be 481c b4bb
000000e0: 194d d6be fc3e 9bbd d083 18be 9437 153e
000000f0: b278 333d ea0d b23e 98a9 23be c163 0ebd
00000100: 6bad c63d 2bd6 10be beb6 40be e0be c0bd
00000110: 2074 9cbe 5f58 e6bd e6a8 1abf 6e6b ebbc
00000120: 79fa 503b dca4 3c3e ac7b 4e3e 3a26 8cbd
00000130: 724b 10bf 49e8 093e a71c 9dbe 6949 c4bd
00000140: cf05 ba3c 1e24 85bb 2399 22be 9086 4cbc
00000150: 2b2e 71be 419a 51be a6f8 27be 8d31 02be
00000160: 6ba1 84bc 1d09 20bc 7104 9c3b 0a9c b0bd
00000170: b937 68bd f6dc 853d c284 ccbd 7fa1 b63d
00000180: df02 ec3c 5d15 60bd 1792 1ebe f01e 80bd
00000190: fefa 97bd b87e 95bd e8db c9bd 7e9a 2a3e
000001a0: 659e 543d b75c 9c3d d240 25bc e819 e7bd
000001b0: 7165 483d 1152 f2bc b5a6 f0bd 1d9b 473e
000001c0: 4c2a ee3d e71d 723d 6ad7 033d 1d8f d3bd
000001d0: 8f7c da3d 542b 22bd cbe4 063e 2c0b dbbd
000001e0: df17 833e ccbb 993d 47b3 133e f07d d43c
000001f0: 6338 bcbc 674f 9b3d df67 9e3d 95bd 91bd
00000200: 8ac9 e63d 5477 92bd ef68 40bd fe1e db3c
00000210: 7801 13bd 5231 8c3d 6569 643d 85d6 90bd
00000220: c0a3 ad3d 13d5 99bc bd8f 20bd 3fb0 98bc
00000230: 1db1 b83d d152 a7bc e90e 88bd 5c3c ebbc
00000240: 23a6 0ebd 4446 b6bb 2c2e 7bbd 4113 733d
00000250: 3b0d 583d f44d 75bd b8eb 0a3d 6ac8 ddbc
00000260: 700a b3bc 5380 ebbd 676e 0d3c deae 8e3c
00000270: e33a ddbd fe34 a33c c7ce 05bc d9cc 24bd
00000280: e4f4 24bd 0d7e b1bd f62b 41bc 304d fcbd
00000290: 5f59 a4bd 614d a23d a8bf a13c c740 cbbd
000002a0: 2c69 9e3c af2a 8e3d ca0f f83d b020 e23d
000002b0: 996c 19b9 4c12 163e 4947 d63d 04e4 d93c
000002c0: 89af 95bd c9aa 11bd a4b0 4f3d 92b9 153d
000002d0: a087 cf38 e076 a7bd 590c e43c bbf2 3abd
000002e0: 4058 963d 4834 e43b 7927 c9bd 6f5f 083e
000002f0: d90b fc3c 8079 493d 2a8c b8bd 1aac 30bd
00000300: 6ef5 bbbc 4472 cc3c 8cbc 943e 1bdd 1fbc
00000310: d30d a1be 926e 60be 0a34 603d d91a 6abe
00000320: 7d41 2b3d d21a 003e 4728 143d 2dd7 063c
00000330: 7503 2dbf ff3c 7fbe 7d2a a0be 14b5 33be
00000340: e7ba 383d 0b38 183e c896 6e3e c99c 493e
00000350: 5fd9 3a3e 23ea f83d a9b4 b9be 98eb 1abe
00000360: f6c0 5e3e 26f7 4ebe 1c36 83be b8b7 4dbe
00000370: 18fb 823e 67bb e7bd 210f d23d a1c8 2d3e
00000380: ed4a 3fbd 58d0 66be 0052 0cbe a141 91bd
00000390: 14e0 1abd 535e 2cbe df94 5cbe 16d5 16be
000003a0: 8b8d e0bd f1be 1c3d 0fff 103e 8fb8 793d
000003b0: e929 0f3d 3d53 3c3d 6e6f 3cbd d359 c8be
000003c0: 6994 913d 7242 26bd d3fc adbe cfc5 a43d
000003d0: 215c 2a3e 215a b5bb d908 d4bd 65ea 92bc
000003e0: fffc cfbe a817 82bd 5596 71be bd2f 4e3d
000003f0: 4238 fcbc 20b4 01be 1da7 16be e7a4 42bd

critic_fc2.bias f4 [32]
0.009984757 0.19317465 -0.1511837 0.28118226 0.17949286 0.17350748 0.13361196 0.061477385
-0.032003086 0.0065135257 0.25021353 0.084779926 0.2278285 -0.16091576 -0.21386044 -0.3950284
-0.3501972 -0.30424136 -0.31489322 0.091264986 0.31015065 -0.27921638 -0.22682041 0.47948205
0.050772984 -0.23463666 0.23735127 -0.010350966 0.03723609 -0.08132657 0.2912915 -0.2844901
00000000: 1b97 233c 93cf 453e e6cf 1abe 1ff7 8f3e
00000010: facc 373e f2ab 313e 93d1 083e b6cf 7b3d
00000020: ab15 03bd 6a6f d53b fd1b 803e 19a1 ad3d
00000030: e04b 693e 1ac7 24be 3bfe 5abe 2a41 cabe
00000040: 0c4d b3be 86c5 9bbe af39 a1be 23e9 ba3d
00000050: 11cc 9e3e 73f5 8ebe 9c43 68be ac7e f53e
00000060: 55f7 4f3d 9844 70be 360c 733e 1997 29bc
00000070: df84 183d 8b8e a6bd 2924 953e b0a8 91be

critic_value.weight f4 [1, 32]
0.0798081 -0.08170366 0.007241417 0.31049243 0.11022814 -0.5300853 0.07330458 0.0053878245
0.01227753 0.0077222744 -0.020482179 0.08551476 -0.12520988 -0.11452224 0.3442183 -0.24998717
-0.37218678 0.38010183 0.6515494 0.36883014 -0.38873127 -0.2250793 -0.13658738 0.521815
-0.014393855 0.05756883 0.18474478 -0.21176477 -0.012107343 -0.0031079995 0.23074932 -0.29471973
00000000: 6e72 a33d 4054 a7bd 6949 ed3b ddf8 9e3e
00000010: 4bbf e13d acb3 07bf b620 963d 598c b03b
00000020: b127 493c 220b fd3b 3eca a7bc 5d22 af3d
00000030: 0537 00be a38a eabd 623d b03e a3fc 7fbe
00000040: 448f bebe b59c c23e f1cb 263f 4ed7 bc3e
00000050: c907 c7be 307b 66be 90dd 0bbe ab95 053f
00000060: 34d4 6bbc 4bcd 6b3d bc2d 3d3e ddd8 58be
00000070: e15d 46bc 94af 4bbb 8d49 6c3e 81e5 96be
