experiments/exp024_correct_future/model.pth (torch, 156315 bytes, 11 tensors)

conv.0.weight f4 [16, 2, 5]
000000 f9 10 1a be 87 2b 43 be 6b 09 2f 3e b1 70 98 bb
       -0.15045537 -0.19059573 0.17093436 -0.0046521057
000010 38 6c cb bd dc 26 5c be 47 53 1a 3e 88 38 8b 3e
       -0.099327505 -0.21499199 0.1507083 0.27191567
000020 1d f4 b7 bb 6c fd 77 3e 1d ad 28 3e d2 0a 16 be
       -0.0056138174 0.24217767 0.16472287 -0.14652565
000030 e3 ce 86 bd 04 1b 44 be cb 9c f4 3d 7b 57 6d 3b
       -0.06582429 -0.1915093 0.119439684 0.0036215473
000040 5c 20 9d bd 09 ac 09 be cb f4 d5 3c 82 34 95 be
       -0.07672188 -0.13444532 0.026117703 -0.29141623
000050 c4 b3 a8 3d 39 73 c1 bc 8a 73 53 bd 8c 85 1d bd
       0.082374126 -0.023614513 -0.05162386 -0.03845744
000060 66 66 ed bc dc 77 10 3e 2f 23 d2 bd 8b 1a d0 3d
       -0.028979491 0.14108223 -0.10260617 0.10161313
000070 35 9d 77 be c2 d5 73 be b0 9c c5 3e 15 ee d8 3e
       -0.24181063 -0.23812011 0.38596106 0.42369142
000080 ff 16 cd 3d b0 62 c7 3e 9c 51 75 3e 38 de 04 3e
       0.10014152 0.3894248 0.23956913 0.12975395
000090 e4 45 6c bd d1 52 a0 bd b5 12 a9 be 5a d4 8a be
       -0.05768384 -0.07828296 -0.33022085 -0.27115136
0000a0 9c 8f 2a 3e 81 cd 2a bd a9 66 67 3e e8 71 91 be
       0.16656345 -0.04169989 0.22597755 -0.28407216
0000b0 63 01 2c 3d 9c 1b 98 3e b0 d3 64 3e fb fb 9e be
       0.04199351 0.29708564 0.22346377 -0.3105162
0000c0 2e 50 59 3d 31 55 27 3e 40 12 98 be 61 d4 a4 bd
       0.05305498 0.16341092 -0.29701424 -0.080483206
0000d0 9c 16 8a 3d 2f 3d 54 3d 52 6d 95 3d 46 97 34 3e
       0.06742594 0.05181616 0.07296242 0.17635831
0000e0 22 e8 81 bd ff 10 31 3e 31 2f 7f bd e4 cf c3 3d
       -0.06343104 0.1729164 -0.062300865 0.09561136
0000f0 ea 3d 84 be 9a 85 2f be 78 55 5b bd 13 03 57 3e
       -0.25828487 -0.17140809 -0.053548306 0.20997266
000100 30 48 a4 b9 cb 59 58 bd 8e b7 38 bd 1b e9 31 be
       -0.00031334301 -0.05282001 -0.045096926 -0.17374079
000110 de 00 48 be f1 17 a9 3e fb 2b 93 3d ca 83 68 3e
       -0.19531581 0.33026078 0.07186123 0.22706524
000120 fd c1 7e 3e 23 64 89 3e 2f 2e 2d 3e 2f 61 a0 3d
       0.24878688 0.2683421 0.16912149 0.07831036
000130 ec 08 2f 3e d1 73 7c 3c e7 f4 83 be ad 47 24 3e
       0.17093247 0.015408472 -0.25772783 0.16042967
000140 50 7a 36 3e 94 3d b9 3d 06 0f 47 be d5 99 18 be
       0.17820096 0.09044948 -0.19439325 -0.14902432
000150 4b 52 22 be d6 73 60 3e 04 ee 8a 3e 5c 31 4c 3e
       -0.15851705 0.21919188 0.27134717 0.19940704
000160 20 1d fd 3d 1e 33 f0 bd f4 86 b5 3e 87 3b 86 3e
       0.12359071 -0.117285 0.35454524 0.2621729
000170 57 49 8b 3e b3 e7 0a 3f 8d 72 f0 3e 18 ce 79 3e
       0.2720439 0.54259795 0.46962395 0.24395025
000180 f7 c8 d1 bc 39 f5 cb 3c 85 0e 9a be ab 80 e6 3d
       -0.025608523 0.024897205 -0.30089203 0.1125501
000190 20 f6 48 bd e3 e1 14 3e ca 0c 43 be da ad 68 3e
       -0.049062848 0.14539294 -0.19047847 0.22722569
0001a0 e3 2e 3d be d8 67 94 3e 9e 30 46 be f5 87 1b be
       -0.18474917 0.28985476 -0.19354483 -0.15188582
0001b0 39 ab 83 be 21 0a 62 be 4f 85 2a 3e 51 a4 b3 3e
       -0.2571657 -0.22074176 0.16652416 0.350863
0001c0 28 1e b6 3e 02 02 0b 3f 68 6c 9a 3e 91 2c 54 be
       0.35569882 0.5429994 0.30160832 -0.20720126
0001d0 58 bc 87 be 81 29 99 3e 66 58 5a 3e 4c c0 5f 3e
       -0.26510882 0.29914477 0.21322784 0.21850699
0001e0 7d 2f 68 3e 18 31 74 be 77 48 67 3d 87 fa b3 3e
       0.22674365 -0.23846853 0.056465592 0.35152075
0001f0 65 5a 97 3e eb 56 3a 3d 8d c3 90 3e 39 81 08 3d
       0.29561153 0.045493048 0.28274193 0.03332636
000200 d5 d9 c6 3d 23 be 85 3e 2b b1 26 be d4 b7 6c be
       0.09709517 0.26121625 -0.16278522 -0.23117
000210 38 df 3c 3e f7 86 89 be 63 86 a7 bd dd 75 3b be
       0.18444526 -0.26860783 -0.08179929 -0.1830668
000220 80 c8 b9 3c e4 e1 58 3d 31 48 09 be 8b d3 49 3e
       0.022678614 0.0529498 -0.13406445 0.19709603
000230 23 74 1d be e5 42 28 3e 32 91 5f be ba dc 32 be
       -0.15376334 0.16431768 -0.21832731 -0.17467013
000240 b3 77 8f be 2c 14 29 3e 38 93 6f bd ca 77 94 be
       -0.2802101 0.16511601 -0.058490008 -0.28997642
000250 40 73 10 be 8d ae 2c 3e f0 8b c9 3c 24 7a 1a 3e
       -0.14106464 0.16863461 0.02460286 0.15085655
000260 0d f0 c8 bd 4c 02 ea bc c5 f4 11 be e7 fe 79 bd
       -0.09811411 -0.028565548 -0.14253528 -0.06103411
000270 21 3a cd 3d 7c 3d 8c be 9f ea 1b 3e 47 20 62 3e
       0.10020853 -0.2739066 0.1522622 0.22082625

conv.0.bias f4 [16]
000000 3a 1d 99 be 17 eb 3e 3e 20 f1 21 3e 66 e1 74 be
       -0.2990511 0.18644367 0.15814638 -0.23914108
000010 2a 53 61 be 0c a9 51 be a2 46 03 3e 72 60 4d be
       -0.22004381 -0.20474643 0.12819913 -0.20056322
000020 b3 58 45 3e 81 a8 79 3e 6c 42 0e be 52 c6 44 3e
       0.19272117 0.24380685 -0.13892525 0.19216278
000030 48 65 3f bd a1 50 8c be ed af 20 be 33 d3 42 be
       -0.04672745 -0.27405265 -0.1569211 -0.19025879

conv.2.weight f4 [32, 16, 5]
000000 9d 81 e2 bd b7 3b b0 bd b2 33 b8 3d 43 5f da bd
       -0.11059878 -0.0860514 0.08994235 -0.10662701
000010 97 79 cc ba 04 4b 4e bc 0f d9 bd 3d 97 32 50 3c
       -0.0015600201 -0.012591127 0.09269916 0.012707374
000020 33 c7 a2 bc 64 b2 66 3d bf 5d eb bc c5 03 14 bd
       -0.019870376 0.05632247 -0.028731225 -0.036136407
000030 e5 a4 78 3d 92 35 d1 bd 3b 8a 36 3d 61 5a e9 bd
       0.06070413 -0.10215296 0.04456542 -0.113941915
000040 be 16 23 bd 9b 77 c7 bc 29 44 45 bc 65 d1 96 bd
       -0.03981661 -0.024349025 -0.012040176 -0.073641576
000050 61 77 6e bc dc 57 b5 bc e8 4f c9 bd 04 a5 b0 bd
       -0.014554829 -0.022136621 -0.09829694 -0.08625224
000060 79 26 4c bd 28 e0 20 3d d1 c7 c8 3d 23 a8 f2 bc
       -0.049841378 0.039276272 0.09803737 -0.02962119
000070 25 25 bd 3d b1 1a 81 bd a2 a1 31 3d 4b 89 00 bd
       0.092356004 -0.06303919 0.043367036 -0.031380933
000080 bd e1 85 bd b1 47 88 3c 50 3c 28 bd 0d 34 52 bd
       -0.06537197 0.016635748 -0.041073143 -0.05131917
000090 9d 8a 4a 3b af 87 9d 3d 8b 75 7e bc c8 55 a0 3d
       0.0030905374 0.07691895 -0.015530954 0.078288615
0000a0 73 6d 2d 3d fb d4 8a bd d0 fd b4 3d 21 ee e1 3c
       0.042340707 -0.06778904 0.088374734 0.027579369
0000b0 5c 4e c6 3c 08 99 08 3d 98 02 a2 3d 59 02 3d bc
       0.024207287 0.033349067 0.07910651 -0.011536204
0000c0 c9 37 cd bd 9a 49 d0 3b 73 ba c5 bd 0a e4 bb 3d
       -0.10020406 0.0063564302 -0.09654703 0.091743544
0000d0 a2 3e c7 bd c2 be 4d 3d bd 24 b6 3d 05 e5 dd 3d
       -0.09728743 0.05023075 0.08893726 0.10834698
0000e0 b6 a4 85 3d 43 f1 70 3d 38 3a 76 bd f5 4f 20 3d
       0.06525557 0.058823835 -0.060114115 0.039138753
0000f0 60 ce b5 bd 97 9f c2 3d e9 82 a9 bc be dc 58 3c
       -0.088772535 0.095030956 -0.020692306 0.013236223
000100 e1 6f 8b 3d 96 a4 2f bc dc ec c9 3a 16 b5 ee 3c
       0.068084486 -0.010720393 0.0015405673 0.029139083
000110 73 34 40 bd 2b 4d c1 bc cf a8 db 3d 5f 88 15 3d
       -0.04692502 -0.023596367 0.10725557 0.036507007
000120 37 a0 a3 3d 07 54 ce bd 09 74 f0 3c 03 18 ba 3d
       0.07989543 -0.10074621 0.029352205 0.09086611
000130 94 58 cb 3d e7 16 e0 3d fa 78 e3 bb c8 76 ad bd
       0.09929004 0.10941868 -0.0069419118 -0.08469921
000140 a7 a7 f0 3d 12 59 12 3d da c0 a0 3d c2 99 f3 3c
       0.11750727 0.035729475 0.078492835 0.029736403
000150 1d 0d 0f 3d 69 64 ab 3d be 6c b6 3d c8 3b 29 3d
       0.034924615 0.08368761 0.0890746 0.041316777
000160 e8 4e 4e 3d 42 88 09 3d be 95 2c bd fd 72 96 3d
       0.05036822 0.03357721 -0.042134993 0.07346151
000170 c5 25 82 3d 0e d7 01 3e e1 5b 83 bd e1 e3 94 3d
       0.0635486 0.12679693 -0.06414009 0.07270027
000180 71 87 ca 3d 56 ad 4e 3d 9e 92 e6 3d bf 85 ba 3d
       0.09889115 0.050458275 0.11258434 0.09107541
000190 c2 18 6b 3d c7 a9 84 bd 3a 3f 58 bd fb b7 7f bc
       0.057396658 -0.06477695 -0.052794673 -0.015607829
0001a0 23 77 d0 3d cf 4c 9e 3d dd af a8 3d f4 43 0f 3d
       0.101789735 0.07729494 0.08236668 0.034976915
0001b0 47 e6 4f bd 79 0c 14 3c 62 1e b2 3d 94 7c 3e 3d
       -0.05075672 0.009036177 0.08697201 0.046505526
0001c0 13 2b b0 bd b7 dc a8 3d cb 23 6c 3d 0f 06 79 bd
       -0.08601966 0.08245223 0.057651322 -0.060796794
0001d0 cb c0 3f bd 94 39 03 bd b3 b5 83 3d cc 96 aa 3d
       -0.04681472 -0.032037333 0.06431141 0.083295435
0001e0 9e 24 b8 3c d0 8d e8 bc cf ed 2f bc 05 0e 43 3d
       0.022478398 -0.028387934 -0.01073785 0.047620792
0001f0 e7 b7 5f bd 9c 97 cc 3c aa bd 4b bd 58 fe b9 bc
       -0.054618742 0.024974637 -0.049741425 -0.022704288
000200 d7 55 a8 3d 63 64 55 bc 8c e5 b9 bd 4d 64 54 bd
       0.08219498 -0.013024422 -0.09076986 -0.051853467
000210 90 16 33 3d 04 ef 92 3a 97 d3 80 bd 03 31 ba 3d
       0.04372269 0.0011210148 -0.062903576 0.090913795
000220 6b 1c de 3d 7f 5c 8d 3c e6 0b b7 3d e2 1f ee 3d
       0.10845264 0.01725602 0.08937816 0.11627175
000230 fd fc f4 3d df e3 38 3d fe d4 d3 bd 91 27 18 3c
       0.11962316 0.04513919 -0.103433594 0.009286777
000240 1b bb d7 bc 88 a6 42 bd 93 51 0e 3d b6 7a 88 3d
       -0.026334336 -0.047522098 0.034745764 0.0666403
000250 ea 32 04 3d 69 05 64 3c 54 09 95 3d 9e 14 01 3e
       0.032275118 0.0139173055 0.0727717 0.12605521
000260 82 e4 8f bd 47 f9 82 3d 6f 2c 60 bd 1c a9 30 3d
       -0.07026006 0.06395202 -0.054729875 0.043130025
000270 a9 65 e4 3d 33 3d eb 3d 4b 0c 8a b9 01 fb 95 bc
       0.11152203 0.11486282 -0.0002633057 -0.018308165
000280 04 67 f6 bd 23 0b b6 bc af b6 b7 3d 43 e5 b7 3c
       -0.120313674 -0.022222107 0.08970391 0.022448188
000290 2e d0 74 bd a5 5b 6a bb 2a 68 5a 3d 4c 89 a4 3d
       -0.059768848 -0.003576019 0.053321995 0.08034
0002a0 cc d4 64 3d c9 26 28 3d c9 2f e0 3c 42 a4 26 3b
       0.055867 0.041052613 0.027366536 0.0025427495
0002b0 db ca e8 bd 92 bb ba bd b1 4c cc 3b 5c 9c 85 3d
       -0.113668166 -0.091178074 0.0062347283 0.06523964
0002c0 63 56 ae 3d ac e2 96 bd da 74 f9 3c 11 f9 be 3d
       0.08512571 -0.07367453 0.030451227 0.093248494
0002d0 96 78 e6 3d ca f7 c3 3d 9e d4 bf bd e8 f1 10 bd
       0.11253469 0.095687464 -0.093667254 -0.03538695
0002e0 a5 b3 9d 3c 1f d3 66 3d 20 35 5f bd 40 d8 1d bd
       0.0192507 0.056353685 -0.054494023 -0.03853631
0002f0 9b 02 bd bc d4 eb 0e bd 43 1a 00 be 88 06 c5 bd
       -0.023072531 -0.034892872 -0.12510018 -0.09620386
000300 ef 6e 22 bc d5 53 f3 bc fa ee a0 bc 12 8c 8b bd
       -0.009914144 -0.02970306 -0.019645203 -0.06813826
000310 46 40 c3 3d f1 7c 68 3d 01 58 da 3d 06 f7 0d bd
       0.095337436 0.05675978 0.10661317 -0.034659408
000320 2c bc fd 3b 22 4b 68 bd 72 bf b1 3c d7 92 b2 bd
       0.007743379 -0.056712277 0.021697734 -0.08719414
000330 af f5 c6 bd 64 9f e6 3b da 6e 4f 3d e6 9f 86 bd
       -0.09714829 0.007038044 0.050642826 -0.06573467
000340 9a 93 9c bd 93 25 0f bd 42 88 d6 3c c4 4c cb bd
       -0.0764534 -0.034947943 0.02618802 -0.09926751
000350 48 7e 75 bc 17 c6 80 3c a5 6f 4d 3d ff 4f b9 bd
       -0.014983721 0.015719457 0.0501553 -0.09048461
000360 e5 bd 82 3d 68 7b f1 3c d7 ac f1 3c e7 16 2e bd
       0.06383876 0.02947779 0.029501362 -0.04250231
000370 02 4e e6 3d 19 65 84 bd bb 32 85 3d bf fc a5 3d
       0.112453476 -0.06464595 0.06503817 0.08104848
000380 82 37 83 bc 8a f1 6c bb 27 51 e3 bb 0b 87 f8 bb
       -0.01601768 -0.003615471 -0.0069371643 -0.0075844578
000390 5e b6 06 3d c3 9a 9c 3c 7a 98 50 bd 64 c1 3a 3d
       0.032888763 0.019116765 -0.050926663 0.045594588
0003a0 fd 63 94 3d 3d c8 50 3d 28 3c ba bd 5d 82 a7 bd
       0.07245634 0.050972212 -0.09093505 -0.08179162
0003b0 a5 10 f6 bd 5a 50 92 3a 30 bc 8e 3c 66 2d 49 3d
       -0.120148934 0.0011162863 0.01742372 0.04911556
0003c0 f4 cb 97 bd db f5 58 3c ce 64 d1 3d f9 85 83 bd
       -0.07411948 0.01324221 0.10224305 -0.06422038
0003d0 b2 07 09 bb 1a 63 78 bd f0 d4 a4 bc 6f 92 d4 3d
       -0.0020909128 -0.060641386 -0.020121068 0.103794925
0003e0 72 d3 cf bc cf 48 43 3d b7 e3 d8 3d 3f e4 bf bd
       -0.02536938 0.047676858 0.10590308 -0.09369706
0003f0 6a 43 e4 bd 70 9d 79 bd 7c 51 47 bc bf c0 65 3d
       -0.11145671 -0.06094116 -0.0121654235 0.05609202

conv.2.bias f4 [32]
000000 d6 c3 1d 3d 95 50 a0 bc a3 9c 93 bd ee b2 48 3c
       0.03851684 -0.019569675 -0.072076105 0.012249691
000010 c9 f0 35 bd a2 82 a1 3c 05 71 68 3d a8 84 52 3d
       -0.044419084 0.01971561 0.05674841 0.051396042
000020 fa 84 a2 3d 9d 1f 6a 3b 2e 26 d5 bc 41 27 8a 3d
       0.079355195 0.003572441 -0.026019182 0.06745768
000030 3f 76 24 bd 4f 23 01 3a e3 cb 6c 3d 78 ae 95 3d
       -0.04015183 0.0004926221 0.05781163 0.07308668
000040 5f 72 c5 bd 04 33 c4 bd df 3a cb bc 24 93 1a bd
       -0.09640955 -0.09580043 -0.024808345 -0.03773798
000050 b6 dc d0 3d 57 de fe bd f6 75 9b 3b 00 1b 4b 3d
       0.10198347 -0.12444752 0.0047442866 0.049586296
000060 47 9f 4c 3d b5 a7 8d bd 61 19 58 bd 5e e1 5b bd
       0.049956586 -0.06916753 -0.05275858 -0.053681724
000070 8e c6 4c 3c bf 49 48 bc ca f4 3c bd 28 16 d0 3c
       0.012498511 -0.012224614 -0.046131887 0.02540119

conv.4.weight f4 [16, 32, 3]
000000 04 ab 54 3d 88 e9 bf 3b e1 ce b5 3c c5 7a 96 bd
       0.051920906 0.0058566965 0.022193374 -0.07347635
000010 c7 55 93 3b 05 6a ac 3d 3c 18 b3 bd 63 63 bb bd
       0.0044963094 0.08418659 -0.08744857 -0.09149816
000020 b8 92 3c 3d 57 49 c3 bd 98 12 c6 3d 5a bf e5 bc
       0.04603836 -0.09535473 0.09671515 -0.028045345
000030 33 b2 ba bd da e5 fe bc 14 68 14 bd 37 b4 b7 3d
       -0.0911602 -0.031115461 -0.03623207 0.0896992
000040 9e 5e f6 bc 25 6c 10 3d 35 8c b2 bc 1c bb 25 bd
       -0.030074414 0.035259385 -0.021795372 -0.040461645
000050 71 18 96 3c a4 dc 8d bc e0 ec b3 bc 36 de 04 3d
       0.018322201 -0.017317124 -0.021963537 0.03243848
000060 43 77 1b be c3 0e d8 bd c2 e6 05 be 23 bf 9b 3d
       -0.15182213 -0.105496906 -0.13076308 0.07604816
000070 2e c0 b3 bd a6 f5 d0 3d 28 18 27 bd 40 61 52 3d
       -0.0877689 0.10203104 -0.04079452 0.051362276
000080 e6 20 6f 3d 44 66 cd bd 15 20 6c 3c 0a b7 bd bd
       0.058380984 -0.10029271 0.014411946 -0.092634276
000090 ad df 5f bc aa eb 15 3d a3 1d d4 bd 48 bc bc bd
       -0.013664168 0.0366017 -0.10357215 -0.09215599
0000a0 79 31 c0 3d b2 82 85 3d 71 82 28 bd 9b ac d2 bd
       0.09384436 0.06519069 -0.041140024 -0.10286828
0000b0 97 2a 19 3c dc e3 c0 3d 4f 68 bf bd f3 f1 b7 bd
       0.009348533 0.09418461 -0.09346067 -0.08981695
0000c0 d8 d7 e1 bb dd 67 c1 bd c1 b3 47 bd 3d 7a 53 3d
       -0.0068921857 -0.094436385 -0.04875541 0.051630247
0000d0 0a 5c 14 bc 93 84 43 3d 7c 62 b0 3c 22 34 51 3d
       -0.009055147 0.047733855 0.021531336 0.05107511
0000e0 97 c2 b4 bd a9 cd ba bd 73 0d 1e 3c ac 6f 32 ba
       -0.088261776 -0.09121258 0.009646761 -0.00068068015
0000f0 10 d6 d9 bd 52 7a 31 bd f7 bf 66 bd e6 33 a3 3d
       -0.10636532 -0.043329544 -0.056335416 0.07968883
000100 ed b2 8d bd 25 77 9d bd af 83 b2 3d 6a ef ce bc
       -0.06918893 -0.07688741 0.08716523 -0.025260646
000110 e0 4d 17 3d a1 83 b2 3d a1 6e 90 3c 2a 6b d7 3d
       0.0369395 0.087165125 0.017630877 0.10518487
000120 ad 96 15 3d 0d 43 1e 3c 08 ee 74 3d e9 06 74 bc
       0.03652065 0.009659541 0.059797317 -0.014894226
000130 a9 d0 cc bc e9 b6 b5 bd d7 a5 a2 bd 06 a0 ae bd
       -0.02500184 -0.08872778 -0.07941788 -0.08526616
000140 27 97 a4 3d 13 bc 43 bb 56 4a 38 3d 39 8f a8 bd
       0.080366425 -0.002986674 0.044992767 -0.082304426
000150 0f 3d 13 bd a6 5b c5 3c f1 75 f5 3d fd 27 8e ba
       -0.035946902 0.024091553 0.11985386 -0.0010845658
000160 40 82 18 bd a6 54 7f bd ef 0e a8 bd b0 3a 31 bd
       -0.03723359 -0.062336586 -0.08205973 -0.04326886
000170 3f cd 30 3d b5 ed 37 bd 6a b0 59 bd 3d 77 ce 3d
       0.043164488 -0.04490443 -0.053146757 0.10081337
000180 9a f1 4f bc b7 4a 67 bc 02 ac 6b 3d 67 9a c9 bd
       -0.01269188 -0.0141169345 0.057537086 -0.09843903
000190 81 7f ad bd 65 eb a5 3d f4 cf 6d bd ba 14 80 bd
       -0.08471585 0.081015386 -0.058059648 -0.06253953
0001a0 cc 8e 06 bc be c2 ee 3c 70 de 98 3c 83 a3 b7 bd
       -0.008212756 0.029145595 0.018660754 -0.08966734
0001b0 13 6e ae bd f5 a7 4f 3d 35 3e c1 3d f5 d9 32 3d
       -0.08517089 0.050697286 0.09435693 0.04366489
0001c0 99 b5 8c bd 33 ef bf bd 79 74 1e 3d 19 cf 78 bb
       -0.068705745 -0.093717955 0.038685296 -0.0037965237
0001d0 54 1d 14 3d f8 53 dc bc da a4 c9 bd 54 03 c2 bc
       0.036160782 -0.026895508 -0.09845896 -0.023683228
0001e0 a4 ed 0d bd 69 60 e9 3d 92 8b 7f bd 47 8a 0e bd
       -0.03465046 0.11395342 -0.062388964 -0.03479984
0001f0 9e d0 bf 3c 9f cc 05 3d 06 9e 8e 3d 75 a8 1f bd
       0.023414906 0.032665845 0.06963734 -0.038979013
000200 84 1a 93 bd 1c e9 ba 3d ce 03 82 3d cf a7 4f bd
       -0.07182792 0.09126493 0.06348382 -0.050697144
000210 76 7e 1d 3d 22 17 80 3d 3d 44 a7 3c 41 11 91 3c
       0.03845068 0.06254412 0.02041828 0.017708423
000220 11 0b 4f bc f7 cf 28 bc 44 03 a3 bd cc e3 81 3d
       -0.012636916 -0.010303489 -0.07959607 0.06342277
000230 79 50 99 bd f0 01 b8 3c 9f 6c 98 bd af 72 9e bc
       -0.07486052 0.022461861 -0.07442593 -0.019341795
000240 d5 9a 89 3d 86 e4 d5 bd f4 d1 1f bc 0d 1b 9d 3b
       0.06718985 -0.10443978 -0.009754647 0.0047944845
000250 0b 8e 76 3c 37 2f 09 3d 4e 2e 50 3c 74 e1 4c bc
       0.015048514 0.033492293 0.012706352 -0.012504924
000260 0a 9b 6e 3d 9d c2 02 3d c1 15 70 3d 01 e5 e6 bc
       0.058253326 0.03192388 0.058614496 -0.02818537
000270 9c 28 72 bd f6 f5 7f 3c 10 f0 bf 3d 83 91 8d 3d
       -0.05912076 0.0156226065 0.0937196 0.0691252
000280 d3 b3 32 3d c1 54 92 bc f8 78 cb bd cf 0b ab 3c
       0.043628525 -0.01786268 -0.09935182 0.020879654
000290 7b 85 c4 3d e2 b7 18 bd 38 a0 f7 3c 10 d6 c7 3d
       0.09595772 -0.03728474 0.030227765 0.09757626
0002a0 87 7c 3c 3d 0a 6d 7f 3d a6 fe 32 bd d7 d6 5b bc
       0.046017196 0.062359847 -0.043699883 -0.013417921
0002b0 31 7a 44 bd f3 2c 93 3c 99 89 23 3d 7e 7d bc 3d
       -0.047968093 0.01796577 0.039926145 0.09203623
0002c0 37 52 07 bd 5a b2 84 3d 7b b0 24 bd 22 6c 86 bd
       -0.03303739 0.0647933 -0.040207367 -0.065635934
0002d0 69 ea c4 bc 04 b0 d0 3d f4 2c 00 bd fa ef 6f 3d
       -0.024037557 0.10189822 -0.03129287 0.05857847
0002e0 64 f0 f7 bc 53 c9 c8 bd 63 63 7b bd ad ca a7 3d
       -0.030265994 -0.098040245 -0.06137408 0.08192954
0002f0 a8 ae 95 3d fa 84 48 3c 67 ef 24 3d 63 6c 9e bd
       0.07308704 0.012238735 0.040267374 -0.07735517
000300 33 8e c9 bd 65 0c 43 bc de 14 ab 3c f7 ae d1 bd
       -0.098415755 -0.011904811 0.020883974 -0.1023845
000310 f4 86 b8 bd d8 9e 4b 3c 80 9e 5f bc c5 fa a3 bd
       -0.09010115 0.012428008 -0.013648629 -0.08006815
000320 c0 15 da bd 96 7c b8 3d 2c 90 98 bd 76 b6 bc bd
       -0.1064868 0.09008138 -0.074493736 -0.09214489
000330 cd 3d 07 bd 2e 93 b3 3d e6 24 97 bc 98 72 9e 3d
       -0.033017922 0.08768307 -0.018450212 0.07736701
000340 aa 64 29 bd 31 b9 68 bd 90 aa c3 3d 28 bf 92 bd
       -0.041355766 -0.056817237 0.095540166 -0.071653664
000350 58 e4 41 bc 3b 89 c5 bd 56 d7 c4 bd d5 11 a2 bd
       -0.011834227 -0.09645315 -0.096113846 -0.079135574
000360 87 a8 a6 bd 97 bb 10 bd 44 90 3d bb 41 9f 85 3d
       -0.08137613 -0.03533515 -0.00289251 0.06524516
000370 77 41 e2 3c 5d 1b be 3d a0 4d c4 bd 47 b9 1d 3d
       0.027619107 0.09282563 -0.09585118 0.038506772
000380 49 15 5e 3d c9 52 9d 3d 97 97 ac 3c 61 c7 4e 3d
       0.054219518 0.07681806 0.021068377 0.05048311
000390 1d 02 72 bd 31 30 96 bd fe 15 00 3c fd 02 3e 3b
       -0.059084047 -0.073334105 0.007817743 0.002899348
0003a0 2d da cf bc cc dd 9d bd a6 4c a7 bd 00 2b 9f bd
       -0.025372589 -0.0770832 -0.081689164 -0.077718735
0003b0 e3 e7 ba bd e9 2a 5a bd e5 a1 8c bc 6a 65 61 3d
       -0.0912626 -0.05326358 -0.017167041 0.055028357
0003c0 d3 a1 92 3d 69 53 4e 3d 84 97 b2 3d 9f 96 b6 3d
       0.07159772 0.050372515 0.087203056 0.089154474
0003d0 0a d0 15 3c e5 e9 a6 3c c6 b3 b0 bd 95 3c 4c bd
       0.009143839 0.020375201 -0.08628039 -0.049862463
0003e0 b2 5e 3a bd fe 00 e7 bc a6 0f 8d 3d 21 fd 00 bd
       -0.045500465 -0.028198715 0.0688775 -0.031491403
0003f0 88 ce 96 3d 8f 9b 3a 3d 89 9f 2a bd 93 a4 8d 3d
       0.073636115 0.04555851 -0.04165605 0.06916156

conv.4.bias f4 [16]
000000 c9 16 9d 3d 74 8e 01 bd bd 56 49 bd f3 e2 a7 3d
       0.076703615 -0.031629995 -0.049154986 0.08197584
000010 9b a8 b4 bd 27 6a 97 3d a0 a8 39 3d 9d 9a 30 bd
       -0.088212214 0.07393294 0.04532683 -0.0431162
000020 0b 32 a2 3d ca 44 06 3d d4 15 b5 bc 31 6d 93 bd
       0.07919701 0.032780446 -0.022105135 -0.07198561
000030 e5 f6 84 3d a4 3b c2 bd af 89 cc bd 6b da 19 bd
       0.06492404 -0.09484032 -0.099871986 -0.037561815

mlp.0.weight f4 [128, 132]
000000 98 a3 7d bb f9 69 b8 3d d7 89 3a 3d fc b5 68 bd
       -0.0038702246 0.09004588 0.04554161 -0.05681418
000010 ea 85 28 3c 0b 8a b0 bc 14 b0 1d bd ab 54 12 3b
       0.010285834 -0.021550199 -0.038498 0.0022328298
000020 dc 2d a5 3d 2d 6c a2 bd fe 70 6b bb 6b 3f d9 3c
       0.080653876 -0.07930789 -0.0035925503 0.026519498
000030 94 82 70 bb 5a e1 90 3d f3 04 90 3d 64 15 4d bd
       -0.0036698924 0.070742324 0.07032194 -0.050069228
000040 a7 db 81 bd d7 23 b2 3c 93 9c 81 bd b0 1b 30 3c
       -0.063407235 0.021745605 -0.06328692 0.010748789
000050 0a 94 65 3b ea f8 86 bd 71 9c 77 3d db 46 c1 bc
       0.0035030865 -0.06590445 0.06045193 -0.023593357
000060 0d ef 75 3d 34 1e ae bb da 1e 82 bd 88 9a 36 bd
       0.06004243 -0.005313659 -0.06353541 -0.044580966
000070 d2 a1 91 3b 30 ed 41 bc e3 69 04 3d 06 d6 32 bd
       0.0044443393 -0.011836335 0.032327544 -0.04366114
000080 be 2b 2c bc b6 c9 5b bc 9b 43 9b 3c 2e 86 c4 bc
       -0.010508476 -0.013414791 0.018953135 -0.023989763
000090 ee f5 7a bc 1d 15 90 bd f4 56 6c 3c 71 ed 8b 3c
       -0.015317423 -0.07035277 0.014425028 0.017080994
0000a0 3e 69 8b 3d 36 4a e0 3b a4 73 3b bd 7d ad 42 bd
       0.06807183 0.006844784 -0.04576458 -0.047528733
0000b0 d8 e5 2d 3d 45 ae 7f 3c e3 c7 a1 bd 99 7f a7 bd
       0.042455524 0.015605514 -0.078994535 -0.08178634
0000c0 60 89 35 bd b6 7b 28 bd 35 00 ab 3d 0c 55 57 bd
       -0.044320464 -0.041133605 0.08349649 -0.05257134
0000d0 c2 51 86 bd 5b 2c 88 bd c2 e1 ca 3c d8 d2 69 bd
       -0.06558563 -0.06649085 0.024765853 -0.057085842
0000e0 73 0c 5c 3d 56 8b 42 3d 3d 29 a1 3c 57 fe 84 bc
       0.05372281 0.047496162 0.019672984 -0.01623456
0000f0 17 2f 85 bd a1 1a c1 3c 18 04 9c 3d 9a 97 57 3c
       -0.06503122 0.023572268 0.07617968 0.013158703
000100 4f 0b 1f 3b 42 2d 08 bd 18 4a ed bc 71 17 1f bc
       0.0024268215 -0.033246286 -0.028965995 -0.009710179
000110 77 3a 1c 3d 48 f2 b2 bd 0a b4 45 3d 9f 27 8b bb
       0.038141694 -0.08737618 0.0482674 -0.0042466666
000120 66 ba 59 3d d4 a0 9e 3c e3 16 8b bd 6a 51 55 3d
       0.05315628 0.019363798 -0.06791475 0.052079596
000130 68 25 ac bd 2f 55 48 3d ad 10 72 3d 79 7f b0 bd
       -0.08405572 0.048909362 0.059097935 -0.086180635
000140 05 79 b1 3c 83 46 55 3d dd 56 20 3d 98 01 5d bd
       0.021664152 0.0520692 0.03914534 -0.053956598
000150 ab 8b 84 3d 0b 77 17 3c 15 f8 8c bd 2d 6f 51 3d
       0.06471952 0.009244691 -0.068832554 0.051131416
000160 50 d5 21 bd d5 1e 9f 3d 13 d6 21 3d 06 a3 1b 3d
       -0.03951007 0.077695526 0.039510798 0.03799727
000170 38 87 34 bc 92 a4 92 bd 2e f5 1c bd 15 67 96 3d
       -0.011018567 -0.071602955 -0.03831976 0.0734388
000180 02 68 8c bd 76 07 16 3d cc d0 95 3d 0e 71 b5 bd
       -0.068557754 0.03662821 0.073152155 -0.08859454
000190 28 fa fc 3b 65 5d 6a bd 0d f2 05 bc 31 1d 89 3d
       0.0077202506 -0.057217974 -0.008175385 0.06695021
0001a0 03 b3 a1 bd 9b 9a 03 3d 02 95 47 3d 1b 18 8c 39
       -0.07895472 0.032129865 0.04872609 0.0002672084
0001b0 ff 36 85 3c 83 0a 86 3d ad ac 88 bd c8 f1 96 3c
       0.016261576 0.06544974 -0.0667356 0.018425837
0001c0 e6 5f 59 3d 2f 0f 33 bd 13 fd d1 bc 71 6c 7f 3b
       0.05306997 -0.043715652 -0.02563337 0.0038974548
0001d0 7f 79 8f 3c 44 9c a8 3d 84 01 7c bd eb 71 02 3d
       0.017513989 0.0823293 -0.061524883 0.031846922
0001e0 dc 94 2a bd af f3 eb 3b 24 ae 8d bd ba e3 57 3d
       -0.04164587 0.00720068 -0.0691798 0.05270741
0001f0 d3 90 97 3d d2 a0 4f 3d 80 70 36 bc 44 b7 39 bc
       0.0740067 0.05069048 -0.0111352205 -0.011335198
000200 ea a2 31 3d c2 97 d6 3c e0 f5 39 bd 87 40 b8 3c
       0.043368258 0.02619541 -0.0454005 0.022491707
000210 24 fe 42 bd 24 91 8b bd 42 1c 00 3d 8c b1 9a 3d
       -0.04760565 -0.06814793 0.03127695 0.07553396
000220 62 0f 5b 3d af 57 13 bc 9d e3 00 3c 48 f0 8b 3d
       0.053481467 -0.008993073 0.007866767 0.068329394
000230 73 20 90 3d c1 78 05 bc 7c 1c 81 bd 8f 30 d2 bc
       0.07037439 -0.008146466 -0.06304261 -0.02565792
000240 d9 28 d7 bd ed 0e e5 bc 61 09 c1 bd e2 b1 1b 3d
       -0.10505838 -0.027961219 -0.09425617 0.03801144
000250 30 d5 2f bd 52 36 ac bd ea eb f3 bc a9 fe 43 3d
       -0.04292792 -0.08408798 -0.029775579 0.047850285
000260 9d af d0 bd ea dc 33 bb e3 e0 cb bd 7e 08 ee bc
       -0.101897456 -0.0027444907 -0.09955003 -0.029056784
000270 42 4c 88 bb 8c 28 f7 3c fb cc 65 3d 2d 11 0e bd
       -0.0041594813 0.030170701 0.056103688 -0.03468435
000280 43 4e 9d bd a3 c8 af 3c 55 be 8f bd 04 79 a2 bd
       -0.07680943 0.021457976 -0.07018725 -0.07933238
000290 7d 6c 56 bd ec 01 a7 bd 5b 9d 89 3c 75 24 a9 bd
       -0.052349556 -0.081546634 0.016798666 -0.08258907
0002a0 ef 8e 91 bc d3 31 6a 3c 07 98 e9 bb 0d 7a 6b 3d
       -0.017768351 0.014294106 -0.007128719 0.057489444
0002b0 2a b0 19 3d 64 f3 21 bd 0d fb 25 bc db a3 a2 3d
       0.03752152 -0.039538756 -0.010130656 0.07941409
0002c0 b2 ae 4d bd a3 1a 3b bc 58 bf 09 bb d3 fe a3 3d
       -0.05021543 -0.011419925 -0.002101859 0.08007588
0002d0 d7 f3 8f bd 7e 38 57 3c 63 db 13 3c 8b e0 d5 3c
       -0.07028931 0.013136027 0.009024474 0.026108047
0002e0 b5 14 4a 3d 9a 1c 4c bd bc 21 b1 3c 93 fb 39 bd
       0.049336154 -0.049831964 0.021622531 -0.045405935
0002f0 84 63 40 3d 8b 81 38 3c c9 19 de bc 14 b8 89 bc
       0.046969905 0.011261354 -0.027111905 -0.016811408
000300 c7 98 c9 bd a0 ec a2 bd 26 35 53 bd 6b bd 9d 3d
       -0.09843593 -0.07955289 -0.05156436 0.07702144
000310 22 3c 02 3d 39 7e 1d 3d 6b f6 d6 39 b2 de b0 bd
       0.03179563 0.038450453 0.00041000856 -0.08636226
000320 07 1c b2 3d dd 13 eb 3b a0 5e 6d 3d 7f 4c a8 bd
       0.08696752 0.0071739987 0.05795157 -0.082177155
000330 ef 6d 24 3b 10 db 3d 3d 0d 05 a2 3d 9b 10 56 3d
       0.002508994 0.046351492 0.079111196 0.05226193
000340 68 1d 0d 3d 01 3d 22 3c 0b 17 a4 bc 2d 41 23 bd
       0.034451872 0.00990224 -0.020030519 -0.03985708
000350 16 ec cf bc a9 1a 42 bd 42 76 42 3d 79 fc 40 bd
       -0.02538113 -0.047388706 0.04747606 -0.047115777
000360 f1 4f b4 bc da c3 35 bd c3 6f 71 bd ba be 54 bd
       -0.022010775 -0.04437623 -0.058944475 -0.051939704
000370 5d c0 dd bb 16 ff b7 3d 05 9d 5c 3d 99 8c ff bc
       -0.0067673163 0.08984201 0.053860683 -0.031194972
000380 fa 0b 0a bd 52 a7 b4 bd 00 64 62 bd 0b 3a 40 bc
       -0.033702828 -0.08820976 -0.05527115 -0.0117325885
000390 c2 56 01 bd 99 e7 82 3d 0c 58 54 3c dc 7b 23 3d
       -0.03157688 0.0639183 0.012960445 0.039913043
0003a0 1a dc 87 bd e4 39 a7 3d b8 22 18 bc 60 3a cc bc
       -0.06633778 0.08165339 -0.009285621 -0.02493018
0003b0 a0 ab 55 bd 0e 8b 37 3d c0 f5 da 3d a9 59 8f bc
       -0.052165627 0.044810347 0.10691404 -0.017498808
0003c0 61 d7 82 3d 88 de 40 bc 9e 39 e5 bc 71 33 61 3d
       0.063887365 -0.011771806 -0.027981576 0.0549807
0003d0 27 2e 15 bd 6c 1f 91 3d 43 7f 22 bd 41 13 99 3d
       -0.036420967 0.07086071 -0.039672147 0.074743755
0003e0 00 2e ae 3c 99 55 25 3c f6 d5 f1 3c 55 bb 2e 3d
       0.021262169 0.010091209 0.02952097 0.042659122
0003f0 99 58 6b bd 88 35 37 3c 2e f2 7c bd 61 cb 40 3d
       -0.05745754 0.011182196 -0.061754398 0.047068957

mlp.0.bias f4 [128]
000000 26 fe 62 3c 96 d0 3b 3b 6d 68 52 3d c9 af 0c 3d
       0.013854539 0.0028658262 0.05136912 0.03434733
000010 1a 70 16 3d bf 42 94 3d d0 a9 37 bd 00 ea 1b 3d
       0.036728002 0.07239293 -0.04483968 0.038064957
000020 eb 4f 46 bd 67 3c ac 3c 62 53 b5 bb 63 7f 66 3d
       -0.04841606 0.021024896 -0.0055336216 0.05627383
000030 16 67 c6 3b 36 d8 30 bc 6c ce 04 bc 2d 66 41 bd
       0.0060547693 -0.010793736 -0.008105855 -0.047216583
000040 f9 f1 15 bd cf 6e 24 bd 45 6f 49 3d 70 b1 8b 3d
       -0.036607716 -0.040144738 0.04917838 0.06820953
000050 37 67 50 3d fc c9 10 3d 95 72 98 3d ab 77 9e 3c
       0.050879683 0.035348877 0.0744373 0.019344172
000060 5f 7e 6a bd 2e cf 0d 3d 8f 4a 81 3d b5 80 5a 3d
       -0.057249423 0.03462141 0.06313049 0.0533454
000070 30 54 1c 3c 0c ec 93 bd c6 78 7a bd 73 60 48 bc
       0.009541556 -0.07222757 -0.061150335 -0.012230027
000080 4a 27 21 bd b9 d4 15 3d 65 18 5f bd 7f 77 80 3d
       -0.03934411 0.03657982 -0.054466624 0.06272792
000090 57 02 83 3d f7 e1 f2 3c cc 06 8e bd aa 45 ea 3c
       0.06396931 0.029648764 -0.0693489 0.028597672
0000a0 4d ea 3f 3d a8 44 99 3d 78 14 95 3d f2 02 4f 3c
       0.046854306 0.07483798 0.07279295 0.01263498
0000b0 60 14 72 bc 8e 90 6c 3d d0 2c 53 3d 59 66 9a bc
       -0.014775366 0.057755046 0.05155641 -0.018847631
0000c0 d4 25 09 bc 06 91 98 3d 63 eb 3d 3c 76 67 13 3d
       -0.008370835 0.07449536 0.011591765 0.03598734
0000d0 fa 51 53 3c 68 11 ce 3c 34 76 f2 3c 7e 03 d7 3b
       0.012897963 0.025154784 0.02959738 0.0065616956
0000e0 16 6a 43 bd f7 b7 f0 bc fd 6c 37 3d 04 62 79 bd
       -0.047708593 -0.029384596 0.044781674 -0.06088449
0000f0 53 fa 55 3d 05 4e 12 bd ca 01 25 3d 25 0d 57 bd
       0.05224068 -0.035718936 0.04028491 -0.05250277
000100 4c 05 3e 3c 12 7f 90 bc 3c ee 83 3d f7 f1 d3 bb
       0.011597943 -0.017638717 0.06441924 -0.0064680534
000110 35 94 60 3d c2 ff 75 bd 42 4a 80 3d 83 62 22 bc
       0.05482884 -0.060058363 0.062641636 -0.009911182
000120 f0 22 58 3c 74 e0 81 bc fd da 54 3d 5f 0b 17 3d
       0.0131919235 -0.015854098 0.051966656 0.03687608
000130 68 a8 ee bc 52 14 02 3c 29 1b d0 3c 52 ca ae bd
       -0.029133037 0.007939415 0.025403576 -0.08534683
000140 ba 6d 64 3d 26 1e 27 bd 20 9a 10 bd 39 5f d1 bc
       0.055768706 -0.040800236 -0.035303235 -0.025558101
000150 25 e1 97 bd de a3 9d bc 5e b5 50 bd a0 77 51 bd
       -0.0741599 -0.019243177 -0.050954215 -0.051139474
000160 60 fd 44 bd 99 84 a0 bd 79 ca 2a 3d ed b0 42 bd
       -0.0480932 -0.07837791 0.041697 -0.04753201
000170 e3 ca f6 bb f6 c2 68 3d c8 02 a0 ba 3b 83 14 bd
       -0.00753151 0.056826554 -0.001220786 -0.036257964
000180 cb ad 64 bd 19 9a fe bc 2d 2c 93 3b 27 ae 94 3d
       -0.055829804 -0.031079339 0.00449135 0.072597794
000190 e3 b0 24 bd d8 92 42 bd 22 77 45 bd 62 02 45 3d
       -0.040207755 -0.047503322 -0.048209317 0.048097976
0001a0 b0 8b 1e bd aa 16 4e bd 3b 00 0d bd 9b f4 2a bd
       -0.038707435 -0.050314583 -0.034424048 -0.04173718
0001b0 95 c8 6a 3a 6b 11 eb ba 13 0a 85 bd 55 db 7c bd
       0.00089562807 -0.0017934268 -0.06496062 -0.06173261
0001c0 4f 95 9d 3b f5 56 90 bd 38 2d 13 bd da a4 80 3d
       0.0048090587 -0.07047836 -0.035931796 0.06281443
0001d0 55 e6 62 3d a9 0a 97 3d 76 e5 bd 3c d4 35 a7 3c
       0.055395443 0.0737508 0.023180705 0.02041141
0001e0 31 ad d1 ba 8b 05 fc bb eb 90 85 bd c0 e4 0f 3d
       -0.001599705 -0.0076910905 -0.065217815 0.035130262
0001f0 df 20 d6 3c c7 a6 86 bd 44 de 9e 3d 4f 14 3d bd
       0.026138721 -0.06574779 0.077572376 -0.046161946

mlp.2.weight f4 [128, 128]
000000 ac 66 da bd 19 c6 c5 bc 26 01 44 bd 86 f7 0b bd
       -0.10664114 -0.024142312 -0.047852658 -0.034171604
000010 08 b4 a9 bd aa 93 f8 3c 84 93 0b 3d 5d e7 98 3d
       -0.08286291 0.03034385 0.03407623 0.07466004
000020 06 cb 8e bd 2c e7 96 bd 30 7f 89 3d a4 3e bf bd
       -0.069723174 -0.07368311 0.06713712 -0.093381196
000030 a4 ef df 3c 13 56 55 3d d4 4b 87 bd 03 9f 93 3d
       0.02733595 0.05208404 -0.0660626 0.072080635
000040 d3 1b 14 bd 66 51 8b bd d6 b7 48 3d e3 cc 61 bd
       -0.036159348 -0.06802635 0.049003445 -0.055127036
000050 41 4f a6 bc e1 83 f0 3c 85 05 01 3d cb f7 1a bd
       -0.020301463 0.02935976 0.031499404 -0.03783397
000060 ac 44 80 3c 35 bc 58 bc a8 0d 34 3d e5 62 c4 ba
       0.015657745 -0.013228466 0.043958336 -0.0014983086
000070 b6 d1 82 3c 6c 6a 91 3d 52 a2 de 3c 41 20 72 3d
       0.015969139 0.071003765 0.02717701 0.05911279
000080 26 4d 8e bd 7c 97 22 bc 1f c2 fc bc 10 7d ad 3d
       -0.06948309 -0.009923812 -0.030854283 0.084711194
000090 49 32 e7 bb 98 db 1a 3d be 17 26 bd 11 84 0b bd
       -0.007055555 0.037807077 -0.040549986 -0.034061495
0000a0 c2 ed 39 3d dd 1f 7d 3d 62 25 97 bd dd f7 55 bd
       0.04539276 0.061797965 -0.07380177 -0.052238334
0000b0 1c 9b 09 bc 41 43 32 bc 15 a9 86 3c 8b 58 db 3c
       -0.008398797 -0.010880292 0.016438046 0.026775619
0000c0 69 55 93 bd d0 98 98 bd 00 b8 83 bd 4c 5a 46 3d
       -0.07194025 -0.07451022 -0.064315796 0.048425958
0000d0 50 99 8b 3d 6f ed 70 3d 73 0f d8 3c 13 58 b8 bd
       0.068163514 0.058820184 0.026374554 -0.09001174
0000e0 ef b4 a4 3c e7 97 10 3b 30 6e 35 3d 84 6c 85 bd
       0.020105807 0.0022063197 0.044294536 -0.06514838
0000f0 4a d3 78 bd 79 43 bd 3b 2f cd ca 3c 3c da a0 bd
       -0.060748376 0.0057758656 0.024756042 -0.07854125
000100 d2 85 84 3d b3 d1 d5 bd 43 5e 3d 3c dd 47 63 3d
       0.06470837 -0.104403876 0.011558118 0.055488456
000110 b7 68 df 3c 14 58 73 bd 7b 4e a4 bd 64 1f ac bc
       0.027271612 -0.05941017 -0.080227815 -0.021011062
000120 4c 8e 8d bd 82 ef 0e bd e4 72 96 3d cf 99 46 bc
       -0.069119066 -0.03489638 0.073461324 -0.012121632
000130 e2 67 fd 3c a4 63 d8 bd bc 24 19 bd 07 55 ba 3c
       0.030933324 -0.1056588 -0.03738855 0.022745622
000140 8b 31 5f 3c 05 b1 82 bb a6 c0 fe 3c 6b 34 1e 3c
       0.013622652 -0.0039883875 0.031097721 0.009656052
000150 c8 d6 15 3c 85 ed 71 3d 33 0a 52 bd 4d eb f8 bc
       0.009145446 0.059064407 -0.051279258 -0.030385638
000160 a7 77 96 bd 73 f1 05 3c 60 d1 5d 3d a5 3d 10 bd
       -0.073470406 0.008175242 0.054154754 -0.03521504
000170 d4 de 1f 3d bb d8 c2 bd a9 db 29 3d 63 01 36 3d
       0.039030865 -0.09513994 0.04146925 0.044434916
000180 10 1f ab 3d fd 00 6d bd e8 41 9c bb 29 44 d6 3c
       0.08355534 -0.05786227 -0.004768599 0.026155548
000190 cb c6 c1 3d 6c 0f 57 3c 2c bf b4 3c 1f da 37 3d
       0.09461745 0.013126235 0.022063814 0.04488575
0001a0 38 e5 94 3d f6 1d 71 bc e5 bf 8c 3d 52 36 6e bd
       0.072702825 -0.014716616 0.068725385 -0.058157273
0001b0 99 06 0b bd 00 8c 97 3d f4 0d a6 3d d9 8b 5a 3d
       -0.03394184 0.0739975 0.0810813 0.053356025
0001c0 9d 5b 44 bd 32 80 7a 3d d5 74 a6 bd 9d eb ef bb
       -0.04793893 0.061157413 -0.08127753 -0.0073217885
0001d0 a1 dc 9a bc a3 36 84 3c 4f 34 7c 3d ea cb 3e bd
       -0.018904032 0.016139334 0.061573323 -0.046581186
0001e0 7a 5d 8c 3d d5 d5 c5 bd d0 b3 48 bc 5a db 23 3d
       0.06853767 -0.09659926 -0.012249902 0.04000411
0001f0 3b 3f 5e bd 20 e2 4b 3d 61 6a 95 bc 92 a0 92 3d
       -0.05425952 0.049776196 -0.018239202 0.071595326
000200 a8 ca d1 3d 80 c6 30 3d 47 39 a4 3d ea 32 d7 bd
       0.10243732 0.043158054 0.08018737 -0.10507758
000210 79 b8 40 3a a2 25 3a 3d da 96 57 3c 68 56 c9 bc
       0.00073517073 0.045446046 0.013158524 -0.024577335
000220 32 01 95 3d 75 e0 29 3d 2b 23 a9 3d 33 8c b8 3d
       0.072756186 0.041473825 0.08258661 0.09011116
000230 31 8b 8c bc d9 27 c5 bd 9a e4 17 3d d5 1c 4a 3d
       -0.017156215 -0.09626741 0.037083246 0.049343903
000240 2d 18 72 bd 3b ba 27 bd 46 1b 4e 3c cb 8b 0e bd
       -0.059105087 -0.040949088 0.012579745 -0.034801286
000250 b5 70 aa 3d 43 e4 96 bd 99 d1 af 3c 29 f6 86 3d
       0.083222784 -0.07367756 0.021462249 0.0658992
000260 83 70 98 3d 7f 48 79 3c a3 3c d5 bb 58 44 5a bd
       0.07443335 0.015215038 -0.0065074726 -0.053287834
000270 33 49 a9 bd bb fa 0b bd c7 db ce bc 30 84 96 bd
       -0.08265915 -0.034174662 -0.025251282 -0.073494315
000280 2b b0 5c 3d 9f 44 97 bd 2d 98 67 3d 85 ba 0d bd
       0.053878944 -0.07386135 0.05654161 -0.034601707
000290 95 bd 1c bd e7 90 51 bd 70 24 ca bc b2 e6 a0 3c
       -0.038266737 -0.05116358 -0.024675578 0.019641254
0002a0 69 7d 4e 3d de d1 3c bc a7 4b 80 3d 2e f1 5b 3c
       0.05041257 -0.011524646 0.062644295 0.013424201
0002b0 62 c2 49 bb f5 20 82 bc 51 b9 b5 3d b5 33 02 bd
       -0.0030786027 -0.015884856 0.08873237 -0.031787593
0002c0 ed 8b 84 3d 10 a1 fd bc 97 26 e8 3c f2 7f a6 bd
       0.06472001 -0.03096059 0.028338714 -0.081298724
0002d0 02 73 0f 3d 1b 99 81 3d cd 11 85 3c e6 c3 66 3d
       0.03502179 0.06328031 0.01624384 0.056339167
0002e0 6c 53 0f bd 04 ca 90 bc 03 ce 52 bd 72 f3 fb bc
       -0.034991667 -0.017674454 -0.051466 -0.030755732
0002f0 06 0f 83 3d 72 99 16 3c 31 04 ad 3d e2 20 a2 bc
       0.0639935 0.009191858 0.08448065 -0.01979107
000300 eb 65 6b bc 23 5b 0a bc 69 e1 5e 3d 5a 7f 06 3d
       -0.014367561 -0.00844458 0.054414187 0.032836296
000310 09 7e 4b bd f6 41 41 3d 8b 99 ea bc 51 94 2d bc
       -0.049680743 0.047182046 -0.028637668 -0.010594443
000320 5a f8 e2 3b c2 0f df b9 f9 65 84 3d 51 21 ab bc
       0.0069265785 -0.00042545615 0.06464762 -0.02088991
000330 a4 5d 2f bd 41 43 e1 bc 5e cd 9b 3b ce ec 79 3d
       -0.042813912 -0.02749789 0.0047547063 0.06101685
000340 b8 92 28 3d 21 89 79 3c 9d 77 6a 3d 37 cd 8d bd
       0.041155547 0.015230448 0.05724298 -0.06923907
000350 9d 22 b2 3d 0d d6 0c bd cd 76 4d 3d 61 f2 82 bd
       0.08698008 -0.034383822 0.050162125 -0.06393886
000360 b2 51 a4 3d 9e e4 f6 3b 6f 17 aa 3d 8f dd 26 bd
       0.08023395 0.0075345775 0.08305251 -0.04073864
000370 3a 56 6a bd 3f 79 6c bc ac 56 cf 3d 75 7b 2d bd
       -0.05721114 -0.014433204 0.10123953 -0.042354066
000380 47 23 a1 bd 59 42 59 bd 38 4f 79 bc 4e cf ad 3c
       -0.07868057 -0.05304179 -0.015216641 0.021217015
000390 3e 69 84 bd f8 25 b8 bc 3d 7b 0f 3d 90 83 9d bc
       -0.06465386 -0.022479042 0.03502964 -0.019227773
0003a0 e3 f3 d2 3c 0c 6d a6 3c 89 46 40 bd dc b4 66 3d
       0.02575106 0.02031567 -0.046942268 0.056324825
0003b0 93 8f 82 bd 29 21 c0 bd 04 b1 9b 3a c0 c0 11 bb
       -0.06375041 -0.09381325 0.0011878316 -0.0022240132
0003c0 73 58 1a bd de da b0 bd 7c 00 6e bd 6b a4 22 3c
       -0.037682008 -0.086354956 -0.05810593 0.009926896
0003d0 3f 92 0c bd eb ad 5a bd f4 10 8d 3d 83 55 48 bd
       -0.03431916 -0.053388517 0.06887999 -0.048909675
0003e0 36 44 94 3d 49 a9 c9 bc 85 b4 aa bc a9 f7 b1 bd
       0.07239573 -0.024616854 -0.020838032 -0.086898156
0003f0 cb eb 62 3d 32 43 97 3d 59 c9 b8 bd 7b b9 93 bd
       0.05540065 0.07385863 -0.09022779 -0.07213112

mlp.2.bias f4 [128]
000000 51 9f 64 3d e2 62 cb 3c b3 74 9c bd 5e 0b 19 bc
       0.055816 0.024827424 -0.07639446 -0.009341089
000010 6c d0 2f bd ed 27 4a bd c9 d7 4e bb 10 4d 06 bc
       -0.042923376 -0.049354482 -0.0031561723 -0.008197084
000020 25 60 73 bb ac 0c 45 3d f3 48 30 bd 6d 45 91 bd
       -0.0037136164 0.048107788 -0.04303832 -0.0709332
000030 63 d0 8d 3d 58 72 91 bd a4 8a 5f 3d fe 8f 84 3d
       0.06924512 -0.071018875 0.054575577 0.06472777
000040 fa 1a 35 3d 4e 7f 88 bd 88 d6 ed 3c cd 4f 0d 3d
       0.04421518 -0.066649064 0.02903296 0.034499932
000050 16 11 2e 3d 92 1e 39 3b 79 79 33 bd 0a 1e 89 3d
       0.042496763 0.002824698 -0.043817017 0.066951826
000060 63 28 87 bd 69 8c b5 3d 69 35 a7 3d 55 98 87 bd
       -0.065995 0.08864672 0.08164484 -0.06620852
000070 80 c2 a6 3d 4a 19 11 bd 4a c0 ad 3d 2b 02 06 bd
       0.08142567 -0.03542451 0.08483942 -0.03271691
000080 fd bb 31 3d bd e0 a2 bd 9d 9e 18 bd a4 50 1b 3d
       0.04339217 -0.07953022 -0.03726064 0.0379187
000090 d3 22 40 3d fa fb bb bc 44 d9 10 bd 74 ce 2f bd
       0.04690821 -0.0229473 -0.03536345 -0.0429215
0000a0 2a c5 17 3c 49 fb 15 3d c0 87 5b 3c d3 a3 94 3d
       0.009263316 0.036616597 0.013399065 0.072578095
0000b0 a7 50 2c 3c 31 cf df 3c 53 ac 80 bd 70 90 48 bd
       0.010517276 0.027320476 -0.06282868 -0.04896587
0000c0 b7 10 1b 3c 7c 57 12 3d 4f 21 0c bd 05 99 9e 3c
       0.009464434 0.035727963 -0.034211453 0.019360075
0000d0 5a 66 1f bc 8c ce b9 bb 4b 36 90 bd 60 ef 80 3d
       -0.009728992 -0.0056703743 -0.070416056 0.06295657
0000e0 d5 df a0 3d 22 1e 52 bd 8a 11 19 bd 5c 23 a0 3d
       0.078551926 -0.05129827 -0.037370242 0.07819244
0000f0 98 77 1c 3b 0e cc 90 bd 6e 43 5e bd a2 77 9e 3d
       0.0023874994 -0.0707017 -0.054263525 0.07737662
000100 10 7b 9f bb a6 75 00 3c cb 68 0f 3c a2 d2 93 bd
       -0.004866965 0.00784055 0.008753012 -0.072179094
000110 ce 9d 25 bc 46 20 2a 3d ed 27 b8 bb b4 35 5d bc
       -0.010108424 0.041534685 -0.005619994 -0.013501573
000120 31 f6 a9 3d d8 17 aa bc f1 d5 08 3d 5e 37 ad ba
       0.082989104 -0.020763323 0.033407155 -0.0013215353
000130 cc c0 a3 3d cd ec 22 3c 34 7a f9 bc 0e 97 52 3d
       0.079957575 0.009944153 -0.030453779 0.05141359
000140 69 48 87 3d ce 89 35 bd 75 a3 ba bc 94 36 5f 3c
       0.06605608 -0.044320874 -0.02278302 0.013623852
000150 33 9f 7e bd 55 17 25 3d a4 06 a7 bc 92 17 b6 3c
       -0.062163543 0.040305454 -0.020388909 0.022228036
000160 f4 1d e3 b9 fd 5d 07 3c 00 ae 82 bd a0 a7 29 bd
       -0.0004331913 0.008262155 -0.06380844 -0.041419625
000170 46 64 0d 3d 05 4f d7 3c 8f 83 25 bd fc 20 71 bd
       0.034519456 0.026282797 -0.040408667 -0.058869347
000180 3d 67 ae 3d 61 c7 a3 3c 8a 30 66 3b 16 ef f6 bb
       0.08515785 0.019992532 0.0035124146 -0.0075358255
000190 9e 0c 18 3c 3f 2c 10 3c 3e 52 17 bd 0a 64 da 3b
       0.009280352 0.008799612 -0.036943667 0.0066647576
0001a0 fe c9 21 bd 15 5d a2 3d f9 50 a8 bd 01 3f 2e bd
       -0.039499275 0.0792791 -0.08218569 -0.042540554
0001b0 a6 bd a9 3d c1 cf 9c 3d 20 2e 92 3d 8b 90 e4 bb
       0.08288126 0.076568134 0.07137704 -0.0069752387
0001c0 8c 9b 1c 3d ed da 57 3c 58 47 90 3d a9 c7 d0 bc
       0.03823428 0.013174755 0.07044858 -0.02548583
0001d0 c3 b6 96 bd 1f 52 ab bd df a6 27 3c 85 b4 04 3c
       -0.07359078 -0.08365273 0.010232656 0.00809968
0001e0 5c 86 b8 bd 75 2e 0f bd ac a4 d9 bc b1 72 86 bd
       -0.09010002 -0.034956414 -0.02656778 -0.065648444
0001f0 31 6e 5c 3d 93 4a 27 bd 0e 66 a7 3d 59 1f 25 bd
       0.053816024 -0.040842604 0.08173762 -0.0403131

mlp.4.weight f4 [1, 128]
000000 66 42 bf bb f3 38 ba 3d 9a 58 68 3d 80 e6 1a bd
       -0.0058367727 0.090928935 0.056725122 -0.03781748
000010 d9 c9 4b bc db 4a 06 3d c0 34 34 3d 6a 69 7a 3d
       -0.012438261 0.03278623 0.04399562 0.061135687
000020 05 dc b9 3d 48 3c cc 3c a3 32 09 3a 25 51 c8 3d
       0.090751685 0.024931088 0.0005233681 0.09781102
000030 40 1a 4c bd 9f 56 49 bd b5 96 fb bc a9 b5 0d bd
       -0.04982972 -0.049154874 -0.030711511 -0.034597073
000040 26 52 7d 3d 6c 85 24 bc e8 63 89 bd 1c 6f b0 3d
       0.06184592 -0.010041576 -0.06708509 0.086149424
000050 28 95 35 3d 59 93 a0 bd b5 ce b9 bd 7f 15 0e bc
       0.0443317 -0.07840604 -0.09072629 -0.008672117
000060 14 83 53 bd 43 17 5d 3d f0 22 94 3c e9 9d a4 bd
       -0.051638678 0.053977262 0.018083066 -0.080379315
000070 eb 01 0f 3d 23 b7 87 bd c3 ff c0 3d f4 5d 28 bd
       0.03491394 -0.066267274 0.09423783 -0.041105226
000080 b4 ca 2d bd c2 d8 ae bd ac e3 ab bc c6 e1 af bc
       -0.04242964 -0.08537437 -0.020982586 -0.021469962
000090 11 2d ad bd dc 9c 39 3d ee 68 70 bd a9 33 d5 3c
       -0.08455861 0.04531561 -0.05869382 0.02602561
0000a0 b4 e9 8b 3d 65 c6 a8 3d 36 76 3e bd a2 48 bc bd
       0.06831685 0.08240966 -0.046499453 -0.09193541
0000b0 37 74 df 3c 5b 45 c4 bc c4 0c f2 3c 87 f4 99 bd
       0.027277095 -0.023958853 0.029547103 -0.07517343
0000c0 31 4b 92 3d 65 43 8c bd 85 30 32 3d 8d b7 91 3d
       0.07143248 -0.06848792 0.043503303 0.07115088
0000d0 78 72 f9 bc dc 41 02 bd de ce d4 3d 71 7e a4 bd
       -0.03045009 -0.03180109 0.10391019 -0.08031929
0000e0 e3 3a c6 bd 4a 9f 9b bd d9 66 88 bd f3 7d 90 3d
       -0.096792005 -0.07598741 -0.06660242 0.07055273
0000f0 03 79 c5 bd 1f c3 9e 3d c9 fa 55 3c 8e 83 91 3d
       -0.09642222 0.0775206 0.01306028 0.0710517
000100 a6 19 e0 3c 21 62 2b 3c c1 8e 9e bd 44 2f 8f 3d
       0.02735598 0.0104604075 -0.07742072 0.06991437
000110 41 69 24 bd c5 08 94 bd 09 bb 0d bd 2b 83 77 bd
       -0.04013944 -0.07228235 -0.0346022 -0.060427826
000120 8b 9c c5 3d 61 56 81 bd 7d 95 2f bd 71 ef f8 bc
       0.09648999 -0.063153036 -0.042867173 -0.030387612
000130 4e 0e 98 bc 93 2b bb 3d f3 11 9a 3c be e9 ee bc
       -0.018561509 0.091391705 0.018807387 -0.029164191
000140 4c 20 60 3d 65 73 e8 3a d9 d2 7e bd 23 6d 93 bc
       0.0547183 0.0017734586 -0.0622128 -0.017996376
000150 4b cf 10 3d 75 c8 84 bd bb 1b 5b 3d 06 ba 8b bd
       0.03535394 -0.06483547 0.053493243 -0.068225905
000160 c4 39 c5 3d eb 8c c4 3d 03 a6 96 3d 6b 9d 85 3c
       0.096301585 0.095971905 0.07355883 0.016310414
000170 7d 63 97 3c 0b 59 41 3d 72 7c fc bc 3c 4b bf bd
       0.018480057 0.04720406 -0.030821059 -0.09340522
000180 5c c2 57 3d 33 07 70 bd 1e a0 c0 bc dd 5e 3b bd
       0.05267559 -0.058600616 -0.02351385 -0.045744766
000190 e3 38 3e bd 2b 03 a7 bd 03 ed 3b bb 5c 67 1e bc
       -0.04644097 -0.08154901 -0.0028675206 -0.0096681975
0001a0 16 b5 2d bd 3b b9 2a bd 68 68 1b 3d 6d e4 2f bd
       -0.042409025 -0.041680556 0.037941366 -0.042942453
0001b0 82 e6 87 bd 12 16 26 3d cf 34 3a bb 64 45 8f 3d
       -0.06635763 0.04054839 -0.0028412824 0.06995657
0001c0 01 ab 36 3d 4d bd db 3c e5 87 52 bd 2f b4 bd 3d
       0.044596676 0.026823664 -0.05139913 0.09262883
0001d0 39 93 a9 3d 3e 45 b1 3d 64 5c 97 3d e8 33 7d bd
       0.082800336 0.08655785 0.07390669 -0.06181708
0001e0 b0 26 6c bd b0 80 a0 bd 51 ce 15 3d e9 65 1a 3d
       -0.057654083 -0.07837045 0.03657371 0.037694845
0001f0 b0 1c df 3b 6c e3 a0 bc d7 35 4a 3d e7 86 a1 3d
       0.0068088397 -0.019639693 0.049367752 0.07887059
