experiments/exp029_engineered_features/model.pth (torch, 109169 bytes, 7 tensors)

net.0.weight f4 [128, 12]
00000000: 309e bd3f acc4 e7bd 4fc8 333e 7cbb 333c
00000010: f7c7 023d 1394 a73e de0c 53be ad14 79bd
00000020: fdb1 833b 722e d1bd edb9 e5bd 6dce 96be
00000030: 8253 10bf 22e2 ed3d 83c0 033e b330 543e
00000040: dd44 81be 0e25 8a3d 31dc 45be 5ba3 59be
00000050: 2d28 8d3e 9f90 bf3d 4c28 66be b13b 21be
00000060: 7cdd c8bc ed86 42be 7575 47bd abee 793e
00000070: f4f0 85bc 0161 9f3e 12a5 98be 680c 933e
00000080: 1bf6 0e3d 7bf5 9c3d 72e8 8abe e9df 913d
00000090: 5c0b 313f 8125 37be 8c53 28bd 3984 03be
000000a0: 69ea 9b3d f0aa de3e 3f10 c4bd a230 ed3e
000000b0: 98f7 023d abd3 8b3d df5c 83be 384f 8ebe
000000c0: a415 073f 4255 3c3d 8c27 e63c 46ee 86bd
000000d0: 997a 9d3d c4b4 1b3e f854 7fbe 3b45 34be
000000e0: faad 673e c756 89bd e81e 94bd 68bb fdbc
000000f0: 76c5 a93e 498e de3d f6cd 6f3e e08c 843e
00000100: 10c3 243e 45e2 6abe ab5c 26be d94f 82bc
00000110: 6bee a8bd eb29 87be 375a c73c 4ab8 13bd
00000120: 2071 5bbe 6f9d 36bd 1547 6a3d e44c 003e
00000130: b5d3 33be d0c7 cb3d 0703 4e3e 696c 7dbd
00000140: ba11 5cbe 81cb 8cbe ca45 26be 6970 13be
00000150: fcbd d3bf 7b28 863e e2b6 4dbe 6da4 d6bc
00000160: ab11 7fbd 3de9 8fbd df1c e43e 1fe6 c3be
00000170: e3d4 de3c 51cb 84be 41e1 b5bd e242 b73e
00000180: d1c5 80bf a263 c33e 426f c63d 2c60 073e
00000190: 303b 3bbe 3b19 ddbc 8d09 50bd 5ced 40be
000001a0: edb2 0e3c 408a 073e 00a1 a8be 2639 e73e
000001b0: 794f afbe c042 08be 49d7 25be 9264 4bbe
000001c0: a4dc 92bc c4e2 353e 2a1b 053e 19f8 403e
000001d0: e882 243e 6ad5 3a3b 5f75 8bbd c5f3 833e
000001e0: c9a0 61bf 7009 933e e0f2 0bbe 527a ab3d
000001f0: edfe 5bbe 370a 84bd 1b18 a63d 198d 23bd
00000200: 40fe ccbc 19c7 073e 5156 103d 1dc4 a0bd
00000210: b643 d03e 467e a3bd c03e 483d e138 1dbd
00000220: 6503 e73d ec39 f03d d3f7 873d 6805 613e
00000230: d9de 89bc 1011 17be ffd0 43bd 4dfe 63be
00000240: 9475 3abd c7bf 533d 5fa9 9a3d d5a8 5ebe
00000250: c5e3 2abe 59d7 1fbe d1e4 50be 08e7 7ebe
00000260: 4610 a6bd f36b 3b3e f7c2 803d c028 3ebe
00000270: 95ef 39bf 346c aa3c d9e8 b83d 002b 853d
00000280: c932 dbbd fd3f 0fbe 202d 88be 24c3 8a3d
00000290: 66e3 3e3e 54db 66be ebeb 533e f199 8e3e
000002a0: 7162 763e 4cf1 d13c eb24 debd af59 563e
000002b0: 582d 6ebe 77d0 65be 9658 cd3d 8ad6 2e3e
000002c0: 37f4 97bd 5ad1 66be e657 a3bc 6369 853e
000002d0: 8aed 0dc0 eb06 babb 0425 983d 978a 1ebd
000002e0: d4fb e63c e488 163e fc6b 93be 1c5f 6dbe
000002f0: ebf1 6dbd 87fa d13d 268f 85be 704d d0be
00000300: 6bdd 023f 1366 97be 5604 473d 8f4b 56be
00000310: 3085 07bf fe7e 943e b55f 573c 3ac4 1e3e
00000320: 0de1 40bd 87d7 823e f391 05be 9b62 4dbe
00000330: 912a aabe 5ab9 123e c2c9 17be 7a69 f93d
00000340: cefb d43d 580c 0c3e 3e3e 1abd ad2f 903d
00000350: 98fb 663e e81f 57be aace c5bd 828d bdbd
00000360: 3be4 68be 442a ddbd a742 26be 5c5e 53bc
00000370: b281 f7bd 1d5d 363d 63dd ef3d d10a 81bd
00000380: 20a5 5d3c 9bf0 26bc 78b4 6a3e cb79 083e
00000390: b008 9dbe 9632 78bd e954 de3d ab23 e83d
000003a0: 2090 dfbd 842d 3ebe 6276 89be 8fe8 6e3e
000003b0: ddf6 463e 3b3f b03d f0e1 bc3d 867b ae3d
000003c0: d4dc 853e e842 b53d 406c 843e ef85 ccbd
000003d0: 1986 ed3d 35eb 7bbd b19a c5bc 856e 9abe
000003e0: edd3 9cbd 89a0 f63c 94fa 28bd e564 233d
000003f0: 3994 94be b502 eaba f797 edbd f3ec ab3d
1.48139 -0.11316809 0.1755688 0.010969993 0.031928983 0.3273016 -0.20610377 -0.060810734
0.0040190206 -0.10213937 -0.11217103 -0.29454365 -0.5637742 0.11615397 0.12866406 0.20721702
-0.2524785 0.06745349 -0.19322278 -0.21253721 0.27569714 0.09353756 -0.2247631 -0.15745427
-0.024519674 -0.18996783 -0.048696 0.24407451 -0.016350247 0.31128696 -0.2981344 0.28720403
0.034902673 0.07664009 -0.27130467 0.071227856 0.6915796 -0.178854 -0.0410953 -0.12843408
0.076130696 0.4348979 -0.09573411 0.46326166 0.031974405 0.06827482 -0.25656793 -0.27794814
0.52767396 0.045979746 0.02809503 -0.06588416 0.07689399 0.15205675 -0.24934757 -0.17604534
0.2262496 -0.067060046 -0.072324574 -0.030973151 0.33158463 0.108669825 0.23418412 0.2588873
0.16090035 -0.22937877 -0.16246288 -0.015907215 -0.082485996 -0.26399168 0.02433501 -0.036064424
-0.21429873 -0.044583734 0.057196695 0.12529331 -0.17561229 0.099502206 0.20118342 -0.061870966
-0.21491137 -0.2749901 -0.1623756 -0.1439835 -1.6542354 0.2620276 -0.20089296 -0.026201451
-0.06227271 -0.070269085 0.44553277 -0.38261506 0.027201122 -0.25936368 -0.088808544 0.35793215
-1.0060369 0.3816195 0.096891895 0.1322028 -0.18284297 -0.02698957 -0.05079036 -0.18840545
0.008709651 0.13236332 -0.32935333 0.45160788 -0.3424032 -0.13306713 -0.16195406 -0.19862583
-0.017927475 0.17762285 0.12998644 0.18844642 0.16065562 0.0028508552 -0.06809496 0.2577192
-0.88135964 0.28718138 -0.13666868 0.0837294 -0.21483965 -0.06447261 0.081100665 -0.039929483
-0.02502358 0.13259543 0.035238568 -0.07849906 0.4067666 -0.07983069 0.048887968 -0.038384322
0.11279944 0.11729798 0.066390656 0.21974719 -0.016829895 -0.14752603 -0.047806736 -0.22264977
-0.045522287 0.051696565 0.07551836 -0.21744092 -0.1668845 -0.15609492 -0.20399787 -0.24892819
-0.08108573 0.18302898 0.062871866 -0.18570232 -0.726312 0.020803548 0.09028787 0.06502342
-0.10703046 -0.13989253 -0.26596928 0.06775501 0.18641433 -0.22544605 0.20695464 0.27851823
0.2406099 0.025627755 -0.10846885 0.20932649 -0.23259485 -0.22442804 0.10026662 0.17074028
-0.07419627 -0.22540799 -0.019939374 0.26056966 -2.2176232 -0.005677094 0.07428935 -0.03870639
0.028196253 0.14700657 -0.28793323 -0.23180813 -0.05809204 0.102528624 -0.26085776 -0.4068408
0.51119107 -0.29570064 0.04858812 -0.20927261 -0.52937603 0.29003137 0.013145377 0.15504542
-0.047089625 0.2555506 -0.13043956 -0.20057146 -0.332356 0.14328519 -0.14823058 0.12178321
0.103995904 0.13676584 -0.037657015 0.070403434 0.22556913 -0.21008265 -0.09658559 -0.09255506
-0.22743313 -0.10799077 -0.16236363 -0.012900915 -0.12085284 0.044522393 0.11712148 -0.06300891
0.013528138 -0.010189201 0.22920406 0.1332771 -0.3067069 -0.060595118 0.10856039 0.11334928
-0.109161615 -0.1857205 -0.2684813 0.23330902 0.19430108 0.0860581 0.09222782 0.08519654
0.2614504 0.08850652 0.25863838 -0.09986483 0.11597843 -0.061503608 -0.024121614 -0.30162445
-0.07657609 0.030105846 -0.041254595 0.039891142 -0.29019335 -0.001785359 -0.116012506 0.08394804

net.0.bias f4 [128]
00000000: 6ac5 243c 7206 343d cf05 25be 5011 203e
00000010: 2792 5d3d 544a 00bd ade8 173d cc64 7bba
00000020: 46a4 72be e456 cdbc 099c 87bd 344a 38bd
00000030: bc6f 4a3e 9ab3 30bc 87bb 573e 12e7 df3c
00000040: 8118 393e 7eb3 e6bc 7c33 413d 1b57 debd
00000050: 6ea4 c83d b747 7b3e a4dc 5cbc 7025 73be
00000060: e885 22be 20ac 483e 00fb 0a3e 4cbb 8bbc
00000070: 10d4 7bbe 2661 5abe 4ddc 403b e458 1e3e
00000080: b177 2ebe d6aa 5a3e 23f7 523c 8bb9 37be
00000090: 42e9 78be 3d20 c6bd be55 4bbe ee40 c83d
000000a0: 4fa9 12be 3cea b93b 1628 33be a80e ffbd
000000b0: 2879 47bd e7bf 943e 1fe8 6fbe 35cf 4ebe
000000c0: 2a03 d7bd cbc0 313d 9695 29be e1bc e4bd
000000d0: c233 91bc efa1 00be a294 c8bd 5cf8 67be
000000e0: ef53 1c3e 3cff adbd 12c9 7ebe 569a 00be
000000f0: 9865 efbd 7a2a 453e fb1e 723d 7cc8 c4bd
00000100: 64d0 f73d 50f2 14be 6726 493e cd5e b0bd
00000110: eb1c 55be 6719 73be 3277 d5bd cbd1 733a
00000120: 6bbf aebd 566e e9bd b446 8a3d 298e ba3d
00000130: 33f4 88be 743e ebbd 348b 5e3e 70ff 5d3e
00000140: fac9 3abe 2ac3 313e 4c02 a0bc 2860 7cbd
00000150: 2274 73bd ae80 88be fa98 f6bd 6955 883d
00000160: ff17 98bd 89e1 47bd 9bd5 143d 94bd 203e
00000170: 2436 e6bc 31b1 4a3e ff4c 453e 3443 a0bc
00000180: a3e7 aabd 9f70 4c3e c4c8 52bd debc 2abc
00000190: cc0d ebbd bfc2 4c3e 0e32 02be 7deb 973d
000001a0: 90c9 00be 6d77 a03d a7a9 d23c 1421 bebd
000001b0: e005 94bd fb31 513e bbb3 ff3d 365f 123e
000001c0: f441 4abe 02e0 f9bb 444d 14bd 2f1a 563d
000001d0: 1646 563e 8490 f1bd 12f0 193e 25bb 1cbe
000001e0: 9c63 ebbc 465e 533d 3f42 433e 31d5 38bd
000001f0: c82c 683d b877 643d 698d 193e 3c9d 30be
0.010056833 0.04395146 -0.16115497 0.15631604 0.05409446 -0.031320885 0.03708713 -0.000958991
-0.23695478 -0.025065847 -0.06621558 -0.04499264 0.19769186 -0.010785008 0.2106763 0.027331863
0.18075754 -0.02816176 0.04716824 -0.10856458 0.097969875 0.24539076 -0.013480339 -0.2374475
-0.15871394 0.1959691 0.13572311 -0.017057084 -0.24592614 -0.21326122 0.0029428184 0.15463597
-0.17037846 0.21354231 0.012876305 -0.17941873 -0.24307731 -0.09674118 -0.19856927 0.09778009
-0.14322399 0.005673675 -0.1749576 -0.12453967 -0.048699528 0.2905266 -0.23428391 -0.2019623
-0.1049865 0.043396752 -0.16560969 -0.11168838 -0.017724875 -0.12561773 -0.097939745 -0.22653335
0.15266393 -0.08495948 -0.2488139 -0.12558874 -0.11689299 0.19254485 0.059111577 -0.09608552
0.12100294 -0.1454556 0.19643556 -0.08611832 -0.20811813 -0.23740159 -0.10423125 0.0009300976
-0.08532604 -0.11397998 0.06751767 0.09109146 -0.2674881 -0.11486521 0.2173279 0.21679473
-0.1824111 0.17359605 -0.019532345 -0.06161514 -0.059436925 -0.26660675 -0.12040897 0.06656916
-0.07426452 -0.04879907 0.036336523 0.15697318 -0.028101988 0.19794156 0.19267653 -0.019563295
-0.083449624 0.19964837 -0.051460996 -0.010421006 -0.11477241 0.19996165 -0.12714407 0.07417963
-0.1257689 0.07835279 0.025715662 -0.09283653 -0.07227683 0.20429222 0.12485453 0.14294133
-0.19751722 -0.0076255808 -0.0362065 0.052271064 0.20925173 -0.11795142 0.15032986 -0.15305765
-0.02873402 0.051603578 0.1906824 -0.04512519 0.05668333 0.055778235 0.1499535 -0.1724748

net.2.weight f4 [128, 128]
00000000: 6a2a 423d 8a72 ec3c ddc1 a53d 1908 683d
00000010: 1369 c6bd d3e6 f33c 2b20 a63c d38d bebc
00000020: 4c82 f9bc 857d 893d eeb3 803d e961 16bb
00000030: 4381 51bc 6b58 5abd 91b1 753a 0ac2 373d
00000040: 694b ca3b 0b9a 01bd 96fe 4a3d 8da3 12bd
00000050: e1d2 063d c7cf 033c daba a73c 73be 85bd
00000060: aade 3bbd 8bb6 703d 4de5 933c 71c3 cb3d
00000070: b254 283d 6f33 513d 526e 9f3d e179 5bbd
00000080: 0e96 433c d4c4 2c3d 33b1 d73d 9ffe c33c
00000090: 5fe5 283d 795c 16bd 5476 c5bc 3300 fa3c
000000a0: e2dc 5f3d d2b5 3abd f74d 96bd 02f8 3f3d
000000b0: 7d5a 2dbd 2968 d538 3de1 463d ee5d 0c3d
000000c0: 4629 afbc 7b1b a6bc 079f 803d 2dc4 8bbc
000000d0: 756e 5d3d 7cc1 213d afe9 353d 884e 9d3d
000000e0: c1ef 38bd d4f7 933c fe29 523d 500e 66bc
000000f0: d974 bd3d 9bf2 2d3d a90f ec3b 8447 cebb
00000100: b2e0 7e3c 4eed b4bd 9ae3 523d 5d9a 333d
00000110: 8c3a 803d 0981 5ebd 6fe2 4e3d a9c1 45bd
00000120: 198c 90bd 2fe6 ffbc 687d 863d 14c9 68bd
00000130: ad5c febc 91b7 34bd 077e e7bb 2f40 d3bc
00000140: 835a 58bd b8ff 1f3d 4ce8 803a cba0 703d
00000150: 06ae 983d 768f 733d 6df7 973d 7acf 073d
00000160: a91f f53c f717 dcbc 5b9a 693d 354c 86bd
00000170: 2558 cbbb d2c3 7bbb 771d 793d 815e 983d
00000180: bb98 933d d632 973c d9f3 73bc bedb abbc
00000190: 2aa5 84bd 6479 723d bb1f 66bd 7ddf 82bc
000001a0: da1b 4abd 9f41 133b ca34 5d3d 7f6e 053d
000001b0: d7ce 45bd 0c78 14bd 5851 9bbd a0be 29bd
000001c0: 3284 3f3d 5de3 5cbd bf0a 73bc 9194 2a3d
000001d0: 3a93 373d a6fb 363d c9d9 623d f7eb 2d3d
000001e0: a429 85bd 4e02 553b bc16 c23c 70c9 5e3b
000001f0: c698 933d 18db 983d 3636 a63b 5e26 913d
00000200: dcb0 8c3c 0339 8cbd 55dd 11bb 4dae 71bd
00000210: c95c 47bb e5ef a03d 7d78 ac3d d6a3 4bbd
00000220: 50d6 983c 5eff 12bd c82a 84bc 70bc ec3c
00000230: 4f62 6bbd 04cb 743d b256 0ebd 8a0f c8bc
00000240: 983f 2fbd 75d4 42bd 3612 a03d 8f8d e53c
00000250: fc72 3dbd bf4a 9f3d 11a5 08bb a8bd 723d
00000260: 227b 8c3d cd0b 3e3d 1911 223d a4b3 c53c
00000270: 27d4 74bc 1e0d 673d 2e0a e13b 2b6b 9a3d
00000280: df3d 37bd 1c7f 333d 12e5 b4bc f8ce a73d
00000290: 8db1 85bd 579b d1bc 4eea 9c3d c1b4 9d3d
000002a0: c2b6 8b3d 48fc 84bd b135 883c 670b 073d
000002b0: accd 46bd ba57 7dbd 3008 333d 4d66 c1bd
000002c0: 7acf 9fbd 5be0 91bd 2aab 18bc c78c 3dbd
000002d0: 1ad3 73bc 7625 a9bd a660 51bd e0ad be3c
000002e0: 35b2 55bd 7334 2dbd 08c1 853d 5430 ac3d
000002f0: 5b67 c7bd 02a5 833d 7513 663d f268 ae3d
00000300: 7dd5 783b 0aee 553c 3993 5ebc 64bc bebd
00000310: 3359 933d 1d2b 4a3b 426b 623d 3f54 123c
00000320: 931a b13c 67b1 86bd 9836 a4bc 81da 663d
00000330: 4e8f 05bd 01c5 8e3d 2bdb 84bc 8a83 08bd
00000340: f0d3 893d c1e7 69bd 9b37 973d d0f8 0abd
00000350: 59d1 d1bc 26f6 7b3d a876 8dbd ae3b 2bbb
00000360: ce55 803d 307b 9bbd 0ac3 a1bb 9d36 3cbd
00000370: e988 9dbd cb63 dcbc 874c 093d f13c ab3c
00000380: 641a a5bd a96d 23bd 6959 393d 594f 523c
00000390: 43ce 993d ff5d ae3d ad07 5e3d 6b83 313c
000003a0: 7743 863d 1153 9abc 3591 1d3d 30a2 b2bc
000003b0: 154b 133b c3b4 cfbc ee6f cbbc 69cc 8d3d
000003c0: bd08 87bd 1eda 96bc 1ad7 67bc fd4f 00bd
000003d0: 31cf fc3c f784 84bd 4157 913d e075 893d
000003e0: 0862 8cbc 8847 623d fcfc 9f3d 1773 9ebd
000003f0: a5b5 b93c 84d0 16bd d341 333d 8dda 80bc
0.04740373 0.02886321 0.08093617 0.056648348 -0.0968801 0.029773152 0.02027901 -0.023260986
-0.030457638 0.06713394 0.06284319 -0.0022946543 -0.012787166 -0.05330698 0.0009372468 0.044862784
0.0061735404 -0.031641047 0.0495592 -0.035800505 0.032915954 0.008045143 0.02047484 -0.06530466
-0.045866646 0.058767837 0.018053675 0.09949387 0.041096397 0.05107444 0.07784714 -0.05358303
0.011937631 0.042179897 0.10531845 0.023925124 0.04123437 -0.036709283 -0.024104275 0.030517673
0.05465401 -0.045583554 -0.07339089 0.046867378 -0.042322624 0.00010176033 0.048554648 0.034269266
-0.021381985 -0.020276776 0.06280332 -0.017061317 0.05406042 0.03949116 0.04441231 0.07680994
-0.045150522 0.01806251 0.051309578 -0.014041498 0.092508025 0.042467695 0.0072040153 -0.0062951464
0.015556501 -0.08834325 0.05148659 0.043848384 0.06261167 -0.054322276 0.050508913 -0.04828039
-0.070579715 -0.03123769 0.06566888 -0.056832388 -0.03105005 -0.044120375 -0.007064584 -0.025787441
-0.052820694 0.03906223 0.0009834855 0.058747094 0.07455067 0.059462987 0.074202396 0.03315685
0.029922323 -0.026866896 0.05703197 -0.06557504 -0.006205576 -0.0038416279 0.060819115 0.074399
0.072068654 0.018456858 -0.014889681 -0.020978805 -0.06476815 0.0591978 -0.056182604 -0.015975708
-0.049342968 0.0022469533 0.05400542 0.03257608 -0.04829296 -0.036247298 -0.075838745 -0.04144156
0.04675693 -0.053927768 -0.014834105 0.04164559 0.04481814 0.044673584 0.055383477 0.04246136
-0.06502083 0.0032502594 0.023692481 0.0033994578 0.072068736 0.07463664 0.0050723804 0.07087396
0.017174177 -0.068468116 -0.0022257168 -0.059004117 -0.0030420294 0.07858256 0.08421419 -0.049716793
0.01865688 -0.03588807 -0.016133681 0.028898448 -0.0574668 0.059763923 -0.034750648 -0.024421472
-0.042785257 -0.047565896 0.078159735 0.028021602 -0.046252236 0.077779286 -0.002085034 0.0592629
0.06859423 0.046397973 0.039567087 0.02413351 -0.014943159 0.056408994 0.0068676686 0.07539972
-0.04473674 0.043822393 -0.022081885 0.08193773 -0.06528006 -0.025586767 0.076618776 0.07700492
0.06821968 -0.06493431 0.016627165 0.03296986 -0.048535988 -0.06185124 0.04370898 -0.094433405
-0.07803245 -0.071228705 -0.009318152 -0.046276834 -0.0148818735 -0.08259098 -0.05111756 0.02327627
-0.052171905 -0.042286348 0.065309584 0.08407655 -0.0973651 0.06427957 0.0561709 0.085161105
0.0037969046 0.013057241 -0.013584905 -0.093132764 0.07194748 0.0030848451 0.05527807 0.008931219
0.021619117 -0.065768056 -0.020045564 0.056360725 -0.03260737 0.06971169 -0.016217789 -0.03332857
0.06729877 -0.057105783 0.07383653 -0.033928692 -0.02561252 0.061514042 -0.069073975 -0.00261281
0.06266366 -0.075918555 -0.0049365805 -0.04595052 -0.07692129 -0.026903054 0.033520248 0.020903083
-0.08061674 -0.039899502 0.045251284 0.012836301 0.075100444 0.08514022 0.05420654 0.010834555
0.06555837 -0.018838437 0.03846856 -0.021805853 0.0022475172 -0.025354749 -0.024833646 0.06923754
-0.065934636 -0.018414553 -0.014150405 -0.031326283 0.030860515 -0.064706735 0.070967205 0.06711936
-0.017136589 0.055244 0.07811925 -0.077367954 0.022669623 -0.03681995 0.043763947 -0.015729213

net.2.bias f4 [128]
00000000: 8f94 3d3d 6972 433b c08e a3bd 5f00 c1bd
00000010: d0a7 17bd 08b7 b5bc 31a6 55bd 839c 1bbd
00000020: d930 5d3c 6389 febc dc91 9c3d e26b 933d
00000030: cd11 6f3c 5b23 503d 70c4 cf3c 1f43 793d
00000040: b814 bd3c b59e acbd a97b 863d a8b7 81bd
00000050: 2e72 d03c 3cfe fcbc a57f 9a3d 0f3f 80bc
00000060: 039f 153d 36c8 893d a613 83bd 6d01 0cbd
00000070: 2b52 5f3c 871e a0bc 3e25 0a3d 1104 1fbc
00000080: 1f65 a6bd 4e68 a83d 314b 6dbd 6595 07bd
00000090: 28e8 473d b4fd 6e3d f690 7ebd efed 84bd
000000a0: 775a 76bd ce0d 06bd 1f49 573d 7f32 603d
000000b0: 170e 2fbd f2e7 a53c 796f 323d c6bc 363d
000000c0: 9b77 0a3d 26c9 ea3c 0bc3 113d 78b1 743d
000000d0: 6442 ae3c e021 533c a133 223d 50d1 9fbd
000000e0: 0637 da3c f113 5abd 2246 d5bc 5b9b 97bc
000000f0: fd7d 793c 3cbb c03d 2b15 3cbc a4e5 a33d
00000100: a6cc 45bd dab1 e03c bcff 713d 68a2 0bbd
00000110: dc47 f63c 962c 8cbd bf34 86bc 305d 813d
00000120: cb7f adbd a2a3 20bc 57e2 98bc e559 b0bc
00000130: ce78 02bd 4d39 20bc 9895 8e3d 9ce5 18bc
00000140: 58b5 8fbd 14fd 2e3d 5310 723c 149c 6fbd
00000150: 597e 5f3c 6f09 093d 690e c03d 0af7 f13c
00000160: 4e08 8dbd ad73 8ebc 82dd 65bd c616 223c
00000170: 55f2 7abd 56bd 523d 3d6c 89bd 8d71 2bbd
00000180: 1bbb 49bd eded cd3c e477 0c3d 3dbe a13d
00000190: bc0e 00bc eacb 273d adda 6dbd 831b 0bbd
000001a0: 1e04 b43c 5a33 a9bd 2e2c b1bd 70b5 3a3d
000001b0: f768 4d3c 9052 6f3d f31e 133d dc41 033c
000001c0: 555f 4ebd 35f8 3dbd 690a abbd 4eee 623c
000001d0: 79f4 79bd 20bc a2bc dc5d a53d 9552 5fbd
000001e0: 8e15 443d 875a 87bd 277f da3c 46b5 fbbc
000001f0: 9570 873d 1df1 a4bd 7d1a 703d 0030 91bd
0.046284255 0.0029822832 -0.07986212 -0.09423899 -0.037025273 -0.022182003 -0.052160446 -0.037991058
0.013500416 -0.03107137 0.07645008 0.071983114 0.014591646 0.050814968 0.025362223 0.060855027
0.023081169 -0.084287085 0.06566555 -0.06333858 0.02544507 -0.030882947 0.075438775 -0.015655069
0.0365286 0.0672764 -0.06400232 -0.034181047 0.01363043 -0.019545807 0.033726923 -0.009705559
-0.08124756 0.082230195 -0.057933036 -0.033101458 0.048805386 0.05834742 -0.062149964 -0.06490695
-0.060144868 -0.03272801 0.052559968 0.054735657 -0.042738046 0.020252202 0.04356334 0.044613622
0.03380547 0.028660368 0.035586398 0.05973956 0.021271892 0.012886494 0.03960002 -0.07803595
0.026637565 -0.053241674 -0.026034418 -0.018506696 0.015227792 0.09410712 -0.011479656 0.08002785
-0.04829087 0.027428556 0.059081778 -0.03409043 0.030063562 -0.068444416 -0.016382573 0.06316602
-0.0847164 -0.009804638 -0.018662615 -0.02152724 -0.03185349 -0.009779287 0.069621265 -0.009332087
-0.070170105 0.042721823 0.0147744 -0.058498457 0.0136409635 0.033456262 0.093777485 0.029536743
-0.068863496 -0.017389143 -0.05611945 0.009893125 -0.061266262 0.051450096 -0.06710098 -0.041856337
-0.049250703 0.025137866 0.034294024 0.07897613 -0.007816013 0.040965952 -0.058069874 -0.033961784
0.02197462 -0.08261748 -0.08651005 0.04558319 0.012537233 0.058428347 0.035918187 0.008011308
-0.050383884 -0.046379287 -0.08351595 0.013850762 -0.061024163 -0.019865096 0.08074543 -0.054522116
0.04787212 -0.066090636 0.02667196 -0.030726086 0.0661327 -0.08053801 0.05861901 -0.070892334

net.4.weight f4 [64, 128]
00000000: 7c50 59bb 2ae7 7d3d d372 913d 4e71 d5bc
00000010: 38ac 06bd 4ea0 3fbc 455a 81bb b95d 28bd
00000020: 0bf1 7ebc a2a1 0b3d b909 583c c28c 8cbd
00000030: 1012 c1ba 1b10 04bd c224 4b3d 7463 e7b8
00000040: 0924 c43c 68e7 913d e888 99bd 74cd 953d
00000050: 6544 70bd 3140 2a3d e0b7 713c 9ca5 9c3c
00000060: 7a7d 633d abfd 473d b796 283c a295 903a
00000070: 6fcc a83d a7f2 15bd 4b3d 833d 6028 4cbd
00000080: a376 34bd e60d 24bd 5844 a2bd 6970 3cbc
00000090: 108c 203d 3205 9f3c 1ff8 8abd 23f3 8f3d
000000a0: 045f 963d 8638 883d e914 6a3b b08a fd3c
000000b0: 8bf1 883d 2847 d63b a352 153c 8239 eebb
000000c0: 75fc 8d3c cb4d 1dbd 0abc b03c ed43 3cbd
000000d0: 0184 8bbd bb6f 2d3b 65b1 153d 0c88 4b3d
000000e0: 2eca 0f3c d250 493d 5565 89bd d5ca b73c
000000f0: ab10 9fbd e79e f13d a314 c43d 0296 163d
00000100: fb0e 4c3d 0232 95bb 29cb 9f3d 9b93 34bb
00000110: 64c7 323d dd53 d63d 8709 8a3c 5a7c 143d
00000120: 8b1b 103d 6fee 82bd 6ab2 a0bd c869 84bc
00000130: 3c30 0e3d 364e aa3d cd11 98bd a18d 913d
00000140: 9e02 a4bc 7888 ad3d 3b70 bebb d09a 42bd
00000150: 5c8f 24bd 7ee4 7d3d 0f7a 78bd f080 42bb
00000160: 11ff 36bd 8cbf c83a 44c1 4fbd 34d9 a3bd
00000170: abc6 24bd 0406 613d 6d6d 1d3d 8269 bebd
00000180: 8f73 8abd 17be 203d b6ab 943c ca16 d13c
00000190: b914 363c 4a0a 80bc 67de 8abd e884 32bd
000001a0: 0526 8b3d 45cf a7bd 068d bcbd 3c88 ac3d
000001b0: ae13 6ebd 1e01 793c c6f2 853d e7d8 133d
000001c0: 945f e3bc b4c4 ac3d cf6a b5bc 14cf 49bd
000001d0: fd6a d63c 5c19 913d 050e 03bd 10e9 2a3d
000001e0: 2c0a 203d 94f5 da3a 3c7c 6ebc 38cb 32bd
000001f0: bfde cabc d5c6 8e3d 795d a3bd 7ae7 7ebd
00000200: 0faa ac3c 3740 a2bd c2ec a23b 5199 d03c
00000210: 451c 87bd 211a 063c 9ea5 df3c 0823 323d
00000220: d073 a53d eb50 a63d edff 94bd 3710 c7bd
00000230: fad3 0abd 4cec 85bd e826 373d 5779 c03c
00000240: e8eb 973d 15e2 28bd c037 28bd c90e 8fbc
00000250: ae6d 413d 47df 2c3d 5a52 79bd aa22 d33b
00000260: 619b a1bc 38d0 003c 6f73 1ebd d0f5 8fbb
00000270: 793c dd3b 8011 313b ce4d 51bd de4e a1bc
00000280: 1e09 893d 4df7 863d 33c5 4bbc ef4d 90bb
00000290: ff7c 653d ff7a 90bd 3679 a6ba 8cc7 0a3d
000002a0: b0ee 17bd b8fa 61bd 02f1 013b 57bd f7bb
000002b0: f7ff 75bc 17dd 8cbc 1cef 553b 4f9e af3d
000002c0: af6b 9cbd 0f79 7fbc 71f9 193d 3ffc 1fbd
000002d0: 8a21 9d3c 1579 98bd e9e6 8dbd 7bc6 4abd
000002e0: 33fb caba 6308 e9bc b7ab 8a3c 3615 9b3d
000002f0: 2a00 b43d 3aa5 c63d 483b 933d 6309 9dbd
00000300: d044 ac3c 59fc 9abd dcf3 6b3d 7398 9a3d
00000310: 2156 623b 8364 873b e09f b33d 6294 84bd
00000320: 0064 8a3c a397 7bbd bc5a afbd 9da9 ad3c
00000330: 43dd 2f3d f2f9 0d3c f8f5 d9bd dc30 4b3c
00000340: 26a2 22bc 16c1 d2bc 7712 0b3b 9e45 56bd
00000350: 0c02 323d c148 a5bc a5df 19bc 4a5d fbbc
00000360: 1626 65bc 1035 26bd 1a84 86bc 0662 a0bc
00000370: f8dd a13d 32b8 fc3a 949e 9dbd b927 b3bd
00000380: a366 073d 0e3c 6f3d c4a2 01bd ec23 2b3d
00000390: 6817 b4bd ca4a 96bd 7e74 463c 3775 533c
000003a0: 0f2e c3bd 2692 c73c c7c7 8f3c df15 a33d
000003b0: 49d8 01bd 4420 9fbd 4a14 1d3c 8238 93bd
000003c0: c76b 80bd d913 213d 4814 22bd e4a0 1bbc
000003d0: e6d5 da3c c77c 8ebd 643b a1bd f0f4 293d
000003e0: 0f64 cb3d c0a2 843c e6fe a93d 5963 403d
000003f0: 8db0 993d 7273 01bc 0d51 c93c 5252 8c3d
-0.0033159545 0.061988033 0.07101979 -0.026055004 -0.032879084 -0.011695934 -0.0039475285 -0.041105006
-0.015560399 0.034089692 0.013185912 -0.06862785 -0.0014730114 -0.032241922 0.0495956 -0.00011033463
0.023942964 0.07124215 -0.07496816 0.07314578 -0.058658976 0.041565124 0.014753312 0.019121937
0.055539586 0.0488259 0.0102898395 0.0011030922 0.082421176 -0.036608364 0.06408175 -0.049843192
-0.044058453 -0.040052317 -0.07923192 -0.01150141 0.039196074 0.019411657 -0.067856066 0.070287965
0.073423415 0.06651406 0.003571803 0.03094992 0.06686696 0.006539244 0.00911394 -0.007270039
0.017332295 -0.038404267 0.021574039 -0.045963217 -0.06812287 0.0026464302 0.03654613 0.04969029
0.008776231 0.049149342 -0.06708781 0.022435585 -0.07766851 0.11797886 0.09574249 0.036764152
0.049818974 -0.0045530805 0.078024216 -0.00275538 0.043647185 0.104652144 0.016850246 0.036251403
0.035182517 -0.06393134 -0.0784653 -0.016163722 0.03471397 0.08315699 -0.0742527 0.07107092
-0.02002078 0.08473295 -0.0058117188 -0.047510922 -0.04017578 0.061985485 -0.06066328 -0.0029678904
-0.044676844 0.0015315874 -0.05072142 -0.080004126 -0.040228527 0.054937378 0.038434435 -0.09297468
-0.06760322 0.039243784 0.018148284 0.025523562 0.011113339 -0.015629906 -0.06780701 -0.04358378
0.06794361 -0.081938304 -0.092065856 0.08424422 -0.058124237 0.01519802 0.06540446 0.036095526
-0.027755536 0.08435956 -0.022145657 -0.04926975 0.026174063 0.07084915 -0.031995792 0.041726172
0.0390722 0.0016705268 -0.014555987 -0.043650836 -0.024764417 0.06971518 -0.07976813 -0.062232472
0.021077184 -0.07922404 0.0049720714 0.025463732 -0.06597189 0.008184941 0.027300652 0.04349044
0.0807873 0.08120903 -0.072753765 -0.097198896 -0.033893563 -0.06539211 0.04471484 0.02349536
0.074180424 -0.041231234 -0.041068792 -0.017463105 0.04722374 0.04220512 -0.060869552 0.0064433413
-0.01972741 0.007862143 -0.038684305 -0.004393317 0.0067515937 0.0027018487 -0.05109959 -0.019690927
0.06691192 0.06590138 -0.012437153 -0.0044038217 0.05602741 -0.0705471 -0.0012700919 0.03388171
-0.037092865 -0.055170745 0.001982749 -0.007560413 -0.01501464 -0.017195268 0.003264374 0.08575117
-0.076377265 -0.015592827 0.0375914 -0.03905892 0.019181032 -0.074449696 -0.06928808 -0.049505692
-0.001548624 -0.028446382 0.016927583 0.07572405 0.08789094 0.09699483 0.071890414 -0.07667806
0.021028906 -0.07567663 0.05760561 0.07548609 0.00345362 0.004131855 0.08770728 -0.06473614
0.016893387 -0.06142391 -0.08562228 0.021199042 0.04293562 0.008665549 -0.10642618 0.012401786
-0.0099263545 -0.025726836 0.0021220723 -0.052312486 0.043458983 -0.020176293 -0.0093917 -0.030684132
-0.013986131 -0.040577948 -0.016420413 -0.019577991 0.07903665 0.0019280969 -0.07696262 -0.08747811
0.033056866 0.058406882 -0.031649366 0.041782305 -0.08793527 -0.07338484 0.012112735 0.012906364
-0.09530269 0.024361681 0.017551316 0.07963156 -0.031700406 -0.07769826 0.009587357 -0.071885124
-0.06270557 0.03932557 -0.039570123 -0.0094988085 0.026713323 -0.06957393 -0.07872656 0.041493356
0.09931194 0.016190886 0.08300571 0.046969745 0.075043775 -0.007901059 0.02457478 0.06851639

net.4.bias f4 [64]
00000000: 6f8b b6bc ce5f 20bc d7bf 9c3d 9a35 953d
00000010: 5611 21bd 5c90 a8bc 77e8 dd3c c7fc 6e3d
00000020: 3af7 b2bc 6d82 003c edd2 b03c 1b60 d43c
00000030: aa20 b13b 0d0a 27bd ceda 4d3d faa0 83bc
00000040: cbd4 8fbc 8b24 a33c 8f9f aebd 1c2a 9e3d
00000050: fe4d 873d b245 65ba 2487 a33d 028b 7c3d
00000060: 4cc3 c03c 7cfb 2fbd d904 28bd eb91 173d
00000070: 7a4a 123d 2a4d 25bd 5650 ee3c e585 8f3d
00000080: a716 9c3d 4e25 353d 8a2c c5ba b046 9abc
00000090: fd65 c93c 9405 d9bb b778 0bbc c3db b2bd
000000a0: 4413 953a 851d 6abd affe 2abd c6eb 9d3d
000000b0: 58ed 013d df18 76bd cd8e acbc 2d81 0d3d
000000c0: ef92 43bd a800 543d 9188 a33d 6888 9e3c
000000d0: f6a2 96bc ba5e d1bc 49a9 393c 5a51 f83b
000000e0: 8787 ad3b 573d 7cbd fbd6 773d b68b 6f3d
000000f0: 0780 a23d a9c5 af3d 3d87 01bc b8aa dbba
-0.022283284 -0.009788467 0.07653778 0.07285614 -0.039323173 -0.020576648 0.027088387 0.058346536
-0.021846402 0.007843596 0.021584952 0.025924733 0.005405505 -0.04078107 0.050257497 -0.01606797
-0.017557522 0.019914886 -0.08526527 0.077228755 0.06606673 -0.0008746042 0.079847604 0.061656006
0.023530625 -0.042964444 -0.041020248 0.037004393 0.035715558 -0.040356793 0.029091042 0.0700796
0.07621508 0.04422503 -0.0015043181 -0.018832535 0.024584765 -0.0066229794 -0.008512667 -0.087333225
0.001137354 -0.05715706 -0.04174679 0.07710986 0.03172049 -0.060082313 -0.021064186 0.03454702
-0.04774755 0.05175844 0.07985032 0.019352153 -0.018388253 -0.025557864 0.011331865 0.0075780572
0.005295697 -0.061581936 0.060507756 0.058482848 0.079345755 0.085826226 -0.0079057785 -0.0016759252

net.6.weight f4 [1, 64]
00000000: fc84 b43d 3330 0d3e 683f 54bd 6683 c0bc
00000010: 9377 cc3d b29e a93c 8adc 90bd 6ff7 1b3e
00000020: b1db 4c3d 55ff f2bd 7574 b23d ab8e 00bd
00000030: 1083 f8bd 179c a6bd 1e0d 28bd e80a 3abd
00000040: 3173 963d 4b76 7ebd 0311 f13d 8f1f 02be
00000050: b772 b23d cddc 52bd 6b69 a6bd 0f1c 493d
00000060: b178 d3bd 2537 203e a5b4 edbd 97d0 a6bd
00000070: 9b70 eb3c abe3 a3bd 2c5d 0a3e c395 ec3d
00000080: 85bf 143d 3ec5 abbd 4587 9b39 f81d 173d
00000090: ee89 f43d da47 6f3d 4f00 e3bd 06a5 04be
000000a0: 100d 16bd 9bbd cbbd acfc 083e e28c 953d
000000b0: d31a af3d 5db2 5cbd c9ef f8bc ac70 03be
000000c0: 528c 91bd 4e4e 103e cadf 8dbd dc82 adbd
000000d0: d6bb fd3d 50bd 78bd 6554 77bd 821b 7f3d
000000e0: 36a0 ed3d bb3f e73d d395 073e 1da2 de3d
000000f0: 4a3c a7bd a8e0 c33d be23 573a 8382 a9bd
0.08814427 0.13787918 -0.05181828 -0.023500156 0.099837445 0.020705555 -0.070733145 0.15231107
0.0500142 -0.11865107 0.08713619 -0.03138606 -0.12134373 -0.081352405 -0.041028135 -0.045420557
0.0734619 -0.06212453 0.11770823 -0.12707351 0.08713286 -0.051480103 -0.08125576 0.049099024
-0.103257544 0.15646036 -0.11606721 -0.08145254 0.028740218 -0.080024086 0.13512105 0.11552002
0.03631546 -0.0838723 0.00029664687 0.036893815 0.119403705 0.058418132 -0.11084043 -0.12953576
-0.03663355 -0.09948274 0.13377637 0.07302262 0.08550038 -0.053881038 -0.030387776 -0.1283595
-0.07106842 0.14092371 -0.0692745 -0.08472225 0.123893425 -0.060727417 -0.06038322 0.062282093
0.116028234 0.112914525 0.13240747 0.108707644 -0.08165796 0.09564334 0.0008206925 -0.08276846
