experiments/exp019_nonlinear/model.pth (torch, 22141 bytes, 5 tensors)

0.weight f4 [64, 9]
000000 18 9c 04 be 44 97 65 3e 97 7b 86 3c 6e 31 58 bd
       -0.1295017 0.22420985 0.016416354 -0.052781515
000010 0d e0 00 be f4 7f a9 3e cf 2f 4e 3e a6 e6 84 3e
       -0.12585469 0.33105433 0.20135425 0.2595722
000020 a6 1e ad bd a5 69 8d 3e 28 fb 09 be fc 0b 38 bd
       -0.08453111 0.27619663 -0.13474715 -0.044933304
000030 f5 c4 13 3e 68 58 8e 3e 4f 1d db 3d 24 80 65 be
       0.14430602 0.27801824 0.106989495 -0.22412163
000040 db 83 59 be 0e 17 82 3e a1 d4 ae be 91 2e 81 be
       -0.21241705 0.25408214 -0.34146598 -0.2523084
000050 07 59 70 3d ff a6 60 3e c2 27 a0 3c 36 90 5c 3e
       0.058678653 0.21938704 0.019550208 0.21539387
000060 83 c5 47 3e f4 3f 8d bd 33 7d 82 be 92 64 35 3d
       0.19508938 -0.06896964 -0.25486144 0.044285364
000070 93 c4 b2 3d d1 2f ba 3e 81 4f 8a 3e cc 00 f1 bd
       0.087289 0.36364606 0.27013782 -0.1176773
000080 be 52 17 be b3 77 4b 3e 3b 13 3d 3d 65 5d 90 bd
       -0.14777657 0.1986988 0.046160918 -0.070490636
000090 e0 5e 06 3e af 4d 2c bd e7 d2 cb 3d 91 eb 50 be
       0.1312213 -0.042066272 0.09952336 -0.20402361
0000a0 6c fa 35 3c c0 9a 98 be e9 7a 6f 3e 57 86 88 3d
       0.0111070685 -0.29805565 0.2338673 0.06666248
0000b0 32 bd ec bd f5 36 73 be e4 6d 18 bd 00 6d 10 3e
       -0.11559524 -0.23751433 -0.037214175 0.1410408
0000c0 5b f6 d5 bd 80 69 35 be ad cf 5a bd 53 b4 62 be
       -0.10447379 -0.17716026 -0.05342071 -0.221391
0000d0 ef dd 92 be d6 64 95 3e e1 08 c5 3b 59 09 33 3d
       -0.28684947 0.29178494 0.0060130213 0.043710086
0000e0 36 8e 46 be ec c6 be 3d 26 41 83 bc 1f 74 5b be
       -0.19390187 0.09315285 -0.016022276 -0.21431015
0000f0 dd ff 89 3e 61 6e 20 3e c1 30 8f 3d 9f b6 ab bd
       0.2695302 0.15667106 0.06991721 -0.083844416
000100 b2 88 42 be c1 b1 9d be a8 20 09 be db 66 35 be
       -0.18997458 -0.30799678 -0.13391364 -0.17715017
000110 49 9c 9f be 9b 7e 7e 3d 2d e0 8d bb a4 a7 91 3e
       -0.31173924 0.06213246 -0.0043297024 0.28448212
000120 4b 99 0c 3e 06 38 3e 3e e1 72 8a be d1 0e b2 3d
       0.13730352 0.18576059 -0.2704077 0.08694232
000130 2d 20 32 be 1c 84 7e be d0 9a 4a 3e b4 76 68 3e
       -0.17395087 -0.24855083 0.19785619 0.22701532
000140 09 f8 05 3e 36 7b 5a be e4 7d 46 be a8 57 53 3d
       0.13082899 -0.21336064 -0.19383961 0.051597267
000150 0a 12 6b 3d 34 65 85 be 80 1c c5 be 99 39 25 3e
       0.05739025 -0.26053774 -0.38498306 0.16135253
000160 0b af d2 be 95 3a c8 be 81 01 a8 bd e5 ba 82 3d
       -0.41149172 -0.39107195 -0.08203412 0.063833036
000170 38 8a 1e 3e 90 77 94 be d5 92 10 3e a6 f4 64 be
       0.15482414 -0.2899747 0.14118512 -0.22358951
000180 cf 8a 42 3e fc 6d 12 3e ad 14 2c be 6b ca 7a 3e
       0.18998264 0.14299768 -0.16804762 0.24491279
000190 51 27 25 3d 17 8d ac bd 4d a7 cf 3d cf b9 aa 3d
       0.0403207 -0.08425348 0.10139332 0.083362214
0001a0 13 c6 9c 3e 13 95 cd bd 0e 75 b7 3c 07 94 41 3e
       0.3061987 -0.10038199 0.022394683 0.18904124
0001b0 98 66 e5 3d 08 40 25 3d 4a b3 21 be 2b ae 8d 3d
       0.11201209 0.040344268 -0.1579105 0.069179855
0001c0 fd a3 de bd 5d 5f e4 3d 6a 5e 68 bd 8b d4 89 3e
       -0.10871122 0.111510016 -0.056730665 0.2691997
0001d0 32 29 03 3d 1c ed 05 bd aa 35 85 be 33 f3 04 3e
       0.03202171 -0.03269683 -0.26017505 0.12983398
0001e0 ed 89 82 be 0d 82 dd 3d 96 cc 22 bd e6 76 51 be
       -0.25495854 0.10815821 -0.03974589 -0.20455512
0001f0 09 1c 03 3a 92 83 8d 3e 1d 7e af bc 53 97 52 bd
       0.0005001431 0.27639443 -0.02142244 -0.051413845
000200 6a 0e dd bb de 76 32 bc 95 bd 48 3e a2 bd a0 3e
       -0.006746103 -0.010892598 0.1960357 0.31394678
000210 58 61 e5 bd be c5 53 be fc d4 d9 3d d1 f2 48 be
       -0.112002075 -0.20680901 0.10636327 -0.19623877
000220 d3 95 19 bd 87 14 1c be 8e ce cb bd 91 7d a5 bd
       -0.0374964 -0.15242206 -0.099515066 -0.080805905
000230 b1 61 e6 3c 73 8c ca be 27 2e 6d be 92 03 3e bd
       0.028122755 -0.3956028 -0.23162137 -0.046390124
000240 be 67 12 be 0b 31 0e be 2c 26 8e be 4e 97 72 bb
       -0.14297387 -0.13885896 -0.27763498 -0.0037016454
000250 52 4c 43 bb 4c 3c 6e 3c 5d 3e c4 3e 1d bb ad 3e
       -0.002980013 0.014540743 0.3832883 0.3393182
000260 79 8c ad 3e bf 46 51 bd 44 d6 5e bd 91 5d ef bc
       0.33896235 -0.05109286 -0.05440356 -0.02921942
000270 bd 7d 3a 3e 6f de 8a 3e 19 c7 8b bd 2c b9 84 3e
       0.18212028 0.27122828 -0.06825084 0.25922525
000280 6b 38 cd 3e 8e 7b 9a bd 54 13 f0 bd 96 f3 3b bd
       0.40082106 -0.075430974 -0.117224365 -0.0458866
000290 ee a8 2f 3d 21 80 34 be ee fb 7f be ae a8 51 bd
       0.042885713 -0.17627002 -0.24998447 -0.051186256
0002a0 d6 69 06 3e ea 2c 57 be 78 fb 85 3d a4 3c a0 3e
       0.1312631 -0.21013227 0.065421045 0.31296265
0002b0 82 0d 05 be f8 71 fa 3c d3 fd 7a be f0 1e 51 be
       -0.12993434 0.030571923 -0.24510889 -0.20421958
0002c0 7c af 95 3e e6 20 d4 3d 86 da e9 3d 35 b2 db 3d
       0.29235446 0.103578374 0.11418633 0.1072735
0002d0 16 8f 88 3d 5d c5 15 be d1 bf 0b 3e 86 e1 ab bd
       0.066679165 -0.1462607 0.13647391 -0.083926246
0002e0 69 1a 14 3e 54 fd d9 be 66 9c 1f be 48 68 50 be
       0.144632 -0.42576087 -0.15587005 -0.2035228
0002f0 a2 9c ba be e7 4b 9e bd c1 d4 7e bd eb 1e ef 3d
       -0.36447626 -0.07729321 -0.062214617 0.11675819
000300 a4 23 3b bd 27 72 ce 3d 85 71 bd 3d 7d b5 1b 3e
       -0.045688286 0.100803666 0.09250168 0.15205951
000310 72 29 8c 3e 6f 55 d9 3d 7b 79 d1 3d 4f 8e 41 3d
       0.2737537 0.10611998 0.10228249 0.047254857
000320 78 7e 1b 3d 51 95 84 be 19 78 3d 3d fe 29 8c bc
       0.037962407 -0.2589517 0.046257112 -0.017109867
000330 6e c3 39 3e 7b 84 31 be c7 ce fa bb 71 68 87 bd
       0.18140957 -0.17335694 -0.0076540443 -0.066117175
000340 c5 e0 65 3d 1c 82 84 3e 45 79 4b be 98 22 02 bd
       0.05612256 0.25880516 -0.1987048 -0.031771272
000350 26 3d cc 3d 12 4a 35 be be 42 ed bd 57 65 bf be
       0.09972601 -0.17704037 -0.11584996 -0.37382004
000360 aa 9e bf be 65 25 43 be ce 3f 39 3e 21 fa 5d 3e
       -0.3742574 -0.19057234 0.18090746 0.21677448
000370 de 05 af bd e6 db 10 bc c8 95 7b 3d 4b 65 43 be
       -0.08546041 -0.00884149 0.06142214 -0.19081609
000380 8f 14 07 3e 66 14 68 be 92 4c 74 be 85 c3 89 3e
       0.13191436 -0.22664031 -0.23857334 0.26906982
000390 05 96 48 3e e3 d0 9a 3e 72 3e 17 be 97 3c 95 3e
       0.19588478 0.30237493 -0.14769915 0.2914779
0003a0 1f 7a bf 3c 87 c2 b4 be d2 74 0f bd 49 a7 96 3d
       0.023373662 -0.35304663 -0.035023518 0.07356126
0003b0 0f ed 20 3e 43 d0 21 3b 39 22 94 3e 98 12 25 3e
       0.1571543 0.0024690784 0.2893236 0.16120374
0003c0 d2 b0 71 3e 52 73 5a 3e 9b 49 cf 3d ee ed 6a 3d
       0.23602608 0.21333054 0.10121461 0.057355814
0003d0 64 bd 4c bd f4 4a 58 3e 51 03 80 bc 5c 87 52 bd
       -0.049985304 0.21122342 -0.015626581 -0.05139862
0003e0 93 a4 7b 3e 66 ff 8b bd ed 51 4a be f0 82 aa 3e
       0.24574499 -0.06835823 -0.19757815 0.33303022
0003f0 5b fe 18 be 0b 9c 5d 3e f1 73 5e be 26 bc d8 bd
       -0.14940779 0.21641557 -0.21723916 -0.105827615

0.bias f4 [64]
000000 dc 5a 49 bc 4b 0e 31 3e ca 6f 89 3e ef 01 32 be
       -0.012289729 0.17290609 0.268431 -0.1738355
000010 24 03 5d ba 40 f9 06 3e 5e 48 a1 bc 11 1b 37 be
       -0.0008430949 0.13181019 -0.019687828 -0.17881419
000020 d7 8e a8 3d ba a3 a3 bc ca eb 57 be d3 24 c9 bc
       0.082303695 -0.019975532 -0.2108604 -0.024553692
000030 1f 3f c0 bc b6 98 4d 3c 69 8c 72 be 70 b0 49 be
       -0.023467598 0.012548616 -0.23686375 -0.19696212
000040 f9 d6 2c bc 62 58 78 3e 0d 51 8c 3e 3a 9f a4 3d
       -0.0105493 0.24252465 0.27405587 0.080381826
000050 f0 ef 10 be 52 7b c4 3e a7 e8 11 be f5 86 2e 3e
       -0.14154029 0.38375336 -0.14248906 0.1704367
000060 ca 5b a5 3e 64 cc 12 3e 4b 3e 4b be 56 a4 65 be
       0.32296592 0.14335781 -0.19847982 -0.2242597
000070 57 76 8d 3e 77 35 06 3d 74 0c 78 3e 89 1b 91 3d
       0.2762935 0.03276583 0.242235 0.0708533
000080 24 9e 82 be b2 d1 98 3e cb 1c b3 bd b8 f0 88 3e
       -0.25511277 0.29847485 -0.08745726 0.26746154
000090 b8 32 66 3e fe 89 85 be 5f 57 a0 bd fd 7d 98 3d
       0.22480285 -0.26081842 -0.07829165 0.07445905
0000a0 14 33 ac 3d 83 b4 3a 3d bc 84 2d be 09 c6 ed 3d
       0.0840818 0.045582306 -0.16945165 0.11610038
0000b0 f6 bf 94 be 74 f4 6a 3e d1 be a9 be b0 24 f4 bd
       -0.29052705 0.22944814 -0.33153394 -0.1192106
0000c0 8c 5a 72 be 41 65 30 bc 40 c8 7b be c8 b3 ef 3d
       -0.23667353 -0.010766328 -0.24588108 0.117042124
0000d0 39 54 88 be cd 68 3f be fd 2e 78 3e 9b 65 55 bd
       -0.26626757 -0.18692322 0.24236675 -0.05209885
0000e0 60 df 30 be 1a a7 90 bd 85 72 1b 3c 04 be e6 3d
       -0.17272711 -0.07063122 0.009487753 0.11266711
0000f0 7c f3 ac be 36 df 8c 3d 05 9b 2d 3e bb 63 3e be
       -0.33779514 0.068785116 0.16953667 -0.18592732

2.weight f4 [64, 64]
000000 1d b0 a5 bd 59 38 be bd 6a 2b dc 3d d9 ff b3 bd
       -0.080902316 -0.09288091 0.10750468 -0.087890334
000010 fd d2 59 bd d4 b4 81 3d 4a 3a a9 bd cf 0a 56 bb
       -0.05317973 0.06333318 -0.08263071 -0.003266025
000020 df aa 58 bd b5 a6 39 bd 61 fc b8 bd 29 6e 0d be
       -0.05289733 -0.045325 -0.090325125 -0.13811554
000030 4c c7 2e 3d 4f 6f 8d bd ba ef 31 3c 74 86 8e bd
       0.042670533 -0.06905996 0.010860378 -0.06959239
000040 ff 06 7e 3d 48 24 50 bd fe 9f e1 3c d3 ee 0d 3d
       0.06201839 -0.05081585 0.02754211 0.03465159
000050 b0 22 3e 39 e2 ca 98 3d d9 93 14 3d e7 e8 ba 3d
       0.00018132734 0.07460572 0.03627381 0.09126454
000060 44 d9 f5 bd 7b 1f c2 3d 18 92 8e bd f3 18 8b 3c
       -0.12004331 0.09478661 -0.06961459 0.01697967
000070 39 5c 0c bd 74 a4 22 3d d3 3b 43 bc ea 2a 74 bd
       -0.034267638 0.039707616 -0.011916119 -0.05961124
000080 76 e9 aa 3d a9 5f a6 bd ef 90 b2 3d 28 d1 e7 3d
       0.083453104 -0.081237145 0.0871905 0.1131919
000090 72 d6 2b bd 24 80 90 3d 4b 4d 34 3d df 99 e7 3d
       -0.041952558 0.07055691 0.044019025 0.113086455
0000a0 f6 74 87 bd 6e 5e f2 bc d4 11 c9 bc c1 0a a5 bd
       -0.066141054 -0.029586043 -0.024544634 -0.08058692
0000b0 df bb a5 3d 6d df 99 3d 7d 78 8e 3c 10 b2 0a bc
       0.08092474 0.07513318 0.017391438 -0.008465305
0000c0 b7 98 ce 3d 80 c3 c9 3d 8e 33 b7 3d 1a e1 b3 bc
       0.10087722 0.09851742 0.0894538 -0.021957923
0000d0 07 bd 04 3c 34 ec db bd 31 30 f3 3d 81 22 a0 3d
       0.008101708 -0.107384115 0.11874426 0.07819081
0000e0 b6 63 62 3d 7c 15 14 3d 48 41 18 bc c4 1e bb bd
       0.055270873 0.0361533 -0.009292908 -0.091367275
0000f0 f7 fb 8d 3d ad ef 9f bd 76 54 f4 3d cf 01 de 3c
       0.06932824 -0.078093864 0.11930172 0.027100472
000100 df 0d 8f 3c d6 77 1d bd a6 c3 04 bd d6 06 1e bd
       0.017462669 -0.038444363 -0.032413147 -0.038580738
000110 68 a1 1c 3e 20 09 02 bd 91 74 22 bc 23 b5 ff bd
       0.15295947 -0.031746984 -0.009915487 -0.12485721
000120 9b a1 fe bd da 9d d8 bd af 45 a6 bc ce 67 0d 3d
       -0.124331675 -0.10576983 -0.0202969 0.034522824
000130 f7 29 e4 bb 72 33 67 bd 14 43 e7 3d 41 8f ae 3d
       -0.0069630104 -0.056445546 0.11292091 0.08523417
000140 39 ea b4 3d 1e e7 02 3e 34 11 03 bd c8 00 26 3d
       0.08833737 0.12783477 -0.031998828 0.04052809
000150 34 db e1 3c 1f 4b ba bb 91 07 ed bd de 15 b7 3d
       0.027570345 -0.0056852247 -0.11573709 0.08939718
000160 48 94 aa bd ee 5c c6 3d b1 4d 45 bc 1f 95 24 3e
       -0.08329064 0.09685694 -0.012042449 0.1607251
000170 9a 45 a5 3a 76 ac 2b 3d 9f c9 15 3d 04 fd 0f 3d
       0.0012609244 0.04191252 0.036569234 0.035153404
000180 40 ab bc bc 49 50 2c 3d 7a 63 85 ba c6 aa 73 3a
       -0.023030877 0.042068753 -0.0010176741 0.00092951616
000190 06 fe 37 3d 4a e4 f6 bd c8 0b 91 bd b2 c6 2e bd
       0.04491999 -0.120552614 -0.07082325 -0.04266996
0001a0 f9 83 6d bd 69 53 86 3d b7 f0 ef bd b3 e3 ce bd
       -0.057987187 0.06558878 -0.117158346 -0.10102024
0001b0 ef 44 0d 3d 7c 5d dd 3c d7 60 50 3d 95 2f 95 3d
       0.03448957 0.027022116 0.050873604 0.07284466
0001c0 46 d4 4b 3d b1 d9 e8 3c 26 4a 25 3d 81 95 46 3d
       0.049762987 0.028424116 0.040353917 0.04848242
0001d0 23 77 be 3d ce 5a 6a 3c ae c9 93 3d 1b ae bf bd
       0.09300067 0.014303876 0.07216202 -0.0935938
0001e0 4e 0b df bd 66 0c 25 be 02 f7 a4 3d 78 6a bf bc
       -0.10890828 -0.16118011 0.080549255 -0.023366198
0001f0 c7 bb 9c 3d af 41 b3 3d a6 1f e2 bd 77 b3 98 3d
       0.07653003 0.087527625 -0.11041193 0.07456105
000200 1c 41 8c bd 43 90 e1 3d 0f 85 16 3d 2e 3a 06 be
       -0.06848356 0.11013844 0.03674799 -0.13108131
000210 97 e9 fb bc 87 1b 0f bd 2c 5f 04 3e 92 02 6b 3c
       -0.030751033 -0.03493836 0.1292693 0.0143438745
000220 eb 47 a3 bb 0f d1 59 3d 9a 72 60 bd 1d 82 1d 3c
       -0.0049829385 0.05317789 -0.054796793 0.009613541
000230 34 15 90 bc b4 a8 ee 3c b0 25 0b 3d d4 a4 a4 bb
       -0.017588235 0.029133178 0.03397149 -0.005024532
000240 8a d7 b2 3d 23 ad 00 be 63 54 1c bd 0c 18 68 bd
       0.08732517 -0.12566046 -0.038166415 -0.056663558
000250 f8 f3 a6 ba a0 16 cb bd ce c7 f3 3d 1c 9d c5 bd
       -0.0012737503 -0.09916425 0.11903344 -0.09649107
000260 5f 6e 8e bd 59 c4 ee 3d f7 9d cf 3c 21 11 12 be
       -0.06954645 0.11658544 0.025343878 -0.14264347
000270 5f 44 07 3d e1 f8 aa bd 71 37 b5 bd 81 86 a0 bc
       0.033024188 -0.08348251 -0.08848465 -0.019595386
000280 8a 1d b9 3d 8d 8a 65 bc ba ff d8 3d c1 b9 e5 3d
       0.09038837 -0.014010084 0.10595651 0.1121707
000290 bb 0a 5a bc cb 65 f3 bc a3 40 6a bd 2a d7 98 bd
       -0.013308222 -0.029711625 -0.05719055 -0.07462914
0002a0 a7 17 16 3d 63 c6 09 bd d9 7e 8a bd b4 23 af bd
       0.03664365 -0.033636462 -0.067624755 -0.08551732
0002b0 5d c1 8b 3d 19 67 ab 3d 04 87 f7 bd 7b 8f b1 bc
       0.068239905 0.08369274 -0.12086299 -0.021674862
0002c0 20 1f ec bc c5 1b 92 bd 66 b8 ef bd 24 e8 a5 bd
       -0.028823435 -0.07134203 -0.11705093 -0.08100918
0002d0 d0 82 c9 3d 5d e8 ba 3d 19 07 1a be 16 0d d2 3c
       0.09839404 0.09126351 -0.1504177 0.025641005
0002e0 7b e7 f7 bd 39 09 17 3e db fd e3 3c a3 6e 65 bd
       -0.12104698 0.14749612 0.027831009 -0.056013715
0002f0 41 30 4e 3d 16 bf fb bd 6c ff ff bd b3 68 e5 bd
       0.050338987 -0.12292306 -0.1249989 -0.112016104
000300 70 4c a1 3d 23 5a f0 3d 88 84 dc bd 86 1c 43 bd
       0.078759074 0.11735942 -0.10767466 -0.047634624
000310 42 03 14 bc 15 fe 22 3d f0 55 f0 bd 13 2d e1 3c
       -0.00903398 0.039793093 -0.11735141 0.027487313
000320 60 6b f1 3d c6 b2 6b bd 4b 65 c0 bd 80 b8 90 bd
       0.11788058 -0.05754354 -0.0939432 -0.070664406
000330 f6 77 25 bd 90 4d 91 3d 45 96 bf bd e8 3d 82 3d
       -0.040397607 0.07094872 -0.093548335 0.06359464
000340 2d 2b 86 3d 9e 0f 0b 3e fd c5 fb 3d 83 6b de bd
       0.06551204 0.13580176 0.12293623 -0.1086035
000350 1e ef 38 3d 48 89 4b 3d bb 20 e4 bc 6b d8 e5 3d
       0.045149915 0.04969147 -0.027847638 0.11222919
000360 72 3d c6 bd a0 99 67 3d d0 71 9d bd 8f 3f 5c 3c
       -0.096796885 0.056542993 -0.07687724 0.013442888
000370 60 e6 2d 3c 38 56 f4 bc 8c 7c ca 3d 19 21 f1 bd
       0.010614008 -0.029826269 0.09887037 -0.11773891
000380 13 bf f2 bc a5 0e 57 bd 8d 19 57 ba b0 ff 81 bd
       -0.029632127 -0.0525042 -0.00082054065 -0.06347597
000390 69 d8 e1 bc 69 e6 11 bd 5d ca d1 3d 9d 3f da bb
       -0.027569013 -0.035620127 0.10243676 -0.0066604153
0003a0 db 35 89 bd ff 73 3c 3d 72 54 21 bd 98 44 8e 3c
       -0.06699725 0.04600906 -0.039387174 0.017366692
0003b0 bc 19 ad bd de 75 ba 3d c6 07 08 bc e4 c3 d5 3d
       -0.08452174 0.09104513 -0.008302635 0.10437754
0003c0 c0 fb fb 3c b6 7b c9 bd c6 bc b2 3d ae f5 61 bd
       0.030759692 -0.09838049 0.08727412 -0.05516594
0003d0 bd 5b 9d bc 73 3a 51 bd f9 7a b3 3d 26 94 32 3d
       -0.019208783 -0.051081132 0.087636895 0.043598317
0003e0 bc e8 bd bc c9 f2 d3 3d 0d e6 7e bd 36 5e 1e bd
       -0.023182265 0.10349042 -0.062231112 -0.038664065
0003f0 b7 be 79 bd d0 57 2c 3d 88 2a f8 3d 05 a8 9b bc
       -0.060972895 0.042075932 0.12117487 -0.019001016

2.bias f4 [64]
000000 b3 b8 e4 bd 47 1d aa bd 92 38 85 3d aa bf 30 3d
       -0.11168041 -0.083063655 0.065049306 0.043151535
000010 ab 6a b4 3d 70 97 fa bd 2a a0 4a 3c d2 65 aa bd
       0.08809408 -0.12235916 0.012367288 -0.08320202
000020 d1 70 48 3c 2c 49 73 3d 36 13 70 bd 0b 67 aa bd
       0.012233929 0.059395954 -0.05861207 -0.08320435
000030 8e 5b 56 bd 3b 1f f2 bd 6d f5 6c bc f7 84 b4 bd
       -0.052333407 -0.11822363 -0.014462811 -0.088144235
000040 6b 47 d9 3d cf 1f 2a 3d 20 ed 7b bd 2f de ab bd
       0.10609325 0.04153424 -0.061505437 -0.083919875
000050 43 52 d8 3d 91 0b c7 bd 23 b9 de bc d7 1a 18 3d
       0.10562565 -0.09719003 -0.02718789 0.03713497
000060 b2 be ec bb 6c 72 bd 3d e9 81 07 3d cd a6 e4 3d
       -0.007224881 0.0925034 0.033082876 0.11164627
000070 01 2d a9 3d 41 e0 96 3d 50 f4 23 bd 92 3a 06 be
       0.08260537 0.07366992 -0.040027916 -0.1310828
000080 8b bb d6 3c 37 d3 41 3d 5f 71 23 3c 10 d0 87 3d
       0.026212474 0.04732057 0.00997576 0.06631482
000090 4d 74 b0 bd 8c d0 cd bd 87 83 be bd 13 32 53 3c
       -0.086159326 -0.10049543 -0.093024306 0.012890357
0000a0 52 bd 09 bc 6f 21 38 3d 7e 9e d1 bc f7 9f 9c 3d
       -0.008406954 0.04495376 -0.02558827 0.076476984
0000b0 fc 99 93 3b 00 5b e6 bd e7 3b ca 3d ba d5 b6 bd
       0.0045044404 -0.112478256 0.09874707 -0.08927484
0000c0 47 d3 58 3c 61 4e 5e 3d 3d 1e 0b 3d e0 f8 fe 3c
       0.013233966 0.054273967 0.033964384 0.031124532
0000d0 ee 92 d2 3d 0b 6c a2 bd 85 a3 03 3d 5b 20 d1 bd
       0.10281931 -0.07930764 0.032138366 -0.102112494
0000e0 ae 52 b3 bd 1a 9c aa bd 51 23 09 be df 3b d4 3d
       -0.08756004 -0.08330555 -0.13392378 0.10362982
0000f0 8d bd 03 3d d8 b7 b6 bd 66 90 e6 bd 1c 91 a9 bb
       0.03216319 -0.08921784 -0.112580106 -0.005174769

4.weight f4 [1, 64]
000000 07 58 0c bd cd a1 9e bc 7e 51 76 3d ae ce ba bd
       -0.034263637 -0.019364262 0.06013631 -0.09121452
000010 7a 32 df bc 2f 17 fd 3c 08 c8 a7 3c 30 50 b3 3c
       -0.027245749 0.030894844 0.020481125 0.021888822
000020 9f 81 b6 3d 9d 26 65 3c eb 6f 39 bd 5c ee 12 3a
       0.08911442 0.013986257 -0.04527275 0.00056049763
000030 37 29 13 bd 2c f1 5d 3d a8 f9 b0 bd 7b 19 1c ba
       -0.035927977 0.054185078 -0.08641368 -0.00059547246
000040 4a e0 62 3d 61 99 d4 bd 9d 9a 4f bd 18 47 af bc
       0.05538968 -0.10380817 -0.05068456 -0.021396205
000050 65 ee c6 3d 3b 87 d3 3d cc a1 a8 3d fe 68 bb 3a
       0.09713439 0.103285275 0.08233985 0.0014298258
000060 e8 a1 51 3d 92 4a 30 3d 76 09 5a bc e2 6a 81 3d
       0.051179796 0.043039866 -0.01330792 0.063192144
000070 fd 94 d4 bd 9f 0a 2f 3d f9 78 91 3d a9 82 9b 3d
       -0.1037998 0.04273474 0.07103152 0.07593281
000080 af 5a 67 bd 13 21 c1 3d 82 15 84 bb c8 57 9e 3d
       -0.056482967 0.094301365 -0.0040308842 0.07731587
000090 5a 88 71 bd 00 13 88 3d f2 ea 48 bd bf 8d 99 bd
       -0.058967926 0.06644249 -0.049052186 -0.07497739
0000a0 f2 3f 66 3d 0d 05 c9 3d aa 14 ab bc 00 67 f3 3d
       0.056213327 0.098154165 -0.020883877 0.1188488
0000b0 f4 c8 fd bd 84 2e 83 39 a4 14 8a bd 73 3d 8b 3c
       -0.123918444 0.00025020924 -0.06742218 0.016997075
0000c0 fa 4f ef 3d ef e0 6d bc ca 42 de bd 85 6c 8f 3c
       0.11685176 -0.01451896 -0.10852583 0.0175078
0000d0 a7 32 c9 bd dd ac f6 bd 53 ba ba 3d ee 0a 06 3b
       -0.09824114 -0.1204469 0.0911757 0.0020453292
0000e0 21 a8 b3 bd 80 81 86 3b ab 70 fd 3d 92 37 74 3d
       -0.087723024 0.004104793 0.12375005 0.05962331
0000f0 c1 39 ca bd 3b 4f 86 bd ca bf 84 bd 00 13 d2 bd
       -0.09874297 -0.06558081 -0.06481893 -0.1025753
