experiments/exp050_rich_ppo/final_model.pt (torch, 566544 bytes, 18 tensors)

actor.0.weight f4 [128, 157]
000000 c6 a4 64 bc 76 50 ff 3c d6 53 ba 3d a8 1e 6c bd
       -0.013955301 0.031166296 0.09098022 -0.057646424
000010 06 b7 f2 bc b5 2e be bd 1a fa 34 3d 16 cd 49 3d
       -0.029628288 -0.092862524 0.044183828 0.04926785
000020 a4 86 12 3d 7d b8 8a 3d fe 48 86 bc a6 10 c6 3b
       0.035772935 0.067734696 -0.016392227 0.006044465
000030 a9 da 82 bd 01 12 a5 3d ef f3 a3 3d 78 3e 47 bd
       -0.06389362 0.080600746 0.08005511 -0.04864356
000040 96 82 92 bd c7 d6 52 bd 3e 2a 6f 3c ca 1e 9f 3d
       -0.071538135 -0.05147436 0.014597474 0.077695444
000050 cd e5 2b bd 59 8c 0f 3d cd 1a 44 bd 33 cb 19 bd
       -0.041967202 0.035045955 -0.04787712 -0.0375473
000060 6e 26 8b 3d 0e 37 89 3d c4 31 83 3d 2f 76 09 3d
       0.06794439 0.06699954 0.064059764 0.033559974
000070 5f f0 10 3c 0f e6 9f 3b ea 3e e1 3c aa 27 63 bd
       0.008846371 0.00487972 0.02749582 -0.05545775
000080 8f 9c 99 bd 1e ad b4 bb 23 33 97 3c a1 6a 64 3b
       -0.07500564 -0.0055138012 0.018457001 0.0034853595
000090 33 8e e4 3c 0a f2 53 bc a2 19 84 3b 93 48 4d 3d
       0.027899837 -0.012936125 0.004031376 0.05011804
0000a0 01 97 b9 bc f7 fb 3a 3d 51 78 ce 3c e1 88 68 bd
       -0.022655012 0.04565045 0.025203856 -0.056771163
0000b0 97 34 b2 bc a5 b5 59 3d c7 e7 4e bd 96 eb 18 bc
       -0.021753592 0.053151745 -0.05051401 -0.009333512
0000c0 54 f4 8d 3d 8a 80 ed 3c 71 a4 13 3d 48 83 7c 3d
       0.069313675 0.028991956 0.036045495 0.061648637
0000d0 fa a7 88 bd 90 87 e2 3b 5a fe 26 bc 01 4a 4e bc
       -0.06672664 0.006913133 -0.010192478 -0.012590886
0000e0 ac b8 2a 3d f0 f9 39 3d 96 10 f5 3c 8f 68 0b 3d
       0.041680023 0.045404375 0.029915135 0.03403526
0000f0 bf e2 70 bd 8e 7c 25 bd 48 5f 9f 3d 4e 12 93 3d
       -0.058809992 -0.040401988 0.07781845 0.07181226
000100 7c 47 28 3d 91 f3 19 bd a3 ca 1e bd f6 c1 cc bc
       0.041083798 -0.0375858 -0.03876747 -0.024994832
000110 8b fb 8c 3d 9f 9d 7f bd 66 2f 09 3d 55 92 a1 3c
       0.068839155 -0.06240618 0.03349247 0.019723097
000120 f7 13 50 bd 52 31 92 3d 15 77 1b 3c b1 e4 f1 bc
       -0.05080029 0.07138313 0.009488841 -0.029527994
000130 1a 6e 75 bd 5c 88 b7 3d a7 1c 80 bd 24 a0 8b bb
       -0.059919454 0.08961555 -0.06255465 -0.0042610336
000140 0d d6 9c 3d 80 73 10 3d 1c 0d 15 bd 74 76 91 bc
       0.076580144 0.0352664 -0.036389455 -0.017756678
000150 fa 08 82 bc 71 c8 ae bd 35 1c 6e bd 04 f1 82 bd
       -0.015873421 -0.08534325 -0.05813237 -0.06393626
000160 b1 42 90 3d 1b 86 a3 bd 72 70 18 bd ea 2a 08 3c
       0.070439704 -0.07984563 -0.03721661 0.008311013
000170 9e 29 51 bc f9 13 5e 3c 18 04 05 3a 87 d9 79 3a
       -0.01276627 0.013554567 0.00050741574 0.00095310103
000180 cb 54 a8 3c 12 11 66 3a eb 5e a8 3d 03 cc 61 3d
       0.020548245 0.00087763474 0.08221229 0.0551262
000190 98 9e 70 bd c4 fb dc bc dd fe 24 bd f5 97 ae bd
       -0.058744997 -0.02697552 -0.04028212 -0.08525077
0001a0 47 5f 92 bd a7 74 b8 3b e6 dc 82 3d 9c 2f 7c bd
       -0.07147079 0.0056291404 0.06389789 -0.06156884
0001b0 22 02 5a bd d1 1a 22 3d c8 d0 61 3d 23 fe 46 bd
       -0.05322469 0.039576355 0.05513075 -0.048582207
0001c0 40 12 06 bd 87 e7 66 bd b4 fc 9e 3d 8e 8e 6b 3c
       -0.03273225 -0.056373145 0.07763043 0.014377249
0001d0 51 65 79 3d 76 22 60 3d a6 b4 3c bb 92 15 6b bc
       0.06088764 0.054720365 -0.0028794198 -0.0143484045
0001e0 f7 1d 8d bc 94 fb e9 3c f3 dd 62 bd 5f 11 a8 3c
       -0.017226202 0.028562345 -0.05538745 0.020516096
0001f0 f6 84 26 bc f2 0a 95 3c e7 38 68 3c 64 a5 9e bd
       -0.010163536 0.018193696 0.014173723 -0.077463895
000200 f3 cf bb 3c cb 54 8c bd e3 8e f0 bc ff 0b 39 3c
       0.022926306 -0.068521105 -0.029365009 0.011294364
000210 41 a7 35 bd 3c be 20 bc af 8f 5d bc 62 c4 07 3d
       -0.04434896 -0.00981098 -0.013523026 0.03314627
000220 e0 df 92 3d f0 33 4b 3d 75 b4 ae bc 95 61 00 3d
       0.07171607 0.04961008 -0.021326283 0.03134306
000230 be a7 76 3d da 56 83 3d ac 97 3b 3d 9b 06 c4 3b
       0.060218565 0.0641305 0.045798942 0.0059822327
000240 53 f1 1c 3d c9 6e 6b bd 47 a9 a6 bd 11 b7 0f bd
       0.038316082 -0.0574787 -0.08137756 -0.035086695
000250 62 a9 71 3d 84 bd b3 3c 84 2c 03 bd d6 6d 9b 3c
       0.058999427 0.021940954 -0.032024875 0.018973272
000260 a4 c2 38 bd 8b 68 1b bd 0f 8d 41 bd f8 cc 20 bd
       -0.0451075 -0.037941497 -0.047253665 -0.039257973
000270 9f 02 a1 3b f6 a1 62 3d f9 4b f7 3c e6 b2 80 3c
       0.0049136425 0.05533024 0.030187594 0.015710305
000280 27 31 8b bd bf 08 04 bd 47 2a ae bc a3 a2 d4 bd
       -0.067964844 -0.032234903 -0.021260394 -0.10382583
000290 82 d7 cc 3c bb 97 59 bd 70 c4 3e 3b 28 68 31 3d
       0.025005106 -0.053123217 0.0029108785 0.04331222
0002a0 c3 5e 51 bd b9 d3 9d 3d 52 ae 52 bd e0 e6 57 3d
       -0.051115762 0.077063985 -0.051435776 0.052710414
0002b0 18 79 87 3d 6c 2a ff bc dc f7 4f 3c f3 b2 26 3d
       0.06614894 -0.031148158 0.012693372 0.040698003
0002c0 68 6f 9b 3d 0e 15 b0 bc b6 d1 3b bd bc 6e f1 bc
       0.075896084 -0.021494415 -0.045854293 -0.029471748
0002d0 5c 94 6b bd 2b 3e 4f bd 75 c9 90 bd 4c a9 2a bd
       -0.057514533 -0.050596397 -0.07069675 -0.04166536
0002e0 96 55 b4 3d 90 54 95 3d 85 5d a3 3d a1 32 14 bd
       0.08805387 0.0729152 0.07976822 -0.036181096
0002f0 de 09 d4 3c 17 3d 0f bd 27 d7 07 bd 73 ed 30 3c
       0.025883611 -0.03497037 -0.03316417 0.0107988
000300 b8 74 58 3d bb 09 3d 3c 08 3d 74 bd a8 94 5c 3d
       0.052845687 0.011537964 -0.059628516 0.053852707
000310 7a b7 c5 bc 52 16 c3 3b af 2f 92 bd ae a5 7a 3d
       -0.02413534 0.0059535885 -0.07138001 0.06119316
000320 ca 5e ba bc bf 4b 75 bd cc 66 4a 3c d1 31 32 3d
       -0.022750277 -0.05988669 0.01235361 0.04350454
000330 c4 04 99 3d 70 f6 dd 3c 9e ef 10 3d fb 8e 41 3d
       0.07471612 0.02709505 0.035384767 0.047255497
000340 d8 e4 09 bd b4 41 88 bd c5 04 22 bd 2c 4c bf 3c
       -0.033665508 -0.06653157 -0.03955533 0.023351751
000350 31 08 6b 3c 22 17 ca bb 71 a2 10 bd 02 07 21 bd
       0.014345215 -0.0061673084 -0.035311166 -0.039313324
000360 63 7f 69 3d e9 92 5b 3c 80 20 38 bd 9f 1d 86 bd
       0.05700625 0.013401725 -0.04495287 -0.065486185
000370 09 8a 5b bd e5 5e a2 bc f3 f9 90 bb 9d 8f 1c 3d
       -0.053598437 -0.01982064 -0.0044243275 0.038222898
000380 dc 3e 8a 3d 8b c4 07 bd 70 e7 9d 3c 1f 2d 4d 3d
       0.06750271 -0.033146422 0.019275397 0.05009186
000390 44 44 94 bc e2 76 e4 bc ae 80 e5 3c 87 69 5d bb
       -0.018098958 -0.027888719 0.02801546 -0.0033784823
0003a0 dc 08 74 3d 82 17 fe bb 20 a8 24 3c b6 b4 4c bd
       0.05957876 -0.007754267 0.01004985 -0.049977027
0003b0 00 fa d8 3c e9 c2 38 bc 33 b2 15 bd fa 0a 0c bc
       0.026486397 -0.011276939 -0.036546897 -0.008547539
0003c0 03 dd 79 3d c8 9b 02 3d fc 5b db bc 87 b7 a8 3c
       0.06100179 0.031886846 -0.02677726 0.020595325
0003d0 1c 84 f4 3c 9c a7 cf bc 5f a2 9e bd 18 97 87 3c
       0.02984815 -0.025348477 -0.077458136 0.01655154
0003e0 48 27 be ba 5c 05 1f bd 6d 5f 49 3d ff e2 4f bc
       -0.0014507556 -0.03882347 0.04916327 -0.012688397
0003f0 b7 54 89 bd fc a1 3a 3d 4e 7f 87 3d fa 7e 86 3d
       -0.06705611 0.045564637 0.06616078 0.065671876

actor.0.bias f4 [128]
000000 b2 af 92 bd e1 1f b0 bd ca 53 40 bd 75 8e 9d 3c
       -0.071624175 -0.085998304 -0.046954907 0.019232968
000010 aa b3 01 be d3 c1 91 bd 11 49 92 3d 48 75 49 bd
       -0.12666193 -0.07117047 0.071428426 -0.049184114
000020 c4 2a ef bb 74 b7 a8 3d b6 39 98 3c c2 08 d2 3d
       -0.007298799 0.08238116 0.018582206 0.10255577
000030 a9 0f 94 3b c4 dc b0 3b 06 7e 9b 3c a2 20 1d 3d
       0.0045184684 0.005397411 0.018980991 0.0383612
000040 4c d0 71 bd 9f eb 1a 38 67 b9 86 3d 99 37 b7 bd
       -0.059036538 3.69359e-05 0.065783314 -0.08946151
000050 4a b8 f6 bc 98 36 53 bd b3 5e b6 bc bb b9 83 3c
       -0.030117173 -0.051565737 -0.022261953 0.016079774
000060 34 e6 1c 3c 1d 2c 67 3c 87 9c a4 bc 8e 96 0d be
       0.009576369 0.0141096385 -0.02009417 -0.13826963
000070 46 3f b0 3d 2f dc eb 3d cd 6e d5 3d 4c 12 86 bd
       0.086058185 0.11516606 0.10421524 -0.065464586
000080 dc 29 8e bd 0c 30 28 3c bc 93 83 3d 5d 5a a4 3d
       -0.06941578 0.0102653615 0.064246625 0.08025048
000090 1c a8 50 3d bc 16 01 3b 20 c9 dd 3d 35 fd e4 bd
       0.05094157 0.0019697389 0.10829377 -0.11181108
0000a0 e7 65 1c bc 02 e8 b0 bd 1b 3e 88 bc 1c 29 44 3d
       -0.00954578 -0.08638002 -0.016631177 0.047890767
0000b0 7e 54 91 bd 3c c2 a4 bd 5f c4 53 3c 4f 61 c2 bc
       -0.07096194 -0.0804486 0.0129252365 -0.023728041
0000c0 74 3c ec 3c 5b 53 62 3c 79 a8 40 3d 96 f0 98 3d
       0.02883742 0.013813819 0.047035668 0.07467763
0000d0 d0 2d 96 bc 43 ad de 3d e8 10 b8 3d 59 8c f3 3c
       -0.018332392 0.10872891 0.089875996 0.029730009
0000e0 09 20 2c bc 73 36 76 bc e1 f2 84 bc 67 52 7c 3d
       -0.010505685 -0.01502763 -0.016229095 0.061602022
0000f0 b9 7a e5 3d 76 05 ce 3d 0a 81 b7 3d 73 19 46 bc
       0.11205048 0.10059635 0.08960159 -0.0120910285
000100 ec 5e 86 bd ef 08 29 3c 1a 27 67 3d c9 0f d8 3d
       -0.06561074 0.010317071 0.056433775 0.10549886
000110 b1 bb f0 3d 7d cd 85 3d 03 5e 48 bd bf 7a da 3c
       0.11754549 0.065333344 -0.04891778 0.026669858
000120 64 04 a6 bd e0 71 db bc 5c 86 53 3d 20 ba 80 bd
       -0.08106306 -0.026787698 0.051641807 -0.062855005
000130 c1 c7 c2 bd 13 6d d5 3c 8a 60 50 bd 4b 32 2d bd
       -0.09510756 0.026052987 -0.050873317 -0.04228429
000140 9d c2 ac bd 74 84 26 3c 6b 69 54 bd 48 c6 a1 3d
       -0.08435557 0.010163415 -0.051858347 0.07899147
000150 4d c8 af 3b 92 1a d8 bc da c4 19 bd 6f c1 87 ba
       0.005364454 -0.026379857 -0.037541248 -0.001035733
000160 60 6d 20 3d 0d 15 41 3d 2e 45 47 3c 40 c5 1b 3c
       0.039166808 0.047139216 0.01216249 0.009507477
000170 23 4e 7b 3d cb 34 59 bd 8c 38 c0 3d 08 3a c1 bd
       0.061353814 -0.053028863 0.093857855 -0.09434897
000180 f3 0a 52 bd 9f 78 bf bc 11 a0 96 3d 15 25 49 bc
       -0.051279973 -0.023372946 0.07354749 -0.012276907
000190 fe c1 c8 3d c7 ff 7e 3d 7b e1 8d 3d fa 71 bb 3d
       0.09802626 0.062255647 0.069277726 0.09152599
0001a0 2c ce d3 3d ca f4 c6 3d 73 59 97 3d 61 a8 85 3c
       0.103420585 0.097146586 0.07390108 0.01631564
0001b0 95 67 a4 3c f5 e1 ca 3a 0a 10 f7 3c ef 28 86 3d
       0.020068923 0.0015478717 0.030159015 0.06550776
0001c0 23 fb 34 bd ba f3 6b 3d 15 33 9d 3c 14 21 ce 3d
       -0.044184815 0.057605483 0.019189397 0.10064903
0001d0 08 74 aa bd 76 f2 02 bd e3 ee 46 bd 83 ce 97 bc
       -0.083229125 -0.03196951 -0.048567664 -0.01853109
0001e0 ed c1 13 3d e4 27 6a 3d 15 d8 9e 3c 02 52 87 bc
       0.036073614 0.05716695 0.019390145 -0.016518597
0001f0 2f 44 3b 3b a9 12 5f bd ad cd ec bc c3 70 2b bd
       0.0028574576 -0.054461155 -0.028906668 -0.041855585

actor.2.weight f4 [128, 128]
000000 df d4 4d bc b2 ed a2 bd 08 ce bc bc d6 ca 1f bd
       -0.012562959 -0.07955493 -0.023047462 -0.0390118
000010 db cc 82 3d 9e 20 81 3c 1c 3e 1d bd 2a 11 a9 bd
       0.06386729 0.015762623 -0.03838931 -0.08255227
000020 87 7f 92 3d d8 c5 83 3d e2 1d be bc 4b fe 9a bd
       0.0715323 0.0643422 -0.023207609 -0.07568034
000030 bb 6a 56 bd 86 44 d6 bc 8c 7b b1 3d d6 0a 2d 3c
       -0.05234788 -0.026155721 0.08666143 0.0105616655
000040 32 90 d9 3c 80 64 1e bd 72 76 8f bd 4e 9f 9c 3d
       0.026558015 -0.038670063 -0.070050135 0.076475725
000050 c9 4a 22 bd ca 36 2b 3d 73 25 c3 bd 4d 2e 03 bd
       -0.039622102 0.041800298 -0.09528627 -0.032026578
000060 a4 41 06 3d 77 6d 94 39 6a a5 38 bd 10 25 b6 bc
       0.032777444 0.00028310317 -0.045079626 -0.02223447
000070 59 a7 b4 bc 78 d5 04 bd 7d b2 fd 3c d9 89 7f bd
       -0.022052454 -0.032430142 0.030968899 -0.06238732
000080 30 43 11 3d a7 91 3f 3c de da 4f bd d7 cf 14 bd
       0.035464466 0.011692441 -0.050745837 -0.036331024
000090 8c 75 b6 3c e1 d7 20 bd 37 90 ec 3c 0f da 0b bd
       0.022272848 -0.03926838 0.02887736 -0.034143504
0000a0 17 c5 61 3d 7d 29 30 bd a5 20 72 3d c6 9d 50 3c
       0.0551196 -0.043008316 0.059113164 0.012732929
0000b0 df 7e 84 3d c6 68 4b 3c 26 74 7f bd a8 ed 91 3c
       0.06469511 0.012415117 -0.062366627 0.017813519
0000c0 c2 ca e0 bd f3 01 75 bd 3b 2b 9a bd 06 6f 41 bc
       -0.10976173 -0.059816312 -0.07527777 -0.011806255
0000d0 dc 03 80 bc 2b af 94 3d e6 ad 3d bc 1d 2f 8d bd
       -0.01562684 0.07259973 -0.011577105 -0.06893752
0000e0 e9 4b bc 3d 2a 0f 88 bd d6 77 5e 38 72 e0 b8 3c
       0.09194166 -0.06643517 5.304053e-05 0.022567961
0000f0 57 6d 82 3c f0 3d 81 bd 0b d2 84 bd c3 6f bf 3c
       0.015921278 -0.06310642 -0.06485375 0.023368722
000100 5d 5c 21 bd e7 b0 c6 3d 2a 83 11 bd 44 b9 58 bd
       -0.039394725 0.0970171 -0.03552548 -0.052911058
000110 3a 9b 3c bc 0d 41 65 bd e1 80 a2 3d 03 e8 83 3d
       -0.011511618 -0.05597024 0.07934738 0.06440737
000120 19 59 40 3c e3 98 be 3c 01 45 95 3d 37 e6 6b bd
       0.011739993 0.023266261 0.07288552 -0.057592597
000130 11 77 5a 3c f6 71 9c bd d3 8b 06 3c 12 f7 d2 bc
       0.013334052 -0.07638924 0.008212048 -0.025752578
000140 03 93 0b 3c 6f b7 27 3b 9a 4a 7e 3d 61 3c dd 3c
       0.008518937 0.0025591513 0.062082864 0.02700633
000150 11 ac 40 3d 62 3f 66 bd 68 dd d1 bc 32 69 a7 3d
       0.047039095 -0.05621279 -0.02561827 0.08174361
000160 96 87 98 3d 2f a8 aa bd 4b 36 9d bd 07 40 41 bc
       0.07447736 -0.0833286 -0.07676371 -0.01179505
000170 26 54 78 3d 8a 6f 52 3d 7b b3 c0 3c dc aa bc 3c
       0.060627125 0.051375903 0.023523083 0.02303069
000180 b4 76 34 3d 1b b5 36 bd 21 ae 88 bd b0 a5 9b bd
       0.044058517 -0.04460631 -0.066738375 -0.07599962
000190 61 c7 a1 3c 88 91 c4 3d ab da d6 bc 4a 98 ed 3c
       0.019748392 0.095980704 -0.026227316 0.029003281
0001a0 5c bd 6c 3d 90 19 e8 3c f8 c9 cc bc 71 43 01 bd
       0.057797775 0.028332502 -0.02499865 -0.031558458
0001b0 80 14 3b bd c8 f3 98 3c 2e d8 55 bd 90 09 96 3d
       -0.045673847 0.018670931 -0.05220812 0.07326043
0001c0 6e fb c2 3c ea ba 4a bc f0 9d 85 3d 70 3b 95 bd
       0.023801532 -0.012373665 0.06524265 -0.072867274
0001d0 c9 01 4b 3d c4 d5 9a 3d 9a 26 9c 3d 25 51 5a bd
       0.04956225 0.07560304 0.0762455 -0.05330004
0001e0 5b 70 a6 bd 28 05 8c 3d 6d cb 8d bd 34 c0 7e 3d
       -0.08126899 0.06836921 -0.06923566 0.062195018
0001f0 83 9e 2a bc 5d 8e 3a bb 1c a6 26 bd ad 1f 1b bd
       -0.010413769 -0.0028466203 -0.040685758 -0.037872005
000200 3e 18 e5 3c 45 da 9b bb aa c8 04 bd 90 ff 56 3c
       0.027965661 -0.0047562444 -0.03241793 0.013122454
000210 79 99 ba 3d dd 82 2e 3d b9 22 d2 bb 51 43 42 bd
       0.09111304 0.04260527 -0.0064128307 -0.04742748
000220 79 8f 5a 3c 06 3e a1 bd 49 fb 9d 3d 04 5b c3 bd
       0.013339871 -0.07873158 0.077139445 -0.09538844
000230 dd dd 0f 3d 96 4a 02 3d 94 86 fd bb ed 08 22 bd
       0.035123695 0.031809412 -0.00773699 -0.039559294
000240 13 b5 9c 3d d0 33 35 3c 4f e3 a7 bd 62 4b 38 3c
       0.07651725 0.011059716 -0.081976525 0.011248441
000250 f4 c1 ba bb 0a 91 db bc dc 11 a4 bc a9 ff b6 bb
       -0.0056993905 -0.026802558 -0.020028047 -0.0055846763
000260 8f 4d 9b bd 39 75 00 bd 37 6e 8c 3d 1f 2d b8 bd
       -0.075831525 -0.031361792 0.06856959 -0.08992981
000270 29 16 45 3d bc 22 16 bd ab bd 6d bd 82 27 60 bd
       0.048116837 -0.03665422 -0.05804221 -0.054725178
000280 d8 c4 73 bd e0 bf 03 bd 40 26 a0 bc 56 7b 90 3c
       -0.059513897 -0.032165408 -0.019549489 0.017636936
000290 42 42 35 3d 05 09 a9 3d 3b de c2 3d c4 bb 56 3d
       0.04425264 0.082536735 0.09515043 0.05242516
0002a0 44 d9 2b bc 9d 2a 45 bd 85 2d 9b bd 8d a1 2f 3d
       -0.010488812 -0.048136342 -0.075770415 0.042878676
0002b0 0e 5b 8c bd 21 a4 49 3c 3d e7 e2 3a e1 83 61 3a
       -0.06853305 0.012307198 0.0017311346 0.00086027203
0002c0 4d 8a 97 3b 9d d1 91 3a e8 fb 20 bc 96 90 0d bb
       0.004624641 0.0011125092 -0.009825684 -0.0021601073
0002d0 ad 93 b7 bd ba be 5e 3d 37 09 e1 bc 6a c2 7b 3c
       -0.08963714 0.05438111 -0.027470214 0.015366176
0002e0 dc 5c 1e 3c 98 38 50 bc d8 7f 49 3a b2 f1 13 bd
       0.009665694 -0.0127088055 0.00076865917 -0.03611917
0002f0 a5 01 d1 3b 6a 51 19 bc 51 30 aa 3d 3d bf 8c bd
       0.00637837 -0.0093577895 0.08309997 -0.06872413
000300 0f a1 bd bd 68 7f 4c bd 1c 79 19 3b 6e 15 b3 3b
       -0.09259235 -0.04992619 0.0023418134 0.005465201
000310 f6 9a dc bc c4 a1 55 3c ca 49 a1 3d c4 0a 9d bb
       -0.02692936 0.013039056 0.07875402 -0.004792543
000320 0d 04 87 bd 70 f1 79 bd ed eb f3 3a 19 2c 89 bd
       -0.065925695 -0.06102127 0.001860974 -0.06697864
000330 3b ab 82 bd 72 c9 22 bc c8 81 ab 3d 54 3b d0 3d
       -0.06380316 -0.009935724 0.08374363 0.10167566
000340 ad 24 c0 bc e0 e3 1d bd c7 0d 91 bc 6e 42 be 3d
       -0.023454988 -0.038547397 -0.017706765 0.09290014
000350 2e 6e 20 bd e5 f6 10 3d aa 89 b8 3d 05 2a 8f bd
       -0.039167576 0.035391707 0.09010632 -0.069904365
000360 94 ed fd bc 29 74 e0 3c 7d 63 b0 bd 78 83 ae bc
       -0.030997075 0.02739914 -0.08612726 -0.021302924
000370 c5 62 93 bd 07 4b 8f bd c2 f8 b4 3d dc f2 0f 3d
       -0.07196573 -0.06996732 0.08836509 0.035143718
000380 b1 fb d3 bd 46 05 98 3d 2a 18 47 bd 2d 54 65 bc
       -0.10350741 0.07422881 -0.04860703 -0.01399712
000390 d9 30 93 bb 0b bd 99 bd db 58 ed 3c 45 11 07 3d
       -0.004491907 -0.0750676 0.028973034 0.032975454
0003a0 6f 80 48 bd af 87 b2 bc 25 f8 b4 3b be f0 d2 bd
       -0.04895061 -0.021793215 0.005522745 -0.10299824
0003b0 79 20 56 3d 2d 68 b6 bc 97 7e 40 bc bd 28 d2 bb
       0.052277062 -0.022266472 -0.011748931 -0.006413548
0003c0 2f c5 31 bd a9 cf a8 3d a9 28 a9 bd 6a 17 b2 3d
       -0.04340094 0.08242733 -0.082597084 0.08695872
0003d0 fa 85 4c bd e3 da 0f 3d 92 1c df bc fe 95 ed 3c
       -0.049932458 0.035120856 -0.027235303 0.029002186
0003e0 de ab 41 3c f0 f2 7b bd 18 b9 74 3d 5e e7 67 3d
       0.0118207615 -0.06151098 0.05974683 0.056617133
0003f0 31 cd d0 3c 9c 10 4b 3d fa e8 3d b9 6a c6 24 bc
       0.025488468 0.049576387 -0.00018111235 -0.010057071

actor.2.bias f4 [128]
000000 4e 60 c8 bd f5 b9 96 bd 41 6c 0b 3e 2e e7 99 3c
       -0.09783994 -0.07359687 0.13615514 0.018786993
000010 69 ab e9 3d 6d 31 fc 3c 13 c1 08 bd e3 84 2a 3d
       0.11409647 0.030785287 -0.033387255 0.041630637
000020 a1 27 2a bc a0 a2 93 bc 0b a9 5e bc 12 5c 8d ba
       -0.010385425 -0.018021882 -0.013590108 -0.0010784885
000030 b2 30 37 3c a7 d6 6d bd 89 da 2f 3c b7 ff c6 3d
       0.011181043 -0.058066037 0.010733255 0.097167425
000040 a3 19 cd 3d e1 ba 7c bd 2f 6c 01 3e 69 dd 8f 3d
       0.100146554 -0.06170166 0.12638925 0.070246525
000050 aa c8 36 3d ae 69 f3 bc 53 62 74 bd c0 82 3f bd
       0.044624962 -0.029713478 -0.05966408 -0.046755552
000060 aa 3d 67 3d cf c6 3e bd 60 9b 59 3b c6 26 8a 3d
       0.05645529 -0.046576317 0.0033204183 0.06745677
000070 5c b3 75 3c 08 62 ad 3d 06 1d 98 bd c3 9d ed 3d
       0.014996376 0.084659636 -0.07427411 0.11602356
000080 58 ee e7 3c 9f 9d 68 3d d6 b5 ae 3d ef 14 d1 bd
       0.028311893 0.056790944 0.08530776 -0.10209071
000090 1f 5f 64 3d 5c 5a 19 3d 99 ab 6d bd 7c 74 91 bd
       0.055754777 0.03743969 -0.058024976 -0.07102296
0000a0 c1 a8 f8 bc 5b 46 4f 3d ca d2 e7 3d 87 7a c9 bc
       -0.030353906 0.050604206 0.11319502 -0.024594558
0000b0 e8 cb ac 3d 11 88 6f bd 59 29 70 3d ac cb 7a bd
       0.084373295 -0.058479372 0.058633182 -0.061229393
0000c0 06 35 bd bc e7 0b f6 3d 61 f6 99 bd 91 14 35 bd
       -0.023096573 0.12013989 -0.07517696 -0.044209067
0000d0 1b b7 a5 bc e6 8b 9f 3c 95 19 c7 3c f4 25 a1 3c
       -0.020228913 0.019475888 0.02430419 0.019671418
0000e0 93 cc b4 3d 9c 4f 14 3c e2 96 1f bd 84 34 f6 3d
       0.08828082 0.0090521835 -0.038962252 0.12021735
0000f0 25 d6 ba bc db 6a 18 bb 85 2b 8e bd c7 a6 3c bd
       -0.02280719 -0.002325705 -0.069418944 -0.04605749
000100 86 bf 9d bd 81 db 7a 3d 6c 10 10 bd ed 4d 08 3e
       -0.07702546 0.06124449 -0.03517191 0.13310976
000110 60 c3 bc 3c be 1a 1f bc 15 6a 8e 3c 7c 6c 3e bd
       0.02304238 -0.009710966 0.017384568 -0.046490178
000120 c1 c3 de bb 20 05 80 3c c9 e5 ae 3d 31 74 dc 3d
       -0.006798238 0.015627444 0.08539922 0.10764349
000130 21 d9 48 bd 54 24 74 bd 4d 67 89 3d 77 1c 2f 3d
       -0.049035195 -0.059604958 0.06709156 0.042751756
000140 19 09 d9 bc a3 80 8d bd 21 0e 07 bd 9f 03 bd 3d
       -0.026493596 -0.06909301 -0.03297246 0.09229206
000150 bc c9 87 3d c0 2c 83 3d 3c 61 d8 bd 3c 7e 5c 3c
       0.06630275 0.0640502 -0.10565421 0.013457831
000160 fa 00 15 3d 9e ae 2b 3d 04 fc 8e 3c 9d c7 74 bc
       0.036377884 0.041914575 0.017454155 -0.01494017
000170 ff 93 5c bd 96 3f ee bc 97 76 50 3d 2f 86 2e bc
       -0.053852078 -0.029083055 0.050894346 -0.010652109
000180 ce 45 20 3b b7 1d a9 3d 8c dd a5 bd 99 c6 2c bb
       0.002445567 0.08257621 -0.08098897 -0.002636349
000190 63 10 dd 3c 14 44 30 bc 7e 90 a1 bd 56 bd d6 bd
       0.026985353 -0.010758419 -0.07888888 -0.10485332
0001a0 8f a0 89 bd dc de ac ba 58 12 e2 bc 60 c4 cb 3a
       -0.06720077 -0.0013188976 -0.027596638 0.0015546195
0001b0 a2 84 8a bd aa 0e 2a bd b8 f6 1c 3d 76 3b 98 3d
       -0.06763579 -0.04151789 0.038321227 0.07433216
0001c0 80 68 1b bd c0 30 cc 3c d6 a4 e3 bc aa 23 36 bd
       -0.037941456 0.02492559 -0.02778856 -0.044467606
0001d0 82 7d fe 3d dd 5d 28 bd 5e 0d db bc 38 1e 06 3b
       0.124262825 -0.04110514 -0.026739772 0.002046479
0001e0 c4 ef bd bb 46 f5 a2 3d 7a 92 00 3d cc db 94 3d
       -0.0057964046 0.079569384 0.03138969 0.072684854
0001f0 5a ae bb 3d 35 10 10 3d aa fb c9 bc 0b aa b4 3d
       0.09164114 0.035171706 -0.024656136 0.088214956

actor.4.weight f4 [128, 128]
000000 27 b0 e8 3c d2 3e 3f bd 91 2f 0f 3d cc b2 b3 bc
       0.028404308 -0.04669077 0.034957472 -0.021935843
000010 32 d7 1a 3d 08 56 a4 bd 22 25 b9 bd 92 94 c6 bd
       0.037802882 -0.08024222 -0.09040286 -0.09696306
000020 89 a1 85 3d b6 b1 b8 bd 68 df 4b bd f8 a1 c8 3d
       0.06524951 -0.09018271 -0.049773604 0.09796518
000030 a7 c7 6b 3c 30 b5 22 3c 13 da e1 39 0d fe 00 bd
       0.014390863 0.009930894 0.00043077822 -0.03149228
000040 e9 6f 84 3c 88 49 8d 3d 41 ba 16 bd 07 93 f5 bc
       0.016166644 0.068987906 -0.03679872 -0.029977335
000050 e9 fb c5 3d 9f 36 9c 3c 4f 8f 24 bc 9d ed 21 bc
       0.09667189 0.019069014 -0.010043933 -0.009883312
000060 0c a4 43 bd 78 32 dc bb 56 47 e5 bc 18 8c c2 bd
       -0.04776387 -0.0067198835 -0.027988117 -0.09499377
000070 35 1f 53 3d d6 a9 48 bd 9e 87 76 bd 2f 2b 8b bc
       0.051543433 -0.048990093 -0.06018793 -0.016988365
000080 22 6b 34 bd d5 c0 8a 3d ea 15 10 bb bd b5 97 3b
       -0.044047482 0.06775061 -0.0021985718 0.004629819
000090 f8 0b 6a bd ce 5a 9b 3d 3b 23 83 bd 96 57 07 bd
       -0.05714032 0.07585679 -0.06403204 -0.033042513
0000a0 5f 5d 9c 3d 42 3d 53 3d 8f ac 95 3d 16 b2 09 3d
       0.076349966 0.051572092 0.073083036 0.0336171
0000b0 33 8b 4e bd 10 1d d9 3b 33 b7 b5 bd 05 9f e1 bc
       -0.05042572 0.006625779 -0.08872833 -0.027541647
0000c0 e4 21 22 bd 96 13 12 3c ea ca e3 bc aa 18 7d bd
       -0.039583102 0.008915802 -0.027806718 -0.0617911
0000d0 25 16 ea bb 6b 87 3e bd ab 41 4a 3d f5 57 c0 3c
       -0.007143753 -0.046515863 0.049379032 0.023479441
0000e0 bc 3b d4 bd bc 39 8a bd dc 8d ca 3c 0d d5 9e 3c
       -0.10362956 -0.06749293 0.024725847 0.0193887
0000f0 bc 9c 80 3d f2 04 c8 bc dc 64 d6 3c ec 0a 43 3c
       0.06279895 -0.02441642 0.02617114 0.011904459
000100 d5 ac 0c bd 9e e8 ad 3c 66 11 03 3d 5c 9f 32 bc
       -0.034344513 0.021229085 0.031999014 -0.010902252
000110 cf be 8d bd 57 44 ec bd d5 73 98 3d 4b 40 8a bd
       -0.069211595 -0.11536472 0.07443968 -0.06750544
000120 85 ff 98 3c 84 91 49 3d 77 19 7f 3d 24 74 f1 3c
       0.018676529 0.04921104 0.062280145 0.029474325
000130 c2 ce 87 3d 3a 01 13 3d 7e 6c 8b bd 3d da f7 3b
       0.06631233 0.03588984 -0.068078026 0.007563858
000140 da 96 35 bd ba ba af bc 6c aa 22 3d df 8b 39 bd
       -0.044333316 -0.021451343 0.03971331 -0.045299407
000150 86 55 99 bd eb f0 ba 3d 19 7b 96 3d b4 b1 e6 bc
       -0.074870154 0.09127983 0.07347698 -0.028160907
000160 70 8a 12 bd 77 72 10 bd a4 e1 87 bd 3d 04 cc bd
       -0.035776556 -0.035265412 -0.066348344 -0.09961746
000170 8b ec 33 3d 43 70 0d 3d 96 1b 23 3c fb 92 4c bd
       0.043926757 0.03453089 0.0099553075 -0.04994486
000180 29 d7 ed bd 87 06 7b 3d 12 7b af 3d d6 29 73 bd
       -0.11613304 0.06128552 0.08568396 -0.05936607
000190 3b fd 0f bd c0 df 56 bd dc d9 2d bd cf 65 c0 3d
       -0.03515361 -0.05245948 -0.042444095 0.093944184
0001a0 49 e6 51 bd 07 a4 bb bb 85 1b c1 3c 23 13 0d 3d
       -0.051245008 -0.0057263407 0.023572693 0.03444208
0001b0 a4 c1 ff 3c 08 66 a1 3d 8f ee 9c bd c2 af a5 3d
       0.031220265 0.07880789 -0.07662689 0.08090164
0001c0 6b d9 d1 bc dd 9c 8e 3c a3 72 ca bb 08 fe 96 3c
       -0.025616368 0.017408783 -0.0061782165 0.018431678
0001d0 54 b8 d0 bb a4 da 4d bd 63 5a 65 bd 2e df 9e 3d
       -0.00636963 -0.05025734 -0.055994403 0.07757412
0001e0 8b f0 1b bd 7b 2b 36 3d 52 b9 4e bd 18 b2 16 bd
       -0.038071197 0.04447506 -0.050469704 -0.036790937
0001f0 e8 4f bd bc 22 4b 73 3c 8c 36 12 bc 9c 86 fd 3c
       -0.023109391 0.014849456 -0.008924138 0.030947976
000200 95 d7 23 3d 51 3c 68 bd 0a 8a 0e bd bd e7 55 bd
       0.040000517 -0.056698147 -0.034799613 -0.052222956
000210 b6 67 e6 bc 45 e7 6f ba 6e 23 9e 3d c6 30 8d bc
       -0.028125625 -0.00091515883 0.077216014 -0.017235171
000220 1e 6a da bc 95 50 81 3d 7c aa ac bc 9c ec 46 3d
       -0.026661929 0.06314198 -0.021077387 0.048565492
000230 79 89 ad 3d dc e6 11 bc 40 68 06 3d 59 9a 63 3d
       0.084734865 -0.008905139 0.032814264 0.05556712
000240 1e c1 17 bc b4 ea af 3b b3 bb 81 bd 35 2e ab 3d
       -0.009262351 0.005368555 -0.06334629 0.08358423
000250 68 82 27 3d 6d f6 89 bd 9a ac 66 3d 15 fc 25 bd
       0.04089585 -0.06736455 0.05631695 -0.040523607
000260 23 64 d9 3b 9f 1a f2 3c fb 94 0e 3d 5f df 96 bd
       0.0066342517 0.02955371 0.034810048 -0.073668234
000270 c6 75 53 bd 31 8c 8e 3d c8 a8 c5 bd e6 46 4a bd
       -0.05162599 0.06960333 -0.09651333 -0.04938402
000280 c0 d1 a0 bd a2 62 c8 3c 9a 59 13 bd 18 22 88 3d
       -0.07852507 0.024461094 -0.035974123 0.06647128
000290 a1 62 68 bd e2 f6 61 3d 66 74 33 bd 37 99 1f bd
       -0.056734685 0.055167086 -0.043812178 -0.038964476
0002a0 a3 26 86 bd 8a e3 8a bd e2 bd a7 3d 20 31 dc 3d
       -0.06550338 -0.06781681 0.08190514 0.10751557
0002b0 ca ad 15 bd 74 ca 3a 3c 3d 2c be 3d 16 d1 14 3c
       -0.03654269 0.011400808 0.092857815 0.009083053
0002c0 9b 85 8c 3c 6d 0f a7 bc 3c 02 b2 3b 33 a4 49 3d
       0.017153552 -0.020393098 0.0054323953 0.04922886
0002d0 88 77 dc bb 87 cc 82 bd 70 a9 28 bd 25 e6 02 bd
       -0.0067281164 -0.06386667 -0.041177213 -0.031957764
0002e0 6a a1 dd 3d 4a 0b 19 3d b7 94 5f 3d a7 f9 0f bb
       0.10821803 0.03736428 0.054585185 -0.0021968873
0002f0 13 b6 e4 ba e6 e2 8e 3c 21 72 59 3d de d4 03 bd
       -0.0017449282 0.017442178 0.053087357 -0.032185428
000300 08 9c 36 3d fe fa b6 3d 47 eb b0 bc 7c cb d4 3d
       0.044582397 0.08934592 -0.021596564 0.10390374
000310 69 9d 6c bd fc 65 90 3d 6e 8e 3c 3c 8b b6 82 bd
       -0.057767306 0.07050702 0.011508567 -0.063824736
000320 cc bd ac 3d d9 78 6a bd cb c6 36 3d cf 01 bd 3d
       0.084346384 -0.057244156 0.044623177 0.092288606
000330 a4 2a 1b 3d b6 65 1e bc 79 f9 b0 3d 68 84 76 bd
       0.037882462 -0.009667804 0.08641333 -0.060184866
000340 c7 f9 9b 3d 22 a3 51 3d 98 b1 90 bd 15 6f ff bc
       0.076160006 0.051180966 -0.07065123 -0.031180898
000350 0c 4b 03 3d 9e 6b 68 bd 7a 92 21 bd bf b5 c5 ba
       0.032053992 -0.056743257 -0.03944633 -0.0015084072
000360 fe 15 32 bd dd c8 35 bd 72 af 0c 3d 17 6e 3e 3d
       -0.043478005 -0.04438101 0.034347005 0.04649171
000370 4a 44 80 bc 01 84 b0 bc c9 fd ea 3c 11 6a bb b9
       -0.015657563 -0.02154732 0.028685467 -0.00035746445
000380 fc 35 96 3d 44 48 24 bd 49 ef 44 bd cc b2 86 bd
       0.073345155 -0.04010798 -0.048079763 -0.065770715
000390 73 6e 84 3d df 8f ab 3d 0b be 08 bd 81 55 ae bd
       0.06466379 0.083770506 -0.033384364 -0.08512402
0003a0 77 ff cf bc df 8e bf bd 03 20 36 3d 1d cc 5a 3d
       -0.02539037 -0.093534224 0.044464123 0.053417314
0003b0 76 5a 52 3d 7d 8f 3d 3d 1d f1 be bd ec 49 c8 3b
       0.0513558 0.04627942 -0.093233325 0.006112328
0003c0 28 b6 24 3d 8d 0d b7 3d ed ea 44 3d b7 3e db bc
       0.04021278 0.089381315 0.048075605 -0.026763303
0003d0 44 39 17 bd d5 5f 88 bc e3 fc 82 bd e9 19 f4 bc
       -0.036919847 -0.016647259 -0.063958906 -0.029797511
0003e0 92 22 5a 3d 16 c8 19 3d 1a be 23 3d c5 b2 78 bd
       0.053255625 0.037544332 0.039976217 -0.060717363
0003f0 c6 b7 57 3d e0 46 95 3d 3d 97 b7 3d 29 77 fc 3c
       0.052665494 0.07288909 0.08964393 0.030818539

actor.4.bias f4 [128]
000000 2b 1a b6 bc 59 b0 be 3c cf 92 f3 3d c4 47 29 bd
       -0.022229275 0.023277448 0.11893236 -0.041328207
000010 29 2b eb 3d 3c 61 0a 3e fc 60 43 3d c9 a3 22 3c
       0.114828415 0.13513654 0.047699913 0.009926745
000020 37 b6 28 bc e1 22 3d bc 21 79 94 3c 13 37 25 3e
       -0.01029735 -0.01154396 0.018124165 0.1613429
000030 da 4c 33 bd e6 c3 07 3d 5b 44 08 3d 99 b1 fa 3d
       -0.043774463 0.033145808 0.033268314 0.12240905
000040 d1 4b 75 bd 86 44 ab 3d f7 6e 83 3d 9a 50 b0 bd
       -0.059886757 0.08362679 0.06417649 -0.086091235
000050 03 e4 10 3b bd 90 a4 3d de 64 9e 3c c7 ae 8b bd
       0.0022108562 0.08035419 0.019335207 -0.068204455
000060 27 6e c9 bd 21 16 30 bd 26 af c4 bd 50 bf e1 3d
       -0.09835463 -0.042989854 -0.096037194 0.11022818
000070 8e 2d 06 3c d6 58 87 bd 05 ad 4f bc b7 29 b4 bd
       0.008189572 -0.06608741 -0.012675528 -0.08797019
000080 db da cc 3d 4b 82 c7 3d fa 11 c6 bd 99 d0 84 3c
       0.10002681 0.09741648 -0.096713975 0.016212748
000090 60 03 45 3c c8 ef 06 3e 5f e8 f9 3d d2 77 2b 3d
       0.01202473 0.13177407 0.122025244 0.041862316
0000a0 e2 22 ad bd 47 a4 67 3d 20 ee 27 3e 39 7d a9 bd
       -0.08453919 0.05655315 0.16399431 -0.082758375
0000b0 fd e0 00 3d 4e ec 70 bd ef 93 7c 3d 6e 5c ac 3d
       0.031464566 -0.058819108 0.061664518 0.08416067
0000c0 ec cb 99 3c 51 8a 7a bd 18 b8 8b 3d 3c 67 d9 3d
       0.018773995 -0.061167065 0.068222225 0.106153935
0000d0 d0 da 8b 3b 3d 71 d9 3d 6f f7 d4 3d cf e1 d7 3c
       0.004268028 0.106173016 0.10398757 0.026352791
0000e0 2a 60 06 be b3 12 64 bd 32 b3 5c bd 20 ad 9c 3d
       -0.13122621 -0.055681895 -0.05388183 0.076502085
0000f0 01 9a ba bd 8c 98 2e bd 77 56 c5 bd e2 f0 3b 3d
       -0.09111405 -0.04262595 -0.096356325 0.04588402
000100 f8 54 8e 3d a7 30 ae 3c a8 33 d9 3d a0 59 80 3d
       0.069498 0.021263434 0.10605556 0.062670946
000110 fc 25 83 bd fc 6e 44 bd 4e 41 8f bc 7e 69 10 3c
       -0.06403729 -0.047957405 -0.017487194 0.008814214
000120 3d 15 43 3d 9b 79 0f 3c 84 66 9d 3d 85 2a bc bd
       0.047627676 0.00875702 0.07685569 -0.091877975
000130 89 9d 80 bd 29 bf e5 bc bb a3 c2 3d 7a c7 bf 3d
       -0.062800474 -0.028045254 0.09503885 0.09364219
000140 cf 68 a1 3d cb 3f 5f 3d 7f 09 15 bd 06 61 72 3d
       0.07881319 0.054504197 -0.03638601 0.05917456
000150 f8 f9 30 3d c7 da 69 bd f1 0e 53 3d 4f ab 81 3d
       0.04320714 -0.057093408 0.05152792 0.06331503
000160 c0 1d 2d 3d 83 7f d7 3d 76 46 f1 bd 65 f3 c5 bd
       0.0422647 0.10522368 -0.117810175 -0.096655644
000170 b2 fb c1 3d 79 50 3d 3d 7a ba 2f bd a4 8f c6 3d
       0.09471835 0.046219323 -0.042902447 0.09695366
000180 5d 01 df bc 88 95 46 bc 76 1f 9d 3d d1 6a 1a 3d
       -0.02722233 -0.012120612 0.07672016 0.037699524
000190 fa a2 21 bd ce 4f 7b 3b c4 c4 9a 3d b6 10 01 3d
       -0.039462067 0.0038347128 0.07557061 0.031510077
0001a0 be b8 38 3c 14 af 40 bd 45 8a 8a 3d 1a e7 01 bd
       0.011274515 -0.047041968 0.06764654 -0.031714536
0001b0 49 65 b0 bd fa f4 92 bd 50 41 1d bd f8 09 df bd
       -0.086130686 -0.07175632 -0.038392365 -0.10890573
0001c0 20 41 d1 bd 96 1c b8 3d 5a 41 07 bd b3 bc 0d 3e
       -0.102175 0.08989827 -0.03302131 0.13841514
0001d0 fc 26 86 3c 99 64 17 3e 52 a6 88 3d c3 b8 36 ba
       0.016376011 0.14784469 0.06672348 -0.00069702807
0001e0 b9 c9 e6 3d 84 20 92 3d 02 ae d7 3d 96 1e b3 3d
       0.11268944 0.07135108 0.10531236 0.08746068
0001f0 99 5b b9 bd 01 ff 1b 3e 58 ac 00 3d 02 e0 65 bd
       -0.09050674 0.15233995 0.03141436 -0.056121834

actor.6.weight f4 [128, 128]
000000 83 e4 48 bd 22 c3 ac 3d 7c ea 80 3d c0 42 b1 bc
       -0.04904605 0.08435656 0.06294724 -0.021638274
000010 3d 43 b5 3b f3 e5 df 3b 3c 39 f8 3d ee d7 e8 bc
       0.005531697 0.006832832 0.121202916 -0.028423276
000020 97 6f 7c 3d 63 a3 52 bd 84 87 9a bd ca 8b 68 bd
       0.061629858 -0.05142535 -0.07545379 -0.05677394
000030 e5 88 f1 3c 45 7e 8c 3d cc 1f 0c bd 0e 4d 4f bd
       0.029484222 0.068600215 -0.03421001 -0.050610594
000040 3a 45 24 3d ac 47 db bc 7a 2c 23 3d e0 26 81 3b
       0.040105082 -0.026767574 0.039837338 0.003941402
000050 39 2e bc 3d c8 d0 2e 3b 1a ec b6 3c 7f 30 85 bd
       0.09188504 0.0026674736 0.022329379 -0.065033905
000060 07 36 07 bd a4 42 48 3d d7 63 9c bd 8f 2d 8a bd
       -0.03301051 0.04889168 -0.076362304 -0.06746971
000070 a7 5a 4b 3d dc 90 49 3d c9 a8 a4 3d 71 03 c8 bc
       0.049647 0.049210414 0.08040006 -0.024415703
000080 61 5e bb 3d e8 29 f9 3c 59 70 09 bc d4 0d 46 3d
       0.09148861 0.03041549 -0.008388602 0.04835303
000090 35 76 af 3d 6c df f5 3c 66 e9 16 3d 02 03 cc 3d
       0.08567468 0.030013762 0.03684368 0.09961511
0000a0 0c 50 b2 bd ad 88 c4 bc 38 3d 77 bd 78 ee cf 3c
       -0.08706674 -0.023990953 -0.060361117 0.025382265
0000b0 b1 35 92 3d e7 9c 4e bd 7a 5e c5 bc 89 fa 32 3c
       0.07139147 -0.050442602 -0.024092901 0.01092399
0000c0 a3 49 8f bc aa dd 55 bd 7a 07 76 3d 87 83 d1 3d
       -0.017491167 -0.05221335 0.060065724 0.10230165
0000d0 8f 2c a0 3d 69 be db 3c 4d 0c 68 bc dc 1c 63 bd
       0.07820999 0.026824193 -0.014163089 -0.055447444
0000e0 bd 49 02 3d 9c cd 85 bd 86 31 a9 3d 2b 0f 85 3d
       0.031808604 -0.065333575 0.08261399 0.06497034
0000f0 b0 4e 7a bd 6b 01 90 bd 08 71 3e bd e1 e2 83 3d
       -0.0611102 -0.070315205 -0.046494514 0.06439758
000100 82 84 8b 3c 6e 16 19 bd d3 0d 5a 3c 35 d2 90 3c
       0.017030958 -0.037374906 0.01330896 0.01767836
000110 3a b0 a7 3c f5 c2 b2 3d 6e 6a ec bc ce 5d 48 3b
       0.020469774 0.08728591 -0.028859343 0.003057349
000120 49 9d e9 3b 17 40 db bc 0c 28 5d bc eb 7c 2c bd
       0.0071293456 -0.026763959 -0.013498317 -0.04211132
000130 4c 4f 7b 3d 9b 14 97 bd 29 a8 dd 3d 18 50 71 bd
       0.06135492 -0.07376977 0.1082309 -0.058914274
000140 b2 3e d7 3b d6 b9 97 bd ed ae 0c bd 47 9d 67 3d
       0.006568753 -0.07408492 -0.03434651 0.056546476
000150 92 aa 51 bd 58 e4 f2 3c b8 d1 f9 3c 73 b4 6d 3b
       -0.05118806 0.029649898 0.03049551 0.0036270886
000160 bf 9c 8d bd 97 38 c8 3d 40 ba 6c 3c c7 61 a6 3c
       -0.069146626 0.09776419 0.014448702 0.020310296
000170 96 d6 37 bd 56 27 79 3d 17 f7 90 3d 67 cd 16 3d
       -0.04488238 0.06082853 0.07078379 0.03681698
000180 5a 79 7d 3d d1 e5 31 3c f2 a3 0d 3d 87 fa 90 3d
       0.061883308 0.010858015 0.03458018 0.07079034
000190 c8 ea 11 bd 39 49 7f 3d 50 b7 3e 3c 72 9a a0 bd
       -0.035624295 0.06232569 0.011640385 -0.07841958
0001a0 ee 18 a1 bb dc 45 72 3b 5c a1 47 bc b7 d3 3c bd
       -0.004916302 0.003696791 -0.012184467 -0.046100345
0001b0 6c 7f ae 3d c0 89 06 bd 09 95 41 bd b4 8b 97 bd
       0.085203975 -0.032846212 -0.04726127 -0.07399693
0001c0 4f 8e b1 bd 79 e5 d3 3c 8a d0 99 3d bd 9b 1c bd
       -0.08669721 0.025866257 0.07510479 -0.03823446
0001d0 24 de 41 3d e3 07 9f 3d c3 ef 88 3d e7 0a 0e 3c
       0.04733099 0.07765176 0.06686356 0.0086695915
0001e0 09 b2 8e bd 0d 10 b6 bc 6f 85 49 3c 3a 1c ab bd
       -0.06967551 -0.02222445 0.012299879 -0.08354993
0001f0 43 24 5a 3d be 27 8c ba e0 a2 37 bd 45 2a 17 3c
       0.053257238 -0.0010692996 -0.044833064 0.009226386
000200 8f 78 8d 3d c0 39 86 3d ba 6c c0 3d a8 6e 04 3d
       0.0690776 0.06553984 0.09395738 0.032332093
000210 b7 88 e1 3c 7f 44 a2 3d c3 2b 19 3d 19 83 02 3d
       0.027531011 0.07923221 0.03739525 0.031863306
000220 52 27 17 bd 79 40 b9 3d 4e 7e 22 3d ab d3 74 bd
       -0.036902733 0.090455 0.039671235 -0.059772175
000230 7c 9e 5a bd b1 9a 8e 3d ee d2 a5 3d 17 63 dd bc
       -0.0533738 0.06963099 0.08096872 -0.027024789
000240 d9 bc 35 3c a7 1c 98 bd 1c 9c 07 bd f5 e4 98 3d
       0.011092388 -0.0742734 -0.033107862 0.07465545
000250 54 6a 20 3d e2 55 cd bd e3 a6 0e bd a0 fa 49 3d
       0.039163902 -0.100261465 -0.034827124 0.04931128
000260 ec 91 27 bd 72 6a 79 3d f8 66 1e bc 5a 1a e0 3c
       -0.040910646 0.06089253 -0.009668104 0.027356315
000270 fe 6e 16 3d 19 b7 8f bd a5 07 5e bd d7 cb 70 bc
       0.036726944 -0.07017345 -0.05420651 -0.014697037
000280 d7 8b d7 3d 41 0d 0b 3d 18 c7 57 3d 5f bb c5 3c
       0.10524719 0.033948187 0.052680105 0.024137197
000290 ed 4f 64 bc 43 55 8c 3d 1f b0 a4 bb ed ef 5e bc
       -0.013935071 0.068522 -0.005025878 -0.013607007
0002a0 48 41 a2 bc 7c bf ae bd 5d 6c 70 3d 0b 2e 4e 3d
       -0.01980652 -0.085326165 0.058697093 0.05033688
0002b0 33 b5 9d 3d 54 7a 6b 3d be b2 27 3d 22 97 ad bc
       0.07700577 0.057489708 0.040941946 -0.02119023
0002c0 f5 25 35 3d 9a 3c 41 3d 5a ab ec bd 5a 5b 33 bd
       0.04422565 0.047176935 -0.1155612 -0.04378829
0002d0 2b 2b 87 3c b2 04 85 bd 31 1f 81 bd 16 22 d5 3b
       0.016500076 -0.06495036 -0.063047774 0.0065043075
0002e0 9d 4b 02 3d 9e d2 ef 3c 96 80 cf bc 80 ab af 3c
       0.03181039 0.029275235 -0.02532987 0.021444082
0002f0 99 fc 97 bd 0d 5a b5 3d 0c 00 d3 bb 5e 74 29 bc
       -0.07421226 0.088550664 -0.0064392146 -0.0103426855
000300 08 b0 16 3d 8d 7d ab 3c 95 9d 73 3c 4f 7e 5d 3d
       0.03678897 0.02093389 0.014869113 0.054075535
000310 e2 14 84 3d c2 f1 8d bd 87 43 0d 3d 5e 1e 50 3c
       0.064492956 -0.06930877 0.034488227 0.012702553
000320 58 3e ac 3d 94 8d 13 bd b8 fb 6e 3b b6 87 a2 bd
       0.084103286 -0.03602369 0.0036465954 -0.07936041
000330 cb 0c 24 bc 56 62 77 bd c2 2f df bc 0b eb e2 3c
       -0.010012816 -0.060396515 -0.027244452 0.027699968
000340 2d 75 ca 3c 24 8a d4 bc 1b 17 87 3d ee 4b 78 3b
       0.024714077 -0.025944777 0.06596204 0.0037887054
000350 b2 9c 99 bc a3 18 85 3d 6e 83 bc 3d 76 fa a2 3d
       -0.018751476 0.0649884 0.09204756 0.07957928
000360 1a 74 ac bd 69 3f 86 3d 44 18 9b bd 0c 85 e5 bc
       -0.08420582 0.06555063 -0.07572988 -0.028017543
000370 e8 b8 91 bc 2a 05 8a 3d 5b 8e f9 bb 01 57 67 3d
       -0.017788365 0.06739266 -0.007615847 0.056479458
000380 ae 93 08 3c d2 14 dd bc f0 70 a3 ba 96 15 8c bd
       0.008335991 -0.026987467 -0.0012469571 -0.06840055
000390 bf 74 28 bc d8 71 98 3d 2f fb 41 bd 89 7b 49 bd
       -0.010281741 0.07443589 -0.047358688 -0.049190078
0003a0 9c c5 9c 3d e6 76 a0 bd 72 68 c1 bd 5f 56 b3 3c
       0.076548785 -0.07835178 -0.094437495 0.02189177
0003b0 07 dc 04 3d 3b c0 01 bd e0 7e 27 3c fa 64 be bd
       0.032436397 -0.031677466 0.01022312 -0.092966035
0003c0 ee 90 16 bb 55 d3 f2 3b 4d 2c 25 3d 06 dc 48 3d
       -0.0022974568 0.0074104466 0.04032545 0.049037956
0003d0 48 df 23 bd ae a3 03 3d c6 cd c2 3d 25 bf 6e bd
       -0.04000786 0.03213852 0.095119044 -0.05828776
0003e0 21 8b 04 bd b3 b0 94 bd f2 d0 03 bb 9d 2a c3 3c
       -0.032359246 -0.07260265 -0.0020113555 0.02382403
0003f0 c4 e7 a3 bd c9 63 be bb c9 d8 2e 3b 18 a2 71 bd
       -0.0800319 -0.005810235 0.0026679507 -0.058992475

actor.6.bias f4 [128]
000000 18 47 33 3d 38 10 bf 3d 6f a6 f3 3d 58 28 8e bc
       0.043768972 0.09329265 0.11896979 -0.017353222
000010 db 94 1b 3d 60 84 c2 3d c4 ce d9 3d ac e2 07 3d
       0.037983757 0.09497905 0.106351405 0.033175156
000020 f4 1f b5 bd 8f c7 c9 bd 5d 43 8a bd ae 9c cd 3d
       -0.08843985 -0.09852516 -0.0675113 0.1003965
000030 e7 44 df 3d 56 cc ac 3d 48 fb 9c 3d 24 99 ad 3d
       0.10901814 0.084374115 0.076651156 0.08476475
000040 25 58 52 3d 49 3e 37 bd ed bd c6 bc 42 60 c5 3d
       0.051353592 -0.044737134 -0.024260486 0.096375
000050 51 49 32 bd dc f9 d9 bc 9f 4e 18 bc bf b1 25 bd
       -0.04352695 -0.0266084 -0.0092960885 -0.040452715
000060 7c c7 62 bd 0c 8d d3 3d 60 6b 1c bd d8 8a c8 bd
       -0.055366024 0.10329637 -0.03818834 -0.09792107
000070 21 50 81 3d cc 36 b2 3d 06 38 8a bd c2 c3 7e b9
       0.063141115 0.08701858 -0.06748967 -0.00024296253
000080 a3 97 47 3d ce 20 24 3d 73 a2 c4 3d 24 a7 42 bd
       0.048728596 0.040070347 0.09601297 -0.04752268
000090 83 46 ac bd 38 c6 cd 3d 00 9b 0e 39 f7 4c ea 3d
       -0.084118865 0.10047573 0.00013599917 0.11440461
0000a0 75 47 2c 3c 99 83 fd bb 13 84 c9 3c b4 c2 b9 bd
       0.010515084 -0.007736635 0.02459911 -0.0907034
0000b0 ee 2c 8d 3d f4 ee 53 bd 81 cd 1b 3d 31 f1 6f 3d
       0.06893335 -0.051741555 0.03803778 0.058579627
0000c0 f9 12 1d 3d 0c ef 48 3c 0b 29 03 bc ca b7 64 3c
       0.03834817 0.0122640245 -0.008005391 0.013959834
0000d0 0a 01 b3 bd 38 c7 b2 3d 81 74 cb 3d 56 4a 44 bd
       -0.087404326 0.08729404 0.09934331 -0.047922455
0000e0 b4 8a 9d 3c 3b 36 20 3d f0 47 a6 bd cf 7f 94 bd
       0.019231178 0.03911422 -0.0811919 -0.0725094
0000f0 28 f8 aa bd 05 90 05 bd 99 f1 72 3d 94 f1 9f bd
       -0.08348113 -0.03260805 0.059312437 -0.07809749
000100 a7 b9 5b bc dc 53 a1 3d 17 89 0b bd 32 cf e4 3c
       -0.013410962 0.07877323 -0.034066286 0.02793083
000110 7e 6b a6 3d 84 2a 0b 3d b3 7b 77 bd f9 e3 8d bd
       0.08125971 0.033976093 -0.060420703 -0.06928248
000120 11 fd 6a bd e0 68 9e 3d ba 88 a4 bc 94 7f db bc
       -0.05737025 0.07734847 -0.020084728 -0.026794232
000130 15 0e ca 3d d1 1e 7a 3d ab e1 5c 3d c3 3b 87 bd
       0.09865967 0.061064545 0.05392615 -0.066031955
000140 fd a1 87 3d b3 8f b2 3d e6 ff 47 bd bd 4c 57 3d
       0.06622694 0.08718815 -0.04882803 0.052563418
000150 12 04 8c bd e4 4a d1 bd 92 7b c0 3d 18 dd 3e 3d
       -0.06836714 -0.102193624 0.09398569 0.04659757
000160 fd d2 6d 3d fc 8e e2 bc 91 02 22 3d 30 57 39 3d
       0.058062542 -0.02765607 0.03955323 0.045249164
000170 b1 4e 96 3d 0e a1 77 bc 1a 8e 89 3d 21 2f c8 bc
       0.07339228 -0.015114082 0.06716557 -0.024436535
000180 99 42 19 3d d5 27 c0 3d 8c b9 bf 3d ef c4 6a bd
       0.037417028 0.09382597 0.09361562 -0.057316717
000190 bb 65 9c bd e0 37 97 bd 3a fe 06 3d 39 cb 41 bd
       -0.07636591 -0.07383704 0.032957293 -0.04731295
0001a0 52 d1 17 3d bf f5 59 bd 83 61 bb 3d 33 31 0c 3b
       0.037064858 -0.053212877 0.09149458 0.002139163
0001b0 7b a1 14 bc 6f c7 ba bc 07 47 ab 3d e2 74 98 3d
       -0.009071703 -0.022800175 0.08363157 0.074441686
0001c0 ab 60 67 3c 78 b2 f2 3d 63 a3 0c bd df b9 c1 3b
       0.0141221685 0.118504465 -0.034335505 0.00591205
0001d0 a3 8b 90 3d a5 0e 72 3d aa ff 80 3c 6b 0d fa bb
       0.070578836 0.059095997 0.01574691 -0.007630994
0001e0 b2 d8 7b 3d 87 19 79 3d 28 fd f3 3c e4 7d 28 bd
       0.061485954 0.06081536 0.0297838 -0.041135684
0001f0 4c 71 69 bd a7 c9 2b bd 26 51 8c 3d 18 1c 22 bd
       -0.056992814 -0.041940358 0.06851415 -0.039577574

actor.8.weight f4 [1, 128]
000000 a6 b0 a9 bc 03 f8 9b bc 3f 5e 30 3d 21 f7 2a 3c
       -0.020714115 -0.01903916 0.04305863 0.010434897
000010 94 ac 44 bc 96 6a a6 3c 6c 52 ca bc 62 d2 43 bc
       -0.012004036 0.020314496 -0.024697505 -0.011952015
000020 b9 2f c9 b9 1e 36 32 ba 98 49 dd bb 2b dc 54 bd
       -0.00038373264 -0.0006798225 -0.006753158 -0.05196778
000030 ce cc 76 3d 0f 18 13 bd 46 db 9b 3c 7f 37 dd 3c
       0.06025391 -0.035911616 0.019025456 0.027004002
000040 a4 fe 58 3c 50 19 21 3c 84 11 73 3c 0d c7 aa bc
       0.013244305 0.009832695 0.014835719 -0.020846868
000050 3e 9b b9 3b 4f aa a1 bc cd 74 1b bc 77 fe 9a bc
       0.0056642583 -0.01973453 -0.009488297 -0.018920166
000060 ba d3 38 bb e9 dc 2d bd 68 2e 82 3c 03 85 34 3c
       -0.002820237 -0.042447004 0.015891269 0.011018041
000070 b2 4f db bc 2b 61 97 3d 89 a1 f7 3b 1f 27 d1 3c
       -0.0267714 0.0739158 0.0075570983 0.02553135
000080 eb 61 10 3d ad b6 37 3d ff 72 0a bd 10 c4 6d bb
       0.03524963 0.044851948 -0.033801075 -0.0036280192
000090 1b dd d7 bb de 93 c4 3c 64 50 bc bc 75 29 e0 bc
       -0.006587637 0.02399629 -0.022987552 -0.027363518
0000a0 28 3a d1 bc 55 7e 6f 3a 91 13 00 bd 75 56 44 39
       -0.025540426 0.00091359514 -0.03126866 0.00018724224
0000b0 82 fc 03 3d 90 48 ba ba 5b f7 5c 3d f4 92 13 bc
       0.032223232 -0.0014212299 0.053946834 -0.009007204
0000c0 f5 92 1c bc cb e6 cb b9 55 48 db bc f8 b7 eb 3c
       -0.009556522 -0.0003889113 -0.026767889 0.028774247
0000d0 aa 99 60 bc d5 59 82 3c 97 f0 fa bc 52 36 20 bc
       -0.013708511 0.015911976 -0.0306323 -0.009778576
0000e0 7f 3e 38 3c 72 03 a7 bc 40 ff d9 39 6d 9f 50 bc
       0.011245369 -0.020387385 0.0004157964 -0.012733323
0000f0 d8 b1 58 3b 29 89 e5 3b b8 37 a3 3d 5c 26 73 bb
       0.0033064988 0.007004876 0.07969612 -0.0037101721
000100 be 9c 3e bc e7 76 33 bd 54 03 a9 3b f8 f8 e7 3c
       -0.01163405 -0.043814566 0.0051578674 0.02831696
000110 77 c5 0e bd 22 53 fa 3c da 0c de ba 59 09 c8 bb
       -0.034856286 0.030557219 -0.0016941086 -0.00610463
000120 c7 15 35 bb eb c0 50 3d 5d 63 6a 3c 41 0b a9 bb
       -0.0027631389 0.05096523 0.014305917 -0.0051588123
000130 bd 62 f6 3c e2 31 03 bd 18 8e dc 3c 56 58 b8 ba
       0.030076379 -0.032029994 0.026923224 -0.0014064412
000140 7f f3 9b 3c b5 bc 2e 3d f6 fd ff bb 2e 54 c3 3c
       0.019037006 0.042660434 -0.007812257 0.023843851
000150 65 5a 6c 3c 37 f3 3e 3c 10 cd 33 3d fd 79 09 3d
       0.014425849 0.011654667 0.043896735 0.033563603
000160 f0 f9 04 3d 9b 73 ff bb 11 43 d0 bc 4e db ac bc
       0.03246492 -0.0077957637 -0.025422605 -0.021100666
000170 4d 99 86 3c 6f 90 96 bc 2a 0f c4 3c 52 c0 27 bc
       0.016430521 -0.018379418 0.023933012 -0.010238724
000180 5b a8 79 bc 25 76 ca bc dd ab 17 3d 33 3e 31 bc
       -0.015237893 -0.024714539 0.037029136 -0.010818052
000190 ab ac 97 ba de 52 87 39 11 c0 ac 3c 13 52 81 bb
       -0.0011571845 0.00025810947 0.021087678 -0.0039465516
0001a0 41 77 e9 3c 5a d4 bf 3a 75 91 0b bd 9b 31 4a bc
       0.028499248 0.0014635429 -0.034074266 -0.012340928
0001b0 79 57 6e bc 65 c7 c8 bb 07 e9 0b bd 57 cd 74 bc
       -0.014547222 -0.0061272853 -0.03415778 -0.014941535
0001c0 17 f9 b5 3b 16 59 51 bd 47 db ad 3c c9 70 91 bc
       0.0055533755 -0.05111035 0.021222724 -0.017753975
0001d0 de b8 a4 bc ab 19 4a bd a7 b5 ac 3c 43 3a 8f bc
       -0.020107683 -0.049340885 0.021082712 -0.017483836
0001e0 3e fb 81 bd 0d 48 24 bd 22 ef d9 3c 90 2b f4 3b
       -0.06346749 -0.040107775 0.026603285 0.007451482
0001f0 76 70 b7 3b 01 93 58 3b 07 17 a9 bc cc 71 9d bc
       0.005598123 0.0033046606 -0.020640863 -0.019219302
