experiments/exp049_clean_ppo/best_model.pt (torch, 515317 bytes, 18 tensors)

actor.0.weight f4 [128, 107]
0	0xbed640fa	-0.41846448
1	0x3b73377a	0.0037111924
2	0xbe8fe2a0	-0.2810259
3	0xbded893a	-0.115984395
4	0xbcfb9c6e	-0.03071424
5	0xbd93fd85	-0.072260894
6	0x3ea76e65	0.32701412
7	0xbd929b47	-0.07158523
8	0x3c229811	0.009923951
9	0xbc82aa08	-0.015950218
10	0x3d03749c	0.03209363
11	0xbdcb8cce	-0.09938966
12	0x3b93db55	0.0045122304
13	0xbda874dd	-0.08225415
14	0x3d88bedf	0.06677031
15	0xbcd9c409	-0.026582735
16	0x3d3c9992	0.046044894
17	0xbd7072cb	-0.058703225
18	0x3cf66baa	0.030080635
19	0x3d456f1a	0.048201658
20	0x3d965e30	0.073421836
21	0xbd3fba56	-0.046808563
22	0xbceb47dd	-0.02872079
23	0x3d3f9c22	0.04677976
24	0xbd7faf98	-0.06242332
25	0xbc0afadf	-0.008482664
26	0x3d26ec69	0.040752802
27	0x3cefa823	0.029254979
28	0x3daaaf81	0.08334256
29	0x3dbd6acb	0.09248885
30	0xbb8bd0be	-0.0042668274
31	0x3cd02d2c	0.025412165
32	0xbcdb93a1	-0.026803793
33	0x3d2f10ff	0.042740818
34	0xb9ab6d33	-0.0003269702
35	0xbd01e345	-0.03171088
36	0xbca2af0b	-0.019858858
37	0xbd329037	-0.043594565
38	0xbd9feeb9	-0.078092046
39	0x3d67a326	0.056552075
40	0x3d0b8bf4	0.034069017
41	0xbd81a7f5	-0.063308634
42	0xbca01609	-0.019541757
43	0xbce74c20	-0.028234541
44	0x3d05592d	0.032555748
45	0xbc1bac28	-0.0095014945
46	0x3da44b0d	0.08022127
47	0x3d0f1988	0.034936458
48	0xbdd54346	-0.10413222
49	0xbcdbdae8	-0.026837781
50	0x3bea304c	0.0071468707
51	0xbdbc0d65	-0.09182242
52	0x3d5ab0c4	0.053391233
53	0xbb09c053	-0.0021019175
54	0x3cf1aadf	0.029500423
55	0xbd2b3b17	-0.0418044
56	0x3c3d2b14	0.011545915
57	0xbcd4e17c	-0.025986426
58	0x3dd74af8	0.10512346
59	0x3dbf5afb	0.09343525
60	0x3d0f29f9	0.034952138
61	0xbd948006	-0.07250981
62	0xbd0d0868	-0.034431845
63	0xbdac5c14	-0.08416
64	0xbc984ff4	-0.018592812
65	0xbcc299de	-0.02375501
66	0xbd7a40cf	-0.061096963
67	0x3d25a210	0.040437758
68	0x3e51d9b6	0.20493206
69	0x3e6b92d5	0.2300523
70	0x3d6573d7	0.056018677
71	0x3bb28cdd	0.005448921
72	0xbd8ea6cd	-0.069654085
73	0x3d91726d	0.07101903
74	0x3bea7e14	0.007156143
75	0xbae44356	-0.0017415087
76	0x3e1a8e00	0.15093231
77	0x3e4036ad	0.18770857
78	0x3dcb94de	0.099405035
79	0xbdfd7110	-0.123750806
80	0xbe06fe97	-0.13183056
81	0x3db2d829	0.087326355
82	0xbcee13ff	-0.02906227
83	0xbde6b505	-0.112649955
84	0xbe31830d	-0.17335148
85	0xbe9034d8	-0.28165317
86	0xbdffc830	-0.124893546
87	0xbdcf5ac1	-0.10124732
88	0xbd89dd7b	-0.06731697
89	0x3d1f8d6c	0.03895323
90	0xbda8918b	-0.08230885
91	0xbc82c310	-0.015962154
92	0xbc52fa5a	-0.012877071
93	0x3e1b696a	0.15176931
94	0x3d62ece0	0.055401683
95	0xba3e5ed1	-0.00072620536
96	0xbdaa8bc3	-0.08327439
97	0x3cfa665f	0.030566392
98	0xba95edc9	-0.0011438663
99	0xbd7bc28c	-0.06146483
100	0x3dccd8ea	0.100023106
101	0x3e812aac	0.2522787
102	0xbcc00f6c	-0.023444854
103	0xbd9e369e	-0.07725261
104	0xbe0121a1	-0.12610485
105	0xbde52adf	-0.11189818
106	0xbd81dbfe	-0.06340788
107	0x3ece0bc8	0.40243363
108	0xbe09d594	-0.1346038
109	0x3d661dd1	0.05618078
110	0x3c18fa95	0.009337087
111	0xbe1ad159	-0.15118922
112	0x3d9f713d	0.0778527
113	0xbe8236a2	-0.25432307
114	0x3be7a84e	0.007069624
115	0x3c7f7d4a	0.015593836
116	0xbd958ce3	-0.07302263
117	0xbdde9ca9	-0.10869724
118	0xbc97d8e0	-0.018536031
119	0x3d8ce909	0.068803854
120	0xbcd90f84	-0.026496656
121	0x3d8ef315	0.06979958
122	0x3d0f2137	0.034943786
123	0x3cb7b5b3	0.022425508
124	0x3d1687e7	0.0367507
125	0x3c8fd185	0.017555961
126	0x3c68ffcb	0.014221142
127	0x3d93729b	0.07199594
128	0xbd3a86fc	-0.045538887
129	0xbc8b6004	-0.017013557
130	0x3c339872	0.010961639
131	0xb7f4907c	-2.9154347e-05
132	0xbdb17756	-0.0866534
133	0x3d3942e1	0.045229796
134	0xbd9243c4	-0.071418315
135	0xbd21e4ba	-0.03952477
136	0x3cef9617	0.029246373
137	0xbcced3ee	-0.02524754
138	0x3d0e56a2	0.03475059
139	0x3dd87e6d	0.10570989
140	0x3ba5e9d2	0.005063274
141	0x3cff2ef7	0.031150324
142	0xbc66adbc	-0.014079507
143	0x3dad4bab	0.08461698
144	0x3d99a071	0.07501305
145	0xbd98103d	-0.07424972
146	0xbd90f774	-0.07078448
147	0x3cbbfcab	0.02294763
148	0x3d68bbda	0.056819774
149	0xbc84a083	-0.01618982
150	0x3da31023	0.07962062
151	0xbca4b132	-0.020104025
152	0xbda6604c	-0.08123836
153	0x3d852d71	0.06502808
154	0xbc0d1363	-0.008610579
155	0xbb358fcc	-0.0027704118
156	0x3b6a03d1	0.003570784
157	0x3d3f3439	0.046680663
158	0xbd95ee4d	-0.07320843
159	0xbd2eac8f	-0.042645033
160	0xbddebc8c	-0.10875806
161	0x3d6dff8d	0.05810504
162	0xbda13b6c	-0.07872662
163	0x3d3f779d	0.04674493
164	0xbbbf3415	-0.005835066
165	0xbcb78c6d	-0.022405827
166	0xbdbdb579	-0.09263129
167	0x3ded402c	0.115845054
168	0x3cd3ac16	0.025838893
169	0x3e10eab5	0.14152034
170	0x3e7c2ca8	0.2462641
171	0x3dbbfae5	0.09178714
172	0xbceef0ad	-0.029167498
173	0x3d3be992	0.045877047
174	0x3c950dd5	0.018195072
175	0x3d48e7a4	0.049049035
176	0xbdc21584	-0.0947676
177	0xbd8e6531	-0.069528945
178	0x3da5c84c	0.08094844
179	0xbdbdcdd9	-0.09267778
180	0xbdc9d05c	-0.098541945
181	0xbe689c2d	-0.22715826
182	0xbe2fb6e2	-0.17159608
183	0xbe07ee14	-0.13274413
184	0x3e335bba	0.1751546
185	0x3e2305ee	0.15920231
186	0x3e9e59ac	0.3092779
187	0x3e045b94	0.1292556
188	0xbca0bbd0	-0.019620806
189	0x3d26bbcc	0.04070644
190	0x3dd74f96	0.10513227
191	0xbd143373	-0.03618188
192	0x3dab2955	0.08357493
193	0x3c13b4c7	0.009015269
194	0xbe4744f8	-0.19459903
195	0xbd9b6554	-0.07587686
196	0x3adcb6b2	0.0016839115
197	0x3e608f60	0.21929693
198	0x3dcf5dab	0.101252876
199	0xbdfbc64b	-0.12293681
200	0xbe2067bc	-0.15664572
201	0xbdb2e1ce	-0.08734475
202	0x3d905b31	0.070486434
203	0x3e08bd35	0.13353427
204	0x3d4b8318	0.049685568
205	0x3ca64907	0.020298494
206	0xbc49e2c2	-0.01232213
207	0xbdc20df8	-0.094753206
208	0xbe1c7e42	-0.15282539
209	0x3c45aa56	0.012064537
210	0x3de325a0	0.11091161
211	0x3d616410	0.055027068
212	0x3d67774f	0.056510266
213	0xbd96454e	-0.073374376
214	0x3ed44ff7	0.41467258
215	0x3dd8c950	0.10585272
216	0x3eaf84a9	0.342809
217	0xbde5f154	-0.1122767
218	0x39cdaf01	0.00039231035
219	0x3daef1de	0.08542226
220	0xbe410e88	-0.188532
221	0x3cc47de4	0.02398581
222	0xbd258ada	-0.040415622
223	0x3da0eb49	0.07857377
224	0xba2d1425	-0.0006602428
225	0x3da206e3	0.0791147
226	0x3cb5b3fb	0.022180548
227	0x3dd1a470	0.10236442
228	0xbd3eb01f	-0.04655468
229	0x3d9d3fa6	0.076781556
230	0xbc220998	-0.009889983
231	0xbc7e8a6d	-0.015535933
232	0xbc355186	-0.0110668
233	0x3c436e60	0.011928171
234	0x3aac1729	0.0013129461
235	0xbd38d5a5	-0.045125622
236	0xbdc1f95c	-0.0947139
237	0xbd9b8af4	-0.075948626
238	0x3d628205	0.055299778
239	0x3cb18482	0.02166963
240	0x3d20443d	0.039127577
241	0xbcefa8d7	-0.029255314
242	0xbd0f273f	-0.034949537
243	0xbd1bb11b	-0.038010698
244	0x3d049b70	0.0323748
245	0x3c10dba6	0.008841431
246	0xbdecd249	-0.11563546
247	0xbdb23db5	-0.08703176
248	0xbc886fde	-0.016654905
249	0x3b11b0fd	0.0022230737
250	0x3d6b76b0	0.057486236
251	0x3d959fa8	0.07305843
252	0x3cd6fd56	0.026243847
253	0x3cb498de	0.022045549
254	0xbdb659b8	-0.08903831
255	0x3d56f1c5	0.052476663

actor.0.bias f4 [128]
0	0xbd16dfdf	-0.036834594
1	0xbd16945f	-0.03676259
2	0xbdfef032	-0.12448157
3	0xbe05bf13	-0.1306117
4	0xbe8a1607	-0.2696993
5	0x3d522d8d	0.05131297
6	0xbd7ce083	-0.06173755
7	0x3d536116	0.05160626
8	0x3c8637fc	0.016384117
9	0xbd23a980	-0.03995657
10	0xbe455240	-0.19269657
11	0x3bbd27d0	0.0057725683
12	0x3ab0b660	0.0013482086
13	0x3e3479ca	0.17624584
14	0xbd8a1575	-0.06742374
15	0xbb827893	-0.0039816587
16	0x3d8934e9	0.06699545
17	0xbcae2458	-0.021257564
18	0x3d25b0bb	0.040451746
19	0xbe1f3025	-0.1554571
20	0x3da1f254	0.079075485
21	0x3e2b5785	0.16732605
22	0x3ccc9fa1	0.02497846
23	0xbd985a8e	-0.07439147
24	0xbe467bd3	-0.19383173
25	0xbc96db27	-0.018415047
26	0xbe1d353a	-0.15352336
27	0xbe15539c	-0.14582676
28	0x3d95c98c	0.07313833
29	0x3cbc9c5a	0.023023773
30	0xbe8ea356	-0.2785899
31	0xbe8cd395	-0.27505174
32	0xbe1a048f	-0.15040801
33	0xbd718cf0	-0.0589723
34	0x3e0e6b57	0.13908134
35	0x3dc66576	0.09687321
36	0xbdcd3daa	-0.10021527
37	0x3d80dccd	0.062921144
38	0x3d8fab76	0.070151255
39	0xbe4b3b6f	-0.19846891
40	0xbda9392d	-0.082628585
41	0xbd01baf3	-0.03167243
42	0x3de71c00	0.112846375
43	0xbde6cb9a	-0.11269303
44	0x3d25ff60	0.040526748
45	0xbd8bb792	-0.06822123
46	0xbe2f00ca	-0.17090145
47	0x3dd64609	0.10462577
48	0xbce70d9a	-0.028204728
49	0x3d1be249	0.0380576
50	0x3d57fffb	0.052734356
51	0xbdc110c3	-0.09427025
52	0xbdca6d60	-0.09884143
53	0xbdc28429	-0.09497864
54	0xbdf83748	-0.12119919
55	0xbdb73cdc	-0.08947155
56	0xbdfdf6e3	-0.124006055
57	0xbdc4e46c	-0.096138805
58	0x3cf7ffe9	0.030273395
59	0x3e02ed66	0.12785873
60	0x3adc2440	0.0016795471
61	0xbd74cf28	-0.059767872
62	0xbd4b29dc	-0.049600467
63	0xbe9e66e2	-0.30937868
64	0x3da75fc1	0.081725605
65	0x3d84b02f	0.06478917
66	0x3dc2ff16	0.0952131
67	0x3d8310bb	0.063996755
68	0xbd28e2b2	-0.04123182
69	0xbe3fdf94	-0.18737632
70	0xbe1249f6	-0.14286026
71	0x3d9970ad	0.07492194
72	0xbdcbe6e8	-0.09956151
73	0x3df6fe6c	0.12060246
74	0xbde50f44	-0.11184552
75	0xbe2052b6	-0.15656552
76	0xbd02c46a	-0.031925596
77	0xbdfdaed7	-0.12386864
78	0x3d9949ae	0.074847564
79	0xbb5c06da	-0.003357342
80	0xbe80f288	-0.25185037
81	0x3d67d705	0.056601543
82	0x3d290add	0.041270126
83	0xbc22e024	-0.009941135
84	0xbd8324c4	-0.06403497
85	0xbd07a830	-0.03311938
86	0xbe2c2891	-0.1681235
87	0xbe80ce72	-0.25157505
88	0x3d1b507b	0.03791855
89	0xbdf46f26	-0.119352624
90	0xbdaf1b31	-0.08550108
91	0xbe0610f4	-0.13092405
92	0xbe429fe3	-0.19006304
93	0x3e569f7d	0.20959277
94	0xbe052311	-0.13001658
95	0x3df3cd75	0.11904422
96	0x3dd52e78	0.10409254
97	0xbd113b81	-0.035457138
98	0x3d0f5a76	0.03499838
99	0x3d2982eb	0.04138462
100	0xbbf6eef5	-0.00753581
101	0x3d2905d1	0.041265313
102	0x3db4e2ec	0.088323444
103	0xbe548d83	-0.20757107
104	0xbdb88c96	-0.0901119
105	0x3dfa1abb	0.1221213
106	0xbd4c3063	-0.049850833
107	0xbd9f0873	-0.077652834
108	0xbc16b24d	-0.009197784
109	0xbe83896c	-0.25690782
110	0x3d86d66f	0.06583869
111	0x3d42c513	0.047551226
112	0x3da242ec	0.079229206
113	0x3d2c5f4b	0.042083066
114	0xbcb93687	-0.022609008
115	0x3c47e5db	0.012200798
116	0xbcc95fad	-0.024581755
117	0x3c671014	0.014102954
118	0x3e076315	0.1322139
119	0x3db7fb23	0.089834474
120	0xbddb8641	-0.10718966
121	0x3b6967ed	0.0035614923
122	0x3c9060e7	0.017624332
123	0xbd22136b	-0.0395693
124	0x3d919a44	0.07109502
125	0xbe03ecbc	-0.12883276
126	0x3e0143df	0.12623547
127	0x3db6021e	0.088871226

actor.2.weight f4 [128, 128]
0	0xbd886d99	-0.06661529
1	0x3d836cae	0.064172134
2	0x3cd1e12d	0.025620067
3	0x3c3d6f97	0.01156225
4	0xbd5d3588	-0.05400613
5	0x3da907a7	0.08253413
6	0x3d94d8dc	0.07267925
7	0xbdbed47d	-0.09317873
8	0xbd8dfc3d	-0.06932876
9	0x3d1321b4	0.035920814
10	0xbe61f4b5	-0.22066005
11	0xbdb01118	-0.085970104
12	0x3d8eb295	0.069676556
13	0x3c766169	0.015037873
14	0x3dbfeda0	0.09371495
15	0xbd3f844f	-0.04675704
16	0xbdb3a243	-0.08771183
17	0x3daacb80	0.08339596
18	0xbd577bc7	-0.052608278
19	0x3d59ca71	0.05317158
20	0xbd19e803	-0.03757478
21	0x3d8b5320	0.06802964
22	0xbce7b31d	-0.02828365
23	0xbded1318	-0.115759075
24	0xbd890512	-0.0669042
25	0x3e0af83c	0.13571256
26	0xbe174555	-0.14772542
27	0x3cec7a7c	0.028866999
28	0xbd4a0eb0	-0.049330413
29	0xbd5e0b7b	-0.054210167
30	0x3d3aeb4b	0.04563455
31	0x3dfd2298	0.12360114
32	0x3cef5026	0.029213022
33	0xbe568827	-0.20950375
34	0xbd6c4687	-0.057684448
35	0x3d8f6cf2	0.070032015
36	0x3dc5abbb	0.096518956
37	0x3dda1961	0.10649372
38	0x3cecbcf2	0.02889869
39	0xbdc5b2ce	-0.09653245
40	0x3db77d5a	0.08959456
41	0xbb616792	-0.0034394008
42	0xbd9b5d13	-0.07586112
43	0xbd0fb54a	-0.035085
44	0x3d16afb5	0.03678866
45	0x3c340b1a	0.010988975
46	0xbd01f8f5	-0.031731565
47	0xbd89b8b6	-0.06724684
48	0xbc923b0a	-0.017850418
49	0xbe02c30f	-0.12769721
50	0x3d7b3e2b	0.061338585
51	0xbd06d7b1	-0.032920543
52	0xbe0a890f	-0.13528846
53	0xbce58b0b	-0.028020402
54	0xbd71aa31	-0.059000198
55	0x3c9e393e	0.019314405
56	0x3d60deae	0.054899864
57	0x3ba243b2	0.0049519176
58	0x3b5a3b32	0.0033299443
59	0xbc57223f	-0.0131307235
60	0x3bade7c3	0.005307169
61	0x3cf24afa	0.029576767
62	0xbe072a6e	-0.1319978
63	0x3df71d7d	0.12066171
64	0xbca53247	-0.020165576
65	0xbb8d0b58	-0.004304331
66	0x3bb41877	0.0054960805
67	0xbd58dec0	-0.052946806
68	0xbc46b373	-0.012127745
69	0x3cedcf7f	0.029029606
70	0x3ccd8dd1	0.025092037
71	0xbc603e61	-0.013686747
72	0xbde14233	-0.109989546
73	0x3d861741	0.06547404
74	0xbe2f3af5	-0.17112334
75	0x3c8edb22	0.017438475
76	0x3d0f9792	0.035056658
77	0x3d8123de	0.06305669
78	0xbddd1840	-0.10795641
79	0x3c744828	0.0149097815
80	0x3db72b3f	0.089437954
81	0xbd4367f8	-0.047706574
82	0x3e0a80eb	0.13525741
83	0xbd9b3082	-0.075776115
84	0x3c9d37a4	0.01919157
85	0xbad2f328	-0.0016094195
86	0xbdeee975	-0.11665622
87	0xbd462005	-0.04837038
88	0xbd2d2760	-0.04227388
89	0xbd150c3a	-0.036388613
90	0xbda3ea63	-0.0800369
91	0x3d6393fa	0.055561043
92	0x3d31479f	0.043281194
93	0xbe455575	-0.1927088
94	0xbdd1846c	-0.102303356
95	0xbdae4f87	-0.085112624
96	0x3d12abde	0.035808437
97	0xbce0503a	-0.027382005
98	0x3dcb5f7a	0.0993032
99	0xbd768233	-0.06018276
100	0xbce1e8a7	-0.027576758
101	0x3ce05b99	0.027387427
102	0x3e0452a8	0.12922156
103	0xbd2a8554	-0.041631058
104	0xbcdfca07	-0.027318014
105	0xbe1deb0d	-0.15421696
106	0x3d63c826	0.0556108
107	0xbd5b5aa5	-0.053553242
108	0xbd280305	-0.041018505
109	0xbcf47cd6	-0.029844683
110	0x3d1d6aaf	0.03843182
111	0xbdb871eb	-0.09006103
112	0xbc8ade8b	-0.01695182
113	0xbd8824ed	-0.06647668
114	0xbd10d38a	-0.03535799
115	0x3e02230c	0.12708682
116	0x3ddf74e2	0.109109655
117	0x3e2a84e6	0.16652259
118	0x3d0fdfaf	0.03512543
119	0xbe695890	-0.2278769
120	0x3d7a51e3	0.06111325
121	0xbd9b3504	-0.07578471
122	0x3da104d0	0.07862246
123	0xbde8bf29	-0.11364586
124	0xbdf5933b	-0.119909726
125	0xbdd1109f	-0.10208248
126	0xbd7f5548	-0.06233719
127	0xbd6d85cc	-0.057988927
128	0xbd77829f	-0.060427304
129	0x3d6a2d8b	0.05717234
130	0xbd5217cc	-0.051292226
131	0x3d7864dd	0.060643066
132	0xbd8e1720	-0.069380045
133	0x3c313fef	0.010818466
134	0xbd21ef13	-0.03953464
135	0xbd8073b5	-0.06272069
136	0xbd952002	-0.07281496
137	0x3e1f997a	0.1558589
138	0xbd9769b9	-0.07393212
139	0xbc063e6b	-0.008193593
140	0x3ce2006d	0.027588094
141	0x3c995e3b	0.01872169
142	0x3db146ec	0.086561054
143	0x3ccb861d	0.024844224
144	0xbd9b4e91	-0.07583345
145	0xbc690978	-0.014223449
146	0x3e006548	0.12538636
147	0xbd0d9640	-0.034567118
148	0x3d9616b7	0.07328551
149	0xbe1a77cf	-0.15084766
150	0xbe19ac27	-0.15007077
151	0x3d7abc16	0.06121453
152	0xbd61236c	-0.05496542
153	0x3cf1b06b	0.029503068
154	0xbd1712e2	-0.036883242
155	0xbd059b2a	-0.03261868
156	0x3dabb24c	0.08383617
157	0xbe0fda95	-0.14048226
158	0x3b4dcada	0.0031401427
159	0xbde92239	-0.113834806
160	0xbc871a43	-0.016492015
161	0xbd8b0899	-0.06788749
162	0xbd45d61e	-0.0482999
163	0xbd2d714d	-0.04234438
164	0xbcce409b	-0.02517729
165	0xbe250914	-0.16116744
166	0x3d4c6257	0.04989847
167	0x3de53ff2	0.11193837
168	0x3cf4dfa0	0.029891789
169	0xbc92cc84	-0.017919786
170	0x3d9e2c27	0.07723265
171	0x3d61d600	0.055135727
172	0xbd9af4be	-0.07566212
173	0x3c4ee311	0.012627379
174	0xbd178307	-0.03699019
175	0xbd322b5e	-0.04349839
176	0xbde26f53	-0.1105639
177	0xbd728177	-0.0592055
178	0xbd1c5572	-0.038167424
179	0x3c26c932	0.010179805
180	0xbe136500	-0.14393997
181	0x3d34bbd9	0.044124458
182	0xbd8f15b1	-0.06986559
183	0xbd28cf48	-0.041213304
184	0xbc8c205a	-0.01710527
185	0x3dc3c60d	0.095592596
186	0xbc893bd1	-0.016752155
187	0x3d86c1d5	0.06579939
188	0x3dfd56fb	0.12370106
189	0xbdfdf6f8	-0.12400621
190	0xbd195c71	-0.037441675
191	0xbcd0e375	-0.025499085
192	0xbe08f1db	-0.1337351
193	0x3c96412c	0.018341623
194	0xbcf51525	-0.029917309
195	0xbd6a51b4	-0.057206824
196	0xbd07659b	-0.033055883
197	0x3d36ac09	0.04459766
198	0xbe5e12b0	-0.21686816
199	0x3ce79a59	0.02827184
200	0xbe27a8ad	-0.16372938
201	0xbd285a26	-0.041101597
202	0x3def6083	0.1168833
203	0x3be29d5f	0.0069157328
204	0x3c2edc52	0.010672646
205	0xbd1314ca	-0.035908498
206	0x3d14b626	0.036306523
207	0xbd9e5961	-0.077318914
208	0xbe250c22	-0.1611791
209	0xbdcdce05	-0.10049061
210	0x3cfa2882	0.030536894
211	0x3d0bca2b	0.03412835
212	0xbc3f87ab	-0.011690061
213	0x3d9a18b9	0.07524247
214	0xbcc17927	-0.02361734
215	0xbde06120	-0.10956025
216	0x3d8531d3	0.06503644
217	0xbd79d66d	-0.060995508
218	0x3bbbe506	0.005734089
219	0xbd843d9b	-0.06457063
220	0xbd8b5a83	-0.06804373
221	0xbdbd867a	-0.09254165
222	0x3c64c96e	0.01396404
223	0xbdee566a	-0.11637576
224	0xbe102643	-0.14077096
225	0xbd667ccb	-0.056271356
226	0xbd165667	-0.036703493
227	0x3dd64341	0.104620464
228	0xbdf609ee	-0.12013613
229	0x3d07c131	0.033143226
230	0xbe0ceeeb	-0.13763015
231	0x3d1fd954	0.03902562
232	0xbda18780	-0.07887173
233	0xbcd95c83	-0.02653337
234	0xbd802566	-0.06257133
235	0xbdf17ead	-0.117917396
236	0xbe0f2b1d	-0.1398129
237	0xbe573cc0	-0.21019268
238	0xbdb45f29	-0.08807213
239	0x3c4dbf1a	0.012557769
240	0x3d9ac50e	0.075571164
241	0x3d18cdaf	0.03730553
242	0x3d80e8b1	0.06294382
243	0xbd6dc38a	-0.05804781
244	0x3d6787a3	0.056525838
245	0x3c99bcce	0.018766787
246	0xbe3aba45	-0.18235119
247	0xbd4f2899	-0.050575826
248	0x3deac8f1	0.11464108
249	0xbe21c13b	-0.15796368
250	0xbd9f3dc1	-0.077754505
251	0x3df68ed1	0.12038959
252	0x3d160f51	0.0366357
253	0xbdea1515	-0.11429802
254	0xbd824314	-0.063604504
255	0x3cb4172f	0.021983711

actor.2.bias f4 [128]
0	0xbe1a9d1c	-0.15098995
1	0xbdd16708	-0.1022473
2	0x3ce94949	0.028477328
3	0xbde72cb9	-0.11287827
4	0xbc33a742	-0.01096517
5	0xbda2a120	-0.079408884
6	0x3b8aebf2	0.0042395527
7	0x3d73540f	0.059406336
8	0xbdf48178	-0.11938757
9	0x3dd84b14	0.10561195
10	0xbd4a3b0b	-0.049372714
11	0x3da29592	0.079386845
12	0x3ddcc12c	0.10779032
13	0xbdd0340c	-0.10166177
14	0xbdb15f71	-0.08660782
15	0x3c43e220	0.011955768
16	0x3dd870fc	0.10568425
17	0x3e00a64c	0.12563437
18	0xbc43eae8	-0.0119578615
19	0xbdbacd28	-0.09121162
20	0x3dd14e7d	0.102200486
21	0x3bb6d0f1	0.005579107
22	0x3d214bab	0.039378803
23	0xbd9ff572	-0.07810487
24	0x3de60e3d	0.112331845
25	0xbd1cdd13	-0.03829677
26	0xbd92c4d6	-0.0716645
27	0x3d385c86	0.045010112
28	0x3e02667c	0.12734407
29	0x3df04049	0.117310114
30	0xbdb8c747	-0.09022384
31	0xbde63853	-0.11241212
32	0xbe442066	-0.19152984
33	0xbdbd27e8	-0.09236127
34	0xbd0ef364	-0.034900084
35	0x3dc0bc89	0.0941096
36	0xbe1aa98f	-0.15103744
37	0xbd910617	-0.0708124
38	0xbd38476e	-0.044989996
39	0x3d64bceb	0.05584423
40	0x3e110670	0.14162612
41	0xbd1e32ab	-0.03862254
42	0xbe07a87b	-0.13247864
43	0x3d16559e	0.036702745
44	0x3d92b953	0.07164254
45	0xbdcec0cf	-0.10095369
46	0x3d0165ae	0.03159111
47	0xbd95ffa2	-0.07324149
48	0xbdee7f81	-0.11645413
49	0xbd94a4b1	-0.07257975
50	0xbdd8999d	-0.105761744
51	0xbdb26396	-0.08710401
52	0x3d3f9add	0.04677855
53	0x3d965e47	0.07342201
54	0xbc93125a	-0.017953087
55	0x3d6102e9	0.054934416
56	0x3cb415db	0.021983078
57	0xb9c154ee	-0.00036875106
58	0xbe1e0019	-0.15429725
59	0xbd83eb32	-0.06441344
60	0x3db7aef2	0.08968915
61	0xbdacb7b3	-0.08433475
62	0xbdbf48cd	-0.093400575
63	0x3c18f66e	0.009336097
64	0xbd589a7f	-0.052881714
65	0xbe06cfd9	-0.13165225
66	0xbe0f6cd9	-0.14006366
67	0x3a8b6311	0.0010634382
68	0xbe56e8ba	-0.20987216
69	0xbe5b83c9	-0.21436991
70	0x3cf8db66	0.030378055
71	0x3c4c96f3	0.012487161
72	0xbd345352	-0.044024773
73	0xbcf671d7	-0.03008358
74	0xbce81e8f	-0.028334884
75	0x3d8a98bd	0.06767414
76	0x3d1c3270	0.03813404
77	0x3d859f2d	0.06524501
78	0xbc95bde6	-0.018279027
79	0xbdab9814	-0.08378616
80	0xbe270872	-0.16311815
81	0xbcf1971f	-0.029491005
82	0x3d060e1f	0.03272831
83	0x3e4b7b54	0.19871265
84	0xbd83419f	-0.064090006
85	0xbb232258	-0.0024892297
86	0xbd1bbc91	-0.038021628
87	0xbd80285e	-0.062576994
88	0x3d4d18d2	0.0500725
89	0x3c50863b	0.012727316
90	0xbbd19703	-0.006396176
91	0xbd389613	-0.045064997
92	0x3df19114	0.117952496
93	0xbdc27abf	-0.09496068
94	0x3dce17aa	0.10063107
95	0x3d8ae474	0.06781855
96	0x3db30b09	0.08742339
97	0x3d2ca0eb	0.04214565
98	0x3d4e45ab	0.05035941
99	0xbdc7f70e	-0.09763919
100	0xbd80c7c5	-0.06288103
101	0xbdd067b3	-0.10176029
102	0x3e022e20	0.12712908
103	0xbd2ab9a2	-0.04168094
104	0xbd8d0a3b	-0.06886717
105	0x3db742ee	0.08948313
106	0xbe2494f5	-0.16072448
107	0x3d50e6ca	0.051001348
108	0x3c4a9a2c	0.012365859
109	0xbe47834d	-0.19483681
110	0xbca18478	-0.019716486
111	0x3dcb13fa	0.099159196
112	0xbd91fcbf	-0.071282856
113	0xbc700029	-0.014648476
114	0x3dc2082d	0.09474216
115	0xbe8b684a	-0.27228004
116	0xbd8c50ad	-0.06851325
117	0xbce8c041	-0.028411986
118	0xbcd581ab	-0.026062807
119	0xbd794c1b	-0.060863595
120	0x3dc2fcf4	0.09520903
121	0x3e293600	0.16524506
122	0x3dfcb9f2	0.12340154
123	0xbd81b832	-0.063339606
124	0xbe154e77	-0.14580713
125	0xbba5de4d	-0.0050619007
126	0xbd5a4860	-0.05329168
127	0x3e2bc0cb	0.16772763

actor.4.weight f4 [128, 128]
0	0xbe24ea36	-0.1610497
1	0x3a328279	0.0006809603
2	0xbcc495e1	-0.02399725
3	0xbd1d8d7b	-0.038465004
4	0x3c47b694	0.012189526
5	0xbe58484d	-0.2112133
6	0xbe227f40	-0.15868855
7	0x3db08fdb	0.08621188
8	0xbdb4f820	-0.088363886
9	0xbd0bd844	-0.034141794
10	0x3cfcdaec	0.030866109
11	0x3de3d623	0.11124828
12	0x3dff91c9	0.12478978
13	0xbe810988	-0.25202584
14	0x3d44fe15	0.048093874
15	0x3e0e0db4	0.13872415
16	0xbd846280	-0.064641
17	0x3d40eb18	0.047099203
18	0xbe322b90	-0.1739943
19	0xbd9b4d93	-0.075831555
20	0xbccd7ff2	-0.025085423
21	0xbd13b8c0	-0.036064863
22	0x3d1e9247	0.03871372
23	0x3bcdb970	0.0062782094
24	0x3cc65554	0.02421061
25	0x3c5910f8	0.013248675
26	0xbd5fe8ce	-0.05466538
27	0xbd77d76f	-0.060508188
28	0x3dded9f9	0.10881419
29	0xbd9c9c40	-0.0764699
30	0x3d764b7a	0.060130574
31	0xbe3c6952	-0.18399552
32	0x3d4e86f9	0.05042169
33	0x3b892c55	0.004186193
34	0xbd676bff	-0.056499477
35	0x3d1bcf6a	0.038039602
36	0xbdc4fa97	-0.09618109
37	0xbdde1ef6	-0.10845749
38	0x3d2bc435	0.041935164
39	0xbacd75f8	-0.0015675416
40	0x3d6520ea	0.055939592
41	0x3dbabb7c	0.09117791
42	0xbd2621d6	-0.040559612
43	0x3cc55afe	0.02409124
44	0x3b6f7b7a	0.0036542104
45	0xbc8e3ff3	-0.017364478
46	0xbe057825	-0.13034113
47	0x3da27e9a	0.079343036
48	0xbd9c6b2f	-0.07637631
49	0x3d2f2871	0.042763177
50	0x3c48e512	0.012261646
51	0xbdcdd02e	-0.10049473
52	0x3e062078	0.13098323
53	0x3d975647	0.07389503
54	0x3e83f551	0.257731
55	0x3d818251	0.06323684
56	0x3b893299	0.00418694
57	0xbd4918fb	-0.04909609
58	0xbd0103b2	-0.031497665
59	0xbd4a3649	-0.049368177
60	0xbdaf35ef	-0.08555209
61	0xbe05f119	-0.13080253
62	0x3cd8d360	0.026467979
63	0x3d0954ce	0.03352814
64	0xbd84846e	-0.064705715
65	0xbd0ed332	-0.03486938
66	0x3d8978c6	0.06712489
67	0x3d96ef5e	0.073698744
68	0xbe2a1e17	-0.16613041
69	0xbd1fc172	-0.039002843
70	0xbc988800	-0.018619537
71	0xbc7992cf	-0.015232756
72	0x3d4e1039	0.05030844
73	0x3d26b835	0.040703017
74	0x3e9be7df	0.3045034
75	0xbdd870da	-0.105684
76	0xbcfc5b75	-0.030805329
77	0x3a6fd276	0.00091484876
78	0x3e2588ef	0.16165517
79	0x3d64555b	0.055745464
80	0xbdea72a9	-0.11447651
81	0xbcac1b88	-0.021009222
82	0xbde2c810	-0.11073315
83	0x3cd28778	0.025699362
84	0xbde0ac69	-0.10970385
85	0xba76014f	-0.000938435
86	0x3be30a8d	0.006928748
87	0xbda3cce0	-0.07998061
88	0x3c785f07	0.015159375
89	0xbcdfcffd	-0.027320856
90	0xbd42faf3	-0.047602605
91	0x3c1c36db	0.009534563
92	0x3e27e123	0.16394477
93	0x3c7ca284	0.015419606
94	0xbd31722d	-0.043321777
95	0xbd0b1d85	-0.0339637
96	0x3d65eba4	0.056132928
97	0x3e004759	0.12527217
98	0xbdb75757	-0.08952206
99	0xbd07dd8b	-0.033170264
100	0xbdac4c98	-0.084130466
101	0xbd913e70	-0.07091987
102	0xbd33057d	-0.043706406
103	0x3d0996eb	0.033591192
104	0xbbfdb6c4	-0.0077427346
105	0xbda60405	-0.081062354
106	0x3d132ee2	0.035933383
107	0xbba15f8f	-0.0049247216
108	0xbe18f057	-0.14935432
109	0xbdd0b4c0	-0.10190725
110	0x3d4b170b	0.049582522
111	0x3d5502e1	0.0520047
112	0xbd0b8882	-0.03406573
113	0xbe1db8d6	-0.1540254
114	0xbdf1a469	-0.11798937
115	0xbd0feecc	-0.035139844
116	0x3cbf105b	0.023323229
117	0x3d972ae4	0.073812276
118	0xbd8de67b	-0.06928726
119	0xbb6de3cf	-0.0036299115
120	0x3e151993	0.14560537
121	0xbe9d5585	-0.3072931
122	0x3d056c2c	0.032573864
123	0xbd828143	-0.06372311
124	0xbd46180c	-0.048362777
125	0xbd81afd1	-0.063323624
126	0xbe148cbe	-0.14506814
127	0x3ae66d44	0.0017580171
128	0x3e1cd5c3	0.15315919
129	0xbd1b8d85	-0.03797676
130	0xbd949984	-0.07255843
131	0xbd888b6c	-0.066672176
132	0x3d3f6b98	0.04673347
133	0xbe49519e	-0.1966004
134	0xbcf7b8ef	-0.03023955
135	0xbe0cfa8d	-0.13767453
136	0x3d00f843	0.03148676
137	0x3d8b3890	0.06797898
138	0xbd9e0190	-0.07715142
139	0x3e1e0d3b	0.15434735
140	0x3d103859	0.035209987
141	0x3db6bbcd	0.08922539
142	0x3bf882db	0.0075839586
143	0x3d3bc220	0.04583943
144	0x3c0e4fb1	0.008685992
145	0x3e026ca4	0.12736756
146	0x3d37f8fb	0.04491518
147	0xbdcb58f0	-0.09929073
148	0xbcb44c9b	-0.022009185
149	0x3e2de1fb	0.16980736
150	0x3de61919	0.11235256
151	0x3da8509d	0.08218501
152	0xbe3d13b4	-0.18464547
153	0x3d9f2471	0.077706225
154	0x3c2c4f5a	0.010516966
155	0x3d50031c	0.050784215
156	0x3d22abcb	0.039714616
157	0x3e0434ad	0.12910719
158	0xbd3bf58a	-0.04588846
159	0xbd9adcd6	-0.07561652
160	0xbb27706d	-0.0025549189
161	0xbc84c932	-0.016209219
162	0xbd54ef4d	-0.051986028
163	0xbd24c583	-0.040227424
164	0x3d9db8a9	0.07701237
165	0xbd06cd1a	-0.032910444
166	0x3ce9b3b4	0.028528072
167	0xbd68aaee	-0.056803636
168	0x3dbcf26c	0.09225926
169	0x3bb02252	0.005375185
170	0x3d63acfd	0.055584896
171	0x3c9e6c6f	0.019338815
172	0x3dfb017a	0.12256141
173	0xbcdcc7f9	-0.026950823
174	0xbd1dc689	-0.038519416
175	0x3cb42334	0.021989442
176	0x3de7f67e	0.113263115
177	0xbc1e5bb7	-0.009665421
178	0x3d83b972	0.06431855
179	0x3d7c6c37	0.06162664
180	0x3d9a9398	0.075476825
181	0xbd9fb233	-0.07797661
182	0xbd1f0830	-0.038826168
183	0xbbe7e1a6	-0.00707646
184	0x3d91f755	0.07127253
185	0xbc735862	-0.014852615
186	0x3ac93642	0.0015351253
187	0x3d9d47b1	0.0767969
188	0xbd091bb3	-0.03347368
189	0xbd825e19	-0.06365604
190	0x3cd9d3bc	0.02659022
191	0xbdf625dc	-0.1201894
192	0xbd78e4e3	-0.06076516
193	0xbcbde349	-0.023179667
194	0xbd22b4f5	-0.039723355
195	0xbd8e5e93	-0.06951632
196	0xbd1c5d6f	-0.038175043
197	0xbdd37e8f	-0.103268735
198	0x3d67864c	0.05652456
199	0x3d6a5115	0.057206232
200	0xbc8cb47c	-0.017175905
201	0xbc2b19c3	-0.010443154
202	0xbe3bf01d	-0.18353315
203	0x3d8e6a28	0.069538414
204	0xbbf65c9a	-0.007518363
205	0x3ddee2ff	0.1088314
206	0x3d1edd7a	0.038785435
207	0xbd572714	-0.052527502
208	0xbc514e76	-0.012775054
209	0x3dace11a	0.08441372
210	0x3d0580ed	0.032593656
211	0x3d9cf6c4	0.07664254
212	0x3e0e1829	0.13876404
213	0xbdd4838f	-0.10376655
214	0xbd64cffc	-0.05586241
215	0x3bfd60a4	0.0077324677
216	0x3da07f3f	0.0783677
217	0x3db35e7c	0.08758256
218	0x3d45ef8d	0.048324157
219	0xbd4bd296	-0.049761377
220	0xbd3b248d	-0.045689154
221	0xbdc5dfae	-0.09661804
222	0x3bc8d3b9	0.006128755
223	0x3d370308	0.044680625
224	0xbbf5d095	-0.0075016716
225	0xbccfc999	-0.025364684
226	0xbdfc11f5	-0.123081125
227	0x3dc2108f	0.094758146
228	0xbd97693b	-0.07393118
229	0xbc8be272	-0.017075751
230	0xbd806d77	-0.06270879
231	0xbd471210	-0.04860121
232	0xbdcd7a4e	-0.100330934
233	0xbd89831f	-0.067144625
234	0xbdf34b65	-0.11879615
235	0x3b6db8ac	0.0036273403
236	0x3cd20d10	0.025640994
237	0x3dc293e9	0.09500868
238	0xbd41c4ac	-0.0473067
239	0xbd610922	-0.05494035
240	0xbd9791e6	-0.07400875
241	0x3c1c63db	0.009545292
242	0xbcbab2be	-0.022790309
243	0xbe0f6f26	-0.14007244
244	0xbd927dc4	-0.07152894
245	0x3dcf574f	0.10124075
246	0xbdbddc56	-0.09270541
247	0x3d7253a0	0.059161782
248	0x3e019c26	0.12657222
249	0x3e261737	0.16219793
250	0x3dc407f6	0.09571831
251	0x3d2a1e5f	0.04153287
252	0xbbdae6df	-0.006680354
253	0x3d161294	0.03663881
254	0xbd9f1bad	-0.077689506
255	0xbd3efa02	-0.046625145

actor.4.bias f4 [128]
0	0x3e177960	0.14792395
1	0xbe060418	-0.13087499
2	0x3d1e5663	0.038656604
3	0xbe1c472b	-0.15261523
4	0xbd7e8acf	-0.062144097
5	0xbe1d3f6f	-0.15356229
6	0xbe2fccbb	-0.17167942
7	0xbd9e8db1	-0.07741869
8	0x3dd944ed	0.1060885
9	0xbe25a1fa	-0.1617507
10	0x3d80c41f	0.06287407
11	0x3de1bf55	0.11022822
12	0x3da32b1a	0.07967205
13	0xbe134efa	-0.14385596
14	0x3e0eac83	0.13932995
15	0xbdb74154	-0.08948007
16	0x3d7ac49c	0.061222658
17	0xbd9be0c3	-0.07611229
18	0xbd8dca2c	-0.06923327
19	0x3dda0cfa	0.10647006
20	0xbcc984c1	-0.024599435
21	0x3bbea7d8	0.0058183484
22	0x3d9af074	0.07565394
23	0xbd8a72a9	-0.06760151
24	0x3c430e6b	0.011905293
25	0x3ddd6132	0.10809554
26	0xbc3332d1	-0.010937409
27	0xbd0e18df	-0.034691688
28	0x3c7532fc	0.014965769
29	0x3bf76020	0.007549301
30	0xbe52e7e0	-0.20596266
31	0xbe04d58f	-0.12972091
32	0xbdb86178	-0.09002966
33	0x3cd8dbd9	0.026472019
34	0x3e048eae	0.12945053
35	0xbe459044	-0.19293314
36	0xbd155190	-0.036454737
37	0xbdbe5cd8	-0.09295052
38	0xbd6a8bfe	-0.057262413
39	0xbc5cf398	-0.013485812
40	0x3dc2f6b9	0.09519715
41	0x3e017990	0.12644029
42	0x3c6fbd2f	0.014632507
43	0x3da0ddd5	0.07854811
44	0xbe08c82f	-0.13357614
45	0xbbf52e0f	-0.0074822973
46	0xbdabf4c6	-0.08396296
47	0xbd70c5a3	-0.05878223
48	0xbd99ff13	-0.07519355
49	0xbe4c8165	-0.19971235
50	0x3db13d7b	0.086543046
51	0xbdc40adc	-0.09572384
52	0x3de2f674	0.110821635
53	0xbe2a667a	-0.16640654
54	0xbe0487de	-0.12942454
55	0x3ce0bae1	0.02743286
56	0x3e11e42f	0.14247201
57	0x3e008b30	0.12553096
58	0xbc3fce03	-0.011706832
59	0xbdb1dc20	-0.08684564
60	0x3aec6f84	0.0018038605
61	0x3e166d7b	0.14690201
62	0xbe0fa2c0	-0.14026928
63	0xbe04c659	-0.12966289
64	0xbc6585ae	-0.0140089225
65	0xbe0b7640	-0.13619328
66	0xbd80d33f	-0.06290292
67	0xbdc7d0ce	-0.09756623
68	0x3e04f53b	0.12984173
69	0x3d820ad7	0.06349724
70	0xbe303a75	-0.172098
71	0x3c41600d	0.011802685
72	0x3c9a0033	0.018798923
73	0x3d82e5f4	0.06391516
74	0x3e272de3	0.16326098
75	0xbdbe707a	-0.09298797
76	0xbd106128	-0.035248905
77	0xbe1fdcfd	-0.15611644
78	0x3dd005e1	0.10157371
79	0x3c866984	0.016407736
80	0xbd16ded3	-0.036833595
81	0x3bfef160	0.007780239
82	0xbe1c9250	-0.15290189
83	0xbe3ad9de	-0.18247172
84	0xbccf7f44	-0.02532924
85	0x3bcdd2e3	0.006281243
86	0xbcb326c0	-0.021869063
87	0xbd78066f	-0.06055301
88	0xbd4c8f4f	-0.049941357
89	0x3dd9c222	0.10632731
90	0xbcbc1408	-0.02295877
91	0xbb805907	-0.003916863
92	0xbe2a3ec6	-0.16625509
93	0xbe1506e5	-0.14553411
94	0xbe2e910f	-0.17047523
95	0x3d18f283	0.037340652
96	0x3d8d036d	0.06885419
97	0x3dc6548e	0.09684096
98	0xbe14b9a5	-0.14523943
99	0xbd5190f4	-0.05116363
100	0x3d45efc1	0.04832435
101	0x3da3b944	0.07994321
102	0xbe0c9c87	-0.13731585
103	0xbd7ac251	-0.06122047
104	0xbdf03d0b	-0.11730393
105	0xbdb05aab	-0.086110435
106	0xbd535711	-0.051596705
107	0x3dca9abe	0.09892796
108	0xbe2dd6de	-0.16976497
109	0xbdd6433e	-0.10462044
110	0x3cdd0b3c	0.026982896
111	0x3d8f2623	0.06989696
112	0xbe4368e4	-0.19082981
113	0x3ddf5b88	0.1090613
114	0xbde435fa	-0.11143108
115	0x3d359f6e	0.044341497
116	0xbc276272	-0.010216342
117	0x3d8459d2	0.06462444
118	0x3d647f29	0.055785332
119	0x3e02fef1	0.12792565
120	0xbde8ea1e	-0.11372779
121	0xbc5a7c48	-0.013335295
122	0xbe1a0b95	-0.1504348
123	0x3d84863d	0.064709164
124	0x3d0e0ca4	0.034680024
125	0xbe1c54bc	-0.15266699
126	0x3dddac22	0.10823847
127	0xbdaabaa3	-0.083363794

actor.6.weight f4 [128, 128]
0	0x3c9fbaff	0.019498346
1	0xbb4ee555	-0.0031569798
2	0xbc22ffae	-0.009948654
3	0xbd8f9dc7	-0.070125155
4	0xbd34cbcc	-0.04413967
5	0xbd0f58d3	-0.03499682
6	0x3c101893	0.008794921
7	0xbe503f68	-0.20336688
8	0xbd3acc6b	-0.045605104
9	0xbcbad0a0	-0.022804558
10	0xbdbb9901	-0.091600426
11	0x3d97cf61	0.07412601
12	0xbd9d26a0	-0.07673383
13	0xbe28366a	-0.16427007
14	0xbe179102	-0.1480141
15	0xbc20e3ba	-0.009819919
16	0xbd26c461	-0.040714625
17	0x3dc1859c	0.09449312
18	0x3d9d4a5d	0.07680199
19	0xbd2459a6	-0.040124558
20	0xbdcd37df	-0.10020422
21	0x3d008baf	0.031383213
22	0xbd0b856c	-0.034062788
23	0x3d844a6e	0.06459509
24	0xbda86a8a	-0.08223446
25	0xbdb7dbdd	-0.089774825
26	0xbd6fe7cf	-0.05857068
27	0xbdb98dbf	-0.09060239
28	0xbd81543c	-0.063148946
29	0xbe1231d3	-0.14276819
30	0xbdc0447a	-0.09388061
31	0xbd75c6a2	-0.060003884
32	0xbda7001a	-0.08154316
33	0x3d3a5243	0.045488607
34	0x3cf936c9	0.030421631
35	0xbe169599	-0.14705504
36	0xbdf02313	-0.1172544
37	0x3cbe916b	0.0232627
38	0x3ba1d377	0.0049385387
39	0x3d8bb383	0.068213485
40	0xbd0a784a	-0.033806123
41	0xbcdd1a9a	-0.026990224
42	0xbcb81747	-0.022472037
43	0xbd8832f6	-0.06650345
44	0x3db842b2	0.08997096
45	0xbe16532f	-0.1468017
46	0x3e0b0c9c	0.13579029
47	0x3d977e32	0.07397117
48	0xbd8f9709	-0.070112295
49	0x3c2c4cb8	0.010516338
50	0xbd807c32	-0.062736884
51	0xbd94b125	-0.0726035
52	0x3b583b6c	0.0032994403
53	0x3d068c8e	0.032848887
54	0xbd9c16d8	-0.076215446
55	0xbd9db432	-0.07700385
56	0xbd41e412	-0.047336645
57	0xbd0cb126	-0.03434863
58	0x3e2cc3fb	0.16871636
59	0x3e1df1f8	0.15424335
60	0xbd6cc0e1	-0.05780113
61	0xbd5395c1	-0.05165649
62	0xbca6b79b	-0.020351222
63	0x3d48dfe9	0.049041662
64	0x3d72a0d6	0.059235416
65	0x3de241bd	0.11047695
66	0xbd968d9a	-0.07351227
67	0xbd72214e	-0.059113793
68	0x3dc87d5a	0.09789534
69	0x3d11b72e	0.035575084
70	0xbdcb1177	-0.099154405
71	0x3ce15db0	0.027510494
72	0xbe01b620	-0.12667131
73	0xbd969ca0	-0.073540926
74	0xbe1490a5	-0.14508303
75	0xbc3bc856	-0.011461338
76	0x3c6a9701	0.014318229
77	0x3d967734	0.07346955
78	0x3a381738	0.0007022503
79	0xbd1924b3	-0.037388515
80	0xbd96e54f	-0.07367956
81	0xbdb15024	-0.08657864
82	0x3cfa79e9	0.03057571
83	0xbcdf1b7a	-0.027234782
84	0x3ca8f765	0.02062578
85	0xbd0dd00b	-0.034622233
86	0xbd9e39ce	-0.07725869
87	0xbe24e85c	-0.16104263
88	0xbb9c4eb9	-0.0047701267
89	0xbcfc943e	-0.030832406
90	0xbd22b5ae	-0.039724045
91	0xbd30d04f	-0.04316741
92	0xbdfad01f	-0.12246727
93	0xbcbd4b06	-0.023107063
94	0x3c644771	0.013933049
95	0x3d642f55	0.0557092
96	0xbce125b2	-0.027483795
97	0x3d8dae92	0.06918062
98	0x3b8b0315	0.0042423108
99	0xbd8ea22d	-0.06964526
100	0x3bafa468	0.005360175
101	0xbda2e568	-0.07953912
102	0x3d20c637	0.039251532
103	0xbd38a45c	-0.04507862
104	0x3d8749c7	0.06605869
105	0x3c7763ec	0.015099507
106	0x3c041498	0.008061551
107	0xbe3498f0	-0.17636466
108	0xbcc0f70a	-0.023555297
109	0x3c301db1	0.0107492665
110	0x3d3b0252	0.04565651
111	0x3d4a4186	0.049378894
112	0x3d3378c1	0.04381633
113	0xbcbc1b4a	-0.022962231
114	0xbc9032b6	-0.017602306
115	0x3d352114	0.044221
116	0xbe276de6	-0.16350517
117	0xbd886b8c	-0.06661138
118	0x3e331ec0	0.17492199
119	0xbc201f34	-0.009773064
120	0xbe00b3ce	-0.1256859
121	0xbbe8cee5	-0.007104742
122	0xbd2fb065	-0.042892832
123	0xbe5cdc63	-0.21568446
124	0xbd80cdf8	-0.062892854
125	0xbe04a709	-0.12954344
126	0x3c5fc7f5	0.013658513
127	0xbde2f669	-0.11082155
128	0xbe3fc2bf	-0.18726633
129	0xbdb738bf	-0.0894637
130	0x3d6ff73d	0.058585394
131	0x3d8d4046	0.06897025
132	0xbce02515	-0.027361432
133	0xbd6cc97a	-0.05780933
134	0x3d1f72cc	0.03892784
135	0x3d6064be	0.054783575
136	0x3d8850ff	0.06656074
137	0x3e1563e8	0.14588892
138	0xbdf633f4	-0.12021628
139	0xbe0e140b	-0.13874833
140	0xbd1b9e9a	-0.03799305
141	0x3cdd58bc	0.02701985
142	0xbce5ca9c	-0.028050713
143	0xbd2c06e5	-0.041998763
144	0x3da61d9a	0.08111115
145	0xbd6858af	-0.0567252
146	0x3c94c416	0.018159907
147	0x3de29c24	0.11064938
148	0x3a1ba5cb	0.0005937486
149	0xbd8e75c6	-0.06956057
150	0xbd88abbf	-0.06673383
151	0x3d0b3827	0.033989098
152	0xbc2ed299	-0.010670328
153	0x3d61f175	0.055161912
154	0xbd505141	-0.05085874
155	0x3d196d32	0.037457652
156	0xbdec046e	-0.115242824
157	0xbde17221	-0.110080965
158	0x3d752759	0.059851978
159	0xbde22a5a	-0.11043234
160	0xbd65b1cb	-0.05607776
161	0x3d56e481	0.052464012
162	0x3d8d1714	0.068891674
163	0x3d25e73e	0.040503733
164	0x3cca7e3b	0.024718395
165	0xbdcfd85e	-0.10148691
166	0xbda1a8e9	-0.07893545
167	0xbd3ef156	-0.046616875
168	0xbdeab398	-0.11460036
169	0xbdd66cc0	-0.10469961
170	0x3d6c0116	0.057618223
171	0xbd956e2f	-0.072964065
172	0x3d9b1049	0.075714655
173	0x3d0e620a	0.034761466
174	0xbc3a4cd6	-0.011370858
175	0x3d84aca1	0.06478239
176	0xbd49b21e	-0.04924213
177	0xbd7ee81b	-0.06223307
178	0xbd90b7e3	-0.070663236
179	0x3df2c7c7	0.11854511
180	0xbcb4cba3	-0.022069758
181	0xbd76134b	-0.060076993
182	0x3d12b378	0.035815686
183	0xbd36314c	-0.044480607
184	0xbc741b0d	-0.0148990275
185	0x3df1df08	0.11810118
186	0x3db585d7	0.088634185
187	0xbdb1a78d	-0.08674536
188	0xbd90753e	-0.07053612
189	0xbbf713e4	-0.007540213
190	0xbddc2fd6	-0.107513115
191	0x3d35dfc9	0.04440287
192	0xbdfe7368	-0.12424356
193	0xbd7cb6d5	-0.0616978
194	0xbddba9be	-0.10725735
195	0xbd20789f	-0.039177533
196	0x3d22bd33	0.039731216
197	0xbb1d372a	-0.002398918
198	0xbcb6a6e7	-0.022296382
199	0x3d21329b	0.0393549
200	0xbd0bbf3a	-0.034117915
201	0xbdf6c50d	-0.12049303
202	0xbde93d1d	-0.113886096
203	0xbc7dd3f7	-0.015492431
204	0xbd1e4505	-0.03864004
205	0x3c910094	0.017700471
206	0xbcd91a67	-0.026501847
207	0x3c0c671d	0.008569506
208	0xbd42e7e7	-0.04758444
209	0x3dab2d27	0.083582215
210	0x3d8f73a0	0.070044756
211	0xbda5bcfc	-0.080926865
212	0xbd2bc7f9	-0.041938756
213	0xbdd51650	-0.104046464
214	0xbdc9a6cb	-0.09846266
215	0xbbb4e3de	-0.005520328
216	0xbd9760f4	-0.07391539
217	0xbdbf3dc1	-0.093379505
218	0xbe306ebf	-0.17229746
219	0x3d0c2963	0.034219157
220	0xbda7e9de	-0.081989035
221	0xbc8d7592	-0.017267976
222	0xbd93abed	-0.072105266
223	0x3d9b1249	0.07571847
224	0xbdea2db0	-0.114344954
225	0x3d08afee	0.033370905
226	0xbcd8e034	-0.026474096
227	0xbdf1481e	-0.117813334
228	0xbde113c6	-0.109900996
229	0x3cca6f3c	0.024711244
230	0xbe0d6ed1	-0.13811804
231	0x3dacaceb	0.08431419
232	0xbdd1351b	-0.10215207
233	0x3d6e4716	0.05817326
234	0xbdde7e9f	-0.10863995
235	0xbd86d6f1	-0.065839656
236	0x3d9aa908	0.075517714
237	0xbcc186e2	-0.023623887
238	0xbdb049f4	-0.086078554
239	0xbe043568	-0.12910998
240	0x3dca4a5d	0.09877465
241	0xbdceeb07	-0.10103422
242	0xbd2c8472	-0.042118497
243	0x3d5be619	0.053686235
244	0xbd6c654c	-0.05771379
245	0x3d57fd18	0.052731603
246	0xbd31606b	-0.043304842
247	0xbd9bde2d	-0.07610736
248	0xbd5e3954	-0.05425389
249	0x3d7b6e03	0.061384212
250	0x3d910c1c	0.07082388
251	0xbba1f561	-0.0049425815
252	0x3dbd7452	0.09250702
253	0xbddaf0c9	-0.106904574
254	0x3d88cd06	0.0667973
255	0x3da0eeb9	0.07858033

actor.6.bias f4 [128]
0	0xbcd088ba	-0.025455821
1	0xbce5f88d	-0.02807262
2	0xbdab2b5e	-0.08357881
3	0xbd348f2d	-0.044081856
4	0x3ac84352	0.0015278852
5	0xbdc48d63	-0.0959728
6	0xbdc5b97c	-0.09654519
7	0x3dd6a5e3	0.10480859
8	0x3daa225e	0.08307336
9	0x3dbfb80f	0.09361278
10	0x3dd4a231	0.10382498
11	0xbdde121d	-0.108432986
12	0x3dd6ea8f	0.10493957
13	0x3db94b22	0.090475336
14	0x3d35ba20	0.044366956
15	0x3a46250c	0.0007558621
16	0xbd9a6322	-0.07538439
17	0xbdb5917d	-0.0886564
18	0x3d6702fa	0.056399323
19	0xbe314d05	-0.17314537
20	0x3d5b3a59	0.05352244
21	0xbdee6c51	-0.116417535
22	0x3db368fa	0.08760257
23	0xbc090adf	-0.008364408
24	0xbddee5ad	-0.10883651
25	0x3d063691	0.032766882
26	0xbdc4b6c4	-0.09605172
27	0x3cc546a9	0.024081545
28	0xbdd05491	-0.1017238
29	0x3e2c9e47	0.16857253
30	0x3dec405f	0.11535715
31	0xbdd54181	-0.104128845
32	0xbd98af50	-0.07455313
33	0xbdc60cff	-0.096704476
34	0xbd84d723	-0.064863466
35	0xbd6dd922	-0.058068402
36	0xbd17e886	-0.037086986
37	0x3d18c8b1	0.03730077
38	0xbdea318d	-0.11435232
39	0xbd4e4cb3	-0.050366115
40	0xbdf8bf35	-0.12145845
41	0xbd84a810	-0.06477368
42	0x3de3cf52	0.111235276
43	0xbdcba44b	-0.09943446
44	0x3e5c483c	0.2151193
45	0x3def6f5f	0.11691164
46	0xbde8b57f	-0.11362743
47	0xbe257e66	-0.16161498
48	0x3e1ded9a	0.15422669
49	0x3ca48671	0.020083638
50	0xbdd13714	-0.102155834
51	0x3e8cefc7	0.27526686
52	0x3e82b4e9	0.25528648
53	0xb98a2513	-0.00026349034
54	0xbdffcfe5	-0.124908246
55	0x3deb961f	0.11503243
56	0xbc8ab4d9	-0.016931938
57	0xbe0081d0	-0.1254952
58	0x3d995234	0.07486382
59	0xbcead4bd	-0.028665895
60	0xbe46d16a	-0.19415823
61	0xbdba2e7d	-0.09090898
62	0x3df9818f	0.121829145
63	0xbc3850ba	-0.011249715
64	0xbdcdeaaa	-0.10054524
65	0x3cbf4d5f	0.023352323
66	0xbe46578f	-0.19369338
67	0x3c9f384f	0.01943603
68	0xbd3d2006	-0.046173118
69	0xbe06739c	-0.13130039
70	0xbdeaf565	-0.114725865
71	0xbd5d10cf	-0.053971108
72	0x3de17b4d	0.11009846
73	0xbcc683c3	-0.02423275
74	0x3e02f0b7	0.12787138
75	0x3dfdc80f	0.12391674
76	0x3e133244	0.14374644
77	0xbdfd56ae	-0.123700485
78	0x3db71b9d	0.08940814
79	0xbda16c74	-0.07882014
80	0xbe20d429	-0.15705933
81	0x3cd1c1fc	0.025605194
82	0xbdde28b9	-0.10847611
83	0xbbf00c7b	-0.0073257065
84	0xbe35407e	-0.17700383
85	0xbe157c2d	-0.1459815
86	0xbdc3632d	-0.09540401
87	0xbe1bfd22	-0.15233281
88	0x3e21d486	0.15803728
89	0x3dfa4763	0.12220647
90	0x3cb8b752	0.022548351
91	0x3c76140a	0.015019426
92	0xbe381dcf	-0.17980121
93	0x3df9f0e9	0.12204153
94	0xba571efb	-0.00082062156
95	0xbe3a3ca0	-0.18187189
96	0xbe27e641	-0.16396429
97	0xbe02fafd	-0.12791057
98	0x3dd339ad	0.10313735
99	0xbe0f4c52	-0.13993958
100	0xbe50cbd7	-0.20390259
101	0x3b922ac7	0.004460666
102	0x3ca6b935	0.020351985
103	0x3c5c5e3d	0.0134502025
104	0x3dd3ee0f	0.103481404
105	0x3e0b7848	0.13620102
106	0x3c4733f6	0.012158385
107	0x3da2ef80	0.07955837
108	0x3de9d34d	0.114172556
109	0x3dc8772e	0.09788357
110	0x3de49048	0.11160332
111	0xbc2ae16c	-0.010429721
112	0x3d28668d	0.041113425
113	0xbdb0f62b	-0.08640703
114	0xbdd84a63	-0.10561063
115	0xbe1c4773	-0.1526163
116	0x3dbbbfb1	0.091674216
117	0xbe0fcfd8	-0.1404413
118	0xbd18b326	-0.037280224
119	0x3c870cd0	0.016485602
120	0xbd932c5f	-0.071861975
121	0x3e2fad0f	0.1715586
122	0x3e1134c0	0.14180279
123	0x3c6798d4	0.014135558
124	0xbcdd99d0	-0.027050883
125	0xbe58abd3	-0.21159296
126	0xbdcb6f29	-0.099333115
127	0x3d277073	0.040878724

actor.8.weight f4 [128, 128]
0	0xbd6a4d6a	-0.057202734
1	0xbcdcbd19	-0.026945638
2	0x3d1763e0	0.036960483
3	0x3e000330	0.12501216
4	0xbd1db40f	-0.038501795
5	0x3cff4fd3	0.031165993
6	0xbd5f139d	-0.054462064
7	0x3cff6617	0.03117661
8	0xbda44df4	-0.08022681
9	0x3d84b937	0.064806394
10	0x3dcd0e85	0.10012535
11	0xbd62e045	-0.05538966
12	0xbe08a703	-0.1334496
13	0x3cd60506	0.026125442
14	0x3c952e04	0.018210419
15	0xbb5431b1	-0.0032378251
16	0xbe0b1eff	-0.13586043
17	0xbaabd88d	-0.0013110802
18	0xbdba8be9	-0.09108717
19	0xbd5ac95f	-0.0534147
20	0x3de78b4f	0.11305868
21	0xbdf0545c	-0.1173484
22	0xbcd818b2	-0.026378963
23	0x3d3942c1	0.045229677
24	0x3d20b7e1	0.03923786
25	0x3c309cc3	0.010779562
26	0x3d8529cb	0.06502112
27	0x3ddcd3fc	0.1078262
28	0xbdfd7298	-0.12375373
29	0x3d44bc57	0.048031177
30	0xbda64274	-0.08118144
31	0xbe3580ef	-0.17724966
32	0x3d4f54ab	0.050617855
33	0xbdc2f9bb	-0.095202886
34	0xbe5c924c	-0.21540183
35	0xbe1717d2	-0.1475518
36	0xbce991aa	-0.02851184
37	0xbd65838b	-0.056033652
38	0x3cc5365b	0.02407377
39	0xba7b4510	-0.0009585181
40	0x3db14e16	0.08657472
41	0xbe266e84	-0.16253096
42	0x3c61dab0	0.013785049
43	0xbcd9bd5d	-0.026579553
44	0x39cecf8b	0.00039446013
45	0x3dfded85	0.12398819
46	0xbc6c105b	-0.014408196
47	0xbe8aaa5e	-0.27083105
48	0xbd0cf550	-0.034413636
49	0x3daae223	0.083439134
50	0x3d82a114	0.063783795
51	0x3b146a56	0.002264639
52	0x3e013d4d	0.1262104
53	0xbccf0129	-0.025269108
54	0xbc76c579	-0.01506173
55	0x3c581ee9	0.013190963
56	0x3df50efd	0.119657494
57	0xbcfc6256	-0.030808609
58	0x3dd4adcf	0.10384714
59	0xbcad0e94	-0.021125115
60	0xba3dfaae	-0.0007247132
61	0xbdd235e0	-0.10264182
62	0x3dbdbf17	0.09264963
63	0xbbad606d	-0.005291036
64	0xbd52c8e8	-0.05146113
65	0xbdab243d	-0.08356521
66	0x3c44e86a	0.012018302
67	0xbe0d96c5	-0.13827045
68	0xbd911982	-0.07084943
69	0x3cd210c7	0.025642766
70	0xbdb28eef	-0.08718669
71	0x3daa5cfd	0.08318517
72	0x3d757ba3	0.059932362
73	0x3cc0f56f	0.023554532
74	0xbbe755c1	-0.007059783
75	0x3d9be38a	0.07611759
76	0x3deb0db5	0.11477224
77	0xbd4d5535	-0.050130088
78	0xbcf35f4b	-0.029708525
79	0xbdf38134	-0.11889878
80	0xbd2e6425	-0.042575974
81	0x3de59ac7	0.11211162
82	0xbdf2c9de	-0.11854909
83	0xbd215c50	-0.039394677
84	0xbd72a092	-0.059235163
85	0xbe33266d	-0.17495127
86	0xbd4b8481	-0.049686912
87	0xbddd564b	-0.10807475
88	0xbcad18a5	-0.021129915
89	0x3db9eee5	0.09078769
90	0x3d488514	0.04895504
91	0xbd97c6c2	-0.07410957
92	0xbc4f06da	-0.012635911
93	0x3cf79fd5	0.030227581
94	0xbc91692e	-0.017750349
95	0xbce68ed3	-0.028144276
96	0xbdbbb674	-0.091656595
97	0xbc8a2876	-0.016864996
98	0x3c3ff404	0.011715893
99	0xbc5b85ca	-0.013398597
100	0xbdf41e73	-0.1191987
101	0x3d955ca5	0.07293061
102	0xbdaf2bc6	-0.08553271
103	0xbccee0fb	-0.025253763
104	0x3d932589	0.07184894
105	0xbd04b8df	-0.03240287
106	0xbd93af5e	-0.07211183
107	0xbce9ae97	-0.028525634
108	0x3c8575ee	0.016291585
109	0xbd64b83d	-0.055839766
110	0xbd38a7df	-0.04508197
111	0xbe51e9a8	-0.20499289
112	0xb8d622c2	-0.00010210789
113	0xbcfd1cfe	-0.030897614
114	0xbd1b5162	-0.03791941
115	0x3da96ff2	0.08273305
116	0x3db3dec4	0.087827235
117	0xbcc701ea	-0.024292905
118	0xbe3ebd31	-0.18626858
119	0xbcc93bc9	-0.02456464
120	0xb9f2bb59	-0.00046297422
121	0x3c840693	0.016116416
122	0x3d125b6d	0.03573172
123	0x3dea3679	0.11436171
124	0xbdb3a5a5	-0.087718286
125	0xbd3b69cf	-0.045755204
126	0xbe2ab2c0	-0.1666975
127	0xbc3232aa	-0.010876337
128	0xbd1be547	-0.038060453
129	0x3bbefd5c	0.0058285426
130	0x3cf5b606	0.029994022
131	0x3b76fde8	0.003768796
132	0x3ce91e90	0.028456956
133	0xbda442ec	-0.08020577
134	0xbd957a87	-0.07298761
135	0xbd6d0642	-0.057867296
136	0x3d7aa1c8	0.061189443
137	0xbd2a3aca	-0.041559972
138	0x3ace189f	0.001572389
139	0x3b802640	0.0039108098
140	0x3c64d640	0.013967097
141	0xbd966145	-0.073427714
142	0x3c4b4ccc	0.0124084465
143	0x39b792b8	0.00035013794
144	0xbc73fc7f	-0.014891743
145	0xbd5bd5e7	-0.05367079
146	0xbda67c8e	-0.08129226
147	0xbc9df193	-0.01928023
148	0xbc0ebe9c	-0.008712437
149	0xbcaf8692	-0.021426473
150	0xbdbc2a47	-0.09187751
151	0x3cc4691c	0.023975901
152	0x3d7b7b3f	0.061396834
153	0x3d3ff58a	0.046865024
154	0x3d31b3cc	0.04338436
155	0x3ccbdcbd	0.02488553
156	0x3d0497d4	0.032371357
157	0xbdeb6bbb	-0.11495157
158	0xbdaa1eb7	-0.0830664
159	0xbdddf661	-0.10838009
160	0x3cb84975	0.022495965
161	0xbc581ba5	-0.013190185
162	0xbbfa6817	-0.007641803
163	0x3d0d22e3	0.0344571
164	0xbd4f6b87	-0.050639655
165	0xbd3337c0	-0.04375434
166	0x3d6fbafc	0.05852793
167	0x3d58c380	0.05292082
168	0xbd485a74	-0.048914388
169	0xbcd5ccf1	-0.0260987
170	0xbcf337e5	-0.029689739
171	0xbd429f5a	-0.04751525
172	0x3caa8d3e	0.020819303
173	0xbd5f6642	-0.05454088
174	0xbd3261bc	-0.043550238
175	0xbc65c588	-0.014024146
176	0xbd6a19bb	-0.057153445
177	0xbd4b4949	-0.049630437
178	0xbd5787cd	-0.052619744
179	0xbdbd6c46	-0.09249167
180	0xbd082662	-0.03323973
181	0x3d50bb25	0.050959725
182	0x3d29ccf9	0.041455243
183	0xbcf3a0ae	-0.029739704
184	0x3d49ed69	0.049298678
185	0x3d8da08c	0.069153875
186	0xbd8c11ac	-0.06839308
187	0x3d8636b2	0.06553401
188	0x3d746079	0.059662316
189	0xbcec5d08	-0.028852955
190	0xbcf0e0c8	-0.029404059
191	0x3d439e6c	0.047758505
192	0xbdddd299	-0.10831184
193	0xbd967939	-0.0734734
194	0x3d14fbd4	0.036372975
195	0xbd98084d	-0.07423458
196	0xbbbfd1bd	-0.00585386
197	0xbd0226b6	-0.0317752
198	0xbdf50a60	-0.119648695
199	0xbda9a2e4	-0.08283022
200	0xbdb0c136	-0.08630602
201	0xbd546d20	-0.051861882
202	0xbd2e55b6	-0.04256221
203	0xbb8f1297	-0.0043662298
204	0xbd9879b3	-0.07445087
205	0x3c546712	0.012964027
206	0xbdbc070f	-0.09181034
207	0x3d9a4dd8	0.07534379
208	0xbda7ea23	-0.08198955
209	0xbda43ee6	-0.080198094
210	0xba21b9f1	-0.000616937
211	0xbd65f6a6	-0.056143425
212	0xbda4719e	-0.08029483
213	0xbd872809	-0.06599433
214	0x3c8a1d91	0.016859801
215	0x3d00b006	0.03141787
216	0x3c3a43e9	0.01136873
217	0xbd4a63d2	-0.049411602
218	0xbb0bc304	-0.0021325955
219	0xbd9145c4	-0.07093385
220	0xbc5c6897	-0.013452671
221	0x3c008987	0.007845289
222	0xbdaa5578	-0.08317083
223	0x3d0c9294	0.034319475
224	0x3d137690	0.036001742
225	0xbd44e154	-0.048066452
226	0x3c92e8ad	0.017933214
227	0xbcaf38da	-0.021389414
228	0xbdc39f24	-0.09551838
229	0xbd2ddd8f	-0.042447623
230	0xbb8b8d29	-0.004258771
231	0xbd9aad07	-0.075525336
232	0xbd2f0296	-0.042727076
233	0xbc7f7e2a	-0.015594045
234	0x3c929957	0.017895384
235	0xbdb56dbb	-0.0885882
236	0xbda5a25e	-0.0808761
237	0xbdb110c0	-0.08645773
238	0x3b856cbb	0.0040717996
239	0x3d7dd78d	0.061973143
240	0xbd9be7cb	-0.076125704
241	0x3d16b736	0.036795817
242	0x3d0b9859	0.034080837
243	0xbd9efd99	-0.07763214
244	0xbc43b6d0	-0.011945441
245	0x3d8192a4	0.063267976
246	0xbd9eede3	-0.07760217
247	0xbd896ec5	-0.06710581
248	0xbda1b8d4	-0.07896581
249	0x3c9d55cf	0.019205956
250	0x3d394171	0.045228425
251	0xbdc95bdc	-0.09831974
252	0xbd871f04	-0.06597713
253	0x3c92062f	0.017825214
254	0x3c26c7d4	0.010179479
255	0xbc93242a	-0.01796158
