experiments/exp044_attention/tmp_checkpoint.pt (torch, 24649 bytes, 12 tensors)

query_net.weight f4 [32, 7]
00000000: d018 4a40 9114 5340 3241 8ebf 65a6 aebd
00000010: 57bd 69bf eec7 cfbf 7046 c43f c309 3cc0
00000020: 35db 47c0 a9c8 623f 6f9a e73d 8331 0c3f
00000030: 4cf0 9c3f a78b a4bf 7d0e 3ac0 6f7a 4bc0
00000040: 798e 7b3f bbb4 a93d 11e0 3d3f 9324 723f
00000050: ce81 f9bf 3a30 2f40 e596 4c40 13a4 88bf
00000060: f46c 80bd 2fdc 28bf c599 7fbf c387 eb3f
00000070: e75c 2bc0 0ae1 52c0 a929 313f c68b e43d
00000080: f602 133f 5f0c ee3f e9e9 f8bf cbd9 4840
00000090: f9dd 4c40 6943 bdbe 6efc c5bd c766 0dbf
000000a0: 69e3 6abf 7a61 f03f 98cd 4ec0 e5c9 53c0
000000b0: c3f2 9f3f c2e7 cc3d 04a8 3a3f 6ab1 883f
000000c0: 7c64 01c0 488c 4740 75d1 4640 0bc7 81bf
000000d0: feaf b6bd 3da5 2cbf aa70 a2bf c44d d93f
000000e0: b6b9 5c40 5dc9 3a40 cd25 60bf d20b a1bd
000000f0: e04c 0ebf 1d1a 89bf 6326 a03f 3713 4a40
00000100: 3ed6 5540 3236 8bbf 73d5 a1bd b102 cebe
00000110: 50a2 bbbf 5d0d 9f3f 16df 4bc0 71aa 51c0
00000120: 6384 713f 4ed2 873d ea7f 893f 14e4 853f
00000130: 6d29 e9bf ca20 36c0 eb3e 46c0 e890 8e3f
00000140: fa2d c03d 84bb f53e f09e a93f 2e37 ccbf
00000150: 056e 3240 95a2 5840 0746 3ebf dd8d 7ebd
00000160: 0201 1abf 8633 b5bf 76e6 a93f b299 3740
00000170: c4cd 5d40 89fd 82bf 046b 7ebd fadb 08bf
00000180: 0169 bebf 6a7d e63f 24b5 3040 3e5c 5040
00000190: 96d4 32bf fad3 34bd 90f8 c0be 207c b1bf
000001a0: 000b e73f 08b3 42c0 d45a 4dc0 982a 7c3f
000001b0: 5272 493d fd09 793f 0588 c63f 9b68 05c0
000001c0: 0b34 2340 4a7d 6e40 7bc8 4ebf 3370 89bd
000001d0: 7557 56bf 9503 a2bf 2800 b93f 348e 4040
000001e0: 6042 4640 7d89 94bf 7c1f fabd 5b9a 8f3b
000001f0: 97ee 9abf 4578 0340 63de 38c0 4206 61c0
00000200: 113f 723f 71a7 bb3d a02e 363f 6a3c 793f
00000210: 1e33 e2bf b078 3b40 f693 4940 6c00 9bbf
00000220: 6aff dcbd 7de8 82bf 660e b2bf 231e e63f
00000230: 92f3 39c0 14f4 54c0 2d1b 133f 9292 813d
00000240: 8886 4f3e 92ee cc3f 2cd2 06c0 c908 39c0
00000250: 3c01 39c0 90e8 333f c479 703d 705f 223f
00000260: 3b8e 9b3f 6e72 f9bf 834a 2840 50bf 5840
00000270: 1a64 abbf c9f3 9bbd 4fce 47bf cd20 88bf
00000280: 6b3f 0740 78ac 4bc0 9be5 43c0 07f4 973f
00000290: 2f92 913d 4339 0a3f 2c3a 873f 6d66 fcbf
000002a0: 43f8 2940 e3da 4440 f94a 61bf d22b bebc
000002b0: 547c 3fbf d00b 78bf fb13 b53f 77a2 46c0
000002c0: 00ef 36c0 16dd 7f3f c277 553d 2c17 633f
000002d0: 1c65 d23f 4b41 febf e162 32c0 85be 5ac0
000002e0: 9246 1d3f 76e9 cb3d baf9 963f 1f8b a53f
000002f0: df0e e6bf ea44 2b40 7fbc 4a40 f6dc 20bf
00000300: 00f3 e5bd 4e30 0bbf 9ad1 92bf 2bb4 c93f
00000310: fdeb 3540 6fd5 5b40 41c7 66bf 6216 8dbd
00000320: e7b6 2fbf ffaf 9cbf c463 fd3f d8d8 25c0
00000330: fbd6 6cc0 9d89 903f 92ff e53d 5e77 dc3e
00000340: 6a9f 843f 1341 dcbf cfcd 3dc0 07b8 53c0
00000350: 46cc e13e 6a5f e43d 8d81 623f 87e5 a23f
00000360: baf5 fcbf 2c11 4640 ee9c 5240 38fa 7abf
00000370: 7ee1 83bd 131d 53bf 35ab c4bf 537d dd3f
3.1577644 3.2981303 -1.1113646 -0.08527831 -0.91304535 -1.6232889 1.5333996 -2.9380958
-3.1227543 0.88587433 0.11308753 0.5476305 1.2260833 -1.2855119 -2.9071343 -3.1793478
0.9826427 0.08286425 0.74170023 0.9458706 -1.9492738 2.7373185 3.1967099 -1.0675071
-0.06270781 -0.65960974 -0.9984401 1.8400806 -2.6775453 -3.2949853 0.69204193 0.11159472
0.57426393 1.8597525 -1.9446384 3.138293 3.2010481 -0.36965492 -0.09667288 -0.5523495
-0.9175325 1.8779747 -3.2312984 -3.3091977 1.249596 0.10005142 0.7291262 1.0679142
-2.021758 3.117937 3.1065342 -1.0138868 -0.089202866 -0.67439634 -1.2690632 1.6976857
3.448835 2.9185402 -0.8755768 -0.07863583 -0.5558605 -1.0711094 1.2511715 3.1574228
3.3412013 -1.0875914 -0.0790204 -0.40236428 -1.4658909 1.2425953 -3.185491 -3.276028
0.9434263 0.06631909 1.0742161 1.0460229 -1.8215767 -2.8457513 -3.0975902 1.1137972
0.09383769 0.47994626 1.3251629 -1.595434 2.787965 3.3849232 -0.74325603 -0.06214701
-0.6015779 -1.4156349 1.3273456 2.8687558 3.465684 -1.0233623 -0.062113777 -0.5346066
-1.4875795 1.8007023 2.761056 3.25563 -0.6985563 -0.04414747 -0.37689638 -1.3866005
1.8050232 -3.0421772 -3.2086687 0.9850249 0.04918129 0.97280866 1.551026 -2.0845096
2.5500515 3.726397 -0.8077466 -0.067108534 -0.837272 -1.2657343 1.4453173 3.0086794
3.0978012 -1.1604458 -0.122130364 0.0043824143 -1.2104062 2.0542157 -2.8885734 -3.516007
0.9462748 0.09162796 0.71164894 0.9735781 -1.767185 2.9292412 3.1496558 -1.2109504
-0.10790904 -1.02272 -1.3910644 1.7977947 -2.9054914 -3.3273973 0.5746334 0.06326784
0.20266163 1.6010306 -2.1065779 -2.8911612 -2.8907003 0.7027674 0.058709875 0.63426876
1.215278 -1.9488046 2.6295478 3.3866768 -1.3389924 -0.07614858 -0.78049177 -1.063501
2.1132457 -3.1824017 -3.060889 1.1871346 0.071079604 0.53993624 1.0564628 -1.9718758
2.6557777 3.0758598 -0.88005024 -0.023214255 -0.74799085 -0.96893024 1.4146723 -3.103666
-2.8583374 0.99946725 0.052116163 0.8870723 1.6437106 -1.9863676 -2.787285 -3.4178784
0.61435807 0.099566385 1.179496 1.2933081 -1.7973288 2.6760812 3.167755 -0.6283716
-0.11227989 -0.5437058 -1.1470215 1.5758108 2.8425286 3.434902 -0.9014779 -0.06889035
-0.6863846 -1.224121 1.9796071 -2.59136 -3.7006214 1.1291996 0.11230387 0.4305982
1.0361149 -1.7207359 -2.9656866 -3.3081071 0.4410116 0.11151011 0.8847893 1.2726296
-1.976249 3.094798 3.2908282 -0.98038054 -0.064394936 -0.8246624 -1.5364748 1.7303871

query_net.bias f4 [32]
00000000: f4bb 83be 9a9c 2e3e 645b 923e 537b b4be
00000010: 3d13 4f3e 331f 61be 0e4b 673e 5fce 8fbe
00000020: e30e 9fbe 5302 b1be 4e85 c23e ec9c 823e
00000030: 93f4 bbbe 194a c6be 291e f1be 2db5 d13e
00000040: caa4 b2be ef87 18be 93de 8a3e db37 36be
00000050: 04ef cb3e d649 ae3e 21f9 9cbe 098c b63e
00000060: 1e40 04bf 1fe3 b23e ca63 4a3e 0620 5ebe
00000070: 7982 afbe ba02 2a3e 037a c33d b011 babe
-0.25729334 0.17051926 0.2858535 -0.3525034 0.20222183 -0.21984558 0.22587225 -0.28087136
-0.31066045 -0.34572086 0.37992328 0.25510347 -0.36710033 -0.38728407 -0.47093323 0.4095854
-0.3489135 -0.14895605 0.27122936 -0.17794745 0.39830792 0.34040707 -0.3065882 0.35653713
-0.51660335 0.34938905 0.19764629 -0.21691903 -0.3427923 0.16602603 0.09544756 -0.3634162

key_net.weight f4 [32, 1]
00000000: f3f8 5140 6482 62c0 cc44 63c0 8248 4f40
00000010: 9212 6bc0 78b7 5440 af1d 52c0 9410 6040
00000020: a214 4f40 e166 5240 2e50 40c0 28e2 72c0
00000030: 77e8 4a40 42f4 4340 c900 3e40 528f 37c0
00000040: 896b 5540 7706 5040 f0b5 5bc0 8c5e 6140
00000050: 79b9 44c0 807f 57c0 604c 6140 f833 4ec0
00000060: 749b 2c40 b1ed 50c0 d48f 5cc0 4de3 7240
00000070: e71b 4e40 126c 56c0 f0d1 4fc0 1d6e 4540
3.2808197 -3.5392084 -3.551074 3.2388005 -3.6730084 3.323698 -3.2830617 3.5010118
3.2356343 3.2875292 -3.0048938 -3.7950535 3.1704385 3.0617833 2.968798 -2.8681226
3.3346884 3.2503946 -3.4329796 3.5213957 -3.0738204 -3.367157 3.5202866 -3.221922
2.696988 -3.2645075 -3.4462786 3.7951233 3.220453 -3.350346 -3.2471886 3.0848458

key_net.bias f4 [32]
00000000: 7414 473c b857 9fbc 3da0 58bc d235 1c3c
00000010: 7ab6 6ebc b6ff a73c 080d 98bc e4d2 893c
00000020: 6d05 c03c 1d71 083d 789e dfbb 797c d7bc
00000030: e51a 9a3c e9d2 e33c fdc4 dd3c d8d0 59bb
00000040: 3b68 973c 6f9c 633d 06f9 b2bc 9350 d1bb
00000050: bb13 0ebd 3b07 073b 3e26 8c3c bab7 dcbc
00000060: 25b1 38bb c204 203b e34d 9c3c 79ef 753c
00000070: 7142 b53c bb8c 22bd 95e8 0aba 2c79 803c
0.0121508725 -0.019451007 -0.0132217975 0.009534316 -0.014569873 0.020507675 -0.018560901 0.016824193
0.023440087 0.033311 -0.006824311 -0.02630447 0.018811652 0.02781053 0.02707147 -0.0033236053
0.018482318 0.05556911 -0.02184726 -0.006387779 -0.034686785 0.0020603675 0.017108079 -0.026943076
-0.0028181758 0.0024416898 0.019080108 0.015010708 0.022126408 -0.039684992 -0.00052989396 0.01568278

value_net.weight f4 [32, 1]
00000000: d7f8 cdbf b8ca b2bf 9531 d9bf bc73 d4bf
00000010: 44c3 cfbf 0923 e7bf 9a06 d6bf 8ade 09c0
00000020: 20fd 06c0 2319 dbbf 7603 cdbf e2de ed3f
00000030: c014 d8bf af83 ccbf c417 cc3f 57a6 f43f
00000040: 9efd be3f 8052 633e baa6 86bf 2433 a4bf
00000050: 5acb 1040 86f8 c73f 0f34 8fbf 0299 ba3f
00000060: 1b2d bfbf 9789 05c0 1de5 d2bf 5185 d73f
00000070: 4a0e ba3f e10f e63f 68bb ce3f 11eb 74bd
-1.6091565 -1.3968115 -1.6968256 -1.6597819 -1.6231465 -1.8057567 -1.6720765 -2.1542077
-2.1091995 -1.7117046 -1.6016681 1.8583643 -1.6881332 -1.5977687 1.5944753 1.9113263
1.4921148 0.2219944 -1.0519631 -1.2828107 2.2624116 1.5622718 -1.1187762 1.4577944
-1.493564 -2.0865228 -1.647617 1.683756 1.4535611 1.7973596 1.6150942 -0.05979449

value_net.bias f4 [32]
00000000: 721e 1e3b 8b10 0dbc 4d3a a0bb e9ed a23b
00000010: 5fcb c4bb 60b5 963b 7bd8 ae3a 68a3 3b3a
00000020: ac96 b4ba b6ad 01bc 5ea9 463b ea15 d3bb
00000030: a630 e9ba fe36 d5bb 9893 253b 091e a13b
00000040: 878e 1e3c c6eb 123b 6c47 9339 f8b6 b4bb
00000050: 9f03 683b 7a07 95bb 9c80 bf3b c229 0abc
00000060: 2872 823a 939c 9d3b 31da 003c 8085 813a
00000070: 7a6c 983b cbfd 5f3b ac0a 713b 9e6f 16b9
0.0024127034 -0.008609901 -0.0048897625 0.0049722088 -0.006005689 0.0045992583 0.0013339663 0.00071578333
-0.0013777814 -0.007914951 0.0030313353 -0.0064418213 -0.0017790988 -0.0065067997 0.0025264975 0.0049169105
0.009677536 0.0022418364 0.00028091238 -0.0055149756 0.003540255 -0.0045480104 0.005844189 -0.008432807
0.0009952234 0.004809925 0.007864521 0.0009881705 0.0046516033 0.0034178372 0.0036780043 -0.00014346695

actor.0.weight f4 [64, 32]
00000000: cf01 a73e 808f 23be 98b5 f73e bce1 003f
00000010: 480e 6c3e 68f6 cd3e e0c0 113f 3155 a33d
00000020: f364 133f 2da5 a73e ade3 be3e a533 b7be
00000030: 649a 883e b58a 8d3d 1026 b2be 8af1 a1be
00000040: 46e9 933d 7ffa bcbd 8094 f63e 4f61 163e
00000050: dc4c a8be a066 05bf fdae eb3e 0a91 29be
00000060: 9889 ec3e 7cd8 a83e b6e9 833e bdf9 0cbf
00000070: 6d0b 93be 0e0f 93be 0b10 8dbe 498c 38be
00000080: 3bc1 d73e a177 f93e e11b a53d 39d0 6a3e
00000090: f46c e53e e90f 943e e724 6f3e bf24 b73e
000000a0: 254e ea3d 9fbb db3e 16ea 203e dc6d 81be
000000b0: c564 963e a1e6 053e 0a6d 9dbe 97d4 04bf
000000c0: a17a 5cbe b1ee 49be 0b4f a43e fa02 cc3e
000000d0: dde5 74be 105e 19bd a6f8 c73d b056 b4be
000000e0: e220 243e 6963 e43d 57b6 5bbd 6a14 f33d
000000f0: 4d06 c8be 8013 a3be 9c6e 98be c245 a13e
00000100: c436 703e 6052 943e dcc9 1b3e 994b e83e
00000110: e11f 413e bde8 963e f943 483e 83fe 8f3d
00000120: 8cf8 c03e def6 943e 84c0 2b3e 42b4 5ebe
00000130: 4225 563e ae3e bf3e e005 d1be d318 b9be
00000140: 7581 15be 510d 173e f3c1 ebbd c7fe c43d
00000150: ca8b 19be 0903 92be d76b 8c3d e1e5 2e3d
00000160: d225 bb3e 64e5 853e 8c12 933e e899 3ebf
00000170: 8046 90be f46e dbbe e798 05bf 073c 5d3d
00000180: 8598 81be 16f3 a93d 65d5 5cbe f466 cdbe
00000190: d1ec d9bb a1d2 7cbe 9e70 8fbd 408a 65bd
000001a0: b642 cabe 5ed6 81be 953e 95be 8ed2 9a3e
000001b0: 6eb8 8bbe a6b5 cbbe 58ba c03d 6096 453e
000001c0: fc26 c53e 7ca4 c53d fa78 97bc f0de dfbe
000001d0: 2ffb df3e 5ebf 0fbe 1aad f5bd e5a7 7a3e
000001e0: ba1d c2be d816 2fbe 0c3a 88be 7a7e d33e
000001f0: 6592 033e c658 1a3f 7390 2f3f a9e1 673d
00000200: a9ca 85be 3f76 aebc 4bab b6be 39db cdbe
00000210: 2f05 12be a65a 9abe fb84 85be 7509 dcbd
00000220: 1413 c6be 7244 fbbe b0ab 02bd 8962 b03e
00000230: 6a16 a1bd f6a7 073d a28c 793e ad42 d23e
00000240: ef96 263d 03bd 5dbd 58a1 9dbe f82e f6bd
00000250: cac2 9a3e 2a7d 373d e31b 12bd 3b82 9c3d
00000260: 23a6 d5be 871b 2dbe 4007 b1b7 70de 513f
00000270: 488c 2abd 6711 b03e 14fd 013f d8ad 533d
00000280: 9dbd c5bd 8f96 dbbd 09e6 4abe 4292 5fbd
00000290: f3e5 5cbe 2449 b8be 3eb3 2ebf 4970 3abe
000002a0: e991 d4be c653 0dbf 18e6 a2be a13c e23e
000002b0: 397c 3f3d 7828 73be 9809 013f 5da0 bc3e
000002c0: 8c1d 7a3e c66d 823d e62f 9abe 13fc f3be
000002d0: 8ff9 bf3e b6f3 1c3f cd6c 1fbe 1ae2 663e
000002e0: 3e8c babe a39c fc3d dba6 8dbe 29fe 0b3f
000002f0: 4f9d 2abe 0ca5 f13e 4e26 d33d b657 583d
00000300: 4b57 fcbe 98b7 c0be a1c2 96be 99a4 89be
00000310: 1050 f63d 73fc f3be 3bce c6be 1899 89be
00000320: c0c7 e9be 6799 09bf 6059 79be af13 6c3e
00000330: dbb4 bbbe 6a21 1ebe 2d36 013f 7f84 5b3e
00000340: 4ab4 a93e dab9 0fbe 88d8 b5be 9b8d 9bbd
00000350: 2d41 d33e 10ba b83e defe c73d c4a3 e13e
00000360: 1154 69bf 563d 8dbe 0406 c3be 3135 463e
00000370: 6652 863e c7d7 733e 9ea3 713d 84fa 05be
00000380: faa7 8b3e 61ec 0b3f b586 813f 9b6a 283f
00000390: 0125 0a3f e19b c23e f8d6 1f3f 3f3e 173f
000003a0: 48ad 323f 05ce 0c3f 7099 293f 8699 edbe
000003b0: 9556 2f3f 19db 3f3f d560 32bf 9ffe 6fbf
000003c0: 9eb2 1ebf 649c 7c3e 5d68 303f e54c 373f
000003d0: 209d f7be 5fc2 ecbe 2d0d 983e 0a42 0dbf
000003e0: 080b 133f df3a 103f a0d9 453e a54d aabe
000003f0: d808 20bf 7a35 1ebf 08df 34bf 872c a23d
0.32618567 -0.1597271 0.48380733 0.50344443 0.23052323 0.40227056 0.5693493 0.07975233
0.5757591 0.32743207 0.37283078 -0.3578159 0.2668029 0.06911222 -0.34794664 -0.31629592
0.07222228 -0.09227466 0.48160172 0.14685558 -0.3287114 -0.5210972 0.46031943 -0.16559234
0.46198726 0.32977664 0.25764245 -0.5506857 -0.28719655 -0.28722423 -0.27551302 -0.18022265
0.4213961 0.48724082 0.08061958 0.22930993 0.44809687 0.28918388 0.23353921 0.35770223
0.11440686 0.4291658 0.15714297 -0.2527913 0.29373756 0.13076259 -0.30747253 -0.51886886
-0.21531154 -0.1971996 0.32091555 0.3984602 -0.23915811 -0.03744322 0.09764223 -0.35222387
0.16028169 0.111517735 -0.05364069 0.11869128 -0.39067307 -0.31850815 -0.29771888 0.31498533
0.23458391 0.28969097 0.15213722 0.45370176 0.18859817 0.2947444 0.1955718 0.07030966
0.37689626 0.29094595 0.16772658 -0.2174845 0.2091265 0.37352508 -0.40824795 -0.36151752
-0.14600165 0.14751174 -0.11511602 0.096189074 -0.14994732 -0.2851794 0.06856506 0.0426997
0.36552292 0.26151574 0.28725088 -0.7445359 -0.28178787 -0.42858088 -0.52186435 0.054012325
-0.25311676 0.08298318 -0.21565779 -0.4011761 -0.006650545 -0.24689724 -0.07003902 -0.05604005
-0.3950402 -0.25358862 -0.2914931 0.30238765 -0.27289146 -0.39787024 0.09410542 0.19295645
0.38506305 0.096505135 -0.018490303 -0.43724775 0.43746325 -0.14037845 -0.11995907 0.24478109
-0.37913305 -0.17098558 -0.26606786 0.4130743 0.12848814 0.6029171 0.68579787 0.05661169
-0.2613118 -0.021296619 -0.3567756 -0.40206316 -0.1425979 -0.30147284 -0.2607802 -0.10743991
-0.3868643 -0.49075657 -0.031902015 0.34450176 -0.07865603 0.033119164 0.24370053 0.41066495
0.040671285 -0.054135334 -0.30787158 -0.12020677 0.30226737 0.0447971 -0.035671126 0.07642027
-0.41728315 -0.16905032 -2.110342e-05 0.8198004 -0.04163769 0.34388277 0.5077679 0.051679462
-0.096553065 -0.10722076 -0.19814314 -0.05458284 -0.21572094 -0.35993302 -0.6824225 -0.18206896
-0.4151757 -0.55205953 -0.31816173 0.4418688 0.046749327 -0.23745906 0.50405264 0.36841097
0.24425334 0.06368594 -0.3011467 -0.47653255 0.37495086 0.61309373 -0.15568848 0.22547188
-0.3643512 0.123345636 -0.27666363 0.5468469 -0.16661571 0.47196233 0.103100404 0.052818023
-0.4928535 -0.3764007 -0.29445365 -0.2688339 0.120269895 -0.4765354 -0.38829216 -0.26874614
-0.4566021 -0.537497 -0.243505 0.23054384 -0.3666142 -0.15442434 0.5047329 0.21437262
0.33145362 -0.1403574 -0.35516763 -0.075953685 0.41260663 0.36079454 0.09765409 0.44070256
-0.911439 -0.27585858 -0.38090527 0.19356228 0.2623474 0.23812781 0.058993928 -0.13083845
0.27276593 0.5465756 1.0119234 0.6578767 0.53962713 0.3800955 0.6243739 0.59079355
0.69795656 0.5500186 0.6624975 -0.46406192 0.6849149 0.7494369 -0.69679004 -0.93747896
-0.619913 0.24669033 0.68909246 0.71601707 -0.48362064 -0.46242043 0.29697552 -0.5517889
0.5743871 0.5633983 0.19321299 -0.33262363 -0.62513494 -0.6180035 -0.7065282 0.07918649

actor.0.bias f4 [64]
00000000: 885c 633a c709 f4bd 3c70 7d3c 0ef6 403c
00000010: 941d e1ba e67b 863c fe1b b53c 2a69 eb3b
00000020: 2c3e b13b 176a 16ba 0201 88bc aadb 05bb
00000030: c0d1 af3b 2d66 753c 842a c43b 9f98 69bc
00000040: bce7 b13b 95fb 953c 5554 1bba 71ee bc3b
00000050: cf7b 453b a92b fcbc a571 b93c 04c1 663c
00000060: a087 b9bb 5531 aa3c 9ec9 0dbd 5f4b 933b
00000070: 6132 e5bb 223b 313c d4b1 8b3c 7ddb 453c
00000080: f10b 2d3c 32ad 893c fe6a e2bd 0109 203c
00000090: 8a20 b63b 497f 6e3c ca12 ad3b 1e2d a3ba
000000a0: 3b64 2b3c 269d 753b b659 843c 07c5 a83b
000000b0: 4f1f d03b 178e e83a e078 2bbd 21f0 143c
000000c0: e56c b13b 117e bdbc eaeb 523b 3905 08bd
000000d0: ab7e ff3b d2b5 25ba 3148 673c 4a71 3b3c
000000e0: 740a 153c 7a0f 16bd dc9d babc f7ee 2fbc
000000f0: 4965 913c 87e6 ec3b d57c 9e3c 03aa 40bc
0.0008673151 -0.119159274 0.015468653 0.011777414 -0.0017174953 0.016416501 0.022108074 0.0071841674
0.005409023 -0.00057378545 -0.016602043 -0.002042512 0.0053655803 0.014977974 0.0059865136 -0.014257579
0.005429236 0.01830844 -0.0005925347 0.005765729 0.003013361 -0.030782538 0.022637198 0.014084104
-0.0056619197 0.020775476 -0.034616105 0.004495069 -0.006994531 0.010817321 0.017052568 0.012076256
0.010561929 0.016806219 -0.110555634 0.009767772 0.005558078 0.014556714 0.005281781 -0.0012449359
0.0104609085 0.00374777 0.016156059 0.0051504406 0.0063513885 0.0017742541 -0.041863322 0.009090454
0.0054145926 -0.023131402 0.0032184073 -0.033208106 0.0077970824 -0.0006321344 0.014116333 0.011440584
0.0090967305 -0.036635853 -0.022780351 -0.010738126 0.017748492 0.0072296294 0.019346634 -0.011759284

actor.2.weight f4 [1, 64]
00000000: 8438 03bf cc43 e9be 90e3 34bf b1f6 dd3e
00000010: 40b9 113f 4d90 a33e ac49 b03e 090e 653f
00000020: 0ab9 a73e 5c85 e33e 99a7 68bf 7777 f43e
00000030: 9e6f d5be 7218 cebe 5b21 21bf 3d06 8dbf
00000040: 6a0e 05bf cd6e e13e d43d fc3e 1b92 efbe
00000050: 1c3d 173f 5599 213f af2f c03e 070e f9be
00000060: 4b34 6bbf 49a2 cf3e 7c4a 24bd a0f8 b93e
00000070: 6067 27be 542a dfbe 5f84 edbe 879a 163f
00000080: 170a 5c3f 3f4d 2f3f a4c1 7f3e e948 4f3f
00000090: 9e19 08bf 6dfd 253f 5c74 02bf 56be c63e
000000a0: 94ab 2e3f 449b e13e 4388 6c3f 7c13 de3e
000000b0: 58e4 d0be 83ba 03bf 2734 7f3d 3b57 d8be
000000c0: a86b b63e a68a d93e 80a6 04bf de6b 0fbe
000000d0: c028 13bf 63a9 ed3e bfef cb3e dc8b f3be
000000e0: d111 d2be 2a77 82bc 5d70 003e 4427 a33d
000000f0: be4e e5be ed1b 08bf 74de d33e 75bc 89bf
-0.5125811 -0.45559537 -0.7065973 0.43352273 0.56923294 0.3194603 0.34431207 0.8947454
0.3275836 0.44437683 -0.90880734 0.47747394 -0.4168672 -0.40253025 -0.6294152 -1.1017529
-0.5197512 0.44029847 0.4926592 -0.46791157 0.5907762 0.6312459 0.3753638 -0.48643515
-0.9187667 0.405535 -0.040110096 0.36322498 -0.16348028 -0.4358698 -0.46390054 0.5882954
0.85952896 0.68477243 0.24976212 0.8097063 -0.5316409 0.6483982 -0.509588 0.3881709
0.6823056 0.4406377 0.9239542 0.4337424 -0.40799212 -0.5145647 0.062305596 -0.42254052
0.3562901 0.42488593 -0.5181656 -0.14005992 -0.57484055 0.46418294 0.3983135 -0.47567642
-0.41029218 -0.015925962 0.12542863 0.07966474 -0.44786638 -0.5316761 0.41380656 -1.0760638

critic.0.weight f4 [64, 32]
00000000: d46c 78bd 45aa 3dbd d9ec 27be c658 73bc
00000010: 28c0 1e3e 0feb 03be 5ad6 debd 0a65 6e3d
00000020: 4732 86be 3918 fe3d 627e 01bd 323b b43e
00000030: 5a7b 93be 5a9e 44be bfc5 a0bc e07b 853c
00000040: 7082 c23d 4d8b 2c3e d2a0 28be 2005 35be
00000050: b038 523e 31b8 79bd 496a 04bf 8b9d 443d
00000060: 91bb adbc 417b 303e 5c9c 17be c16b 6bbd
00000070: 4570 6f3e 9656 213d 13db 173e 090b 963e
00000080: 7b25 41bd c6f6 703e b77c 6d3b 57da da3b
00000090: d07f 473d 2cff 5a3e 0ff5 01be a677 80be
000000a0: 9bd7 c5bd 81ce 37be ebc4 d03e 6659 133d
000000b0: 63cd c9bd b359 fb3d 2238 063e f51f 77bd
000000c0: 9928 4bbe 78ab 97bd 14a7 8fbe 9690 dabd
000000d0: 26dc ad3b a187 953b 559c 01be 9512 353e
000000e0: 50d3 0e3e 5cc7 703e c9fa 143d 0b4f c23e
000000f0: 8c8b 023e 6186 b7be 1c20 453e d4a0 003e
00000100: 557f ed3d a579 0fbd a6a1 83bd 70a2 a6be
00000110: 2da5 71bc 642a 9abd 5357 793d b75b 4bbd
00000120: 7836 853d 9c02 133e fdb2 1bbe 9e87 113e
00000130: ca77 0b3e de28 4c3d ebd1 07be 0c8c 733e
00000140: 3ffc 45bd 9cf4 373d a2fe ab3e a4e8 fb3d
00000150: 7773 f53d 530f 823d 61cd c9bd 0276 8d3d
00000160: 4b08 a13d 91af 9a3d 35dc 5b3e 9df7 fd3d
00000170: a883 ea3c eced a4be 9bc9 52be 8806 a0be
00000180: 1875 e43b 81cf f7be 5c62 1ebe baea 89be
00000190: 7296 943d a186 d73d fa49 82be ab3a 9e3d
000001a0: 7f1a 843e 4abe f23d 0053 9fbb 35d6 e5bc
000001b0: 9600 1d3e 260d 5f3e 760d e83c 9a7f b23d
000001c0: 1616 b93e 3760 c43d db8b 1fbb 592d 963d
000001d0: 687f 493e 67e0 df3d d571 8abe fe49 463d
000001e0: 71d1 5cbe c30a 613e 407e c63d 8da6 86bd
000001f0: 3ab0 a83d 2763 3f3d 54e3 0fbe 84d2 923d
00000200: 8b90 b0bd 5522 27be 39c4 bd3c 3fbe 55be
00000210: bfa3 643e 51fd 483d e3db 44bd 38a3 543c
00000220: 50c2 e13c 402d 75be 59ed 953e d778 8f3e
00000230: d2ad 07bd e7da ddbd e647 863b 652f d7bd
00000240: 30e4 143d f67c 7b3d 7e94 083e 5802 57bd
00000250: eb59 213e b503 213e 5ee7 ad3e 6086 c33e
00000260: e931 a03d c139 b23c 2572 e2be 2643 f9bc
00000270: b886 81bd 7edd 44be b3fd 013e 47d2 8ebe
00000280: 1230 e9bc 399f 79be b2a4 3c3d 5539 5dbd
00000290: f1d5 093e 4021 abbd 014a 163e 3f35 703e
000002a0: f087 cf3c f66d 35bd 82b9 92bd aa3a ab3c
000002b0: 9772 86be 7fd1 a2be 8d26 4ebb e50a 973d
000002c0: 207d 53bd cf9d a13d 1e36 bbbe 363a 0e3e
000002d0: 28ae 09bf f885 773d 5ca6 d03e 0b72 b5bd
000002e0: 2789 c1be 7fdb 333e 64ce 143e c2bb 283d
000002f0: 5ff2 00bd 2c6e 523d 2160 5d3d 22f4 a7bd
00000300: 3ee2 8a3d 20ee 013d eea2 a73e 9509 113c
00000310: 5ca3 173e d4e6 9c3d 0311 af3e 5aa0 5ebd
00000320: 09e0 6d3e 8ae1 093e ea7c 2cbc 278c b03d
00000330: b463 773c 535b 9d3e 2ae6 bd3e 1f4b 86bd
00000340: 8d96 96bc 44f7 b93d 4fb5 aebe dd73 7e3e
00000350: 5b3e f9bd 148f 643e 121d 3e3e 1ea1 9bbc
00000360: 8e46 273e 20aa 1bbe ec74 f3bd e6b7 ac3d
00000370: 013e b6bd 696d 98bd 3ca3 073e 891e 983e
00000380: b587 29be d9f5 713d e066 8fbd 052d 0f3e
00000390: 3b03 053f 7084 c1bc 8bf3 25be 20d0 ee3e
000003a0: 39ac 023e b76d 313e fedd 06bd a92a 05be
000003b0: 7561 433e 01d4 90bd f78c 38be e982 bfbd
000003c0: df88 9bbe 9b21 ff3c 03ad d83d 79a7 563e
000003d0: 5827 c7bd c301 ca3d dcf2 cebd fbb0 63bd
000003e0: faf3 c33d e2a3 2c3d a82c fa3d df91 9f3d
000003f0: e484 f53d 3c7d 90bd 1bb0 1ebe 7558 0bbe
-0.06065066 -0.04630496 -0.16398944 -0.014852708 0.1550299 -0.12882636 -0.10880728 0.058201827
-0.26210234 0.12406964 -0.03161467 0.35201412 -0.28805047 -0.19201031 -0.019625543 0.01629442
0.09497535 0.16850014 -0.16467598 -0.17677736 0.20529437 -0.060966674 -0.5172468 0.048001807
-0.021207603 0.17234518 -0.1480574 -0.05747581 0.23382671 0.039389215 0.14829664 0.29305294
-0.047154885 0.23531637 0.0036237666 0.00667886 0.048705876 0.21386403 -0.12691139 -0.25091285
-0.09660264 -0.17949869 0.40775236 0.03597393 -0.098536275 0.12272968 0.1310735 -0.06033321
-0.19839706 -0.07405752 -0.28057158 -0.10672109 0.0053057848 0.0045632874 -0.12657292 0.1768287
0.13947797 0.2351355 0.03637198 0.3795093 0.12748545 -0.3584471 0.1925053 0.12561351
0.11596552 -0.03502812 -0.06427316 -0.32545805 -0.014748854 -0.075276166 0.060874294 -0.049648013
0.0650453 0.14356464 -0.15204997 0.1421189 0.13619915 0.04984366 -0.13263671 0.23783892
-0.048336264 0.044911012 0.33592707 0.12300232 0.11984914 0.06350579 -0.09853626 0.06907274
0.0786291 0.07553018 0.21470721 0.12400744 0.028627232 -0.3221277 -0.20584719 -0.31254983
0.0069719665 -0.484005 -0.15467209 -0.26936895 0.07255258 0.10523725 -0.25447065 0.07726034
0.25801465 0.11852701 -0.0048621893 -0.028056243 0.15332255 0.2178236 0.028326731 0.08715744
0.36149663 0.09588664 -0.0024344835 0.07332868 0.19677508 0.10931473 -0.27039972 0.04841041
-0.2156427 0.21976762 0.09692049 -0.06574736 0.082367375 0.04672542 -0.14051563 0.07169059
-0.086213194 -0.1632169 0.023164855 -0.20873354 0.22328089 0.049069706 -0.048061263 0.0129783675
0.027558476 -0.23943043 0.29282644 0.2802188 -0.033124752 -0.10832768 0.0040979264 -0.10507087
0.03635043 0.06139847 0.13337895 -0.05249247 0.15756957 0.1572407 0.33965582 0.38188457
0.078220196 0.021756055 -0.4422771 -0.030427527 -0.06324524 -0.19225118 0.12694435 -0.27894804
-0.028465305 -0.24377145 0.046055503 -0.054009754 0.13460518 -0.08355951 0.14676668 0.23457812
0.025333375 -0.04429432 -0.07164289 0.020901997 -0.262593 -0.31800458 -0.0031456084 0.07375125
-0.051633 0.07891428 -0.36564726 0.13889393 -0.53781366 0.060430497 0.40751922 -0.088596426
-0.3779995 0.175642 0.14531857 0.041194685 -0.031481143 0.0513746 0.054046754 -0.082008615
0.067814335 0.031721234 0.32741493 0.008852382 0.1480841 0.076612145 0.34192666 -0.054352142
0.23229994 0.13464943 -0.010527829 0.08620482 0.015099455 0.30733737 0.37089664 -0.06557297
-0.018382335 0.09080365 -0.34122702 0.24848886 -0.121700965 0.22320205 0.18565777 -0.018997725
0.16335508 -0.15201616 -0.118875355 0.08433513 -0.08898545 -0.07442743 0.13245863 0.29710796
-0.16555674 0.05907235 -0.07002044 0.13982017 0.51958054 -0.023622721 -0.16206186 0.46643162
0.1276101 0.17327009 -0.032926552 -0.13004555 0.19080146 -0.070716865 -0.18022524 -0.09351141
-0.30377862 0.031143954 0.10579874 0.20962323 -0.09724301 0.09863617 -0.101049155 -0.055588704
0.09568019 0.04214848 0.12215549 0.077914946 0.119882375 -0.070551366 -0.15496866 -0.13607962

critic.0.bias f4 [64]
00000000: 0000 0000 0000 0000 0000 0000 0000 0000
00000010: 0000 0000 0000 0000 0000 0000 0000 0000
00000020: 0000 0000 0000 0000 0000 0000 0000 0000
00000030: 0000 0000 0000 0000 0000 0000 0000 0000
00000040: 0000 0000 0000 0000 0000 0000 0000 0000
00000050: 0000 0000 0000 0000 0000 0000 0000 0000
00000060: 0000 0000 0000 0000 0000 0000 0000 0000
00000070: 0000 0000 0000 0000 0000 0000 0000 0000
00000080: 0000 0000 0000 0000 0000 0000 0000 0000
00000090: 0000 0000 0000 0000 0000 0000 0000 0000
000000a0: 0000 0000 0000 0000 0000 0000 0000 0000
000000b0: 0000 0000 0000 0000 0000 0000 0000 0000
000000c0: 0000 0000 0000 0000 0000 0000 0000 0000
000000d0: 0000 0000 0000 0000 0000 0000 0000 0000
000000e0: 0000 0000 0000 0000 0000 0000 0000 0000
000000f0: 0000 0000 0000 0000 0000 0000 0000 0000
0.0 0.0 0.0 0.0 0.0 0.0 0.0 0.0
0.0 0.0 0.0 0.0 0.0 0.0 0.0 0.0
0.0 0.0 0.0 0.0 0.0 0.0 0.0 0.0
0.0 0.0 0.0 0.0 0.0 0.0 0.0 0.0
0.0 0.0 0.0 0.0 0.0 0.0 0.0 0.0
0.0 0.0 0.0 0.0 0.0 0.0 0.0 0.0
0.0 0.0 0.0 0.0 0.0 0.0 0.0 0.0
0.0 0.0 0.0 0.0 0.0 0.0 0.0 0.0

critic.2.weight f4 [1, 64]
00000000: 9670 02bd e6aa 083e 91f0 cbbd 7b88 c53e
00000010: a5ee 54be 4ec6 74be bb65 673b a6dc 44be
00000020: 6e77 9cbe 314c 8dbd 984f 783e 9db2 3f3d
00000030: 74d0 933e c274 bb3d dd36 8a3e db14 89bb
00000040: 3329 08bd a18b 40be 734c d9bd cdc7 5ebd
00000050: e782 a9bd ce9c 2e3b fad7 863d dc9d 1abd
00000060: 61a4 2d3c 0f8a 563e 4258 6b3e 82d0 46bd
00000070: f446 443e 81e8 cabe a3ec cabd 57d4 0d3c
00000080: dc6d 35be 9432 98be 4c45 16bd df68 01bd
00000090: f638 b03e 7bc7 71bd 113e 02be 5e45 693e
000000a0: e4a2 d53d 3f28 183c 44be 5e3e e415 1cbe
000000b0: afad 4bbe fdc1 f23d 9876 eb3c 669b 53bd
000000c0: f91d 81bb f040 da3d 87fd d3bd 0af0 273e
000000d0: aba5 943e ee4f b73e 00d7 abbe 2caa 8f3e
000000e0: a890 bc3d a943 03be 3c37 803d c05b 42be
000000f0: 7929 fd3d b044 a4bc 3484 d63d e2d7 ce3b
-0.03184565 0.13346443 -0.09957994 0.3858069 -0.2079416 -0.23903772 0.0035308439 -0.19224796
-0.30559868 -0.06899298 0.24249113 0.0468012 0.28869975 0.09153129 0.26994982 -0.0041833944
-0.033242416 -0.18803264 -0.10610285 -0.054389764 -0.08276921 0.0026643756 0.06584163 -0.037748203
0.010598273 0.20951103 0.22982886 -0.048538692 0.19167691 -0.3963051 -0.09908416 0.008656583
-0.1771769 -0.29726088 -0.03668718 -0.031594153 0.34418458 -0.05902813 -0.12718989 0.22780368
0.104314595 0.009286939 0.21752268 -0.15242726 -0.19890474 0.118534066 0.028743073 -0.05166187
-0.0039403406 0.10656917 -0.10351091 0.16400161 0.29032645 0.3580317 -0.3356247 0.28059518
0.092072785 -0.12818779 0.06260535 -0.18980312 0.12361426 -0.020052284 0.104744345 0.0063123563
