experiments/exp021_ppo/model.pth (torch, 193238 bytes, 10 tensors)

actor.0.weight f4 [128, 53]
00000000: f590 06bd 2a57 a9bd 8cea 263a 329c 2b3b
00000010: 5d02 553d 94d3 a03b c6b4 bc3d 9ab9 4cbc
00000020: 2002 cc3d fe6b 473d be22 31bc 4cc0 65bd
00000030: 84f5 ec3d 0b20 ee3c b037 573d 5c7a 013e
00000040: 1ff5 58bd 41f4 cdbd d5ab 103e f0af 3abc
00000050: ab5a 173e 6a41 36bd db22 923d 6b39 24bd
00000060: 5cbf 68bc 5d8c b6bd 3158 a4bd 9755 913c
00000070: 6403 14bd 719f 903c f519 a23b 5241 0bbd
00000080: ed4b c83d 7aa3 b93d c833 393d ed8d 573b
00000090: 5577 693d ce3c c7bd 2dd1 853b 6f50 a8bc
000000a0: 9ad6 9a3d f4e1 f6bd dc8c 8c3d 78a5 e4bd
000000b0: 9c2c 173c ef34 3dbd 6a0f afbc 8359 bcbd
000000c0: 8e4a 6a3d 44a2 91bd aaa7 a3bc 75e0 6a3d
000000d0: 8f41 78bd 5afb 91bc aab1 b7bd 25f3 07bc
000000e0: 5790 44bd 7d2b 11bd 1fd8 ddbd 224f 92bb
000000f0: ac17 ebbd 9a16 0bbe 3564 ff3d f660 aabc
00000100: ed7d b5bc 29bc d23d 54a6 e73d edca dd3c
00000110: ab07 12be 9f2d a13d 5ed6 60bc 0f30 c43d
00000120: 6306 dbbd f8f5 9fbd b8de 693a d7ba b2bc
00000130: 42bb 8e3d 6f59 143d 7cdb bd3d 3bbb 95bd
00000140: 80f2 ce3d 1ab5 2c3d 1ae0 b63d 58b9 babd
00000150: c899 efbd f8b3 04be 0886 a03d 9ae7 25bc
00000160: 74d4 fbbc 6851 dcbd 98ed 39bd a2ba 89bd
00000170: e2ab 98bd 273a 073e 8ea3 b53d e9b2 923d
00000180: 822c c0bd 2cb4 e6bd eb9d b83c 5532 163d
00000190: 9a39 8e3d 06fc b8bd fbf6 96bd bd61 2e3d
000001a0: 64d8 b9bd e9c2 a53d ae24 513d afc1 dbbc
000001b0: 15be 3fbd 8de9 0dbe 6d8d c23d 471f dc3b
000001c0: fb1d 333e 3cda 203e c051 2b3e 33e2 fabb
000001d0: e6ea 34bd dbfb a6bd cb47 0f3e b5dc 67bd
000001e0: bda4 ba3d 68f6 283d a0b1 bd3d 96fe e5bc
000001f0: 1e28 d2bd e2be c23d e955 0ebe 79a6 59ba
00000200: 836b 8abd 3f06 e93d 3458 b33a 92f7 acb9
00000210: ac10 e4bb 2be0 0ebe 7cbd d93d b65c ffbd
00000220: 7fdc 8bbd bea8 c6bc 32d9 04bd 35ff b83c
00000230: 429f c6bc 509c ee3d f2b3 6b3c 32ed 073c
00000240: 7819 b63d 81fe 7ebd a05c a8bd 4b93 82bd
00000250: 8769 cb3d 53df 9e3b 0d57 f0bd e1b3 23bd
00000260: 84ab 953b 40dd feba 96ed a6bc df0f 16bd
00000270: be32 cabd 3ca7 8d3d 90c5 ecbb 0526 57bd
00000280: 3486 343d 2384 8b3d 3e05 0bbe 5022 bc39
00000290: 0566 72bd 6a59 cc3d c18a e6bd 3a02 74bd
000002a0: ee79 183d dbf9 56bd c50e e9bd ad60 cb3d
000002b0: 179f 2cbd 231e 513d ae48 bf3d 67f3 7c3c
000002c0: 0298 f23d e844 f03d cbd1 ef3d 0159 00be
000002d0: 9c99 50bd 26f0 b43d cb7b 063d 8669 b1bc
000002e0: feff f5bd 30d6 11bc 13da 433d 4758 8e3d
000002f0: 7bd3 f03d d52f fa3c da95 3e3d 1416 e2bb
00000300: b49c d33c 9e8f 823d c23f 02be 48d3 db3d
00000310: 92fd d239 3fdd f1bd 24e7 31bd 966b eabd
00000320: bc32 a3bd cb29 15be 3e30 bcbd 44c6 02bc
00000330: 8aba d83d 4550 c6bc 6e32 5a3c 39ff f83c
00000340: ec69 003e 5289 103e 7337 dbbd abf8 443c
00000350: f0ad e8bb dbdd 893d 4095 b23c 5e8c d4bd
00000360: 59b6 4b3d 5e4e d33d fde0 1d3d a9b5 9e3c
00000370: e76f e53d b6a6 90bb 3324 00be 77a3 abbd
00000380: da22 803c 5d5b e5bb da96 d1bd 6b73 84bb
00000390: 0012 503d 233f debc dd5c cebd bef9 423d
000003a0: bc48 343d bcd5 fd3d 070f 723c 3a44 f6bd
000003b0: 15b9 b93d bc7b b13d c136 b5bd c432 a53d
000003c0: 792e 47bd c54b 99bd fbba a5bd c964 d2bd
000003d0: 18ca 7fbd 56ac 433d 401a c13d 29cc f4bc
000003e0: d135 26bc 2989 743d d0e8 ebbd e08a 8fbd
000003f0: 39bb 66bd f9cd 853d 90c1 d83d dea1 813b
-0.032853086 -0.08268578 0.00063673477 0.002618563 0.052004207 0.0049080346 0.09214167 -0.012495423
0.09961343 0.048686974 -0.010811506 -0.05609159 0.11570266 0.029068014 0.052543342 0.12644333
-0.05296814 -0.10056353 0.14128049 -0.011394486 0.14780681 -0.044495977 0.071355544 -0.04009382
-0.01420578 -0.08913491 -0.08024634 0.017741008 -0.036136046 0.017654153 0.004946942 -0.03399784
0.09780107 0.09064384 0.045215398 0.003289099 0.05699857 -0.097283944 0.0040837736 -0.020546166
0.07560463 -0.12054816 0.06862804 -0.11164373 0.009226944 -0.04619306 -0.021369655 -0.091967605
0.057200007 -0.07111028 -0.01997741 0.057342965 -0.060609397 -0.01782005 -0.089694336 -0.008297716
-0.047989216 -0.035441864 -0.108322375 -0.004465 -0.114791244 -0.1358284 0.12470285 -0.020798188
-0.022154773 0.10289795 0.113110214 0.027074302 -0.14260738 0.0787003 -0.013722984 0.09579479
-0.106945775 -0.07810587 0.00089214323 -0.021817608 0.0696931 0.036218103 0.09270379 -0.07311102
0.10104847 0.0421649 0.08929463 -0.09117383 -0.11699253 -0.12959278 0.078380644 -0.010126019
-0.030740954 -0.107577145 -0.045392603 -0.067250505 -0.07454659 0.13205777 0.08869086 0.07163031
-0.09383489 -0.11264834 0.022536239 0.036669094 0.069445804 -0.09032445 -0.073713265 0.04257368
-0.09074476 0.08093817 0.05106037 -0.026825754 -0.046812136 -0.13858624 0.09499631 0.0067175957
0.17491905 0.1570825 0.16730404 -0.0076563596 -0.04416933 -0.08153506 0.1399223 -0.056606967
0.091134526 0.041250616 0.09262395 -0.028075498 -0.10261558 0.09509064 -0.1389996 -0.00083026994
-0.067587875 0.113781445 0.0013682903 -0.0003299085 -0.0069599953 -0.13952701 0.106318444 -0.12468855
-0.06829166 -0.024250384 -0.032433696 0.02258263 -0.024245862 0.11650908 0.014386164 0.008296298
0.088915765 -0.062254433 -0.08220792 -0.0637575 0.09932237 0.0048483997 -0.117353536 -0.039966468
0.0045675654 -0.00194446 -0.020376962 -0.03663623 -0.098729596 0.06916663 -0.0072256997 -0.052526493
0.0440733 0.068123125 -0.13576218 0.0003588372 -0.059179325 0.09977992 -0.11256934 -0.059572436
0.037225656 -0.052484374 -0.1137977 0.09930549 -0.042143907 0.05105413 0.093400344 0.015438891
0.118453994 0.11731893 0.11709937 -0.12533952 -0.050927743 0.08834867 0.032832902 -0.021656763
-0.12011717 -0.008901164 0.047815394 0.06950431 0.11759087 0.030540386 0.04652963 -0.0068996046
0.025831558 0.06375049 -0.12719634 0.10733658 0.00040243246 -0.118097775 -0.043433324 -0.11446302
-0.07968661 -0.14566724 -0.09188889 -0.0079818405 0.105824545 -0.024208197 0.013317687 0.030395137
0.12540406 0.14114884 -0.107039355 0.012022178 -0.007100813 0.06731769 0.021799684 -0.103783354
0.049734447 0.10317682 0.038544644 0.019373732 0.11202984 -0.0044144047 -0.12513809 -0.08380788
0.015641619 -0.0069994167 -0.10233851 -0.004042079 0.050798416 -0.027129715 -0.10076306 0.047601454
0.044014677 0.12394282 0.014774091 -0.12024732 0.09068505 0.086661786 -0.08848334 0.080663234
-0.048628304 -0.07485155 -0.08092304 -0.102731295 -0.06244859 0.047771774 0.09428835 -0.029882507
-0.010144667 0.05970112 -0.11519015 -0.0700891 -0.056330893 0.06533427 0.10583794 0.0039560637

actor.0.bias f4 [128]
00000000: 4dc6 68bc 86f1 f03d df48 c63d 91aa b23d
00000010: c9bf 8a3d f9ff 9c3d 42bb 5cbb 6f5e 32bb
00000020: 6fc5 0ebd 7e40 123d e183 29bc 9185 a9bc
00000030: 693e 21bd 0ddc 383d 7461 083d 4bba ed3c
00000040: 1cdb 233d a78c c73c 7565 04bd e12e 1cbd
00000050: 2298 cebc 783f ba3d a87f f3bd 93a7 e23d
00000060: 2c06 41bd eaff 003e 43fa 0bbd f23a 613b
00000070: 2590 ce3d bd22 ccbd 4375 8f3c a73a 2fbd
00000080: 66fc 9abc 5b60 73bd 98f6 df3d 7a01 82bd
00000090: 3eba 32bd 64dc 8cbc 98b2 9a3d 2526 3b3d
000000a0: 4ed4 09be 2f11 053c 4860 f03c c236 983d
000000b0: 534e 333d 5546 4abd b8a5 d03d 6240 253d
000000c0: beef 89bd 2005 3f3d 827a 29bd f309 043e
000000d0: 8c0e 84bd 3aa4 7ebc faf2 29bc a1da a43d
000000e0: e6cf 0c3d e9df c5bd 2b13 28bd aed0 233d
000000f0: 3900 4d3d 286e 80bd 56d4 ad3d 8f7d 2b3c
00000100: 461c ab3d 0a12 63bd 0e6c 06bd 5c5c 2a3c
00000110: 4fa2 edbc b124 b8bd 370f 53bc 351d e2bc
00000120: 7448 4ebd 003a d73d ce5c c7bc 9aa1 0cb8
00000130: bb0f 00be 22eb e13d 0521 86bc 4dad b2bd
00000140: 22d3 903d f03f 91bd bdb8 dcbd 1413 cb3d
00000150: 652a cebd 2d8c a0bd 0318 853d 97c9 bfbd
00000160: 7743 da3d b367 c8bc eac9 dbbc 367e b13d
00000170: b944 f63c bc1b 47ba aa17 b6bd 1f91 f5bc
00000180: 8f70 66bc 311d a33b c55b ac3d 6e80 603d
00000190: 49f5 743d 852e 9c3d 7305 873d 9246 b43d
000001a0: ec77 223d b47f 7cbd 0ded 253d d00f 0b3d
000001b0: e39d 71bd 23ae 983d e610 e13d 2ab6 573d
000001c0: 8be4 463c e77a b2bb 3f54 ee3b 85fa 903d
000001d0: 90cb 523d e6dc 5e3d 9f7e 9abd 3319 4c3d
000001e0: 31bd f5bd 237e 333d 112f 923d fe4b 62bd
000001f0: d1b0 ecbc e2be 56bd 0cc4 c13d 50ac bbbd
-0.014207435 0.11764817 0.09681868 0.08723939 0.06774861 0.076660104 -0.003368095 -0.0027216931
-0.034856256 0.035706036 -0.010346384 -0.020693572 -0.03936616 0.04513173 0.033296064 0.029019495
0.04000388 0.02435906 -0.03232332 -0.038130645 -0.025219027 0.09094137 -0.11889583 0.110671185
-0.047125027 0.12597623 -0.034174215 0.003436741 0.10086087 -0.09967563 0.01751197 -0.042780545
-0.018919181 -0.059418064 0.10935706 -0.06347938 -0.043634646 -0.017194934 0.07553595 0.045690674
-0.13459894 0.008121773 0.029342785 0.07432319 0.043775868 -0.04938348 0.10187858 0.040344603
-0.0673518 0.046635747 -0.0413766 0.1289442 -0.06448087 -0.015542084 -0.0103728715 0.08049513
0.034377955 -0.09661848 -0.041033905 0.039993934 0.05004904 -0.06271011 0.084877655 0.010466947
0.08355002 -0.055437125 -0.032817893 0.010397997 -0.029008059 -0.08991373 -0.0128820455 -0.027601818
-0.050362065 0.105091095 -0.024336245 -3.3529104e-05 -0.12506 0.11031176 -0.016373167 -0.08724461
0.070715204 -0.07092273 -0.107774235 0.09915748 -0.1006668 -0.078392364 0.064987205 -0.09364622
0.10657399 -0.02446351 -0.026829679 0.08666651 0.030062066 -0.00075953803 -0.08891232 -0.029976426
-0.014064922 0.004977845 0.08415941 0.05480998 0.059804235 0.076260604 0.06592836 0.08802523
0.039665148 -0.061645225 0.040509272 0.033950627 -0.058988463 0.07455089 0.10989551 0.05266396
0.01213945 -0.00544678 0.0072732265 0.07079033 0.051463664 0.054409884 -0.07543682 0.04982872
-0.11998976 0.043821465 0.071378835 -0.055248253 -0.028892906 -0.052428134 0.09461221 -0.091637254

actor.2.weight f4 [128, 128]
00000000: 2478 673d 7e90 f4bc d050 f33a d9ec 5d3d
00000010: acc4 743d fa7f 213d 24d8 5bbd cd69 4cbd
00000020: bfd7 8dbc 5980 a03d fd84 903b a272 75bd
00000030: 50c9 5fbd 7dec 53bd 7e4d 2c3d 288b af3c
00000040: fed8 b3bc 311c 8f3c 8217 e7bc 1f3c 4d3d
00000050: 0aef 6cbd 9bd0 bbbd 62ec 173c c12e a43d
00000060: 4e6f 343d 1bc5 66bd b93e fc3c c1a2 71bd
00000070: 3408 7dbd 6aac 8dbc ce81 5a3d 76ca 0f3d
00000080: af61 943d 3248 6f3d f009 1cbd a18e 8bbd
00000090: bb30 d4bb 259f 733d 7602 d03d cdc4 10bd
000000a0: a1b2 91bd a4d9 82bc 17b9 723d c7a2 863d
000000b0: 509f 05bb de35 eebb 2776 fc3b 8519 82bd
000000c0: 5429 bc3b d4ec 933d 6944 343d 4c57 823d
000000d0: 1a4e 533d ab76 8fbd bf54 a03d c844 a13b
000000e0: 1d29 9cbc 5267 d9bd 1c06 97bd d5ef 19bb
000000f0: 0d5b 8d3b 3f32 253d 5a7d a63d d4d1 afbd
00000100: 91e8 a13c e844 2f3d f39e 8f3d 4309 03bd
00000110: 8566 4f3d 5fd4 653d 0032 b63d aaf2 cb3d
00000120: 3b32 68bd 88d7 973d 9d6a 833d 8a5d 84bc
00000130: 794d 063b 84a8 5c3d 878a 9d3d 993e b1ba
00000140: 063d 9e3c 463b 733d 3bba 83bd d937 7d3c
00000150: bacc 52bd c0de 08bc 520c 8cbd 28c9 0539
00000160: b24b a9bc dd7a 253d 9709 af3d f7fc c93c
00000170: 5eca 003d 854c c4bc 1266 fa3c 585d cc3d
00000180: 0009 033d 846b 1fbd 3ac3 e1bd e10e 4a3c
00000190: 35ea 87bd 0942 9c3c 86ca 2b3d 716f a4bc
000001a0: 857a 9cbd 1a46 cb3c bf04 c43d 2124 5abc
000001b0: 359b d0bb 9df6 6b3d 64f9 a73c 496f 613d
000001c0: 151d 723d 9d86 0d3d 8c09 e2bb ff4d df3c
000001d0: ad19 013d 1bcd 153d 91e9 cbbc 0af9 a8bc
000001e0: e67e c03d c7c3 3a3d a9c4 813d 54b8 b1bc
000001f0: 2593 103d d292 95bd f7e5 b4bd 16be 483d
00000200: 6a9e 5dbd 5ca3 8a39 e812 ce3c a672 063d
00000210: 07d5 1b3d 2f67 ae3c 2adc 893c 7cc6 da3c
00000220: a3d4 8cbd 6795 b6bd 5417 bbbd 545b c339
00000230: 7c2f 89bd 41b4 8ebd 4327 62bc e4f0 07bd
00000240: 5e67 9a3c c7ac 8dbc eb7e 053d 8c8d 4ebd
00000250: 2511 a63c 5968 98bd a574 5b3d dcf1 173d
00000260: 4710 a9bd 37d2 f1bb a016 c63d 16fd b63c
00000270: 6490 c23d d3c8 08bd 4177 1a3d 855c 813c
00000280: 689e 45bd a529 873c 23c8 21bd c0b9 56bd
00000290: da8d aebd b7b7 d3bc 1e83 48bd 511a 583d
000002a0: 9e2a 50bd c670 a0bd 94bc 923d 5bbd d7bc
000002b0: 24d6 38bd f651 823d df22 fb3c 02ff 5f3d
000002c0: 8bbd 64bd 4cdc 49b8 40a7 74bc e4c2 7b3d
000002d0: 5f10 a9bd 1cbd 953d b776 c33c 6292 cfbd
000002e0: 7f18 3f3d 7e71 403d d207 eabc f01e b9bd
000002f0: 9549 ae3d 0077 443d 1f23 1cbd 9a5f 5c3d
00000300: 087a db3c 9cfe 3dbd f296 383d 3dee 4ebd
00000310: 6e03 a03d 4bd0 953d 38ea 8d3d 574b 2f3d
00000320: 14f5 063d 26d0 a1bd 228b 8d3c 4ec6 75bc
00000330: 7b41 063c 3574 d0bc 7ca0 4bbd e8c4 f63c
00000340: 9251 573b b110 cd3d a7d4 9abc b5e5 9ebd
00000350: 0c56 9dbd d98a 50bd 51a5 3bbc 8bd6 993d
00000360: 8a87 21bd b0c5 cfbc ba84 85bb 04c2 843a
00000370: 98e6 983d f7ec a8ba 875d ac3c 6095 adbd
00000380: 2070 023d 016c 713d 12d1 223d c864 1b3d
00000390: deae a6bd 8df6 013c 7617 e5bc 3215 053d
000003a0: 3b22 c03d c8fb 76bb 3473 1dbd 89a3 21bd
000003b0: 6dcf 223d e866 3b3d 9120 16bd ea37 a73d
000003c0: a461 a4bd 934c 0cbd 60ac ae3d 8a0c c33d
000003d0: 908c aebd 8ec3 53bd 1038 9c3d 841d 99bd
000003e0: db63 733d 241f 923d c39a 8f3c 1157 ecbd
000003f0: 048b a1bd 0979 87bd 1c2e 073b b156 113b
0.05651106 -0.029854055 0.0018563513 0.054180954 0.059757873 0.03942869 -0.053672925 -0.049905587
-0.01731479 0.078369804 0.0044103847 -0.059923775 -0.054635346 -0.051739205 0.04206609 0.02142866
-0.021954056 0.017469497 -0.028209452 0.050106164 -0.057845153 -0.09170648 0.009272667 0.0801673
0.04405146 -0.05634032 0.030791627 -0.058993105 -0.0617754 -0.017294127 0.053346448 0.03510519
0.07245194 0.05841846 -0.038095415 -0.06814314 -0.0064755357 0.059477944 0.101567194 -0.035343934
-0.07114149 -0.01597292 0.059258547 0.06574016 -0.0020389147 -0.007269605 0.0077045145 -0.06352524
0.0057422314 0.07222906 0.044010554 0.06364307 0.051588155 -0.07005056 0.07828664 0.0049215294
-0.019062573 -0.1061541 -0.07374212 -0.0023488898 0.0043138326 0.04033112 0.08129378 -0.085849434
0.019764217 0.042790323 0.07012739 -0.031991255 0.05063488 0.056110736 0.088962555 0.09958394
-0.05668853 0.07414156 0.06416819 -0.016157884 0.0020492955 0.053871647 0.076924376 -0.0013522684
0.019316208 0.0593827 -0.06432005 0.01545521 -0.051464774 -0.008353889 -0.068382874 0.00012758805
-0.020665977 0.040400375 0.08546751 0.024656756 0.031442992 -0.023962269 0.030566249 0.099787414
0.031991005 -0.038920894 -0.11023565 0.012332649 -0.06636468 0.019074457 0.04194119 -0.02007267
-0.07640556 0.0248137 0.09571218 -0.013314278 -0.0063661584 0.057608236 0.02050466 0.05503777
0.059109766 0.034552205 -0.0068981107 0.027258871 0.031518627 0.036572557 -0.024891647 -0.020626564
0.09399204 0.045596864 0.06336338 -0.02169434 0.035296578 -0.073033944 -0.08832925 0.049009405
-0.054106154 0.00026443123 0.0251555 0.03282418 0.038044956 0.021289436 0.016828615 0.026705973
-0.06876495 -0.08915215 -0.09135309 0.00037261343 -0.0669851 -0.069679745 -0.013803306 -0.033188716
0.018848117 -0.0172943 0.03259174 -0.05042796 0.020271847 -0.07441778 0.053578038 0.03709589
-0.08255058 -0.007379796 0.09672284 0.022337478 0.095001966 -0.033394646 0.037711386 0.015791187
-0.04824677 0.01649935 -0.039497506 -0.05242324 -0.0852315 -0.025844438 -0.048953168 0.052759472
-0.050821893 -0.0783401 0.07164875 -0.026335409 -0.045126095 0.06363289 0.030656276 0.054686554
-0.055844825 -4.8127302e-05 -0.014932454 0.06146516 -0.08255076 0.073114604 0.023860319 -0.10135342
0.04665422 0.046983235 -0.028568182 -0.09039104 0.085101284 0.04796505 -0.03811943 0.05380211
0.026791587 -0.046385393 0.045065828 -0.05052017 0.07813154 0.07315119 0.06929439 0.04279646
0.03294857 -0.07901029 0.017278258 -0.015000893 0.008194323 -0.025446037 -0.049713597 0.03012319
0.0032855016 0.10012949 -0.018900229 -0.07758657 -0.07682428 -0.050913665 -0.011452989 0.07511624
-0.0394359 -0.02536282 -0.00407466 0.0010128622 0.07465857 -0.0012888004 0.021040691 -0.08475757
0.031845212 0.05894089 0.039750166 0.03793791 -0.08138822 0.007932317 -0.027965289 0.032490917
0.09381529 -0.0037686694 -0.038439944 -0.0394626 0.039748598 0.045752436 -0.03665215 0.08164962
-0.08026436 -0.034252714 0.08528972 0.09523876 -0.08522904 -0.051700167 0.076278806 -0.07476333
0.0594214 0.07134846 0.01752985 -0.11540044 -0.07887843 -0.066148825 0.0020626849 0.0022176916

actor.2.bias f4 [128]
00000000: 6f8d 8cbd 9c7f 93bc e8c4 d2bc 4865 8abc
00000010: 58bd 153d c0e8 8d3d cdc2 c7ba 5e13 a83c
00000020: f17a 71bd e942 833d 4e43 dabc cfb3 86bc
00000030: ffe5 bc3d 423d c2bd a9de 883d aef8 55bd
00000040: a453 a33d 1784 803d 7cd5 b0bd 6b05 1abd
00000050: cef3 13bc 74fb 4c3d 3b25 0e3c e711 a73b
00000060: fa59 8e3d 631b 383c 6fad 87bc 3708 b13d
00000070: f305 94bd 2ffc 2a3c e724 923d ae36 473d
00000080: 6f0f ef3a fdd1 40bb 1051 2bbd 769f 9bbd
00000090: 560d 3dbd 6171 8abd 8f1f 7d3d 5d28 1b3d
000000a0: 97cb 94bd bf3b ff3b d868 8ebb ef1f 5abc
000000b0: dc98 a1bd 939a a2bc dfad 543d 3d95 e73c
000000c0: 77bc 6e3d b7e4 223d cad0 543d fea3 8f3d
000000d0: 0da4 99bd 295a ab3d cbb9 01bd 2ca7 1f3b
000000e0: 9dc6 8a3d a74d 6fbc efb6 973d 8478 963d
000000f0: c0cd 61bd 880c 633d fc46 95bd 2305 99bd
00000100: 948f 8a3d 59ce 383d bfee 163c dd44 22bd
00000110: 9d3c 7a3d 9916 9abd 3684 4d3c 3588 5cbd
00000120: 6927 57bd 516a ad3d 1de9 473d 2749 223d
00000130: feab f23b d68e 98bc 9e96 14bd e655 c6bd
00000140: ec49 9bbd cd89 b23c 9e84 fb3c 5338 99bd
00000150: 0571 3f3d 4cef 64bd c2bf 043d b6f3 81bc
00000160: c163 6cbd 3797 4b39 1897 78bc 1a15 2abd
00000170: 8bfa ba3d 7ef9 363d b60b 443d 25c5 1dbc
00000180: 1448 e73c 0ebe 293d 2a1f 7dbd af99 3e3d
00000190: 44f0 df3b a423 07bd a1cc 6cbd ecfb 23bc
000001a0: a0dd 45bd 9972 8bbb 60c6 273c 86f8 46bd
000001b0: e10f c73c efe6 7ebc 8e25 1cbd 11aa 20bc
000001c0: a615 01bd 3a66 163c 05e6 7abd 9716 4ebd
000001d0: 766c 57bd 4070 10bd 2d43 9e3d abf6 a3bc
000001e0: 7cf1 40bc aa6d 7dbb 377d 943c 0db1 a93c
000001f0: 79ea 3d3d a0b8 41bd 8bca dabc 82a0 963d
-0.06862914 -0.018005185 -0.025728658 -0.016893998 0.036557525 0.06929159 -0.001524055 0.020517047
-0.058955137 0.064092465 -0.026643422 -0.016443161 0.09223556 -0.0948434 0.06683094 -0.052239113
0.079749376 0.06275194 -0.08634469 -0.037602823 -0.009030296 0.050044492 0.008675869 0.0050985697
0.069507554 0.011236998 -0.016562192 0.08644145 -0.07227697 0.010436102 0.07135945 0.04863613
0.0018238852 -0.0029422038 -0.041825354 -0.07598774 -0.046155296 -0.067599066 0.061797675 0.03788029
-0.07265394 0.0077891047 -0.0043459944 -0.013313278 -0.07890484 -0.019849097 0.05192363 0.028269405
0.058285203 0.0397689 0.05195693 0.07013701 -0.07501993 0.08366806 -0.031671327 0.0024361117
0.06776164 -0.014605916 0.07407939 0.07347205 -0.05512786 0.055431873 -0.0728893 -0.07471683
0.067656666 0.045118663 0.009212195 -0.039616454 0.06109296 -0.075238414 0.012543729 -0.053840835
-0.05252782 0.08467544 0.0488063 0.039620545 0.007405757 -0.018622797 -0.036276452 -0.096843526
-0.07582459 0.021794224 0.030702885 -0.07481446 0.046738643 -0.055892274 0.032409437 -0.01586328
-0.05771232 0.0001941592 -0.015172742 -0.04152403 0.091298185 0.044671528 0.04786273 -0.009629522
0.028232612 0.041441016 -0.0617973 0.046533283 0.006834062 -0.032992974 -0.057812337 -0.010008793
-0.04830706 -0.0042556045 0.010240167 -0.048576854 0.024299564 -0.015557989 -0.038121752 -0.009806172
-0.031514786 0.009179646 -0.06125452 -0.050314512 -0.05259367 -0.0352633 0.077276565 -0.020015081
-0.011776324 -0.0038670101 0.018126113 0.020714307 0.04636619 -0.047295213 -0.026707908 0.07354833

actor.4.weight f4 [1, 128]
00000000: a410 6abd 781b cd3d e3cc 4bbd 9527 943d
00000010: 8867 91b9 98ba b33c 1448 2e3d 92e7 5dbd
00000020: 5aef 4b3c bf09 e03c 7c9e 92bc 6164 b43c
00000030: 72e9 433d 4f9d b3bd 3e78 77bd 9e75 d33d
00000040: 97fe cc3d 9b6c b5bb dfc7 b5bd 2106 87bd
00000050: a28b 623d 7bc0 523d 32e7 af3d 3520 b1bd
00000060: c218 6d3d 0bef 1e3d d806 b3bd 0ab0 ac3d
00000070: 6f13 993d 95dd b33d 3353 b33d 8c6e ff3c
00000080: f539 613d 775a 2d3d b7d0 233d 1533 cc3d
00000090: 5090 bebd 11be 5cbd 36eb 86bd f8ee 82bd
000000a0: d5a4 b53d abdc 303a 40c4 2f3d e3b4 62bd
000000b0: 9d38 ac3d c41a 3f3d dfd9 00bd 4750 8b3d
000000c0: 2bc5 ce3d cfc1 b73d 33d0 87bd d0ce 3fbd
000000d0: 3018 6dbd 3b24 b23d a3d7 83bd b4eb c03b
000000e0: d29b 5dbd bb5b f83c 11f5 a1bd 6758 54bd
000000f0: d6e8 163d 1948 e7bc c39d 8f3d 209d a73d
00000100: 6263 94bc 08c6 a4bd ea01 fc3c 917f 71bd
00000110: 5ddd ba3b 405a 92bb 80c8 bbbd 32ed 50bd
00000120: fb10 44bc 79dd 2b3d 605d 8b3b 474c 053d
00000130: 6417 b3ba 8d55 fabc b9d0 983c 4411 0ebd
00000140: 90ba 96bd 0e22 98bb 59a2 b33b dffd bcbd
00000150: ba26 7dbc 0629 d5bc c439 913b e112 09bd
00000160: 62d2 4b3d 7973 91bc b1f8 b3bd 63dd 213d
00000170: f62e 073d 7be1 8abc 106e 8eba 28e6 893d
00000180: bbf1 e4bc 9a8a ac3d 88b9 76bb d329 b1bd
00000190: 8cf8 9a3d 82f1 4c3c 8c2d 7dbd 4f7d 9abd
000001a0: 8fbc 58bd 664a c8bd c6a9 86ba 5ed4 abbd
000001b0: 1c50 8b3a 6b36 9e3c dbcc 7ebc 3ad1 31bd
000001c0: f0b5 0cbd 42cc 81bd cdc5 473b 8831 793d
000001d0: 0976 7cbc d7c1 473d 31de 5a3d f3ad 63bd
000001e0: 39fd 4bbd d4a7 863b 1705 3dbb c126 a3b9
000001f0: 3a75 10bd e6bf 4dbd db87 463d d148 953c
-0.057144776 0.10015005 -0.049755942 0.07234112 -0.00027733692 0.02193956 0.042549208 -0.05417592
0.012447203 0.027348397 -0.017897837 0.02202052 0.047830053 -0.087702386 -0.060417406 0.10325168
0.10009497 -0.0055366284 -0.08876013 -0.06592966 0.055308945 0.051453095 0.08589019 -0.08648721
0.05788494 0.038802188 -0.0874154 0.08432014 0.0747441 0.08782498 0.08756103 0.031180643
0.054986913 0.042322602 0.039993968 0.099706806 -0.09304869 -0.0538922 -0.06587832 -0.06393236
0.0886933 0.0006746749 0.042911768 -0.05534829 0.084092356 0.046656385 -0.031457778 0.06802421
0.100962006 0.08972513 -0.06631508 -0.04682809 -0.057884395 0.08698317 -0.06437614 0.005887473
-0.05410368 0.030317178 -0.07908071 -0.05184212 0.036843143 -0.028232621 0.070125125 0.08184266
-0.018113796 -0.08045584 0.030762631 -0.058959547 0.005702658 -0.004466325 -0.09169102 -0.051007457
-0.011966939 0.04195926 0.0042530745 0.032543447 -0.0013663587 -0.030558372 0.018654214 -0.034684435
-0.07359803 -0.0046427315 0.005482 -0.092281096 -0.015451128 -0.026020538 0.004431935 -0.03346527
0.049761184 -0.017755257 -0.087876685 0.03951777 0.03300377 -0.01695322 -0.0010866541 0.06733352
-0.027947297 0.08424874 -0.0037647206 -0.086505555 0.07566938 0.012508752 -0.061811015 -0.07543432
-0.0529142 -0.097798154 -0.0010273985 -0.08390115 0.0010628733 0.019313058 -0.015551771 -0.043412425
-0.034353197 -0.06337787 0.0030482889 0.060838252 -0.015409001 0.048768844 0.053434554 -0.055585813
-0.04980204 0.004109362 -0.0028842145 -0.00031118657 -0.035268046 -0.050231837 0.048469406 0.018223198

critic.0.weight f4 [128, 53]
00000000: e036 c53d 63bc dd3c 989d aa3d 0eed e4bc
00000010: 1099 af3c 67a9 963c f07b 613d ab15 d3bd
00000020: 2609 f0bd e6c7 a8bc a85c 9d3d 4f98 35bd
00000030: 3806 043d 4d26 7dbc 9f32 abbd 4637 d8bd
00000040: 03e8 913d 3ae7 00bb 4e5c 6cbd ea71 d33d
00000050: 9f99 013d 537d e0bb 4517 bfbd 8061 5cbd
00000060: 0e33 6b3d df41 89bd 53c7 ecbd 4147 a6bd
00000070: e072 9bbd 9611 063e 675e aebc 3703 37bc
00000080: 97a2 a3bd 4775 9b3d 6686 65bd 7bf3 1abd
00000090: a28a 9d3d 50c6 45bd 06b2 ff3d 6e87 a23d
000000a0: 32e9 dcbd 410e 84bd 0b1e c03d e715 bd3d
000000b0: 6d55 bd3c 7fd3 0c3d cf51 ebbd 691c ed3d
000000c0: 83b6 b43d 25dc be3c f8de ddbc bf55 45bd
000000d0: 6703 70bd 558f 69bc e65c 7d3c 481c d3bd
000000e0: 3b2d a43d 9d8f f6bd 2112 a7bd fe36 a43d
000000f0: 30e3 6ebd a7a3 c2bd ac85 763d c2af fcbb
00000100: c9b4 a93d 8886 abbd fe3a 153c bec4 acbd
00000110: 3084 f9bd 60dd b13a 4c60 afbc 1d8c 70bc
00000120: a3f3 e73d b83c a7bd acd4 223d 48e6 1e3d
00000130: e586 03be 7ddd b13d b9b7 22bd 311b 6ebd
00000140: 281c d13a 760c 27bc b4e3 073e c514 c93d
00000150: 7023 363d ec4d a73d b37a aebc dbb0 703c
00000160: 4768 103d 7be6 9abc 5024 f23c 56ca 90bc
00000170: ae31 0bbd 3098 1a3d 2661 813d e03a ef3d
00000180: fcde 543c d35f 0fbd 308c eb3c 27d1 0b3e
00000190: f3c9 ffbd dbb1 f73c f753 3abd 7163 cabc
000001a0: 854b f6bd 6d10 b43d 2bac 4fbc 30db d23d
000001b0: e0fe 04bd 4e78 0abe 66cb 96bc f1de d53d
000001c0: 1e63 8d3d 9319 44bd 15ce a1bd 8928 e03c
000001d0: 5b99 743d 6c0e 00be 2777 0ebc 6328 d8bc
000001e0: 030d c5bc 0716 d4bc 8b5c b9bc fa89 d73d
000001f0: afbb 04be 2b4f b9bd d8a2 843c 2ea8 a0bd
00000200: 5eba 843c c9c8 7e3d ab23 803d e33f 4e3c
00000210: 5893 9a3d 7b3e 723d 3b3f abbd cee0 983d
00000220: aa2a 66bc 7140 28bd 1e82 e4bc 6e3e 82bd
00000230: 9e7b 413d 6f3a 16bd 942e 39bd bb07 103d
00000240: 2231 2cbd 5dc5 c3bd af81 54bd 19ec 053c
00000250: 3489 80bc b8f2 aebc d95b ddbd b312 dcbd
00000260: 1f4d c1bd d94d 853d 4445 0aba 14dc 81bd
00000270: e36b 02bd 64b2 d6bc 825a 31bd 1e70 adbc
00000280: d1a3 fcbd ea05 26bd b157 c9bc 4938 903d
00000290: cd12 cebd db15 013e 68a1 053d 9556 abbd
000002a0: 1c9d 893d e372 0d3d 8b37 a4bd 4b17 d53d
000002b0: 6a48 233d 4204 03be 7d34 423d 0aa4 073e
000002c0: 743d c9bd 50f3 b0bb 50a4 03bb 51e5 b8bd
000002d0: cdc8 54bd 99c8 e63c 8f5a a53d 70ca 79bd
000002e0: cbb2 f43d 13be 8dbd 6244 7dbb 0227 663d
000002f0: 6c29 d33c a48e f4bc def5 fabd b9fc c53d
00000300: f9e1 04be 54bf 08be 5c71 43bd e8ee 52bd
00000310: 20d3 eb3d e6aa 86bd 3480 933d 6e6f 18bd
00000320: 4a34 08be 284a b2bd 5769 223d ae8c e3bd
00000330: a4e9 11bd 9138 da3d 090d ffbd be56 e53d
00000340: be57 b7bd 7e5b ebbd 51da e03b d905 a3bd
00000350: bd59 c1bc 416c 1e3c 343e dabc ef99 093e
00000360: bd28 6b3d f96b a63d 1f7f 93bd 20b7 8b3d
00000370: 9364 083d 2ace 4f3d b6d6 b23d c96f c7bd
00000380: 49e4 e2ba 83fc fa3d f3d6 693d 70fd dd3d
00000390: bbee e93b 32cf 04be 0ca4 d2bb fda3 093d
000003a0: 74f1 d73d e754 bdbd 5917 e93c 3b8c 433d
000003b0: db1b 89bd 1bc6 753d bd8f c73d 3c87 4fbd
000003c0: 90a1 b2bd 3170 d2bc 1c39 133d ffaf de3d
000003d0: ef4a d23d ee61 02bc 7eaf 06bd 7924 06be
000003e0: b088 c53d 4068 323d 9d60 dabc 2f2d 71bd
000003f0: 36d5 38bd a55e 43bd c704 ae3d 1e09 d93d
0.09629607 0.027067369 0.0833084 -0.027945068 0.02143529 0.018391324 0.055049837 -0.10306867
-0.11720495 -0.020603132 0.076836884 -0.044334706 0.032232493 -0.015451026 -0.083592646 -0.105574176
0.07124331 -0.0019669072 -0.057705216 0.10324462 0.031640645 -0.0068508773 -0.0933061 -0.05380392
0.057421736 -0.06702017 -0.115614556 -0.08119059 -0.0759027 0.13092646 -0.021285249 -0.0111702
-0.07989996 0.07590728 -0.056036375 -0.037829857 0.07692458 -0.04828483 0.12485127 0.079359874
-0.10786666 -0.06448031 0.0938073 0.09232693 0.023112023 0.034381386 -0.11490213 0.115776844
0.08823874 0.023298332 -0.027083859 -0.048177477 -0.058596995 -0.014255364 0.015464043 -0.103081286
0.080164395 -0.12039111 -0.08157755 0.080183014 -0.05832213 -0.095038705 0.060186073 -0.0077113817
0.08286435 -0.08375269 0.009108303 -0.08435963 -0.12183416 0.0013570003 -0.021408223 -0.014681843
0.11325767 -0.08165878 0.0397536 0.038793832 -0.12844427 0.08684824 -0.039725993 -0.0581314
0.0015953826 -0.010195842 0.13270456 0.098184146 0.04446739 0.08169159 -0.021298742 0.014690603
0.035255697 -0.01890873 0.02955833 -0.017674606 -0.033982925 0.037742794 0.06317358 0.116811514
0.012992617 -0.035003494 0.02875337 0.13654004 -0.12489691 0.030236175 -0.04549023 -0.02470562
-0.12026123 0.087921955 -0.012675325 0.10295713 -0.03246963 -0.13522455 -0.018407535 0.10442913
0.06903671 -0.047875952 -0.07900635 0.027363079 0.059716564 -0.12505502 -0.0086954 -0.026386445
-0.024054056 -0.02588941 -0.022627136 0.10524364 -0.1296222 -0.09048303 0.016190931 -0.07844578
0.016202148 0.062203202 0.06256803 0.012588474 0.07547635 0.059141617 -0.0836167 0.07464753
-0.014048258 -0.04107708 -0.027894076 -0.06359564 0.04723703 -0.03667682 -0.045210436 0.035163622
-0.042039044 -0.095591284 -0.05188149 0.008173966 -0.015690424 -0.021355972 -0.10808534 -0.10745754
-0.09438538 0.06508989 -0.00052746036 -0.06340805 -0.03184117 -0.02620811 -0.043299206 -0.021171626
-0.12335933 -0.040532984 -0.024577947 0.070419855 -0.1006218 0.12605993 0.032624632 -0.083661236
0.06719419 0.034533393 -0.080184065 0.104048334 0.03986398 -0.12794593 0.047413338 0.1324617
-0.098261744 -0.005400099 -0.0020086952 -0.09028114 -0.05194931 0.028171824 0.08073913 -0.060984075
0.119481646 -0.069210194 -0.0038645496 0.056189544 0.025776587 -0.029853173 -0.12253927 0.09667344
-0.12976827 -0.13354236 -0.04771553 -0.05149737 0.11514878 -0.06575565 0.07202187 -0.037215643
-0.13301197 -0.087055504 0.03965124 -0.11110817 -0.035623208 0.106553204 -0.12453658 0.111981854
-0.08952282 -0.1149206 0.006861963 -0.079601 -0.02360236 0.009669364 -0.026640989 0.13437627
0.057411898 0.08126063 -0.07201981 0.06822038 0.03329904 0.050733723 0.08732359 -0.09738118
-0.0017310466 0.12255194 0.057089757 0.10839355 0.0071390546 -0.12969664 -0.0064282473 0.033603657
0.105441004 -0.092447095 0.028453516 0.047741156 -0.06694766 0.06000338 0.09744213 -0.05066608
-0.08722222 -0.025688263 0.035943136 0.10873412 0.10268199 -0.007957919 -0.032882206 -0.1309985
0.09645212 0.04355645 -0.026657397 -0.05888098 -0.04512521 -0.047697682 0.08497005 0.10597442

critic.0.bias f4 [128]
00000000: 59b2 9cbd b3ba 413d 8888 95bc 9b4a ac3d
00000010: 47de 473d 4937 86bd 2b94 203c 63e1 9e3d
00000020: ae3b 78bd 4561 9a3d 44f3 d33d 18db 433d
00000030: 74f7 833c 45ef 953d f750 05bd faf8 323d
00000040: 1f6e 6e3d b517 18bd ff0c f23d ffd6 9abd
00000050: 1333 a2bd 6afb 09be 8578 b13c 98a3 dd3d
00000060: f428 8d3b c50d d43d 4fc1 38bd 8344 cc3c
00000070: 343c c3bd 77b8 e9bd 38e7 a03d 4fa1 b3bd
00000080: 18fc 073d 3a60 e4bc 2268 00bd 6a1c c8bc
00000090: 6fba 22bc b73a a6bb 5e94 873d a044 603d
000000a0: b179 b2bc 93f0 79bd 1c58 0e3a 193b 633c
000000b0: 66dc 6dbd 28c3 8d3d 67c0 a8bd b1e4 90bd
000000c0: 6513 9abd b32d 11bd c5ae 183c cb59 bd3d
000000d0: cd28 a13d d410 28bc 0bd0 0a3e 6aac 7d3d
000000e0: 7c8b aebd 8181 a63d 4f45 233d 2a30 0a3d
000000f0: 98ef ae3d e512 173d ae38 babd 81e2 a73d
00000100: ab61 d83d fdfe 963d e7ff d43d 1518 ebbd
00000110: 1e1c d03d a923 a43d b6b0 dd3c a074 c2bd
00000120: 046d 04be 060e ab3d 0508 13bc cf01 8fbd
00000130: cae5 a83d 5447 493d d628 d13d fded ae3d
00000140: 5c76 0a3e 1be9 03be fe7a 0abd dfd1 a9bd
00000150: 6f69 e53c ece6 2bbd f546 d93d efe8 babc
00000160: f0fb 813d f35d 063d 07d4 0abe dcb2 3fbd
00000170: 4da2 e5bc e660 0b3e 106b 8cbd 454f 273d
00000180: a229 0cbe ed2c 14bd f7e0 10bd 4b1b 7d3d
00000190: e514 ca3d 8ea8 b13d 7db6 f03c 33aa bb3d
000001a0: 6737 c6bd 6df6 a6bd 93fe 903d 40df fc3c
000001b0: 6870 84bd 29e1 00be 8703 0a3e 17a7 c43d
000001c0: 85cc 2fbd 5481 023e 76c3 00bd f88f 75bd
000001d0: fc06 f03d 0622 593d 0a7f 8c3c 644b 9b3d
000001e0: f6f5 a0bd 4d67 efbd 27f6 eb3d 63ae bbbb
000001f0: 4c31 b43d a86a 393c 6971 abbc 2191 173d
-0.076512046 0.04729719 -0.01825358 0.08412667 0.048795965 -0.065535136 0.009800951 0.07757833
-0.06060379 0.07538084 0.103491336 0.047816366 0.016109206 0.07321028 -0.032547917 0.043694474
0.05821049 -0.037131984 0.11818885 -0.075605385 -0.07919898 -0.13474813 0.021663914 0.10822219
0.0043078605 0.10354189 -0.04510623 0.024935013 -0.09532967 -0.11412137 0.078566015 -0.087710015
0.0331994 -0.027877916 -0.03134931 -0.024427611 -0.009932145 -0.0050729173 0.06620096 0.054752946
-0.021786543 -0.061020445 0.00054299994 0.01386907 -0.058071516 0.06921989 -0.08239823 -0.070748694
-0.075232305 -0.035443973 0.009319012 0.09245642 0.0786911 -0.010257918 0.13555925 0.061932005
-0.08522698 0.0813017 0.03986102 0.03373734 0.08541793 0.036883254 -0.09092842 0.08197499
0.10565504 0.07372854 0.10400372 -0.11479203 0.10161613 0.08014614 0.027061801 -0.09494901
-0.12932211 0.08352284 -0.00897408 -0.06982767 0.08246954 0.04914029 0.10212867 0.085414864
0.13521713 -0.12881891 -0.0338087 -0.08291983 0.028004376 -0.04196827 0.10609237 -0.02281615
0.063468814 0.03280444 -0.13557445 -0.046801433 -0.028031493 0.13611183 -0.06856358 0.04084708
-0.13687757 -0.036175657 -0.035370793 0.061793607 0.098672666 0.086747274 0.029383892 0.09163322
-0.09678536 -0.08152471 0.07079806 0.030868173 -0.06466752 -0.12585892 0.13477908 0.09602182
-0.042919654 0.12744647 -0.031436406 -0.059951752 0.11720082 0.053010963 0.01715042 0.07582739
-0.07859413 -0.11689625 0.11521559 -0.0057275756 0.08798465 0.011316933 -0.020928102 0.03700364

critic.2.weight f4 [128, 128]
00000000: ff1a 6b3d aef3 5cbd 9155 213d ba16 6e3d
00000010: 866c 6b3d 40e0 2fbd 718c 36bd 5c80 96bd
00000020: 2516 7a3d 996b 793d a887 06bd a683 a1bd
00000030: 5c44 4e3d dc03 b0bd 6d4f 79bd 2af0 9c3d
00000040: b8cd a23d ffe9 c4ba 593b 5c3d 2f1c 0bbd
00000050: 912d ac3d 64f8 53bd dabf 30bc e74e f1bc
00000060: 2cd9 133d 7f0f 813d 871d d13c bfbb 33bd
00000070: f737 60bc 322d a4bd f2ad fdbc 29ff 1fbb
00000080: 9bcb a93d 407a 80bd 14fb 8abd fe08 7dbc
00000090: ca08 5e3d 91c8 aabd cb80 20bd d450 d73b
000000a0: 9b01 e93c 1292 403a 6c51 a8bd dd29 8b3d
000000b0: f8e0 5bbc 6058 1a3c 5140 99bb 80b6 e3bc
000000c0: c2a3 07bc 0583 8abb 46f3 8d3d 5d75 b2bd
000000d0: 2bac 09bd 9134 9ebd d6f3 3cbd 78b5 7d3d
000000e0: 33c3 a53d 415e dd3c 2ac2 adbd 4410 7ebd
000000f0: d8c9 ddbc 6f5c bdbc 0e02 593d bcbc a83d
00000100: 81bf 333c c0c2 9d3d 5729 d3bb 5f82 9c3c
00000110: 8080 0e3d eef8 a83d 1da8 8b3b 36a4 a3bc
00000120: ad5c 5f3d 7705 4f3d 7ad4 3fbc 5c06 97bd
00000130: ae8f a53d e602 343d 8425 cbbc b1b6 2a3d
00000140: 6a9b a1bd 4499 673d 1072 8bbd cdd4 12bd
00000150: 4682 b7bc e0f0 8bbd dc15 273d 14a4 3e3d
00000160: 2d3e 12bd 6ea9 373d ca3e 0dbd 1e00 98bd
00000170: 8f4f 8b3d a96c d53c e28c a9bd 6509 06bd
00000180: c18e 8ebd 96bb c13b 9f4a 48bd 8000 a8bd
00000190: 2383 813d 594a 24bd c0ea e13c 1327 623b
000001a0: 618e c43c dd1b 42bd c9bd 8cbd 16a3 7239
000001b0: c90a 84bd b2e7 6cbd 61f7 95bd 5f29 903d
000001c0: b61c acbd 928c 9ebd 4689 123d 3dba 38bc
000001d0: cda4 0b3d 0808 573d 24b8 b43c 67bc 1bbc
000001e0: c2a7 a93d 8f70 66bd 595e 8f3d 3751 9ebd
000001f0: 7da5 89bd 6c91 76bd 4c05 9abd 1557 483d
00000200: 5fce 92ba 4b46 6b3c 56a8 903d 6e09 213d
00000210: 7e50 7c3d 6c70 1f3d e761 91bc 3947 693d
00000220: d7cf 08bc 4b59 5b3c 4a00 43bd 43f7 29bd
00000230: 5a4c 953d 0da9 2b3d 2c4d ac3d 8399 c1bc
00000240: 42c9 14bd e363 96bc d639 053d 3abb c23c
00000250: 5773 323b 3310 30bd d344 17bd 8717 a2bd
00000260: 28c2 fa3b 4246 9f3d cb5e 603d 4b33 1dbd
00000270: 5090 013d 1adf 0fbd 66e3 663d 1b20 afbd
00000280: f0aa 01bd 0628 813d 995d a9bd 3df6 2fbd
00000290: d047 1cbd d741 583d 0d3c 80bb e438 af3d
000002a0: 58e8 a3bd 27ed c93c 2002 563d 7a87 ec3c
000002b0: 7499 9c3d 1beb 1dbc 18b5 9cbd 87d4 a73d
000002c0: 5c0c 833d 2114 853d 5c41 f5bc eb00 84bc
000002d0: 7d48 35bd a2c0 2a3d 6436 0fbd 840e be3c
000002e0: 3cb2 b1bd bd1b 51bc bf2d 493d 7cbf bb3c
000002f0: 589b 74bc 7c45 b2bd 6135 303d 04fc 7dbd
00000300: c9c0 61bd 09b0 eaba e89b b23d 3cc7 e6bc
00000310: c53f 873d f3f0 efbc b5fc 58bd 3cfb e53c
00000320: 244c 30bd e146 3f3c 5ed5 6c3d bd12 8fbd
00000330: 1d96 ea3c 92c8 4bbb 8830 0abd 8864 26bd
00000340: 9585 73bc a50a 8fbd 63c9 433d b662 bdbc
00000350: 44d7 a7bd c73a 483d 5e18 8fbd 1ee1 dcbc
00000360: 934a 87bc c41d acbb 00c5 863c 8c34 903d
00000370: b80f 813c 199f 7d3d c9b4 af3c ac70 a13d
00000380: 19f8 a73d 1d5f 863d a669 243b 62cb 933c
00000390: 9b84 a93d e82f 00bd 8ab2 a2bd 938f 863d
000003a0: ec07 5bbd 49d0 8bbc edab 11bb 66ee d83c
000003b0: 7951 783c 8f7f 89bd 136d 52bc f2ad a93d
000003c0: e40c 2b3d 6147 e63c 83bf 423d c116 f53c
000003d0: d634 d6ba f184 62bc 2366 8e3d d47f 90bd
000003e0: 2dd8 1cbc a602 3e3d ec0f d03c 4123 7bbd
000003f0: dfe1 923d 6caa 9c3d cbb2 49bc e8b3 453d
0.057398792 -0.05394333 0.039388243 0.058127142 0.057476543 -0.04293847 -0.04456753 -0.07348701
0.061056275 0.06089363 -0.032844216 -0.07886438 0.05035816 -0.08594486 -0.060866762 0.07662995
0.07949394 -0.001502335 0.053767536 -0.033962425 0.084071286 -0.051750556 -0.0107879285 -0.029456569
0.036095783 0.06301784 0.025526775 -0.04388022 -0.013685218 -0.08016433 -0.030966733 -0.0024413562
0.08290788 -0.06273317 -0.067861706 -0.015444038 0.0542076 -0.08339036 -0.039185327 0.0065709148
0.028443148 0.0007345985 -0.08218655 0.06795094 -0.013420336 0.009420484 -0.0046768566 -0.027796984
-0.008278789 -0.0042270445 0.06931166 -0.087137915 -0.033611458 -0.0772487 -0.046130978 0.06194064
0.08093872 0.027022483 -0.084842995 -0.06202723 -0.027073786 -0.023115365 0.052980475 0.08239123
0.010970951 0.07703161 -0.006444137 0.019105135 0.034790516 0.082506046 0.004261984 -0.019975763
0.054531742 0.05054232 -0.011708373 -0.0737426 0.08084045 0.043948077 -0.024798162 0.041678134
-0.07890971 0.05654265 -0.06808865 -0.035847474 -0.022400986 -0.06833053 0.04079233 0.046543196
-0.035703827 0.044839315 -0.03448371 -0.07421897 0.06802284 0.02605279 -0.082788244 -0.032723803
-0.06960822 0.0059122546 -0.04889929 -0.0820322 0.063238405 -0.040109966 0.027577758 0.0034508153
0.023993673 -0.047389854 -0.06872136 0.00023139673 -0.064473696 -0.05783815 -0.073225744 0.07039141
-0.08403914 -0.077416554 0.035775445 -0.011274871 0.034092713 0.052497894 0.022060461 -0.009505368
0.082839504 -0.056259688 0.07000417 -0.07730334 -0.067210175 -0.06019728 -0.075205415 0.048911173
-0.0011200419 0.014360021 0.070633575 0.039315633 0.0616002 0.038925573 -0.017746879 0.05695269
-0.008350334 0.013387988 -0.047607698 -0.041495573 0.072899535 0.041909266 0.08413157 -0.02363277
-0.036324747 -0.018358177 0.03252586 0.023770917 0.0027229392 -0.0429842 -0.03693087 -0.07914644
0.0076525398 0.077770725 0.0547779 -0.038378995 0.031631768 -0.035124876 0.056369208 -0.085510455
-0.03165716 0.06306462 -0.082698055 -0.04295944 -0.038154423 0.052797165 -0.0039134086 0.08555773
-0.080033004 0.024649216 0.05224812 0.028873194 0.07646456 -0.009638573 -0.076517284 0.08194833
0.06398842 0.0649798 -0.029938392 -0.016113719 -0.044258583 0.041687615 -0.03496398 0.023200281
-0.08676574 -0.012762961 0.049115892 0.022918455 -0.014929615 -0.08704659 0.043019656 -0.06200792
-0.055115495 -0.0017905246 0.08721143 -0.028171174 0.0660396 -0.029289698 -0.052975375 0.0280739
-0.043041363 0.011674614 0.05782067 -0.06985996 0.028636033 -0.003109489 -0.03373769 -0.040623218
-0.014863391 -0.06984452 0.04779948 -0.023118358 -0.081953555 0.04888418 -0.069870695 -0.026962813
-0.016515052 -0.005252572 0.016451359 0.070412725 0.015754566 0.061919305 0.02144851 0.078828186
0.08201618 0.0656111 0.0025087385 0.018041316 0.082772456 -0.031295687 -0.0794421 0.06570353
-0.05347435 -0.017067092 -0.002222772 0.026480865 0.015156143 -0.06713783 -0.012843388 0.082851306
0.04176034 0.028110208 0.04754592 0.029918076 -0.0016342651 -0.013825641 0.06953075 -0.07055631
-0.009573025 0.046389244 0.025398217 -0.061312918 0.07171988 0.07649693 -0.012310694 0.048267275

critic.2.bias f4 [128]
00000000: 112e 8cbc 43e9 a33d 6520 a6bd 83f3 4ebd
00000010: 8f29 9e3d 267d 69bd 7166 2f3d 7a07 eabc
00000020: c52c 8f3c 6ef0 323d a1fd 8c3d 70ee 39bd
00000030: d7fc 923d f168 b93c 3b62 c4ba 3bf4 2e3d
00000040: 3d9a 4abd d3f4 763b 3c19 a4bc 7256 a5bd
00000050: d396 003d 9bdc 11bd 5dd6 873c 8024 18bc
00000060: 532e 6e3d c4f8 d7bb ffea 6bbd a8bf ffbc
00000070: b1d5 24bd e6b7 213d 7e06 aa3d 1bcf 94bd
00000080: e883 b03d 6da2 a8bd 22d2 17bd e774 abbd
00000090: b416 aa3d 9b6e 44ba 36b1 7abd 91e9 52bc
000000a0: f59e d83c a11a 9bbc 7411 913d f590 a4bc
000000b0: 6e6a e1bc 007e 6dbd 375b 7dbd 1eb1 ee3c
000000c0: bf7f b23d e903 b1bd d686 76bd 2ab9 4c3d
000000d0: 8bdf 05bd 67f6 073c 1ad9 953d 197f 16bd
000000e0: 85d0 723b 7193 7f3c d280 793c f8e2 613c
000000f0: 81b0 aebd 1600 03bd 29d6 10bc 1adb 223c
00000100: c02a 99bb bcec 51bd 24fb a63d fd45 8c3d
00000110: 793c d83b f5ad a13d c20c 2fbc 61b5 8eba
00000120: 5689 8abd 2001 07bd 4366 9bbd 2654 9f3d
00000130: e4aa 06bd c9d6 94bd 4bf5 ac3d 6e92 8cbc
00000140: 8127 233d 2ddf abbd 09aa 97bd 74d2 28bc
00000150: 169e aabd a2e8 1d3c eb06 4ebc 6f02 93bc
00000160: bdf2 243c 4c16 483d e100 a7bd e9b2 11bc
00000170: 61c5 2bbd ca98 093c f93d a63c 6143 dabc
00000180: 42b5 a93d 48f2 09bc 0b50 1cbd 1068 233d
00000190: d29e 01bd 00bb 7abd 3166 833d 3c78 98bd
000001a0: 3a90 8f3b 311e fbbc 3cc1 0cbd 945b 893d
000001b0: dac8 aabc 2880 88bb a28a 7fbd 2488 a23d
000001c0: 9589 a6bd 6b94 543d 87b4 47bd 1143 f8bc
000001d0: 5823 ddbc 7147 413c fb26 ac3d 82eb 86bd
000001e0: b269 86bc 2167 ae3d fdb0 78bd 96ae e83c
000001f0: 821d 93bd e000 87bd 8368 95bc dd7a 9abd
-0.01711181 0.080034755 -0.081116475 -0.0505252 0.077227704 -0.057004116 0.042822305 -0.028568018
0.017477402 0.043686323 0.068843134 -0.045393407 0.071771316 0.022633048 -0.0014982888 0.042713385
-0.0494635 0.0037682548 -0.020031564 -0.08073129 0.031393837 -0.035610776 0.016581709 -0.009286046
0.058149647 -0.0065909345 -0.057597157 -0.031219319 -0.040242855 0.03948202 0.083020195 -0.07266065
0.08618909 -0.08234105 -0.037065633 -0.08371907 0.083051115 -0.0007493288 -0.061204158 -0.012873069
0.026442984 -0.018933596 0.07083407 -0.020088652 -0.02751657 -0.05798149 -0.061854567 0.02913719
0.08715772 -0.08643324 -0.060187183 0.049981274 -0.03268389 0.008298493 0.073167995 -0.036742304
0.0037050557 0.015599118 0.015228467 0.013787024 -0.08529759 -0.031982504 -0.008840122 0.009939933
-0.0046742857 -0.051251158 0.0815337 0.06849287 0.006599006 0.07894508 -0.010684194 -0.0010887795
-0.06764476 -0.032960057 -0.07587864 0.07779722 -0.032877818 -0.072675295 0.084452234 -0.017159667
0.039832596 -0.08392177 -0.074054785 -0.010304082 -0.08330934 0.0096379835 -0.012574892 -0.017945496
0.010067639 0.04884939 -0.081544645 -0.008892753 -0.041936282 0.008398244 0.020293223 -0.026643457
0.08286525 -0.008419581 -0.038162272 0.039894164 -0.031645603 -0.061213493 0.06415976 -0.07444808
0.004381207 -0.030654045 -0.03436397 0.0670692 -0.020847727 -0.004165668 -0.06238807 0.07936123
-0.081317104 0.051899355 -0.04875615 -0.030305417 -0.026994392 0.011796818 0.084058724 -0.06587888
-0.016407821 0.08515764 -0.060715664 0.028403562 -0.071833625 -0.06591964 -0.018238312 -0.075429656

critic.4.weight f4 [1, 128]
00000000: d21a 143d 94cd 72bd 6872 463d cc31 843d
00000010: 59ea af3d 7035 b8bc a761 b0bc df47 b2bd
00000020: d347 9c3d a59a 9e3d 084d 8d3d 3917 6a3d
00000030: c718 60bd 8b0c ab3d 29b4 eb3c 06f6 b23d
00000040: bc85 9bbb b348 133c 1c8f 5d3d 3257 91bd
00000050: 77a7 d03b 737b 543d 5ff6 b03d a144 66bd
00000060: 10ce 663c 6824 7e3d ced5 883d 1d34 7dbd
00000070: 674f 99bd f5ae 08bd d43e a63d e013 9ebd
00000080: fbe9 75bd 60da 35bd f5c8 81bc a74d 86bc
00000090: 4e37 943d a2a9 493d 450d 813d 3bfe 453d
000000a0: 081d 233d d2af 23bd e364 963d 069d 22bd
000000b0: ce5a ae3d a7e0 923d 916d 84bd 8296 7e3d
000000c0: 6cc8 72bd 87d2 ddbc 1be0 863d 0c5c 243d
000000d0: 69bc 0b3d d62d 91bd f6d0 3b3b e8ae d5bc
000000e0: 06aa ea3b 591b 3d3d 0fe1 703c 71ab a6bd
000000f0: e71f 9cbd 6429 c1b9 9a41 a73d 5665 b53c
00000100: aea8 41bd 1e68 e4bc bd8c d2bc a3b8 0a3d
00000110: 62c3 e33c ae85 ab3d 77f3 aebd 0fa7 0ebd
00000120: d8f8 923d 0c28 fbbc beb2 46bc 170e 843d
00000130: 3f33 b43d 1177 64bd 06a7 bf3c 23c9 9f3d
00000140: 4757 2ebd fd5d 84bd 6cfd 43bd f0db 86bc
00000150: 1399 91bd d584 f3bc 0562 5bbd 049c d9bc
00000160: a9b8 e4bc 7131 1c3d b01b 31ba 29eb 2ebd
00000170: 29d4 1f3c 330f 903c fcbd a6bd c0b7 a7bd
00000180: 2486 8a3d 6d99 943d e020 73bd 9953 71bd
00000190: 8674 36bd e4e5 a9bd 25b0 72bd a305 97bc
000001a0: 0424 e83c 14a0 aa3d a428 b0bd 30c4 72bd
000001b0: 97d1 a3bd 4494 3c3d 0d18 b2bd ed11 6fbd
000001c0: d201 983d 95f2 a43c 7bb2 f83a 4a74 a13c
000001d0: e14a 833d e518 e93c e990 9dbd 3ac2 cbbc
000001e0: 461a b139 e569 a83d 72e8 68bd 6452 a6bd
000001f0: 8310 a33c af14 a03c 05b0 23bd 61b9 83bd
0.03615839 -0.059278086 0.04844895 0.064548105 0.0858962 -0.022486418 -0.02153094 -0.087051146
0.07630887 0.0774434 0.06899458 0.057151053 -0.05471113 0.08352002 0.02877243 0.087383315
-0.004746167 0.008989501 0.054091558 -0.07096709 0.0063676196 0.051875543 0.086407416 -0.056217793
0.014087215 0.06204644 0.06681405 -0.061817277 -0.07485848 -0.033369977 0.08117452 -0.077186346
-0.060037594 -0.04439771 -0.015842894 -0.01639445 0.07237111 0.04923404 0.06301359 0.048338156
0.03982261 -0.039962597 0.07343461 -0.03970053 0.08513413 0.07171755 -0.06466211 0.062155254
-0.05927317 -0.027077926 0.065857135 0.040126845 0.03411523 -0.07088821 0.0028658486 -0.026084378
0.0071613817 0.04616866 0.014702096 -0.081381686 -0.076232724 -0.00036842667 0.081668094 0.022143047
-0.047280006 -0.027881678 -0.025701875 0.03386749 0.027803127 0.08375107 -0.08542531 -0.03482729
0.071763694 -0.030658744 -0.012127576 0.06448 0.08798837 -0.055777613 0.023395073 0.07802036
-0.042563703 -0.06463239 -0.047849104 -0.016462296 -0.07109275 -0.029726425 -0.053560276 -0.026563652
-0.027920084 0.03813309 -0.000675614 -0.042704735 0.009755173 0.017585373 -0.081417054 -0.081893444
0.067638665 0.07255826 -0.059357524 -0.058917616 -0.04454472 -0.08295801 -0.059250016 -0.018435305
0.028337486 0.08331314 -0.086015016 -0.05926913 -0.079989605 0.046039835 -0.086959936 -0.058366705
0.07422222 0.020135203 0.001897409 0.019708771 0.064107664 0.028454253 -0.07693655 -0.024872888
0.00033779646 0.08223323 -0.056862302 -0.081211835 0.019905334 0.019541113 -0.039962787 -0.064318426
